th/tflite_models/acdnet_95.tflite (tflite, 28120 bytes, 13 tensors)

fuse_attr_3 u1 [7, 1, 9, 1] scale=0.075312234 zero_point=128
0	0x8f	1.1296835
1	0x95	1.5815569
2	0x87	0.5271856
3	0xc5	5.196544
4	0x6c	-1.5062447
5	0x64	-2.1087425
6	0x5c	-2.7112405
7	0x73	-0.97905904
8	0x78	-0.6024979
9	0x7c	-0.30124894
10	0x84	0.30124894
11	0x8f	1.1296835
12	0x67	-1.8828058
13	0x8b	0.8284346
14	0x35	-5.6484175
15	0x61	-2.3346794
16	0xa7	2.9371772
17	0xbf	4.744671
18	0xbe	4.6693587
19	0x78	-0.6024979
20	0x7c	-0.30124894
21	0x67	-1.8828058
22	0x87	0.5271856
23	0x70	-1.2049958
24	0x88	0.6024979
25	0xaf	3.539675
26	0x5c	-2.7112405
27	0x59	-2.9371772
28	0x54	-3.3137383
29	0x82	0.15062447
30	0xab	3.238426
31	0x85	0.37656116
32	0x95	1.5815569
33	0x6c	-1.5062447
34	0x82	0.15062447
35	0x86	0.45187342
36	0x80	0.0
37	0x89	0.67781013
38	0x70	-1.2049958
39	0x87	0.5271856
40	0x80	0.0
41	0x98	1.8074937
42	0xc5	5.196544
43	0x4d	-3.840924
44	0x53	-3.3890505
45	0x85	0.37656116
46	0x8c	0.90374684
47	0x5e	-2.560616
48	0xb7	4.142173
49	0x01	-9.564653
50	0xe3	7.455911
51	0x94	1.5062447
52	0x00	-9.639966
53	0xda	6.778101
54	0x73	-0.97905904
55	0x69	-1.7321814
56	0x7c	-0.30124894
57	0x98	1.8074937
58	0x88	0.6024979
59	0x89	0.67781013
60	0x64	-2.1087425
61	0x8d	0.97905904
62	0xc0	4.819983

fuse_attr_11 u1 [15, 3, 3, 17] scale=0.008306311 zero_point=128
0	0x80	0.0
1	0x7f	-0.008306311
2	0x80	0.0
3	0x80	0.0
4	0x59	-0.32394615
5	0x80	0.0
6	0x81	0.008306311
7	0x80	0.0
8	0x80	0.0
9	0x80	0.0
10	0x5a	-0.31563982
11	0x80	0.0
12	0x7f	-0.008306311
13	0x80	0.0
14	0x7f	-0.008306311
15	0x80	0.0
16	0x80	0.0
17	0x7f	-0.008306311
18	0x7f	-0.008306311
19	0x54	-0.3654777
20	0x80	0.0
21	0x7f	-0.008306311
22	0x80	0.0
23	0x81	0.008306311
24	0x80	0.0
25	0x80	0.0
26	0x80	0.0
27	0x56	-0.3488651
28	0x43	-0.506685
29	0x59	-0.32394615
30	0x80	0.0
31	0x7f	-0.008306311
32	0x7f	-0.008306311
33	0x80	0.0
34	0x80	0.0
35	0x80	0.0
36	0x80	0.0
37	0x55	-0.3571714
38	0x80	0.0
39	0x81	0.008306311
40	0x81	0.008306311
41	0xaf	0.39039662
42	0x81	0.008306311
43	0x80	0.0
44	0x5c	-0.2990272
45	0x54	-0.3654777
46	0x50	-0.39870295
47	0x80	0.0
48	0x52	-0.38209033
49	0x7f	-0.008306311
50	0x80	0.0
51	0xbe	0.5149913
52	0x7f	-0.008306311
53	0x80	0.0
54	0x5a	-0.31563982
55	0x7f	-0.008306311
56	0x80	0.0
57	0x80	0.0
58	0x80	0.0
59	0x7f	-0.008306311
60	0x80	0.0
61	0xb4	0.4319282
62	0x81	0.008306311
63	0x7f	-0.008306311
64	0x7f	-0.008306311
65	0x7f	-0.008306311
66	0x80	0.0
67	0x80	0.0
68	0x7f	-0.008306311
69	0x7f	-0.008306311
70	0x58	-0.33225244
71	0x80	0.0
72	0x80	0.0
73	0x80	0.0
74	0x80	0.0
75	0x7f	-0.008306311
76	0x7f	-0.008306311
77	0x7f	-0.008306311
78	0x7f	-0.008306311
79	0x80	0.0
80	0x7f	-0.008306311
81	0x7f	-0.008306311
82	0x7f	-0.008306311
83	0x7f	-0.008306311
84	0x80	0.0
85	0x4b	-0.4402345
86	0x7f	-0.008306311
87	0x5c	-0.2990272
88	0x80	0.0
89	0x80	0.0
90	0x7f	-0.008306311
91	0xad	0.373784
92	0x80	0.0
93	0x5d	-0.2907209
94	0x7e	-0.016612623
95	0x51	-0.39039662
96	0x80	0.0
97	0x5c	-0.2990272
98	0x80	0.0
99	0x54	-0.3654777
100	0x7f	-0.008306311
101	0x4d	-0.4236219
102	0x80	0.0
103	0x7f	-0.008306311
104	0x80	0.0
105	0x80	0.0
106	0x7f	-0.008306311
107	0x80	0.0
108	0x80	0.0
109	0x80	0.0
110	0x81	0.008306311
111	0x80	0.0
112	0xb1	0.40700927
113	0x80	0.0
114	0x7e	-0.016612623
115	0x7f	-0.008306311
116	0x80	0.0
117	0x80	0.0
118	0x7f	-0.008306311
119	0x51	-0.39039662
120	0x80	0.0
121	0x4f	-0.40700927
122	0x80	0.0
123	0x7f	-0.008306311
124	0x80	0.0
125	0x80	0.0
126	0x53	-0.373784
127	0x81	0.008306311
128	0x7f	-0.008306311
129	0x7f	-0.008306311
130	0x45	-0.49007237
131	0x49	-0.45684713
132	0x7f	-0.008306311
133	0x80	0.0
134	0x80	0.0
135	0x7e	-0.016612623
136	0x80	0.0
137	0x80	0.0
138	0x80	0.0
139	0x80	0.0
140	0x59	-0.32394615
141	0x80	0.0
142	0x80	0.0
143	0x80	0.0
144	0x53	-0.373784
145	0x7f	-0.008306311
146	0xbc	0.4983787
147	0xc0	0.53160393
148	0x7e	-0.016612623
149	0x80	0.0
150	0x7f	-0.008306311
151	0x80	0.0
152	0x32	-0.6478923
153	0x80	0.0
154	0x80	0.0
155	0x47	-0.47345975
156	0xac	0.3654777
157	0x80	0.0
158	0x80	0.0
159	0x7f	-0.008306311
160	0x80	0.0
161	0x80	0.0
162	0x56	-0.3488651
163	0x55	-0.3571714
164	0x80	0.0
165	0x80	0.0
166	0x80	0.0
167	0x56	-0.3488651
168	0x7f	-0.008306311
169	0x80	0.0
170	0x80	0.0
171	0x4b	-0.4402345
172	0x54	-0.3654777
173	0xcc	0.63127965
174	0x80	0.0
175	0x80	0.0
176	0x80	0.0
177	0x7f	-0.008306311
178	0x80	0.0
179	0x80	0.0
180	0x80	0.0
181	0x80	0.0
182	0x80	0.0
183	0x80	0.0
184	0x35	-0.6229734
185	0x7f	-0.008306311
186	0x81	0.008306311
187	0x49	-0.45684713
188	0x80	0.0
189	0x80	0.0
190	0x80	0.0
191	0x80	0.0
192	0x80	0.0
193	0x55	-0.3571714
194	0x80	0.0
195	0x80	0.0
196	0x80	0.0
197	0x80	0.0
198	0x80	0.0
199	0x80	0.0
200	0x80	0.0
201	0x4a	-0.4485408
202	0x80	0.0
203	0x81	0.008306311
204	0x80	0.0
205	0x80	0.0
206	0x80	0.0
207	0x80	0.0
208	0x80	0.0
209	0x80	0.0
210	0x3b	-0.5731355
211	0x42	-0.5149913
212	0x80	0.0
213	0x50	-0.39870295
214	0xbb	0.49007237
215	0x80	0.0
216	0x80	0.0
217	0xae	0.38209033
218	0x80	0.0
219	0x80	0.0
220	0x80	0.0
221	0x80	0.0
222	0x37	-0.60636073
223	0xab	0.3571714
224	0x80	0.0
225	0x58	-0.33225244
226	0x80	0.0
227	0x7f	-0.008306311
228	0x80	0.0
229	0x80	0.0
230	0x80	0.0
231	0x80	0.0
232	0x7f	-0.008306311
233	0x55	-0.3571714
234	0x80	0.0
235	0x80	0.0
236	0x80	0.0
237	0x81	0.008306311
238	0x80	0.0
239	0x80	0.0
240	0xa9	0.34055877
241	0x80	0.0
242	0x80	0.0
243	0x80	0.0
244	0xe4	0.83063114
245	0xbf	0.5232976
246	0x80	0.0
247	0x80	0.0
248	0x39	-0.5897481
249	0x4c	-0.4319282
250	0x80	0.0
251	0x80	0.0
252	0x80	0.0
253	0x7f	-0.008306311
254	0x81	0.008306311
255	0x80	0.0

Xq.1_attr u1 [6, 6] scale=0.0049757054 zero_point=128
0	0x71	-0.07463558
1	0x2f	-0.40303212
2	0x9c	0.13931975
3	0x32	-0.38810503
4	0xa9	0.20400392
5	0x43	-0.30351803
6	0x38	-0.3582508
7	0x69	-0.11444122
8	0x29	-0.43288636
9	0xf7	0.59210896
10	0xff	0.6319146
11	0x58	-0.19902822
12	0x67	-0.124392636
13	0x55	-0.21395533
14	0x71	-0.07463558
15	0x4d	-0.25376096
16	0x7b	-0.024878528
17	0xac	0.21893103
18	0x94	0.09951411
19	0x38	-0.3582508
20	0x7e	-0.009951411
21	0x35	-0.37317792
22	0x91	0.08458699
23	0x79	-0.034829937
24	0x31	-0.39308074
25	0x66	-0.12936834
26	0x38	-0.3582508
27	0x7e	-0.009951411
28	0x55	-0.21395533
29	0xb3	0.25376096
30	0xde	0.4677163
31	0xc3	0.33337227
32	0xcd	0.38312933
33	0x7e	-0.009951411
34	0x43	-0.30351803
35	0x25	-0.4527892

fuse_attr_7 u1 [17, 3, 3, 17] scale=0.007830216 zero_point=128
0	0x96	0.17226474
1	0x63	-0.22707625
2	0x80	0.0
3	0x5f	-0.2583971
4	0x69	-0.18009496
5	0x80	0.0
6	0x9e	0.23490646
7	0x9a	0.20358561
8	0x81	0.007830216
9	0x6d	-0.1487741
10	0x82	0.015660431
11	0x55	-0.33669928
12	0x80	0.0
13	0x80	0.0
14	0x67	-0.19575539
15	0x80	0.0
16	0x6a	-0.17226474
17	0x81	0.007830216
18	0x80	0.0
19	0x80	0.0
20	0x6c	-0.15660432
21	0x81	0.007830216
22	0x80	0.0
23	0x80	0.0
24	0x80	0.0
25	0x9d	0.22707625
26	0x81	0.007830216
27	0x81	0.007830216
28	0x6e	-0.14094388
29	0x6b	-0.16443452
30	0x80	0.0
31	0x81	0.007830216
32	0x80	0.0
33	0x55	-0.33669928
34	0x81	0.007830216
35	0x80	0.0
36	0x80	0.0
37	0x81	0.007830216
38	0x81	0.007830216
39	0x80	0.0
40	0x80	0.0
41	0x81	0.007830216
42	0x81	0.007830216
43	0x81	0.007830216
44	0x81	0.007830216
45	0x80	0.0
46	0x80	0.0
47	0x80	0.0
48	0xa5	0.28971797
49	0x80	0.0
50	0x80	0.0
51	0x6d	-0.1487741
52	0x62	-0.23490646
53	0x81	0.007830216
54	0x81	0.007830216
55	0x80	0.0
56	0x7f	-0.007830216
57	0x80	0.0
58	0x80	0.0
59	0x81	0.007830216
60	0x80	0.0
61	0x81	0.007830216
62	0xa9	0.32103884
63	0xa7	0.3053784
64	0x80	0.0
65	0x41	-0.4933036
66	0x96	0.17226474
67	0xc5	0.5402849
68	0x52	-0.3601899
69	0x5d	-0.27405754
70	0x81	0.007830216
71	0x81	0.007830216
72	0x58	-0.31320864
73	0x5f	-0.2583971
74	0x5a	-0.2975482
75	0x60	-0.2505669
76	0x81	0.007830216
77	0x65	-0.21141583
78	0x81	0.007830216
79	0x80	0.0
80	0x96	0.17226474
81	0x80	0.0
82	0x62	-0.23490646
83	0x80	0.0
84	0xbf	0.4933036
85	0x59	-0.3053784
86	0x81	0.007830216
87	0x81	0.007830216
88	0x81	0.007830216
89	0x5e	-0.26622733
90	0x57	-0.32103884
91	0x4f	-0.38368055
92	0x6d	-0.1487741
93	0x81	0.007830216
94	0x80	0.0
95	0x81	0.007830216
96	0x80	0.0
97	0x81	0.007830216
98	0xa8	0.31320864
99	0x39	-0.55594534
100	0x81	0.007830216
101	0x95	0.16443452
102	0x80	0.0
103	0x80	0.0
104	0x6d	-0.1487741
105	0x80	0.0
106	0xb3	0.399341
107	0xa2	0.26622733
108	0x9c	0.21924603
109	0x80	0.0
110	0x62	-0.23490646
111	0x81	0.007830216
112	0xa1	0.2583971
113	0x64	-0.21924603
114	0x57	-0.32103884
115	0x5e	-0.26622733
116	0xb7	0.43066186
117	0x6d	-0.1487741
118	0x57	-0.32103884
119	0x93	0.1487741
120	0x80	0.0
121	0x80	0.0
122	0x80	0.0
123	0xad	0.3523597
124	0x94	0.15660432
125	0x80	0.0
126	0x80	0.0
127	0x80	0.0
128	0x81	0.007830216
129	0x81	0.007830216
130	0x6d	-0.1487741
131	0x80	0.0
132	0x57	-0.32103884
133	0xa2	0.26622733
134	0x6b	-0.16443452
135	0x34	-0.5950964
136	0x9c	0.21924603
137	0xa6	0.2975482
138	0x80	0.0
139	0x60	-0.2505669
140	0x9a	0.20358561
141	0x9f	0.24273668
142	0xad	0.3523597
143	0x80	0.0
144	0x6c	-0.15660432
145	0x9a	0.20358561
146	0x81	0.007830216
147	0x94	0.15660432
148	0x5e	-0.26622733
149	0x67	-0.19575539
150	0xb2	0.39151078
151	0x59	-0.3053784
152	0x4e	-0.39151078
153	0x80	0.0
154	0x80	0.0
155	0x80	0.0
156	0x94	0.15660432
157	0x80	0.0
158	0x80	0.0
159	0x80	0.0
160	0x80	0.0
161	0x80	0.0
162	0x80	0.0
163	0x80	0.0
164	0x80	0.0
165	0x80	0.0
166	0x7f	-0.007830216
167	0x80	0.0
168	0x80	0.0
169	0x80	0.0
170	0x7f	-0.007830216
171	0x67	-0.19575539
172	0x80	0.0
173	0x80	0.0
174	0x80	0.0
175	0x80	0.0
176	0x80	0.0
177	0x6c	-0.15660432
178	0x80	0.0
179	0x6a	-0.17226474
180	0x7f	-0.007830216
181	0x65	-0.21141583
182	0x80	0.0
183	0x99	0.19575539
184	0x67	-0.19575539
185	0x80	0.0
186	0x93	0.1487741
187	0x7f	-0.007830216
188	0x80	0.0
189	0x7f	-0.007830216
190	0x80	0.0
191	0x65	-0.21141583
192	0x80	0.0
193	0x99	0.19575539
194	0x5d	-0.27405754
195	0x97	0.18009496
196	0x66	-0.20358561
197	0x90	0.12528345
198	0x63	-0.22707625
199	0x6b	-0.16443452
200	0x80	0.0
201	0x5e	-0.26622733
202	0x80	0.0
203	0x92	0.14094388
204	0x80	0.0
205	0x7f	-0.007830216
206	0x80	0.0
207	0x68	-0.18792517
208	0x7f	-0.007830216
209	0x80	0.0
210	0x80	0.0
211	0x80	0.0
212	0x80	0.0
213	0x80	0.0
214	0x6c	-0.15660432
215	0x80	0.0
216	0x7f	-0.007830216
217	0x64	-0.21924603
218	0x95	0.16443452
219	0x80	0.0
220	0x42	-0.48547336
221	0x91	0.13311367
222	0x7f	-0.007830216
223	0x7f	-0.007830216
224	0x7f	-0.007830216
225	0x7f	-0.007830216
226	0x7f	-0.007830216
227	0x7f	-0.007830216
228	0x9e	0.23490646
229	0x7f	-0.007830216
230	0x97	0.18009496
231	0x5b	-0.28971797
232	0x80	0.0
233	0x7f	-0.007830216
234	0x80	0.0
235	0x7f	-0.007830216
236	0x62	-0.23490646
237	0x2b	-0.66556835
238	0x99	0.19575539
239	0xae	0.3601899
240	0x94	0.15660432
241	0x7f	-0.007830216
242	0x7f	-0.007830216
243	0xa1	0.2583971
244	0xa8	0.31320864
245	0x80	0.0
246	0x7f	-0.007830216
247	0x7f	-0.007830216
248	0x46	-0.4541525
249	0x97	0.18009496
250	0x7f	-0.007830216
251	0x4c	-0.40717122
252	0x98	0.18792517
253	0x4c	-0.40717122
254	0x39	-0.55594534
255	0x63	-0.22707625

fuse_attr_4 u1 [32, 1, 5, 7] scale=0.0098518785 zero_point=128
0	0x66	-0.25614884
1	0x76	-0.09851879
2	0x59	-0.38422325
3	0x8b	0.10837066
4	0x80	0.0
5	0x76	-0.09851879
6	0x4e	-0.4925939
7	0x62	-0.29555637
8	0x74	-0.11822254
9	0x66	-0.25614884
10	0x9b	0.26600072
11	0x95	0.20688945
12	0x7f	-0.0098518785
13	0x58	-0.39407516
14	0x71	-0.14777818
15	0x7f	-0.0098518785
16	0x5d	-0.34481576
17	0x9e	0.29555637
18	0x80	0.0
19	0x80	0.0
20	0x51	-0.4630383
21	0x6f	-0.16748193
22	0x8d	0.12807442
23	0x53	-0.44333452
24	0xa4	0.35466763
25	0x80	0.0
26	0x80	0.0
27	0x5e	-0.33496386
28	0x80	0.0
29	0x76	-0.09851879
30	0x69	-0.22659321
31	0xa6	0.37437138
32	0x71	-0.14777818
33	0x80	0.0
34	0x51	-0.4630383
35	0x5a	-0.37437138
36	0x88	0.07881503
37	0x63	-0.28570446
38	0xab	0.42363077
39	0x7a	-0.05911127
40	0x80	0.0
41	0x2e	-0.80785406
42	0x61	-0.30540824
43	0x79	-0.06896315
44	0x75	-0.10837066
45	0x95	0.20688945
46	0x80	0.0
47	0x80	0.0
48	0x47	-0.56155705
49	0x70	-0.15763006
50	0x72	-0.1379263
51	0x76	-0.09851879
52	0x91	0.16748193
53	0x88	0.07881503
54	0x80	0.0
55	0x66	-0.25614884
56	0x6b	-0.20688945
57	0x61	-0.30540824
58	0x71	-0.14777818
59	0x97	0.22659321
60	0x8c	0.11822254
61	0x74	-0.11822254
62	0x7a	-0.05911127
63	0x7a	-0.05911127
64	0x46	-0.5714089
65	0x7a	-0.05911127
66	0x80	0.0
67	0x92	0.17733382
68	0x7a	-0.05911127
69	0x89	0.08866691
70	0x6e	-0.17733382
71	0x80	0.0
72	0x66	-0.25614884
73	0x91	0.16748193
74	0x7b	-0.049259394
75	0x80	0.0
76	0x5f	-0.325112
77	0x6d	-0.18718569
78	0x79	-0.06896315
79	0x72	-0.1379263
80	0x9d	0.28570446
81	0x84	0.039407514
82	0x80	0.0
83	0x5c	-0.35466763
84	0x67	-0.24629696
85	0x80	0.0
86	0x78	-0.07881503
87	0x9a	0.25614884
88	0x87	0.06896315
89	0x80	0.0
90	0x6c	-0.19703758
91	0x70	-0.15763006
92	0x80	0.0
93	0x6f	-0.16748193
94	0x99	0.24629696
95	0x80	0.0
96	0x80	0.0
97	0x71	-0.14777818
98	0x70	-0.15763006
99	0x7f	-0.0098518785
100	0x73	-0.12807442
101	0x97	0.22659321
102	0x80	0.0
103	0x7f	-0.0098518785
104	0x67	-0.24629696
105	0x7e	-0.019703757
106	0x3e	-0.650224
107	0xf1	1.1132623
108	0x44	-0.59111273
109	0x8f	0.14777818
110	0x7f	-0.0098518785
111	0xd5	0.8374097
112	0x7f	-0.0098518785
113	0x64	-0.2758526
114	0xd9	0.87681717
115	0x1e	-0.9654841
116	0x7f	-0.0098518785
117	0x7e	-0.019703757
118	0xe9	1.0344472
119	0x8d	0.12807442
120	0x66	-0.25614884
121	0xc9	0.71918714
122	0x5a	-0.37437138
123	0x8a	0.09851879
124	0x7f	-0.0098518785
125	0xd8	0.8669653
126	0x74	-0.11822254
127	0x5d	-0.34481576
128	0xac	0.43348265
129	0x44	-0.59111273
130	0x7f	-0.0098518785
131	0x80	0.0
132	0xf2	1.1231141
133	0x5a	-0.37437138
134	0x6a	-0.21674132
135	0x9f	0.30540824
136	0x53	-0.44333452
137	0x6d	-0.18718569
138	0x7e	-0.019703757
139	0xff	1.2511885
140	0x94	0.19703758
141	0x6a	-0.21674132
142	0xa4	0.35466763
143	0x67	-0.24629696
144	0x84	0.039407514
145	0x80	0.0
146	0x77	-0.08866691
147	0x8e	0.1379263
148	0x6a	-0.21674132
149	0x90	0.15763006
150	0x70	-0.15763006
151	0x85	0.049259394
152	0x80	0.0
153	0x69	-0.22659321
154	0x77	-0.08866691
155	0x7a	-0.05911127
156	0x8d	0.12807442
157	0x6f	-0.16748193
158	0x86	0.05911127
159	0x80	0.0
160	0x5c	-0.35466763
161	0x80	0.0
162	0x73	-0.12807442
163	0x89	0.08866691
164	0x7c	-0.039407514
165	0x90	0.15763006
166	0x76	-0.09851879
167	0x68	-0.23644508
168	0x8e	0.1379263
169	0x60	-0.3152601
170	0x80	0.0
171	0x72	-0.1379263
172	0x99	0.24629696
173	0x76	-0.09851879
174	0x71	-0.14777818
175	0x73	-0.12807442
176	0x85	0.049259394
177	0x60	-0.3152601
178	0xa7	0.38422325
179	0x80	0.0
180	0x75	-0.10837066
181	0x7b	-0.049259394
182	0x64	-0.2758526
183	0x73	-0.12807442
184	0x7b	-0.049259394
185	0x97	0.22659321
186	0x6e	-0.17733382
187	0x79	-0.06896315
188	0x91	0.16748193
189	0x55	-0.42363077
190	0x80	0.0
191	0x6e	-0.17733382
192	0x8a	0.09851879
193	0x6f	-0.16748193
194	0x80	0.0
195	0x87	0.06896315
196	0x67	-0.24629696
197	0x8b	0.10837066
198	0x7a	-0.05911127
199	0x79	-0.06896315
200	0x6f	-0.16748193
201	0x80	0.0
202	0xa1	0.325112
203	0x6b	-0.20688945
204	0x80	0.0
205	0x80	0.0
206	0x79	-0.06896315
207	0x67	-0.24629696
208	0x8a	0.09851879
209	0xad	0.44333452
210	0x90	0.15763006
211	0x6a	-0.21674132
212	0x9d	0.28570446
213	0x62	-0.29555637
214	0x8b	0.10837066
215	0x80	0.0
216	0x80	0.0
217	0x99	0.24629696
218	0x66	-0.25614884
219	0x8f	0.14777818
220	0x5e	-0.33496386
221	0x97	0.22659321
222	0x7b	-0.049259394
223	0x74	-0.11822254
224	0x92	0.17733382
225	0x68	-0.23644508
226	0x94	0.19703758
227	0x67	-0.24629696
228	0x90	0.15763006
229	0x80	0.0
230	0x6e	-0.17733382
231	0x86	0.05911127
232	0x69	-0.22659321
233	0x78	-0.07881503
234	0x6c	-0.19703758
235	0x89	0.08866691
236	0x80	0.0
237	0x6e	-0.17733382
238	0x81	0.0098518785
239	0x67	-0.24629696
240	0x72	-0.1379263
241	0x6c	-0.19703758
242	0x70	-0.15763006
243	0x7b	-0.049259394
244	0x66	-0.25614884
245	0x70	-0.15763006
246	0x91	0.16748193
247	0x6b	-0.20688945
248	0x95	0.20688945
249	0x7a	-0.05911127
250	0x89	0.08866691
251	0x66	-0.25614884
252	0x5c	-0.35466763
253	0x92	0.17733382
254	0x6c	-0.19703758
255	0xac	0.43348265

fuse_attr_5 u1 [10, 3, 3, 1] scale=0.0065101506 zero_point=128
0	0xf0	0.7291369
1	0x32	-0.50779176
2	0x53	-0.29295677
3	0x6f	-0.11067256
4	0x80	0.0
5	0x88	0.052081205
6	0x78	-0.052081205
7	0x81	0.0065101506
8	0x81	0.0065101506
9	0x8b	0.07161166
10	0x41	-0.4101395
11	0x91	0.11067256
12	0xa4	0.23436542
13	0x39	-0.4622207
14	0x95	0.13671316
15	0x9c	0.18228422
16	0x57	-0.2669162
17	0x91	0.11067256
18	0x90	0.10416241
19	0x91	0.11067256
20	0x5d	-0.22785527
21	0x94	0.13020301
22	0x94	0.13020301
23	0x60	-0.20832482
24	0x8a	0.065101504
25	0x88	0.052081205
26	0x76	-0.065101504
27	0x4f	-0.31899738
28	0x89	0.058591355
29	0x93	0.12369286
30	0x4b	-0.345038
31	0x8e	0.09114211
32	0xa7	0.25389588
33	0x6b	-0.13671316
34	0x88	0.052081205
35	0x90	0.10416241
36	0x42	-0.40362933
37	0xff	0.82678914
38	0x2c	-0.54685265
39	0x81	0.0065101506
40	0x81	0.0065101506
41	0x74	-0.07812181
42	0x81	0.0065101506
43	0x81	0.0065101506
44	0x7c	-0.026040602
45	0x96	0.14322332
46	0x61	-0.20181467
47	0x57	-0.2669162
48	0xab	0.27993646
49	0x63	-0.18879437
50	0x5a	-0.24738573
51	0xa5	0.24087557
52	0x72	-0.09114211
53	0x6b	-0.13671316
54	0x92	0.11718271
55	0x75	-0.07161166
56	0x69	-0.14973347
57	0x9c	0.18228422
58	0x77	-0.058591355
59	0x6a	-0.14322332
60	0x8e	0.09114211
61	0x7a	-0.039060906
62	0x71	-0.09765226
63	0x85	0.032550752
64	0x84	0.026040602
65	0x6e	-0.11718271
66	0x8d	0.08463196
67	0x87	0.045571055
68	0x62	-0.19530451
69	0x5a	-0.24738573
70	0x39	-0.4622207
71	0xeb	0.69658613
72	0xa7	0.25389588
73	0x80	0.0
74	0x38	-0.46873084
75	0xb2	0.32550752
76	0x80	0.0
77	0x42	-0.40362933
78	0x44	-0.39060903
79	0x8b	0.07161166
80	0xa5	0.24087557
81	0x5d	-0.22785527
82	0x54	-0.28644663
83	0xb0	0.31248724
84	0x61	-0.20181467
85	0x57	-0.2669162
86	0xbe	0.40362933
87	0x7d	-0.019530453
88	0x64	-0.18228422
89	0x9a	0.16926391

fuse_attr_13 u1 [12, 3, 3, 16] scale=0.009645425 zero_point=128
0	0x80	0.0
1	0x81	0.009645425
2	0x80	0.0
3	0x7f	-0.009645425
4	0xa4	0.3472353
5	0x81	0.009645425
6	0x80	0.0
7	0x80	0.0
8	0x80	0.0
9	0x80	0.0
10	0x5d	-0.33758986
11	0x7f	-0.009645425
12	0x7f	-0.009645425
13	0xb4	0.5015621
14	0xab	0.41475326
15	0x2d	-0.80057025
16	0x4f	-0.47262582
17	0x81	0.009645425
18	0x7f	-0.009645425
19	0x7f	-0.009645425
20	0x81	0.009645425
21	0x81	0.009645425
22	0x80	0.0
23	0x80	0.0
24	0x80	0.0
25	0x80	0.0
26	0x7f	-0.009645425
27	0x7f	-0.009645425
28	0x80	0.0
29	0xa3	0.33758986
30	0x84	0.0385817
31	0x54	-0.4243987
32	0x42	-0.5980163
33	0x81	0.009645425
34	0x7f	-0.009645425
35	0x7f	-0.009645425
36	0x82	0.01929085
37	0x81	0.009645425
38	0x9f	0.29900816
39	0x80	0.0
40	0x80	0.0
41	0x80	0.0
42	0x7f	-0.009645425
43	0x7f	-0.009645425
44	0x80	0.0
45	0xbe	0.5980163
46	0x84	0.0385817
47	0x81	0.009645425
48	0x60	-0.3086536
49	0x80	0.0
50	0x80	0.0
51	0x56	-0.40510786
52	0x86	0.05787255
53	0xa7	0.37617156
54	0x80	0.0
55	0x80	0.0
56	0x55	-0.41475326
57	0x7f	-0.009645425
58	0x5d	-0.33758986
59	0x7f	-0.009645425
60	0x80	0.0
61	0xa8	0.385817
62	0x81	0.009645425
63	0x37	-0.704116
64	0x43	-0.5883709
65	0x80	0.0
66	0x80	0.0
67	0x80	0.0
68	0x86	0.05787255
69	0x7f	-0.009645425
70	0x80	0.0
71	0x80	0.0
72	0x7f	-0.009645425
73	0x7f	-0.009645425
74	0x7f	-0.009645425
75	0x7f	-0.009645425
76	0x80	0.0
77	0xa8	0.385817
78	0x81	0.009645425
79	0x62	-0.28936273
80	0x45	-0.56908005
81	0x80	0.0
82	0x80	0.0
83	0x80	0.0
84	0x85	0.048227124
85	0x7f	-0.009645425
86	0x80	0.0
87	0x81	0.009645425
88	0x61	-0.29900816
89	0x7f	-0.009645425
90	0x7f	-0.009645425
91	0x7f	-0.009645425
92	0x7f	-0.009645425
93	0xa9	0.39546242
94	0x81	0.009645425
95	0x80	0.0
96	0x80	0.0
97	0x80	0.0
98	0x80	0.0
99	0x58	-0.385817
100	0x81	0.009645425
101	0x7f	-0.009645425
102	0x80	0.0
103	0x80	0.0
104	0x54	-0.4243987
105	0x7f	-0.009645425
106	0x56	-0.40510786
107	0x80	0.0
108	0x7f	-0.009645425
109	0x80	0.0
110	0x81	0.009645425
111	0x56	-0.40510786
112	0x51	-0.45333496
113	0x80	0.0
114	0x7f	-0.009645425
115	0x80	0.0
116	0x81	0.009645425
117	0x7f	-0.009645425
118	0x80	0.0
119	0x80	0.0
120	0x7f	-0.009645425
121	0x7f	-0.009645425
122	0x7f	-0.009645425
123	0x80	0.0
124	0x7f	-0.009645425
125	0x80	0.0
126	0x81	0.009645425
127	0x80	0.0
128	0x54	-0.4243987
129	0x80	0.0
130	0x7f	-0.009645425
131	0x80	0.0
132	0x81	0.009645425
133	0x7f	-0.009645425
134	0x80	0.0
135	0x80	0.0
136	0x7f	-0.009645425
137	0x7f	-0.009645425
138	0x7f	-0.009645425
139	0x80	0.0
140	0x7f	-0.009645425
141	0x80	0.0
142	0x81	0.009645425
143	0x80	0.0
144	0x80	0.0
145	0x80	0.0
146	0x80	0.0
147	0x80	0.0
148	0x56	-0.40510786
149	0x80	0.0
150	0x80	0.0
151	0xa0	0.3086536
152	0x80	0.0
153	0x80	0.0
154	0x80	0.0
155	0x80	0.0
156	0xaf	0.45333496
157	0x80	0.0
158	0x60	-0.3086536
159	0x80	0.0
160	0x80	0.0
161	0x80	0.0
162	0x80	0.0
163	0x80	0.0
164	0x80	0.0
165	0x80	0.0
166	0x80	0.0
167	0x80	0.0
168	0x80	0.0
169	0x80	0.0
170	0x80	0.0
171	0x80	0.0
172	0x80	0.0
173	0x80	0.0
174	0x5e	-0.32794446
175	0x80	0.0
176	0x80	0.0
177	0x80	0.0
178	0x80	0.0
179	0x80	0.0
180	0x80	0.0
181	0x80	0.0
182	0x80	0.0
183	0x80	0.0
184	0x80	0.0
185	0x80	0.0
186	0x80	0.0
187	0x80	0.0
188	0xe2	0.94525164
189	0x80	0.0
190	0x80	0.0
191	0xa7	0.37617156
192	0x80	0.0
193	0xa2	0.32794446
194	0x80	0.0
195	0x80	0.0
196	0x7f	-0.009645425
197	0x80	0.0
198	0x80	0.0
199	0x80	0.0
200	0x43	-0.5883709
201	0x50	-0.4629804
202	0x80	0.0
203	0x80	0.0
204	0x80	0.0
205	0x5d	-0.33758986
206	0x80	0.0
207	0x80	0.0
208	0x80	0.0
209	0x80	0.0
210	0x80	0.0
211	0xa3	0.33758986
212	0x7f	-0.009645425
213	0x80	0.0
214	0x80	0.0
215	0x80	0.0
216	0x55	-0.41475326
217	0x42	-0.5980163
218	0x80	0.0
219	0x80	0.0
220	0xb3	0.49191666
221	0x80	0.0
222	0xae	0.44368953
223	0x80	0.0
224	0x80	0.0
225	0x80	0.0
226	0x80	0.0
227	0x80	0.0
228	0x7f	-0.009645425
229	0x80	0.0
230	0x80	0.0
231	0x80	0.0
232	0x80	0.0
233	0x5c	-0.3472353
234	0x80	0.0
235	0x80	0.0
236	0x80	0.0
237	0x80	0.0
238	0x7f	-0.009645425
239	0x80	0.0
240	0x80	0.0
241	0x80	0.0
242	0x80	0.0
243	0x9f	0.29900816
244	0x7f	-0.009645425
245	0x80	0.0
246	0x80	0.0
247	0x80	0.0
248	0x80	0.0
249	0x46	-0.55943465
250	0x80	0.0
251	0x80	0.0
252	0x80	0.0
253	0x80	0.0
254	0xb6	0.5208529
255	0x80	0.0

fuse_attr_10 u1 [17, 3, 3, 16] scale=0.0034409186 zero_point=128
0	0x80	0.0
1	0xa7	0.13419582
2	0x81	0.0034409186
3	0x5b	-0.12731399
4	0xa0	0.1101094
5	0x80	0.0
6	0x81	0.0034409186
7	0x81	0.0034409186
8	0x80	0.0
9	0xa5	0.12731399
10	0x58	-0.13763675
11	0x80	0.0
12	0x80	0.0
13	0x80	0.0
14	0xac	0.15140042
15	0x81	0.0034409186
16	0x81	0.0034409186
17	0xa5	0.12731399
18	0x81	0.0034409186
19	0x80	0.0
20	0x81	0.0034409186
21	0x80	0.0
22	0x81	0.0034409186
23	0x80	0.0
24	0x4a	-0.18580961
25	0x80	0.0
26	0x33	-0.26495072
27	0x80	0.0
28	0x4b	-0.18236868
29	0x80	0.0
30	0xa6	0.1307549
31	0x81	0.0034409186
32	0x80	0.0
33	0xb2	0.17204593
34	0x81	0.0034409186
35	0x80	0.0
36	0x81	0.0034409186
37	0x80	0.0
38	0x81	0.0034409186
39	0x51	-0.16172318
40	0x80	0.0
41	0x55	-0.1479595
42	0x4f	-0.16860501
43	0x81	0.0034409186
44	0x55	-0.1479595
45	0x80	0.0
46	0x62	-0.103227556
47	0x81	0.0034409186
48	0x80	0.0
49	0x80	0.0
50	0x5d	-0.12043215
51	0x60	-0.1101094
52	0x7f	-0.0034409186
53	0x58	-0.13763675
54	0x80	0.0
55	0x80	0.0
56	0x5b	-0.12731399
57	0xc4	0.23398247
58	0x80	0.0
59	0x81	0.0034409186
60	0x80	0.0
61	0x80	0.0
62	0x7f	-0.0034409186
63	0x80	0.0
64	0x80	0.0
65	0x81	0.0034409186
66	0x5f	-0.11355031
67	0x80	0.0
68	0x7f	-0.0034409186
69	0x7f	-0.0034409186
70	0x80	0.0
71	0x9e	0.103227556
72	0x45	-0.2030142
73	0xb6	0.18580961
74	0x50	-0.1651641
75	0x81	0.0034409186
76	0x51	-0.16172318
77	0x80	0.0
78	0x7f	-0.0034409186
79	0x80	0.0
80	0x80	0.0
81	0xa1	0.11355031
82	0x80	0.0
83	0x80	0.0
84	0x55	-0.1479595
85	0x7f	-0.0034409186
86	0xa7	0.13419582
87	0x80	0.0
88	0x80	0.0
89	0x52	-0.15828225
90	0x5f	-0.11355031
91	0x81	0.0034409186
92	0x53	-0.15484133
93	0x80	0.0
94	0x80	0.0
95	0x5f	-0.11355031
96	0x80	0.0
97	0x80	0.0
98	0xa4	0.12387307
99	0x80	0.0
100	0x80	0.0
101	0x80	0.0
102	0x80	0.0
103	0x80	0.0
104	0x7f	-0.0034409186
105	0x80	0.0
106	0x80	0.0
107	0x80	0.0
108	0x80	0.0
109	0x80	0.0
110	0x80	0.0
111	0x80	0.0
112	0xa1	0.11355031
113	0x80	0.0
114	0x80	0.0
115	0x80	0.0
116	0x80	0.0
117	0x80	0.0
118	0x80	0.0
119	0xb7	0.18925053
120	0xa1	0.11355031
121	0xa6	0.1307549
122	0x7f	-0.0034409186
123	0x80	0.0
124	0x80	0.0
125	0x80	0.0
126	0x80	0.0
127	0x80	0.0
128	0x80	0.0
129	0x80	0.0
130	0x80	0.0
131	0x80	0.0
132	0x80	0.0
133	0x80	0.0
134	0x5a	-0.1307549
135	0x80	0.0
136	0x80	0.0
137	0x80	0.0
138	0x80	0.0
139	0x9f	0.10666848
140	0x80	0.0
141	0x80	0.0
142	0x80	0.0
143	0x80	0.0
144	0x80	0.0
145	0x94	0.068818375
146	0x80	0.0
147	0x80	0.0
148	0x80	0.0
149	0x80	0.0
150	0x80	0.0
151	0x80	0.0
152	0x80	0.0
153	0x80	0.0
154	0x80	0.0
155	0x80	0.0
156	0x80	0.0
157	0x80	0.0
158	0x80	0.0
159	0x80	0.0
160	0x51	-0.16172318
161	0x80	0.0
162	0x80	0.0
163	0x80	0.0
164	0x80	0.0
165	0x5f	-0.11355031
166	0x80	0.0
167	0x64	-0.09634572
168	0x6a	-0.07570021
169	0x80	0.0
170	0x80	0.0
171	0x69	-0.079141125
172	0x64	-0.09634572
173	0x66	-0.08946388
174	0x54	-0.15140042
175	0x80	0.0
176	0x80	0.0
177	0x80	0.0
178	0x80	0.0
179	0x80	0.0
180	0x80	0.0
181	0x5c	-0.12387307
182	0x80	0.0
183	0x80	0.0
184	0x80	0.0
185	0x9a	0.08946388
186	0x80	0.0
187	0x80	0.0
188	0x68	-0.08258205
189	0x66	-0.08946388
190	0x9b	0.092904806
191	0x80	0.0
192	0x66	-0.08946388
193	0x80	0.0
194	0x80	0.0
195	0x96	0.07570021
196	0x80	0.0
197	0x80	0.0
198	0x80	0.0
199	0x80	0.0
200	0x6b	-0.07225929
201	0x80	0.0
202	0x51	-0.16172318
203	0x80	0.0
204	0x57	-0.14107767
205	0x69	-0.079141125
206	0x80	0.0
207	0x80	0.0
208	0x4a	-0.18580961
209	0x65	-0.092904806
210	0x80	0.0
211	0x9c	0.09634572
212	0x80	0.0
213	0x5b	-0.12731399
214	0x80	0.0
215	0x54	-0.15140042
216	0x67	-0.086022966
217	0x80	0.0
218	0x5a	-0.1307549
219	0x80	0.0
220	0x53	-0.15484133
221	0x59	-0.13419582
222	0x55	-0.1479595
223	0x80	0.0
224	0x67	-0.086022966
225	0x80	0.0
226	0x80	0.0
227	0x98	0.08258205
228	0x80	0.0
229	0x5b	-0.12731399
230	0x80	0.0
231	0x80	0.0
232	0x5b	-0.12731399
233	0x80	0.0
234	0x67	-0.086022966
235	0x80	0.0
236	0x56	-0.14451858
237	0x5a	-0.1307549
238	0x80	0.0
239	0x80	0.0
240	0x80	0.0
241	0x9a	0.08946388
242	0x80	0.0
243	0x80	0.0
244	0x80	0.0
245	0x80	0.0
246	0xa2	0.11699124
247	0x95	0.07225929
248	0x97	0.079141125
249	0x80	0.0
250	0x80	0.0
251	0x80	0.0
252	0x80	0.0
253	0x80	0.0
254	0x80	0.0
255	0x9b	0.092904806

fuse_attr_14 u1 [6, 1, 1, 12] scale=0.0743758 zero_point=128
0	0x7e	-0.1487516
1	0x9d	2.1568983
2	0x6b	-1.5618918
3	0xbf	4.6856756
4	0xa6	2.8262804
5	0x70	-1.1900128
6	0x80	0.0
7	0x80	0.0
8	0xad	3.346911
9	0x81	0.0743758
10	0x6a	-1.6362677
11	0x7f	-0.0743758
12	0xad	3.346911
13	0x3d	-4.9831786
14	0x9f	2.3056498
15	0xa1	2.4544015
16	0x5e	-2.5287771
17	0x61	-2.3056498
18	0x45	-4.388172
19	0xb6	4.016293
20	0x84	0.2975032
21	0x81	0.0743758
22	0x9c	2.0825224
23	0xa1	2.4544015
24	0x3d	-4.9831786
25	0x4e	-3.71879
26	0x36	-5.5038095
27	0x67	-1.859395
28	0xc1	4.834427
29	0xc2	4.908803
30	0xe3	7.3632045
31	0xbc	4.4625483
32	0xff	9.445726
33	0x81	0.0743758
34	0xa1	2.4544015
35	0x58	-2.975032
36	0x81	0.0743758
37	0x80	0.0
38	0xa6	2.8262804
39	0xb1	3.6444142
40	0x58	-2.975032
41	0x82	0.1487516
42	0x9e	2.2312741
43	0x83	0.2231274
44	0xb3	3.793166
45	0x9d	2.1568983
46	0x7e	-0.1487516
47	0xa4	2.6775289
48	0x5b	-2.7519047
49	0x90	1.1900128
50	0xc4	5.0575542
51	0x7e	-0.1487516
52	0x8e	1.0412612
53	0x82	0.1487516
54	0x9a	1.9337708
55	0x81	0.0743758
56	0x5b	-2.7519047
57	0x3b	-5.1319304
58	0x8d	0.9668854
59	0xce	5.8013124
60	0xd8	6.5450706
61	0x69	-1.7106434
62	0xae	3.4212868
63	0x9b	2.0081465
64	0xc0	4.7600513
65	0x7e	-0.1487516
66	0x80	0.0
67	0x63	-2.1568983
68	0x56	-3.1237836
69	0x54	-3.2725353
70	0x5b	-2.7519047
71	0x5c	-2.6775289

fuse_attr_8 u1 [18, 3, 3, 17] scale=0.0038434335 zero_point=128
0	0x80	0.0
1	0x7f	-0.0038434335
2	0x93	0.073025234
3	0x7f	-0.0038434335
4	0x69	-0.08839897
5	0xa0	0.12298987
6	0x80	0.0
7	0x7f	-0.0038434335
8	0x99	0.09608584
9	0x93	0.073025234
10	0xad	0.1729545
11	0x7f	-0.0038434335
12	0xa9	0.15758078
13	0xa6	0.14605047
14	0x7f	-0.0038434335
15	0x80	0.0
16	0x6e	-0.0691818
17	0x9a	0.09992927
18	0x62	-0.115303
19	0x94	0.07686867
20	0x66	-0.09992927
21	0x7f	-0.0038434335
22	0xa5	0.14220704
23	0x5e	-0.13067673
24	0xa4	0.1383636
25	0x95	0.0807121
26	0x80	0.0
27	0xc1	0.24982317
28	0xa8	0.15373734
29	0x7f	-0.0038434335
30	0x95	0.0807121
31	0x6c	-0.07686867
32	0xbf	0.24213631
33	0x7f	-0.0038434335
34	0x7f	-0.0038434335
35	0x69	-0.08839897
36	0x80	0.0
37	0x60	-0.12298987
38	0x6c	-0.07686867
39	0x80	0.0
40	0x5f	-0.1268333
41	0x7f	-0.0038434335
42	0x80	0.0
43	0x6f	-0.065338366
44	0x80	0.0
45	0x95	0.0807121
46	0x80	0.0
47	0x7f	-0.0038434335
48	0x56	-0.1614242
49	0x80	0.0
50	0x80	0.0
51	0x67	-0.09608584
52	0x7f	-0.0038434335
53	0x80	0.0
54	0x7f	-0.0038434335
55	0x69	-0.08839897
56	0x80	0.0
57	0x6d	-0.073025234
58	0x7f	-0.0038434335
59	0x7f	-0.0038434335
60	0x80	0.0
61	0x80	0.0
62	0x80	0.0
63	0x7f	-0.0038434335
64	0x80	0.0
65	0x7f	-0.0038434335
66	0x80	0.0
67	0x6a	-0.08455554
68	0x6c	-0.07686867
69	0x7f	-0.0038434335
70	0x80	0.0
71	0x7f	-0.0038434335
72	0x93	0.073025234
73	0x80	0.0
74	0x7f	-0.0038434335
75	0x68	-0.092242405
76	0x80	0.0
77	0x7f	-0.0038434335
78	0xa1	0.1268333
79	0x80	0.0
80	0x6e	-0.0691818
81	0x7f	-0.0038434335
82	0xa2	0.13067673
83	0x7f	-0.0038434335
84	0x66	-0.09992927
85	0x7e	-0.007686867
86	0x93	0.073025234
87	0x80	0.0
88	0x80	0.0
89	0x7f	-0.0038434335
90	0x6c	-0.07686867
91	0x6e	-0.0691818
92	0x7f	-0.0038434335
93	0x80	0.0
94	0x80	0.0
95	0x6b	-0.0807121
96	0x80	0.0
97	0x80	0.0
98	0x7f	-0.0038434335
99	0x7f	-0.0038434335
100	0x80	0.0
101	0x6b	-0.0807121
102	0x80	0.0
103	0x80	0.0
104	0x6c	-0.07686867
105	0x90	0.061494935
106	0x80	0.0
107	0x80	0.0
108	0x67	-0.09608584
109	0x7f	-0.0038434335
110	0x65	-0.1037727
111	0x80	0.0
112	0x6c	-0.07686867
113	0x80	0.0
114	0x61	-0.11914644
115	0x80	0.0
116	0x80	0.0
117	0x80	0.0
118	0x59	-0.14989391
119	0x64	-0.107616134
120	0x80	0.0
121	0x6a	-0.08455554
122	0x98	0.092242405
123	0x92	0.0691818
124	0x55	-0.16526763
125	0x6c	-0.07686867
126	0x67	-0.09608584
127	0x80	0.0
128	0x80	0.0
129	0x67	-0.09608584
130	0x5d	-0.13452017
131	0x7f	-0.0038434335
132	0x66	-0.09992927
133	0x80	0.0
134	0x3c	-0.26135346
135	0x59	-0.14989391
136	0x80	0.0
137	0x9d	0.11145957
138	0x6a	-0.08455554
139	0x9e	0.115303
140	0xa1	0.1268333
141	0x80	0.0
142	0x80	0.0
143	0x80	0.0
144	0x5c	-0.1383636
145	0x80	0.0
146	0x80	0.0
147	0x80	0.0
148	0x59	-0.14989391
149	0x7f	-0.0038434335
150	0x9f	0.11914644
151	0x9e	0.115303
152	0x6c	-0.07686867
153	0xba	0.22291914
154	0x80	0.0
155	0xaf	0.18064137
156	0x80	0.0
157	0xde	0.36128274
158	0x7f	-0.0038434335
159	0x80	0.0
160	0x80	0.0
161	0x80	0.0
162	0xa2	0.13067673
163	0xb9	0.21907571
164	0xc3	0.25751004
165	0x5b	-0.14220704
166	0x7f	-0.0038434335
167	0x81	0.0038434335
168	0xbc	0.230606
169	0x4f	-0.18832824
170	0xb2	0.19217168
171	0x3f	-0.24982317
172	0x80	0.0
173	0x80	0.0
174	0xac	0.16911107
175	0x80	0.0
176	0x57	-0.15758078
177	0xaf	0.18064137
178	0x80	0.0
179	0x51	-0.18064137
180	0x43	-0.23444945
181	0x81	0.0038434335
182	0x80	0.0
183	0x7e	-0.007686867
184	0x22	-0.36128274
185	0x9b	0.1037727
186	0x42	-0.23829287
187	0x60	-0.12298987
188	0x81	0.0038434335
189	0x80	0.0
190	0x80	0.0
191	0x81	0.0038434335
192	0x80	0.0
193	0xa3	0.13452017
194	0x63	-0.11145957
195	0x81	0.0038434335
196	0xc8	0.2767272
197	0xb7	0.21138884
198	0x68	-0.092242405
199	0x80	0.0
200	0x80	0.0
201	0x81	0.0038434335
202	0x5c	-0.1383636
203	0x5a	-0.14605047
204	0x57	-0.15758078
205	0xa0	0.12298987
206	0x7f	-0.0038434335
207	0x66	-0.09992927
208	0x7f	-0.0038434335
209	0x7f	-0.0038434335
210	0x7f	-0.0038434335
211	0xa5	0.14220704
212	0x7f	-0.0038434335
213	0x7f	-0.0038434335
214	0x7f	-0.0038434335
215	0x57	-0.15758078
216	0x7e	-0.007686867
217	0x7e	-0.007686867
218	0xb1	0.18832824
219	0x80	0.0
220	0x50	-0.18448481
221	0x67	-0.09608584
222	0xa0	0.12298987
223	0x7f	-0.0038434335
224	0x80	0.0
225	0x7f	-0.0038434335
226	0x60	-0.12298987
227	0x80	0.0
228	0x64	-0.107616134
229	0xb1	0.18832824
230	0x7f	-0.0038434335
231	0x5f	-0.1268333
232	0x52	-0.17679794
233	0x7f	-0.0038434335
234	0x7d	-0.011530301
235	0x80	0.0
236	0x62	-0.115303
237	0x63	-0.11145957
238	0xac	0.16911107
239	0xa0	0.12298987
240	0x7f	-0.0038434335
241	0xa6	0.14605047
242	0x9e	0.115303
243	0x7f	-0.0038434335
244	0x80	0.0
245	0x80	0.0
246	0x5a	-0.14605047
247	0x80	0.0
248	0x80	0.0
249	0x80	0.0
250	0x7f	-0.0038434335
251	0x7f	-0.0038434335
252	0x66	-0.09992927
253	0x80	0.0
254	0x80	0.0
255	0x57	-0.15758078

fuse_attr_9 u1 [16, 3, 3, 18] scale=0.0060615465 zero_point=128
0	0x7f	-0.0060615465
1	0x80	0.0
2	0x80	0.0
3	0x80	0.0
4	0x80	0.0
5	0x98	0.14547712
6	0x7f	-0.0060615465
7	0x80	0.0
8	0x81	0.0060615465
9	0x9f	0.18790793
10	0x81	0.0060615465
11	0x81	0.0060615465
12	0x80	0.0
13	0x81	0.0060615465
14	0x80	0.0
15	0x80	0.0
16	0x7f	-0.0060615465
17	0x80	0.0
18	0x80	0.0
19	0x81	0.0060615465
20	0x80	0.0
21	0x5c	-0.21821567
22	0x80	0.0
23	0x7f	-0.0060615465
24	0x80	0.0
25	0x81	0.0060615465
26	0x60	-0.19396949
27	0x7f	-0.0060615465
28	0x80	0.0
29	0x80	0.0
30	0x81	0.0060615465
31	0x81	0.0060615465
32	0x59	-0.2364003
33	0x9c	0.1697233
34	0x5f	-0.20003104
35	0xa7	0.2364003
36	0x60	-0.19396949
37	0x81	0.0060615465
38	0x80	0.0
39	0x80	0.0
40	0x81	0.0060615465
41	0x5b	-0.22427723
42	0x80	0.0
43	0x58	-0.24246186
44	0xa6	0.23033877
45	0xb8	0.3394466
46	0x80	0.0
47	0xa5	0.22427723
48	0x9d	0.17578486
49	0x51	-0.28489268
50	0x80	0.0
51	0x3a	-0.42430824
52	0xb5	0.32126197
53	0x3d	-0.4061236
54	0x7f	-0.0060615465
55	0x80	0.0
56	0xa2	0.20609258
57	0xa0	0.19396949
58	0x9b	0.16366175
59	0x7f	-0.0060615465
60	0x80	0.0
61	0x80	0.0
62	0x63	-0.17578486
63	0xa2	0.20609258
64	0xa7	0.2364003
65	0x5a	-0.23033877
66	0x7f	-0.0060615465
67	0x80	0.0
68	0xb5	0.32126197
69	0x7f	-0.0060615465
70	0x7f	-0.0060615465
71	0x7f	-0.0060615465
72	0x61	-0.18790793
73	0x80	0.0
74	0x99	0.15153867
75	0x80	0.0
76	0x80	0.0
77	0x55	-0.2606465
78	0x67	-0.15153867
79	0x80	0.0
80	0x80	0.0
81	0x7f	-0.0060615465
82	0x80	0.0
83	0x81	0.0060615465
84	0x80	0.0
85	0x81	0.0060615465
86	0x80	0.0
87	0x9f	0.18790793
88	0x60	-0.19396949
89	0xa8	0.24246186
90	0xc3	0.4061236
91	0x48	-0.3394466
92	0x7f	-0.0060615465
93	0x59	-0.2364003
94	0x56	-0.25458497
95	0x5b	-0.22427723
96	0x80	0.0
97	0x65	-0.16366175
98	0xae	0.27883112
99	0x7f	-0.0060615465
100	0x80	0.0
101	0xad	0.2727696
102	0xaa	0.25458497
103	0xbf	0.38187742
104	0x80	0.0
105	0x39	-0.4303698
106	0x7f	-0.0060615465
107	0x35	-0.45461598
108	0x5c	-0.21821567
109	0x80	0.0
110	0x80	0.0
111	0x80	0.0
112	0x81	0.0060615465
113	0x80	0.0
114	0x81	0.0060615465
115	0x80	0.0
116	0x81	0.0060615465
117	0x7f	-0.0060615465
118	0x80	0.0
119	0x81	0.0060615465
120	0x80	0.0
121	0x80	0.0
122	0x80	0.0
123	0x7f	-0.0060615465
124	0x80	0.0
125	0x80	0.0
126	0x57	-0.24852341
127	0x80	0.0
128	0x80	0.0
129	0x80	0.0
130	0x80	0.0
131	0x80	0.0
132	0x66	-0.15760021
133	0x80	0.0
134	0x9f	0.18790793
135	0x5d	-0.21215412
136	0x80	0.0
137	0x80	0.0
138	0x46	-0.3515697
139	0x81	0.0060615465
140	0x80	0.0
141	0x80	0.0
142	0x80	0.0
143	0x80	0.0
144	0xb8	0.3394466
145	0x53	-0.2727696
146	0x7f	-0.0060615465
147	0x56	-0.25458497
148	0x81	0.0060615465
149	0x61	-0.18790793
150	0x80	0.0
151	0x80	0.0
152	0x7f	-0.0060615465
153	0x7f	-0.0060615465
154	0x80	0.0
155	0xac	0.26670805
156	0x80	0.0
157	0xc3	0.4061236
158	0x80	0.0
159	0x62	-0.1818464
160	0x5a	-0.23033877
161	0x64	-0.1697233
162	0x80	0.0
163	0x80	0.0
164	0x9d	0.17578486
165	0x81	0.0060615465
166	0x62	-0.1818464
167	0x81	0.0060615465
168	0xb9	0.34550816
169	0x80	0.0
170	0x80	0.0
171	0x81	0.0060615465
172	0x4b	-0.32126197
173	0x80	0.0
174	0xd2	0.49704683
175	0x7f	-0.0060615465
176	0x81	0.0060615465
177	0x9d	0.17578486
178	0x81	0.0060615465
179	0x80	0.0
180	0x97	0.13941556
181	0x80	0.0
182	0x81	0.0060615465
183	0x9d	0.17578486
184	0x80	0.0
185	0x81	0.0060615465
186	0xb6	0.3273235
187	0x80	0.0
188	0x68	-0.14547712
189	0x81	0.0060615465
190	0x57	-0.24852341
191	0x67	-0.15153867
192	0xb5	0.32126197
193	0x80	0.0
194	0x81	0.0060615465
195	0x81	0.0060615465
196	0x81	0.0060615465
197	0x80	0.0
198	0x81	0.0060615465
199	0x80	0.0
200	0x82	0.012123093
201	0x81	0.0060615465
202	0x80	0.0
203	0x81	0.0060615465
204	0xa6	0.23033877
205	0x81	0.0060615465
206	0x7f	-0.0060615465
207	0x82	0.012123093
208	0x4d	-0.30913886
209	0x66	-0.15760021
210	0xc1	0.39400053
211	0x80	0.0
212	0x81	0.0060615465
213	0xa4	0.21821567
214	0x80	0.0
215	0x81	0.0060615465
216	0xae	0.27883112
217	0x7f	-0.0060615465
218	0x80	0.0
219	0x68	-0.14547712
220	0x80	0.0
221	0x81	0.0060615465
222	0x99	0.15153867
223	0x80	0.0
224	0x4a	-0.3273235
225	0x81	0.0060615465
226	0x80	0.0
227	0x7f	-0.0060615465
228	0x80	0.0
229	0x7f	-0.0060615465
230	0x80	0.0
231	0x80	0.0
232	0x9d	0.17578486
233	0x60	-0.19396949
234	0x97	0.13941556
235	0xa0	0.19396949
236	0x5b	-0.22427723
237	0x80	0.0
238	0x80	0.0
239	0x81	0.0060615465
240	0x7f	-0.0060615465
241	0x7f	-0.0060615465
242	0x60	-0.19396949
243	0x81	0.0060615465
244	0x61	-0.18790793
245	0x7f	-0.0060615465
246	0x60	-0.19396949
247	0x80	0.0
248	0x81	0.0060615465
249	0x63	-0.17578486
250	0x80	0.0
251	0x80	0.0
252	0x80	0.0
253	0x7f	-0.0060615465
254	0x81	0.0060615465
255	0x81	0.0060615465

fuse_attr_6 u1 [17, 3, 3, 10] scale=0.005332045 zero_point=128
0	0x80	0.0
1	0x80	0.0
2	0x80	0.0
3	0x80	0.0
4	0x99	0.13330112
5	0x80	0.0
6	0x80	0.0
7	0x80	0.0
8	0x80	0.0
9	0x93	0.10130885
10	0xa7	0.20794974
11	0x45	-0.31459063
12	0x80	0.0
13	0x94	0.1066409
14	0x93	0.10130885
15	0x71	-0.07998067
16	0x80	0.0
17	0x5a	-0.2026177
18	0x80	0.0
19	0x53	-0.23994201
20	0x80	0.0
21	0x80	0.0
22	0x80	0.0
23	0x80	0.0
24	0x80	0.0
25	0x75	-0.058652494
26	0x80	0.0
27	0x80	0.0
28	0x70	-0.08531272
29	0x80	0.0
30	0x77	-0.047988404
31	0x97	0.12263703
32	0x6e	-0.09597681
33	0x80	0.0
34	0x55	-0.22927792
35	0x93	0.10130885
36	0x80	0.0
37	0x71	-0.07998067
38	0x80	0.0
39	0x91	0.09064476
40	0x3c	-0.36257905
41	0x44	-0.3199227
42	0x77	-0.047988404
43	0x98	0.12796907
44	0x5e	-0.18128952
45	0x74	-0.063984536
46	0x6f	-0.09064476
47	0x75	-0.058652494
48	0x77	-0.047988404
49	0x5f	-0.17595747
50	0x64	-0.14929725
51	0x80	0.0
52	0x8f	0.07998067
53	0x75	-0.058652494
54	0x63	-0.1546293
55	0x80	0.0
56	0x80	0.0
57	0x8d	0.06931658
58	0x8a	0.05332045
59	0x80	0.0
60	0x80	0.0
61	0x80	0.0
62	0x80	0.0
63	0x6f	-0.09064476
64	0x80	0.0
65	0x80	0.0
66	0x80	0.0
67	0x8b	0.058652494
68	0x80	0.0
69	0x80	0.0
70	0x76	-0.05332045
71	0x5b	-0.19728565
72	0x80	0.0
73	0x8e	0.074648626
74	0x64	-0.14929725
75	0x77	-0.047988404
76	0x80	0.0
77	0x80	0.0
78	0x80	0.0
79	0x6c	-0.1066409
80	0x72	-0.074648626
81	0x80	0.0
82	0x80	0.0
83	0x80	0.0
84	0x80	0.0
85	0x8d	0.06931658
86	0x80	0.0
87	0x80	0.0
88	0x80	0.0
89	0x80	0.0
90	0x81	0.005332045
91	0x5e	-0.18128952
92	0x8d	0.06931658
93	0x4f	-0.2612702
94	0x81	0.005332045
95	0x80	0.0
96	0x81	0.005332045
97	0x65	-0.14396521
98	0x81	0.005332045
99	0x4e	-0.26660225
100	0x80	0.0
101	0x80	0.0
102	0x52	-0.24527407
103	0x80	0.0
104	0x98	0.12796907
105	0x72	-0.074648626
106	0x62	-0.15996134
107	0x6c	-0.1066409
108	0x80	0.0
109	0x91	0.09064476
110	0xa6	0.2026177
111	0x67	-0.13330112
112	0x81	0.005332045
113	0x93	0.10130885
114	0x8f	0.07998067
115	0x72	-0.074648626
116	0x71	-0.07998067
117	0x69	-0.12263703
118	0x80	0.0
119	0x80	0.0
120	0x68	-0.12796907
121	0x80	0.0
122	0x74	-0.063984536
123	0x6b	-0.11197294
124	0x66	-0.13863316
125	0xa3	0.18662156
126	0x80	0.0
127	0x7f	-0.005332045
128	0x9e	0.15996134
129	0x69	-0.12263703
130	0x40	-0.34125087
131	0x80	0.0
132	0x31	-0.42123154
133	0x80	0.0
134	0x00	-0.68250173
135	0x72	-0.074648626
136	0x69	-0.12263703
137	0x93	0.10130885
138	0x61	-0.1652934
139	0x96	0.11730499
140	0x1f	-0.51720834
141	0x58	-0.2132818
142	0x68	-0.12796907
143	0x6f	-0.09064476
144	0x46	-0.3092586
145	0x59	-0.20794974
146	0x6f	-0.09064476
147	0xa0	0.17062543
148	0x74	-0.063984536
149	0x80	0.0
150	0x6f	-0.09064476
151	0x80	0.0
152	0xa8	0.2132818
153	0x9d	0.1546293
154	0x80	0.0
155	0x73	-0.06931658
156	0x6f	-0.09064476
157	0x91	0.09064476
158	0x73	-0.06931658
159	0x80	0.0
160	0x97	0.12263703
161	0x80	0.0
162	0xa4	0.19195361
163	0x5c	-0.19195361
164	0x9e	0.15996134
165	0x8e	0.074648626
166	0x90	0.08531272
167	0x74	-0.063984536
168	0xa0	0.17062543
169	0x66	-0.13863316
170	0xbb	0.31459063
171	0x8e	0.074648626
172	0x91	0.09064476
173	0x8d	0.06931658
174	0x8c	0.063984536
175	0x80	0.0
176	0x8f	0.07998067
177	0x6a	-0.11730499
178	0x80	0.0
179	0x80	0.0
180	0x8e	0.074648626
181	0x80	0.0
182	0x80	0.0
183	0x70	-0.08531272
184	0x87	0.037324313
185	0x80	0.0
186	0x80	0.0
187	0x80	0.0
188	0x8c	0.063984536
189	0x6e	-0.09597681
190	0x80	0.0
191	0x74	-0.063984536
192	0x68	-0.12796907
193	0x6d	-0.10130885
194	0x76	-0.05332045
195	0x74	-0.063984536
196	0x79	-0.037324313
197	0x80	0.0
198	0x80	0.0
199	0x79	-0.037324313
200	0x80	0.0
201	0x77	-0.047988404
202	0x74	-0.063984536
203	0x91	0.09064476
204	0x80	0.0
205	0x75	-0.058652494
206	0x73	-0.06931658
207	0x80	0.0
208	0x80	0.0
209	0x80	0.0
210	0x80	0.0
211	0x80	0.0
212	0x80	0.0
213	0x75	-0.058652494
214	0x87	0.037324313
215	0x80	0.0
216	0x77	-0.047988404
217	0x8a	0.05332045
218	0x76	-0.05332045
219	0x71	-0.07998067
220	0x72	-0.074648626
221	0x76	-0.05332045
222	0x68	-0.12796907
223	0x6d	-0.10130885
224	0x62	-0.15996134
225	0x78	-0.04265636
226	0x72	-0.074648626
227	0x91	0.09064476
228	0x6f	-0.09064476
229	0x80	0.0
230	0x7a	-0.031992268
231	0x80	0.0
232	0x79	-0.037324313
233	0x80	0.0
234	0x80	0.0
235	0x80	0.0
236	0x73	-0.06931658
237	0x80	0.0
238	0x76	-0.05332045
239	0x74	-0.063984536
240	0x80	0.0
241	0x8d	0.06931658
242	0x8d	0.06931658
243	0x92	0.09597681
244	0xa0	0.17062543
245	0x79	-0.037324313
246	0x77	-0.047988404
247	0x80	0.0
248	0x80	0.0
249	0x89	0.047988404
250	0x88	0.04265636
251	0x89	0.047988404
252	0x80	0.0
253	0x80	0.0
254	0x95	0.11197294
255	0x80	0.0

fuse_attr_12 u1 [16, 3, 3, 15] scale=0.013420708 zero_point=128
0	0x80	0.0
1	0x80	0.0
2	0x80	0.0
3	0x80	0.0
4	0x80	0.0
5	0x80	0.0
6	0x80	0.0
7	0x80	0.0
8	0x71	-0.20131062
9	0x75	-0.14762779
10	0x80	0.0
11	0x80	0.0
12	0x80	0.0
13	0x80	0.0
14	0x80	0.0
15	0x80	0.0
16	0x80	0.0
17	0x76	-0.13420707
18	0x8b	0.14762779
19	0x80	0.0
20	0x80	0.0
21	0x80	0.0
22	0x80	0.0
23	0x80	0.0
24	0x80	0.0
25	0x74	-0.16104849
26	0x80	0.0
27	0x80	0.0
28	0x80	0.0
29	0x80	0.0
30	0x80	0.0
31	0x80	0.0
32	0x8a	0.13420707
33	0x91	0.22815202
34	0x80	0.0
35	0x80	0.0
36	0x80	0.0
37	0x80	0.0
38	0x80	0.0
39	0x80	0.0
40	0x73	-0.1744692
41	0x80	0.0
42	0x80	0.0
43	0x80	0.0
44	0x80	0.0
45	0x80	0.0
46	0x80	0.0
47	0x80	0.0
48	0x80	0.0
49	0x80	0.0
50	0x80	0.0
51	0x80	0.0
52	0x80	0.0
53	0x74	-0.16104849
54	0x66	-0.3489384
55	0x80	0.0
56	0x80	0.0
57	0x68	-0.32209697
58	0x80	0.0
59	0x80	0.0
60	0x89	0.12078637
61	0x80	0.0
62	0x80	0.0
63	0xa2	0.45630404
64	0x80	0.0
65	0x80	0.0
66	0x80	0.0
67	0x80	0.0
68	0x97	0.30867627
69	0x8e	0.1878899
70	0x80	0.0
71	0x74	-0.16104849
72	0x77	-0.12078637
73	0x80	0.0
74	0x80	0.0
75	0x96	0.29525557
76	0x80	0.0
77	0x80	0.0
78	0x9b	0.3623591
79	0x80	0.0
80	0x80	0.0
81	0x76	-0.13420707
82	0x80	0.0
83	0x94	0.26841414
84	0x9c	0.3757798
85	0x80	0.0
86	0x74	-0.16104849
87	0x92	0.24157274
88	0x80	0.0
89	0x80	0.0
90	0x80	0.0
91	0x80	0.0
92	0x80	0.0
93	0x80	0.0
94	0x80	0.0
95	0x80	0.0
96	0x80	0.0
97	0x80	0.0
98	0x73	-0.1744692
99	0x80	0.0
100	0x80	0.0
101	0x74	-0.16104849
102	0x80	0.0
103	0x80	0.0
104	0x80	0.0
105	0x80	0.0
106	0x80	0.0
107	0x80	0.0
108	0x70	-0.21473132
109	0x80	0.0
110	0x80	0.0
111	0x80	0.0
112	0x80	0.0
113	0x80	0.0
114	0x80	0.0
115	0x80	0.0
116	0x76	-0.13420707
117	0x80	0.0
118	0x80	0.0
119	0x80	0.0
120	0x80	0.0
121	0x80	0.0
122	0x80	0.0
123	0x80	0.0
124	0x80	0.0
125	0x80	0.0
126	0x8b	0.14762779
127	0x80	0.0
128	0x93	0.25499344
129	0x8d	0.1744692
130	0x80	0.0
131	0x80	0.0
132	0x80	0.0
133	0x80	0.0
134	0x80	0.0
135	0x90	0.21473132
136	0x71	-0.20131062
137	0x80	0.0
138	0x97	0.30867627
139	0x80	0.0
140	0x80	0.0
141	0x95	0.28183487
142	0x80	0.0
143	0x80	0.0
144	0x8f	0.20131062
145	0x80	0.0
146	0x8d	0.1744692
147	0x80	0.0
148	0x80	0.0
149	0x80	0.0
150	0x80	0.0
151	0x73	-0.1744692
152	0x80	0.0
153	0x80	0.0
154	0x80	0.0
155	0x80	0.0
156	0x80	0.0
157	0x80	0.0
158	0x80	0.0
159	0x80	0.0
160	0x80	0.0
161	0x80	0.0
162	0x6a	-0.29525557
163	0x80	0.0
164	0x80	0.0
165	0x80	0.0
166	0x80	0.0
167	0x80	0.0
168	0x6d	-0.25499344
169	0x80	0.0
170	0x80	0.0
171	0x68	-0.32209697
172	0x80	0.0
173	0x80	0.0
174	0x80	0.0
175	0x80	0.0
176	0x80	0.0
177	0x65	-0.3623591
178	0x80	0.0
179	0x80	0.0
180	0x8f	0.20131062
181	0x80	0.0
182	0x69	-0.30867627
183	0x8e	0.1878899
184	0x70	-0.21473132
185	0x80	0.0
186	0xb5	0.7112975
187	0x80	0.0
188	0x8d	0.1744692
189	0x80	0.0
190	0x91	0.22815202
191	0xaa	0.56366974
192	0xb1	0.65761465
193	0x80	0.0
194	0x80	0.0
195	0x80	0.0
196	0x80	0.0
197	0x80	0.0
198	0x98	0.32209697
199	0x80	0.0
200	0x80	0.0
201	0x80	0.0
202	0x80	0.0
203	0x80	0.0
204	0x6b	-0.28183487
205	0x80	0.0
206	0x8e	0.1878899
207	0x9e	0.40262124
208	0x80	0.0
209	0x80	0.0
210	0x68	-0.32209697
211	0x91	0.22815202
212	0x80	0.0
213	0x8d	0.1744692
214	0x80	0.0
215	0x80	0.0
216	0x6d	-0.25499344
217	0x80	0.0
218	0x80	0.0
219	0x80	0.0
220	0x80	0.0
221	0x5b	-0.49656618
222	0x6d	-0.25499344
223	0x80	0.0
224	0x80	0.0
225	0x80	0.0
226	0xa0	0.42946264
227	0x80	0.0
228	0x80	0.0
229	0x80	0.0
230	0x71	-0.20131062
231	0x70	-0.21473132
232	0x80	0.0
233	0x80	0.0
234	0x80	0.0
235	0x80	0.0
236	0x9a	0.3489384
237	0x95	0.28183487
238	0x80	0.0
239	0x80	0.0
240	0x80	0.0
241	0x9b	0.3623591
242	0x80	0.0
243	0x80	0.0
244	0x80	0.0
245	0x80	0.0
246	0x80	0.0
247	0x80	0.0
248	0x80	0.0
249	0x72	-0.1878899
250	0x80	0.0
251	0x80	0.0
252	0x90	0.21473132
253	0x80	0.0
254	0x80	0.0
255	0x80	0.0
