th/quantized_models/quant_retrained_model_0.85compress_acc_95.4_20240207175850_128.tflite (tflite, 81872 bytes, 12 tensors)

fuse_attr_6 i1 [10, 3, 3, 7] scale=0.0039015466 zero_point=0
0.023409279 0.0039015466 -0.007803093 0.015606186 -0.12094794 0.007803093 -0.05462165 0.039015464
0.0 -0.031212373 0.0117046395 -0.105341755 0.0039015466 -0.05462165 0.0 0.0039015466
-0.0585232 0.0117046395 -0.089735575 -0.031212373 -0.039015464 0.046818558 0.0 -0.0585232
0.0 0.03511392 0.0 -0.039015464 0.0585232 0.0 -0.05462165 0.0
0.031212373 0.0 -0.039015464 0.015606186 0.0 -0.031212373 0.0 -0.007803093
0.0 -0.07412939 -0.023409279 -0.0039015466 -0.10144021 0.0 0.15216032 -0.0039015466
-0.07803093 0.0039015466 0.0 -0.023409279 0.0039015466 0.15606186 -0.0039015466 -0.023409279
0.0 0.0 -0.015606186 0.0039015466 0.07022784 0.0 0.042917013 -0.0039015466
0.0 0.007803093 0.0039015466 -0.031212373 0.0 -0.007803093 -0.027310826 0.0
0.019507732 0.0 -0.031212373 0.0 0.007803093 -0.019507732 0.0 0.0117046395
0.0 -0.031212373 0.0 -0.1170464 -0.10144021 0.0039015466 0.0117046395 0.007803093
-0.023409279 0.007803093 -0.19897887 -0.0039015466 0.0039015466 0.007803093 0.007803093 0.089735575
0.007803093 0.007803093 -0.015606186 0.0039015466 0.14435722 0.0039015466 -0.031212373 0.0039015466
-0.015606186 0.015606186 0.0 0.0039015466 0.0 0.019507732 0.0039015466 -0.0117046395
0.0117046395 0.0 0.0039015466 0.0 0.007803093 0.0039015466 0.0 -0.1677665
0.0 0.0 0.0 0.0039015466 0.0039015466 -0.0039015466 0.039015464 0.007803093
-0.12875104 0.007803093 -0.0585232 0.007803093 0.15606186 0.097538665 0.0 -0.12875104
-0.0039015466 -0.093637116 0.0039015466 0.1755696 0.14045568 -0.023409279 -0.1170464 -0.03511392
-0.11314485 -0.023409279 0.027310826 -0.062424745 0.007803093 -0.13265258 0.0117046395 -0.05462165
0.0117046395 0.093637116 0.13655414 0.0 -0.13265258 0.0 -0.0585232 0.0039015466
0.13265258 0.089735575 -0.027310826 -0.1170464 -0.039015464 -0.11314485 -0.027310826 -0.0117046395
0.046818558 0.015606186 -0.019507732 0.031212373 0.039015464 0.019507732 0.08193248 0.097538665
0.007803093 -0.13265258 0.019507732 -0.0039015466 0.015606186 -0.0117046395 0.06632629 -0.019507732
-0.0039015466 -0.019507732 -0.0585232 -0.019507732 -0.08583403 0.13265258 0.0039015466 -0.093637116
0.0117046395 0.0585232 0.0039015466 -0.05462165 -0.10144021 0.0117046395 -0.13265258 0.019507732
0.1092433 0.0117046395 -0.12484949 0.0039015466 0.0117046395 -0.0117046395 0.023409279 0.089735575
0.015606186 -0.039015464 -0.05462165 0.0039015466 0.10144021 0.0039015466 0.019507732 0.0039015466
-0.11314485 -0.031212373 0.007803093 -0.027310826 0.0117046395 -0.0117046395 0.007803093 -0.019507732
0.0117046395 0.007803093 0.046818558 0.015606186 -0.019507732 0.0117046395 -0.019507732 0.07022784
0.0039015466 -0.015606186 0.007803093 0.023409279 0.0039015466 -0.031212373 -0.22238815 0.007803093
-0.10144021 0.0117046395 0.062424745 0.0039015466 -0.0117046395 0.0117046395 0.007803093 -0.0117046395
0.015606186 0.07803093 0.007803093 0.007803093 0.046818558 -0.0039015466 -0.13265258 -0.015606186
00000000: 0601 fe04 e102 f20a 00f8 03e5 01f2 0001
00000010: f103 e9f8 f60c 00f1 0009 00f6 0f00 f200
00000020: 0800 f604 00f8 00fe 00ed faff e600 27ff
00000030: ec01 00fa 0128 fffa 0000 fc01 1200 0bff
00000040: 0002 01f8 00fe f900 0500 f800 02fb 0003
00000050: 00f8 00e2 e601 0302 fa02 cdff 0102 0217
00000060: 0202 fc01 2501 f801 fc04 0001 0005 01fd
00000070: 0300 0100 0201 00d5 0000 0001 01ff 0a02
00000080: df02 f102 2819 00df ffe8 012d 24fa e2f7
00000090: e3fa 07f0 02de 03f2 0318 2300 de00 f101
000000a0: 2217 f9e2 f6e3 f9fd 0c04 fb08 0a05 1519
000000b0: 02de 05ff 04fd 11fb fffb f1fb ea22 01e8
000000c0: 030f 01f2 e603 de05 1c03 e001 03fd 0617
000000d0: 04f6 f201 1a01 0501 e3f8 02f9 03fd 02fb
000000e0: 0302 0c04 fb03 fb12 01fc 0206 01f8 c702
000000f0: e603 1001 fd03 02fd 0414 0202 0cff defc

fuse_attr_3 i1 [7, 1, 9, 1] scale=0.04144442 zero_point=0
-0.16577768 0.24866652 0.7459996 -1.1604438 0.45588863 -3.439887 -1.4505547 1.6992213
2.7353318 0.91177726 0.16577768 0.04144442 -1.284777 -0.2072221 -1.1604438 0.8288884
0.08288884 -2.1965542 2.2794433 -0.33155537 -0.12433326 -0.9532217 0.2072221 -0.5387775
0.45588863 1.9478878 -1.284777 -1.6992213 -1.9478878 0.08288884 1.9478878 0.33155537
1.0361105 -0.8288884 0.08288884 0.29011095 0.0 0.29011095 -0.70455515 0.33155537
0.08288884 1.1189994 2.942554 -2.1136656 -1.8235545 0.66311073 0.6216663 -1.3676659
2.0307765 -4.5174417 3.854331 0.5802219 -5.304886 2.7353318 -0.5387775 -0.7459996
-0.08288884 0.87033284 0.33155537 0.29011095 -0.9946661 0.4144442 2.2794433
00000000: fc06 12e4 0bad dd29 4216 0401 e1fb e414
00000010: 02cb 37f8 fde9 05f3 0b2f e1d7 d102 2f08
00000020: 19ec 0207 0007 ef08 021b 47cd d410 0fdf
00000030: 3193 5d0e 8042 f3ee fe15 0807 e80a 37

fuse_attr_12 i1 [52, 3, 3, 25] scale=0.0059694354 zero_point=0
0.023877742 0.0 0.011938871 0.0059694354 0.017908307 0.035816614 0.04178605 0.0059694354
-0.0059694354 -0.011938871 0.023877742 0.0 0.19102193 0.11938871 0.011938871 0.029847177
0.0059694354 0.059694353 0.05372492 0.0 0.0 0.017908307 -0.1671442 0.0059694354
-0.2507163 0.011938871 0.0059694354 0.0059694354 0.0059694354 0.017908307 0.029847177 0.059694353
0.0059694354 -0.023877742 -0.011938871 -0.011938871 0.011938871 0.23877741 0.13729702 0.0
0.029847177 0.0 0.04178605 0.029847177 0.0 0.14326645 0.0 0.04178605
-0.011938871 -0.1850525 0.023877742 0.0059694354 0.0059694354 0.011938871 0.017908307 0.035816614
0.07760266 0.011938871 0.0059694354 0.0059694354 -0.029847177 0.023877742 0.28056347 0.16117476
-0.011938871 0.059694353 0.0059694354 0.029847177 0.011938871 0.0059694354 0.0 -0.011938871
-0.011938871 0.0 0.0 0.059694353 0.13729702 0.029847177 0.017908307 0.2507163
0.0059694354 0.011938871 0.0059694354 0.23280798 -0.1671442 0.04178605 -0.017908307 -0.0059694354
-0.017908307 0.047755484 -0.011938871 -0.12535815 0.25668573 0.08954153 0.370105 0.19699137
0.047755484 0.023877742 0.047755484 0.05372492 0.035816614 0.14923589 0.029847177 0.017908307
0.36413556 -0.0059694354 0.0 0.029847177 0.2507163 -0.029847177 0.029847177 0.31638008
-0.017908307 -0.17311363 0.017908307 -0.011938871 0.017908307 0.16117476 0.047755484 0.29847178
0.22683854 0.011938871 0.07760266 0.029847177 0.047755484 0.023877742 0.2686246 0.22086911
-0.16117476 0.34622726 -0.0059694354 -0.011938871 0.035816614 0.047755484 -0.017908307 0.035816614
0.44173822 -0.011938871 -0.017908307 -0.0059694354 -0.023877742 0.011938871 0.011938871 0.011938871
0.44173822 0.14326645 -0.011938871 -0.035816614 0.029847177 0.06566379 -0.023877742 -0.0059694354
-0.011938871 -0.011938871 -0.017908307 0.0 -0.011938871 -0.017908307 0.0059694354 -0.0059694354
-0.0059694354 -0.31638008 -0.0059694354 0.0 -0.011938871 -0.011938871 -0.017908307 -0.0059694354
0.0059694354 -0.011938871 0.0059694354 0.0059694354 -0.13729702 0.011938871 -0.011938871 -0.017908307
-0.0059694354 -0.011938871 -0.0059694354 -0.011938871 0.017908307 -0.011938871 -0.0059694354 0.017908307
-0.017908307 0.13729702 -0.23280798 -0.0059694354 0.0 0.0 0.0 -0.011938871
0.011938871 0.0059694354 -0.011938871 -0.0059694354 0.029847177 -0.0059694354 0.023877742 -0.017908307
0.0 -0.011938871 -0.011938871 -0.0059694354 -0.011938871 0.19699137 -0.017908307 -0.011938871
0.029847177 -0.017908307 -0.017908307 -0.047755484 -0.0059694354 0.0059694354 -0.0059694354 0.14923589
-0.0059694354 0.0059694354 -0.0059694354 -0.011938871 -0.0059694354 0.029847177 -0.023877742 0.0059694354
0.0059694354 0.035816614 0.017908307 0.011938871 0.0059694354 -0.035816614 -0.2865329 0.0059694354
-0.23877741 -0.023877742 0.023877742 -0.14923589 -0.21489967 -0.011938871 0.0059694354 0.023877742
0.011938871 0.17908306 0.029847177 0.011938871 0.0059694354 0.0059694354 0.017908307 -0.011938871
0.023877742 -0.34622726 0.023877742 -0.15520532 0.0059694354 -0.13132758 0.26265517 -0.047755484
00000000: 0400 0201 0306 0701 fffe 0400 2014 0205
00000010: 010a 0900 0003 e401 d602 0101 0103 050a
00000020: 01fc fefe 0228 1700 0500 0705 0018 0007
00000030: fee1 0401 0102 0306 0d02 0101 fb04 2f1b
00000040: fe0a 0105 0201 00fe fe00 000a 1705 032a
00000050: 0102 0127 e407 fdff fd08 feeb 2b0f 3e21
00000060: 0804 0809 0619 0503 3dff 0005 2afb 0535
00000070: fde3 03fe 031b 0832 2602 0d05 0804 2d25
00000080: e53a fffe 0608 fd06 4afe fdff fc02 0202
00000090: 4a18 fefa 050b fcff fefe fd00 fefd 01ff
000000a0: ffcb ff00 fefe fdff 01fe 0101 e902 fefd
000000b0: fffe fffe 03fe ff03 fd17 d9ff 0000 00fe
000000c0: 0201 feff 05ff 04fd 00fe feff fe21 fdfe
000000d0: 05fd fdf8 ff01 ff19 ff01 fffe ff05 fc01
000000e0: 0106 0302 01fa d001 d8fc 04e7 dcfe 0104
000000f0: 021e 0502 0101 03fe 04c6 04e6 01ea 2cf8

fuse_attr_4 i1 [32, 1, 5, 7] scale=0.009863896 zero_point=0
-0.039455585 0.049319483 -0.13809454 0.08877507 0.009863896 -0.09863897 -0.07891117 -0.059183378
0.13809454 -0.08877507 0.13809454 -0.009863896 -0.059183378 0.009863896 -0.019727793 0.20714182
-0.08877507 0.09863897 0.0 0.0 0.009863896 -0.07891117 0.38469195 0.019727793
-0.118366756 0.07891117 -0.009863896 0.049319483 0.009863896 0.286053 -0.009863896 0.019727793
-0.049319483 -0.029591689 0.07891117 0.009863896 0.23673351 -0.21700571 0.15782234 -0.039455585
0.0 -0.2761891 -0.039455585 0.31564468 -0.12823065 0.2564613 0.019727793 0.0
-0.3057808 0.0 0.2663252 -0.06904727 0.21700571 0.06904727 0.0 -0.17755014
0.0 0.34523636 -0.14795844 0.21700571 0.039455585 -0.009863896 -0.12823065 0.049319483
0.31564468 -0.12823065 0.20714182 -0.039455585 0.009863896 -0.21700571 -0.33537248 -0.89761454
0.5227865 -0.2959169 0.059183378 -0.019727793 0.35510027 -0.15782234 -0.66088104 0.39455587
-0.45373923 -0.009863896 0.0 0.46360314 -0.14795844 -0.44387534 0.3057808 -0.17755014
0.0 -0.009863896 0.39455587 -0.17755014 -0.33537248 0.19727793 -0.2959169 -0.07891117
-0.029591689 0.50305873 -0.16768624 -0.286053 0.14795844 -0.20714182 -0.06904727 -0.019727793
0.5425143 -0.059183378 0.029591689 0.21700571 -0.029591689 -0.049319483 0.029591689 0.0
-0.009863896 0.10850286 0.16768624 -0.009863896 0.0 0.019727793 -0.009863896 -0.059183378
0.07891117 0.049319483 -0.06904727 0.0 0.0 -0.059183378 -0.16768624 0.10850286
-0.009863896 0.0 -0.009863896 -0.049319483 -0.019727793 -0.06904727 0.118366756 0.0
-0.009863896 -0.059183378 0.0 -0.009863896 -0.16768624 -0.13809454 0.2761891 -0.17755014
0.029591689 0.009863896 -0.06904727 -0.16768624 -0.09863897 0.12823065 -0.12823065 0.049319483
0.019727793 -0.18741404 -0.059183378 -0.118366756 0.09863897 -0.12823065 0.049319483 0.0
-0.2761891 -0.09863897 0.029591689 0.059183378 -0.019727793 0.12823065 -0.07891117 -0.18741404
-0.24659741 0.13809454 0.0 -0.10850286 0.17755014 -0.07891117 -0.118366756 0.09863897
-0.23673351 -0.45373923 0.5523782 -0.009863896 -0.15782234 -0.049319483 -0.15782234 0.0
-0.08877507 0.34523636 -0.2564613 -0.118366756 0.24659741 0.009863896 -0.20714182 -0.24659741
0.15782234 -0.23673351 -0.049319483 0.09863897 0.118366756 -0.059183378 -0.10850286 -0.06904727
-0.21700571 -0.019727793 0.43401143 0.049319483 0.17755014 0.0 -0.08877507 -0.34523636
0.059183378 0.6016977 -0.19727793 -0.19727793 0.17755014 -0.16768624 0.08877507 -0.019727793
0.009863896 -0.22686961 0.019727793 0.10850286 -0.286053 0.15782234 -0.029591689 -0.09863897
-0.19727793 0.21700571 0.16768624 -0.21700571 0.10850286 0.009863896 -0.13809454 -0.18741404
0.3057808 -0.049319483 -0.16768624 0.07891117 -0.019727793 -0.13809454 -0.16768624 0.2959169
-0.13809454 -0.14795844 -0.13809454 -0.019727793 -0.17755014 0.15782234 0.07891117 -0.22686961
0.17755014 -0.118366756 0.07891117 -0.2959169 0.12823065 -0.10850286 -0.21700571 0.43401143
00000000: fc05 f209 01f6 f8fa 0ef7 0eff fa01 fe15
00000010: f70a 0000 01f8 2702 f408 ff05 011d ff02
00000020: fbfd 0801 18ea 10fc 00e4 fc20 f31a 0200
00000030: e100 1bf9 1607 00ee 0023 f116 04ff f305
00000040: 20f3 15fc 01ea dea5 35e2 06fe 24f0 bd28
00000050: d2ff 002f f1d3 1fee 00ff 28ee de14 e2f8
00000060: fd33 efe3 0feb f9fe 37fa 0316 fdfb 0300
00000070: ff0b 11ff 0002 fffa 0805 f900 00fa ef0b
00000080: ff00 fffb fef9 0c00 fffa 00ff eff2 1cee
00000090: 0301 f9ef f60d f305 02ed faf4 0af3 0500
000000a0: e4f6 0306 fe0d f8ed e70e 00f5 12f8 f40a
000000b0: e8d2 38ff f0fb f000 f723 e6f4 1901 ebe7
000000c0: 10e8 fb0a 0cfa f5f9 eafe 2c05 1200 f7dd
000000d0: 063d ecec 12ef 09fe 01e9 020b e310 fdf6
000000e0: ec16 11ea 0b01 f2ed 1ffb ef08 fef2 ef1e
000000f0: f2f1 f2fe ee10 08e9 12f4 08e2 0df5 ea2c

fuse_attr_11 i1 [25, 3, 3, 41] scale=0.004476152 zero_point=0
-0.017904608 0.062666126 0.07161843 0.12980841 0.013428455 0.004476152 -0.004476152 -0.004476152
-0.013428455 -0.058189973 -0.017904608 -0.17009377 -0.07609458 0.0 -0.017904608 -0.017904608
-0.004476152 -0.004476152 0.02238076 -0.02238076 0.049237672 0.004476152 -0.013428455 0.06714228
-0.013428455 0.0 -0.16114147 0.004476152 -0.017904608 -0.004476152 -0.02238076 0.004476152
0.0 0.295426 0.02238076 0.008952304 -0.02685691 -0.2327599 0.0 -0.040285368
-0.111903794 -0.008952304 0.05371382 0.05371382 0.147713 0.008952304 -0.004476152 -0.013428455
0.21933144 -0.02238076 -0.05371382 -0.004476152 -0.008952304 -0.07609458 -0.008952304 -0.017904608
-0.02685691 -0.013428455 -0.004476152 0.004476152 -0.035809215 0.0 -0.13428456 -0.14323686
0.058189973 -0.013428455 -0.004476152 -0.17009377 0.15218917 -0.031333063 -0.04476152 -0.017904608
0.0 0.0 0.22380759 -0.013428455 -0.017904608 -0.02685691 -0.205903 0.004476152
0.08952304 0.017904608 0.0 0.0 0.2417122 0.1029515 -0.004476152 -0.004476152
-0.008952304 0.2685691 -0.031333063 -0.017904608 0.0 -0.004476152 -0.049237672 0.0
-0.008952304 -0.031333063 -0.017904608 0.008952304 -0.013428455 -0.035809215 -0.004476152 -0.004476152
-0.004476152 0.008952304 -0.008952304 0.004476152 -0.18799838 -0.02685691 -0.017904608 -0.05371382
-0.035809215 -0.004476152 -0.013428455 -0.02238076 0.004476152 -0.013428455 -0.035809215 -0.004476152
0.21933144 0.16114147 0.017904608 -0.02238076 0.09399919 0.049237672 0.02685691 0.004476152
-0.008952304 -0.013428455 -0.11637995 0.013428455 -0.08504689 0.0 0.0 -0.18352222
-0.017904608 0.013428455 0.0 0.0 -0.24618836 0.008952304 -0.013428455 0.02238076
0.14323686 -0.147713 0.06714228 -0.008952304 0.008952304 -0.147713 0.040285368 -0.008952304
0.11637995 -0.02238076 0.013428455 0.06714228 -0.05371382 0.008952304 -0.004476152 0.017904608
0.013428455 0.008952304 -0.05371382 0.02685691 -0.008952304 -0.06714228 0.035809215 -0.098475344
0.013428455 -0.004476152 -0.013428455 -0.13876072 0.0 0.062666126 0.0 -0.013428455
-0.21933144 -0.02685691 0.004476152 -0.004476152 -0.017904608 -0.008952304 0.013428455 -0.004476152
0.004476152 0.17009377 -0.13876072 0.049237672 -0.004476152 0.008952304 -0.21933144 0.008952304
-0.004476152 0.07609458 -0.02238076 0.008952304 0.062666126 -0.04476152 -0.017904608 -0.017904608
0.004476152 0.008952304 0.013428455 -0.062666126 0.147713 0.17009377 0.035809215 0.0
0.017904608 0.013428455 0.004476152 -0.017904608 -0.004476152 0.0 -0.035809215 0.0
-0.017904608 -0.147713 -0.02685691 -0.02238076 -0.008952304 0.1029515 -0.017904608 0.0
0.004476152 -0.017904608 -0.017904608 0.013428455 0.0 -0.008952304 0.02238076 -0.19247453
0.10742764 -0.004476152 -0.05371382 -0.049237672 0.02238076 0.05371382 -0.18352222 0.13876072
-0.017904608 0.0 0.17904608 0.0 -0.058189973 0.004476152 0.0 0.017904608
0.19695069 -0.035809215 0.035809215 -0.017904608 0.0 -0.13876072 0.013428455 0.008952304
00000000: fc0e 101d 0301 ffff fdf3 fcda ef00 fcfc
00000010: ffff 05fb 0b01 fd0f fd00 dc01 fcff fb01
00000020: 0042 0502 facc 00f7 e7fe 0c0c 2102 fffd
00000030: 31fb f4ff feef fefc fafd ff01 f800 e2e0
00000040: 0dfd ffda 22f9 f6fc 0000 32fd fcfa d201
00000050: 1404 0000 3617 ffff fe3c f9fc 00ff f500
00000060: fef9 fc02 fdf8 ffff ff02 fe01 d6fa fcf4
00000070: f8ff fdfb 01fd f8ff 3124 04fb 150b 0601
00000080: fefd e603 ed00 00d7 fc03 0000 c902 fd05
00000090: 20df 0ffe 02df 09fe 1afb 030f f402 ff04
000000a0: 0302 f406 fef1 08ea 03ff fde1 000e 00fd
000000b0: cffa 01ff fcfe 03ff 0126 e10b ff02 cf02
000000c0: ff11 fb02 0ef6 fcfc 0102 03f2 2126 0800
000000d0: 0403 01fc ff00 f800 fcdf fafb fe17 fc00
000000e0: 01fc fc03 00fe 05d5 18ff f4f5 050c d71f
000000f0: fc00 2800 f301 0004 2cf8 08fc 00e1 0302

fuse_attr_14 i1 [2, 1, 1, 65] scale=0.010986701 zero_point=0
0.60426855 -1.0876833 0.087893605 -0.6372286 0.4065079 -0.29664093 0.4944015 0.6372286
0.57130843 0.17578721 0.3625611 0.34058774 -0.59328187 0.28565422 0.48341483 0.5383483
0.59328187 0.43946803 0.57130843 -0.37354782 0.60426855 0.21973401 0.6701887 0.4065079
0.69216216 -0.43946803 0.0 -0.5383483 -0.6701887 0.32960102 0.75808233 0.38453454
0.13184041 0.35157442 -0.6372286 0.3625611 -0.88992274 0.16480051 -0.10986701 0.50538826
0.3186143 0.3186143 0.0 0.37354782 0.6262419 0.054933503 -0.4065079 0.17578721
0.010986701 0.43946803 0.14282711 -0.80202913 0.065920204 0.3186143 0.39552122 0.78005576
0.18677391 0.37354782 -0.12085371 0.21973401 0.57130843 0.19776061 0.35157442 0.32960102
0.47242814 -0.20874731 0.65920204 -0.37354782 0.26368082 -0.5822951 0.25269413 0.549335
0.75808233 0.43946803 0.076906905 -0.29664093 -0.043946803 0.065920204 0.15381381 0.43946803
0.43946803 0.39552122 0.43946803 0.4944015 0.43946803 0.6372286 0.29664093 -0.42848134
0.37354782 0.16480051 0.42848134 0.18677391 0.41749462 0.57130843 -0.3625611 -0.41749462
-0.26368082 -0.23072071 0.42848134 -0.17578721 0.043946803 0.50538826 0.47242814 0.12085371
0.5383483 0.13184041 -0.19776061 -0.076906905 -0.14282711 0.57130843 -0.65920204 0.17578721
0.17578721 -0.076906905 0.51637495 -0.12085371 1.395311 -0.21973401 0.4944015 0.48341483
-0.4065079 0.054933503 0.42848134 0.43946803 -0.37354782 0.56032175 0.6262419 0.26368082
0.35157442 -0.47242814
00000000: 379d 08c6 25e5 2d3a 3410 211f ca1a 2c31
00000010: 3628 34de 3714 3d25 3fd8 00cf c31e 4523
00000020: 0c20 c621 af0f f62e 1d1d 0022 3905 db10
00000030: 0128 0db7 061d 2447 1122 f514 3412 201e
00000040: 2bed 3cde 18cb 1732 4528 07e5 fc06 0e28
00000050: 2824 282d 283a 1bd9 220f 2711 2634 dfda
00000060: e8eb 27f0 042e 2b0b 310c eef9 f334 c410
00000070: 10f9 2ff5 7fec 2d2c db05 2728 de33 3918
00000080: 20d5

fuse_attr_10 i1 [41, 3, 3, 27] scale=0.0042021587 zero_point=0
0.0 0.0126064755 -0.016808635 0.0126064755 -0.0126064755 -0.0042021587 -0.0126064755 -0.016808635
0.008404317 -0.008404317 0.008404317 0.08824533 -0.0042021587 0.0 0.0042021587 0.11345828
-0.11345828 0.0 -0.100851804 -0.016808635 0.0 -0.0042021587 0.021010794 -0.1218626
0.008404317 0.042021587 0.0042021587 -0.0042021587 0.008404317 -0.0126064755 0.008404317 -0.0042021587
-0.1512777 0.15547986 0.0 0.2941511 -0.0126064755 0.0042021587 0.13026692 -0.0042021587
-0.03361727 0.0 0.13446908 -0.20170361 0.0042021587 -0.0042021587 -0.008404317 0.22691657
-0.0042021587 0.016808635 -0.109256126 0.02941511 0.037819427 0.1722885 -0.008404317 -0.11345828
-0.0126064755 0.016808635 0.0042021587 0.008404317 0.0 0.0 0.008404317 -0.09244749
0.008404317 0.008404317 0.0 -0.14287339 0.15968204 0.008404317 -0.15547986 0.0042021587
-0.008404317 -0.0042021587 0.0126064755 0.0 0.0042021587 0.09244749 0.021010794 -0.10505397
0.1218626 0.0 0.025212951 -0.021010794 0.0 0.10505397 -0.11345828 -0.0042021587
0.0126064755 -0.008404317 0.008404317 0.0042021587 0.0 0.11345828 0.0 -0.0042021587
0.016808635 -0.109256126 0.0 0.0 -0.008404317 -0.008404317 0.008404317 0.0042021587
-0.1722885 0.17649066 0.07984102 0.1218626 -0.11345828 0.0126064755 0.22691657 0.0
0.0042021587 -0.15547986 0.14707555 0.008404317 0.31095973 -0.0042021587 -0.0042021587 0.22691657
0.2437252 -0.021010794 -0.0042021587 0.0 -0.13867123 0.008404317 0.0 -0.0042021587
0.18069282 0.0 0.0042021587 0.0 0.31936407 0.025212951 0.1932993 -0.016808635
-0.13026692 0.23532088 0.0042021587 0.016808635 0.021010794 0.109256126 0.0126064755 0.0
0.0042021587 0.100851804 0.1722885 0.1512777 -0.14707555 -0.008404317 0.0042021587 0.008404317
0.008404317 -0.0126064755 0.11766044 0.008404317 0.0042021587 0.0 0.1932993 0.016808635
-0.12606476 0.109256126 0.008404317 0.0042021587 -0.109256126 0.0042021587 -0.0126064755 -0.008404317
0.0042021587 0.0126064755 -0.11766044 -0.100851804 -0.13446908 -0.008404317 -0.016808635 0.14287339
0.0 0.13446908 0.0 -0.0042021587 0.0 -0.0126064755 -0.0126064755 -0.0042021587
0.11345828 -0.18489498 0.0126064755 0.050425902 0.1218626 0.0042021587 -0.12606476 -0.0126064755
-0.0042021587 -0.0126064755 -0.008404317 0.0042021587 0.008404317 0.11766044 0.0 0.0
0.0042021587 -0.008404317 -0.021010794 -0.008404317 0.008404317 0.0126064755 0.0 0.0
0.0 -0.0126064755 -0.0042021587 -0.008404317 -0.0042021587 0.016808635 0.016808635 0.0
0.0 -0.008404317 -0.0042021587 -0.0042021587 0.100851804 -0.008404317 0.0042021587 0.0042021587
-0.09664965 0.008404317 -0.100851804 0.0042021587 0.0126064755 -0.03361727 -0.008404317 0.0
0.016808635 0.0042021587 -0.0042021587 0.0042021587 -0.16808635 -0.10505397 -0.0126064755 0.1512777
0.0126064755 -0.14707555 -0.13446908 -0.025212951 -0.037819427 0.037819427 -0.008404317 -0.0126064755
0.05883022 -0.07984102 -0.13867123 -0.021010794 -0.016808635 -0.008404317 -0.008404317 -0.10505397
00000000: 0003 fc03 fdff fdfc 02fe 0215 ff00 011b
00000010: e500 e8fc 00ff 05e3 020a 01ff 02fd 02ff
00000020: dc25 0046 fd01 1fff f800 20d0 01ff fe36
00000030: ff04 e607 0929 fee5 fd04 0102 0000 02ea
00000040: 0202 00de 2602 db01 feff 0300 0116 05e7
00000050: 1d00 06fb 0019 e5ff 03fe 0201 001b 00ff
00000060: 04e6 0000 fefe 0201 d72a 131d e503 3600
00000070: 01db 2302 4aff ff36 3afb ff00 df02 00ff
00000080: 2b00 0100 4c06 2efc e138 0104 051a 0300
00000090: 0118 2924 ddfe 0102 02fd 1c02 0100 2e04
000000a0: e21a 0201 e601 fdfe 0103 e4e8 e0fe fc22
000000b0: 0020 00ff 00fd fdff 1bd4 030c 1d01 e2fd
000000c0: fffd fe01 021c 0000 01fe fbfe 0203 0000
000000d0: 00fd fffe ff04 0400 00fe ffff 18fe 0101
000000e0: e902 e801 03f8 fe00 0401 ff01 d8e7 fd24
000000f0: 03dd e0fa f709 fefd 0eed dffb fcfe fee7

fuse_attr_8 i1 [22, 3, 3, 15] scale=0.0049062516 zero_point=0
-0.019625006 0.014718754 -0.014718754 -0.009812503 -0.024531258 0.18153131 0.014718754 0.0049062516
0.03434376 0.22568758 -0.024531258 -0.019625006 -0.03434376 -0.029437508 -0.03434376 -0.009812503
-0.009812503 -0.18153131 0.0 -0.25021884 0.21587507 0.014718754 0.0049062516 -0.058875017
-0.039250012 -0.019625006 -0.17662506 -0.019625006 -0.26003134 -0.024531258 -0.009812503 -0.014718754
-0.3434376 0.009812503 -0.024531258 -0.049062517 0.18153131 -0.0049062516 -0.21587507 -0.19134381
-0.029437508 -0.22078133 -0.0049062516 0.20115632 0.12756254 0.009812503 0.06378127 0.03434376
-0.014718754 -0.15700005 0.21587507 -0.25021884 -0.009812503 0.117750034 0.38759387 -0.019625006
0.009812503 -0.019625006 -0.20115632 -0.029437508 0.019625006 0.019625006 -0.0049062516 -0.009812503
-0.2845626 -0.009812503 -0.28946885 -0.0049062516 0.019625006 0.0 -0.014718754 -0.1717188
-0.1619063 -0.41703138 -0.029437508 0.009812503 -0.014718754 -0.26003134 0.0049062516 0.009812503
-0.23059383 0.0 -0.009812503 -0.019625006 -0.17662506 -0.019625006 -0.2943751 -0.17662506
-0.014718754 0.13737504 0.09321878 0.09321878 0.058875017 0.1520938 -0.15700005 0.024531258
-0.2845626 -0.019625006 0.13246879 0.26003134 -0.0049062516 0.0 -0.014718754 0.0
-0.044156265 0.078500025 0.029437508 0.0 -0.019625006 0.009812503 -0.0049062516 -0.21096882
-0.019625006 0.058875017 0.0049062516 -0.009812503 -0.014718754 -0.009812503 0.0049062516 0.14718755
0.039250012 -0.044156265 -0.03434376 0.0 -0.009812503 -0.014718754 0.0 0.14718755
0.0049062516 0.0 -0.014718754 -0.014718754 -0.024531258 0.0 0.13246879 -0.009812503
-0.06378127 -0.09321878 -0.0049062516 0.024531258 -0.11284379 0.0049062516 0.009812503 -0.06378127
-0.07359377 0.019625006 -0.014718754 0.1619063 0.1619063 -0.009812503 -0.039250012 -0.08831253
-0.14718755 -0.024531258 -0.05396877 -0.12756254 -0.122656286 0.009812503 0.014718754 0.014718754
0.024531258 -0.014718754 0.122656286 0.09812503 -0.08340628 -0.20606257 0.009812503 -0.14718755
-0.019625006 0.0049062516 0.0049062516 0.0 0.014718754 0.014718754 0.029437508 0.029437508
-0.014718754 0.024531258 0.08831253 -0.009812503 0.22568758 -0.08340628 -0.06378127 0.039250012
0.11284379 -0.103031285 -0.0049062516 -0.009812503 0.078500025 -0.014718754 -0.06868752 -0.0049062516
0.039250012 0.0 -0.014718754 0.117750034 -0.122656286 -0.13246879 0.009812503 0.08831253
-0.0049062516 -0.0049062516 -0.0049062516 -0.014718754 -0.0049062516 -0.07359377 -0.0049062516 -0.07359377
-0.09812503 -0.12756254 -0.117750034 -0.08831253 -0.13246879 0.0 -0.014718754 -0.0049062516
-0.06868752 0.0 -0.014718754 0.009812503 -0.08831253 -0.0049062516 -0.078500025 -0.10793754
-0.12756254 0.03434376 0.0 0.009812503 0.019625006 0.07359377 -0.12756254 0.019625006
0.014718754 -0.0049062516 -0.014718754 0.014718754 -0.0049062516 0.039250012 -0.009812503 0.0049062516
0.0 -0.07359377 0.0049062516 0.0 0.058875017 -0.07359377 0.009812503 0.014718754
0.0 -0.0049062516 -0.058875017 0.0 0.024531258 -0.0049062516 0.009812503 -0.122656286
00000000: fc03 fdfe fb25 0301 072e fbfc f9fa f9fe
00000010: fedb 00cd 2c03 01f4 f8fc dcfc cbfb fefd
00000020: ba02 fbf6 25ff d4d9 fad3 ff29 1a02 0d07
00000030: fde0 2ccd fe18 4ffc 02fc d7fa 0404 fffe
00000040: c6fe c5ff 0400 fddd dfab fa02 fdcb 0102
00000050: d100 fefc dcfc c4dc fd1c 1313 0c1f e005
00000060: c6fc 1b35 ff00 fd00 f710 0600 fc02 ffd5
00000070: fc0c 01fe fdfe 011e 08f7 f900 fefd 001e
00000080: 0100 fdfd fb00 1bfe f3ed ff05 e901 02f3
00000090: f104 fd21 21fe f8ee e2fb f5e6 e702 0303
000000a0: 05fd 1914 efd6 02e2 fc01 0100 0303 0606
000000b0: fd05 12fe 2eef f308 17eb fffe 10fd f2ff
000000c0: 0800 fd18 e7e5 0212 ffff fffd fff1 fff1
000000d0: ece6 e8ee e500 fdff f200 fd02 eeff f0ea
000000e0: e607 0002 040f e604 03ff fd03 ff08 fe01
000000f0: 00f1 0100 0cf1 0203 00ff f400 05ff 02e7

fuse_attr_13 i1 [65, 3, 3, 52] scale=0.0042641866 zero_point=0
-0.029849306 -0.029849306 0.0042641866 0.0 -0.0042641866 0.012792559 -0.0042641866 0.0
0.0 -0.0042641866 0.0 0.0 0.0 0.0042641866 -0.0042641866 -0.021320933
-0.0042641866 -0.017056746 -0.008528373 -0.0042641866 0.0 0.017056746 -0.008528373 0.008528373
-0.008528373 -0.0042641866 0.008528373 0.0 -0.0042641866 0.042641867 -0.008528373 -0.008528373
-0.0042641866 0.0042641866 -0.012792559 0.0042641866 0.008528373 -0.0042641866 -0.008528373 0.14924653
-0.0042641866 0.0 -0.017056746 0.0042641866 -0.008528373 -0.008528373 -0.0042641866 -0.0042641866
0.017056746 -0.012792559 0.0 -0.021320933 -0.042641867 -0.021320933 0.021320933 0.0
0.0 -0.008528373 -0.008528373 0.0 0.0 -0.0042641866 -0.0042641866 0.0
-0.0042641866 0.0042641866 0.0 -0.025585119 0.008528373 -0.017056746 -0.0042641866 -0.18336003
0.008528373 -0.017056746 -0.017056746 0.0042641866 -0.012792559 0.0042641866 0.0 -0.012792559
0.0 0.03837768 0.0 -0.0042641866 0.008528373 -0.008528373 -0.008528373 -0.0042641866
0.012792559 -0.0042641866 0.0 -0.008528373 -0.0042641866 -0.008528373 -0.012792559 -0.0042641866
-0.0042641866 -0.008528373 -0.017056746 0.0 0.0042641866 -0.012792559 0.0042641866 -0.008528373
-0.03837768 -0.017056746 0.021320933 -0.0042641866 0.0042641866 0.0 -0.008528373 -0.0042641866
0.008528373 0.017056746 0.0 -0.0042641866 -0.008528373 0.0 -0.0042641866 -0.029849306
0.008528373 -0.012792559 0.008528373 -0.012792559 0.012792559 -0.0042641866 -0.012792559 -0.0042641866
-0.008528373 0.0 -0.025585119 -0.008528373 0.008528373 0.03837768 0.008528373 0.012792559
0.008528373 -0.008528373 -0.008528373 0.0 0.008528373 -0.008528373 0.012792559 -0.008528373
-0.0042641866 -0.021320933 -0.0042641866 -0.008528373 0.0 0.0 -0.012792559 -0.0042641866
0.0 -0.008528373 0.008528373 -0.008528373 0.0 0.008528373 -0.034113493 -0.012792559
-0.042641867 -0.05969861 -0.025585119 -0.008528373 -0.034113493 -0.012792559 -0.034113493 -0.012792559
-0.0042641866 0.012792559 0.012792559 -0.055434424 0.0 0.0 -0.008528373 -0.0042641866
-0.025585119 -0.008528373 -0.012792559 0.021320933 -0.008528373 -0.0042641866 -0.055434424 -0.012792559
-0.025585119 -0.008528373 -0.03837768 -0.03837768 -0.012792559 0.021320933 0.0 0.0042641866
0.0042641866 -0.012792559 -0.0042641866 -0.008528373 -0.012792559 -0.051170237 -0.046906054 0.11939722
0.0042641866 -0.025585119 0.017056746 0.0042641866 -0.0042641866 -0.017056746 -0.0042641866 -0.034113493
0.008528373 -0.008528373 -0.008528373 0.2217377 -0.051170237 -0.03837768 -0.029849306 -0.008528373
-0.021320933 -0.0042641866 -0.025585119 -0.025585119 -0.008528373 -0.012792559 0.008528373 -0.03837768
0.012792559 0.0 0.017056746 -0.025585119 -0.042641867 -0.03837768 -0.029849306 0.012792559
-0.0042641866 0.0 -0.21320933 0.0 -0.012792559 -0.008528373 -0.025585119 -0.051170237
-0.021320933 -0.029849306 -0.012792559 -0.025585119 0.0042641866 -0.017056746 0.0 0.0042641866
-0.012792559 -0.029849306 -0.042641867 -0.0042641866 -0.021320933 -0.029849306 0.03837768 0.0
00000000: f9f9 0100 ff03 ff00 00ff 0000 0001 fffb
00000010: fffc feff 0004 fe02 feff 0200 ff0a fefe
00000020: ff01 fd01 02ff fe23 ff00 fc01 fefe ffff
00000030: 04fd 00fb f6fb 0500 00fe fe00 00ff ff00
00000040: ff01 00fa 02fc ffd5 02fc fc01 fd01 00fd
00000050: 0009 00ff 02fe feff 03ff 00fe fffe fdff
00000060: fffe fc00 01fd 01fe f7fc 05ff 0100 feff
00000070: 0204 00ff fe00 fff9 02fd 02fd 03ff fdff
00000080: fe00 fafe 0209 0203 02fe fe00 02fe 03fe
00000090: fffb fffe 0000 fdff 00fe 02fe 0002 f8fd
000000a0: f6f2 fafe f8fd f8fd ff03 03f3 0000 feff
000000b0: fafe fd05 feff f3fd fafe f7f7 fd05 0001
000000c0: 01fd fffe fdf4 f51c 01fa 0401 fffc fff8
000000d0: 02fe fe34 f4f7 f9fe fbff fafa fefd 02f7
000000e0: 0300 04fa f6f7 f903 ff00 ce00 fdfe faf4
000000f0: fbf9 fdfa 01fc 0001 fdf9 f6ff fbf9 0900

fuse_attr_9 i1 [27, 3, 3, 22] scale=0.009222893 zero_point=0
-0.018445786 -0.018445786 -0.036891572 0.0 0.073783144 -0.046114467 -0.06456025 -0.08300604
-0.02766868 0.18445787 -0.05533736 0.009222893 0.22134943 0.05533736 0.32280126 0.036891572
0.05533736 0.0 0.0 -0.02766868 0.018445786 -0.046114467 -0.018445786 -0.036891572
-0.10145182 -0.018445786 0.08300604 -0.018445786 -0.06456025 -0.046114467 0.20290364 0.23057233
-0.018445786 -0.018445786 0.23057233 -0.1291205 0.14756629 0.23057233 0.02766868 0.009222893
0.0 -0.018445786 0.018445786 -0.05533736 -0.009222893 -0.20290364 0.05533736 -0.19368075
-0.08300604 -0.02766868 -0.05533736 -0.06456025 0.0 -0.018445786 -0.009222893 -0.036891572
-0.02766868 -0.23979522 0.28590968 0.21212654 0.009222893 -0.20290364 0.0 -0.018445786
0.018445786 -0.06456025 -0.009222893 -0.009222893 0.3873615 0.19368075 0.16601208 -0.009222893
-0.036891572 -0.036891572 -0.009222893 0.0 -0.046114467 0.046114467 -0.046114467 0.02766868
0.018445786 -0.009222893 0.06456025 0.06456025 0.0 -0.009222893 0.018445786 -0.018445786
0.0 -0.018445786 0.3965844 0.19368075 0.0 0.0 -0.02766868 -0.18445787
0.0 -0.02766868 -0.02766868 -0.018445786 -0.02766868 -0.19368075 0.009222893 -0.018445786
0.009222893 0.33202416 -0.009222893 0.0 0.018445786 -0.036891572 0.009222893 -0.18445787
0.11067472 0.1291205 -0.009222893 0.009222893 -0.018445786 -0.20290364 0.009222893 -0.036891572
-0.018445786 -0.046114467 -0.06456025 -0.1383434 0.02766868 -0.018445786 -0.018445786 -0.009222893
0.0 0.0 0.009222893 -0.05533736 -0.009222893 -0.02766868 -0.009222893 -0.02766868
-0.018445786 -0.018445786 -0.036891572 -0.02766868 0.009222893 -0.018445786 -0.05533736 0.018445786
-0.17523497 0.018445786 -0.06456025 0.009222893 -0.16601208 0.02766868 0.2766868 0.0
0.036891572 -0.018445786 0.0 -0.036891572 -0.073783144 -0.02766868 0.009222893 0.0
-0.073783144 0.018445786 0.009222893 -0.018445786 -0.036891572 -0.28590968 -0.018445786 -0.009222893
-0.05533736 0.009222893 -0.23057233 -0.036891572 0.23979522 0.009222893 0.036891572 -0.046114467
0.0 -0.05533736 -0.018445786 -0.06456025 0.0 0.0 -0.06456025 0.018445786
0.036891572 -0.018445786 -0.046114467 -0.02766868 -0.23057233 -0.009222893 -0.046114467 0.018445786
-0.036891572 -0.046114467 -0.009222893 0.009222893 0.036891572 -0.05533736 -0.009222893 0.22134943
-0.41503018 -0.046114467 0.046114467 0.0 0.046114467 -0.20290364 -0.20290364 0.0
0.009222893 0.02766868 0.06456025 0.009222893 0.036891572 0.018445786 0.0 0.018445786
-0.018445786 -0.018445786 -0.02766868 -0.02766868 0.19368075 0.30435547 -0.018445786 -0.018445786
0.009222893 -0.036891572 0.036891572 -0.018445786 0.009222893 0.009222893 -0.018445786 0.08300604
0.05533736 0.009222893 0.018445786 -0.19368075 -0.009222893 0.046114467 -0.018445786 -0.018445786
-0.018445786 -0.018445786 0.29513258 0.29513258 0.02766868 -0.02766868 0.0 -0.009222893
0.21212654 0.0 0.0 0.009222893 0.009222893 0.073783144 0.036891572 0.0
00000000: fefe fc00 08fb f9f7 fd14 fa01 1806 2304
00000010: 0600 00fd 02fb fefc f5fe 09fe f9fb 1619
00000020: fefe 19f2 1019 0301 00fe 02fa ffea 06eb
00000030: f7fd faf9 00fe fffc fde6 1f17 01ea 00fe
00000040: 02f9 ffff 2a15 12ff fcfc ff00 fb05 fb03
00000050: 02ff 0707 00ff 02fe 00fe 2b15 0000 fdec
00000060: 00fd fdfe fdeb 01fe 0124 ff00 02fc 01ec
00000070: 0c0e ff01 feea 01fc fefb f9f1 03fe feff
00000080: 0000 01fa fffd fffd fefe fcfd 01fe fa02
00000090: ed02 f901 ee03 1e00 04fe 00fc f8fd 0100
000000a0: f802 01fe fce1 feff fa01 e7fc 1a01 04fb
000000b0: 00fa fef9 0000 f902 04fe fbfd e7ff fb02
000000c0: fcfb ff01 04fa ff18 d3fb 0500 05ea ea00
000000d0: 0103 0701 0402 0002 fefe fdfd 1521 fefe
000000e0: 01fc 04fe 0101 fe09 0601 02eb ff05 fefe
000000f0: fefe 2020 03fd 00ff 1700 0001 0108 0400

fuse_attr_7 i1 [15, 3, 3, 10] scale=0.0077068387 zero_point=0
0.238912 -0.015413677 -0.19267097 0.09248206 0.0077068387 -0.015413677 -0.0077068387 0.1001889
0.015413677 -0.09248206 0.07706839 -0.015413677 -0.084775224 0.023120515 0.023120515 0.038534194
-0.16184361 -0.0077068387 -0.015413677 0.06165471 0.1001889 -0.0077068387 -0.11560258 0.015413677
0.0077068387 -0.069361545 -0.10789574 -0.13101625 0.0 0.023120515 0.030827355 -0.0077068387
-0.084775224 -0.05394787 -0.1001889 0.05394787 -0.14642994 -0.13872309 0.030827355 -0.13872309
-0.0077068387 -0.0077068387 -0.05394787 -0.038534194 -0.14642994 0.0077068387 -0.238912 -0.11560258
0.0077068387 -0.16184361 0.04624103 -0.0077068387 -0.038534194 0.023120515 -0.14642994 0.015413677
-0.17725728 -0.2543257 0.0077068387 -0.04624103 0.35451457 0.0 -0.06165471 0.13872309
-0.2003778 0.09248206 -0.023120515 -0.13101625 0.04624103 -0.20808464 0.23120517 0.0077068387
0.0 0.05394787 -0.26973936 0.12330942 -0.11560258 -0.10789574 0.030827355 -0.16184361
0.2620325 0.0077068387 0.06165471 0.11560258 -0.17725728 0.0 -0.11560258 -0.18496412
0.023120515 -0.1001889 0.09248206 -0.0077068387 0.16955045 -0.023120515 0.023120515 0.0077068387
0.0077068387 -0.038534194 -0.06165471 -0.015413677 0.2003778 0.0 0.12330942 -0.015413677
0.0077068387 0.030827355 0.0 -0.023120515 -0.030827355 0.023120515 0.23120517 0.015413677
0.06165471 -0.038534194 -0.023120515 0.030827355 0.0077068387 0.10789574 0.0 0.030827355
-0.04624103 0.0077068387 0.13101625 0.015413677 0.13101625 0.04624103 -0.0077068387 -0.05394787
-0.06165471 -0.07706839 0.17725728 0.0 0.09248206 0.023120515 0.15413678 0.038534194
0.0 -0.038534194 -0.030827355 0.05394787 0.2543257 0.0077068387 0.030827355 0.0077068387
-0.023120515 0.023120515 0.0 0.084775224 -0.015413677 0.084775224 -0.05394787 -0.0077068387
0.084775224 0.015413677 -0.023120515 -0.0077068387 0.0 -0.0077068387 -0.084775224 0.023120515
0.0 0.0 0.05394787 0.06165471 -0.0077068387 0.015413677 0.0 -0.0077068387
-0.05394787 0.07706839 0.04624103 0.0 0.023120515 0.023120515 -0.04624103 0.015413677
0.0 0.1001889 -0.04624103 0.13872309 0.0077068387 0.0 -0.0077068387 -0.05394787
-0.030827355 0.04624103 -0.16955045 -0.26973936 0.030827355 -0.06165471 0.084775224 -0.0077068387
-0.023120515 -0.023120515 0.2003778 0.06165471 0.0077068387 -0.3005667 0.038534194 -0.06165471
0.07706839 0.0077068387 -0.015413677 -0.023120515 0.31598037 0.06165471 0.0 -0.477824
0.05394787 -0.11560258 -0.12330942 -0.0077068387 0.023120515 0.015413677 0.11560258 0.023120515
-0.30827355 -0.11560258 0.023120515 -0.06165471 0.09248206 -0.015413677 0.0077068387 0.05394787
0.20808464 0.04624103 -0.17725728 -0.17725728 0.038534194 -0.038534194 -0.11560258 0.0
0.015413677 0.16955045 0.40846244 0.05394787 -0.16184361 -0.35451457 0.05394787 -0.05394787
0.04624103 0.0 0.0 -0.06165471 0.0 0.069361545 -0.17725728 -0.16184361
0.015413677 -0.16184361 0.09248206 0.0 -0.015413677 0.09248206 -0.0077068387 0.084775224
00000000: 1ffe e70c 01fe ff0d 02f4 0afe f503 0305
00000010: ebff fe08 0dff f102 01f7 f2ef 0003 04ff
00000020: f5f9 f307 edee 04ee ffff f9fb ed01 e1f1
00000030: 01eb 06ff fb03 ed02 e9df 01fa 2e00 f812
00000040: e60c fdef 06e5 1e01 0007 dd10 f1f2 04eb
00000050: 2201 080f e900 f1e8 03f3 0cff 16fd 0301
00000060: 01fb f8fe 1a00 10fe 0104 00fd fc03 1e02
00000070: 08fb fd04 010e 0004 fa01 1102 1106 fff9
00000080: f8f6 1700 0c03 1405 00fb fc07 2101 0401
00000090: fd03 000b fe0b f9ff 0b02 fdff 00ff f503
000000a0: 0000 0708 ff02 00ff f90a 0600 0303 fa02
000000b0: 000d fa12 0100 fff9 fc06 eadd 04f8 0bff
000000c0: fdfd 1a08 01d9 05f8 0a01 fefd 2908 00c2
000000d0: 07f1 f0ff 0302 0f03 d8f1 03f8 0cfe 0107
000000e0: 1b06 e9e9 05fb f100 0216 3507 ebd2 07f9
000000f0: 0600 00f8 0009 e9eb 02eb 0c00 fe0c ff0b

fuse_attr_5 i1 [7, 3, 3, 1] scale=0.0077230707 zero_point=0
0.72596866 -0.43249196 -0.24713826 -0.069507636 0.030892283 0.069507636 0.0077230707 0.054061495
0.069507636 0.0 0.0 0.0077230707 -0.0077230707 -0.0077230707 0.0 0.0
0.054061495 0.015446141 0.12356913 -0.51744574 0.16218448 0.30892283 -0.6023995 0.17763063
0.22396904 -0.3707074 0.12356913 -0.015446141 -0.015446141 -0.0077230707 -0.015446141 -0.015446141
-0.015446141 0.030892283 0.07723071 0.054061495 0.2857536 0.20852292 0.16218448 -0.08495378
-0.2394152 -0.10812299 -0.23169212 -0.1312922 0.061784565 0.0 0.030892283 0.0
0.0 0.0 0.0 0.023169212 0.038615353 0.0077230707 0.07723071 0.069507636
-0.1312922 0.1312922 0.08495378 -0.27030748 -0.38615352 -0.6873533 0.98082995
00000000: 5ec8 e0f7 0409 0107 0900 0001 ffff 0000
00000010: 0702 10bd 1528 b217 1dd0 10fe feff fefe
00000020: fe04 0a07 251b 15f5 e1f2 e2ef 0800 0400
00000030: 0000 0003 0501 0a09 ef11 0bdd cea7 7f
