th/quantized_models/quant_retrained_model_0.83compress_acc_95.4_20240220142153_shiftbits.tflite (tflite, 101576 bytes, 12 tensors)

fuse_attr_14 i1 [2, 1, 1, 65] scale=0.018140819 zero_point=0
00000000: 023f 57fe 0500 0403 0201 fc02 0203 ffee
00000010: fe03 4a0d fe00 04fc fb38 0201 3dff 0201
00000020: 0360 034a 0200 3d25 0205 4003 0009 0302
00000030: 3501 eb00 0201 fc5b ffff 0402 0200 ffff
00000040: 41ff a4f6 030c fffb 0ffc 0b03 fbff 070b
00000050: 7f04 0bd1 170b 05fc 0407 b4ff 05b4 0204
00000060: 0f06 edfc e7fd fde2 c501 09d5 0dfd 0e0b
00000070: 03d9 0b76 0510 fe00 be04 fefe 000e 0203
00000080: 04da
0.036281638 1.1428716 1.5782512 -0.036281638 0.0907041 0.0 0.072563276 0.054422457
0.036281638 0.018140819 -0.072563276 0.036281638 0.036281638 0.054422457 -0.018140819 -0.32653475
-0.036281638 0.054422457 1.3424206 0.23583065 -0.036281638 0.0 0.072563276 -0.072563276
-0.0907041 1.0158858 0.036281638 0.018140819 1.1065899 -0.018140819 0.036281638 0.018140819
0.054422457 1.7415186 0.054422457 1.3424206 0.036281638 0.0 1.1065899 0.6712103
0.036281638 0.0907041 1.1610124 0.054422457 0.0 0.16326737 0.054422457 0.036281638
0.9614634 0.018140819 -0.3809572 0.0 0.036281638 0.018140819 -0.072563276 1.6508145
-0.018140819 -0.018140819 0.072563276 0.036281638 0.036281638 0.0 -0.018140819 -0.018140819
1.1791532 -0.018140819 -1.6689553 -0.1814082 0.054422457 0.21768983 -0.018140819 -0.0907041
0.27211228 -0.072563276 0.199549 0.054422457 -0.0907041 -0.018140819 0.12698573 0.199549
2.303884 0.072563276 0.199549 -0.8526185 0.41723883 0.199549 0.0907041 -0.072563276
0.072563276 0.12698573 -1.3787023 -0.018140819 0.0907041 -1.3787023 0.036281638 0.072563276
0.27211228 0.10884491 -0.34467557 -0.072563276 -0.45352048 -0.054422457 -0.054422457 -0.54422456
-1.0703083 0.018140819 0.16326737 -0.7800552 0.23583065 -0.054422457 0.25397146 0.199549
0.054422457 -0.70749193 0.199549 2.1406167 0.0907041 0.2902531 -0.036281638 0.0
-1.197294 0.072563276 -0.036281638 -0.036281638 0.0 0.25397146 0.036281638 0.054422457
0.072563276 -0.68935114

fuse_attr_10 i1 [39, 3, 3, 40] scale=0.0046563353 zero_point=0
00000000: 0000 0000 0000 0000 0000 0000 0000 0000
00000010: 0000 0000 0000 0000 0000 0000 0000 0000
00000020: 0000 0000 0000 0000 0000 0000 0000 0000
00000030: 0000 0000 0000 0000 0000 0000 0000 0000
00000040: 0000 0000 0000 00ff 00ff 0000 0000 0000
00000050: 0000 0000 0000 0000 0000 0000 0000 0000
00000060: 0000 0000 0000 0000 0000 0000 0000 0000
00000070: 0000 0000 0000 0000 ff00 0000 0000 ff00
00000080: 0100 0000 00ff 0000 0000 0000 0000 0000
00000090: 00ff 0000 ff00 0000 0000 0000 00ff 0000
000000a0: ff00 0000 0100 0001 0100 00ff 0000 0000
000000b0: 0000 0000 0000 00ff 0100 0000 0000 ffff
000000c0: 0000 0000 0000 00ff ff00 0000 0000 0000
000000d0: 0000 00ff 00ff 00ff 0000 0001 0000 0000
000000e0: 0000 0000 0000 ff00 0000 0000 0000 0000
000000f0: ff00 0000 0000 0000 0000 0000 0000 0000
0.0 0.0 0.0 0.0 0.0 0.0 0.0 0.0
0.0 0.0 0.0 0.0 0.0 0.0 0.0 0.0
0.0 0.0 0.0 0.0 0.0 0.0 0.0 0.0
0.0 0.0 0.0 0.0 0.0 0.0 0.0 0.0
0.0 0.0 0.0 0.0 0.0 0.0 0.0 0.0
0.0 0.0 0.0 0.0 0.0 0.0 0.0 0.0
0.0 0.0 0.0 0.0 0.0 0.0 0.0 0.0
0.0 0.0 0.0 0.0 0.0 0.0 0.0 0.0
0.0 0.0 0.0 0.0 0.0 0.0 0.0 -0.0046563353
0.0 -0.0046563353 0.0 0.0 0.0 0.0 0.0 0.0
0.0 0.0 0.0 0.0 0.0 0.0 0.0 0.0
0.0 0.0 0.0 0.0 0.0 0.0 0.0 0.0
0.0 0.0 0.0 0.0 0.0 0.0 0.0 0.0
0.0 0.0 0.0 0.0 0.0 0.0 0.0 0.0
0.0 0.0 0.0 0.0 0.0 0.0 0.0 0.0
-0.0046563353 0.0 0.0 0.0 0.0 0.0 -0.0046563353 0.0
0.0046563353 0.0 0.0 0.0 0.0 -0.0046563353 0.0 0.0
0.0 0.0 0.0 0.0 0.0 0.0 0.0 0.0
0.0 -0.0046563353 0.0 0.0 -0.0046563353 0.0 0.0 0.0
0.0 0.0 0.0 0.0 0.0 -0.0046563353 0.0 0.0
-0.0046563353 0.0 0.0 0.0 0.0046563353 0.0 0.0 0.0046563353
0.0046563353 0.0 0.0 -0.0046563353 0.0 0.0 0.0 0.0
0.0 0.0 0.0 0.0 0.0 0.0 0.0 -0.0046563353
0.0046563353 0.0 0.0 0.0 0.0 0.0 -0.0046563353 -0.0046563353
0.0 0.0 0.0 0.0 0.0 0.0 0.0 -0.0046563353
-0.0046563353 0.0 0.0 0.0 0.0 0.0 0.0 0.0
0.0 0.0 0.0 -0.0046563353 0.0 -0.0046563353 0.0 -0.0046563353
0.0 0.0 0.0 0.0046563353 0.0 0.0 0.0 0.0
0.0 0.0 0.0 0.0 0.0 0.0 -0.0046563353 0.0
0.0 0.0 0.0 0.0 0.0 0.0 0.0 0.0
-0.0046563353 0.0 0.0 0.0 0.0 0.0 0.0 0.0
0.0 0.0 0.0 0.0 0.0 0.0 0.0 0.0

fuse_attr_6 i1 [21, 3, 3, 11] scale=0.0018486929 zero_point=0
00000000: 0a05 01f2 be0c 0803 3124 15fb 0300 f3de
00000010: 14e6 031f 17fb f000 00f9 df16 8b03 0f08
00000020: e7fb ffff 0117 04be 01e6 eacb fcfe ff02
00000030: 1b09 af01 eaea c4ee fcfe 0620 0980 01d8
00000040: e0a7 d9f7 fffe 58f6 e5fc b2c6 b1e0 f8fe
00000050: fd58 f9f4 fcb7 ceaf d2f8 fe01 58fa f9fc
00000060: aec8 a3f5 fc02 fc26 f909 fff0 eff2 fafc
00000070: f7fe 2ffe fcff ede7 e7f4 fcff ff2a f9f2
00000080: ffea ecea fbff 07fb 15fb f3ff f6f2 01f1
00000090: fff8 fd20 02f9 fff5 f2f6 f6fe 0202 18ff
000000a0: 0dff f4f6 f9fb 0103 fbf5 020b 0004 05fa
000000b0: fc00 fcfb 0003 0500 0201 fafa 0004 fcff
000000c0: 010f 00ff fffb 1a05 f9f2 b60b e403 301e
000000d0: 230c 04f7 f0d8 11a4 0317 060e 0003 faec
000000e0: d312 9502 0afe f807 00fa f0ed eedc 00f7
000000f0: 05fa 0400 f8ed fbf1 c500 f200 f6f7 00fb
0.018486928 0.009243464 0.0018486929 -0.0258817 -0.12201373 0.022184314 0.014789543 0.0055460786
0.090585954 0.066552944 0.03882255 -0.009243464 0.0055460786 0.0 -0.024033008 -0.06285556
0.036973856 -0.048066016 0.0055460786 0.05730948 0.04251994 -0.009243464 -0.029579086 0.0
0.0 -0.01294085 -0.061006866 0.040671244 -0.21629708 0.0055460786 0.027730394 0.014789543
-0.046217322 -0.009243464 -0.0018486929 -0.0018486929 0.0018486929 0.04251994 0.0073947716 -0.12201373
0.0018486929 -0.048066016 -0.040671244 -0.09798072 -0.0073947716 -0.0036973858 -0.0018486929 0.0036973858
0.049914706 0.016638236 -0.14974412 0.0018486929 -0.040671244 -0.040671244 -0.11092158 -0.033276472
-0.0073947716 -0.0036973858 0.011092157 0.059158172 0.016638236 -0.23663269 0.0018486929 -0.07394771
-0.059158172 -0.16453366 -0.07209902 -0.016638236 -0.0018486929 -0.0036973858 0.16268498 -0.018486928
-0.049914706 -0.0073947716 -0.14419805 -0.10722419 -0.14604674 -0.059158172 -0.014789543 -0.0036973858
-0.0055460786 0.16268498 -0.01294085 -0.022184314 -0.0073947716 -0.13495459 -0.092434645 -0.14974412
-0.08503988 -0.014789543 -0.0036973858 0.0018486929 0.16268498 -0.011092157 -0.01294085 -0.0073947716
-0.15159282 -0.1035268 -0.17192844 -0.020335622 -0.0073947716 0.0036973858 -0.0073947716 0.07025033
-0.01294085 0.016638236 -0.0018486929 -0.029579086 -0.03142778 -0.0258817 -0.011092157 -0.0073947716
-0.016638236 -0.0036973858 0.08688857 -0.0036973858 -0.0073947716 -0.0018486929 -0.035125166 -0.046217322
-0.046217322 -0.022184314 -0.0073947716 -0.0018486929 -0.0018486929 0.0776451 -0.01294085 -0.0258817
-0.0018486929 -0.040671244 -0.036973856 -0.040671244 -0.009243464 -0.0018486929 0.01294085 -0.009243464
0.03882255 -0.009243464 -0.024033008 -0.0018486929 -0.018486928 -0.0258817 0.0018486929 -0.027730394
-0.0018486929 -0.014789543 -0.0055460786 0.059158172 0.0036973858 -0.01294085 -0.0018486929 -0.020335622
-0.0258817 -0.018486928 -0.018486928 -0.0036973858 0.0036973858 0.0036973858 0.04436863 -0.0018486929
0.024033008 -0.0018486929 -0.022184314 -0.018486928 -0.01294085 -0.009243464 0.0018486929 0.0055460786
-0.009243464 -0.020335622 0.0036973858 0.020335622 0.0 0.0073947716 0.009243464 -0.011092157
-0.0073947716 0.0 -0.0073947716 -0.009243464 0.0 0.0055460786 0.009243464 0.0
0.0036973858 0.0018486929 -0.011092157 -0.011092157 0.0 0.0073947716 -0.0073947716 -0.0018486929
0.0018486929 0.027730394 0.0 -0.0018486929 -0.0018486929 -0.009243464 0.048066016 0.009243464
-0.01294085 -0.0258817 -0.13680327 0.020335622 -0.0517634 0.0055460786 0.08873726 0.05546079
0.064704254 0.022184314 0.0073947716 -0.016638236 -0.029579086 -0.07394771 0.03142778 -0.17007975
0.0055460786 0.04251994 0.011092157 0.0258817 0.0 0.0055460786 -0.011092157 -0.036973856
-0.08319118 0.033276472 -0.19781014 0.0036973858 0.018486928 -0.0036973858 -0.014789543 0.01294085
0.0 -0.011092157 -0.029579086 -0.035125166 -0.033276472 -0.066552944 0.0 -0.016638236
0.009243464 -0.011092157 0.0073947716 0.0 -0.014789543 -0.035125166 -0.009243464 -0.027730394
-0.10907288 0.0 -0.0258817 0.0 -0.018486928 -0.016638236 0.0 -0.009243464

fuse_attr_8 i1 [26, 3, 3, 16] scale=0.0014331231 zero_point=0
00000000: 0000 0000 00ff 00ff 00ff ff00 0000 ff00
00000010: 0000 0000 00ff ffff 0000 ff00 00ff ff01
00000020: 0000 0000 ffff 00ff 0000 ff00 ffff fe00
00000030: 0000 0000 00ff 0100 0000 0000 0100 fe01
00000040: 0001 0000 00ff 0000 0001 0000 0100 fe01
00000050: ff01 0000 00ff 0100 0001 ff00 ff01 fe00
00000060: 00ff 0000 ff01 0001 0001 0000 0300 0001
00000070: 00ff 0000 0001 00ff 0002 0000 0100 ff00
00000080: 00ff 0000 ff00 0100 ff00 00ff 0001 ff00
00000090: fc10 fd03 ffad 111f fd07 fa03 19fe d704
000000a0: 0425 0005 fdbe 1d20 fc04 fe00 2cfe d906
000000b0: 0c24 fe04 fcae 2620 fb06 00fe 3304 c603
000000c0: 1705 0107 fce8 0711 01fd fb04 06ff e300
000000d0: 1f13 0408 fcf5 1014 fefd ffff 1c00 dd01
000000e0: 2613 0106 faef 1515 01fc 0100 1b06 de00
000000f0: faed ff05 00f3 fe01 01f9 fe02 fafd e8fe
0.0 0.0 0.0 0.0 0.0 -0.0014331231 0.0 -0.0014331231
0.0 -0.0014331231 -0.0014331231 0.0 0.0 0.0 -0.0014331231 0.0
0.0 0.0 0.0 0.0 0.0 -0.0014331231 -0.0014331231 -0.0014331231
0.0 0.0 -0.0014331231 0.0 0.0 -0.0014331231 -0.0014331231 0.0014331231
0.0 0.0 0.0 0.0 -0.0014331231 -0.0014331231 0.0 -0.0014331231
0.0 0.0 -0.0014331231 0.0 -0.0014331231 -0.0014331231 -0.0028662463 0.0
0.0 0.0 0.0 0.0 0.0 -0.0014331231 0.0014331231 0.0
0.0 0.0 0.0 0.0 0.0014331231 0.0 -0.0028662463 0.0014331231
0.0 0.0014331231 0.0 0.0 0.0 -0.0014331231 0.0 0.0
0.0 0.0014331231 0.0 0.0 0.0014331231 0.0 -0.0028662463 0.0014331231
-0.0014331231 0.0014331231 0.0 0.0 0.0 -0.0014331231 0.0014331231 0.0
0.0 0.0014331231 -0.0014331231 0.0 -0.0014331231 0.0014331231 -0.0028662463 0.0
0.0 -0.0014331231 0.0 0.0 -0.0014331231 0.0014331231 0.0 0.0014331231
0.0 0.0014331231 0.0 0.0 0.0042993696 0.0 0.0 0.0014331231
0.0 -0.0014331231 0.0 0.0 0.0 0.0014331231 0.0 -0.0014331231
0.0 0.0028662463 0.0 0.0 0.0014331231 0.0 -0.0014331231 0.0
0.0 -0.0014331231 0.0 0.0 -0.0014331231 0.0 0.0014331231 0.0
-0.0014331231 0.0 0.0 -0.0014331231 0.0 0.0014331231 -0.0014331231 0.0
-0.0057324925 0.02292997 -0.0042993696 0.0042993696 -0.0014331231 -0.11894922 0.024363093 0.044426817
-0.0042993696 0.010031862 -0.008598739 0.0042993696 0.03582808 -0.0028662463 -0.05875805 0.0057324925
0.0057324925 0.053025555 0.0 0.0071656154 -0.0042993696 -0.09458613 0.04156057 0.04585994
-0.0057324925 0.0057324925 -0.0028662463 0.0 0.063057415 -0.0028662463 -0.0558918 0.008598739
0.017197479 0.051592432 -0.0028662463 0.0057324925 -0.0057324925 -0.1175161 0.054458678 0.04585994
-0.0071656154 0.008598739 0.0 -0.0028662463 0.07308928 0.0057324925 -0.08312114 0.0042993696
0.03296183 0.0071656154 0.0014331231 0.010031862 -0.0057324925 -0.034394957 0.010031862 0.024363093
0.0014331231 -0.0042993696 -0.0071656154 0.0057324925 0.008598739 -0.0014331231 -0.04156057 0.0
0.044426817 0.027229339 0.0057324925 0.011464985 -0.0057324925 -0.015764354 0.02292997 0.028662462
-0.0028662463 -0.0042993696 -0.0014331231 -0.0014331231 0.04012745 0.0 -0.05015931 0.0014331231
0.054458678 0.027229339 0.0014331231 0.008598739 -0.008598739 -0.024363093 0.030095587 0.030095587
0.0014331231 -0.0057324925 0.0014331231 0.0 0.038694326 0.008598739 -0.048726186 0.0
-0.008598739 -0.027229339 -0.0014331231 0.0071656154 0.0 -0.018630601 -0.0028662463 0.0014331231
0.0014331231 -0.010031862 -0.0028662463 0.0028662463 -0.008598739 -0.0042993696 -0.034394957 -0.0028662463

fuse_attr_7 i1 [16, 3, 3, 21] scale=0.0017370248 zero_point=0
00000000: 1a08 0402 191e de05 1a04 0614 ebfb fb09
00000010: fb15 fdf5 0027 0903 0219 1ae3 011f 010d
00000020: 18f7 ff05 02f6 1800 0303 3404 0003 0f17
00000030: ecff 1efe 120e 04ff ff04 f80b ff05 fc21
00000040: 2508 062a 2df5 0c25 0cfc 15f7 042a 0a01
00000050: 1402 0d02 2521 010b 253e f701 2505 0813
00000060: 0905 2e05 011f 010e 052e 20fc 0717 43fd
00000070: 041d ff0c 0813 0322 06fe 1f00 0c01 140a
00000080: fffa 14f3 0b00 1108 fa07 feff 1309 f9fa
00000090: 01f7 fb18 0901 0008 fe11 fb10 0104 0808
000000a0: 0414 0401 f8ff fb00 1a09 0303 f809 1701
000000b0: 0ff7 09fd 0e06 1302 01f7 fefa 0116 d969
000000c0: fecc cc13 0bf0 0829 0f2f f6ac f819 cc02
000000d0: 0500 23d8 6b03 c9cc 1110 ed04 1211 20f8
000000e0: b1f6 13d3 0003 012e df5e 00c7 cf15 0feb
000000f0: ff00 191c f8b7 f514 d701 0805 f5f4 fbfe
0.045162644 0.013896198 0.006948099 0.0034740495 0.04342562 0.052110743 -0.05905884 0.008685124
0.045162644 0.006948099 0.010422149 0.034740496 -0.03647752 -0.008685124 -0.008685124 0.015633224
-0.008685124 0.03647752 -0.0052110744 -0.019107273 0.0 0.067743964 0.015633224 0.0052110744
0.0034740495 0.04342562 0.045162644 -0.05037372 0.0017370248 0.053847767 0.0017370248 0.022581322
0.041688595 -0.015633224 -0.0017370248 0.008685124 0.0034740495 -0.017370248 0.041688595 0.0
0.0052110744 0.0052110744 0.09032529 0.006948099 0.0 0.0052110744 0.026055371 0.03995157
-0.034740496 -0.0017370248 0.052110743 -0.0034740495 0.031266447 0.024318347 0.006948099 -0.0017370248
-0.0017370248 0.006948099 -0.013896198 0.019107273 -0.0017370248 0.008685124 -0.006948099 0.057321817
0.064269915 0.013896198 0.010422149 0.07295504 0.07816611 -0.019107273 0.020844297 0.064269915
0.020844297 -0.006948099 0.03647752 -0.015633224 0.006948099 0.07295504 0.017370248 0.0017370248
0.034740496 0.0034740495 0.022581322 0.0034740495 0.064269915 0.057321817 0.0017370248 0.019107273
0.064269915 0.107695535 -0.015633224 0.0017370248 0.064269915 0.008685124 0.013896198 0.03300347
0.015633224 0.008685124 0.07990314 0.008685124 0.0017370248 0.053847767 0.0017370248 0.024318347
0.008685124 0.07990314 0.055584792 -0.006948099 0.012159173 0.03995157 0.11638066 -0.0052110744
0.006948099 0.05037372 -0.0017370248 0.020844297 0.013896198 0.03300347 0.0052110744 0.05905884
0.010422149 -0.0034740495 0.053847767 0.0 0.020844297 0.0017370248 0.034740496 0.017370248
-0.0017370248 -0.010422149 0.034740496 -0.022581322 0.019107273 0.0 0.02952942 0.013896198
-0.010422149 0.012159173 -0.0034740495 -0.0017370248 0.03300347 0.015633224 -0.012159173 -0.010422149
0.0017370248 -0.015633224 -0.008685124 0.041688595 0.015633224 0.0017370248 0.0 0.013896198
-0.0034740495 0.02952942 -0.008685124 0.027792396 0.0017370248 0.006948099 0.013896198 0.013896198
0.006948099 0.034740496 0.006948099 0.0017370248 -0.013896198 -0.0017370248 -0.008685124 0.0
0.045162644 0.015633224 0.0052110744 0.0052110744 -0.013896198 0.015633224 0.03995157 0.0017370248
0.026055371 -0.015633224 0.015633224 -0.0052110744 0.024318347 0.010422149 0.03300347 0.0034740495
0.0017370248 -0.015633224 -0.0034740495 -0.010422149 0.0017370248 0.038214546 -0.067743964 0.1823876
-0.0034740495 -0.09032529 -0.09032529 0.03300347 0.019107273 -0.027792396 0.013896198 0.071218014
0.026055371 0.08164016 -0.017370248 -0.14591008 -0.013896198 0.04342562 -0.09032529 0.0034740495
0.008685124 0.0 0.060795866 -0.06948099 0.18586165 0.0052110744 -0.09553636 -0.09032529
0.02952942 0.027792396 -0.03300347 0.006948099 0.031266447 0.02952942 0.055584792 -0.013896198
-0.13722496 -0.017370248 0.03300347 -0.07816611 0.0 0.0052110744 0.0017370248 0.07990314
-0.057321817 0.16328032 0.0 -0.09901041 -0.08511421 0.03647752 0.026055371 -0.03647752
-0.0017370248 0.0 0.04342562 0.048636694 -0.013896198 -0.1268028 -0.019107273 0.034740496
-0.071218014 0.0017370248 0.013896198 0.008685124 -0.019107273 -0.020844297 -0.008685124 -0.0034740495

fuse_attr_5 i1 [11, 3, 3, 1] scale=0.014901107 zero_point=0
00000000: ff05 0403 0302 0303 0301 0100 0000 0001
00000010: 0101 00ff 0000 ff00 00ff 00ff fffd 0100
00000020: ff00 00ff e503 faeb fffe e502 f5ff ffff
00000030: 0100 01fd fdfd 7fde 9872 e79b c200 3a00
00000040: 0000 0000 0000 0000 fafa f90b 0d08 0202
00000050: 02fd fdfc 090b 0301 0205 fdfd 0cf9 fd0e
00000060: 0b0e 06
-0.014901107 0.07450554 0.05960443 0.04470332 0.04470332 0.029802214 0.04470332 0.04470332
0.04470332 0.014901107 0.014901107 0.0 0.0 0.0 0.0 0.014901107
0.014901107 0.014901107 0.0 -0.014901107 0.0 0.0 -0.014901107 0.0
0.0 -0.014901107 0.0 -0.014901107 -0.014901107 -0.04470332 0.014901107 0.0
-0.014901107 0.0 0.0 -0.014901107 -0.4023299 0.04470332 -0.08940664 -0.31292325
-0.014901107 -0.029802214 -0.4023299 0.029802214 -0.16391218 -0.014901107 -0.014901107 -0.014901107
0.014901107 0.0 0.014901107 -0.04470332 -0.04470332 -0.04470332 1.8924406 -0.50663763
-1.5497152 1.6987262 -0.3725277 -1.5050118 -0.92386866 0.0 0.8642642 0.0
0.0 0.0 0.0 0.0 0.0 0.0 0.0 0.0
-0.08940664 -0.08940664 -0.10430775 0.16391218 0.1937144 0.11920886 0.029802214 0.029802214
0.029802214 -0.04470332 -0.04470332 -0.05960443 0.13410996 0.16391218 0.04470332 0.014901107
0.029802214 0.07450554 -0.04470332 -0.04470332 0.17881328 -0.10430775 -0.04470332 0.2086155
0.16391218 0.2086155 0.08940664

fuse_attr_3 i1 [6, 1, 9, 1] scale=0.007828497 zero_point=0
00000000: 292d 337f efb5 1bf7 c7d7 f4de acfa e8f5
00000010: 7f66 4ff3 fe23 15b0 bef3 bd2f 0a01 d808
00000020: 1212 0af3 aaf3 0a1e 0010 0704 0311 0c00
00000030: 08fa 1c03 d8ee
0.3209684 0.35228238 0.39925337 0.9942192 -0.13308446 -0.5871373 0.21136943 -0.070456475
-0.44622436 -0.3209684 -0.09394197 -0.26616892 -0.6575938 -0.046970986 -0.18788394 -0.08611347
0.9942192 0.79850674 0.6184513 -0.10177047 -0.015656995 0.2739974 0.16439845 -0.6262798
-0.51668084 -0.10177047 -0.5245093 0.36793938 0.07828497 0.007828497 -0.3131399 0.06262798
0.14091295 0.14091295 0.07828497 -0.10177047 -0.6732508 -0.10177047 0.07828497 0.23485492
0.0 0.12525596 0.054799482 0.03131399 0.023485493 0.13308446 0.09394197 0.0
0.06262798 -0.046970986 0.21919793 0.023485493 -0.3131399 -0.14091295

fuse_attr_13 i1 [65, 3, 3, 46] scale=0.0036333771 zero_point=0
00000000: 0000 0000 0000 0000 0000 0000 0000 0000
00000010: 0000 0000 0000 0000 0000 0000 0000 0000
00000020: 0000 0000 0000 0000 0000 0000 0000 0000
00000030: 0000 0000 0000 0000 0000 0000 0000 0000
00000040: 0000 0000 0000 0000 ff00 0000 0000 0000
00000050: 0000 0000 0000 0000 0000 0000 0000 0000
00000060: 0000 0000 0000 0000 0000 0000 0000 0000
00000070: 0000 0000 0000 0000 0000 0000 0000 0000
00000080: 0000 0000 0000 0000 0000 0000 0000 0000
00000090: 0000 0000 0000 0000 0000 0000 0000 0000
000000a0: 0000 0000 0000 0000 0000 0000 0000 0000
000000b0: 0000 0000 0000 0000 0000 0000 0000 0000
000000c0: 0000 0000 0000 0000 0000 0000 0000 0000
000000d0: 0000 0000 0000 0000 0000 0000 0000 0000
000000e0: 0000 0000 0000 0000 0000 0000 0000 0000
000000f0: 0000 0000 0000 0000 0000 0000 0000 0000
0.0 0.0 0.0 0.0 0.0 0.0 0.0 0.0
0.0 0.0 0.0 0.0 0.0 0.0 0.0 0.0
0.0 0.0 0.0 0.0 0.0 0.0 0.0 0.0
0.0 0.0 0.0 0.0 0.0 0.0 0.0 0.0
0.0 0.0 0.0 0.0 0.0 0.0 0.0 0.0
0.0 0.0 0.0 0.0 0.0 0.0 0.0 0.0
0.0 0.0 0.0 0.0 0.0 0.0 0.0 0.0
0.0 0.0 0.0 0.0 0.0 0.0 0.0 0.0
0.0 0.0 0.0 0.0 0.0 0.0 0.0 0.0
-0.0036333771 0.0 0.0 0.0 0.0 0.0 0.0 0.0
0.0 0.0 0.0 0.0 0.0 0.0 0.0 0.0
0.0 0.0 0.0 0.0 0.0 0.0 0.0 0.0
0.0 0.0 0.0 0.0 0.0 0.0 0.0 0.0
0.0 0.0 0.0 0.0 0.0 0.0 0.0 0.0
0.0 0.0 0.0 0.0 0.0 0.0 0.0 0.0
0.0 0.0 0.0 0.0 0.0 0.0 0.0 0.0
0.0 0.0 0.0 0.0 0.0 0.0 0.0 0.0
0.0 0.0 0.0 0.0 0.0 0.0 0.0 0.0
0.0 0.0 0.0 0.0 0.0 0.0 0.0 0.0
0.0 0.0 0.0 0.0 0.0 0.0 0.0 0.0
0.0 0.0 0.0 0.0 0.0 0.0 0.0 0.0
0.0 0.0 0.0 0.0 0.0 0.0 0.0 0.0
0.0 0.0 0.0 0.0 0.0 0.0 0.0 0.0
0.0 0.0 0.0 0.0 0.0 0.0 0.0 0.0
0.0 0.0 0.0 0.0 0.0 0.0 0.0 0.0
0.0 0.0 0.0 0.0 0.0 0.0 0.0 0.0
0.0 0.0 0.0 0.0 0.0 0.0 0.0 0.0
0.0 0.0 0.0 0.0 0.0 0.0 0.0 0.0
0.0 0.0 0.0 0.0 0.0 0.0 0.0 0.0
0.0 0.0 0.0 0.0 0.0 0.0 0.0 0.0
0.0 0.0 0.0 0.0 0.0 0.0 0.0 0.0
0.0 0.0 0.0 0.0 0.0 0.0 0.0 0.0

fuse_attr_12 i1 [46, 3, 3, 42] scale=0.004979022 zero_point=0
00000000: 0000 00ff 0001 0000 0000 0000 01ff 0000
00000010: 0000 0000 0200 0000 0000 0000 0000 0000
00000020: 0000 0000 0000 ff00 0000 00ff 0000 0000
00000030: 0000 0000 0100 0100 0000 0000 0000 0200
00000040: 0000 0000 0000 0000 0000 0000 0000 0000
00000050: ff01 0000 0000 0000 00ff 0000 0100 0001
00000060: 00ff ff01 0000 0000 0200 0000 0000 0002
00000070: 0000 0000 0002 0000 ff00 0000 0000 0000
00000080: 0000 ffff 0000 0000 0000 01ff 0000 0000
00000090: 0000 0000 ff01 0000 00ff 0000 0000 0000
000000a0: 0000 ff00 0101 0000 0100 0001 00ff 0000
000000b0: 0100 ff00 0100 0000 0000 0000 ff00 fe00
000000c0: 0000 0000 0000 0001 0000 0100 fe00 0100
000000d0: 0000 0101 0001 00fe 0000 0200 ff01 0202
000000e0: 0100 0000 0000 ff00 fe00 0000 0002 0000
000000f0: 0000 0102 0100 ff00 0100 0100 0000 0001
0.0 0.0 0.0 -0.004979022 0.0 0.004979022 0.0 0.0
0.0 0.0 0.0 0.0 0.004979022 -0.004979022 0.0 0.0
0.0 0.0 0.0 0.0 0.009958044 0.0 0.0 0.0
0.0 0.0 0.0 0.0 0.0 0.0 0.0 0.0
0.0 0.0 0.0 0.0 0.0 0.0 -0.004979022 0.0
0.0 0.0 0.0 -0.004979022 0.0 0.0 0.0 0.0
0.0 0.0 0.0 0.0 0.004979022 0.0 0.004979022 0.0
0.0 0.0 0.0 0.0 0.0 0.0 0.009958044 0.0
0.0 0.0 0.0 0.0 0.0 0.0 0.0 0.0
0.0 0.0 0.0 0.0 0.0 0.0 0.0 0.0
-0.004979022 0.004979022 0.0 0.0 0.0 0.0 0.0 0.0
0.0 -0.004979022 0.0 0.0 0.004979022 0.0 0.0 0.004979022
0.0 -0.004979022 -0.004979022 0.004979022 0.0 0.0 0.0 0.0
0.009958044 0.0 0.0 0.0 0.0 0.0 0.0 0.009958044
0.0 0.0 0.0 0.0 0.0 0.009958044 0.0 0.0
-0.004979022 0.0 0.0 0.0 0.0 0.0 0.0 0.0
0.0 0.0 -0.004979022 -0.004979022 0.0 0.0 0.0 0.0
0.0 0.0 0.004979022 -0.004979022 0.0 0.0 0.0 0.0
0.0 0.0 0.0 0.0 -0.004979022 0.004979022 0.0 0.0
0.0 -0.004979022 0.0 0.0 0.0 0.0 0.0 0.0
0.0 0.0 -0.004979022 0.0 0.004979022 0.004979022 0.0 0.0
0.004979022 0.0 0.0 0.004979022 0.0 -0.004979022 0.0 0.0
0.004979022 0.0 -0.004979022 0.0 0.004979022 0.0 0.0 0.0
0.0 0.0 0.0 0.0 -0.004979022 0.0 -0.009958044 0.0
0.0 0.0 0.0 0.0 0.0 0.0 0.0 0.004979022
0.0 0.0 0.004979022 0.0 -0.009958044 0.0 0.004979022 0.0
0.0 0.0 0.004979022 0.004979022 0.0 0.004979022 0.0 -0.009958044
0.0 0.0 0.009958044 0.0 -0.004979022 0.004979022 0.009958044 0.009958044
0.004979022 0.0 0.0 0.0 0.0 0.0 -0.004979022 0.0
-0.009958044 0.0 0.0 0.0 0.0 0.009958044 0.0 0.0
0.0 0.0 0.004979022 0.009958044 0.004979022 0.0 -0.004979022 0.0
0.004979022 0.0 0.004979022 0.0 0.0 0.0 0.0 0.004979022

fuse_attr_4 i1 [32, 1, 5, 6] scale=0.0055133826 zero_point=0
00000000: d20f 08fa f3fe f110 04f3 fcf2 0cfd f4f0
00000010: f410 30fe 27f0 fbf7 0302 e910 fa01 b0ff
00000020: fcd4 d4d6 01f4 0c1c c908 0d1c 14fa bf15
00000030: 7fed 1fdc f81a 4a12 60f9 f5f8 fdfe fefd
00000040: 0100 fcff ffff 00ff fdff 00ff 0000 fcfc
00000050: 00fe 01fe fdfa 00fe 01ff f2e8 c8e7 0cd7
00000060: c1c1 c21a df1a f345 fde3 f2f6 e9c5 f91a
00000070: f70b 3710 f3f8 eef4 00ff 0001 0000 00ff
00000080: 0000 0000 ff00 0000 0000 ff00 0000 0000
00000090: ffff 0000 0000 fffe fe02 fe00 fffd ff01
000000a0: fe00 fffd 0001 fe00 fefe 0100 feff fefe
000000b0: 01ff ff00 00ff 0001 ff00 fffe 0001 ff00
000000c0: fffe ff00 0000 ffff ff00 0000 ffff ff00
000000d0: ff00 eaf8 0bf1 00fe e601 f8fe 04fe eff9
000000e0: f000 fafe eff9 e701 09fb ef11 fffa fb02
000000f0: fee9 f90a f6ff fded f301 fefd 00e4 ef00
-0.2536156 0.08270074 0.04410706 -0.033080295 -0.071673974 -0.011026765 -0.08270074 0.08821412
0.02205353 -0.071673974 -0.02205353 -0.07718736 0.06616059 -0.016540147 -0.06616059 -0.08821412
-0.06616059 0.08821412 0.26464236 -0.011026765 0.21502192 -0.08821412 -0.027566914 -0.049620442
0.016540147 0.011026765 -0.1268078 0.08821412 -0.033080295 0.0055133826 -0.44107062 -0.0055133826
-0.02205353 -0.24258883 -0.24258883 -0.23156206 0.0055133826 -0.06616059 0.06616059 0.15437472
-0.30323604 0.04410706 0.071673974 0.15437472 0.110267654 -0.033080295 -0.35836986 0.11578103
0.7001996 -0.10475427 0.17091486 -0.19848177 -0.04410706 0.14334795 0.4079903 0.099240884
0.5292847 -0.03859368 -0.06064721 -0.04410706 -0.016540147 -0.011026765 -0.011026765 -0.016540147
0.0055133826 0.0 -0.02205353 -0.0055133826 -0.0055133826 -0.0055133826 0.0 -0.0055133826
-0.016540147 -0.0055133826 0.0 -0.0055133826 0.0 0.0 -0.02205353 -0.02205353
0.0 -0.011026765 0.0055133826 -0.011026765 -0.016540147 -0.033080295 0.0 -0.011026765
0.0055133826 -0.0055133826 -0.07718736 -0.13232118 -0.30874944 -0.13783456 0.06616059 -0.2260487
-0.34734312 -0.34734312 -0.34182972 0.14334795 -0.18194163 0.14334795 -0.071673974 0.3804234
-0.016540147 -0.15988809 -0.07718736 -0.055133827 -0.1268078 -0.32528958 -0.03859368 0.14334795
-0.049620442 0.06064721 0.30323604 0.08821412 -0.071673974 -0.04410706 -0.099240884 -0.06616059
0.0 -0.0055133826 0.0 0.0055133826 0.0 0.0 0.0 -0.0055133826
0.0 0.0 0.0 0.0 -0.0055133826 0.0 0.0 0.0
0.0 0.0 -0.0055133826 0.0 0.0 0.0 0.0 0.0
-0.0055133826 -0.0055133826 0.0 0.0 0.0 0.0 -0.0055133826 -0.011026765
-0.011026765 0.011026765 -0.011026765 0.0 -0.0055133826 -0.016540147 -0.0055133826 0.0055133826
-0.011026765 0.0 -0.0055133826 -0.016540147 0.0 0.0055133826 -0.011026765 0.0
-0.011026765 -0.011026765 0.0055133826 0.0 -0.011026765 -0.0055133826 -0.011026765 -0.011026765
0.0055133826 -0.0055133826 -0.0055133826 0.0 0.0 -0.0055133826 0.0 0.0055133826
-0.0055133826 0.0 -0.0055133826 -0.011026765 0.0 0.0055133826 -0.0055133826 0.0
-0.0055133826 -0.011026765 -0.0055133826 0.0 0.0 0.0 -0.0055133826 -0.0055133826
-0.0055133826 0.0 0.0 0.0 -0.0055133826 -0.0055133826 -0.0055133826 0.0
-0.0055133826 0.0 -0.12129442 -0.04410706 0.06064721 -0.08270074 0.0 -0.011026765
-0.14334795 0.0055133826 -0.04410706 -0.011026765 0.02205353 -0.011026765 -0.09372751 -0.03859368
-0.08821412 0.0 -0.033080295 -0.011026765 -0.09372751 -0.03859368 -0.13783456 0.0055133826
0.049620442 -0.027566914 -0.09372751 0.09372751 -0.0055133826 -0.033080295 -0.027566914 0.011026765
-0.011026765 -0.1268078 -0.03859368 0.055133827 -0.055133827 -0.0055133826 -0.016540147 -0.10475427
-0.071673974 0.0055133826 -0.011026765 -0.016540147 0.0 -0.15437472 -0.09372751 0.0

fuse_attr_11 i1 [42, 3, 3, 39] scale=0.0047201836 zero_point=0
00000000: 0000 0000 0000 0000 0000 0000 0000 0000
00000010: 0000 0000 0000 0000 0000 0000 0000 0000
00000020: 0000 0000 0000 0000 0000 0000 0000 0000
00000030: 0000 0000 0000 0000 0000 0000 0000 0000
00000040: 0000 0000 0000 0000 0000 0000 0000 0000
00000050: 0000 0000 0000 0000 0000 0000 0000 0000
00000060: 0000 0000 0000 0000 0000 0000 0000 0000
00000070: 0000 0000 0000 0000 0000 0000 0000 0000
00000080: 0000 0000 0000 0000 0000 0000 0000 0000
00000090: 0000 0000 0000 0000 0000 0000 0000 0000
000000a0: 0000 0000 0000 0000 0000 0000 0000 0000
000000b0: 0000 0000 0000 0000 0000 0000 0000 0000
000000c0: 0000 0000 0000 0000 0000 0000 0000 0000
000000d0: 0000 0000 0000 0000 0000 0000 0000 0000
000000e0: 0000 0000 0000 0000 0000 0000 0000 0000
000000f0: 0000 0000 0000 0000 0000 0000 0000 0000
0.0 0.0 0.0 0.0 0.0 0.0 0.0 0.0
0.0 0.0 0.0 0.0 0.0 0.0 0.0 0.0
0.0 0.0 0.0 0.0 0.0 0.0 0.0 0.0
0.0 0.0 0.0 0.0 0.0 0.0 0.0 0.0
0.0 0.0 0.0 0.0 0.0 0.0 0.0 0.0
0.0 0.0 0.0 0.0 0.0 0.0 0.0 0.0
0.0 0.0 0.0 0.0 0.0 0.0 0.0 0.0
0.0 0.0 0.0 0.0 0.0 0.0 0.0 0.0
0.0 0.0 0.0 0.0 0.0 0.0 0.0 0.0
0.0 0.0 0.0 0.0 0.0 0.0 0.0 0.0
0.0 0.0 0.0 0.0 0.0 0.0 0.0 0.0
0.0 0.0 0.0 0.0 0.0 0.0 0.0 0.0
0.0 0.0 0.0 0.0 0.0 0.0 0.0 0.0
0.0 0.0 0.0 0.0 0.0 0.0 0.0 0.0
0.0 0.0 0.0 0.0 0.0 0.0 0.0 0.0
0.0 0.0 0.0 0.0 0.0 0.0 0.0 0.0
0.0 0.0 0.0 0.0 0.0 0.0 0.0 0.0
0.0 0.0 0.0 0.0 0.0 0.0 0.0 0.0
0.0 0.0 0.0 0.0 0.0 0.0 0.0 0.0
0.0 0.0 0.0 0.0 0.0 0.0 0.0 0.0
0.0 0.0 0.0 0.0 0.0 0.0 0.0 0.0
0.0 0.0 0.0 0.0 0.0 0.0 0.0 0.0
0.0 0.0 0.0 0.0 0.0 0.0 0.0 0.0
0.0 0.0 0.0 0.0 0.0 0.0 0.0 0.0
0.0 0.0 0.0 0.0 0.0 0.0 0.0 0.0
0.0 0.0 0.0 0.0 0.0 0.0 0.0 0.0
0.0 0.0 0.0 0.0 0.0 0.0 0.0 0.0
0.0 0.0 0.0 0.0 0.0 0.0 0.0 0.0
0.0 0.0 0.0 0.0 0.0 0.0 0.0 0.0
0.0 0.0 0.0 0.0 0.0 0.0 0.0 0.0
0.0 0.0 0.0 0.0 0.0 0.0 0.0 0.0
0.0 0.0 0.0 0.0 0.0 0.0 0.0 0.0

fuse_attr_9 i1 [40, 3, 3, 26] scale=0.0014969792 zero_point=0
00000000: 00ff 0301 0101 fb00 0101 00ff 0001 ff00
00000010: ff00 0000 0101 0203 ff00 00ff 0201 0001
00000020: fb00 0101 0000 0000 fe00 ff01 0000 0100
00000030: 0304 ff01 00ff 0301 0101 fa00 0101 0000
00000040: 0100 fe00 ff00 0000 0100 0304 ff01 0001
00000050: fe00 0001 04ff 00fe 00ff 0001 ff00 0100
00000060: ffff ffff fefd ff00 0000 feff 0001 04ff
00000070: 00fe 00ff 0000 ff01 0000 fffe feff fffc
00000080: ff00 0001 fe00 ff01 0400 00ff 01ff 0000
00000090: ff01 0000 fffe feff fefc ff00 00fc fd00
000000a0: 0000 02ff fe00 0000 0000 0203 0100 0100
000000b0: 02ff fefd ff00 00fc fe00 0001 0100 fe01
000000c0: 0000 0000 0303 0100 0100 02ff fefd fffe
000000d0: 00fc fe00 0001 02ff fd01 0000 0000 0303
000000e0: 0100 0100 02ff fefc 00ff 00ff ff01 0002
000000f0: 01fe ff00 00fe 0201 feff feff 0000 fefe
0.0 -0.0014969792 0.0044909376 0.0014969792 0.0014969792 0.0014969792 -0.0074848956 0.0
0.0014969792 0.0014969792 0.0 -0.0014969792 0.0 0.0014969792 -0.0014969792 0.0
-0.0014969792 0.0 0.0 0.0 0.0014969792 0.0014969792 0.0029939583 0.0044909376
-0.0014969792 0.0 0.0 -0.0014969792 0.0029939583 0.0014969792 0.0 0.0014969792
-0.0074848956 0.0 0.0014969792 0.0014969792 0.0 0.0 0.0 0.0
-0.0029939583 0.0 -0.0014969792 0.0014969792 0.0 0.0 0.0014969792 0.0
0.0044909376 0.0059879166 -0.0014969792 0.0014969792 0.0 -0.0014969792 0.0044909376 0.0014969792
0.0014969792 0.0014969792 -0.008981875 0.0 0.0014969792 0.0014969792 0.0 0.0
0.0014969792 0.0 -0.0029939583 0.0 -0.0014969792 0.0 0.0 0.0
0.0014969792 0.0 0.0044909376 0.0059879166 -0.0014969792 0.0014969792 0.0 0.0014969792
-0.0029939583 0.0 0.0 0.0014969792 0.0059879166 -0.0014969792 0.0 -0.0029939583
0.0 -0.0014969792 0.0 0.0014969792 -0.0014969792 0.0 0.0014969792 0.0
-0.0014969792 -0.0014969792 -0.0014969792 -0.0014969792 -0.0029939583 -0.0044909376 -0.0014969792 0.0
0.0 0.0 -0.0029939583 -0.0014969792 0.0 0.0014969792 0.0059879166 -0.0014969792
0.0 -0.0029939583 0.0 -0.0014969792 0.0 0.0 -0.0014969792 0.0014969792
0.0 0.0 -0.0014969792 -0.0029939583 -0.0029939583 -0.0014969792 -0.0014969792 -0.0059879166
-0.0014969792 0.0 0.0 0.0014969792 -0.0029939583 0.0 -0.0014969792 0.0014969792
0.0059879166 0.0 0.0 -0.0014969792 0.0014969792 -0.0014969792 0.0 0.0
-0.0014969792 0.0014969792 0.0 0.0 -0.0014969792 -0.0029939583 -0.0029939583 -0.0014969792
-0.0029939583 -0.0059879166 -0.0014969792 0.0 0.0 -0.0059879166 -0.0044909376 0.0
0.0 0.0 0.0029939583 -0.0014969792 -0.0029939583 0.0 0.0 0.0
0.0 0.0 0.0029939583 0.0044909376 0.0014969792 0.0 0.0014969792 0.0
0.0029939583 -0.0014969792 -0.0029939583 -0.0044909376 -0.0014969792 0.0 0.0 -0.0059879166
-0.0029939583 0.0 0.0 0.0014969792 0.0014969792 0.0 -0.0029939583 0.0014969792
0.0 0.0 0.0 0.0 0.0044909376 0.0044909376 0.0014969792 0.0
0.0014969792 0.0 0.0029939583 -0.0014969792 -0.0029939583 -0.0044909376 -0.0014969792 -0.0029939583
0.0 -0.0059879166 -0.0029939583 0.0 0.0 0.0014969792 0.0029939583 -0.0014969792
-0.0044909376 0.0014969792 0.0 0.0 0.0 0.0 0.0044909376 0.0044909376
0.0014969792 0.0 0.0014969792 0.0 0.0029939583 -0.0014969792 -0.0029939583 -0.0059879166
0.0 -0.0014969792 0.0 -0.0014969792 -0.0014969792 0.0014969792 0.0 0.0029939583
0.0014969792 -0.0029939583 -0.0014969792 0.0 0.0 -0.0029939583 0.0029939583 0.0014969792
-0.0029939583 -0.0014969792 -0.0029939583 -0.0014969792 0.0 0.0 -0.0029939583 -0.0029939583
