th/quantized_models/quant_retrained_model_0.85compress_acc_96.59_q128_20240215121015.tflite (tflite, 80920 bytes, 12 tensors)

fuse_attr_13 i1 [55, 3, 3, 44] scale=0.0032416915 zero_point=0
-0.0032416915 -0.0032416915 0.0 0.009725074 -0.006483383 -0.0032416915 0.0 0.0032416915
0.0 -0.0032416915 -0.0032416915 0.0 0.048625372 -0.006483383 0.0 -0.006483383
0.0032416915 0.0032416915 0.0 0.02269184 -0.0032416915 0.025933532 -0.006483383 0.0032416915
0.0032416915 -0.006483383 0.04214199 -0.006483383 0.012966766 -0.0032416915 0.0032416915 0.0032416915
-0.0032416915 0.012966766 0.006483383 0.0 -0.051867064 0.0032416915 -0.012966766 0.0
0.0 0.016208457 0.006483383 -0.0032416915 0.0 -0.006483383 0.0032416915 0.016208457
0.10049244 -0.0032416915 0.0 0.012966766 -0.0032416915 0.006483383 0.016208457 -0.0032416915
0.0 0.0 -0.04538368 0.0032416915 0.0 0.02269184 0.0 0.019450149
0.006483383 0.048625372 -0.0032416915 0.029175224 0.0 0.0 0.051867064 -0.0032416915
0.025933532 0.0 0.0032416915 0.032416914 -0.0032416915 0.012966766 -0.04538368 -0.0032416915
-0.055108756 0.009725074 -0.009725074 0.0 0.0 0.02269184 0.038900297 -0.012966766
0.0032416915 -0.0032416915 0.0 0.0032416915 0.025933532 -0.0032416915 0.0 0.006483383
0.0032416915 0.0032416915 0.0 0.0 0.0 -0.0032416915 -0.048625372 0.012966766
-0.058350448 0.019450149 0.06483383 0.0 0.009725074 0.025933532 -0.06483383 0.055108756
0.0032416915 0.006483383 0.055108756 0.048625372 0.038900297 0.0 0.0 0.04538368
0.0 -0.019450149 0.009725074 -0.006483383 0.0 0.012966766 -0.006483383 0.0
0.0 0.029175224 0.06159214 0.0 0.006483383 0.009725074 -0.006483383 0.006483383
0.029175224 -0.006483383 0.012966766 0.019450149 -0.0032416915 0.029175224 -0.019450149 -0.009725074
0.0 -0.019450149 -0.009725074 0.019450149 -0.016208457 -0.006483383 0.025933532 0.025933532
0.02269184 0.012966766 -0.006483383 0.019450149 -0.035658605 -0.006483383 0.012966766 -0.02269184
0.025933532 0.012966766 0.0 0.058350448 -0.009725074 -0.032416914 -0.025933532 0.006483383
0.012966766 -0.0032416915 -0.029175224 0.0032416915 -0.0032416915 0.035658605 0.035658605 0.04214199
-0.0032416915 0.016208457 0.0032416915 -0.019450149 0.02269184 0.04214199 0.02269184 -0.012966766
-0.006483383 0.009725074 0.0 0.0 0.0032416915 0.035658605 0.0032416915 0.006483383
-0.019450149 -0.006483383 -0.0032416915 0.012966766 0.04214199 0.016208457 0.0 0.0
-0.07131721 0.0032416915 -0.038900297 0.029175224 -0.08104229 0.009725074 0.006483383 0.006483383
-0.006483383 0.025933532 -0.019450149 0.04214199 0.025933532 -0.006483383 0.012966766 0.0
-0.0032416915 0.09400906 0.019450149 0.02269184 -0.009725074 -0.006483383 0.012966766 0.025933532
0.012966766 -0.009725074 -0.08104229 0.016208457 0.0 -0.006483383 0.04538368 -0.035658605
0.012966766 0.02269184 0.009725074 0.051867064 0.006483383 0.0 0.08104229 0.0
0.04214199 0.032416914 -0.0032416915 -0.012966766 -0.06807552 0.009725074 0.06159214 0.04538368
-0.02269184 0.0 -0.0032416915 0.0032416915 -0.019450149 -0.025933532 0.0 0.032416914
00000000: ffff 0003 feff 0001 00ff ff00 0ffe 00fe
00000010: 0101 0007 ff08 fe01 01fe 0dfe 04ff 0101
00000020: ff04 0200 f001 fc00 0005 02ff 00fe 0105
00000030: 1fff 0004 ff02 05ff 0000 f201 0007 0006
00000040: 020f ff09 0000 10ff 0800 010a ff04 f2ff
00000050: ef03 fd00 0007 0cfc 01ff 0001 08ff 0002
00000060: 0101 0000 00ff f104 ee06 1400 0308 ec11
00000070: 0102 110f 0c00 000e 00fa 03fe 0004 fe00
00000080: 0009 1300 0203 fe02 09fe 0406 ff09 fafd
00000090: 00fa fd06 fbfe 0808 0704 fe06 f5fe 04f9
000000a0: 0804 0012 fdf6 f802 04ff f701 ff0b 0b0d
000000b0: ff05 01fa 070d 07fc fe03 0000 010b 0102
000000c0: fafe ff04 0d05 0000 ea01 f409 e703 0202
000000d0: fe08 fa0d 08fe 0400 ff1d 0607 fdfe 0408
000000e0: 04fd e705 00fe 0ef5 0407 0310 0200 1900
000000f0: 0d0a fffc eb03 130e f900 ff01 faf8 000a

fuse_attr_5 i1 [12, 3, 3, 1] scale=0.008999208 zero_point=0
1.0079113 -0.6569422 -0.41396356 -0.14398733 0.0 0.06299446 -0.06299446 0.008999208
0.008999208 0.17998415 0.17098495 -0.3509691 0.19798258 0.19798258 -0.3329707 0.09899129
0.08099287 -0.1169897 0.035996832 0.044996038 0.071993664 0.044996038 0.044996038 0.06299446
0.0 -0.017998416 0.071993664 -0.51295483 1.1428994 -0.7649327 0.017998416 -0.035996832
-0.107990496 0.017998416 -0.035996832 -0.053995248 -0.071993664 0.06299446 0.15298654 -0.089992076
0.008999208 0.15298654 -0.107990496 -0.2249802 -0.21598099 0.0 0.0 -0.008999208
-0.017998416 -0.017998416 -0.017998416 0.044996038 0.071993664 0.035996832 0.017998416 0.026997624
0.0 0.017998416 0.026997624 0.008999208 0.017998416 0.026997624 -0.008999208 0.1169897
0.12598892 0.06299446 0.089992076 0.044996038 0.044996038 -0.17998415 -0.15298654 -0.14398733
0.06299446 0.053995248 -0.20698178 0.1169897 0.09899129 -0.26097703 -0.4679588 -0.75593346
1.124901 0.39596516 -0.017998416 -0.71093744 0.53995246 0.06299446 -0.62094533 -0.6389438
0.107990496 0.36896753 -0.06299446 -0.044996038 0.08099287 0.0 0.0 0.0
0.0 0.0 0.0 -0.36896753 -0.44096118 0.5579509 -0.3419699 -0.42296278
0.6569422 -0.044996038 -0.28797466 0.25197783
00000000: 70b7 d2f0 0007 f901 0114 13d9 1616 db0b
00000010: 09f3 0405 0805 0507 00fe 08c7 7fab 02fc
00000020: f402 fcfa f807 11f6 0111 f4e7 e800 00ff
00000030: fefe fe05 0804 0203 0002 0301 0203 ff0d
00000040: 0e07 0a05 05ec eff0 0706 e90d 0be3 ccac
00000050: 7d2c feb1 3c07 bbb9 0c29 f9fb 0900 0000
00000060: 0000 00d7 cf3e dad1 49fb e01c

fuse_attr_6 i1 [14, 3, 3, 12] scale=0.0040593874 zero_point=0
-0.020296937 -0.028415712 -0.06089081 -0.012178162 -0.03653449 -0.0040593874 -0.0040593874 -0.04465326
0.03653449 0.0040593874 0.0 -0.0040593874 -0.020296937 -0.04465326 -0.052772038 0.03653449
-0.012178162 -0.020296937 0.0 -0.0324751 0.09336591 -0.01623755 -0.0040593874 0.04871265
0.08930652 -0.08930652 -0.024356324 0.11366285 -0.01623755 -0.0040593874 0.0 -0.008118775
0.04465326 -0.04871265 -0.0040593874 0.0324751 0.056831423 -0.0040593874 -0.04871265 0.09336591
0.040593874 0.0 -0.0040593874 0.028415712 -0.06900959 -0.03653449 0.0 -0.020296937
0.04465326 -0.04465326 -0.024356324 0.0649502 0.052772038 0.0 -0.0040593874 0.0324751
0.16643488 0.028415712 -0.0040593874 0.052772038 0.04871265 -0.040593874 0.008118775 0.08930652
0.04465326 -0.0040593874 -0.0040593874 0.012178162 0.024356324 -0.040593874 -0.0040593874 -0.040593874
0.040593874 0.024356324 0.020296937 -0.08118775 -0.10960346 -0.01623755 -0.008118775 -0.12178162
0.07306898 0.08930652 0.0 0.024356324 -0.14207856 -0.020296937 0.056831423 -0.06089081
-0.06900959 -0.03653449 -0.028415712 -0.0974253 0.04871265 -0.052772038 0.0 0.1583161
0.056831423 0.028415712 0.08524714 0.012178162 -0.08524714 -0.040593874 -0.0324751 -0.052772038
-0.008118775 -0.008118775 0.0 0.04871265 0.09336591 0.0974253 0.13395979 0.09336591
-0.04871265 0.012178162 0.01623755 0.052772038 -0.056831423 -0.0324751 -0.0040593874 -0.04465326
0.056831423 0.056831423 0.024356324 -0.0040593874 -0.040593874 0.008118775 0.01623755 0.0
-0.008118775 0.01623755 0.0 -0.024356324 0.020296937 -0.012178162 -0.10960346 -0.008118775
-0.028415712 0.0040593874 -0.008118775 -0.03653449 -0.03653449 0.0 0.0 -0.056831423
0.117722236 0.105544075 0.12178162 -0.0324751 0.0 0.008118775 0.012178162 0.13395979
0.052772038 0.056831423 0.0 -0.0974253 0.07306898 0.0324751 0.0040593874 0.020296937
-0.012178162 0.0040593874 0.008118775 0.04465326 -0.028415712 0.028415712 0.0 -0.06900959
0.0040593874 -0.040593874 -0.08524714 -0.008118775 -0.052772038 0.0 0.008118775 -0.06900959
0.020296937 -0.0040593874 0.0 -0.06900959 0.0974253 0.04871265 0.052772038 0.03653449
-0.04465326 0.0040593874 0.0040593874 0.008118775 0.0 0.0040593874 0.0 -0.04465326
0.08524714 -0.012178162 -0.012178162 0.020296937 -0.04871265 0.0040593874 0.0040593874 -0.040593874
0.056831423 0.040593874 0.0 -0.01623755 -0.040593874 -0.040593874 -0.06089081 -0.012178162
-0.008118775 0.0 0.0 -0.052772038 -0.024356324 -0.008118775 0.0 0.04465326
0.03653449 -0.06900959 -0.2882165 -0.06089081 0.26386017 -0.008118775 -0.01623755 0.19890998
0.0649502 0.0974253 -0.0040593874 -0.1299004 -0.056831423 0.028415712 -0.04871265 -0.0324751
0.028415712 -0.0040593874 -0.012178162 0.012178162 0.0324751 -0.09336591 -0.008118775 -0.0649502
0.08930652 0.13395979 0.27197894 0.040593874 -0.32069162 0.012178162 -0.0040593874 -0.1907912
0.105544075 0.17455366 -0.0040593874 -0.052772038 -0.17861304 -0.23138508 -0.4221763 0.17455366
00000000: fbf9 f1fd f7ff fff5 0901 00ff fbf5 f309
00000010: fdfb 00f8 17fc ff0c 16ea fa1c fcff 00fe
00000020: 0bf4 ff08 0eff f417 0a00 ff07 eff7 00fb
00000030: 0bf5 fa10 0d00 ff08 2907 ff0d 0cf6 0216
00000040: 0bff ff03 06f6 fff6 0a06 05ec e5fc fee2
00000050: 1216 0006 ddfb 0ef1 eff7 f9e8 0cf3 0027
00000060: 0e07 1503 ebf6 f8f3 fefe 000c 1718 2117
00000070: f403 040d f2f8 fff5 0e0e 06ff f602 0400
00000080: fe04 00fa 05fd e5fe f901 fef7 f700 00f2
00000090: 1d1a 1ef8 0002 0321 0d0e 00e8 1208 0105
000000a0: fd01 020b f907 00ef 01f6 ebfe f300 02ef
000000b0: 05ff 00ef 180c 0d09 f501 0102 0001 00f5
000000c0: 15fd fd05 f401 01f6 0e0a 00fc f6f6 f1fd
000000d0: fe00 00f3 fafe 000b 09ef b9f1 41fe fc31
000000e0: 1018 ffe0 f207 f4f8 07ff fd03 08e9 fef0
000000f0: 1621 430a b103 ffd1 1a2b fff3 d4c7 982b

fuse_attr_4 i1 [32, 1, 5, 4] scale=0.008052264 zero_point=0
-0.05636585 0.064418115 0.04026132 -0.104679435 -0.07247038 0.18520208 0.008052264 -0.08857491
-0.08052264 0.28182924 0.024156794 0.04026132 -0.104679435 0.4750836 0.064418115 -0.008052264
0.008052264 0.39456096 -0.048313588 -0.05636585 -0.14494076 0.5395017 0.064418115 -0.17714982
-0.13688849 0.67639023 0.2254634 0.016104529 0.0 0.5878153 0.0 0.104679435
0.12078396 0.69249475 -0.064418115 0.0 -0.08052264 0.53144944 -0.16104528 -0.024156794
-0.016104529 0.37040415 -0.064418115 -0.016104529 -0.08052264 0.45897907 0.008052264 0.0
-0.008052264 0.37040415 0.08052264 -0.032209057 -0.08857491 0.49118814 0.08857491 0.0
0.05636585 0.4509268 -0.05636585 0.016104529 -0.07247038 0.1127317 0.0 0.096627176
-0.08052264 0.27377698 0.024156794 0.1127317 -0.08857491 0.20130661 0.0 0.096627176
-0.20935887 0.20935887 -0.064418115 -0.04026132 -0.07247038 0.20130661 -0.08857491 -0.032209057
-0.25767246 -0.23351566 0.008052264 0.008052264 -0.24156792 -0.14494076 0.05636585 0.008052264
-0.14494076 -0.19325435 0.064418115 -0.032209057 -0.14494076 0.024156794 0.21741113 -0.12883623
-0.3784564 0.19325435 0.27377698 -0.1127317 0.27377698 -0.28988153 0.0 -0.26572472
-0.27377698 -0.024156794 -0.2496202 -0.13688849 0.024156794 -0.3140383 -0.3865087 -0.008052264
0.13688849 -0.08857491 -0.41066548 0.016104529 0.24156792 0.16104528 -0.53144944 0.2979338
-0.3623519 0.1127317 0.08857491 0.048313588 -0.04026132 0.16104528 0.14494076 -0.024156794
0.04026132 0.024156794 -0.08857491 -0.048313588 0.12078396 -0.24156792 -0.30598605 -0.04026132
0.2496202 -0.2979338 -0.16909756 0.048313588 -0.28182924 -0.28988153 0.05636585 -0.048313588
-0.28988153 -0.024156794 0.18520208 -0.016104529 -0.40261322 0.21741113 0.1127317 0.0
-0.34624738 0.33819512 0.07247038 -0.016104529 -0.3140383 0.30598605 -0.18520208 0.016104529
-0.16104528 0.048313588 0.04026132 0.0 -0.048313588 -0.016104529 -0.032209057 -0.096627176
-0.07247038 -0.16104528 -0.064418115 -0.07247038 0.024156794 -0.19325435 0.024156794 -0.05636585
0.096627176 -0.20935887 -0.12078396 -0.04026132 0.008052264 -0.20935887 -0.064418115 0.032209057
0.008052264 -0.21741113 0.0 -0.032209057 0.024156794 -0.08052264 -0.04026132 0.064418115
-0.16909756 0.064418115 -0.05636585 0.096627176 -0.20935887 0.3865087 0.064418115 -0.104679435
0.024156794 -0.04026132 0.0 0.12883623 0.0 -0.016104529 0.016104529 0.14494076
0.008052264 0.04026132 0.048313588 -0.04026132 0.04026132 0.032209057 -0.008052264 -0.12078396
0.04026132 0.008052264 0.024156794 -0.07247038 -0.12883623 -0.04026132 -0.08857491 -0.12883623
-0.032209057 -0.064418115 -0.16104528 0.5636585 -0.05636585 -0.13688849 0.25767246 0.57171077
-0.032209057 0.21741113 0.24156792 -0.39456096 0.064418115 0.096627176 -0.3140383 -0.4992404
-0.104679435 -0.024156794 -0.016104529 -0.3784564 -0.12078396 0.05636585 -0.16909756 -0.33014283
-0.16909756 -0.064418115 -0.20935887 0.08857491 -0.19325435 -0.07247038 0.064418115 0.3623519
00000000: f908 05f3 f717 01f5 f623 0305 f33b 08ff
00000010: 0131 faf9 ee43 08ea ef54 1c02 0049 000d
00000020: 0f56 f800 f642 ecfd fe2e f8fe f639 0100
00000030: ff2e 0afc f53d 0b00 0738 f902 f70e 000c
00000040: f622 030e f519 000c e61a f8fb f719 f5fc
00000050: e0e3 0101 e2ee 0701 eee8 08fc ee03 1bf0
00000060: d118 22f2 22dc 00df defd e1ef 03d9 d0ff
00000070: 11f5 cd02 1e14 be25 d30e 0b06 fb14 12fd
00000080: 0503 f5fa 0fe2 dafb 1fdb eb06 dddc 07fa
00000090: dcfd 17fe ce1b 0e00 d52a 09fe d926 e902
000000a0: ec06 0500 fafe fcf4 f7ec f8f7 03e8 03f9
000000b0: 0ce6 f1fb 01e6 f804 01e5 00fc 03f6 fb08
000000c0: eb08 f90c e630 08f3 03fb 0010 00fe 0212
000000d0: 0105 06fb 0504 fff1 0501 03f7 f0fb f5f0
000000e0: fcf8 ec46 f9ef 2047 fc1b 1ecf 080c d9c2
000000f0: f3fd fed1 f107 ebd7 ebf8 e60b e8f7 082d

fuse_attr_7 i1 [15, 3, 3, 14] scale=0.005602522 zero_point=0
-0.14006305 -0.1568706 -0.016807565 -0.11205044 0.21289583 0.02801261 -0.16807565 0.14006305
0.005602522 -0.011205044 -0.084037825 0.1568706 0.11205044 0.16807565 -0.128858 -0.14006305
-0.14006305 0.0 0.011205044 0.0 -0.016807565 -0.08964035 0.12325548 -0.022410087
-0.016807565 0.16807565 0.03921765 0.016807565 -0.022410087 -0.0784353 -0.0784353 -0.005602522
-0.09524287 0.02801261 0.005602522 -0.21289583 0.02801261 -0.022410087 0.06162774 0.072832786
0.016807565 -0.1792807 0.072832786 0.2016908 -0.13446052 -0.10644791 -0.072832786 0.03921765
0.14006305 0.22410087 -0.11765296 -0.005602522 -0.3137412 -0.2016908 0.03361513 0.2297034
0.016807565 0.08964035 -0.23530592 0.0 -0.06723026 0.016807565 -0.005602522 -0.011205044
-0.14566557 -0.005602522 -0.2297034 -0.14006305 0.022410087 0.128858 -0.022410087 -0.022410087
-0.29133114 0.0 -0.044820175 -0.03921765 -0.072832786 -0.19608827 -0.022410087 -0.005602522
-0.3025362 -0.084037825 -0.0504227 -0.084037825 -0.11765296 -0.0784353 0.11765296 -0.0784353
0.2072933 -0.072832786 -0.12325548 -0.06162774 0.016807565 -0.005602522 0.3305488 0.11765296
0.016807565 -0.02801261 -0.072832786 -0.084037825 0.09524287 -0.005602522 0.005602522 -0.072832786
-0.0504227 -0.12325548 0.03361513 -0.016807565 0.22410087 0.0 0.022410087 -0.022410087
-0.011205044 -0.02801261 0.17367817 0.0 -0.16247313 -0.02801261 0.08964035 -0.13446052
-0.0504227 -0.016807565 0.2016908 0.005602522 -0.03921765 -0.10644791 0.0504227 -0.03921765
0.03921765 0.0 -0.016807565 -0.005602522 0.0504227 0.022410087 0.005602522 0.005602522
0.1512681 -0.06723026 -0.022410087 0.08964035 0.03361513 -0.016807565 0.1512681 0.005602522
-0.011205044 -0.011205044 0.11765296 0.016807565 -0.05602522 -0.05602522 0.1792807 -0.03921765
-0.05602522 0.08964035 0.0 0.06162774 0.02801261 0.016807565 0.016807565 -0.016807565
0.022410087 0.03361513 -0.022410087 0.016807565 0.072832786 -0.03361513 -0.0504227 0.011205044
-0.016807565 -0.03361513 0.072832786 0.011205044 -0.011205044 -0.005602522 0.02801261 0.011205044
0.011205044 0.011205044 0.09524287 0.03361513 -0.03361513 0.10644791 0.03361513 -0.022410087
0.21849835 0.0 -0.005602522 -0.016807565 0.08964035 0.022410087 0.0504227 0.022410087
0.19048575 0.0 -0.0504227 0.072832786 -0.03361513 0.06162774 0.14006305 0.011205044
0.022410087 0.016807565 0.0 0.02801261 0.016807565 0.03361513 0.24651095 -0.06162774
-0.05602522 0.06162774 -0.09524287 -0.044820175 0.016807565 -0.005602522 -0.03361513 -0.022410087
0.02801261 0.02801261 0.005602522 0.0 -0.005602522 -0.08964035 -0.0504227 0.1008454
-0.005602522 -0.03361513 0.0504227 0.005602522 0.005602522 -0.044820175 -0.03921765 0.02801261
0.011205044 0.005602522 0.044820175 -0.02801261 -0.05602522 0.084037825 -0.016807565 0.0504227
0.072832786 0.016807565 0.022410087 -0.016807565 -0.06723026 0.0504227 0.011205044 0.011205044
-0.05602522 0.005602522 -0.05602522 0.03921765 -0.084037825 0.005602522 0.05602522 0.0
00000000: e7e4 fdec 2605 e219 01fe f11c 141e e9e7
00000010: e700 0200 fdf0 16fc fd1e 0703 fcf2 f2ff
00000020: ef05 01da 05fc 0b0d 03e0 0d24 e8ed f307
00000030: 1928 ebff c8dc 0629 0310 d600 f403 fffe
00000040: e6ff d7e7 0417 fcfc cc00 f8f9 f3dd fcff
00000050: caf1 f7f1 ebf2 15f2 25f3 eaf5 03ff 3b15
00000060: 03fb f3f1 11ff 01f3 f7ea 06fd 2800 04fc
00000070: fefb 1f00 e3fb 10e8 f7fd 2401 f9ed 09f9
00000080: 0700 fdff 0904 0101 1bf4 fc10 06fd 1b01
00000090: fefe 1503 f6f6 20f9 f610 000b 0503 03fd
000000a0: 0406 fc03 0dfa f702 fdfa 0d02 feff 0502
000000b0: 0202 1106 fa13 06fc 2700 fffd 1004 0904
000000c0: 2200 f70d fa0b 1902 0403 0005 0306 2cf5
000000d0: f60b eff8 03ff fafc 0505 0100 fff0 f712
000000e0: fffa 0901 01f8 f905 0201 08fb f60f fd09
000000f0: 0d03 04fd f409 0202 f601 f607 f101 0a00

fuse_attr_14 i1 [2, 1, 1, 55] scale=0.0064405194 zero_point=0
0.24473974 0.5345631 0.10948883 0.81794596 -0.15457246 0.17389402 0.070845716 0.5281226
0.48947948 0.62473035 0.7406597 0.47015792 0.50880104 -0.032202598 -0.09016727 0.42507428
-0.20609662 -0.30270442 -0.07728623 0.14813195 0.5667657 0.17389402 0.012881039 0.1674535
0.5989683 -0.038643114 0.37999064 0.28338286 0.5860873 0.25762078 0.35422856 0.27694234
0.41219324 0.1674535 0.21253714 0.09016727 -0.1674535 0.7986244 0.038643114 -0.30270442
0.1674535 0.35422856 -0.11592935 -0.2962639 0.25118026 0.10304831 0.74710023 -0.37355012
0.25118026 -0.10948883 0.09016727 -0.3993122 0.051524155 -0.35422856 -0.28982338 0.334907
0.7084571 0.15457246 -0.1996561 0.24473974 -0.4315148 0.14169143 -0.36066908 0.16101298
0.60540885 0.7342192 -0.10304831 0.57964677 0.08372675 -0.038643114 -0.42507428 0.30270442
0.36066908 0.12881039 0.038643114 0.40575272 -0.07728623 0.20609662 0.45083636 0.6440519
0.28982338 0.45083636 -0.0064405194 0.7277787 -0.1996561 -0.22541818 -0.2640613 0.31558543
-0.13525091 -0.34778804 0.15457246 0.064405195 0.7406597 -0.44439584 0.18033454 -0.27050182
0.48947948 0.20609662 0.30270442 -0.21897766 -0.08372675 0.6504924 0.44439584 0.28338286
0.2640613 -0.25762078 0.20609662 -0.68913555 0.30270442 0.28338286
00000000: 2653 117f e81b 0b52 4c61 7349 4ffb f242
00000010: e0d1 f417 581b 021a 5dfa 3b2c 5b28 372b
00000020: 401a 210e e67c 06d1 1a37 eed2 2710 74c6
00000030: 27ef 0ec2 08c9 d334 6e18 e126 bd16 c819
00000040: 5e72 f05a 0dfa be2f 3814 063f f420 4664
00000050: 2d46 ff71 e1dd d731 ebca 180a 73bb 1cd6
00000060: 4c20 2fde f365 452c 29d8 2095 2f2c

fuse_attr_9 i1 [27, 3, 3, 27] scale=0.0050449404 zero_point=0
0.015134821 -0.020179762 0.030269641 -0.08576398 0.010089881 -0.035314582 -0.020179762 0.08576398
0.060539283 -0.06558423 0.030269641 0.10089881 0.27242678 -0.11098869 0.14125833 -0.010089881
-0.025224702 0.0050449404 0.020179762 0.030269641 0.0 0.0 0.06558423 -0.010089881
-0.010089881 -0.055494346 -0.030269641 0.0050449404 0.020179762 0.07567411 -0.08576398 0.025224702
0.015134821 -0.0050449404 0.11098869 0.18161786 -0.045404464 0.095853865 0.15639316 0.13116845
-0.06558423 0.17152797 -0.08071905 0.060539283 0.10089881 -0.0050449404 0.10089881 -0.030269641
0.0050449404 0.095853865 -0.0050449404 -0.010089881 -0.020179762 0.010089881 0.0050449404 0.045404464
0.040359523 -0.121078566 0.0050449404 0.06558423 0.010089881 0.010089881 0.13116845 -0.030269641
0.030269641 0.14125833 0.020179762 0.070629165 0.07567411 0.015134821 -0.015134821 -0.0050449404
0.0050449404 0.09080893 -0.025224702 0.0050449404 -0.015134821 -0.0050449404 -0.08576398 -0.015134821
0.0050449404 -0.055494346 -0.025224702 0.15639316 -0.020179762 -0.13621339 0.060539283 -0.025224702
0.14630327 0.10594375 0.020179762 0.06558423 0.0 -0.020179762 -0.1614381 0.070629165
-0.015134821 -0.025224702 -0.11098869 0.0 0.030269641 0.060539283 -0.08071905 -0.045404464
-0.025224702 0.0050449404 -0.08576398 -0.060539283 -0.050449405 0.050449405 0.17152797 0.0050449404
-0.055494346 0.070629165 -0.015134821 0.11098869 0.1261235 0.050449405 0.11603363 0.0050449404
-0.025224702 -0.035314582 0.060539283 -0.010089881 -0.035314582 -0.121078566 -0.015134821 -0.020179762
0.035314582 -0.0050449404 -0.1261235 -0.020179762 0.0 -0.08071905 -0.121078566 -0.060539283
0.045404464 0.040359523 -0.010089881 -0.055494346 -0.040359523 0.0050449404 0.010089881 0.11603363
-0.030269641 0.0 0.0050449404 0.0050449404 -0.010089881 0.025224702 0.0 -0.020179762
-0.13116845 0.0050449404 0.040359523 0.010089881 -0.010089881 -0.035314582 -0.015134821 0.07567411
-0.07567411 -0.055494346 -0.0050449404 0.07567411 0.035314582 -0.08576398 0.010089881 0.09080893
-0.025224702 0.060539283 0.060539283 0.15639316 -0.010089881 0.0050449404 -0.025224702 -0.08576398
-0.050449405 -0.010089881 -0.010089881 -0.010089881 -0.08576398 -0.040359523 0.0 -0.035314582
-0.025224702 -0.025224702 0.025224702 -0.10594375 -0.0050449404 -0.010089881 0.13621339 0.07567411
-0.070629165 0.13621339 0.10594375 0.060539283 0.055494346 0.06558423 0.055494346 0.055494346
0.0050449404 -0.040359523 -0.055494346 0.015134821 -0.015134821 0.060539283 -0.070629165 -0.17152797
0.06558423 0.020179762 -0.035314582 -0.15134822 -0.015134821 0.025224702 -0.09080893 0.13116845
-0.0050449404 0.14125833 -0.07567411 0.010089881 0.17657292 0.055494346 0.10594375 -0.015134821
0.095853865 0.055494346 -0.0050449404 0.020179762 -0.030269641 -0.045404464 0.025224702 0.0
0.010089881 0.010089881 -0.045404464 0.07567411 0.010089881 -0.025224702 -0.10089881 -0.015134821
0.045404464 -0.121078566 0.13621339 -0.045404464 0.0050449404 0.0050449404 -0.070629165 0.0
-0.17657292 0.10594375 -0.0050449404 0.06558423 0.10089881 0.010089881 0.13621339 0.10594375
00000000: 03fc 06ef 02f9 fc11 0cf3 0614 36ea 1cfe
00000010: fb01 0406 0000 0dfe fef5 fa01 040f ef05
00000020: 03ff 1624 f713 1f1a f322 f00c 14ff 14fa
00000030: 0113 fffe fc02 0109 08e8 010d 0202 1afa
00000040: 061c 040e 0f03 fdff 0112 fb01 fdff effd
00000050: 01f5 fb1f fce5 0cfb 1d15 040d 00fc e00e
00000060: fdfb ea00 060c f0f7 fb01 eff4 f60a 2201
00000070: f50e fd16 190a 1701 fbf9 0cfe f9e8 fdfc
00000080: 07ff e7fc 00f0 e8f4 0908 fef5 f801 0217
00000090: fa00 0101 fe05 00fc e601 0802 fef9 fd0f
000000a0: f1f5 ff0f 07ef 0212 fb0c 0c1f fe01 fbef
000000b0: f6fe fefe eff8 00f9 fbfb 05eb fffe 1b0f
000000c0: f21b 150c 0b0d 0b0b 01f8 f503 fd0c f2de
000000d0: 0d04 f9e2 fd05 ee1a ff1c f102 230b 15fd
000000e0: 130b ff04 faf7 0500 0202 f70f 02fb ecfd
000000f0: 09e8 1bf7 0101 f200 dd15 ff0d 1402 1b15

fuse_attr_3 i1 [4, 1, 9, 1] scale=0.038197633 zero_point=0
-0.114592895 0.19098817 0.64935976 -0.9549408 0.38197634 -2.788427 -1.1841266 1.4133124
2.3300557 1.3369172 0.49656922 0.26738343 -0.7639527 0.076395266 -0.8021503 0.84034795
0.15279053 -1.7188935 0.114592895 0.42017397 -0.53476685 0.22918579 -0.038197633 0.84034795
2.4446485 -1.7952888 -1.6043006 1.0695337 0.99313843 -0.84034795 2.0626721 -4.3163323
3.3995893 0.38197634 -4.889297 2.8266249
00000000: fd05 11e7 0ab7 e125 3d23 0d07 ec02 eb16
00000010: 04d3 030b f206 ff16 40d1 d61c 1aea 368f
00000020: 590a 804a

fuse_attr_12 i1 [44, 3, 3, 40] scale=0.002154011 zero_point=0
-0.047388244 -0.010770055 -0.004308022 0.002154011 -0.010770055 -0.004308022 -0.010770055 -0.002154011
-0.08185242 -0.002154011 0.0 0.036618188 0.002154011 0.002154011 0.11416259 -0.002154011
-0.06892835 -0.002154011 0.002154011 -0.006462033 0.058158297 -0.010770055 0.008616044 -0.051696263
-0.004308022 -0.002154011 -0.049542256 0.002154011 -0.006462033 -0.079698406 -0.006462033 -0.008616044
0.004308022 0.07108236 -0.002154011 0.0 -0.004308022 -0.002154011 -0.06462033 0.0
0.0 -0.012924066 -0.004308022 -0.002154011 -0.006462033 -0.004308022 -0.006462033 -0.066774346
-0.002154011 0.002154011 -0.002154011 -0.017232088 0.002154011 0.002154011 0.058158297 -0.004308022
-0.056004286 0.0 0.0 -0.004308022 0.002154011 -0.017232088 0.004308022 0.0
-0.004308022 -0.008616044 -0.06031231 0.002154011 -0.008616044 -0.0969305 -0.004308022 -0.004308022
0.0 0.06246632 -0.004308022 0.0 -0.008616044 -0.006462033 -0.002154011 0.004308022
-0.056004286 -0.010770055 -0.004308022 -0.004308022 -0.006462033 -0.004308022 -0.008616044 -0.06892835
-0.004308022 -0.004308022 -0.06462033 -0.06892835 0.0 -0.002154011 0.053850275 0.0
-0.002154011 0.0 -0.002154011 -0.06031231 0.07108236 -0.012924066 0.004308022 0.0
0.0 -0.006462033 -0.002154011 0.0 -0.006462033 -0.10339253 -0.004308022 -0.06246632
0.0 0.0 -0.004308022 0.004308022 -0.004308022 -0.006462033 -0.047388244 -0.06892835
-0.034464177 -0.002154011 0.002154011 -0.025848132 0.025848132 -0.0193861 0.0193861 -0.034464177
0.02154011 0.004308022 0.002154011 -0.004308022 0.008616044 0.034464177 0.002154011 0.012924066
0.0 0.002154011 0.06462033 0.06031231 0.049542256 -0.002154011 0.002154011 0.012924066
-0.058158297 0.049542256 0.010770055 -0.006462033 -0.11847061 0.023694122 0.004308022 -0.045234233
0.006462033 0.066774346 0.004308022 0.008616044 -0.023694122 0.023694122 -0.045234233 0.002154011
-0.025848132 0.004308022 0.004308022 0.0 0.034464177 -0.034464177 0.015078077 -0.049542256
0.004308022 0.010770055 -0.047388244 0.002154011 0.004308022 0.030156154 0.002154011 0.017232088
-0.073236376 -0.06462033 0.06246632 0.004308022 -0.006462033 -0.012924066 0.056004286 0.008616044
-0.017232088 -0.004308022 -0.002154011 -0.015078077 -0.14431874 0.012924066 -0.008616044 -0.04308022
0.008616044 0.04308022 -0.045234233 0.006462033 -0.0387722 0.010770055 -0.034464177 0.017232088
0.002154011 -0.058158297 -0.015078077 0.002154011 -0.017232088 -0.0387722 0.030156154 -0.051696263
-0.010770055 -0.04092621 -0.07108236 -0.058158297 -0.010770055 0.017232088 -0.066774346 0.08616044
-0.004308022 -0.11416259 -0.004308022 0.006462033 -0.015078077 -0.017232088 0.053850275 -0.004308022
-0.006462033 -0.010770055 -0.004308022 -0.0193861 -0.10770055 0.012924066 -0.004308022 -0.017232088
0.004308022 0.079698406 -0.006462033 0.006462033 -0.028002143 0.015078077 -0.030156154 0.017232088
-0.034464177 0.010770055 0.017232088 -0.028002143 -0.02154011 0.0 0.012924066 -0.0193861
0.012924066 0.010770055 -0.006462033 -0.023694122 0.028002143 0.006462033 0.012924066 -0.015078077
00000000: eafb fe01 fbfe fbff daff 0011 0101 35ff
00000010: e0ff 01fd 1bfb 04e8 feff e901 fddb fdfc
00000020: 0221 ff00 feff e200 00fa feff fdfe fde1
00000030: ff01 fff8 0101 1bfe e600 00fe 01f8 0200
00000040: fefc e401 fcd3 fefe 001d fe00 fcfd ff02
00000050: e6fb fefe fdfe fce0 fefe e2e0 00ff 1900
00000060: ff00 ffe4 21fa 0200 00fd ff00 fdd0 fee3
00000070: 0000 fe02 fefd eae0 f0ff 01f4 0cf7 09f0
00000080: 0a02 01fe 0410 0106 0001 1e1c 17ff 0106
00000090: e517 05fd c90b 02eb 031f 0204 f50b eb01
000000a0: f402 0200 10f0 07e9 0205 ea01 020e 0108
000000b0: dee2 1d02 fdfa 1a04 f8fe fff9 bd06 fcec
000000c0: 0414 eb03 ee05 f008 01e5 f901 f8ee 0ee8
000000d0: fbed dfe5 fb08 e128 fecb fe03 f9f8 19fe
000000e0: fdfb fef7 ce06 fef8 0225 fd03 f307 f208
000000f0: f005 08f3 f600 06f7 0605 fdf5 0d03 06f9

fuse_attr_8 i1 [27, 3, 3, 15] scale=0.0024206254 zero_point=0
-0.024206255 -0.0024206254 0.007261876 -0.004841251 0.029047504 -0.15007877 -0.043571256 -0.05325376
-0.012103127 -0.058095008 0.045991883 -0.007261876 0.045991883 -0.033888757 -0.10408689 -0.029047504
0.038730007 0.0 -0.004841251 -0.029047504 -0.15734065 -0.021785628 0.009682502 0.024206255
-0.033888757 0.07746001 0.021785628 0.0024206254 -0.091983765 -0.067777514 -0.050833132 0.0024206254
-0.029047504 -0.038730007 -0.038730007 -0.1137694 0.0024206254 0.016944379 0.019365003 0.021785628
0.009682502 0.055674385 -0.04841251 -0.12103127 -0.06535689 -0.021785628 0.007261876 0.004841251
-0.019365003 -0.045991883 -0.1718644 -0.029047504 -0.014523752 -0.038730007 -0.024206255 0.058095008
-0.009682502 -0.016944379 -0.08714251 -0.067777514 0.0024206254 0.06535689 -0.041150633 -0.03630938
-0.033888757 -0.1718644 0.019365003 0.06293626 -0.029047504 -0.03630938 0.033888757 -0.024206255
0.014523752 -0.08956314 -0.08472189 -0.004841251 0.0024206254 -0.04841251 -0.029047504 -0.091983765
-0.13071378 0.014523752 0.099245645 -0.03630938 0.0024206254 0.016944379 -0.041150633 -0.021785628
-0.10408689 -0.055674385 -0.03630938 0.019365003 -0.014523752 0.029047504 -0.04841251 0.014523752
-0.02662688 -0.004841251 -0.0024206254 -0.03630938 0.07746001 0.007261876 -0.029047504 -0.033888757
-0.04841251 -0.043571256 0.014523752 -0.03630938 -0.007261876 -0.041150633 -0.04841251 0.014523752
-0.0024206254 -0.02662688 -0.041150633 0.067777514 -0.045991883 -0.045991883 0.0024206254 0.05325376
-0.06293626 -0.016944379 -0.1137694 0.014523752 -0.043571256 -0.02662688 0.012103127 0.02662688
-0.099245645 0.007261876 0.033888757 -0.07503939 -0.06535689 0.009682502 0.02662688 0.15249941
0.0024206254 0.024206255 -0.08230127 -0.029047504 -0.021785628 -0.07503939 0.0 0.050833132
-0.0024206254 -0.004841251 -0.03630938 -0.0024206254 -0.038730007 -0.05325376 0.14765815 0.024206255
0.019365003 -0.101666264 0.0 0.0024206254 -0.07746001 0.009682502 0.08956314 0.07746001
-0.014523752 -0.08472189 0.0 -0.045991883 -0.03630938 -0.0024206254 -0.007261876 -0.0024206254
-0.14039627 -0.09682502 -0.067777514 -0.067777514 0.03630938 0.12829314 0.024206255 -0.007261876
0.009682502 -0.060515635 -0.18154691 -0.055674385 -0.016944379 0.0024206254 0.038730007 -0.038730007
0.041150633 -0.06535689 -0.09682502 -0.050833132 -0.019365003 0.07019813 -0.0024206254 0.050833132
-0.03630938 -0.06535689 -0.067777514 0.05325376 0.021785628 -0.009682502 -0.02662688 0.07261876
-0.10408689 -0.02662688 -0.10650752 0.007261876 0.12587252 0.02662688 -0.014523752 -0.045991883
0.029047504 -0.045991883 -0.016944379 -0.007261876 0.029047504 -0.06293626 -0.03630938 -0.033888757
-0.055674385 -0.045991883 0.029047504 0.11134877 -0.004841251 0.03630938 -0.07503939 -0.05325376
-0.07261876 -0.14523752 -0.03146813 -0.038730007 0.07503939 0.041150633 -0.02662688 -0.07261876
-0.004841251 -0.060515635 -0.06293626 -0.04841251 0.0024206254 -0.060515635 -0.029047504 -0.07988064
-0.043571256 -0.055674385 -0.08472189 0.08956314 0.09682502 -0.060515635 -0.03630938 -0.07261876
-0.04841251 -0.15492003 -0.050833132 -0.043571256 -0.045991883 0.1428169 -0.009682502 -0.007261876
00000000: f6ff 03fe 0cc2 eeea fbe8 13fd 13f2 d5f4
00000010: 1000 fef4 bff7 040a f220 0901 dae4 eb01
00000020: f4f0 f0d1 0107 0809 0417 ecce e5f7 0302
00000030: f8ed b9f4 faf0 f618 fcf9 dce4 011b eff1
00000040: f2b9 081a f4f1 0ef6 06db ddfe 01ec f4da
00000050: ca06 29f1 0107 eff7 d5e9 f108 fa0c ec06
00000060: f5fe fff1 2003 f4f2 ecee 06f1 fdef ec06
00000070: fff5 ef1c eded 0116 e6f9 d106 eef5 050b
00000080: d703 0ee1 e504 0b3f 010a def4 f7e1 0015
00000090: fffe f1ff f0ea 3d0a 08d6 0001 e004 2520
000000a0: fadd 00ed f1ff fdff c6d8 e4e4 0f35 0afd
000000b0: 04e7 b5e9 f901 10f0 11e5 d8eb f81d ff15
000000c0: f1e5 e416 09fc f51e d5f5 d403 340b faed
000000d0: 0ced f9fd 0ce6 f1f2 e9ed 0c2e fe0f e1ea
000000e0: e2c4 f3f0 1f11 f5e2 fee7 e6ec 01e7 f4df
000000f0: eee9 dd25 28e7 f1e2 ecc0 ebee ed3b fcfd

fuse_attr_10 i1 [33, 3, 3, 27] scale=0.00244942 zero_point=0
0.00489884 0.034291882 -0.01959536 -0.00244942 0.02694362 -0.00244942 0.080830865 0.00489884
0.12002158 -0.00734826 0.080830865 -0.017145941 -0.017145941 -0.017145941 0.06368492 0.00979768
0.18860534 0.00244942 -0.02204478 -0.04164014 -0.02204478 0.093077965 0.024494201 0.01469652
0.034291882 0.00244942 -0.00244942 0.00734826 0.04408956 -0.02939304 -0.01469652 -0.02939304
-0.08328028 -0.00489884 -0.00734826 0.017145941 -0.00734826 0.03184246 0.017145941 -0.0122471005
-0.01469652 0.034291882 0.04408956 -0.048988402 -0.00244942 0.02204478 0.01469652 -0.01959536
0.0 0.068583764 0.034291882 0.110223904 -0.04408956 0.0 0.07593202 0.00979768
-0.024494201 -0.0122471005 0.03184246 0.02204478 0.01469652 -0.11512274 -0.02939304 0.0
-0.0857297 0.080830865 0.0122471005 -0.00489884 0.05633666 -0.00979768 0.00734826 -0.04408956
-0.03919072 0.00979768 -0.046538983 0.0 -0.02694362 0.02939304 0.01469652 0.0
-0.080830865 -0.00734826 0.07838144 -0.0122471005 0.11512274 -0.00244942 0.01469652 0.12736984
0.13226868 0.08817912 0.0 0.08328028 -0.00734826 -0.0122471005 -0.02204478 0.17880766
0.00489884 0.08328028 0.00734826 -0.03184246 -0.00734826 0.03919072 0.15431346 -0.00734826
0.03919072 0.08817912 0.0734826 -0.03919072 0.00244942 0.046538983 -0.00734826 0.07838144
0.02694362 -0.01959536 0.02694362 0.01469652 0.05878608 -0.03919072 0.04408956 -0.00734826
-0.00734826 0.017145941 0.08328028 0.06368492 -0.01469652 -0.00489884 0.00244942 0.00734826
-0.034291882 0.05388724 -0.02939304 0.03919072 0.16411114 -0.097976804 -0.0734826 0.0
-0.06368492 -0.024494201 0.097976804 -0.00979768 0.00489884 0.034291882 -0.068583764 0.017145941
-0.048988402 -0.061235502 0.07593202 0.00979768 -0.0367413 0.10042622 -0.01959536 -0.00489884
0.0 -0.05143782 0.02204478 -0.00734826 0.00979768 -0.02204478 0.034291882 0.04408956
-0.04164014 0.00489884 0.00244942 0.04408956 -0.00244942 0.05633666 0.03184246 -0.03184246
0.068583764 0.04164014 0.05878608 0.0122471005 0.00244942 0.05388724 0.07103318 -0.080830865
0.09552738 0.046538983 -0.03184246 -0.00734826 0.02694362 0.00734826 -0.0122471005 0.02939304
0.00489884 0.05143782 0.05388724 0.017145941 -0.024494201 0.00734826 -0.01469652 -0.00489884
0.04408956 0.02694362 0.02694362 0.02694362 0.0 0.04164014 -0.046538983 0.05878608
0.080830865 0.024494201 0.02694362 0.05143782 -0.00734826 -0.01959536 0.034291882 0.00244942
0.02694362 -0.017145941 -0.024494201 -0.00489884 0.00734826 0.02694362 0.0 -0.017145941
0.0122471005 -0.0122471005 -0.00734826 0.110223904 0.04408956 0.0122471005 -0.00734826 -0.00979768
-0.00244942 -0.03184246 0.00489884 0.10042622 0.046538983 0.0367413 0.06613434 -0.05143782
-0.02939304 -0.034291882 -0.01469652 0.05878608 0.00244942 -0.00979768 0.01469652 -0.05388724
0.01959536 0.00244942 0.093077965 0.00244942 -0.048988402 0.0 0.00979768 0.068583764
-0.02204478 -0.0122471005 0.048988402 0.00979768 -0.04408956 0.0122471005 -0.0122471005 -0.00979768
00000000: 020e f8ff 0bff 2102 31fd 21f9 f9f9 1a04
00000010: 4d01 f7ef f726 0a06 0e01 ff03 12f4 faf4
00000020: defe fd07 fd0d 07fb fa0e 12ec ff09 06f8
00000030: 001c 0e2d ee00 1f04 f6fb 0d09 06d1 f400
00000040: dd21 05fe 17fc 03ee f004 ed00 f50c 0600
00000050: dffd 20fb 2fff 0634 3624 0022 fdfb f749
00000060: 0222 03f3 fd10 3ffd 1024 1ef0 0113 fd20
00000070: 0bf8 0b06 18f0 12fd fd07 221a fafe 0103
00000080: f216 f410 43d8 e200 e6f6 28fc 020e e407
00000090: ece7 1f04 f129 f8fe 00eb 09fd 04f7 0e12
000000a0: ef02 0112 ff17 0df3 1c11 1805 0116 1ddf
000000b0: 2713 f3fd 0b03 fb0c 0215 1607 f603 fafe
000000c0: 120b 0b0b 0011 ed18 210a 0b15 fdf8 0e01
000000d0: 0bf9 f6fe 030b 00f9 05fb fd2d 1205 fdfc
000000e0: fff3 0229 130f 1beb f4f2 fa18 01fc 06ea
000000f0: 0801 2601 ec00 041c f7fb 1404 ee05 fbfc

fuse_attr_11 i1 [40, 3, 3, 33] scale=0.003656759 zero_point=0
-0.047537867 -0.03291083 -0.007313518 0.091418974 -0.091418974 -0.014627036 0.051194623 0.0
0.010970277 -0.029254071 -0.051194623 0.0 0.007313518 -0.021940554 0.007313518 -0.076791935
0.007313518 0.007313518 -0.014627036 -0.018283796 -0.003656759 0.0 0.025597312 -0.021940554
-0.003656759 0.007313518 0.043881107 0.007313518 -0.025597312 0.014627036 -0.058508143 -0.047537867
-0.007313518 0.021940554 -0.051194623 -0.010970277 -0.010970277 -0.058508143 -0.091418974 -0.021940554
-0.091418974 0.0 -0.07313518 -0.07313518 -0.003656759 -0.03656759 -0.003656759 0.021940554
-0.010970277 -0.014627036 -0.03656759 -0.06582166 -0.062164903 0.003656759 -0.03291083 0.03291083
-0.03291083 0.003656759 0.003656759 -0.03656759 0.003656759 -0.040224347 -0.007313518 0.014627036
-0.080448695 -0.03656759 -0.040224347 -0.03656759 0.058508143 0.040224347 0.03656759 -0.06582166
-0.03291083 -0.058508143 0.029254071 -0.043881107 -0.098732494 0.0 0.025597312 0.0
0.018283796 -0.021940554 -0.010970277 -0.03291083 -0.058508143 -0.109702766 -0.113359526 -0.010970277
-0.06582166 -0.080448695 -0.109702766 0.021940554 -0.010970277 -0.084105454 -0.014627036 -0.018283796
-0.06947842 0.007313518 -0.054851383 -0.15358387 -0.13895684 -0.010970277 -0.003656759 0.040224347
-0.021940554 0.014627036 0.06947842 0.17552443 0.084105454 0.084105454 -0.007313518 0.029254071
-0.025597312 0.0 -0.13895684 -0.021940554 -0.040224347 -0.040224347 -0.06582166 -0.047537867
-0.102389246 -0.003656759 -0.091418974 0.014627036 0.091418974 0.058508143 0.003656759 -0.018283796
-0.106046006 -0.06947842 0.003656759 -0.03291083 -0.03656759 -0.07313518 -0.014627036 -0.010970277
0.076791935 0.025597312 0.047537867 0.003656759 0.080448695 0.058508143 -0.047537867 -0.003656759
-0.010970277 0.06947842 0.029254071 0.007313518 -0.018283796 -0.025597312 -0.047537867 -0.025597312
-0.054851383 -0.07313518 -0.047537867 0.051194623 0.007313518 0.091418974 0.03291083 -0.003656759
-0.021940554 -0.076791935 -0.007313518 -0.021940554 -0.043881107 0.014627036 -0.054851383 0.010970277
-0.03656759 0.16821091 -0.07313518 -0.06947842 0.014627036 0.040224347 0.043881107 -0.080448695
-0.06582166 -0.007313518 -0.054851383 -0.051194623 -0.047537867 0.029254071 -0.051194623 -0.13530008
-0.117016286 -0.13164333 -0.058508143 -0.03656759 0.058508143 0.051194623 -0.014627036 0.06947842
-0.15358387 0.34373534 -0.084105454 -0.03291083 0.003656759 -0.16821091 -0.15358387 -0.018283796
-0.07313518 -0.047537867 -0.03291083 0.062164903 0.003656759 0.062164903 0.058508143 0.051194623
0.091418974 -0.062164903 0.051194623 0.007313518 -0.010970277 -0.113359526 0.06582166 0.0
0.091418974 -0.051194623 0.113359526 0.040224347 0.13895684 0.010970277 -0.014627036 -0.014627036
0.06947842 -0.010970277 0.25962988 -0.17552443 0.040224347 -0.043881107 0.010970277 -0.051194623
0.010970277 -0.058508143 0.003656759 -0.07313518 0.029254071 -0.007313518 -0.003656759 -0.095075734
0.06947842 0.051194623 -0.014627036 0.076791935 0.06947842 -0.018283796 -0.010970277 0.098732494
-0.043881107 0.06947842 -0.06582166 0.091418974 0.040224347 0.14992711 -0.03291083 -0.084105454
00000000: f3f7 fe19 e7fc 0e00 03f8 f200 02fa 02eb
00000010: 0202 fcfb ff00 07fa ff02 0c02 f904 f0f3
00000020: fe06 f2fd fdf0 e7fa e700 ecec fff6 ff06
00000030: fdfc f6ee ef01 f709 f701 01f6 01f5 fe04
00000040: eaf6 f5f6 100b 0aee f7f0 08f4 e500 0700
00000050: 05fa fdf7 f0e2 e1fd eeea e206 fde9 fcfb
00000060: ed02 f1d6 dafd ff0b fa04 1330 1717 fe08
00000070: f900 dafa f5f5 eef3 e4ff e704 1910 01fb
00000080: e3ed 01f7 f6ec fcfd 1507 0d01 1610 f3ff
00000090: fd13 0802 fbf9 f3f9 f1ec f30e 0219 09ff
000000a0: faeb fefa f404 f103 f62e eced 040b 0cea
000000b0: eefe f1f2 f308 f2db e0dc f0f6 100e fc13
000000c0: d65e e9f7 01d2 d6fb ecf3 f711 0111 100e
000000d0: 19ef 0e02 fde1 1200 19f2 1f0b 2603 fcfc
000000e0: 13fd 47d0 0bf4 03f2 03f0 01ec 08fe ffe6
000000f0: 130e fc15 13fb fd1b f413 ee19 0b29 f7e9
