refine_codes/onnx_models/retrain_pt2onnx.onnx (onnx, 755477 bytes, 26 tensors)

tfeb.38.weight f4 [2, 2]
00000000: 46a0 b13f 9900 a6bf c56d aabf bde5 b83f
1.3877037 -1.2968932 -1.3314749 1.444511

tfeb.38.bias f4 [2]
00000000: cd55 24bc ff31 d6bd
-0.010030222 -0.10458755

onnx::Conv_123 f4 [5, 1, 1, 9]
00000000: d710 003f 110b 453f a1bf a13e d333 2d40
00000010: 73af 42bf b07b 89bf af7e a4bf 0ef2 c3be
00000020: 3144 30be a9d1 393f bc3a 143e 8499 e83c
00000030: 5584 82bf d0b1 20be 3ffe 6fbf 6173 2b3f
00000040: 0e36 b53d ae29 dbbf bfdc a6bf 4baa bfbf
00000050: 3e4c 8c3d e750 c43f 8341 743e 1757 423f
00000060: d760 32bf caea 353d 75b0 683e d289 813e
00000070: 7332 863e 67b2 07bf 38d1 543f fd65 f1bf
00000080: 798c c43f a675 703e 11f6 07c0 a950 933f
00000090: c17e fdbe 6505 32bf b813 f7bd 4993 3d3f
000000a0: fd28 8d3e e265 743e b069 66bf 6b5d a23e
000000b0: c34a f73f
0.50025696 0.7697001 0.31591514 2.706288 -0.76048964 -1.0740871 -1.2851161 -0.3827061
-0.17213513 0.7258554 0.1447553 0.028393514 -1.0196635 -0.1569283 -0.93747324 0.6697293
0.08848201 -1.7122095 -1.3036116 -1.4973844 0.068504795 1.533719 0.23853116 0.7591414
-0.69679016 0.044413365 0.22723563 0.2530046 0.26210365 -0.53006595 0.8313174 -1.8859249
1.5355369 0.2348238 -2.1243937 1.150899 -0.49510768 -0.6953948 -0.12064308 0.74052864
0.27570334 0.2386699 -0.90005016 0.31711897 1.931969

onnx::Conv_124 f4 [5]
00000000: a80a 8fbc 8036 ac3e d6e0 1b3f a9f8 243f
00000010: 67ea c3bd
-0.017461136 0.3363533 0.6088995 0.64441925 -0.09566193

onnx::Conv_126 f4 [32, 5, 1, 5]
00000000: ee98 4ebe b121 7dbd 028c d6bd 6f25 b8bb
00000010: 1f5d 2b3c d399 813d f215 203e 0ddd 6d3e
00000020: 0a4d d93e 0531 a33e 71ab ad3d 5e3e 1e3e
00000030: 6401 d43d b5de 04be 29ba 9b3c ba6b e4bd
00000040: 1cc5 5bbd b321 e73a b224 83ba d96e 11bd
00000050: 0758 c1bd 17e7 dc3b a34b ba3b 56e1 4e3d
00000060: 9f01 c03d a8e9 81bd f24f 713b 424c 963d
00000070: eddb fbbd 924b 8cbe 0a6a 9ebf 1037 6bbf
00000080: d3e4 18bf ec52 eabe 480a c7be 724c cbbe
00000090: 329f 1cbf 6831 71be d518 cfbe 1c75 92be
000000a0: b12c cbbc 82b4 203b 991a bebc a6a2 d8bc
000000b0: 9953 84bc 553a 043f 41e8 293f 6599 0f3f
000000c0: 9ad6 343f d1d2 453f 27b4 b3ba a152 4bbd
000000d0: e504 23be f555 fbbd 5566 b7bd 847d 3f3d
000000e0: 3670 103e f7c8 e93d 28a2 183e 5ee9 193e
000000f0: 0fa7 05bd 57b3 abbb c860 b5bd 81ff 273b
00000100: 22d8 81bb 5f90 2c3d 6275 0c3d 1e4e a039
00000110: 997c 6bbd e577 533c a905 53bb 619d a7bb
00000120: 7b87 91bd 90ca e3bc 1e57 abbb 68aa 0cbe
00000130: cdae c9be 8edf 1cbf 1218 a8be 7b9b 8cbe
00000140: 07da 75be d8c3 d63c 630f 59be fe3e 79bd
00000150: 376a 5c3e 8b10 1b3f 9a28 b23e 412a 353e
00000160: af47 49bd 7d1b cdbd ff4b 32be ad50 05be
00000170: 3f70 a6bc b5e4 e7bb 3271 803d a59e 24bd
00000180: 610c 7d3e 7d2f d73d b437 f93e ba33 223f
00000190: 71e8 313e e3d5 c53e 8605 853e f023 863d
000001a0: 9905 e1bb 72b6 a6be 8e70 8d3c e5ec b23e
000001b0: 3849 f93e e9fe ea3e 36dd 87be 2af7 dfbe
000001c0: 993b bfbe 84df 91be 0591 58be 99ad 27bd
000001d0: 65a3 55bd e574 173d 8403 f6bc c973 3bbd
000001e0: 638a 043c 8fb2 1ebe 171f 7dbe 5d0d 6ebe
000001f0: 7a08 8cbe ebb2 513c 4cde a0bd c46d 53bd
00000200: 4e3e c6bd 0d36 d6bd 1d88 f2bb e3bb fcbb
00000210: 71fc c3bd 0642 0cbe c0f7 08be edc8 e6bd
00000220: 02eb d1bd b6d1 cb3b c795 b03c bb29 00bc
00000230: a453 3cbc 9b16 67bd 5e63 10bd 37fc 13bb
00000240: 0a27 303b b9f2 babd e778 bbbd dd32 09bd
00000250: 2f81 4f3d 450a 2e3e 0eef 68be 4f60 17be
00000260: 6e1f d2bd da20 12be 78a4 c43a 87e6 13be
00000270: d038 f1bd da39 89bd 70fc fe3c 6eae 7e3e
00000280: 61a3 a23d 0a32 81bc ad9a 55bd b050 cfbb
00000290: ef40 b83a 450d 2e3d 56a9 243c 835f 553c
000002a0: 8c5b 003d 15a5 c4bd cc86 90bc 9c41 6abd
000002b0: c66f cbbd da59 17be 2f05 1ebe 97d0 243d
000002c0: 1545 fd3b 6725 debc 6900 44bd 5cfc 16bc
000002d0: fbca edbc 9a6d 52bc 1024 d03c f672 b03c
000002e0: ec39 95bb 8b5a e13a e55a f9ba aae5 99bc
000002f0: 543a 20bd d2d5 16bc c254 c33d d17f cb3d
00000300: 7af7 f5bc feb6 bcbd 97cb 63bd c78c 9c3a
00000310: 6c97 7a3c 88de 62bc 7927 76bb c89b c83c
00000320: 46db 84be efbe 94bd 0e03 c4bd 5606 433e
00000330: c45f 093e c3fe 28bd 4737 823d fad6 a7bd
00000340: 714c bebd 138a 05bd 6647 263c da46 ac3d
00000350: 9d03 0a3e d6c1 1a3e 29f7 04be 9893 f2be
00000360: b1a8 d9be ae8c 0f3e 7b70 e53e fae1 0e3e
00000370: 436c d2bb 5486 2d3d a2a5 b43d 262b 99bb
00000380: 7db3 d5bb e822 90bc d245 b33c d181 2ebe
00000390: fd1c 6e3d f1b7 dabd f639 a5bd 0197 d13d
000003a0: 0568 74be 8321 253e a167 48bd 96ef f23d
000003b0: e153 98be b0f3 493e f007 c0bd dbdf b8bd
000003c0: 7386 cd3e 1a75 74bf 1d82 0b3f 0496 713c
000003d0: fd5b 96be 8377 73bc 73a4 32be cc91 753e
000003e0: 5112 4dbe 0b64 0b3e 2058 8fbd 793c d4bd
000003f0: 2edf d63d 7191 14be bd9b ae3d 5733 b3bd
-0.20175526 -0.06179971 -0.10475923 -0.005619697 0.0104592135 0.06328168 0.15633371 0.23228855
0.4244159 0.31873336 0.084799655 0.15453479 0.10351828 -0.12975581 0.019009667 -0.1115336
-0.053654775 0.0017633945 -0.0010005443 -0.035506103 -0.09440618 0.0067414152 0.005685286 0.050507866
0.09375309 -0.063433945 0.0036821333 0.07338764 -0.12297807 -0.27401406 -1.237611 -0.91880894
-0.5972416 -0.4576639 -0.3887503 -0.3970676 -0.6118041 -0.23554003 -0.40448633 -0.28604972
-0.024801584 0.0024521654 -0.023206042 -0.026444744 -0.016153144 0.5165151 0.66370016 0.56093436
0.70639956 0.77274805 -0.0013710306 -0.049639348 -0.15919836 -0.122722544 -0.08955065 0.04675056
0.14105305 0.11415284 0.14905608 0.15030429 -0.032630023 -0.005239885 -0.0885635 0.002563447
-0.0039625326 0.04212987 0.034291632 0.0003057578 -0.057491872 0.012907003 -0.0032199419 -0.0051151966
-0.07105919 -0.02780655 -0.005228891 -0.1373688 -0.39391175 -0.6127862 -0.32830864 -0.27462372
-0.24008952 0.026216432 -0.21197276 -0.06085109 0.21524893 0.6057212 0.34796602 0.176919
-0.04914063 -0.100150086 -0.17411803 -0.13019057 -0.020317195 -0.0070768245 0.0627159 -0.040190358
0.24711753 0.105071045 0.4867531 0.6336018 0.17373826 0.38639745 0.25980777 0.06549823
-0.0068671224 -0.3256107 0.017265584 0.3494636 0.48688674 0.45897606 -0.26535958 -0.4374326
-0.37350157 -0.2849084 -0.2114907 -0.04093704 -0.05215778 0.036976714 -0.030030973 -0.04576472
0.008089635 -0.15497802 -0.24718891 -0.23247285 -0.27350217 0.012799005 -0.078549 -0.051618353
-0.096798524 -0.10459528 -0.00740148 -0.0077128275 -0.09569634 -0.13697061 -0.13375759 -0.11268792
-0.10249902 0.006220068 0.021555794 -0.007822449 -0.011494551 -0.056418043 -0.035251014 -0.0022580752
0.0026878738 -0.09128327 -0.0915392 -0.033495773 0.05066031 0.16996105 -0.22747442 -0.14782833
-0.10259901 -0.14270344 0.0015002629 -0.14443408 -0.11778414 -0.067004874 0.031126231 0.24871227
0.07941318 -0.01577093 -0.052149463 -0.0063267574 0.0014057438 0.042493124 0.010050138 0.01302326
0.031337306 -0.096017994 -0.017642401 -0.057191476 -0.099334285 -0.1478037 -0.15431665 0.04023799
0.0077291825 -0.027117444 -0.047851954 -0.009215441 -0.029027453 -0.012843514 0.025407821 0.021539193
-0.004554024 0.0017193122 -0.0019024281 -0.01878627 -0.039118126 -0.009206252 0.09537651 0.099364884
-0.030025233 -0.092145905 -0.05561408 0.001194381 0.015294891 -0.013847001 -0.0037560149 0.024488345
-0.25948542 -0.0726298 -0.09570895 0.19045386 0.13415438 -0.041258585 0.063581996 -0.081953004
-0.09291924 -0.03260238 0.010148859 0.08411951 0.13477941 0.15113005 -0.12984909 -0.4737823
-0.42511514 0.14018509 0.44812378 0.1395339 -0.006421597 0.042364433 0.088206545 -0.004674333
-0.006521641 -0.01759477 0.021883879 -0.17041709 0.058133114 -0.10679615 -0.08067696 0.1023388
-0.23867805 0.16126065 -0.048926953 0.11862104 -0.29751495 0.19721866 -0.09376514 -0.09027072
0.4014164 -0.9549118 0.5449541 0.014745239 -0.29367056 -0.014860037 -0.17445545 0.23981398
-0.20026518 0.13612382 -0.069992304 -0.10363097 0.10491787 -0.14508606 0.085257985 -0.08750027

onnx::Conv_127 f4 [32]
00000000: 8058 4cbe 0511 993f 2869 b23d 4983 68be
00000010: 65e2 3b3f 2ec7 8e3e be19 273e 2491 c13d
00000020: 5883 a8bd aaf9 b03e 2ee9 293e 5ad5 363e
00000030: 376c 613e 3bb0 0f3f 15aa 213f 0b6d f03e
00000040: 3694 6b3e f289 c23d 4cb4 383e dc54 573e
00000050: 507e b43e b70a a63e 9ea9 903e 6173 0b3e
00000060: 249b bdbe aaf0 a53e 5c48 35bd 91fd fbbe
00000070: 3275 253e 1ad5 da3e 4d48 753d 57cc 233e
-0.19955635 1.1958319 0.08711463 -0.22706331 0.73392326 0.27886337 0.16318414 0.094515115
-0.08228177 0.3456548 0.16592857 0.17854825 0.22013937 0.5612828 0.6315015 0.46958193
0.23005757 0.09498967 0.18037528 0.21028465 0.3525262 0.3243005 0.28254408 0.13618232
-0.37032425 0.32410175 -0.04425846 -0.49216893 0.16157988 0.4274071 0.059883405 0.15995918

onnx::Conv_129 f4 [9, 1, 3, 3]
00000000: 3a1e d2bb 8aaa cebb 2a97 11bc 7527 73bc
00000010: e172 46bc cfbd 76bc c26c bfbb d7ef ab3d
00000020: d3c6 afbb 9b58 dbbe 1ee0 b33d c090 2c3e
00000030: adb1 fbbe bb57 dc3d 6bf8 a93e c160 4abe
00000040: c3ae 6a3d f24d 0a3e 3fd0 533b 5eae 603b
00000050: 4534 233b 624b c9bb afd4 b4bb 5e2d d4bb
00000060: 4322 023d cd96 823d 31c1 173d 0e29 6c3e
00000070: 9003 083e 2e43 b93d 4b22 85bd 959f 50be
00000080: 2f85 c1bd 915a 86be 1fd5 2fbe b7f0 47bb
00000090: 85ce 21bb 8e8d 1a3d c5c7 67bb a976 afba
000000a0: d272 d0ba 6e83 19bb 550e 063d dca8 553d
000000b0: 92be d6b9 d709 023d 1d90 d33d 19c1 993d
000000c0: bad4 85bd 8801 823e e822 8d3c f970 8abd
000000d0: d606 e53d db1a 0c3c f001 7abd 2f3f 56bd
000000e0: 99cd 9dbd caa5 bf3c 460f 56bd b4f0 ce3d
000000f0: dec1 50bd f695 8ebd 6524 20bd e9fe dd3e
00000100: 7daa 143b 2866 32bf a8f0 073f 74f5 423b
00000110: 748b 19bf f098 18bf 94b9 e63d 415c c63e
00000120: 28ff a5bd 4664 73bd 4078 143e caab a23b
00000130: 910d c9b9 273b aa3b e8af b83b a83d 8f39
00000140: d8de c83b
-0.0064122947 -0.006306951 -0.008886138 -0.01484095 -0.01211235 -0.015059902 -0.0058418224 0.08395355
-0.005364278 -0.42841038 0.08782981 0.16852093 -0.49158993 0.10758921 0.3319734 -0.19763471
0.057295572 0.13506296 0.003232017 0.0034283618 0.0024902981 -0.0061430195 -0.005518518 -0.0064751348
0.031770956 0.06376419 0.037049476 0.23062536 0.13282609 0.09046017 -0.065006815 -0.20373376
-0.09449231 -0.26240972 -0.17171143 -0.0030508467 -0.0024689746 0.037732653 -0.0035366875 -0.0013386804
-0.001590336 -0.0023424285 0.03272851 0.05216299 -0.00040959247 0.031747665 0.10330222 0.075075336
-0.06534715 0.25391793 0.017228559 -0.06759829 0.111829445 0.008551325 -0.061037004 -0.05230635
-0.0770523 0.023394484 -0.05226066 0.10104504 -0.050966136 -0.069621965 -0.03909721 0.43358544
0.0022684627 -0.6968713 0.5310159 0.0029748352 -0.59978414 -0.59608364 0.11265865 0.3874226
-0.08105308 -0.0594218 0.14498997 0.0049643265 -0.00038347815 0.00519504 0.005636204 0.00027321023
0.0061300807

onnx::Conv_130 f4 [9]
00000000: fc33 7bbd 13ba 9b3e ecf4 0bbe 1509 403e
00000010: 56ea 13be 2ef9 98bd dc2f 933e faf5 353e
00000020: 9eb1 2abd
-0.061328873 0.304154 -0.13667649 0.18753465 -0.14444861 -0.07469402 0.2874745 0.17769614
-0.041673295

onnx::Conv_132 f4 [16, 9, 3, 3]
00000000: bb01 b2bb 124b a8bc 7b3c 53bc 53de edbb
00000010: 0a94 a1bc 337d 41bc 8d7d 06bc a7eb 83bc
00000020: 8f6a 55bc 8a58 abbd 76f9 e73d 03cb 9dbd
00000030: a918 83bd 0cb5 403e c245 a6be 9a6c a6be
00000040: e3f3 b43d 7d1d 8fbd 3363 abbb 74c8 abbc
00000050: 5b4d abbc abdb 24bc 723a aebc 30f3 83bc
00000060: ec71 77bc b9bc abbc 2e6a 8ebc de49 943e
00000070: fd7a 80bd c225 e1be 7f41 d9be 3214 163e
00000080: c1d7 ba3e 4d70 313e abd0 2a3e 14db a53c
00000090: 2f1d 81bb dbef 9fbc fe45 cbbc 3920 acbb
000000a0: abcd a2bc 1487 91bc 2912 bebb c070 58bc
000000b0: 71dc 39bc c2ea 9ebe d201 f5bd 345c d0be
000000c0: 80f1 dfbd 6fb2 a63e 5f54 353e 87e5 a3bc
000000d0: a14e 103e 4476 d0bc 212c a93d 2f73 03be
000000e0: 0846 c13b b3e6 7fbd d1e3 5bbe 6e20 35bd
000000f0: 537f 9f3d 699b 5cba 97cd fe3d c3be b3bc
00000100: 9b69 b5bd 0ed9 a6be 23bb 99bd 76cb 2ebe
00000110: 7787 803d 718e 36be 9de5 86bd 62f0 3cbe
00000120: dc60 a7bc 1716 3ebd 836f 8dbc 104d 7dbc
00000130: 24be 62bd 80f5 14bc 8121 b2bb 7468 05bd
00000140: 92cd 3f3a 58a5 193c e332 1a3c f70b f83b
00000150: 885b 923b 7580 d13b 0cdb 9a3b 8fbb 6d39
00000160: 370b 613a 8ff9 b13a 139f ca3b 41c3 4e3b
00000170: 650a 78bd aa55 233e 9469 173e a140 843a
00000180: d1e8 bb3a 5274 b83b b68c b8ba 9641 963c
00000190: 2a82 873c 550a 763c a9e4 453c b410 413c
000001a0: 0df8 313c 6a38 543b 1b85 383b 5116 643b
000001b0: 03a1 84bb afba f6bb 5229 81bb 262c 563c
000001c0: 1c0a a33d 75f9 543c 2a10 173d 4615 ff3c
000001d0: b32e 113d b4c5 643c d1ff 513c 1349 403c
000001e0: a212 4e3c 7b18 493c 1ce9 323c f371 763b
000001f0: a7e7 743b 8fa7 843b 5e46 413d 624f 353d
00000200: 5c37 1c3d dfe5 1c3d 90fb f03d 7199 ee3c
00000210: 5a3e 033d 9512 093d 7899 c33c ebc4 aa3d
00000220: 4f56 b83d dc85 b33d eefc d63d 51b5 fc3d
00000230: e020 cf3d 68f5 203b de88 1e3b 6998 cfb8
00000240: e139 6f3a aaa4 153b d8cc 98bd d7b6 373a
00000250: d36c 4a3b e0b7 ca3b d683 1eba e2cc 803b
00000260: 9916 143c 03a2 e13a 8264 923b 3f84 813a
00000270: fce1 403b ba6e 8c3b 1510 b73a 28f4 9cba
00000280: 55f5 793b 0e03 87ba 3fc6 60bb 4b61 1abb
00000290: 7563 97ba 9fcf 13bb ef9b b7bb 1618 693a
000002a0: bc14 0e3a 368e 08bb 83a4 7e3b be23 31bf
000002b0: 4a3c 04bc 8ca2 9c3e f090 82be cd61 babd
000002c0: d2da 11be 0fda b93e 7c80 f9be ca60 843e
000002d0: 720e ccbb 80ad ce3d 874c a1bb 3184 6bbb
000002e0: a1a3 0cbc 842b f538 c80a c33a 0b55 b0bb
000002f0: f179 413b addf e83e fa21 573d c235 14bf
00000300: 3b4a 0cbf a0dc 75be c3ab 053f 5769 01bd
00000310: 1df6 7bbe 42b4 86be 27b5 aebb 99aa 77bb
00000320: 2f38 55bb 89de 7ebb d0fd b5bb 6ce2 0cbb
00000330: a727 b93a b96a 76bb 19a4 123b 5cf8 80be
00000340: e90e b2be ebee 053d aa68 febe bbe7 f3be
00000350: cf00 0b3d 874e 943e 02de ccbc 720a 243d
00000360: 486c 423e 45b8 ad3e d30a 50bc 8bd9 61b9
00000370: 5630 5f3c 4438 2abe 3cc2 91bc 1ec3 5b3e
00000380: fa18 5c3e d6fc a13d cd32 093e 0d20 7ebb
00000390: ca8a e13e 1c91 cdbe f4e8 1bbe d9ab febd
000003a0: f5d4 e83e 4112 b93c 89ed 5e3a 4273 92ba
000003b0: 1a83 1e3c 956e 09bb 0661 22bb 8a63 d83b
000003c0: 9c12 d9bb c4e8 16ba 1259 1a3c 0af7 a7b9
000003d0: 81ae fcba e825 33ba 0ab3 92ba ae90 3dbb
000003e0: 1a07 d9ba 39e5 d23a 74c0 d93a 7d0b 173b
000003f0: 4a29 4abd e8ac 863d 1b0e 0fbc 32d0 71ba
-0.005432335 -0.020543609 -0.012892838 -0.007259169 -0.01972391 -0.011809635 -0.008208645 -0.016103579
-0.013025894 -0.08366497 0.11326878 -0.07704737 -0.06401188 0.18819064 -0.32475096 -0.3250473
0.0883558 -0.06988046 -0.0052303313 -0.020969607 -0.02091091 -0.010062139 -0.021268103 -0.016107172
-0.015102845 -0.020964013 -0.017384615 0.28962606 -0.06273458 -0.4397412 -0.42432782 0.14656141
0.36492732 0.17327996 0.16681163 0.020246066 -0.0039402465 -0.019523552 -0.024813648 -0.0052528647
-0.01987346 -0.017764606 -0.0058005047 -0.013210475 -0.011344061 -0.3103848 -0.11963238 -0.40695345
-0.10934734 0.3255801 0.17707966 -0.020006908 0.14092495 -0.025447018 0.0826037 -0.12836908
0.005898241 -0.06247587 -0.21473624 -0.04422038 0.07787957 -0.0008415492 0.12441557 -0.021941548
-0.08858033 -0.32587475 -0.075063966 -0.17069802 0.06275838 -0.17827775 -0.06586764 -0.18451074
-0.020431928 -0.046407785 -0.017265087 -0.015460268 -0.055357113 -0.009091735 -0.005436123 -0.032570317
0.0007316704 0.0093778 0.009411546 0.0075697857 0.004466478 0.006393487 0.0047258195 0.00022671952
0.000858474 0.0013578403 0.006183514 0.0031549486 -0.060556788 0.15950647 0.14786369 0.0010090062
0.0014336352 0.005629101 -0.0014080021 0.01834182 0.01654156 0.015017112 0.012078443 0.0117837675
0.010862363 0.0032382258 0.002815551 0.003480334 -0.0040475144 -0.0075295786 -0.0039416933 0.013072049
0.079609126 0.012998928 0.03688065 0.031138074 0.035444926 0.013963152 0.012817339 0.011736172
0.012577685 0.012273903 0.010919835 0.003760454 0.003736952 0.004048295 0.047186248 0.04426516
0.038138732 0.03830516 0.11766732 0.029125901 0.032041885 0.033464987 0.02387689 0.0833834
0.09000837 0.08765766 0.10497461 0.12339271 0.10113692 0.0024560336 0.0024190466 -9.898918e-05
0.0009125751 0.0022833743 -0.07460946 0.0007008141 0.0030887618 0.0061864704 -0.0006046867 0.003930674
0.009038591 0.0017214421 0.004467548 0.0009881331 0.0029431572 0.0042856606 0.0013966585 -0.001197462
0.0038140614 -0.0010300593 -0.0034297851 -0.0023556526 -0.0011550026 -0.0022554172 -0.0056033055 0.0008891834
0.000541996 -0.0020836717 0.003885538 -0.69195163 -0.008071015 0.30592763 -0.25501204 -0.09100685
-0.1424363 0.36299178 -0.48730838 0.25855094 -0.006227308 0.10091686 -0.004922453 -0.0035936947
-0.008583934 0.00011690616 0.0014880532 -0.0053812317 0.0029522146 0.4548315 0.052522637 -0.5789453
-0.54800767 -0.24009943 0.5221521 -0.0315946 -0.24605604 -0.263094 -0.0053316536 -0.0037790893
-0.0032534709 -0.0038889966 -0.0055539384 -0.0021497263 0.0014126197 -0.0037600233 0.0022375642 -0.25189483
-0.34777 0.032698553 -0.49689227 -0.47637734 0.033936318 0.28966162 -0.025008205 0.040049024
0.18986619 0.3392965 -0.012697893 -0.00021538713 0.013622364 -0.16623026 -0.017792813 0.2146115
0.21493903 0.07909553 0.13398285 -0.0038776428 0.440512 -0.40149772 -0.15225583 -0.12435121
0.45474973 0.022591712 0.00085040234 -0.0011173266 0.009674812 -0.0020970453 -0.0024777069 0.006603663
-0.006624533 -0.00057567307 0.00942065 -0.0003203678 -0.001927808 -0.00068339566 -0.0011192274 -0.0028925347
-0.0016557903 0.0016090042 0.0016613142 0.002304762 -0.049355783 0.06575948 -0.00873139 -0.0009224444

onnx::Conv_133 f4 [16]
00000000: c301 ac3e 4aa7 e1be a012 a43e 5a03 663e
00000010: 0b5b b93e 0bd4 633e 48ab ac3e 7013 a53c
00000020: c2f6 3d3e f4f0 193c b2d8 6c3e a849 213e
00000030: c07e e93e a5d0 efbe c4c5 b53e 2937 d33d
0.33595094 -0.44072944 0.3204546 0.22462216 0.36202273 0.22248857 0.33724427 0.02015087
0.18551162 0.009395827 0.23129538 0.15750754 0.45604515 -0.4683887 0.35502446 0.10313255

onnx::Conv_135 f4 [23, 16, 3, 3]
00000000: cb7d ed3b 3da7 053c d017 8e3d 0e68 36be
00000010: 28bc 813d 00ae 823e adbc 0dbe 6159 cf3c
00000020: fa2f bf3c 31b4 1b3c 66ca f6b9 50a5 873c
00000030: 9891 2e3b 35a3 613c b34f 453d 3299 59bc
00000040: 9e3a e13b 5991 b33c 16a5 073d 228c 153d
00000050: bdd3 103d 9bd3 b73c 6438 313d c10d 0f3e
00000060: c05e 053d 074a 11be 7961 bc3c 2474 8cbc
00000070: 9267 80bb 1619 843c 626e 903b 90e8 f6bb
00000080: c33f fa3b 9011 c03a 4325 5bbc 9527 0b3c
00000090: c942 fd3c 9849 b13c 5271 6a3c b6a7 fc3c
000000a0: 0ce7 f53c df9e a53c 5c35 80bc 9f6c 5c3c
000000b0: cba1 54bb f677 c03c f557 ab3c 55f8 8c3d
000000c0: a127 67bc 9f62 543c 48d9 063d 8126 30bc
000000d0: 3bd0 aa3c 5e9d 303d a293 8d3c 45f1 0e3c
000000e0: a699 033c 2f8b 873c 9c0f 603c 76ed c73b
000000f0: 0017 863c 2e39 8b3c a1b2 583c 9ddd e33b
00000100: da1f 033d db64 803d d4a9 163b d358 603c
00000110: 78b0 b63c 4328 4d3c 0347 193b 6efe 9f3c
00000120: 5b50 4f3e d298 443e e859 213e b6b4 2b3e
00000130: 05e4 223e 04ac 3d3e 1f0a 52bc ead5 93bb
00000140: 4c70 043e 4677 2b3c db13 183c ac2b a43c
00000150: c7d3 823c 0647 d93b 9531 e03c bddc 913c
00000160: 3d11 993c d6ee 273d 759f 2c3c 9475 0e3c
00000170: 8629 013d ec91 bd3b 252b 703c d322 093d
00000180: 8026 433c b373 24bc 1ce8 993c e431 993b
00000190: 1cac 8a3b 825b 4e39 96f3 b83c 8343 d73c
000001a0: c991 303c 1e53 d93b 489a d73c b42a 0b3d
000001b0: 5c35 05bd 69d6 e73c 1232 2d3e afde 243e
000001c0: a9ec 513e ee8c 443e 54f3 1ebd 527c f5bb
000001d0: acc5 ccbc ab8d f6bc 619e 67bc 6607 51bc
000001e0: e08e adbc 44f6 dcbb a250 b2bb bb11 24bc
000001f0: fbd7 6ebb d2dd a9bb c52f 843e 2428 093e
00000200: 0ee3 813b 91cc 783e 0214 0b3e ca12 303e
00000210: 4f5d 123c 2411 843a f10c 073c 844e cbbc
00000220: 1b4d 87bc 87c8 403c 4d35 10bd 7892 21bc
00000230: 2f4c c03b 7222 38bd 3f02 07bd 0fac d0bc
00000240: c26e dc3d cd44 083e 5277 fb39 ae30 8cbc
00000250: b5b5 30bd ee83 f83c ab6f f03d 38dd ccbc
00000260: c6c4 e8bd 38b2 363c 32c6 563c 69b8 47bb
00000270: 3942 2aba 4e29 abbb 0f62 2d3b b1bf 8d3b
00000280: a425 d2ba 1aef a23b 3bcb 393e b8df 1c3e
00000290: 9e2b 713e 81f8 003d 4b91 e7ba ea56 c6bb
000002a0: ddca e03c 7e1e 123d c5ce 423c 5cb7 3a3e
000002b0: 5e7f 7dbc f1c7 fbba cbe0 dfbb 17c8 f0bc
000002c0: bf92 25bc 92ca 2d3e 3e68 01bc 1900 633b
000002d0: 3c33 0fbe 7772 9f3c 4d87 eabd 98c2 523c
000002e0: 99bc a13c 20cc 1abe b024 a43a e87b 1f3a
000002f0: 3c7a 06be 93cf 703d d5fd a53e e093 aa3e
00000300: 4967 343e 2c62 7e3e e9d8 203d 7a38 8f3e
00000310: de36 193e c362 e33c 5828 593e 436b c73c
00000320: 5291 2cbe 38fe 0c3d 5e6e 1a3d e914 febd
00000330: a7f0 553d aa94 1f3d 69e3 1ebe a4b9 4c3c
00000340: d35b 5cbc b2a5 0b3c 8825 15bc 671f 17bc
00000350: 13cd 723c 1808 b73c 72fd 0dbb 87ad bc3c
00000360: b013 86bd 0834 24bd 0f64 fa3b 0245 6cbd
00000370: cfe4 33bd adde 04bc 96e6 32bd 00a8 27bd
00000380: c0da 453c 769d 08be 3495 00be c591 07be
00000390: d084 813c 4421 48bb e180 b93b 9f9c 0ebe
000003a0: 9447 08bd e0e7 77bc 0e7a 603e 5164 1abc
000003b0: fe9a 1fbd 823f 09bc 72ae 8ebc 97b3 c8bb
000003c0: 255b a1bc e27d 18bb 1f1d a4bc 1b0f 003e
000003d0: ddc8 133e 6818 51bc 54a3 3e3e 6abd 933a
000003e0: de0d 54be a5b3 47bc 15d3 98bc 0970 b3bc
000003f0: a5e4 cbbc aad9 01be a708 8cbe ba39 5abd
0.0072476617 0.0081575485 0.069381356 -0.17813131 0.06334716 0.25523376 -0.13841505 0.025311174
0.023338307 0.00950341 -0.00047071575 0.01655832 0.0026637074 0.013771822 0.04817171 -0.0132811535
0.006873443 0.021919893 0.033116423 0.036510594 0.03535818 0.022439769 0.04326667 0.1397009
0.032561064 -0.14188395 0.022995697 -0.017145224 -0.0039185965 0.016125243 0.00440769 -0.007535048
0.0076369955 0.0014653672 -0.013375583 0.008493324 0.030915635 0.021641538 0.014309244 0.03084169
0.030017398 0.020217357 -0.015650444 0.013453632 -0.003244507 0.023494702 0.020915965 0.06883303
-0.014108569 0.012962966 0.03292206 -0.010751368 0.020851245 0.043118827 0.01728231 0.008724515
0.008032238 0.01654586 0.013675597 0.0061013056 0.01636839 0.016995039 0.013226182 0.0069539086
0.032012798 0.06269237 0.002298941 0.013693052 0.022300944 0.012521806 0.0023388274 0.019530501
0.20245497 0.19198921 0.15756953 0.16768155 0.15907295 0.1852265 -0.012819796 -0.0045115845
0.12933463 0.010465449 0.009282078 0.020040356 0.015970124 0.006630781 0.027367393 0.017805452
0.018684978 0.040999256 0.010536064 0.008695025 0.03153374 0.0057852175 0.014658724 0.033480477
0.011911035 -0.0100373505 0.018787436 0.004675137 0.004231943 0.0001967978 0.022577088 0.02627731
0.010776945 0.006632223 0.026318684 0.03397627 -0.03252159 0.02830048 0.16913632 0.16100572
0.20500435 0.19194385 -0.038806275 -0.007491627 -0.024996601 -0.03009685 -0.014136882 -0.012758112
-0.021186292 -0.0067432243 -0.005441741 -0.010013993 -0.0036444652 -0.0051839137 0.25817695 0.13394219
0.0039638346 0.24296786 0.13581851 0.17194667 0.008933379 0.0010075909 0.008242832 -0.024817713
-0.016516259 0.011766559 -0.03520708 -0.009861581 0.005868457 -0.044954725 -0.032961126 -0.025472669
0.10763313 0.13307495 0.0004796335 -0.017113056 -0.04314204 0.030336346 0.11740049 -0.02500783
-0.113656566 0.011150889 0.013108777 -0.0030474907 -0.00064948533 -0.0052234298 0.0026456153 0.00432583
-0.0016032946 0.004972351 0.18143933 0.15319717 0.23551795 0.03148699 -0.0017667202 -0.0060528414
0.027440483 0.03567361 0.011890118 0.18234009 -0.015472261 -0.0019209367 -0.0068322173 -0.029392285
-0.010105788 0.16971806 -0.007898388 0.003463751 -0.13984388 0.01946376 -0.11451588 0.012863778
0.01974325 -0.1511693 0.0012523141 0.0006083832 -0.13132566 0.05879171 0.3242022 0.33315945
0.17617525 0.24842137 0.03926936 0.27972776 0.14962336 0.027757054 0.21206796 0.024343139
-0.1685231 0.03442213 0.03770291 -0.12406332 0.052231457 0.038960136 -0.15516438 0.012495432
-0.013449627 0.008523392 -0.009103186 -0.0092237955 0.014819401 0.022342727 -0.0021665958 0.023031963
-0.06546724 -0.040088683 0.0076413224 -0.057683 -0.04391938 -0.008109731 -0.043676935 -0.0409317
0.01207608 -0.13341317 -0.12556916 -0.132392 0.0158104 -0.0030537406 0.0056611155 -0.13926934
-0.033271387 -0.015130967 0.2192156 -0.009423331 -0.03896617 -0.008376958 -0.017417166 -0.0061249244
-0.019696781 -0.0023268391 -0.020033417 0.12505762 0.14432092 -0.012762167 0.18616992 0.001127166
-0.20708415 -0.012188827 -0.01865534 -0.021904008 -0.0248893 -0.12680689 -0.2735035 -0.05327771

onnx::Conv_136 f4 [23]
00000000: cded eebe ba83 aabd b883 9a3d 12b8 b43d
00000010: 6821 e43c a29c 8b3d 60f8 2c3c c032 913c
00000020: 000a 1eba 7492 a63d 3d33 963d d09e bd3c
00000030: 2477 df3c b0df 173e 3cde 1ebe 4a91 23bc
00000040: 6851 8d3e 3bc6 d1bd 0851 903e 5fec 09be
00000050: 8595 653e 8a9a 36bd 6afa 2c3c
-0.46665803 -0.08325906 0.075446546 0.08824171 0.02784796 0.06816985 0.010557264 0.017724395
-0.0006028712 0.081334025 0.07333992 0.023147017 0.02727849 0.14831424 -0.15514463 -0.00998337
0.2760117 -0.102428876 0.28186822 -0.13469075 0.22420318 -0.044580974 0.01055775

onnx::Conv_138 f4 [33, 23, 3, 3]
00000000: d760 953c f453 373c 6999 393c 42da 9a3b
00000010: 26cf 253b dc58 7a3b ffef 523c db21 c13b
00000020: 1f43 f83b 8af0 b9bc a47b f4bd 4b28 82be
00000030: 7faf 17bd 1a20 13bc 2357 52be e665 37bd
00000040: 8bbe 9ebc 2622 a5bc 30a0 943a d650 09be
00000050: 4b77 843b 0e5e 42be 524d 46be 5a24 303e
00000060: 8bfc c63b dc5f 893b 3c7b 03bb d5db 0f3e
00000070: d9b0 413e d0a2 d2bc 7a82 193e 285f bfbb
00000080: 55a0 40be bf18 a9b8 467f 6439 7f3a cdbb
00000090: 9e22 fe3c 17fe ce3c d550 24be 5929 1a3e
000000a0: 3e0f 8f3c 95f4 95be ab22 943b b884 7b3a
000000b0: 655f 94be 85b0 803c 94d1 783c ff44 603c
000000c0: b139 553b 01c9 af3b 666a 05bc 00bd e43b
000000d0: e2f8 cbba eb32 fc3d fe77 52bb f3d3 883a
000000e0: bd02 1d3b 474b c53b 85ed 103b a5c4 6bbb
000000f0: ff05 063c a862 873b 7d85 fe3a b328 cf3d
00000100: cd93 303c 5be0 3cbe 82f5 5bbc 55fc efbd
00000110: ec0f 6fbe 8e43 82bc 1dea 42be 1ab3 c93a
00000120: c9eb 7c3e 320e 33be 8435 06bc 42e3 323b
00000130: 8e56 2bbe 33eb 89bb bcbb f7ba a25d d03c
00000140: 6a10 1ebb 9ea8 433e c785 3cbc bc40 1abe
00000150: 63a3 923e 9502 003c 3a3b 0fbe 08c3 503e
00000160: 9589 9e3c ce4f 623c 8b8f 143d d038 103d
00000170: 2c24 ab3c 443d a4bc 735f 0b3e b658 c6bc
00000180: 846e d13d d3e2 64bc bea9 b1bc 20ad 2abe
00000190: 8947 f0bd 330c aa3c 10c6 93be 3865 4dbc
000001a0: 1c93 6b3e 6d21 1fbd db2b 0cbd 30b8 17bd
000001b0: 225e 913b 7ae7 b63c 9265 423c 2c16 ebbc
000001c0: e48b 61bc 20aa 75bc 1300 063e 854a 213e
000001d0: 8d0b 7cbc cd1c 0fbc 69e8 553c 24ab adbb
000001e0: 832a f3b9 9920 873c 5bed 0d3c 0fc0 f13d
000001f0: 662e 323c ce6c 133c e077 b4bc d16b 04be
00000200: c032 21be 2e8e 33bd de51 1fbe 34ec 83be
00000210: ac6e 51bd 217c d9bc ec50 8fbc 0ecc 10bd
00000220: 4360 3f3c 1f0c 073c e636 53bd 5988 10be
00000230: cadc 2ebe 0f64 58bd 2a2a e3ba ff8e 8dbc
00000240: 138e 8cba 4836 223c c3b3 03bb 7137 15bb
00000250: f58d 303a b237 e4bb 698a 4a3c bba9 293e
00000260: 9cfe 083c b87a 23bb e7f1 4abe 1856 10be
00000270: c283 67bc 803b 06be 1d42 09bc dbf8 01bd
00000280: 9859 bcbb 3985 30bc ea68 1c3c 653b 863c
00000290: 14e6 ef3a 0b8d 97bc 5f9d 03bc 5627 e1bc
000002a0: a982 543b 0371 753c 8262 f13a fdee c13c
000002b0: de3e 1d3d 19bb 813e 24a8 aebc 08a2 223e
000002c0: a32d c03e bac1 c2bc e65f 063e b7b2 ecbb
000002d0: e0e0 c8bb 9e4e 6a3c 85c5 cfbc b828 64bc
000002e0: 7a9e 1b3e d052 adbc 2842 7fbc 6dcd 1e3c
000002f0: fbea 09be 7a64 dcbc 10a4 c53b 07e0 013e
00000300: 310b 32bd 261b 90bc 8bcd dd3d e898 4abd
00000310: 7988 003e f6ea b13d 846e aaba aec7 0dbe
00000320: d852 3dbc ca34 12be 1530 fcbd f6d1 efba
00000330: 5f77 c1bc c4a0 2dbc e93d 27bc 621b e93b
00000340: 5e57 853c 242a 363c 20fa 003c ba5e aa3c
00000350: c636 c13c 7b30 a53b ea58 163c 4663 dd3b
00000360: be4e 0bbb db54 8ebc 0c90 873c 2bf2 83bc
00000370: a5db adbc e0e1 8b3c b904 10bc 77f0 98bb
00000380: d7f1 793c cc5f 6e3c 61c8 01be eebd 17be
00000390: e1e8 923b e991 383c 418d e1bb 9161 c7bc
000003a0: 2575 283e 3637 ebbc 9791 14bb 2437 7c3c
000003b0: 7fed 023c d671 c5ba a051 d53a 9b41 173b
000003c0: cb4d 34bc 3a08 00be 3c00 acbb 1e7a 893b
000003d0: e35d 123e f99d 4d3c 3b7e 283a 5b86 493c
000003e0: a439 8b3b cc5b 1fbc 3c74 c3bb 55ef 38bc
000003f0: 6049 0b39 7339 6e3b 7620 97ba 0f9e 843a
0.018234653 0.01118945 0.01132808 0.0047257254 0.0025300472 0.0038199937 0.012874602 0.0058939285
0.007576361 -0.022697706 -0.11937645 -0.25421366 -0.0370326 -0.008979822 -0.20541053 -0.044774912
-0.019377967 -0.020157885 0.0011339244 -0.13409743 0.004042541 -0.18981192 -0.19365433 0.17201367
0.006072586 0.0041923355 -0.0020062467 0.14048703 0.18915118 -0.0257124 0.14991179 -0.005840201
-0.18811162 -8.063157e-05 0.00021791187 -0.006263077 0.031022366 0.025267644 -0.1604646 0.15054835
0.017463323 -0.29288164 0.0045207343 0.0009594667 -0.2897903 0.015709171 0.015186686 0.013688325
0.0032535607 0.0053645377 -0.008143043 0.0069805384 -0.0015561844 0.12314399 -0.0032114978 0.0010439142
0.002395793 0.0060209366 0.002211423 -0.0035975364 0.0081801405 0.004131634 0.0019418445 0.10115185
0.010777426 -0.1844496 -0.013425233 -0.117180504 -0.23345917 -0.015901353 -0.1903462 0.001538846
0.2469932 -0.17485884 -0.00819147 0.00272961 -0.16732237 -0.004208946 -0.0018900554 0.025435273
-0.002411867 0.19107291 -0.011506504 -0.15063757 0.2864028 0.007813116 -0.13987437 0.20386899
0.019352714 0.013812972 0.036269706 0.03521043 0.020891272 -0.020048745 0.1361063 -0.024212223
0.10226157 -0.013970095 -0.021687385 -0.16667604 -0.11732394 0.02075777 -0.28862047 -0.012536339
0.23005337 -0.038850237 -0.03422151 -0.03704089 0.0044362703 0.022327174 0.011865037 -0.028697096
-0.013766263 -0.014994174 0.13085966 0.15751083 -0.015383613 -0.008734894 0.013055899 -0.0052999426
-0.00046380245 0.016495036 0.008662547 0.118042104 0.01087532 0.008998109 -0.022029817 -0.12931754
-0.15742016 -0.043836765 -0.15558574 -0.25766146 -0.051130936 -0.026548447 -0.017494641 -0.03535085
0.011680665 0.008242636 -0.051566027 -0.14114513 -0.17076412 -0.0528298 -0.0017331291 -0.0172801
-0.0010723494 0.009900637 -0.002009616 -0.0022768641 0.00067350204 -0.006964647 0.012362101 0.16568653
0.008361485 -0.0024944972 -0.19818841 -0.14095342 -0.014130535 -0.13108635 -0.008377579 -0.031731468
-0.005747985 -0.01077395 0.009546498 0.016385743 0.0018302822 -0.018499872 -0.008033126 -0.027484577
0.0032426512 0.014980557 0.0018416198 0.023673529 0.038390033 0.25338057 -0.02132041 0.15882123
0.37534818 -0.023774017 0.1312252 -0.007223453 -0.006130323 0.01430097 -0.02536274 -0.013925724
0.15197173 -0.021157652 -0.015579738 0.009692532 -0.13468544 -0.02690338 0.0060315207 0.12683116
-0.043467704 -0.01759107 0.1083022 -0.04946223 0.1255206 0.08687393 -0.0013002907 -0.13845703
-0.011555396 -0.1427795 -0.123138584 -0.0018296826 -0.02361649 -0.010597412 -0.010207632 0.00711386
0.016277011 0.011118446 0.007872134 0.020797122 0.023585688 0.0050411797 0.009176472 0.006756219
-0.002125665 -0.017374447 0.01654818 -0.016106686 -0.021222899 0.017075479 -0.0087901885 -0.0046673375
0.015255413 0.014549207 -0.12674095 -0.14818546 0.0044833277 0.011265256 -0.006883294 -0.024338515
0.16450937 -0.02871285 -0.0022669786 0.015394006 0.007991194 -0.0015063833 0.0016274936 0.0023079875
-0.011004875 -0.12503138 -0.0052490514 0.0041954657 0.14293627 0.012549871 0.0006427501 0.012300099
0.0042488147 -0.009726476 -0.005964784 -0.01128753 0.00013283407 0.003635016 -0.001153006 0.0010117906

onnx::Conv_139 f4 [33]
00000000: 52b4 853d cff5 273e ffea c43e 820a 65bc
00000010: 4a18 8dbd 114d 81be 0cc2 dcbe d8a4 e03c
00000020: fe1c 4b3e 4c4f 7abd ec01 b8be 2578 c2bc
00000030: e7c5 55be 04cd b4bd b022 aabe 4dec 3e3e
00000040: 6c16 083d c932 1f3e 294e 3b3e 1341 e5bd
00000050: 993b 573e 9454 e33a 67a0 083d 5a1d bd3d
00000060: fca2 d2bd 7c55 013e 67e9 913e 8888 f63d
00000070: 0e80 e1be 10ec 1f3e d901 163e 3500 3d3e
00000080: 7f05 84bd
0.06528534 0.16402362 0.38460538 -0.013979556 -0.068893984 -0.2525411 -0.43116796 0.027422354
0.19835278 -0.06111078 -0.35938966 -0.02373893 -0.20876275 -0.08828166 -0.3322959 0.18644829
0.03322451 0.15546717 0.18291534 -0.111940525 0.21018828 0.0017343932 0.033356097 0.09234114
-0.10284993 0.12630266 0.28498384 0.1203776 -0.4404301 0.15617394 0.14649142 0.1845711
-0.06446361

onnx::Conv_141 f4 [29, 33, 3, 3]
00000000: 2328 d9bc 6188 bebc 32e3 bdbc 0a3f 4cbc
00000010: 4c78 90bc ead0 553e b760 1dbc 60e5 9dbc
00000020: df09 87bc 5ddd a13e c8ba fabb 8245 a8be
00000030: 734a b03c 07ae 9abe 7f42 49be e78d 133d
00000040: 24b8 813e bfa7 393d 6686 0e3d 5b44 eebd
00000050: 200b 63be 1999 8e3c bcff c03e 8040 583e
00000060: 942e 2e3d e799 aa3e b21c 3e3e b85f 52be
00000070: bde9 703c bf7c fc3b 3c0c 223b c4d2 063d
00000080: bde3 bd3c 73c7 413a f49d 3a3d 9461 053c
00000090: 69ab 6e3c 0179 8e3b cec7 173c 1deb d03c
000000a0: ac99 a43c 5ae7 883c 9f42 6e3d 7567 933d
000000b0: a352 f9bd 2c24 25be 03dd 47be 8b79 ae3b
000000c0: 9d41 eebc 8740 0ebd 61c0 06bb 7ab1 413e
000000d0: 72bd 883b a669 cd3c fe46 6f3b 76c0 adbc
000000e0: 5f5d 39be d727 1ebe aacd c1bc f737 0ebd
000000f0: 7925 38be 0e4a 7abc d020 88bc 9080 06bc
00000100: 3e10 b8bc 2cee 7dbe 000b 33be 00b8 d6bc
00000110: dff6 edbc f4f0 2bbe c500 80bb cb65 b13e
00000120: 6316 5cbe 8898 82bb d47b 0a3e 9e13 4bbe
00000130: cc21 f2bc f92f 12bd 3834 c4bc 9b3f 04bd
00000140: 8468 38bd 8667 533d b48d 633c 2a29 3b3c
00000150: 3393 453d 1681 ae3b 31f9 d13a cd2b ae3c
00000160: 4831 82bc 2c70 46bc 8ac1 ca3b ee8e f53b
00000170: 1b1c 853b 7bf8 36be 3cee cdbb 6e69 5abc
00000180: ebd1 25be e100 5fbb 7159 78bb 7173 2abe
00000190: 4dc7 92bc 64cb cfbc 50c4 3dbe 64e0 893b
000001a0: b5cb 4dba d9ed 78be a171 babc 00f9 61bc
000001b0: b18b babc cbf3 55bc e08e 9ebc 1fc9 51be
000001c0: ab17 11bc 9fd5 aebc 5495 4abe 58c2 11be
000001d0: 9a3f 993b a84b b4bb da4e 45be 808a 80bc
000001e0: 70de dabb 792e 80be b40b 51bc 2631 1e3a
000001f0: 7359 59be 9398 10bc f790 96bc 14a5 80bc
00000200: 9201 d1bc ff4e d3bc 949e debc f50b 93bc
00000210: 4f6e e9bc d0c1 00bd a4ca bfbc ab6e 4dbe
00000220: c5e4 7bbe 5ada 853b 8f27 c1bb 9feb 52be
00000230: 53e2 0e3e 99c8 f6bb f3bf 49be a8b8 b23a
00000240: 17d7 2bbe efad 65be a821 723a 8d14 143d
00000250: 4a0f 183d 9dd2 22be c9d9 2cbe 57d2 253d
00000260: 9a4f 523c 3e90 bbbc 2e98 f9bb 7ff8 b93e
00000270: c8c8 0cbd 7e58 db3d e53b 933e a182 98ba
00000280: 3f98 68bc f1f3 49bb fb10 3ebe c3ff 48be
00000290: 3264 47bc b846 b53b 4473 623b 77c9 3abc
000002a0: 9a23 843c 64f5 623b 0581 18bd 9868 b8be
000002b0: f6c1 8a3e 93a3 14bd 6df1 f5bc a3e2 9d3e
000002c0: 5d3a 3b3e e76e 2c3e 057e 53be d199 7bbe
000002d0: f9f4 f83c 3f5d 653c e1ab 953c 00b5 bc3c
000002e0: 2c84 3dbe 30fb ffbd e36a 803b 316d 0a3c
000002f0: c873 1fbb e2c8 48be c601 afbb 0f34 34be
00000300: 5108 3dbe ed03 15bd 0c51 7cbb 452e 3c3c
00000310: 087c bdbc 7aca 9cbc e1cb ddbc 2dcf a1bc
00000320: fbe7 e63d ea0c 77bc 4fd5 70bc 69dd 4abc
00000330: db41 15bb e9f9 77bc 84cc 4ebc a0e6 f7bb
00000340: b9ac 86bc e614 2a3e d4bd 0abb 51f5 72ba
00000350: 9dc1 ae3e b33c 26bb 81e3 4ebb 271d 3c3e
00000360: 7100 c2bc cf13 a6bc 9c65 2abe be7d 9fbb
00000370: 9c9a 70bc 9aac 3a3c 07a9 19be 0d7d f4bb
00000380: 6c81 67bb 75bb a5bb cb56 5a3e c504 9c3e
00000390: 24fb 233b 4641 13bd c84f 48bd 7272 273d
000003a0: e5eb 08bd 3455 77be 1f2a 113d f316 873d
000003b0: f17d 8a3d 0782 e93c 7998 7e3d f305 3f3d
000003c0: 83c1 2e3d 4bc2 9d3d 5e39 ba3c 70bb 36be
000003d0: 7f94 e33c 0da3 223e c4c8 40be 53b8 7d3c
000003e0: b2a5 123e c453 20be b1aa 903b 8710 6fbc
000003f0: 244f f0bb 087a 8bbc fa5e 7b3b 7ae2 85bc
-0.026508396 -0.02325839 -0.023179624 -0.012466202 -0.017635487 0.20880476 -0.009605578 -0.019274414
-0.0164842 0.316142 -0.0076516606 -0.3286553 0.021519875 -0.30210897 -0.19654272 0.036024
0.253358 0.04532599 0.03479614 -0.116341315 -0.22172213 0.017406987 0.3769511 0.21118355
0.04252489 0.33320543 0.18565634 -0.20544326 0.014704165 0.0077053006 0.002472653 0.032915846
0.023179883 0.0007392086 0.045560792 0.00814094 0.014567235 0.004347921 0.009263946 0.025502736
0.020092808 0.01671188 0.058169004 0.07197467 -0.12173965 -0.1612708 -0.19517903 0.0053245476
-0.029084021 -0.034729507 -0.0020561444 0.18915358 0.0041729743 0.025074791 0.003651082 -0.021209937
-0.18102024 -0.15444885 -0.023657639 -0.03472134 -0.17983045 -0.015276445 -0.016617209 -0.008209363
-0.022468682 -0.24797887 -0.17484665 -0.026210785 -0.029048381 -0.16791135 -0.0039063417 0.34647974
-0.21492915 -0.0039854683 0.13523799 -0.19831702 -0.029557131 -0.03569028 -0.023950681 -0.03228722
-0.04502155 0.0516124 0.013888765 0.0114233885 0.048236083 0.005325447 0.0016019699 0.02126112
-0.01589264 -0.012111705 0.0061876224 0.007493845 0.0040621883 -0.17868225 -0.0062845033 -0.0133308
-0.16193359 -0.0034027623 -0.0037895108 -0.166456 -0.0179173 -0.025365539 -0.18531919 0.0042076577
-0.0007850484 -0.24309482 -0.02275926 -0.013792276 -0.022771688 -0.013058613 -0.019355237 -0.20486878
-0.008855741 -0.021342097 -0.19783527 -0.14234293 0.0046767714 -0.005502183 -0.1926836 -0.015691042
-0.0066793486 -0.25035456 -0.012759138 0.00060345454 -0.21225528 -0.008825439 -0.018379671 -0.015703715
-0.025513444 -0.025794504 -0.027175225 -0.017950037 -0.028494982 -0.031434834 -0.023412056 -0.20061748
-0.24598987 0.0040848674 -0.0058946083 -0.20597695 0.13953523 -0.0075312373 -0.19702129 0.0013635354
-0.16781269 -0.22429632 0.00092365826 0.03615241 0.037123956 -0.15900655 -0.16879953 0.0404838
0.012836361 -0.022895928 -0.007617018 0.363224 -0.034371167 0.10710238 0.28756633 -0.001163561
-0.014196455 -0.0030815566 -0.18561165 -0.19628815 -0.0121698845 0.005532112 0.0034553567 -0.011400572
0.016130257 0.0034631127 -0.037232418 -0.360173 0.27101105 -0.03628881 -0.030022347 0.30836973
0.18283983 0.16839181 -0.20653541 -0.24570395 0.03039025 0.013999282 0.018270435 0.023035526
-0.18507451 -0.12499082 0.003918992 0.008448885 -0.0024330486 -0.1960788 -0.0053407876 -0.17597984
-0.18460204 -0.036380697 -0.0038500456 0.011485641 -0.023130432 -0.019139517 -0.027074756 -0.01975211
0.112747155 -0.015078763 -0.014699294 -0.01238189 -0.0022774849 -0.015135267 -0.0126220025 -0.0075653344
-0.016439782 0.16609535 -0.0021170275 -0.00092681224 0.3413209 -0.002536577 -0.0031568708 0.18370496
-0.023681851 -0.020273117 -0.16640323 -0.0048672846 -0.014685299 0.0113936905 -0.15005885 -0.0074611963
-0.0035324944 -0.005057747 0.21322171 0.3047239 0.0025021518 -0.03595092 -0.04890421 0.040880628
-0.03342809 -0.24153596 0.03544056 0.06596174 0.06762303 0.028504385 0.062157128 0.046636533
0.042665016 0.07703074 0.022732433 -0.17844939 0.02778077 0.15882511 -0.18826586 0.015485841
0.1432102 -0.15656954 0.0044148793 -0.014591343 -0.007333653 -0.017025962 0.003835617 -0.016343344

onnx::Conv_142 f4 [29]
00000000: 0d2c b1bd 80f4 8dba b03c e33c 4af4 d23d
00000010: efbb 9bbd d454 dc3d 8328 00be a0f2 8fbc
00000020: dc9c e1bc e042 203e f0ca 963c cc55 26bd
00000030: 0b1c 1e3e c08a aa3c fb93 36bd 265e 12bd
00000040: 73bc edbd d3b1 0b3e b0ce 8a3c d680 ad3d
00000050: fe8e d1bd e44b 86bd 0010 9e39 7076 a23b
00000060: 507e 853d 1216 33bd 6ad0 94bb d87a 8a3c
00000070: 6812 39bd
-0.0865098 -0.0010830313 0.027738899 0.10300501 -0.07604205 0.10758367 -0.12515454 -0.017571747
-0.027540617 0.15650511 0.018407315 -0.040609166 0.15440385 0.020818114 -0.04457472 -0.03573432
-0.116082095 0.13642053 0.01694426 0.08471839 -0.10232352 -0.06557444 0.0003014803 0.0049579665
0.06518233 -0.04372222 -0.0045414465 0.01690428 -0.04518357

onnx::Conv_144 f4 [56, 29, 3, 3]
00000000: bb04 a1ba 4dbd 01be b847 93bd 88dd 833a
00000010: 1727 7fbd 8513 1dbe ea37 07bb b676 f13a
00000020: e8fa 37bb 1a84 c6bd 51cd f0bd b885 bfbd
00000030: 7b4f 18bb 1153 0abe bf45 d3bd ea5d a5b9
00000040: 34f4 0ebe 8257 aaba d4b4 24be 3709 04be
00000050: 8bf3 e3bd 4ee0 3bbe ea36 48be df1f 80be
00000060: 6c36 33be 547d e6bd 1d28 dfbd 7e59 87bd
00000070: c97c 423b f836 d93b 6c32 d9bb 2d1f 3cbc
00000080: a521 8f3d 23f4 a8bc e9fc aabc 4a82 42bc
00000090: bce9 8b3b bfce 233b a746 413b cf7b 16bb
000000a0: 7642 1839 1252 193b 7a1f 9bbb 0aea 82bb
000000b0: b276 beba 097d 0fbc aee5 08bc 00f7 f1bb
000000c0: 4323 d5bb 637b 28bc 715f 15ba 6125 edbb
000000d0: 41ba cdbb e38f 09bc d066 9abd 1b1c 04be
000000e0: 0da1 e3bd 643e 3ebe f6b0 08be 8b4f 6c3a
000000f0: 1606 ee3b da8b 10be fd0a ce3d f0ef 86bb
00000100: c119 8aba 3079 493b 30ee b8bb 9d2f cfbb
00000110: d863 a8bd 32de 83bc e55c 20bc a837 e0bd
00000120: c60f e73a c967 19ba 9d8c 483a c8b3 b4bd
00000130: 6342 aabd 81db cbbd b066 d0bb 8f7b 25bc
00000140: 0ee8 8dbb e9c5 e23b d6bd 963b 78c4 273b
00000150: 8af0 cd3b 4af6 723a 4f38 683a a492 01bc
00000160: a0dc 9bbb 0162 dfbb d5c5 a9bb e5c5 4fbb
00000170: 5aa4 593b edaa 39bc cda9 1bbc 9e11 083a
00000180: f4b1 c2bc 97e5 b9bc 2f45 54bc ced7 12bb
00000190: a76e 4d3b 94cb e23b e210 33bc f1cb 3abc
000001a0: 0bd4 f6bb 7bf4 3abc 8dba 59bc df0e 55bc
000001b0: a977 b43d a6d4 52bc 049b 62bc bb7e 433e
000001c0: 29f5 a7bb c962 fbb8 7d5c 3cbc dc87 4abc
000001d0: d1e7 bfbd 1d32 f6bd 8bc3 ccbd 4aca 36be
000001e0: 8d20 11bc b513 95bc ffa8 11be 18e9 aabb
000001f0: 556e 703d 97e6 aabd cd17 5cbd 4239 c9bd
00000200: a964 b3bd 4cd7 43ba 501c c03a d008 aabd
00000210: 11c2 31bc 529f ecbb b2ef 2cbc fdc5 d1ba
00000220: aab0 a8bd 7b26 a0bd 0b29 0a3b aae2 aa3a
00000230: f4a6 c1bd f9e2 833d 0f00 af3d 5fbb 3dbc
00000240: 1c79 523c 0a5c 193c 5754 ae3b 99b1 f63a
00000250: 645d 87b9 7a0a 63bb e604 91bb d08b 4dbc
00000260: a80c 7abc 1869 d9bd 72be f0bd 5a53 8aba
00000270: faf5 2dbe 5fc4 03be 7c27 e0bd e236 52bb
00000280: ba17 2b3b 964d c2ba 77d3 6b3a d4d2 adbb
00000290: 18b4 07bc 528a babb a403 c6bb 47d5 a2bd
000002a0: a456 a3bd 6d9d c5bb ed98 b8bb 3aa9 0cbb
000002b0: 5b01 c9bb 1434 07bc 4f91 423e 235e b13d
000002c0: af2a bc3b 42f8 c2bb 3df1 9fbb 90a1 afbb
000002d0: 973e 90bb 9467 6139 5973 29bb 9686 c4bb
000002e0: 1856 983a 5bc5 c53a e402 bfbb 1c69 c9ba
000002f0: 3cce 50bb 5032 023b d6d4 ef3b e549 dc3b
00000300: af0e 0bbc 72ab 06bc 20a6 953d 64d8 cfbb
00000310: 39f0 aebd cc28 bbbd 026f ce39 b50e afba
00000320: ec27 643b 643b 9bbb 0f85 d9bb 8dcc feba
00000330: 09a1 64bc a812 96bc 694b 5abc cee8 eb3d
00000340: f1c2 c73d cddf 0cbc 1857 9dbc bfa7 afbc
00000350: 53e8 92bc 0758 2abc 6aa9 36bc 818a 37bc
00000360: 02f0 bc3b 755b 1a3c 0761 223c 8d13 6a3d
00000370: 4e66 c8b9 20a8 c93a 08ce 903d 61a7 80bc
00000380: bacf 49bc 1846 c73d 112f fd3a d78a 88ba
00000390: eabd e4bb 78a2 98bb 5bc5 80bb 7768 b03d
000003a0: 179e 8abb 9fe4 da3d b3fb 91bb 0c2d d1b9
000003b0: b317 383b fc81 37bc d452 d8bb e020 5cbb
000003c0: a838 ccbc 0a90 9bbc 1627 f7bd 3561 683b
000003d0: e24e 6b3b 81f9 0d3b 9463 e2ba 3530 22bb
000003e0: 5929 873d 8c4c aebd 993e a1ba a86c 06bb
000003f0: 7fef a13b 8793 19be 3fbd 55be 8cc8 4cbb
-0.0012284735 -0.12669869 -0.07191414 0.0010060528 -0.06229314 -0.15339477 -0.0020632693 0.001842222
-0.0028073136 -0.09693165 -0.11757911 -0.09351677 -0.0023240733 -0.1350825 -0.103160374 -0.00031541224
-0.13960344 -0.001299605 -0.16084605 -0.1289414 -0.111304365 -0.18347284 -0.19552198 -0.25024316
-0.17501229 -0.11254373 -0.10896323 -0.06608866 0.0029676429 0.0066288672 -0.006628325 -0.011482042
0.06988839 -0.020624226 -0.02087255 -0.011871884 0.0042698067 0.0024995056 0.0029491575 -0.002296198
0.00014520608 0.0023394865 -0.004733977 -0.003995185 -0.0014531224 -0.008757838 -0.008355541 -0.007384181
-0.0065044477 -0.010283324 -0.0005698121 -0.007237122 -0.0062783067 -0.008396122 -0.07539141 -0.12901346
-0.111147024 -0.18578488 -0.13348755 0.00090145384 0.007263909 -0.14115849 0.100606896 -0.0041179582
-0.001053624 0.00307424 -0.0056436285 -0.0063228146 -0.08222169 -0.016097162 -0.009787773 -0.109481156
0.0017628602 -0.0005851952 0.00076503475 -0.08823353 -0.083134435 -0.099539764 -0.0063598976 -0.010100259
-0.0043306416 0.0069205654 0.004600267 0.0025599282 0.006284778 0.00092682673 0.0008858488 -0.007908497
-0.004756525 -0.006817103 -0.005181054 -0.0031703648 0.0033209533 -0.011332256 -0.009500933 0.00051906134
-0.023766495 -0.022692485 -0.012955948 -0.0022406462 0.0031346472 0.006921241 -0.010929318 -0.0114011625
-0.0075326017 -0.011410828 -0.013289106 -0.013004034 0.08811886 -0.012868082 -0.013830904 0.19091313
-0.005125661 -0.00011987013 -0.01149666 -0.012361493 -0.09370387 -0.12021277 -0.09998234 -0.17850605
-0.008857858 -0.018197874 -0.14224623 -0.005215775 0.05869897 -0.08344763 -0.053733636 -0.09825374
-0.08759434 -0.00074707414 0.0014656875 -0.08302462 -0.010849492 -0.007221141 -0.010555195 -0.001600444
-0.08236821 -0.078198396 0.0021081592 0.0013037522 -0.09455672 0.06439776 0.08544933 -0.011580317
0.012846258 0.009360323 0.0053201127 0.0018821239 -0.00025818788 -0.0034643696 -0.004425633 -0.012545541
-0.015261807 -0.10615748 -0.117550746 -0.0010553405 -0.16988364 -0.12867878 -0.10945031 -0.003207617
0.0026106671 -0.0014824148 0.00089960493 -0.0053046737 -0.008282684 -0.0056927586 -0.0060429145 -0.07950836
-0.0797551 -0.0060307295 -0.0056334645 -0.0021463172 -0.006134195 -0.0082521625 0.19000743 0.08660533
0.005742393 -0.005950005 -0.0048810528 -0.005359836 -0.0044019925 0.00021496258 -0.0025856106 -0.005997489
0.0011622338 0.0015088724 -0.005829202 -0.0015366408 -0.0031861207 0.0019866414 0.007319073 0.006722676
-0.008487388 -0.008219587 0.073070765 -0.0063429344 -0.085419126 -0.09138641 0.0003937409 -0.0013355823
0.0034813834 -0.0047373045 -0.0066381763 -0.0019439623 -0.013954409 -0.018319443 -0.013323643 0.11519013
0.09753979 -0.00859828 -0.019206569 -0.021442292 -0.017933046 -0.010396964 -0.01114879 -0.0112024555
0.005765916 0.009421219 0.009910828 0.05714755 -0.00038223196 0.0015385188 0.07070547 -0.015704812
-0.012317592 0.09730166 0.0019316395 -0.0010417354 -0.0069806473 -0.0046580397 -0.0039297766 0.08613675
-0.0042302716 0.10688137 -0.0044550537 -0.0003989715 0.0028090298 -0.011200424 -0.0066016708 -0.003358893
-0.02492936 -0.018989582 -0.12068002 0.003545833 0.0035905172 0.0021663608 -0.0017272108 -0.0024747972
0.06599683 -0.08510694 -0.0012301981 -0.0020511542 0.0049418802 -0.14997683 -0.20872973 -0.0031247465

onnx::Conv_145 f4 [56]
00000000: 3c7b 683e 26a3 143e 822f 95be daba 39bd
00000010: 164b b5bd bdb9 93be 4677 553d 0001 0d3a
00000020: 6002 1d3d d0a3 8d3d b1e6 48be f1e9 ac3d
00000030: 4cde f0bd 4ab6 c93d 5a37 54bd f4f5 c93d
00000040: 0817 073e 6805 133e 876d f83d a8f5 913c
00000050: f05e ffbb a527 4fbe 009e 80ba 32e9 4c3d
00000060: ba25 76be 33b6 ed3c 2191 163e b156 68bd
00000070: 0383 58bd 20a9 1fbb fd68 9a3e 6f5b 97bd
00000080: a037 e6bb cea3 11be 03f6 033e ce58 3a3e
00000090: 0a0a 853d 282b 363c 0d5d c3be e0d0 39be
000000a0: 6efb f43c 111e a8bd d977 31be 476e c73c
000000b0: caf9 b43d 8a86 53bd 8793 2ebe a8bd 0b3c
000000c0: 6376 87bd 45ab 3e3e 612d 4d3e 442f b6bc
000000d0: 686c 3f3c 6eaf 55be 58ea 20be 0017 c73b
0.2270326 0.14515361 -0.29137808 -0.04534421 -0.08852212 -0.28852645 0.0521157 0.0005378872
0.038332343 0.069160104 -0.19619252 0.08443058 -0.1176115 0.09849222 -0.0518106 0.09861365
0.1319238 0.14357531 0.12130266 0.017817333 -0.0077933 -0.20229967 -0.0009812713 0.05002708
-0.24037829 0.029017543 0.147038 -0.0567233 -0.052859318 -0.002436228 0.30158225 -0.073904864
-0.007025674 -0.14222643 0.12886815 0.18197939 0.064960554 0.011118688 -0.3815693 -0.18146086
0.029905047 -0.0820886 -0.17330875 0.024344577 0.08836706 -0.05164198 -0.17048465 0.008529104
-0.06614377 0.18620022 0.20036842 -0.022239335 0.011683561 -0.20867702 -0.15714395 0.00607574
