th/pruned_models/second_stage_pruned_models/magnitude_pruning/bak/hybrid_pruning_model_from_acc_96.55_20240109194751.pt (torch, 549202 bytes, 62 tensors)

sfeb.0.weight f4 [8, 1, 1, 9]
0	0x3e19c81e	0.15017745
1	0x3e604242	0.21900275
2	0x3d90b19e	0.07065128
3	0x3f4e9962	0.80702794
4	0xbe7f617f	-0.24939536
5	0xbeae6082	-0.34058005
6	0xbed31b87	-0.4123194
7	0xbe154743	-0.14577965
8	0xbda10f0f	-0.078642
9	0xbd049da9	-0.03237692
10	0x3d603803	0.054740917
11	0x3e314512	0.17311504
12	0xbe9f23b9	-0.31081942
13	0x3e0924dc	0.13392967
14	0xbf66c590	-0.90145206
15	0xbec0572b	-0.37566504
16	0x3eee7c15	0.46579042
17	0x3f3fd6d2	0.74937165
18	0x3e1ca98b	0.1529905
19	0x3c8ab97f	0.016934155
20	0x3d63da6b	0.05562822
21	0xbe6bbf96	-0.23022303
22	0xbd123c45	-0.03570201
23	0xbe88bb43	-0.2670537
24	0x3e0bda59	0.13657512
25	0xbce514ba	-0.027963985
26	0xbef2da31	-0.47432092
27	0x3f31976c	0.69371676
28	0xbdc61134	-0.0967125
29	0xbd561bf4	-0.052272752
30	0xbe9da82f	-0.30792376
31	0x3d29b189	0.041429076
32	0xbe5aef9f	-0.2138047
33	0x3d8606f6	0.065442964
34	0x3f082cef	0.53193563
35	0xbed90b45	-0.4239141
36	0xbf0b098b	-0.54311436
37	0xbf1eb3d8	-0.6199317
38	0x3a2f161f	0.00066790165
39	0x3f18151d	0.59407216
40	0x3d855741	0.06510783
41	0x3e99729f	0.2997026
42	0xbe8882f1	-0.266624
43	0x3cf8e058	0.030380413
44	0x3dc3fa96	0.0956928
45	0xbcb8d671	-0.022563191
46	0x3dbbe722	0.091749445
47	0xbe3d0fe0	-0.18463087
48	0x3dadc666	0.08485107
49	0x3c673911	0.014112727
50	0x3e9ab0c4	0.30212986
51	0x3f545f8f	0.8295831
52	0xbf120fbb	-0.5705525
53	0xbefca83e	-0.4934711
54	0xbc8f0295	-0.017457286
55	0x3d7cfb3a	0.061763026
56	0xbe96d19a	-0.29456788
57	0x3eb9feb0	0.36327124
58	0xbf78d2ed	-0.9719685
59	0x3f3a92c4	0.72880197
60	0x3e1a0fb3	0.15045051
61	0xbf6fe207	-0.93704265
62	0x3f321740	0.69566727
63	0xbe0ac626	-0.1355215
64	0xbe57eb79	-0.2108592
65	0xbd46c645	-0.04852893
66	0x3e5d04ac	0.21583813
67	0x3d8ac4d5	0.06775824
68	0x3dcde5ac	0.10053572
69	0xbe836c2b	-0.25668463
70	0x3e0e2119	0.13879813
71	0x3f24989e	0.64295375

sfeb.1.weight f4 [8]
0	0x3f55cdfa	0.8351742
1	0x3f78b260	0.9714718
2	0x3f086344	0.5327647
3	0x3f0af0c4	0.5427363
4	0x3f2519b2	0.6449233
5	0x3f2e43f6	0.6807245
6	0x3f1d52b8	0.61454344
7	0x3f153ec5	0.58298904

sfeb.1.bias f4 [8]
0	0x3c88319d	0.01662522
1	0x3d007e89	0.031370673
2	0x3d327674	0.043569997
3	0x3f129c2a	0.5726954
4	0x3f10282a	0.56311285
5	0x3e27f4c4	0.16401964
6	0x3f26ef1c	0.652086
7	0x3dbf7ed8	0.093503654

sfeb.1.running_mean f4 [8]
0	0x36a52991	4.922222e-06
1	0xb733b40b	-1.0711151e-05
2	0xb901af54	-0.00012367713
3	0x38349f4f	4.3063712e-05
4	0xb88165de	-6.1701736e-05
5	0x37263a2a	9.907913e-06
6	0xb826ca97	-3.976616e-05
7	0x38c4e6e2	9.3890136e-05

sfeb.1.running_var f4 [8]
0	0x3ce8be5e	0.028411087
1	0x3d03db20	0.032191396
2	0x3c35ef3b	0.0111044
3	0x3c32c3ce	0.010910941
4	0x3cd8aa28	0.026448324
5	0x3c8e4e0f	0.017371206
6	0x3c0122c5	0.007881825
7	0x3c78ca22	0.015184911

sfeb.3.weight f4 [32, 8, 1, 5]
0	0xbdf161b1	-0.11786211
1	0xbe08bf4b	-0.13354222
2	0xbda42794	-0.080153614
3	0xbd9f2777	-0.07771199
4	0xbd2c4217	-0.042055216
5	0xbd62aaaa	-0.05533854
6	0xbd8c2e62	-0.06844784
7	0xbcbb3313	-0.022851503
8	0x3cc94826	0.024570536
9	0xbd2d0cf7	-0.042248692
10	0x3e683af3	0.22678737
11	0x3e8de904	0.2771684
12	0x3e665b6e	0.22495815
13	0x3e8f9218	0.28041148
14	0x3e5f7bc7	0.21824561
15	0xbe2fd903	-0.17172627
16	0xbdd59eab	-0.10430654
17	0xbe1595de	-0.14607951
18	0xbe42f579	-0.19038953
19	0xbdbffd6b	-0.093745075
20	0x3d4a44ab	0.049381893
21	0x3dcbe070	0.099549174
22	0x3df32674	0.11872569
23	0x3e15fb7b	0.14646713
24	0x3e1280be	0.14306924
25	0xbbea8981	-0.007157505
26	0x3da64f53	0.08120599
27	0x3ab75a96	0.0013988789
28	0xbc8264d1	-0.015917214
29	0xbd89de37	-0.06731837
30	0xbcdae4f5	-0.026720503
31	0xbc943b59	-0.018094705
32	0xbb9c4b1b	-0.0047696955
33	0xbcfe155a	-0.03101604
34	0xb999cea6	-0.000293364
35	0xbe519913	-0.2046855
36	0xbe3157cb	-0.17318647
37	0xbe494f20	-0.1965909
38	0xbe1535c0	-0.14571285
39	0xbe48bdb2	-0.19603613
40	0xbe581c26	-0.21104488
41	0xbe43bc57	-0.19114815
42	0xbdc4dc0a	-0.096122816
43	0xbdf4f21d	-0.11960242
44	0xbd502c6b	-0.05082361
45	0x3d110f3b	0.035414916
46	0xbd7eac43	-0.062176
47	0xbdbed457	-0.09317844
48	0xbe2bc246	-0.16773328
49	0xbe9f4519	-0.31107405
50	0xbdbdd4cb	-0.09269103
51	0x3d746d89	0.059674773
52	0x3dba31b3	0.090915106
53	0x3e3ffb7d	0.18748279
54	0x3e86788c	0.26263845
55	0xbe128b7d	-0.14311023
56	0xbd7feca4	-0.062481537
57	0xbd97b77e	-0.07408045
58	0xbda5b07c	-0.08090302
59	0xbcf48a60	-0.029851139
60	0x3e575d15	0.21031602
61	0x3df7b84e	0.120957
62	0x3dd54440	0.10413408
63	0x3deb3a31	0.114857085
64	0xbc17049b	-0.009217407
65	0xbd6072c9	-0.054796968
66	0x3cdb563a	0.026774514
67	0x3d1936f8	0.037405938
68	0x3d329b49	0.043605123
69	0x3d874910	0.066057324
70	0xbbc22991	-0.0059253653
71	0xbc141f89	-0.009040722
72	0xbbcd98cf	-0.0062743197
73	0xbd9a34f0	-0.07529628
74	0xbc47c548	-0.012193032
75	0xbee02dab	-0.43784842
76	0xbe9e7e53	-0.30955753
77	0xbe0db4b7	-0.13838468
78	0xbd14df74	-0.036345914
79	0x3d5754d0	0.052571118
80	0xbdf5d637	-0.12003749
81	0xbdf3ee1d	-0.11910651
82	0xbe27fb9b	-0.16404574
83	0xbdbb2023	-0.09136989
84	0xbdbce8e1	-0.092241056
85	0x3b3c20d0	0.0028706081
86	0xbd272294	-0.04080446
87	0xbbf5c8d3	-0.0075007468
88	0xbccb7174	-0.024834372
89	0x3bfc48b2	0.0076990956
90	0x3e2c87b7	0.16848646
91	0x3e60cf3d	0.21954055
92	0x3e362dc3	0.17790894
93	0x3e794dea	0.24346128
94	0x3e6cf459	0.23140086
95	0xbe2390ab	-0.15973155
96	0xbdd2824c	-0.102787584
97	0xbd62837b	-0.05530117
98	0xbddb0fc1	-0.10696364
99	0xbda35da6	-0.079768464
100	0x3decf2c9	0.11569745
101	0x3e3f5be6	0.186874
102	0x3e235c90	0.15953279
103	0x3e19db08	0.1502496
104	0x3e0cb3a7	0.13740407
105	0xbd0e4555	-0.03473409
106	0x3c777243	0.015102926
107	0x3d354cd9	0.04426274
108	0x3ca2e3c7	0.019884003
109	0xbd1468fe	-0.03623294
110	0xbc6b3c2f	-0.014357611
111	0xbbcaf944	-0.0061942656
112	0xbc3b03ac	-0.01141445
113	0xbc94fca0	-0.018186867
114	0xbc95dce4	-0.018293805
115	0xbe3e9448	-0.18611252
116	0xbe5d84f2	-0.21632746
117	0xbe044e4a	-0.1292049
118	0xbdc2fa24	-0.09520367
119	0xbe26e98f	-0.16300033
120	0x3a69c550	0.00089176465
121	0x3c633d56	0.013869604
122	0x3ccff640	0.025385976
123	0xbc2f6392	-0.010704892
124	0xbdc7860c	-0.09742364
125	0xbe0d9871	-0.13827683
126	0xbd823123	-0.06357028
127	0xbda1ebda	-0.07906313
128	0xbd42dbc4	-0.047572866
129	0xbd4f5220	-0.05061543
130	0xbeec99ba	-0.46211034
131	0xbea87d77	-0.32908222
132	0xbe5cffdc	-0.21581978
133	0xbe33508f	-0.175112
134	0xbe12ebaf	-0.14347719
135	0x3e88488f	0.26617858
136	0x3e6df6d0	0.23238683
137	0x3e25e848	0.1620189
138	0x3db170b1	0.08664072
139	0x3dcf751f	0.10129761
140	0xbe1dc4a2	-0.1540704
141	0xbe7ac216	-0.244881
142	0xbd9c7f35	-0.0764145
143	0xbe11e5f8	-0.14247882
144	0xbe05b77b	-0.13058273
145	0x3cc45612	0.023966823
146	0xbab01d69	-0.0013436499
147	0x3cfa5f3a	0.030562986
148	0xbd16b232	-0.036791034
149	0xbd1272bc	-0.03575395
150	0xba84fef4	-0.0010146783
151	0xbc93028b	-0.017945549
152	0xbce1c3f3	-0.027559256
153	0xbba1ec45	-0.0049414956
154	0x3a5c27ea	0.00083982816
155	0x3e5f8748	0.2182895
156	0x3e85fdff	0.26170346
157	0x3e5b3133	0.21405487
158	0x3e9a39b1	0.3012214
159	0x3e9a2f31	0.3011413
160	0x3e11b71d	0.14230008
161	0x3dd43d00	0.10363197
162	0xbd7fe394	-0.062472895
163	0xba5b0d8e	-0.0008356207
164	0x3dc71975	0.097216524
165	0xbe25305f	-0.16131733
166	0xbe29cf33	-0.16582946
167	0xbd23d0b5	-0.03999396
168	0xbdb3d605	-0.08781055
169	0xbe6c303b	-0.23065273
170	0xbdf883cb	-0.121345125
171	0xbdb8658e	-0.09003745
172	0xbde2477a	-0.11048789
173	0x3cc8b555	0.024500528
174	0x3deff7db	0.117171966
175	0x3e852a3d	0.26008788
176	0x3dd7ff15	0.105467
177	0x3dbf8437	0.0935139
178	0x3d824e7d	0.06362627
179	0xbaa19651	-0.0012328123
180	0xbe352cd2	-0.17692879
181	0xbddb5c91	-0.10711015
182	0xbdfb32fe	-0.12265585
183	0xbd051e27	-0.03249946
184	0xbdc4d873	-0.09611597
185	0x3d0861e0	0.033296466
186	0x3d1ac3f2	0.037784524
187	0x3d1b2134	0.03787346
188	0x3de54973	0.1119565
189	0x3e35b35b	0.177442
190	0x3c3f18d2	0.0116636325
191	0x3c8b07da	0.016971517
192	0x3b313320	0.002703853
193	0xbd8e377b	-0.06944176
194	0xbd9006d6	-0.07032554
195	0xbd8ee53a	-0.06977315
196	0xbe2e1467	-0.1699997
197	0xbe84680b	-0.25860628
198	0xbe34e088	-0.17663777
199	0xbde20736	-0.110365316
200	0xbdb99e86	-0.09063439
201	0xbe3b2a69	-0.18277897
202	0xbe901532	-0.2814117
203	0xbe2747a4	-0.16335922
204	0xbe0bcbaf	-0.13651918
205	0x3d03d232	0.03218288
206	0xbdb6ac27	-0.08919554
207	0xbb5c6b9c	-0.0033633476
208	0x3d9c7f1a	0.0764143
209	0x3c86f507	0.01647426
210	0xbdedd54e	-0.1161295
211	0x3a02ca1f	0.0004989225
212	0xbdcc0eb5	-0.09963743
213	0xbccd2916	-0.025044005
214	0x3db46d81	0.08809949
215	0xbe652e42	-0.22380927
216	0xbd38ee63	-0.04514922
217	0xbdf96460	-0.12177348
218	0xbd2dd542	-0.042439707
219	0x3b1bf067	0.0023794414
220	0x3e8fede6	0.2811119
221	0x3e2bdfe7	0.1678463
222	0x3d7879b1	0.06066293
223	0xbd3aa67e	-0.045568936
224	0xbd5ebdee	-0.05438035
225	0x3984d099	0.0002533242
226	0xbdf40268	-0.119145215
227	0xbdee1ca4	-0.116265565
228	0xbdf22c91	-0.118249066
229	0xbe2de14e	-0.16980478
230	0xbd9fac28	-0.07796508
231	0xbd505f34	-0.050872043
232	0xbb9a020e	-0.004699952
233	0xbab7adcc	-0.0014013587
234	0x3d838338	0.06421512
235	0xbcf4c3bd	-0.029878492
236	0x3de2a4ef	0.11066615
237	0x3d13bd79	0.036069367
238	0x3e5acd25	0.21367319
239	0x3e96ead4	0.29476035
240	0x3dcaca91	0.09901918
241	0x3e02189d	0.12704702
242	0x3da04b21	0.0782683
243	0x3cc3d5d8	0.02390568
244	0x3bf0ebf9	0.007352349
245	0xbde0c710	-0.10975468
246	0xbe005a32	-0.12534407
247	0xbe091c7d	-0.13389774
248	0xbe069789	-0.13143744
249	0xbe046b4d	-0.12931557
250	0xbddd364e	-0.108013734
251	0x3ce244bd	0.027620668
252	0x3e1b3d01	0.1515999
253	0x3e596b5b	0.21232359
254	0x3e6797cf	0.22616504
255	0x3e0f511b	0.13995783

sfeb.4.weight f4 [32]
0	0x3f4b1f86	0.79344976
1	0x3f69985b	0.912481
2	0x3f01e2a9	0.5073648
3	0x3f858c83	1.0433506
4	0x3f08d38f	0.5344781
5	0x3f1801a7	0.5937752
6	0x3f27ac20	0.65497017
7	0x3f2c5a10	0.67324924
8	0x3f01a23d	0.5063818
9	0x3f079a75	0.5297006
10	0x3f3aa236	0.72903764
11	0x3f33162a	0.69955695
12	0x3efce96f	0.49396846
13	0x3eface70	0.48985624
14	0x3ef72d0c	0.48276556
15	0x3f09075d	0.5352686
16	0x3f25466b	0.64560574
17	0x3f28dd0a	0.6596228
18	0x3f0b7b83	0.5448534
19	0x3f2f8b70	0.6857214
20	0x3f29ee10	0.6637888
21	0x3f0e1a4a	0.55508864
22	0x3f2a731f	0.6658191
23	0x3f0e8103	0.55665606
24	0x3f13c846	0.5772747
25	0x3eceae9a	0.40367585
26	0x3ef569ad	0.47932187
27	0x3f27f735	0.65611583
28	0x3f3c744b	0.7361495
29	0x3f3756be	0.71616733
30	0x3f286c27	0.6579003
31	0x3f25cd7d	0.64766675

sfeb.4.bias f4 [32]
0	0x3c9934c7	0.018701924
1	0xbe0a392a	-0.13498369
2	0x3d7310ac	0.05934207
3	0xbd7571ac	-0.05992286
4	0xbdab2650	-0.08356917
5	0x3bde0f1c	0.0067767035
6	0xbd4280d5	-0.047486145
7	0x3c7f46b6	0.015580824
8	0xbd71f165	-0.059068102
9	0xbda22579	-0.079173036
10	0x3c84079a	0.016116906
11	0xb9b37f41	-0.00034236352
12	0xbca6b2a7	-0.02034886
13	0x3c7c7a77	0.015410057
14	0xbbe6f6ac	-0.0070484485
15	0x3cd45f6f	0.025924413
16	0x3d4fc434	0.050724223
17	0x3a7725df	0.00094279455
18	0xbdbfe056	-0.093689606
19	0x3bfaaad0	0.007649757
20	0xbcf10edb	-0.029426029
21	0xbcbb81a0	-0.022888958
22	0xbd03810f	-0.0321055
23	0xbd599029	-0.053115997
24	0xbd86a74a	-0.065748766
25	0xbe0db22a	-0.13837495
26	0x3d660ae4	0.05616273
27	0x3cfbb888	0.03072764
28	0xbb40b6fd	-0.0029405945
29	0xbba68b7d	-0.0050825463
30	0xbddf8173	-0.10913362
31	0x3c311a70	0.010809526

sfeb.4.running_mean f4 [32]
0	0xbe907635	-0.28215185
1	0xbeb579ec	-0.35444582
2	0xbd082582	-0.033238895
3	0xbd2b9c00	-0.04189682
4	0xbe94821c	-0.29005516
5	0xbe90d063	-0.28283986
6	0xbeb99c24	-0.36251938
7	0x3d05da93	0.03267915
8	0xbf14a93e	-0.58070743
9	0xbe97d87e	-0.29657358
10	0xbe367b33	-0.17820434
11	0xbeb458b6	-0.3522393
12	0xbe6ea3ab	-0.23304622
13	0xbe22fce7	-0.15916787
14	0xbe1e20cf	-0.15442203
15	0xbeb5a679	-0.3547857
16	0x3c076c54	0.0082655735
17	0xbe75f720	-0.24020052
18	0xbea5ab05	-0.3235704
19	0xbd66c195	-0.056336958
20	0xbe2b48c1	-0.16726972
21	0xbde7f147	-0.11325317
22	0xbe3a23c6	-0.18177709
23	0xbeb6c048	-0.35693574
24	0xbedc3ec0	-0.43016624
25	0xbf11c090	-0.5693445
26	0xbd83b6dc	-0.06431362
27	0x3dae4117	0.08508509
28	0xbdb6bd16	-0.08922784
29	0xbeb5d43b	-0.35513481
30	0xbf12947e	-0.5725783
31	0xbe233ddc	-0.15941566

sfeb.4.running_var f4 [32]
0	0x3e3c53f4	0.183914
1	0x3e8e69ef	0.27815196
2	0x3e0a5e69	0.13512577
3	0x3e87bdc2	0.2651196
4	0x3e975aed	0.29561558
5	0x3e872fcd	0.26403657
6	0x3e9d88d3	0.3076845
7	0x3eb0342c	0.34414804
8	0x3e4714e6	0.19441566
9	0x3e7617c6	0.24032506
10	0x3e9415c2	0.2892285
11	0x3e74cb38	0.23905647
12	0x3e719df2	0.23595408
13	0x3e791acd	0.2432663
14	0x3eac07c1	0.33599666
15	0x3ecdca0a	0.40193206
16	0x3f121763	0.57066935
17	0x3f152dfb	0.58273286
18	0x3f0c0596	0.54696023
19	0x3f0a732e	0.54082
20	0x3ee7a10a	0.4524005
21	0x3eed67fc	0.46368396
22	0x3f0ef668	0.55844736
23	0x3ed30add	0.41219226
24	0x3f08ad3b	0.5338933
25	0x3e673064	0.22577053
26	0x3e471340	0.19440937
27	0x3eb5f15e	0.3553571
28	0x3f0a4133	0.54005736
29	0x3f03d929	0.51503235
30	0x3ed455d3	0.4147173
31	0x3ebeb5a0	0.37247944

tfeb.0.weight f4 [18, 1, 3, 3]
0	0x3f5658c1	0.8372918
1	0xbf128d10	-0.57246494
2	0xbea6b3ea	-0.3255914
3	0xbe075e1f	-0.13219498
4	0xbb99d680	-0.00469476
5	0x3d616074	0.055023625
6	0xbd340ebf	-0.043959375
7	0x3c1a8f89	0.0094336355
8	0x3d00e2f1	0.03146643
9	0x3d9045f0	0.070445895
10	0xbee55435	-0.44790807
11	0x3df29a93	0.11845889
12	0x3e6efc6f	0.23338483
13	0xbf03fffc	-0.51562476
14	0x3e0a6f57	0.13519035
15	0x3e3aaa16	0.18228945
16	0xbe9cd810	-0.30633593
17	0x3de03502	0.109476104
18	0x3e42adec	0.19011658
19	0x3e4dca32	0.20096663
20	0xbee2278e	-0.44170803
21	0x3e653111	0.22381999
22	0x3e685c5b	0.22691481
23	0xbed7ca52	-0.42146546
24	0x3debbeee	0.11511026
25	0x3dcacb9f	0.09902119
26	0xbe0eafbc	-0.13934225
27	0xbf0b4523	-0.5440237
28	0x3de0b080	0.10971165
29	0x3e5c9ff8	0.21545398
30	0xbf17ce62	-0.5929929
31	0x3e27247d	0.16322513
32	0x3ee24098	0.44189906
33	0xbe812dec	-0.25230348
34	0x3d99b05d	0.07504342
35	0x3e3172ef	0.17329
36	0xbf064f7f	-0.5246505
37	0x3f8a3f7f	1.0800627
38	0xbf38ea55	-0.7223256
39	0xba3b4e6f	-0.00071451714
40	0xbc886181	-0.016648056
41	0xbde1b7b0	-0.11021364
42	0x3caee0c6	0.021347415
43	0x3b28b93e	0.0025745179
44	0xbc933c70	-0.017973155
45	0x3e123174	0.14276677
46	0x3d934907	0.07191663
47	0x3d2c513b	0.042069655
48	0xbdce6039	-0.10076947
49	0xbe561103	-0.20904927
50	0xbded2162	-0.11578633
51	0xbe5b7b32	-0.21433714
52	0xbe0a026b	-0.13477485
53	0x3bf7bc2c	0.0075602736
54	0x3e27d6df	0.1639056
55	0xbe5b8011	-0.21435572
56	0xbe90f5f2	-0.2831264
57	0x3e9fe9d1	0.31233075
58	0xbe4828f2	-0.1954687
59	0xbe82ab33	-0.2552124
60	0x3e897132	0.26844174
61	0xbdbcfc7b	-0.09227844
62	0xbe0d6b33	-0.13810425
63	0xbe545f6d	-0.20739527
64	0xbeac7259	-0.3368099
65	0xbe590a88	-0.21195424
66	0xbde1d6ac	-0.110272735
67	0xbe257786	-0.16158876
68	0xbd67839d	-0.056522
69	0x3d408e11	0.047010485
70	0x3d500c1f	0.05079281
71	0x3da5c15a	0.080935195
72	0x3e846e9e	0.25865644
73	0xbe0aa0cc	-0.13537902
74	0xbe99590d	-0.29950753
75	0x3ec3d21b	0.38246235
76	0xbde69a39	-0.112598844
77	0xbe96d2cc	-0.294577
78	0x3e3d109a	0.18463364
79	0xbdb15b58	-0.086600006
80	0xbe573b3c	-0.2101869
81	0xbd781a98	-0.060572237
82	0xbe2298ab	-0.1587855
83	0xbe42282f	-0.18960641
84	0xbd98b35c	-0.07456085
85	0xbda7c733	-0.08192291
86	0xbdccc1ec	-0.09997925
87	0x3e1992b2	0.14997366
88	0x3e221c5e	0.15831134
89	0x3e362a84	0.17789656
90	0x3e143686	0.14473924
91	0x3e2f5769	0.17123188
92	0x3dde71f3	0.10861578
93	0x3db85676	0.09000866
94	0x3d4ac149	0.049500737
95	0x3d372f8c	0.04472308
96	0xbe38c324	-0.1804319
97	0xbe220983	-0.15823941
98	0xbe0eb7fa	-0.13937369
99	0xbe292508	-0.16518033
100	0xbe511ecd	-0.20421906
101	0xbd3dcd6f	-0.046338495
102	0xbe49b9e8	-0.19699824
103	0xbe282be0	-0.16422987
104	0x3dcf024a	0.101078585
105	0x3d15a64b	0.036535542
106	0xbc10be2e	-0.008834405
107	0xbe0d6950	-0.13809705
108	0x3c3aa06d	0.011390788
109	0x3b196626	0.0023406832
110	0xbe139341	-0.14411642
111	0x3dbe480b	0.09291085
112	0x3d563cf0	0.05230421
113	0xbe50445c	-0.20338577
114	0xbe82192f	-0.2540984
115	0xbef77649	-0.48332432
116	0x3f35bac4	0.70988107
117	0x3e62f353	0.22163133
118	0xbd037087	-0.032089736
119	0xbee34597	-0.4438903
120	0x3e9dad52	0.30796295
121	0x3baf525f	0.0053503956
122	0xbebe506a	-0.37170726
123	0xbeb424cf	-0.35184333
124	0x3d8f9647	0.07011085
125	0x3e67f548	0.22652161
126	0x3ddaf9ee	0.106922016
127	0xbeee698f	-0.4656491
128	0x3e6f799e	0.23386237
129	0x3db7f7b8	0.089827955
130	0xbe0de423	-0.13856559
131	0xbabcc3c7	-0.0014401608
132	0xbdb958b8	-0.09050125
133	0xbd35e2c1	-0.044405703
134	0xbd286233	-0.041109275
135	0xbd72be7f	-0.059263702
136	0x3df16ab2	0.11787929
137	0x3ddf3365	0.108984746
138	0xbd18edfe	-0.037336342
139	0xbe51239d	-0.20423742
140	0xbe664915	-0.22488816
141	0xbd5056fb	-0.0508642
142	0xbe5d5e9b	-0.2161812
143	0xbe6a211a	-0.2286419
144	0xbdfaa077	-0.122376375
145	0xbe5829c7	-0.21109687
146	0xbe3afc59	-0.18260325
147	0xbdd5cf68	-0.1043995
148	0xbe086c64	-0.13322598
149	0xbdc65bc7	-0.09685474
150	0x3df42dea	0.1192282
151	0x3dc8bea5	0.098019876
152	0x3d91005c	0.07080147
153	0xbe98b687	-0.29826757
154	0xbebf494e	-0.37360615
155	0x3ed960d5	0.4245669
156	0xbe87439d	-0.26418772
157	0xbeb1bbbf	-0.3471355
158	0x3f0c1be2	0.54730046
159	0xbce0ace5	-0.027426193
160	0xbe7446e6	-0.2385517
161	0x3e6bc42d	0.23024054

tfeb.1.weight f4 [18]
0	0x3e8de400	0.27713013
1	0x3eb40bbe	0.3516521
2	0x3e360150	0.17773938
3	0x3e88f498	0.2674911
4	0x3e9f7c9a	0.3114975
5	0x3eb32fe5	0.34997478
6	0x3ed95190	0.4244504
7	0x3f2559a0	0.6458988
8	0x3e42ca8b	0.19022577
9	0x3ddf46bf	0.109021656
10	0x3e8576e8	0.2606728
11	0x3ea861ea	0.32887203
12	0x3e788c9c	0.24272388
13	0x3eb1b8cb	0.34711298
14	0x3ea080ba	0.3134821
15	0x3f005aca	0.50138533
16	0x3eb574b0	0.35440588
17	0x3ec7c7fa	0.39019758

tfeb.1.bias f4 [18]
0	0x3d6a738f	0.05723911
1	0x3d6a7388	0.057239085
2	0x3e125c9c	0.1429314
3	0x3e43f406	0.19136056
4	0x3d1f173a	0.03884051
5	0xbcf0a97e	-0.029377695
6	0xbdee5699	-0.11637611
7	0xbe873970	-0.2641101
8	0x3e843f22	0.25829417
9	0x3ea9d3c3	0.33169374
10	0x3df15671	0.117840655
11	0x3d86efef	0.065887325
12	0x3c94bf3d	0.018157596
13	0xbd795675	-0.060873467
14	0xbd9c07e4	-0.076186925
15	0xbe5c0287	-0.21485339
16	0xbd91b54a	-0.07114656
17	0xbd21d0d7	-0.039505806

tfeb.1.running_mean f4 [18]
0	0xbdbeb169	-0.09311182
1	0xbe87fc59	-0.26559713
2	0x3d0faa06	0.035074256
3	0xbe02a049	-0.12756456
4	0xbe339e06	-0.1754075
5	0xbea4641c	-0.32107627
6	0xbe8aa8e4	-0.27081978
7	0xbf1086b2	-0.5645553
8	0xbe45a8d1	-0.1930268
9	0xbdf1a4bc	-0.11798999
10	0x3db184c8	0.08667904
11	0xbef9f240	-0.48817635
12	0xbe0a50a1	-0.1350732
13	0xbe67a466	-0.22621307
14	0xbe5ef8db	-0.21774618
15	0xbefda0fe	-0.4953689
16	0xbeb54d3b	-0.35410485
17	0xbe5eb562	-0.2174888

tfeb.1.running_var f4 [18]
0	0x3d9474d4	0.07248846
1	0x3e17f78d	0.14840527
2	0x3d9b6241	0.075871
3	0x3e21f1ce	0.15814897
4	0x3e0f221f	0.1397786
5	0x3e2c6f33	0.16839294
6	0x3e1edee7	0.15514718
7	0x3ee7968e	0.45232052
8	0x3dea20ed	0.11432061
9	0x3dc12b29	0.0943206
10	0x3dad36ce	0.08457719
11	0x3e94e46e	0.29080528
12	0x3d6a9e29	0.05727974
13	0x3dc914e9	0.098184414
14	0x3d98f9fe	0.07469557
15	0x3ead2d01	0.33823398
16	0x3e558510	0.2085154
17	0x3e34c1da	0.17652074

tfeb.4.weight f4 [32, 18, 3, 3]
0	0x3d479c0a	0.048732795
1	0x3d4e0593	0.050298285
2	0x3b055404	0.0020344267
3	0x3d69a922	0.057046063
4	0x3d41ca53	0.047312092
5	0xb8981de4	-7.2534924e-05
6	0x3cfdef75	0.030997971
7	0x3cdbb463	0.026819414
8	0x39a51d17	0.00031492926
9	0x3c9a0647	0.018801821
10	0xba1506cb	-0.0005684911
11	0xbca6fc83	-0.020384079
12	0xbc755519	-0.014973902
13	0xba1b6530	-0.0005927859
14	0xb98ceacc	-0.00026877818
15	0xbd280dee	-0.04102891
16	0xbc82d8b3	-0.01597247
17	0xba61c3e5	-0.00086122594
18	0x3ceba035	0.028762916
19	0x3d9434a8	0.07236606
20	0xbc95921a	-0.018258143
21	0x3d758384	0.059939876
22	0x3db91e9a	0.0903904
23	0x3ced381e	0.028957423
24	0x3cb06724	0.021533556
25	0x3d15d613	0.03658111
26	0x3aa97b03	0.0012930337
27	0x3add94ac	0.001690527
28	0x3ae8ba8a	0.0017755788
29	0xbdad8151	-0.08471931
30	0xbda32f02	-0.079679504
31	0xbd556373	-0.052096795
32	0xbd9b894f	-0.07594549
33	0xbd37034c	-0.04468088
34	0xbb71324d	-0.0036803663
35	0xbd2613dc	-0.040546283
36	0x3d15a3de	0.03653323
37	0x3d379566	0.04482021
38	0xbda08d79	-0.07839484
39	0x3c890edd	0.01673072
40	0x3d3f6c92	0.0467344
41	0xbcb94295	-0.022614757
42	0xbbb7d979	-0.0056106416
43	0x3ccd219a	0.025040437
44	0xbcc383cd	-0.023866558
45	0xbd28b722	-0.041190274
46	0xbd0b11c6	-0.033952497
47	0xbcef1670	-0.029185504
48	0xba9e6877	-0.0012085576
49	0xbac3f091	-0.0014949014
50	0xbcc09d58	-0.023512527
51	0x3ce15300	0.027505398
52	0x3d10ac99	0.035320852
53	0x3a9a4944	0.0011771102
54	0x3cdd249f	0.026995001
55	0xba380767	-0.0007020146
56	0xbcc5857f	-0.024111507
57	0x39231467	0.00015552492
58	0xbacc07c1	-0.0015566276
59	0xbc8f9ec1	-0.017531754
60	0xbc69b256	-0.01426371
61	0xbaadd113	-0.0013261162
62	0xbc951000	-0.018196106
63	0xbd2e7d0f	-0.042599734
64	0xbd098834	-0.03357716
65	0x3a36d98d	0.00069751666
66	0xbd8e3868	-0.069443524
67	0xbd4e303e	-0.050338976
68	0x3ac2b2a4	0.0014854264
69	0xbd0755e3	-0.033040892
70	0x3aa42d6c	0.0012525744
71	0x3ceafa34	0.02868376
72	0xbca338e8	-0.019924596
73	0x3c987c1a	0.018613864
74	0x3d0e5a3a	0.034754016
75	0xbd1b9d21	-0.037991647
76	0xbb4f694c	-0.0031648455
77	0x3c5a10cd	0.01330967
78	0xbd037b77	-0.032100167
79	0xbb55f8af	-0.0032649448
80	0x3c819dac	0.015822254
81	0x3d3a0106	0.045411132
82	0x3d7117c2	0.058860548
83	0x3ca36561	0.019945802
84	0xbd227aa8	-0.039667755
85	0xbcac707f	-0.021049736
86	0x3b258c7f	0.0025260744
87	0xbd36e2ad	-0.04464977
88	0xbc8bd256	-0.01706807
89	0x3c9a8759	0.018863367
90	0x3c1d3f40	0.0095975995
91	0xbcad7143	-0.021172171
92	0xbd9ab73e	-0.07554482
93	0x3d82068a	0.063489035
94	0x3d421362	0.047381766
95	0xbd273547	-0.040822294
96	0x3d9047d6	0.070449516
97	0x3d556bf3	0.0521049
98	0xbcd71711	-0.026256116
99	0xbd934132	-0.071901694
100	0xbd561cd4	-0.052273586
101	0x3cdb34ad	0.026758516
102	0xbdc1222a	-0.094303444
103	0xbd86a58c	-0.06574544
104	0x3b0caee8	0.0021466557
105	0xbcf84a73	-0.030308938
106	0xbc741d25	-0.014899527
107	0x3d0340d9	0.032044265
108	0x3ccabae4	0.02474732
109	0xba8c5767	-0.00107072
110	0x3af76087	0.0018873372
111	0x3c9ad07d	0.018898243
112	0xba827e44	-0.0009955843
113	0xbceff640	-0.029292226
114	0xbcadc344	-0.021211274
115	0xbb5ca873	-0.003366974
116	0x3caa47d3	0.020786202
117	0x3d07942c	0.033100292
118	0x3d409f6d	0.04702704
119	0x3ca240f8	0.01980637
120	0x3b1b0e1d	0.0023659535
121	0x3ad96710	0.0016586501
122	0xbcd70bd4	-0.026250757
123	0x3ca2efcb	0.019889733
124	0xb9e1c2bb	-0.0004306043
125	0xbacbd095	-0.0015549833
126	0x3ae4b4a6	0.0017448857
127	0x3ab01d7c	0.0013436521
128	0x3a981f11	0.0011605938
129	0xbc8bca5f	-0.017064271
130	0x3a58e9eb	0.00082746026
131	0x3a0ebc63	0.0005444942
132	0x3a31fb0d	0.00067894236
133	0x3cae4485	0.021272907
134	0x3ca49f92	0.02009562
135	0xbd85450c	-0.0650731
136	0xbd562b41	-0.052287344
137	0xbce5e9c2	-0.028065566
138	0xbcbd85f3	-0.023135161
139	0xbca179af	-0.019711344
140	0xbad6d968	-0.0016391696
141	0x3a036b4b	0.00050132413
142	0x3c8d2a2a	0.01723202
143	0xba5f9bea	-0.0008530008
144	0x3b2eb5f5	0.0026658748
145	0x3b0447a3	0.00201843
146	0x3c907cc4	0.017637618
147	0xbd816aae	-0.06319176
148	0xbd3d69c3	-0.04624344
149	0x3b0f6fd1	0.0021886716
150	0xbd553d2b	-0.052060287
151	0xbd0bd348	-0.03413704
152	0x3a5a4939	0.0008326951
153	0x3ca7a86d	0.020466054
154	0xbda08ad2	-0.07838978
155	0xbda1abae	-0.078940734
156	0xbd0b8c7a	-0.034069516
157	0xbda7d6e8	-0.08195287
158	0xbd792897	-0.060829725
159	0xbbac8b08	-0.0052655973
160	0xbd44b20d	-0.048021365
161	0xbd31c7fe	-0.043403618
162	0x390a7a4e	0.00013206268
163	0xbcae97f3	-0.02131269
164	0x3ae8282d	0.0017712169
165	0xbab27912	-0.0013616404
166	0xbd75f97a	-0.060052373
167	0xbd44f4ca	-0.04808501
168	0x3d222cea	0.039593615
169	0xbd99340e	-0.07480632
170	0xb92f2337	-0.00016702419
171	0x3d5fbd39	0.054623816
172	0x3d754dae	0.059888534
173	0x3cea54ac	0.028604828
174	0x3b09a6ec	0.0021004034
175	0xbc2fcfc7	-0.01073069
176	0x3a7c1cb6	0.00096173154
177	0xbd200880	-0.039070606
178	0x3a90ef2b	0.0011057606
179	0xbd2623c0	-0.040561438
180	0xbacfdeff	-0.0015859305
181	0x3d69b36c	0.057055876
182	0x3d9b5382	0.07584287
183	0xbd06bf68	-0.032897383
184	0xbb158ea4	-0.0022820616
185	0xb7a4c3f5	-1.9641573e-05
186	0xbd31a5fb	-0.043371182
187	0xbdbc63ec	-0.09198746
188	0xbc9f9120	-0.01947838
189	0x3dc4c1aa	0.09607251
190	0x3b70f0b7	0.003676457
191	0xba4ff096	-0.00079322734
192	0x3d0cc157	0.03436407
193	0xbd0a75cc	-0.033803746
194	0x3d19537d	0.037433136
195	0xbe077519	-0.13228263
196	0xbcbf2e78	-0.023337588
197	0xba5d342b	-0.00084382546
198	0xbceb7d25	-0.028746197
199	0xbcbc1343	-0.022958403
200	0xbad99368	-0.0016599717
201	0xbad6a553	-0.0016376175
202	0xbd0296e0	-0.031882167
203	0xbb8c6ced	-0.004285446
204	0xbd5b49ed	-0.053537298
205	0xbdb40398	-0.08789748
206	0x3c8b9ee8	0.017043546
207	0x3a36e53d	0.0006976908
208	0xbcf653d9	-0.030069279
209	0x3a8c708e	0.0010714696
210	0xbadb16f9	-0.001671522
211	0x3d1e744b	0.038685124
212	0xbd418c4b	-0.047252934
213	0x3b5d5b56	0.0033776364
214	0xbcb649dc	-0.022252016
215	0x3d60f6b5	0.05492278
216	0x39f5199e	0.00046749128
217	0xb88781f2	-6.461506e-05
218	0x3aa9e11c	0.0012960765
219	0xbd04a591	-0.03238446
220	0xbcd0aaca	-0.025472064
221	0x3a474866	0.0007602036
222	0x3d160306	0.036623977
223	0xbcdbf319	-0.026849316
224	0xbc78dcfe	-0.015189407
225	0x3d725350	0.059161484
226	0x3d77732c	0.06041257
227	0x3a481f4d	0.0007634059
228	0xbd2a08bc	-0.041512236
229	0xbd44e27c	-0.048067555
230	0xbcdd6ae8	-0.027028516
231	0x3d969cd1	0.07354129
232	0x3dd32b5b	0.10311004
233	0x3ae45def	0.0017423014
234	0xbc682594	-0.014169116
235	0xbaab2866	-0.0013058304
236	0x3d0d0c48	0.03443554
237	0x3999aee4	0.00029312738
238	0xbae2aed9	-0.001729454
239	0xba138163	-0.0005626885
240	0x3d3ddef6	0.04635521
241	0xbaaf39c2	-0.0013368654
242	0x3cca87e3	0.024722999
243	0xbd45f2ef	-0.048327383
244	0xbcdf7751	-0.027278574
245	0xbd4080dc	-0.04699789
246	0xbd74c01b	-0.05975352
247	0xbd9eac48	-0.07747704
248	0xbceb6c6d	-0.028738225
249	0xb9c70f00	-0.00037967414
250	0xb7cc2ed1	-2.4340496e-05
251	0xbd3f3bc1	-0.046687845
252	0x3cbc3ac5	0.022977242
253	0x3c84c462	0.016206924
254	0x3d028c2f	0.03187197
255	0xbce08b92	-0.027410302

tfeb.5.weight f4 [32]
0	0x3e13ef80	0.14446831
1	0x3ea331e8	0.31874013
2	0x3ea3e7f2	0.32012898
3	0x3e9160cd	0.28394166
4	0x3f03b856	0.5145315
5	0x3eb2e6dc	0.34941757
6	0x3e13e688	0.1444341
7	0x3e691abe	0.22764108
8	0x3e188bd1	0.14897086
9	0x3eaedaf5	0.34151426
10	0x3ed47874	0.41498148
11	0x3edbf362	0.42959124
12	0x3e928416	0.286164
13	0x3ed6d2ac	0.41957605
14	0x3e5b78a1	0.21432735
15	0x3eb2bc96	0.34909505
16	0x3ef9c171	0.48780397
17	0x3e617989	0.22019018
18	0x3e46228d	0.19349118
19	0x3f0488a9	0.51771027
20	0x3ecf1149	0.40442875
21	0x3e164b7d	0.14677234
22	0x3e4139a8	0.1886965
23	0x3ebf17df	0.373229
24	0x3eaeccd5	0.3414065
25	0x3e6ea573	0.23305301
26	0x3e294157	0.16528831
27	0x3e601638	0.21883476
28	0x3f09243b	0.5357091
29	0x3e5b7153	0.21429949
30	0x3e58b295	0.21161874
31	0x3ec6db3a	0.38839132

tfeb.5.bias f4 [32]
0	0x3e189f80	0.14904594
1	0xbdd579fc	-0.10423657
2	0xbce3af0b	-0.027793428
3	0xbbda21f8	-0.0066568814
4	0xbe2325f3	-0.15932445
5	0xbe0e245f	-0.13881062
6	0x3db6fc0c	0.08934793
7	0x3bf02b38	0.007329371
8	0xbb8dc521	-0.004326478
9	0x3cc77b44	0.02435077
10	0xbe2b80d9	-0.1674837
11	0xbe1b9574	-0.1519373
12	0xbd74a9a0	-0.05973208
13	0xbe3583b8	-0.17726028
14	0x3d53b866	0.051689528
15	0xbdc72c65	-0.097252645
16	0xbd84c5ab	-0.06483015
17	0x3d0c4337	0.03424379
18	0x3d7836ae	0.06059902
19	0xbe3ec740	-0.18630695
20	0xbdcc3f4c	-0.099730104
21	0x3e210cd0	0.15727544
22	0x3d9628fe	0.073320374
23	0xbdfa4d2f	-0.12221753
24	0xbde6d0d6	-0.11270301
25	0xbc5e29d9	-0.013559782
26	0x3d3f0ce2	0.046643145
27	0xbbd8323c	-0.0065977853
28	0xbea896c1	-0.32927516
29	0x3d970b60	0.073752165
30	0x3d5764a5	0.052586216
31	0xbd19a8c1	-0.037514452

tfeb.5.running_mean f4 [32]
0	0xbdf0f688	-0.11765772
1	0xbe354952	-0.1770375
2	0xbe7b3149	-0.2453052
3	0xbe3c3897	-0.18380962
4	0xbe900aa4	-0.28133118
5	0xbd7e0099	-0.06201229
6	0xbe41e102	-0.1893349
7	0xbe4ba79c	-0.19888157
8	0xbe5635e4	-0.20918995
9	0xbeaac9d6	-0.33357114
10	0xbe31ce85	-0.17363937
11	0xbe74af92	-0.238951
12	0xbe4f18d0	-0.20224309
13	0xbe71ca76	-0.23612389
14	0xbe4742eb	-0.19459121
15	0xbe8dbb3b	-0.27681908
16	0xbea3ed35	-0.32016912
17	0xbe876d15	-0.2645041
18	0xbe24185f	-0.16024922
19	0xbe45860f	-0.1928942
20	0xbeb97f12	-0.3622976
21	0xbe4337b8	-0.19064224
22	0xbd2c001c	-0.04199229
23	0xbe8be793	-0.27325115
24	0xbe049b76	-0.12949929
25	0xbd4d95c7	-0.050191667
26	0xbd0774d9	-0.03307042
27	0xbe3232f0	-0.17402244
28	0xbe77ac5f	-0.24186848
29	0xbe64e7eb	-0.22354095
30	0xbd47178a	-0.048606433
31	0xbea35987	-0.3190424

tfeb.5.running_var f4 [32]
0	0x3d109da6	0.035306595
1	0x3cd6e077	0.02623008
2	0x3d13ef6b	0.036117
3	0x3d136e6e	0.035993986
4	0x3d321683	0.0434785
5	0x3c954593	0.018221652
6	0x3c954d2a	0.018225271
7	0x3c97802b	0.018493732
8	0x3ce28a81	0.027653934
9	0x3d55ac50	0.052166283
10	0x3d51d0a7	0.051224377
11	0x3d2575a2	0.040395387
12	0x3cf7162c	0.03016194
13	0x3d467d3b	0.048459273
14	0x3cd21fba	0.025649894
15	0x3d02b82d	0.031913925
16	0x3d60d9bb	0.054895144
17	0x3d12c836	0.035835467
18	0x3d0f9faf	0.035064396
19	0x3d18bf1b	0.037291627
20	0x3d5e8254	0.05432351
21	0x3c98ccc5	0.01865233
22	0x3cb0a62e	0.021563616
23	0x3d41e992	0.04734189
24	0x3c2e1758	0.010625683
25	0x3cb66f21	0.022269787
26	0x3c4bca84	0.01243842
27	0x3c84a115	0.016190091
28	0x3d5dea90	0.054178774
29	0x3ca23960	0.01980275
30	0x3ca906f9	0.020633208
31	0x3d6342d6	0.05548366

tfeb.7.weight f4 [38, 32, 3, 3]
0	0x3d937f39	0.07202
1	0xb920dad0	-0.00015340303
2	0xbcfc4cff	-0.030798433
3	0x3d9bbef3	0.0760478
4	0x3c92a7ec	0.017902337
5	0xbc9d265c	-0.01918333
6	0xbd467e84	-0.0484605
7	0xbd6608c8	-0.05616072
8	0xbd4c2a8d	-0.049845267
9	0xbc95f22f	-0.018303959
10	0xbd05792b	-0.032586258
11	0x3ca733b6	0.0204104
12	0x3cefe907	0.02928592
13	0x3ca0dce6	0.019636583
14	0xbb6d1fd9	-0.0036182313
15	0xba607674	-0.0008562573
16	0xb8fa2b5d	-0.00011929006
17	0xba7bb65f	-0.00096020655
18	0x3cf9b746	0.0304829
19	0x3a9cbac2	0.0011957514
20	0x3903e645	0.00012578916
21	0xbcc27cc2	-0.02374113
22	0xbd70496b	-0.058663767
23	0xbd4a3bf7	-0.049373593
24	0x3cba9a5c	0.022778682
25	0x3cbf19d5	0.023327747
26	0x3d0ed36c	0.034869596
27	0x3c1fe5f2	0.009759413
28	0x3cebb1d8	0.028771326
29	0x3b97cf33	0.0046328544
30	0xbc9b42d6	-0.018952768
31	0xbce6e0c3	-0.028183347
32	0xbcf91f28	-0.030410364
33	0x3d4432e0	0.04790008
34	0x3a01c535	0.00049503456
35	0x39c71e90	0.0003797901
36	0xbd21c02e	-0.039489917
37	0xbaf0a8f3	-0.0018360898
38	0x3ca62608	0.020281807
39	0xbd1cf378	-0.038318127
40	0xbd398537	-0.04529306
41	0xb9a55ea2	-0.0003154176
42	0xba47a703	-0.0007616134
43	0xb917e39f	-0.00014485278
44	0x3d3e6d5d	0.046491016
45	0xbc811c58	-0.015760586
46	0xbce2732c	-0.027642809
47	0x3cafaad1	0.021443756
48	0xbd324318	-0.043521017
49	0xbd325cc4	-0.0435455
50	0xbae1e2eb	-0.0017233765
51	0x3d3a6b8a	0.045512713
52	0xbb0bffe8	-0.0021362249
53	0x3c742280	0.014900804
54	0xbb1f4278	-0.0024301093
55	0xbb6ddcd3	-0.0036294952
56	0xbb73b6f3	-0.0037187904
57	0xb9969d17	-0.0002872727
58	0xbc94a15c	-0.018143348
59	0xba86b7a6	-0.001027812
60	0xbccda624	-0.025103636
61	0xbcd3d724	-0.025859423
62	0xbb4e1df0	-0.003145095
63	0xbb0431a5	-0.0020171192
64	0xbd17aa20	-0.03702748
65	0xbc99798d	-0.018734718
66	0xbcbbb81e	-0.022914942
67	0xbd86734d	-0.06564961
68	0xbd958a19	-0.07301731
69	0x3d32e42b	0.04367463
70	0x3d2548c6	0.040352605
71	0x3dba6dd5	0.0910298
72	0x3d8317c7	0.064010195
73	0x3d118768	0.035529524
74	0xbc9cfd6a	-0.019163806
75	0xbd065884	-0.03279926
76	0xbd22b1f0	-0.039720476
77	0xbcd8e1c9	-0.02647485
78	0x3dc5065d	0.09620354
79	0x3d286df0	0.04112047
80	0xbd0b51bf	-0.034013506
81	0xbd3984d6	-0.045292698
82	0xbcdf3289	-0.027245777
83	0xbcb27bf8	-0.021787629
84	0x3b5faa47	0.0034128593
85	0x3b058138	0.002037121
86	0x3a26ae14	0.0006358337
87	0xba24768f	-0.000627377
88	0x3a874717	0.0010320869
89	0xbd2cbac0	-0.042170286
90	0xbd09630a	-0.033541717
91	0xbc86b05d	-0.016441518
92	0xbcbc1027	-0.02295692
93	0x3c91988d	0.017772937
94	0x3caec2c5	0.021333108
95	0x3ced4e78	0.02896808
96	0xbd162e8b	-0.03666548
97	0xbd1d070e	-0.038336806
98	0xbcb692e3	-0.022286838
99	0xbcecaedb	-0.028891971
100	0x3b494994	0.0030714022
101	0xbc982a59	-0.01857488
102	0x3a0d3a9b	0.0005387456
103	0xbd5554a7	-0.052082684
104	0xbd369a43	-0.04458071
105	0x3d8dc354	0.069220215
106	0x3d71f21c	0.059068784
107	0x3d05ca7d	0.03266381
108	0x3c7bff11	0.015380637
109	0xbc9a0d23	-0.018805092
110	0xba32ecaa	-0.0006825427
111	0xbb1e7ec1	-0.0024184438
112	0xbd356180	-0.044282436
113	0xbd603016	-0.05473336
114	0x3d30a71e	0.043128125
115	0x3ccb8eb1	0.024848314
116	0x3d1c0bc2	0.03809715
117	0x3a2107dc	0.0006142834
118	0xbc7fd9ca	-0.01561589
119	0x3c9114fc	0.017710201
120	0x3affb582	0.001950905
121	0x3ac20114	0.0014801347
122	0x3ad317d1	0.001610512
123	0x3d224687	0.03961804
124	0xb9e3533f	-0.00043358837
125	0x3ca8bb8e	0.020597246
126	0x3d14b708	0.036307365
127	0x3606e2e4	2.0099624e-06
128	0xba28aa79	-0.0006434094
129	0xb965f64b	-0.00021930893
130	0xbd3ce32f	-0.046115097
131	0xbd7ad72c	-0.06124036
132	0x3d04b782	0.03240157
133	0xba5519a6	-0.0008129127
134	0x3d6b54e0	0.05745399
135	0x3d0979ca	0.033563413
136	0x3c85f5db	0.016352585
137	0x3a7368d3	0.00092853344
138	0xba1c5c48	-0.0005964679
139	0xbd28803a	-0.04113791
140	0xbcc21234	-0.02369032
141	0xbcaa2f33	-0.02077446
142	0xb905b5fa	-0.0001275166
143	0x3a581ee6	0.00082443503
144	0x3af27c1e	0.0018500125
145	0x3d18efc1	0.037338022
146	0xb897fd6c	-7.2474446e-05
147	0x3b4028fd	0.0029321306
148	0xb85ab7a1	-5.2146268e-05
149	0xbaa64abc	-0.0012687068
150	0xbd309147	-0.043107297
151	0xb9d7e405	-0.00041177883
152	0xbce53cf9	-0.027983176
153	0x3b804841	0.0039148633
154	0xbcfdece2	-0.030996744
155	0xbcdf39bb	-0.027249208
156	0x3daa7b8f	0.08324348
157	0xb9f09582	-0.0004588776
158	0xbcdb1772	-0.026744578
159	0xbd17ffed	-0.037109304
160	0xbd404cb4	-0.04694815
161	0xbd62dbe9	-0.055385504
162	0x3ca8cee4	0.020606466
163	0x3d04b7b1	0.032401744
164	0x3d99280c	0.074783415
165	0xbd34966a	-0.04408876
166	0xbcd3e6d2	-0.0258669
167	0x3d519184	0.051164165
168	0xbd71fbd6	-0.05907806
169	0xbd4467e1	-0.04795063
170	0x3c8ed769	0.0174367
171	0xbce088e2	-0.02740902
172	0xbb17c9e5	-0.002316111
173	0x3cae2509	0.021257894
174	0xbad5b743	-0.0016305227
175	0xbd07f42c	-0.033191845
176	0xbc8b58df	-0.01701015
177	0xb8764397	-5.871392e-05
178	0xbc90183f	-0.017589686
179	0x3d06fd2a	0.03295628
180	0xb9f3a2d8	-0.000464699
181	0xbaa074f2	-0.0012241884
182	0xbb02866b	-0.0019916545
183	0xbb00387e	-0.0019564922
184	0xbcab1ab7	-0.020886762
185	0xba2193da	-0.0006163694
186	0x3d311db0	0.043241203
187	0x39d2ff8f	0.00040244727
188	0x3cc7a152	0.024368916
189	0x3ca75d08	0.020430103
190	0xbd0f9207	-0.035051372
191	0xbd5a393f	-0.05327725
192	0xbcaa3074	-0.020775057
193	0xbd3760cc	-0.044770047
194	0xbcba1421	-0.022714676
195	0xbbc931af	-0.006139956
196	0xba5d040e	-0.0008431085
197	0xba17e0c2	-0.00057936844
198	0x3d2c206a	0.0420231
199	0x3bff65eb	0.007794132
200	0xbc44315d	-0.01197466
201	0x3db35ebd	0.08758304
202	0x3b8c5ec9	0.00428376
203	0x3b444377	0.0029947439
204	0xbd370b35	-0.044688422
205	0xbd8781c2	-0.06616546
206	0xbd836fa6	-0.064177796
207	0xbd643f48	-0.055724412
208	0xbcdc18f8	-0.026867375
209	0xbb4eb748	-0.003154235
210	0x3d6b937b	0.057513695
211	0xbaf7ec60	-0.001891505
212	0xbb14e6a6	-0.0022720485
213	0xbd0fb986	-0.03508904
214	0xbcdc5a7d	-0.026898617
215	0x3cc54eca	0.024085421
216	0xbcb84347	-0.022493018
217	0x3ccb00e0	0.02478069
218	0xbb7378a1	-0.0037150758
219	0xbcf60619	-0.030032204
220	0xbd6e7aed	-0.0582227
221	0xba18db3d	-0.0005831009
222	0xbb2927f6	-0.0025811172
223	0x3cd92125	0.026505062
224	0xba48cd7d	-0.00076600147
225	0x3981a775	0.00024729563
226	0xbce59c05	-0.028028497
227	0x39e64673	0.00043921507
228	0x3d585d57	0.05282339
229	0x3cfd90da	0.03095286
230	0xba0d9be4	-0.00054019527
231	0xbd5c41c2	-0.05377365
232	0xbcbe8974	-0.023258902
233	0xbd36a202	-0.044588096
234	0xba78413b	-0.00094701693
235	0x39bbfdfd	0.00035856655
236	0xba452a3b	-0.00075212464
237	0x3d7f8e8d	0.062391806
238	0xba6ceb77	-0.00090377725
239	0x3cbb247b	0.022844544
240	0xbdab64b9	-0.08368821
241	0xbd2146de	-0.039374225
242	0xbcf7ec84	-0.030264147
243	0xbb5a77de	-0.0033335607
244	0xba8c2661	-0.001069259
245	0x395040d0	0.0001986057
246	0xbb4a442d	-0.003086339
247	0x3c70aac4	0.014689151
248	0x3d4bbba5	0.0497395
249	0xbd476226	-0.048677586
250	0xbd601669	-0.054708872
251	0xbd0530a6	-0.032517098
252	0xbb22db80	-0.002485007
253	0xbb2a122d	-0.0025950775
254	0x3d16d359	0.03682265
255	0xbdcf3256	-0.10117023

tfeb.8.weight f4 [38]
0	0x3e5444d9	0.20729388
1	0x3e832d75	0.25620618
2	0x3e40c8f2	0.18826655
3	0x3e469a7a	0.19394866
4	0x3e6b00f9	0.2294959
5	0x3e7465e8	0.23866999
6	0x3e91d3d6	0.2848193
7	0x3e389a77	0.18027674
8	0x3e8df753	0.27727756
9	0x3e6dc20b	0.23218553
10	0x3e0655f9	0.13118733
11	0x3e999eba	0.3000391
12	0x3e8edc75	0.2790257
13	0x3e7d91d9	0.24762668
14	0x3e8cd668	0.2750733
15	0x3e71fa20	0.23630571
16	0x3e8f86b9	0.28032473
17	0x3e3630bd	0.1779203
18	0x3e6379ab	0.22214381
19	0x3e57ed06	0.21086511
20	0x3e8aa0f3	0.2707592
21	0x3eb20089	0.34766033
22	0x3e9a1cbd	0.3010005
23	0x3e704773	0.23464756
24	0x3e799b7d	0.2437572
25	0x3e9cbb66	0.30611724
26	0x3e24f4d7	0.16109024
27	0x3e786c2a	0.24260011
28	0x3e7a3165	0.24432905
29	0x3e4ae5b2	0.19814184
30	0x3e760f02	0.24029163
31	0x3e778450	0.24171567
32	0x3e93b71b	0.28850636
33	0x3eb315ed	0.34977666
34	0x3e914913	0.28376064
35	0x3e7f5d3b	0.24937908
36	0x3e70b326	0.2350584
37	0x3e3c7f15	0.18407853

tfeb.8.bias f4 [38]
0	0x3cee4f83	0.029090649
1	0xbdb838d0	-0.08995211
2	0x3e513aad	0.2043254
3	0x3e11811a	0.14209405
4	0x3c9f0442	0.01941121
5	0xbde694f6	-0.11258881
6	0xbe20570c	-0.15658206
7	0x3c4e26fd	0.012582538
8	0x3dae0f10	0.08498967
9	0xbda06d48	-0.07833344
10	0x3d564427	0.05231109
11	0xbe35019f	-0.176764
12	0xbe9a8133	-0.30176696
13	0xbda8294d	-0.082110025
14	0xbe0e0132	-0.13867643
15	0xbd861f0d	-0.06548891
16	0xbe08c486	-0.13356218
17	0xbb0501ee	-0.002029534
18	0xbd11c32c	-0.03558652
19	0x3c5c7588	0.013455756
20	0xbdc1aad2	-0.094564095
21	0xbe65dabe	-0.22446725
22	0xbe268468	-0.16261446
23	0xbd99f4a4	-0.075173646
24	0x3db2ebe7	0.08736401
25	0xbe07d9d4	-0.13266689
26	0x3d8ac6b9	0.067761846
27	0xbccc8880	-0.024967432
28	0xbd0646a8	-0.032782227
29	0x3c66ba6e	0.014082534
30	0xbd18e383	-0.037326347
31	0xbd6cc784	-0.05780746
32	0xbe1d0997	-0.1533569
33	0xbe2d428d	-0.16919918
34	0xbe006759	-0.12539424
35	0xbdc012cf	-0.093785875
36	0xbd9d983d	-0.07695053
37	0x3d1e2e7b	0.038618546

tfeb.8.running_mean f4 [38]
0	0xbdd4e610	-0.103954434
1	0xbd2675fe	-0.04063987
2	0xbe25fd90	-0.16210008
3	0x3dfbd52e	0.1229652
4	0xbe016095	-0.126345
5	0xbe2d0886	-0.16897783
6	0xbdc86c4a	-0.097862795
7	0xbda1da34	-0.07902947
8	0xbd7001e9	-0.05859557
9	0xbcfd5ce0	-0.030928075
10	0xbdb76ed2	-0.08956684
11	0xbddbbc2b	-0.107292496
12	0x3daeaecb	0.08529433
13	0xbe093c0e	-0.13401815
14	0xbd9adbd0	-0.07561457
15	0xbcc12cd2	-0.023580942
16	0xbdb6b979	-0.08922095
17	0xbd75ed5e	-0.060040824
18	0xbd451fb0	-0.048125923
19	0xbd4b1f59	-0.049590442
20	0xbd5bafc2	-0.053634413
21	0xbe439978	-0.19101512
22	0xbdcc2658	-0.09968251
23	0xbe14617d	-0.14490314
24	0xbc823033	-0.015892124
25	0xbcb474c2	-0.02202833
26	0x3d012e68	0.031538397
27	0xbdf84746	-0.12122969
28	0xbcfb3055	-0.030662695
29	0xbe16c9de	-0.14725444
30	0xbcaff41a	-0.021478701
31	0xbd3c294c	-0.04593782
32	0xbdac7005	-0.084198035
33	0xbdc0bda0	-0.09411168
34	0xbe2026b6	-0.15639767
35	0xbda4a59d	-0.08039401
36	0xbda3f5ec	-0.0800589
37	0x3d39a022	0.04531873

tfeb.8.running_var f4 [38]
0	0x3c397361	0.011319012
1	0x3c54d1c3	0.012989464
2	0x3ca6dd48	0.020369187
3	0x3d050d21	0.032483224
4	0x3c77ea5d	0.01513156
5	0x3c96789a	0.018368054
6	0x3c0f2198	0.008736037
7	0x3c3473da	0.011013949
8	0x3c741abf	0.014898955
9	0x3c37a37f	0.011208414
10	0x3c5c18a7	0.013433612
11	0x3c6d6d56	0.0144914
12	0x3c554f71	0.013019429
13	0x3ca48d69	0.02008696
14	0x3c7b0de5	0.015323137
15	0x3c37d106	0.011219269
16	0x3c3fdec5	0.011710827
17	0x3be17e73	0.006881529
18	0x3c2e1660	0.010625452
19	0x3c8f64e9	0.017504172
20	0x3ca327e0	0.019916475
21	0x3cd77cfc	0.026304714
22	0x3c9f87d3	0.019473946
23	0x3cb91963	0.022595113
24	0x3c4cb832	0.012495087
25	0x3c4b7829	0.012418785
26	0x3bd6d815	0.0065565207
27	0x3bf3a64b	0.007435595
28	0x3c535f72	0.012901174
29	0x3c98e667	0.018664552
30	0x3bd2bf53	0.006431499
31	0x3c8b0e93	0.016974723
32	0x3c1b4afb	0.009478326
33	0x3c88f3d2	0.016717825
34	0x3ccc3d45	0.02493156
35	0x3c2a5e96	0.010398528
36	0x3c3239cc	0.010878038
37	0x3c14f8bc	0.009092506

tfeb.11.weight f4 [39, 38, 3, 3]
0	0xbd43da59	-0.047815654
1	0x3a951786	0.0011374808
2	0x3d11385b	0.035454135
3	0xbd47c6c5	-0.048773546
4	0x3a6d3585	0.00090488076
5	0x3cb42968	0.0219924
6	0xbcb06714	-0.021533526
7	0xbc689239	-0.014195018
8	0x3b226137	0.0024777183
9	0xbd5104a9	-0.051029835
10	0xbd07b3ed	-0.033130575
11	0xbcb43218	-0.021996543
12	0xbd72dc0c	-0.059291884
13	0xbd1c7ccb	-0.03820495
14	0xbd18175c	-0.037131652
15	0x3a316f0d	0.0006768562
16	0x3b0f4fc5	0.0021867615
17	0xbc725d95	-0.0147928195
18	0xbd94f307	-0.07272916
19	0x3a576e68	0.0008218051
20	0x3dc07a6f	0.09398352
21	0xbd864f10	-0.06558049
22	0x37b82690	2.1952466e-05
23	0x3de74d1f	0.112940066
24	0xbd826730	-0.06367338
25	0x3a3bac27	0.00071591366
26	0x3da733b8	0.081641614
27	0xbdca5a6d	-0.098805286
28	0xbcdce0f7	-0.02696274
29	0x3d972546	0.07380156
30	0xbdb38897	-0.08766287
31	0xbce476ee	-0.027888741
32	0x3d9701c4	0.07373384
33	0xbd402a03	-0.046915065
34	0xbcca802b	-0.024719318
35	0x3d517662	0.05113829
36	0xbb086066	-0.002080941
37	0xbb4abc4a	-0.0030934983
38	0x3d750e9a	0.05982838
39	0xbc8dd51f	-0.017313538
40	0xbb53b2cc	-0.0032302616
41	0x3d5c8822	0.053840764
42	0x3aa0e458	0.0012275083
43	0x3ab0a9cc	0.0013478338
44	0x3d3b47b9	0.045722697
45	0xbd12d295	-0.035845358
46	0xbd0fa972	-0.035073705
47	0xba4bcc54	-0.0007774283
48	0xbcdb2017	-0.0267487
49	0xba0b17b1	-0.00053059595
50	0x3c98d565	0.018656442
51	0x3a82483a	0.0009939738
52	0x3a69a205	0.00089123874
53	0x3ca0fa6c	0.01965066
54	0xba84cb09	-0.001013131
55	0x3c849136	0.016182523
56	0x3d2c3461	0.04204214
57	0x3c732eaa	0.014842669
58	0xba0a2c8a	-0.0005270919
59	0x3d0d1a6e	0.034449033
60	0xba3cc635	-0.0007201166
61	0xba8ccdc9	-0.0010742481
62	0x3c9591a8	0.01825793
63	0xb99af97f	-0.00029559058
64	0xbaadfd2b	-0.0013274302
65	0x3cfa633f	0.030564902
66	0xbc8de76a	-0.01732226
67	0xba8ed584	-0.0010897373
68	0x3d5fbe1a	0.054624654
69	0x3af5b77e	0.0018746702
70	0x3aa8b2c1	0.0012870656
71	0x3d720c04	0.05909349
72	0xbd6dda31	-0.05806941
73	0x3ac6f281	0.0015178473
74	0x3d974d0e	0.07387744
75	0xbd82b924	-0.06382969
76	0xba5e3ebe	-0.0008477977
77	0x3daf10b4	0.08548108
78	0xbd1f98f0	-0.038964212
79	0x3a1a1c68	0.00058788667
80	0x3d45d0e7	0.048294928
81	0xbc9d9673	-0.019236779
82	0x39201774	0.00015267526
83	0x3a3777e9	0.0006998764
84	0x3a8af9d9	0.0010603025
85	0xb9bf379f	-0.000364718
86	0xb8e64382	-0.00010979829
87	0x3afec35d	0.0019436885
88	0x3c9cd071	0.019142361
89	0x3a906517	0.0011016455
90	0xbcdde343	-0.027085906
91	0x3a08c6aa	0.00052175915
92	0x3cb1bda2	0.02169687
93	0xbd01f71d	-0.031729806
94	0x38d66295	0.000102226775
95	0x3d1adb07	0.037806537
96	0xbce5082c	-0.027957998
97	0xb870a7ca	-5.7376725e-05
98	0x3cf097f8	0.02936934
99	0x3a843ee2	0.0010089541
100	0xbc9a3a07	-0.018826498
101	0x3d098df8	0.033582658
102	0x3a691ad2	0.0008892241
103	0xbcf41cde	-0.029798921
104	0x3d0918df	0.033470985
105	0xba5c5d28	-0.00084062153
106	0xbca9044e	-0.020631935
107	0x3cc91142	0.024544362
108	0x3cb343e3	0.021882957
109	0xba5adc8b	-0.00083489035
110	0xbcea7b03	-0.02862311
111	0x3d05850d	0.03259759
112	0xbad208a0	-0.0016024299
113	0xbd12557c	-0.035726056
114	0x3cf72f7a	0.030174006
115	0xba4d1a0c	-0.00078240107
116	0xbd464552	-0.048405953
117	0x3c744556	0.014909109
118	0x3cce7359	0.025201486
119	0x3ccf8288	0.025330797
120	0xbb4e6b54	-0.0031497078
121	0xbb423b99	-0.0029637574
122	0xbb4009d9	-0.0029302745
123	0xbb5c77ae	-0.003364067
124	0xbb1b547f	-0.0023701487
125	0xbccf26c9	-0.025287049
126	0x3ca826e4	0.020526357
127	0x37fd72a4	3.0213334e-05
128	0x3d418f4d	0.047255803
129	0x3cc08266	0.023499679
130	0x3a0c5442	0.00053531316
131	0x3d0da6eb	0.034583014
132	0x3c91e2d5	0.017808357
133	0x3ac207bd	0.0014803332
134	0x3caa50c3	0.020790463
135	0x3c6eab8c	0.014567267
136	0xbb0de180	-0.00216493
137	0x3d350a81	0.04419947
138	0xb8f782bb	-0.00011802228
139	0xbabfea7f	-0.0014642029
140	0x3d0b38c3	0.03398968
141	0x3c8ed938	0.017437562
142	0x3c7b7377	0.015347353
143	0x3cfd5061	0.030922117
144	0xb8a8124f	-8.0142745e-05
145	0xba2b359c	-0.0006531121
146	0xba3d837c	-0.00072293705
147	0x39a78133	0.00031948983
148	0xb992542c	-0.00027910003
149	0xba69561b	-0.00089010753
150	0x3a596050	0.0008292245
151	0xbc877bb0	-0.016538471
152	0xba5eded4	-0.0008501832
153	0xbcb9872e	-0.022647467
154	0xbd073f2c	-0.03301923
155	0x3a61a8a4	0.0008608198
156	0x38cc637f	9.7460106e-05
157	0xbcb65513	-0.022257363
158	0x3d0d6a2d	0.034525085
159	0x3a304963	0.00067248027
160	0x3a465461	0.0007565674
161	0x3d20e3ba	0.039279677
162	0xbd36046a	-0.044437803
163	0xbd96eb4c	-0.07369098
164	0x3d344f57	0.044020977
165	0xbcf39325	-0.02973325
166	0xbd5ef060	-0.05442846
167	0x3cfcf1cc	0.030877016
168	0x3adfb48d	0.0017067358
169	0xbcd5db65	-0.026105592
170	0x3cf16ce7	0.029470874
171	0xbca28bb7	-0.019842012
172	0xbc49aad1	-0.012308792
173	0x3b1f5245	0.002431051
174	0xbc5cc3e5	-0.013474439
175	0x3b6936c5	0.0035585624
176	0x3b2f825b	0.0026780579
177	0xbc153cd0	-0.009108737
178	0x3cb60714	0.022220172
179	0x3cb0d255	0.02158467
180	0x3a187770	0.00058161374
181	0x37e7d027	2.7634274e-05
182	0x3ab2967a	0.0013625168
183	0xbca3a079	-0.01997398
184	0x3ab41c17	0.0013741282
185	0x3abdcc53	0.0014480449
186	0x3b3bd135	0.0028658633
187	0x3cb7c525	0.022432873
188	0x3cef6449	0.029222624
189	0x384bdaa7	4.8602607e-05
190	0xba8239ec	-0.0009935475
191	0xbc9242c2	-0.017854098
192	0x39d2437d	0.00040104604
193	0xbabc52e6	-0.0014367967
194	0xbae09453	-0.0017134048
195	0x38f23d71	0.000115509036
196	0xbb04d15a	-0.0020266385
197	0xbb155fd1	-0.0022792707
198	0x3d0e6cdf	0.034771796
199	0x3c8df8d0	0.017330557
200	0xbac9db11	-0.001540037
201	0x3c5a6dc9	0.013331839
202	0x3c846b5f	0.01616448
203	0x3ca3ebc3	0.02000988
204	0xbb165c3f	-0.0022943167
205	0xbb4675b8	-0.0030282568
206	0x3c90840c	0.01764109
207	0xbcb6a20f	-0.022294072
208	0xbc6cc5df	-0.014451473
209	0x3b1e3b89	0.0024144372
210	0xbca05a30	-0.019574255
211	0xbccec1e0	-0.025238931
212	0x3ca40e30	0.020026296
213	0x3b6897e3	0.0035490922
214	0x3b2f3f48	0.00267406
215	0x3ce7b573	0.028284764
216	0xbce8fd27	-0.028441025
217	0x3aa0eb4a	0.0012277153
218	0x3d8bf8ec	0.068345875
219	0xbd454a90	-0.04816681
220	0xba3bcb8a	-0.00071638136
221	0x3d919f6b	0.07110485
222	0xbd005cc8	-0.031338483
223	0xbc81c769	-0.015842156
224	0x3d3716fb	0.04469965
225	0x3a8fc83e	0.0010969711
226	0x3a8d6859	0.0010788544
227	0x3d2464ea	0.0401353
228	0x3ae9c19f	0.0017834193
229	0x3aede2be	0.001814924
230	0x3cf52364	0.029924102
231	0x3b4c3aeb	0.0031163048
232	0x3b53316b	0.00322255
233	0x3bc2fce5	0.0059505575
234	0xbd182f6a	-0.037154593
235	0xb93c85a0	-0.00017978856
236	0x3d0c887c	0.03430985
237	0xbcb2c04c	-0.02182021
238	0x3a9d4ab0	0.0012000408
239	0x3d186220	0.037202954
240	0x3addffd0	0.00169372
241	0x3b2e26b8	0.002657337
242	0x3d23faad	0.040033985
243	0x3940ffa6	0.00018405783
244	0x3caee21b	0.02134805
245	0x3cde82d5	0.027161995
246	0xbcacbe9f	-0.021086989
247	0xb949ad03	-0.00019233306
248	0x3d1bfbd0	0.038081944
249	0xbce15904	-0.027508266
250	0xbaf51f09	-0.0018701266
251	0x3d21a5cc	0.039464757
252	0x3a779b2f	0.00094454264
253	0x3acb8fd6	0.0015530537
254	0xbcc42d6f	-0.023947446
255	0x3b3c06e2	0.0028690626

tfeb.12.weight f4 [39]
0	0x3e0cd16f	0.13751768
1	0x3e442876	0.1915606
2	0x3e3c19bc	0.18369192
3	0x3e554b31	0.20829464
4	0x3e84ac20	0.2591257
5	0x3e313089	0.17303671
6	0x3e646869	0.22305454
7	0x3e65e6c5	0.22451313
8	0x3e7af826	0.24508724
9	0x3e48f845	0.19625957
10	0x3e72709e	0.23675773
11	0x3e47d553	0.1951497
12	0x3e186bf3	0.1488493
13	0x3e6116ad	0.21981306
14	0x3e7868da	0.24258748
15	0x3e9d64c2	0.30740935
16	0x3e0cc7f3	0.1374815
17	0x3e45a7c6	0.19302282
18	0x3e36fadb	0.17869131
19	0x3e0ea80f	0.13931297
20	0x3e012405	0.12611397
21	0x3e184831	0.14871289
22	0x3e4c2e57	0.19939552
23	0x3e143e46	0.1447688
24	0x3e647c15	0.22312959
25	0x3e89f4d2	0.26944596
26	0x3e8c609a	0.2741745
27	0x3e87b626	0.26506156
28	0x3e32610d	0.17419834
29	0x3e27f01e	0.16400191
30	0x3e87b0c6	0.26502055
31	0x3e403fd8	0.18774354
32	0x3e0bf216	0.13666567
33	0x3dfbb2ca	0.12289961
34	0x3e5007f0	0.20315528
35	0x3e226dc0	0.15862179
36	0x3e4f6be0	0.20255995
37	0x3e3c66b6	0.18398556
38	0x3e382f6d	0.17986841

tfeb.12.bias f4 [39]
0	0x3d74dede	0.059782855
1	0xbd0db699	-0.034597967
2	0xbbc46dff	-0.005994558
3	0xbd220274	-0.03955312
4	0xbdaf2e3c	-0.085537404
5	0x3c0c5a83	0.008566502
6	0xbd60969a	-0.054831125
7	0xbc9db64b	-0.019251963
8	0xbe0232f0	-0.12714744
9	0x3c636b34	0.01388054
10	0xbc1434c2	-0.009045782
11	0xbd001690	-0.031271517
12	0x3c9e34d9	0.01931231
13	0xbd868a52	-0.06569351
14	0xbd87b6bc	-0.06626651
15	0xbe0b9a21	-0.13633014
16	0x3caee66c	0.021350108
17	0xbc415447	-0.011799878
18	0xbbf44f9e	-0.00745578
19	0x3d56d27e	0.052446835
20	0x3d8ff2d0	0.07028735
21	0xbc218865	-0.009859179
22	0x3d865693	0.065594815
23	0x3ca2a3da	0.019853521
24	0xbdbf1ea1	-0.09332014
25	0xbe000f15	-0.12505753
26	0xbde5e321	-0.11224962
27	0xbe1267f3	-0.14297466
28	0x3c59ad31	0.013285921
29	0xbac75a8b	-0.0015209479
30	0xbdf1ec64	-0.11812666
31	0xbc969bbc	-0.018384807
32	0x3d5da063	0.054108035
33	0x3dde6a19	0.1086008
34	0xbd22df02	-0.039763458
35	0x3d4f1ce3	0.050564658
36	0xbd07a3b3	-0.0331151
37	0xbaa93f7e	-0.0012912599
38	0x398b28cd	0.00026542545

tfeb.12.running_mean f4 [39]
0	0x3df3bbe3	0.11901071
1	0xbe0ef9db	-0.139625
2	0xbd84bd69	-0.064814396
3	0xbe260714	-0.16213638
4	0xbe4366b1	-0.19082142
5	0xbe230198	-0.15918577
6	0xbc6ceb02	-0.014460327
7	0xbd2de4d0	-0.04245454
8	0xbe06d096	-0.13165507
9	0xbd51357a	-0.05107639
10	0xbd087792	-0.033317156
11	0xbdb69077	-0.08914273
12	0xbda43db8	-0.080195844
13	0xbdb226cc	-0.08698806
14	0xbdb45ce6	-0.088067815
15	0xbe7a8fc0	-0.24468899
16	0xbd9880c4	-0.07446435
17	0xbe62b950	-0.22141004
18	0xbdca0675	-0.09864513
19	0x3c9222b6	0.017838817
20	0xbde9107a	-0.11380096
21	0xbcf1a7bb	-0.029498925
22	0xbd24d601	-0.040243153
23	0xbe058c24	-0.1304174
24	0xbe00a37a	-0.12562361
25	0xbe39ea53	-0.18155794
26	0xbe132032	-0.1436775
27	0xbdc9ba7e	-0.09850024
28	0xbda53edb	-0.08068629
29	0xbd0e11f2	-0.034685083
30	0xbe642b5e	-0.22282168
31	0xbd873fba	-0.06603952
32	0xbde53ee0	-0.11193633
33	0x3c80293d	0.015644664
34	0xbe2713e9	-0.16316189
35	0xbcc13712	-0.02358583
36	0xbe0d1bc2	-0.1378012
37	0xbd335d49	-0.043790136
38	0xbd580705	-0.05274107
