refine_codes/retrained_models_after_second_stage_pruning/after_second_pruning_time_2024022015_prunratio0.83/retrained_model_after_second_pruning_0.83ratio_acc90.90909576416016_16th_epoch_20240220155937.pt (torch, 409836 bytes, 62 tensors)

sfeb.0.weight f4 [6, 1, 1, 9]
0.1509754 0.22400437 0.08435518 0.7558834 -0.21615943 -0.30155745 -0.3675909 -0.11242917
-0.04922789 -0.014609634 0.067343995 0.18446887 -0.28214267 0.113659605 -0.84659165 -0.36094952
0.41725785 0.6708641 0.16928525 0.03387376 0.018275216 -0.23486198 -0.04240178 -0.2323298
0.16782822 0.01904759 -0.41206184 0.62594306 -0.09788507 -0.056587823 -0.29801053 0.016939405
-0.18320002 0.095673904 0.50456345 -0.38495007 -0.47659945 -0.542231 0.032965273 0.5777769
0.10620757 0.3022011 -0.23505376 0.04740298 0.10987198 0.14284936 0.16287065 -0.21307784
0.3734589 -0.8495568 0.66935426 0.067390904 -0.9940216 0.48501515
00000000: 4c99 1a3e 6761 653e 69c2 ac3d 9381 413f
00000010: e658 5dbe bd65 9abe e034 bcbe 4441 e6bd
00000020: 2fa3 49bd 3f5d 6fbc a6eb 893d 68e5 3c3e
00000030: 0175 90be 5ec6 e83d 3bba 58bf 60ce b8be
00000040: d2a2 d53e c0bd 2b3f 1d59 2d3e 36bf 0a3d
00000050: e8b5 953c a97f 70be 7dad 2dbd dde7 6dbe
00000060: 29db 2b3e b109 9c3c c5f9 d2be ce3d 203f
00000070: f877 c8bd a2c8 67bd d694 98be 82c4 8a3c
00000080: c998 3bbe aef0 c33d 122b 013f 2d18 c5be
00000090: d804 f4be a7cf 0abf 9806 073d 30e9 133f
000000a0: 5b83 d93d 1aba 9a3e efb1 70be a129 423d
000000b0: 9004 e13d 1a47 123e 90c7 263e 1431 5abe
000000c0: 0136 bf3e 8e7c 59bf cd5a 2b3f 3e04 8a3d
000000d0: 3378 7ebf e853 f83e

sfeb.1.weight f4 [6]
0.7706389 0.88895935 0.44884175 0.4901699 0.60902786 0.54724544
00000000: 9748 453f d792 633f 96ce e53e 8df7 fa3e
00000010: 40e9 1b3f 4718 0c3f

sfeb.1.bias f4 [6]
0.050173536 0.118303046 0.0024414961 0.539132 0.5606727 0.58018917
00000000: c482 4d3d de48 f23d 8201 203b 8e04 0a3f
00000010: 3f88 0f3f 4787 143f

sfeb.1.running_mean f4 [6]
0.00011525908 -3.3640907e-05 -0.0003393848 0.00016546198 -7.0520655e-05 -0.00012251592
00000000: 3fb7 f138 a619 0db8 75ef b1b9 dd7f 2d39
00000010: 7de4 93b8 9e77 00b9

sfeb.1.running_var f4 [6]
0.02939789 0.055365622 0.011184465 0.020002823 0.042415086 0.011885038
00000000: d8d3 f03c 10c7 623d 0c3f 373c f6dc a33c
00000010: 71bb 2d3d 76b9 423c

sfeb.3.weight f4 [32, 6, 1, 5]
-0.09239823 -0.036250766 -0.039758675 -0.010016593 -0.0057754447 -0.029933317 -0.038102306 -0.019392386
-0.02772058 -0.0048959777 0.030142687 0.07169479 0.10437202 0.19251166 0.14187226 -0.05578992
-0.046841722 -0.054614916 0.0042255986 0.008991851 0.028290054 0.062218513 0.04769594 -0.06517749
0.003148123 -0.05893703 -0.025123259 0.01371032 0.0002328283 -0.023779768 -0.1198728 -0.12310108
-0.053545713 -0.07799 -0.03965937 -0.05702884 -0.05750025 0.018864902 0.045741003 -0.060455047
0.21539873 0.2474659 0.18783034 0.24654385 0.19501373 -0.15156727 -0.111868046 -0.1403521
-0.16630492 -0.08751811 0.041286502 0.09891993 0.11287184 0.1282483 0.15759453 -0.053064123
-0.0009702701 0.02110457 -0.0275634 -0.01809569 -0.19573776 -0.16195826 -0.09821516 -0.1313221
-0.046303093 0.02344301 -0.043625172 -0.08383098 -0.16584876 -0.2831054 -0.08188727 0.05097214
0.07686999 0.15307292 0.2271866 -0.1449697 -0.06385219 -0.053140227 -0.08470489 -0.04543688
0.1923012 0.10514683 0.07887433 0.11572054 0.021087715 -0.011210708 -0.009892745 -0.007924518
-0.05506352 -0.0465111 -0.020973189 -0.008237174 0.016216516 -0.035136443 -0.09097226 -0.14307527
-0.072765976 -0.07137279 -0.10040765 -0.07722821 -0.43249077 -0.3218887 -0.20918721 -0.15486138
-0.12756874 0.25998437 0.18885845 0.15323205 0.09514667 0.06922771 -0.1452914 -0.20632343
-0.07574863 -0.13188946 -0.10024058 -0.010773268 -4.4142267e-05 -0.038112283 -0.035882704 0.011877807
0.14933403 0.11592216 -0.036721997 0.0118152145 0.106893174 -0.1415197 -0.14824887 -0.040064678
-0.073382385 -0.19520344 -0.11608532 -0.07940647 -0.09080146 0.03764216 0.12085556 0.23686652
0.10618059 0.0869479 0.05957614 0.00891965 -0.15564948 -0.102567114 -0.11884284 -0.028256118
-0.095751464 0.019758968 0.032181166 0.018236829 -0.062647805 -0.04753502 0.08228801 0.13112588
0.08648434 0.025024762 -0.011488678 -0.123296 -0.14686696 -0.12727235 -0.12585044 -0.109560005
-0.13137083 0.0049109864 0.11985342 0.18818893 0.17253251 0.11568645 0.08460641 0.10419939
-0.018641382 -0.08700603 -0.114166036 -0.18169224 -0.12918441 -0.100975245 -0.089848794 -0.03330185
-0.014842167 -0.010334494 -0.019180775 -0.0011559062 0.02158299 -0.06067854 -0.04299619 -0.075368024
-0.089616835 -0.0792083 -0.037797134 -0.082542695 0.030077208 -0.008916982 -0.008360865 -0.016084176
-0.081269205 -0.11967022 -0.11238819 0.13230719 0.08232691 0.0052144653 -0.03738219 -0.03823999
-0.09586876 -0.09486588 0.0010214667 0.027979383 -0.02088128 -0.015075852 -0.05208384 -0.023334276
-0.009061395 0.01310672 -0.18941523 -0.12035837 -0.085559376 -0.12051643 0.0017198517 0.012264805
0.025965134 0.046553303 -0.09528774 -0.1207176 -0.12000639 -0.09904357 -0.058588255 0.02816228
0.20085818 -0.16715603 -0.042718083 -0.002463938 0.03631418 0.03755953 0.078097925 -0.004134628
-0.04794872 -0.007688641 0.009649254 0.02882935 0.011781394 0.000109829685 0.021260304 -0.078499086
0.078317285 0.027643725 -0.05078754 -0.10315554 -0.025873063 0.03355308 0.00084785715 0.016966801
0.07142942 0.07216652 -0.05959128 -0.026994057 0.060918182 0.053753525 0.006817739 -0.09521224
00000000: 493b bdbd af7b 14bd fed9 22bd a31c 24bc
00000010: f13f bdbb b736 f5bc 2a11 1cbd c8dc 9ebc
00000020: 4516 e3bc 706e a0bb cced f63c b8d4 923d
00000030: ffc0 d53d c721 453e f646 113e f983 64bd
00000040: 1bdd 3fbd e4b3 5fbd e476 8a3b 8e52 133c
00000050: 8bc0 e73c d7d8 7e3d d15c 433d c77b 85bd
00000060: bd50 4e3b f567 71bd 4bcf cdbc 40a1 603c
00000070: 5f23 7439 cacd c2bc df7f f5bd 6b1c fcbd
00000080: c052 5bbd 39b9 9fbd dd71 22bd 1397 69bd
00000090: 6285 6bbd 918a 9a3c eb5a 3b3d b69f 77bd
000000a0: 7c91 5c3e b367 7d3e 9956 403e fe75 7c3e
000000b0: aeb1 473e 7334 1bbe 131b e5bd 76b8 0fbe
000000c0: d64b 2abe b23c b3bd 091c 293d 8896 ca3d
000000d0: 5a29 e73d 8653 033e 7660 213e c459 59bd
000000e0: b959 7eba 7ee3 ac3c a4cc e1bc 6a3d 94bc
000000f0: 7b6f 48be 63d8 25be 0825 c9bd 4d79 06be
00000100: 50a8 3dbd 8e0b c03c 4fb0 32bd 94af abbd
00000110: 42d4 29be 31f3 90be 83b4 a7bd 2ac8 503d
00000120: 036e 9d3d 26bf 1c3e 9ba3 683e f072 14be
00000130: f0c4 82bd 91a9 59bd c279 adbd 061c 3abd
00000140: 9bea 443e 3957 d73d dd88 a13d e4fe ec3d
00000150: 25c0 ac3c 1ead 37bc 2e15 22bc d6d5 01bc
00000160: 498a 61bd 6c82 3ebd f7cf abbc 36f5 06bc
00000170: 80d8 843c 3beb 0fbd aa4f babd 5382 12be
00000180: 5406 95bd e62b 92bd 87a2 cdbd d329 9ebd
00000190: 6e6f ddbe 98ce a4be 2c35 56be fb93 1ebe
000001a0: 61a1 02be ac1c 853e 1c64 413e dde8 1c3e
000001b0: 42dc c23d 42c7 8d3d 45c7 14be 7346 53be
000001c0: 1922 9bbd 080e 07be ef4a cdbd 5c82 30bc
000001d0: 6625 39b8 a01b 1cbd bef9 12bd 229b 423c
000001e0: 05eb 183e 9968 ed3d ce69 16bd 9a94 413c
000001f0: cfea da3d 8aea 10be 8dce 17be dc1a 24bd
00000200: 8149 96bd 69e3 47be 24be edbd dc9f a2bd
00000210: 1ef6 b9bd aa2e 1a3d 1f83 f73d 238d 723e
00000220: 3675 d93d be11 b23d 1c06 743d b923 123c
00000230: 9462 1fbe b50e d2bd e063 f3bd 6079 e7bc
00000240: 5819 c4bd 8fdd a13c 66d0 033d 6765 953c
00000250: 7e4d 80bd 15b4 42bd 9e86 a83d dd45 063e
00000260: b41e b13d bb00 cd3c 023b 3cbc 9d82 fcbd
00000270: 4b64 16be af53 02be f0de 00be ff60 e0bd
00000280: 1386 06be 57ec a03b b675 f53d 99b4 403e
00000290: 5dac 303e 04ed ec3d 2046 ad3d 7d66 d53d
000002a0: d0b5 98bc 3830 b2bd e2cf e9bd 880d 3abe
000002b0: eb48 04be 1ccc cebd a502 b8bd 8567 08bd
000002c0: 8f2c 73bc 0252 29bc 0021 9dbc c781 97ba
000002d0: d0ce b03c 108a 78bd c61c 30bd 8d5a 9abd
000002e0: 0889 b7bd f637 a2bd 2bd1 1abd 250c a9bd
000002f0: 7a64 f63c 8918 12bc 02fc 08bc f6c2 83bc
00000300: 7870 a6bd a915 f5bd c82b e6bd 897b 073e
00000310: 039b a83d 1bde aa3b 111e 19bd 89a1 1cbd
00000320: d756 c4bd 0b49 c2bd bce2 853a 0535 e53c
00000330: 380f abbc b500 77bc dd55 55bd 8627 bfbc
00000340: 3f76 14bc 91bd 563c 11f6 41be 737e f6bd
00000350: c139 afbd 51d1 f6bd a66c e13a 52f2 483c
00000360: d5b4 d43c adae 3e3d 3826 c3bd ca3a f7bd
00000370: e9c5 f5bd 5bd7 cabd 3dfa 6fbd 95b4 e63c
00000380: c4ad 4d3e f32a 2bbe 28f9 2ebd 057a 21bb
00000390: 2dbe 143d 06d8 193d cef1 9f3d c67b 87bb
000003a0: e165 44bd fff0 fbbb e817 1e3c 872b ec3c
000003b0: bf06 413c 5d54 e638 172a ae3c 21c4 a0bd
000003c0: d064 a03d 1875 e23c 9806 50bd 3643 d3bd
000003d0: bff3 d3bc f46e 093d bb42 5e3a f6fd 8a3c
000003e0: 9649 923d 0acc 933d fc15 74bd a422 ddbc
000003f0: 5885 793d a82c 5c3d 5767 df3b a3fe c2bd

sfeb.4.weight f4 [32]
0.28302824 0.71872634 0.8288357 0.95436776 0.49906066 0.6021517 0.23734926 0.26021177
0.10382277 0.4704102 0.62711465 0.5995967 0.4512519 0.45041406 0.5189191 0.59965515
0.27601078 0.38025576 0.653343 0.6135041 0.22440179 0.5556912 0.53507954 0.3895501
0.41524845 0.6278024 0.59379745 0.5861591 0.38849515 0.35414997 0.41191325 0.19555883
00000000: 14e9 903e 73fe 373f 942e 543f 7251 743f
00000010: e184 ff3e 9d26 1a3f af0b 733e 7a3a 853e
00000020: 08a1 d43d 9bd9 f03e 968a 203f 2b7f 193f
00000030: 7d0a e73e ac9c e63e e2d7 043f 0083 193f
00000040: 4951 8d3e e2b0 c23e 7d41 273f 9b0e 1d3f
00000050: 95c9 653e c741 0e3f f9fa 083f 1c73 c73e
00000060: 729b d43e a8b7 203f 1c03 183f 860e 163f
00000070: d6e8 c63e 2553 b53e 4be6 d23e 9340 483e

sfeb.4.bias f4 [32]
-0.06029977 0.0042388076 -0.15716569 -0.06420968 -0.10025046 -0.055749197 -0.032934327 -0.10683699
0.063233174 -0.046244133 0.0025349644 -0.0074387533 -0.0034976949 0.06300242 0.013214357 0.035041545
0.012561937 -0.013068876 0.020399692 0.009617922 -0.019441212 -0.01030961 -0.06516316 -0.11600274
0.01731636 -0.063978225 -0.12988777 0.009586077 -0.07969293 -0.08809399 -0.0570941 0.03729374
00000000: e4fc 76bd b2e5 8a3b 0bf0 20be 5d80 83bd
00000010: 1d50 cdbd 4559 64bd 25e6 06bd 5acd dabd
00000020: 6580 813d 7d6a 3dbd a521 263b c9c0 f3bb
00000030: 9539 65bb 6a07 813d 0881 583c b987 0f3d
00000040: 95d0 4d3c d71e 56bc 411d a73c 7d94 1d3c
00000050: 2d43 9fbc a3e9 28bc 4374 85bd d892 edbd
00000060: 0adb 8d3c 0407 83bd 4d01 05be ec0e 1d3c
00000070: 0c36 a3bd 9f6a b4bd 81db 69bd 52c1 183d

sfeb.4.running_mean f4 [32]
-0.10246054 -0.09493737 -0.21536115 -0.29934436 -0.15304218 -0.37977085 -0.2185346 -0.22115102
-0.11868441 -0.5233335 -0.1264218 -0.3962429 -0.21659288 -0.18689185 -0.3066346 -0.013847703
-0.3969364 -0.20266466 -0.028111674 -0.08872091 -0.1491009 -0.03497048 -0.25563818 -0.34969702
-0.009186554 -0.21214266 -0.5533706 -0.106335625 -0.38340962 -0.25368518 -0.048376665 -0.0057199863
00000000: d5d6 d1bd 866e c2bd a287 5cbe aa43 99be
00000010: 17b7 1cbe 5371 c2be 89c7 5fbe 6a75 62be
00000020: d010 f3bd 2ff9 05bf b774 01be 59e0 cabe
00000030: 86ca 5dbe 9460 3fbe 36ff 9cbe 7ae1 62bc
00000040: 3f3b cbbe 5387 4fbe 744a e6bc 4fb3 b5bd
00000050: e8ad 18be 353d 0fbd 02e3 82be 7d0b b3be
00000060: 3383 16bc ed3b 59be b2a9 0dbf 7ec6 d9bd
00000070: 444e c4be 06e3 81be 9c26 46bd b96e bbbb

sfeb.4.running_var f4 [32]
0.018882168 0.05937761 0.14272931 0.23803757 0.07474533 0.09394304 0.05685697 0.07736616
0.03466925 0.16328163 0.21295588 0.18983468 0.1797059 0.17936356 0.29268077 0.51119554
0.052140296 0.07095263 0.35603967 0.2885337 0.041184645 0.19324894 0.11168552 0.09718185
0.057175376 0.11393033 0.19165425 0.10899125 0.13493064 0.07467428 0.037250906 0.0032137064
00000000: c7ae 9a3c f035 733d a227 123e 1fc0 733e
00000010: 1414 993d 3565 c03d dbe2 683d 2672 9e3d
00000020: 5801 0e3d 4d33 273e 1b11 5a3e 0664 423e
00000030: d304 383e 15ab 373e 41da 953e b6dd 023f
00000040: 1091 553d 9d4f 913d d54a b63e b0ba 933e
00000050: 3bb1 283d 0de3 453e 61bb e43d 4707 c73d
00000060: ba30 6a3d 4e54 e93d 0341 443e ce36 df3d
00000070: 422b 0a3e d4ee 983d 6894 183d 0c9d 523b

tfeb.0.weight f4 [11, 1, 3, 3]
0.7443853 -0.5624484 -0.32939988 -0.118515395 -0.007655564 0.04552878 -0.046911847 0.028723998
0.014178677 -0.0015139849 0.009757251 -0.0021587333 0.0008002275 0.0009236329 0.0010976994 0.010765684
0.020303914 0.0015862602 0.06716373 -0.40802738 0.12783253 0.19442008 -0.48860887 0.11579164
0.15524818 -0.29292554 0.09461569 0.1763801 0.17880318 -0.40736958 0.24145018 0.22315146
-0.36364725 0.13056947 0.09381732 -0.115885906 -0.52845955 0.06330378 0.15098439 -0.5635956
0.13807692 0.38878804 -0.23289178 0.07283753 0.15430261 -0.008211238 0.07865219 0.044503707
-0.058816586 0.3150727 0.047629103 -0.052191082 0.16764641 0.043820288 0.25046614 -0.11109241
-0.26774982 0.3688585 -0.09482759 -0.26428542 0.17346172 -0.07204208 -0.19166248 -0.004822315
-0.006098415 -0.0055100704 -0.00095308747 -0.0021795002 -0.0020492035 0.014512029 0.011441168 0.00016794288
0.012041404 0.021244409 0.00043310612 0.0022392508 0.016128628 0.010865738 0.016845329 0.030570826
-0.00020368084 0.030181939 0.037853245 -0.106155686 0.060616117 0.027099142 -0.21545438 -0.25344694
-0.4611524 0.6425086 -0.28586426 -0.35817924 0.37479517 -0.2615513 -0.34286237 0.48999467
-0.050774008 -0.24517694 0.16567741
00000000: 0990 3e3f 9efc 0fbf 1aa7 a8be 33b8 f2bd
00000010: 87db fabb 637c 3a3d a326 40bd 974e eb3c
00000020: af4d 683c e770 c6ba e0dc 1f3c 8979 0dbb
00000030: 5cc6 513a f41f 723a aee0 8f3a 8d62 303c
00000040: 6554 a63c 0fea cf3a 238d 893d f7e8 d0be
00000050: 88e6 023e 0f16 473e f12a fabe 2b24 ed3d
00000060: 61f9 1e3e 56fa 95be dfc5 c13d fc9c 343e
00000070: 2e18 373e bf92 d0be b73e 773e d181 643e
00000080: f92f babe 01b4 053e 4c23 c03d 9755 edbd
00000090: 2049 07bf 6aa5 813d a79b 1a3e cd47 10bf
000000a0: 0964 0d3e 3a0f c73e 2f7b 6ebe d82b 953d
000000b0: 8101 1e3e 6e88 06bc 6614 a13d 8549 363d
000000c0: a9e9 70bd 3551 a13e bc16 433d 51c6 55bd
000000d0: 80ab 2b3e e77c 333d 193d 803e 6b84 e3bd
000000e0: 8116 89be 05db bc3e f834 c2bd 6b50 87be
000000f0: f39f 313e cc8a 93bd 2b43 44be 8304 9ebb
00000100: 36d5 c7bb d28d b4bb 9ed8 79ba f2d5 0ebb
00000110: ee4b 06bb dcc3 6d3c bd73 3b3c d319 3039
00000120: 4f49 453c c108 ae3c 8512 e339 65c0 123b
00000130: 2f20 843c 3506 323c 37ff 893c ab6f fa3c
00000140: 2993 55b9 1d40 f73c 010c 1b3d 2768 d9bd
00000150: 9b48 783d 05ff dd3c 13a0 5cbe ccc3 81be
00000160: 2b1c ecbe 727b 243f cd5c 92be 4563 b7be
00000170: 27e5 bf3e 0dea 85be a88b afbe 95e0 fa3e
00000180: 68f8 4fbd aa0f 7bbe 57a7 293e

tfeb.1.weight f4 [11]
0.22546709 0.034809098 0.30806023 0.17292766 0.21532069 0.17128702 0.18515797 0.031490132
0.06543896 0.23515043 0.3330379
00000000: d8e0 663e fc93 0e3d 12ba 9d3e f313 313e
00000010: 077d 5c3e dd65 2f3e 0d9a 3d3e ccfb 003d
00000020: dd04 863d 46cb 703e f283 aa3e

tfeb.1.bias f4 [11]
0.048970208 -0.058715552 0.07497988 0.16380341 0.18258032 0.15101856 0.25540155 -0.04686973
-0.09540586 0.050406497 -0.024998562
00000000: fc94 483d b87f 70bd 0d8f 993d 15bc 273e
00000010: 56f6 3a3e 9ca4 1a3e fec3 823e 79fa 3fbd
00000020: 2664 c3bd 0b77 4e3d c9c9 ccbc

tfeb.1.running_mean f4 [11]
-0.106669955 0.015848622 -0.17456199 0.061603338 -0.13034658 0.22216065 -0.093270704 0.0027041472
0.041987784 -0.077679165 -0.17260982
00000000: c775 dabd f8d4 813c 61c0 32be c853 7c3d
00000010: 9379 05be 157e 633e b604 bfbd 1038 313b
00000020: 62fb 2b3d 4116 9fbd a1c0 30be

tfeb.1.running_var f4 [11]
0.048770696 0.00046982768 0.07449484 0.039139878 0.08884944 0.0846836 0.04281037 0.00019162742
0.0027487727 0.028796123 0.096188165
00000000: c8c3 473d 3453 f639 c090 983d 2351 203d
00000010: b2f6 b53d 986e ad3d ed59 2f3d 98ef 4839
00000020: c124 343b d9e5 eb3c 4dfe c43d

tfeb.4.weight f4 [21, 11, 3, 3]
0.006645877 -0.005128428 -0.042894125 -0.0002901446 0.017425466 -0.0018866588 0.001058886 0.027217684
-0.035718534 -0.0028767807 -0.0025645958 -0.004060743 -0.002652509 -0.0020849756 -0.0028501428 -0.0015626589
-0.00088019774 -0.0014105703 0.0359824 0.020746587 0.010544225 -0.013311327 -0.018091412 -0.033994477
-0.012828525 -0.027531497 -0.026787348 0.023544014 0.0061713485 -0.0049699945 0.010981202 -0.017112792
-0.033378564 -0.022649756 -0.062879376 -0.07538883 0.022061223 0.06857131 0.014755523 -0.000121341116
0.02581501 0.014430866 -0.043575697 -0.05612653 -0.026936837 0.020035153 0.053927064 0.024221653
-0.033831593 -0.020225495 -0.038749475 -0.0675889 -0.08402408 -0.083532475 0.03455178 0.020863283
-0.0067610983 0.02431064 0.02058423 -0.012656654 0.017323712 0.01549692 -0.011288136 -0.0025646219
-0.001945173 -0.0028554853 -0.0018212891 -0.0015259644 -0.0017019865 -0.0012517126 -0.0009656566 -0.0010857645
-0.004987975 -0.004906989 -0.0072132205 -0.004605414 -0.0038194049 -0.005381551 -0.0028860825 -0.0019818903
-0.0026761582 0.011339945 0.033500608 0.012554475 -0.0027419988 -0.047362447 0.007622837 -0.018925184
0.017172337 0.004543802 0.0320846 0.020708866 0.046579704 0.009212453 -0.0020182475 0.029030075
-0.036869004 -0.06512037 0.01773043 -0.0067229085 0.07959511 -0.0064780796 -0.040458612 -0.18275782
-0.08116232 -0.032831524 -0.026866749 -0.045165014 -0.0008840259 -0.0023984956 -0.0022652324 0.00025723784
-0.0005705342 -0.0009668202 0.003492873 0.0028448452 0.0027786454 0.014513147 -0.14945646 -0.024767563
0.06395146 -0.15433452 -0.007950462 0.027543226 -0.0984111 0.017298054 -0.017113518 -0.0040297424
-0.0027592252 -0.060214456 -0.02065055 0.029682167 0.01107578 0.017923513 0.025472956 0.028382173
0.02634328 -0.028519653 0.02598566 0.036295887 -0.046586316 -0.0087869195 0.018336857 -0.009063903
-0.043797877 -0.021863092 -0.06576025 -0.016594376 0.042107426 0.023757918 0.03487141 0.040558167
0.012567749 -0.020838331 -0.00023249107 0.0038793217 -0.048318304 -0.05025523 -0.018513624 -0.025450384
-0.0035501842 0.002197096 -0.0011580867 -0.0008928281 -0.0017664852 -0.00015329305 0.00062609545 -0.00036189906
0.0024179327 0.0031106821 0.002428044 -0.0017119887 -0.0044168932 -0.0042780885 0.0008734269 -0.0011535742
-0.0016947121 -0.0066657495 -0.0060349316 -0.006354279 -0.01163547 -0.10897586 -0.028967269 -0.020100811
-0.03258275 0.015344835 0.046395335 0.0072586667 -0.016381761 0.05975779 -0.12766337 -0.017273717
0.067247674 -0.09801623 -0.02150265 0.017335704 -0.06480804 -0.020358859 -0.006133399 0.0066946074
-0.0102682235 -0.023845576 0.022120927 -0.080675535 -0.013737499 0.057036914 -0.0019877662 0.000386665
0.0009314712 0.0023960227 0.0010650398 0.0010291036 0.0001905549 0.00079933886 0.00042369592 -0.00064242596
0.0074652014 -0.031548098 -0.005166893 -0.017677607 -0.029844742 -0.012726878 0.03056125 -0.0058769756
0.0034837755 0.05392099 -0.015731301 -0.030471336 0.019525582 -0.07597691 -0.1071319 0.052707314
0.013416338 -0.014108915 -0.030174686 0.051236358 -0.042793386 -0.09704182 -0.034449678 0.009135048
0.030460378 0.068063654 -0.003959381 0.0019463984 -0.00805083 0.015574395 -0.051124673 -0.093978286
-0.04901517 0.021348355 0.0136625655 0.017030353 0.0013861959 0.004538083 -0.037567865 -8.84542e-05
00000000: a8c5 d93b 5f0c a8bb c0b1 2fbd 8d1e 98b9
00000010: dabf 8e3c c449 f7ba 51ca 8a3a 9ff7 de3c
00000020: 994d 12bd 5f88 3cbb c712 28bb fb0f 85bb
00000030: b7d5 2dbb 16a4 08bb 76c9 3abb 22d2 ccba
00000040: 12bd 66ba e3e2 b8ba 4862 133d bff4 a93c
00000050: afc1 2c3c c117 5abc 7134 94bc cb3d 0bbd
00000060: bc2e 52bc bc89 e1bc 2471 dbbc 60df c03c
00000070: 0639 ca3b 56db a2bb 80ea 333c 2030 8cbc
00000080: f6b7 08bd fb8b b9bc e7c6 80bd 7565 9abd
00000090: bdb9 b43c 1d6f 8c3d 26c1 713c 8478 feb8
000000a0: 007a d33c 706f 6c3c 6e7c 32bd efe4 65bd
000000b0: a4aa dcbc c320 a43c a0e2 5c3d 7d6c c63c
000000c0: ff92 0abd f0af a5bc c5b7 1ebd 0d6c 8abd
000000d0: d114 acbd 1313 abbd 2b86 0d3d 7ae9 aa3c
000000e0: 348c ddbb 1b27 c73c 42a0 a83c db5d 4fbc
000000f0: 75ea 8d3c cbe6 7d3c e0f1 38bc 3713 28bb
00000100: 2df5 feba 1823 3bbb 52b8 eeba de02 c8ba
00000110: 3115 dfba 8110 a4ba 1e24 7dba 3650 8eba
00000120: 2b72 a3bb cfca a0bb e15c ecbb 03e9 96bb
00000130: fb4e 7abb b957 b0bb 6e24 3dbb 9ae2 01bb
00000140: 7c62 2fbb 2dcb 393c ef37 093d 49b1 4d3c
00000150: 1bb3 33bb 20ff 41bd fec8 f93b fd08 9bbc
00000160: 00ad 8c3c 2ce4 943b 246b 033d a4a5 a93c
00000170: 5cca 3e3d d4ef 163c 9344 04bb 7bd0 ed3c
00000180: f403 17bd d45d 85bd 683f 913c d84b dcbb
00000190: c302 a33d 1246 d4bb eeb7 25bd de24 3bbe
000001a0: 6e38 a6bd 597a 06bd a817 dcbc f3fe 38bd
000001b0: f9bd 67ba 1430 1dbb 4b74 14bb e1dd 8639
000001c0: e78f 15ba 3572 7dba afe8 643b 9570 3a3b
000001d0: ef19 363b 8dc8 6d3c 1d0b 19be 58e5 cabc
000001e0: fcf8 823d de09 1ebe a842 02bc 55a2 e13c
000001f0: c28b c9bd a6b4 8d3c a631 8cbc ee0b 84bb
00000200: 1ed4 34bb 6fa3 76bd 582b a9bc 0428 f33c
00000210: 3077 353c 55d4 923c a9ac d03c bb81 e83c
00000220: ddcd d73c 0ca2 e9bc e1df d43c ffaa 143d
00000230: 4bd1 3ebd 03f7 0fbc 2d37 963c c480 14bc
00000240: 6765 33bd 3a1a b3bc 4fad 86bd eef0 87bc
00000250: d678 2c3d f79f c23c 53d5 0e3d 5220 263d
00000260: f6e8 4d3c 26b5 aabc d9c8 73b9 383c 7e3b
00000270: 6ae9 45bd 6ed8 4dbd e2a9 97bc 537d d0bc
00000280: 35aa 68bb 27fd 0f3b f1ca 97ba ae0c 6aba
00000290: 6889 e7ba 4abd 20b9 8e20 243a 45bd bdb9
000002a0: 2e76 1e3b 96dc 4b3b d21f 1f3b cf64 e0ba
000002b0: 96bb 90bb 352f 8cbb b0f6 643a 8733 97ba
000002c0: 1a21 deba 5c6c dabb adc0 c5bb 8e37 d0bb
000002d0: b3a2 3ebc bc2e dfbd c44c edbc 75aa a4bc
000002e0: 7d75 05bd e768 7b3c 0909 3e3d 1cda ed3b
000002f0: 0b33 86bc 96c4 743d 30ba 02be 9c81 8dbc
00000300: 26b9 893d bcbc c8bd 5326 b0bc 9b03 8e3c
00000310: 14ba 84bd 9fc7 a6bc aefa c8bb 705e db3b
00000320: 0d3c 28bc cc57 c3bc f236 b53c 3739 a5bd
00000330: 3f13 61bc 8a9f 693d 2f45 02bb 4cb9 ca39
00000340: f92d 743a 9706 1d3b ce98 8b3a fde2 863a
00000350: b1cf 4739 b98a 513a 8123 de39 7a68 28ba
00000360: a69e f43b 9438 01bd 0a4f a9bb a1d0 90bc
00000370: f67c f4bc 6584 50bc 965b fa3c a593 c0bb
00000380: 0e50 643b 42dc 5c3d eede 80bc 069f f9bc
00000390: 1df4 9f3c c899 9bbd f867 dbbd a0e3 573d
000003a0: 33d0 5b3c 1429 67bc e730 f7bc 37dd 513d
000003b0: 1e48 2fbd ddbd c6bd 1b1b 0dbd 2bab 153c
000003c0: 0b88 f93c f564 8b3d b2bd 81bb 4b1e ff3a
000003d0: a1e7 03bc bf2b 7f3c 1b68 51bd b077 c0bd
000003e0: 22c4 48bd bfe2 ae3c f4d8 5f3c 3d83 8b3c
000003f0: 04b1 b53a 33b4 943b c3e0 19bd 7d80 b9b8

tfeb.5.weight f4 [21]
0.13998346 0.29692706 0.29948238 0.13458991 0.13691255 0.42224035 0.046463694 0.20639502
0.34906507 0.29934 0.122580096 0.09448403 0.009066365 0.11080225 0.31488705 0.08044101
0.22380115 0.18871373 0.08871682 0.16692479 0.12927353
00000000: d357 0f3e d306 983e c155 993e f0d1 093e
00000010: ce32 0c3e e32f d83e b750 3e3d 3759 533e
00000020: a8b8 b23e 1843 993e 460b fb3d d880 c13d
00000030: 178b 143c 4aec e23d e038 a13e 42be a43d
00000040: 212c 653e 2c3e 413e 2ab1 b53d 55ee 2a3e
00000050: 4860 043e

tfeb.5.bias f4 [21]
0.016966231 0.0058483235 -0.15433885 -0.021767838 0.1560482 -0.05437234 0.017368937 0.06208959
-0.059690528 -0.1766658 0.02047888 0.16583447 0.10994416 0.008861599 -0.10280057 -0.23015468
-0.08555605 0.04200049 -0.025792114 0.04960035 0.048176873
00000000: c4fc 8a3c 4ba3 bf3b 010b 1ebe 7752 b2bc
00000010: 19cb 1f3e 88b5 5ebd 4d49 8e3c a751 7e3d
00000020: 0e7e 74bd e1e7 34be 53c3 a73c 83d0 293e
00000030: 672a e13d 3d30 113c 1b89 d2bd abad 6bbe
00000040: 0338 afbd b508 2c3d fc49 d3bc bd29 4b3d
00000050: 1d55 453d

tfeb.5.running_mean f4 [21]
-0.04749815 -0.20253634 -0.098446704 -0.12877612 -0.15653996 -0.19412084 0.010083436 -0.1771531
-0.21145472 -0.12807602 0.010217463 -0.16440842 -0.013953013 0.008195242 -0.14998272 0.01603797
-0.07436449 -0.11596743 -0.08832971 -0.03190217 -0.22226572
00000000: 6c8d 42bd b065 4fbe 6d9e c9bd e3dd 03be
00000010: 034c 20be 9dc7 46be ff34 253c 9f67 35be
00000020: 9687 58be 5c26 03be 2567 273c ae5a 28be
00000030: 2e9b 64bc 5645 063c 1295 19be 1062 833c
00000040: 694c 98bd 5580 edbd 35e6 b4bd daab 02bd
00000050: a099 63be

tfeb.5.running_var f4 [21]
0.008990613 0.015096318 0.0039180485 0.0030040257 0.00846743 0.014318554 0.0025089106 0.009950314
0.009751834 0.0039672847 0.0010761402 0.009152816 0.0039000118 0.0033600216 0.0076020495 0.0010207087
0.0055077225 0.0119692385 0.0012311741 0.007109764 0.008416168
00000000: 5d4d 133c 8c56 773c f962 803b 30df 443b
00000010: faba 0a3c 5e98 6a3c 896c 243b a406 233c
00000020: 28c6 1f3c ffff 813b 460d 8d3a b1f5 153c
00000030: 5797 7f3b cf33 5c3b 9d1a f93b 4dc9 853a
00000040: 207a b43b a01a 443c 595f a13a 06f9 e83b
00000050: f8e3 093c

tfeb.7.weight f4 [16, 21, 3, 3]
0.024641411 0.019692587 0.023238208 0.043997195 0.015403173 -0.022044007 0.050608985 0.01696694
-0.0038323272 0.0149182 0.006182429 0.02025002 -0.057962142 -0.024418171 -0.018611146 0.005142161
0.008406614 0.013681945 -0.006098526 0.008905045 0.045368202 -0.03648798 -0.010962341 0.02499846
-0.007400957 -0.0015526732 -0.014981182 -0.0072575253 -0.007332736 -0.029525379 -0.021650588 -0.032317873
-0.044618484 0.038942296 0.0030143328 -0.023566818 -0.00991971 -0.0033139442 0.012837342 -0.08280644
-0.031365335 0.028545598 -0.03964785 0.0035309189 0.044308703 -0.036867466 0.017184395 0.021637663
-0.045166995 -0.01875777 -0.027171953 0.021360656 0.001701175 -0.014363363 0.007609338 0.0076636043
0.0057771057 0.008022978 0.006782039 -0.007886616 0.02361141 0.0029259103 -0.01948585 -0.039476108
-0.0044579315 -0.000392481 -0.07064117 -0.008096398 -0.0141727235 0.0066435514 0.02818162 0.0052389107
0.027951503 0.025813304 0.01378325 0.0016365818 -0.0055049546 0.025735937 -0.012472308 -0.005944397
0.006167534 -0.016902199 0.0024193716 0.021768179 -0.06138371 -0.014000765 0.016121758 -0.038398735
0.0027543793 0.055666115 0.0006350244 -0.010978498 0.005070202 0.013111831 0.00013922024 0.006283349
-0.0052060406 -0.021135084 -0.016911216 -0.06428679 -0.08652961 -0.0602923 -0.07384958 -0.065821886
-0.024921974 -0.02506424 -0.019115796 0.012306838 0.00663439 -0.023910902 -0.037755355 0.04182227
-0.024931159 -0.06465207 0.013745644 -0.0098360805 -0.01168813 0.030461688 0.048928503 0.024718104
0.0022474227 0.022699906 0.015310342 0.02969418 0.016778013 0.0012989438 0.014497902 0.0037978052
-0.0031152288 -0.028254163 -0.026103923 0.022649502 0.0036726545 0.015213332 0.0031373445 -0.037160963
0.012231733 0.0038818587 -0.042449538 -0.013764556 -0.011669309 -0.027093437 -0.008470552 0.0041714814
0.00764733 0.036426775 0.009664982 -0.032187663 -0.013089974 -0.020398943 0.0064677135 0.0017020657
-0.01996441 -5.1816565e-05 -0.015425045 0.012356054 -0.007016599 0.017641254 0.014526221 -0.036715493
-0.014133578 -0.031610113 0.018302036 0.0019305145 0.0018384752 -0.0069915955 -0.003932007 -0.0037309458
-0.005313897 -0.0017453455 -0.0032891326 0.07144708 0.015033983 0.012935072 -0.037064977 -0.019355059
-0.010671062 0.022645317 0.017452545 0.027107079 -0.016833521 -0.034400214 0.0040670466 -0.018246708
-0.035436425 -0.0051594703 0.013715986 -0.0059851687 -0.0008245057 -0.028951205 -0.005820815 -0.012041436
-0.034467496 0.006663147 0.030477433 -0.018128246 0.0065141176 0.025449872 0.022199584 0.028744355
0.03735365 -0.007964928 0.038858652 0.0615867 -0.035135258 -0.01115173 -0.030537806 0.011296877
0.002677496 -0.015710464 -0.0035039904 -0.047666848 -0.065651454 -0.009941976 0.024851143 0.029998526
-4.467668e-05 0.026515704 0.0425381 -0.020418195 -0.020281842 -0.026631754 -0.032823898 0.022504868
0.058655757 0.03100036 0.013618412 0.0004510697 0.031785216 -0.008586409 -0.028758701 -0.00075123174
-0.020278595 -0.04847282 -0.006168214 -0.002073526 -0.041092403 -0.022985483 0.0488858 0.010082297
-0.035638124 -0.0351672 -0.032638345 0.0013183065 0.011592833 0.02051964 -0.010712247 0.00345904
-0.0025690277 -0.00890333 0.0030606813 0.015728377 0.0015378998 0.032640938 0.03160118 -0.015336386
00000000: c9dc c93c 5952 a13c 0e5e be3c 6736 343d
00000010: 975d 7c3c a295 b4bc 5e4b 4f3d 41fe 8a3c
00000020: c827 7bbb 776b 743c f995 ca3b 5fe3 a53c
00000030: b669 6dbd 9e08 c8bc 6776 98bc 937f a83b
00000040: e5bb 093c 3d2a 603c 25d6 c7bb 77e6 113c
00000050: 02d4 393d 6c74 15bd 649b 33bc 92c9 cc3c
00000060: ba83 f2bb 1183 cbba a273 75bc 89d0 edbb
00000070: 7347 f0bb 35df f1bc 935c b1bc bf5f 04bd
00000080: dfc1 36bd f581 1f3d 1d8c 453b 330f c1bc
00000090: 4886 22bc c22e 59bb b753 523c 6c96 a9bd
000000a0: f078 00bd 75d8 e93c c965 22bd fd66 673b
000000b0: 0b7d 353d 5702 17bd 4ac6 8c3c 7841 b13c
000000c0: 0701 39bd e5a9 99bc b797 debc 8bfc ae3c
000000d0: f6f9 de3a 5054 6bbc c157 f93b f91e fb3b
000000e0: e04d bd3b cf72 033c de3b de3b dd36 01bc
000000f0: b76c c13c a1c0 3f3b caa0 9fbc b3b1 21bd
00000100: d713 92bb e8c5 cdb9 51ac 90bd c1a6 04bc
00000110: b634 68bc 26b2 d93b 24dd e63c 2bab ab3b
00000120: 8dfa e43c 6c76 d33c 24d3 613c 9382 d63a
00000130: e862 b4bb 2cd4 d23c a758 4cbc 37c9 c2bb
00000140: 0619 ca3b 7b76 8abc 528e 1e3b 2e53 b23c
00000150: 7c6d 7bbd 7763 65bc c711 843c fe47 1dbd
00000160: d182 343b 2702 643d c477 263a 28df 33bc
00000170: f023 a63b 01d3 563c a6fb 1139 8de4 cd3b
00000180: 6f97 aabb 7c23 adbc 6489 8abc cba8 83bd
00000190: 7036 b1bd 0ff5 76bd 733e 97bd a0cd 86bd
000001a0: 2b29 ccbc 8553 cdbc bb98 9cbc 9fa2 493c
000001b0: 4c65 d93b cce0 c3bc 5ca5 1abd d44d 2b3d
000001c0: 6e3c ccbc 4e68 84bd 6935 613c 8327 21bc
000001d0: 927f 3fbc ca8a f93c 4169 483d 9f7d ca3c
000001e0: 7f49 133b 27f5 b93c 3bd8 7a3c 3541 f33c
000001f0: 0b72 893c 5241 aa3a 9c88 6d3c 99e4 783b
00000200: de28 4cbb 4675 e7bc e5d7 d5bc 738b b93c
00000210: ebb0 703b 5741 793c e89b 4d3b 1836 18bd
00000220: 9b67 483c c866 7e3b 91df 2dbd bb84 61bc
00000230: a130 3fbc 0ef3 ddbc 12c8 0abc ecb0 883b
00000240: 7496 fa3b 3e34 153d df59 1e3c 36d7 03bd
00000250: 5577 56bc af1b a7bc 1def d33b d917 df3a
00000260: 678c a3bc 9d55 59b8 54b9 7cbc 0c71 4a3c
00000270: 80eb e5bb 6484 903c 63ff 6d3c fc62 16bd
00000280: 8690 67bc 9b79 01bd 27ee 953c 5109 fd3a
00000290: fef8 f03a c119 e5bb 11d8 80bb e282 74bb
000002a0: 3320 aebb 14c4 e4ba 7d8e 57bb d952 923d
000002b0: 1851 763c a0ed 533c 72d1 17bd 808e 9ebc
000002c0: aed5 2ebc ac82 b93c a4f8 8e3c aa0f de3c
000002d0: 74e6 89bc 3de7 0cbd dc44 853b 1f7a 95bc
000002e0: c925 11bd c610 a9bb 04b9 603c 3c1f c4bb
000002f0: a423 58ba 142b edbc 89bc bebb 7149 45bc
00000300: ca2d 0dbd 8756 da3b cfab f93c b081 94bc
00000310: 6174 d53b 407c d03c e7db b53c 4879 eb3c
00000320: 2400 193d 547f 02bc 402a 1f3d 5642 7c3d
00000330: fde9 0fbd bfb5 36bc 6c2a fabc 8916 393c
00000340: ee78 2f3b 3bb3 80bc 34a3 65bb 503e 43bd
00000350: 4574 86bd abe3 22bc a094 cb3c 78bf f53c
00000360: 3863 3bb8 7637 d93c 6e3c 2e3d 0f44 a7bc
00000370: 1b26 a6bc d62a dabc 5a72 06bd 215c b83c
00000380: 0541 703d 78f4 fd3c c31f 5f3c 8d7d ec39
00000390: 3731 023d 02ae 0cbc 5e97 ebbc 4fee 44ba
000003a0: 4c1f a6bc 708b 46bd bb1e cabb fee3 07bb
000003b0: 8250 28bd 0d4c bcbc 7a3c 483d 3830 253c
000003c0: 48f9 11bd 7b0b 10bd c9af 05bd 07cb ac3a
000003d0: deef 3d3c ce18 a83c 6c82 2fbc 10b1 623b
000003e0: 225d 28bb 46df 11bc b695 483b ccd8 803c
000003f0: 5b93 c93a 81b2 053d 3d70 013d 7745 7bbc

tfeb.8.weight f4 [16]
0.2591815 0.2216417 0.2414454 0.24243143 0.21334502 0.1683235 0.16290464 0.27201435
0.32791394 0.2398641 0.12236329 0.19314726 0.17266603 0.25799862 0.29148883 0.19670986
00000000: 70b3 843e 0bf6 623e 773d 773e f23f 783e
00000010: 1e77 5a3e ff5c 2c3e 79d0 263e 7745 8b3e
00000020: 56e4 a73e ef9e 753e 9b99 fa3d 65c8 453e
00000030: 5dcf 303e 6518 843e 063e 953e 4f6e 493e

tfeb.8.bias f4 [16]
-0.07217788 0.026685905 -0.27544785 -0.042004228 -0.07306727 0.012918439 0.012770528 -0.07717705
-0.1915827 -0.0452799 -0.006730658 -0.1037572 -0.04506359 -0.14041854 -0.07249524 0.04631969
00000000: ffd1 93bd 669c da3c 8007 8dbe a00c 2cbd
00000010: 4ba4 95bd dca7 533c 7a3b 513c 000f 9ebd
00000020: 412e 44be 6b77 39bd da8c dcbb a87e d4bd
00000030: 9994 38bd e1c9 0fbe 6278 94bd b7b9 3d3d

tfeb.8.running_mean f4 [16]
-0.09078371 -0.022115985 0.017693343 -0.06206925 -0.0046042576 -0.021870099 -0.01620438 0.00012474842
-0.10128992 -0.050980177 0.08924125 -0.01609663 -0.023942314 -0.029422026 0.041611377 0.032935705
00000000: cfec b9bd 952c b5bc a1f1 903c 533c 7ebd
00000010: 50df 96bb ec28 b3bc 0cbf 84bc e6ce 0239
00000020: 1771 cfbd 97d0 50bd 1ec4 b63d 14dd 83bc
00000030: ac22 c4bc 7606 f1bc b170 2a3d 97e7 063d

tfeb.8.running_var f4 [16]
0.0013857805 0.0025493852 0.0014322522 0.0029082473 0.0016010713 0.00087225554 0.0017403577 0.004139534
0.0013617553 0.001852713 0.0016201134 0.00062971056 0.0019692476 0.0034322878 0.0042853914 0.0019516246
00000000: 14a3 b53a 9613 273b 69ba bb3a 4b98 3e3b
00000010: 0adb d13a 14a8 643a b71c e43a eea4 873b
00000020: ed7c b23a bbd6 f23a fc59 d43a 2913 253a
00000030: 7e0e 013b 3cf0 603b 786c 8c3b a8cd ff3a

tfeb.11.weight f4 [26, 16, 3, 3]
-0.011641008 -0.010815855 0.001104735 -0.020116393 -0.00892597 -0.027001934 -0.011604312 -0.0052622203
-0.005019951 -0.00047832116 -0.0034309584 -0.005533508 -0.020934496 -0.013266004 -0.0036821736 -0.013139938
-0.011676986 -0.014119788 -0.0012208305 -0.0046023345 -0.00024598403 -0.020427229 -0.023558132 -0.006686544
-0.012523268 -0.019805074 -0.014043162 -0.008959992 -0.002403937 -0.0038252894 -0.02049447 -0.017393425
-0.023630107 -0.013216902 -0.012982058 -5.1279614e-05 -0.0045211064 -0.003346367 -0.006351553 0.007342896
-0.0012538892 -0.0030668466 0.0071881595 -0.007032848 -0.008986545 -0.0043355436 -0.0024230178 -0.0018030116
-0.016072147 -0.00015873135 -0.010277739 0.0005659051 0.0038547323 0.0038000452 -0.0033190446 -0.019547913
-0.003873751 0.0036351802 0.0008224118 0.007909108 -0.0033665625 0.0032374193 0.011788797 0.00020741539
-0.010421517 -0.0070453673 0.012051309 -0.015117553 0.0070851725 0.015435911 -0.015839953 0.0048141363
0.010041811 0.0022165528 7.212697e-05 0.020302296 0.010536773 0.010065723 0.007116065 -0.0010837778
-0.0007604314 -0.02298892 -0.0012530744 0.0003427818 0.002668637 0.005342237 0.007913566 0.011713066
0.0055523813 -0.009571385 -0.013956451 -0.015142024 -0.006512239 -0.00548727 -0.012959209 -0.013257195
0.009593863 0.0074538095 0.003094811 -0.001224008 -0.004749572 -0.006944187 0.010906367 0.011217276
-0.0049440814 0.021698942 0.011921883 -0.009216534 0.0033551066 0.01698224 -0.025552902 0.0070882346
0.010333751 -0.019013127 0.029157631 0.009023446 -0.0071420763 -0.001680453 -0.01546602 -0.01540725
0.0057021095 0.0024806159 -0.0010137819 0.0036960696 0.010078022 0.013087673 0.01859804 0.0016211092
-0.0014068654 0.0050391946 -0.021794962 -0.017999817 0.016931988 -0.0016006664 -0.010219558 -0.018945148
-0.006762418 -0.02044428 -0.018704833 -0.0066278637 -0.008843342 -0.01751294 -0.018686127 -0.017446283
-0.01716144 -0.018909289 -0.020240754 0.020063594 -0.034787275 -0.04268747 -0.0005112283 -0.040755466
-0.025590427 0.011660224 0.018516418 -0.035544626 -0.02000019 -0.0054866304 -0.06308074 0.012199684
0.04125744 0.021168672 -0.026791409 -0.000873745 -0.03170768 -0.01215697 0.03212143 -0.012854568
-0.012046391 0.018225044 -0.0040718387 -0.0030967498 0.0015964789 -0.013225813 0.029200945 0.007827601
0.008123049 0.01504258 0.012305108 0.026135754 0.0027516624 -0.015076593 -0.019851344 -0.03446296
-0.027058816 -0.04554272 -4.6956953e-05 0.02401072 0.001649722 0.0035748228 0.01469198 0.0017682542
-0.0019136077 0.020093966 -0.0045748292 0.0073728017 0.017946789 0.018898733 0.011187602 -0.001461066
0.00047508837 0.025860595 0.0050861435 0.019915977 -0.008123785 -0.021119785 0.017913897 0.014848651
-0.0390664 0.030472739 -0.005973448 -0.0281703 0.040491495 0.00024578325 -0.014706422 0.0297128
0.021090962 -0.01664546 -0.0012316749 0.0095296595 -0.021567049 0.007076293 0.004458356 0.001763961
0.0011750167 0.012698173 -0.04347283 0.021573678 -0.013245501 -0.041180167 0.022901386 -0.024266755
-0.0040369546 0.009801684 -0.050274853 -0.019365564 0.00011313287 -0.052719112 -0.005364902 0.014486628
-0.02442521 -0.0043807393 -0.0014880336 0.03615358 -0.014612609 0.0043690912 0.02930665 -0.028491214
0.016475791 0.012034262 -0.016801262 0.031716805 0.030361045 -0.016044205 0.01418603 0.000986459
00000000: edb9 3ebc fc34 31bc c1cc 903a 22cb a4bc
00000010: 3b3e 12bc 2933 ddbc 0320 3ebc b46e acbb
00000020: 677e a4bb 2ec7 fab9 eed9 60bb 6e52 b5bb
00000030: d27e abbc a759 59bc 9f50 71bb e548 57bc
00000040: d450 3fbc af56 67bc 4604 a0ba 2ecf 96bb
00000050: 6bf7 80b9 0157 a7bc fcfc c0bc cc1a dbbb
00000060: 652e 4dbc 403e a2bc 4a15 66bc eecc 12bc
00000070: 5f8b 1dbb b5b1 7abb 05e4 a7bc a87c 8ebc
00000080: ed93 c1bc b48b 58bc b3b2 54bc 1115 57b8
00000090: ca25 94bb b94e 5bbb b020 d0bb ad9c f03b
000000a0: 8a59 a4ba 26fd 48bb a78a eb3b ce73 e6bb
000000b0: 4d3c 13bc 2d11 8ebb 7ecb 1ebb 0853 ecba
000000c0: bca9 83bc 1f71 26b9 f663 28bc 4059 143a
000000d0: ad9f 7c3b 2e0a 793b 5484 59bb f222 a0bc
000000e0: c2de 7dbb 343c 6e3b 1f97 573a 3495 013c
000000f0: 8ca1 5cbb e22a 543b cc25 413c a57d 5939
00000100: 03bf 2abc d3dc e6bb db72 453c 9daf 77bc
00000110: bc2a e83b e7e6 7c3c cac2 81bc e7bf 9d3b
00000120: 6886 243c 9643 113b df42 9738 0051 a63c
00000130: 6ea2 2c3c b4ea 243c e12d e93b 8c0d 8eba
00000140: b057 47ba 4253 bcbc 333e a4ba 65b7 b339
00000150: 4de4 2e3b ef0d af3b e7a7 013c 29e8 3f3c
00000160: c0f0 b53b 4cd1 1cbc 99a9 64bc 4016 78bc
00000170: 9f64 d5bb 8fce b3bb dd52 54bc b534 59bc
00000180: 942f 1d3c 163f f43b 50d2 4a3b e56e a0ba
00000190: 4ca2 9bbb 108c e3bb 9eb0 323c aac8 373c
000001a0: f601 a2bb fbc1 b13c 0054 433c f200 17bc
000001b0: 59e1 5b3b 571e 8b3c 5254 d1bc 6c44 e83b
000001c0: e54e 293c 6bc1 9bbc fcdb ee3c 13d7 133c
000001d0: 1408 eabb a542 dcba 3165 7dbc b16e 7cbc
000001e0: c3d8 ba3b d491 223b e0e0 84ba c239 723b
000001f0: 4a1e 253c ae6d 563c eb5a 983c 667b d43a
00000200: 9266 b8ba d41f a53b 598b b2bc 5a74 93bc
00000210: f4b4 8a3c 74cd d1ba ef6f 27bc db32 9bbc
00000220: 4697 ddbb c37a a7bc e13a 99bc 8d2e d9bb
00000230: aae3 10bc 4c77 8fbc a613 99bc 82eb 8ebc
00000240: 2696 8cbc a7e7 9abc f0cf a5bc 685c a43c
00000250: 1a7d 0ebd 0ed9 2ebd f303 06ba 34ef 26bd
00000260: 04a3 d1bc 860a 3f3c beaf 973c 3e97 11bd
00000270: 70d7 a3bc 31c9 b3bb 7a30 81bd 2fe1 473c
00000280: 90fd 283d ec69 ad3c a879 dbbc 090c 65ba
00000290: eadf 01bd 072e 47bc c391 033d f79b 52bc
000002a0: 3a5e 45bc b04c 953c 0f6d 85bb d7f2 4abb
000002b0: f140 d13a 15b1 58bc d236 ef3c 573f 003c
000002c0: 8916 053c 2775 763c 5d9b 493c a61a d63c
000002d0: 3c55 343b d003 77bc 499f a2bc 0829 0dbd
000002e0: 73aa ddbc 018b 3abd a5f3 44b8 21b2 c43c
000002f0: 7c3b d83a 9347 6a3b a1b6 703c c4c4 e73a
00000300: 05d2 faba 1a9c a43c 73e8 95bb 8b97 f13b
00000310: 2505 933c 84d1 9a3c 344c 373c 3d81 bfba
00000320: 4815 f939 99d9 d33c aaa9 a63b d526 a33c
00000330: a019 05bc 6603 adbc 2ac0 923c c247 733c
00000340: 1704 20bd f7a1 f93c eabc c3bb 67c5 e6bc
00000350: 69da 253d 78dc 8039 34f3 70bc 4268 f33c
00000360: f4c6 ac3c 0f5c 88bc 2770 a1ba 4a22 1c3c
00000370: 61ad b0bc 40e0 e73b 6717 923b b634 e73a
00000380: 0503 9a3a ff0b 503c 9110 32bd 48bb b03c
00000390: a803 59bc 89ac 28bd b09b bb3c 13cb c6bc
000003a0: 6e48 84bb 3e97 203c 01ed 4dbd 88a4 9ebc
000003b0: bf41 ed38 ffef 57bd 0fcc afbb 5259 6d3c
000003c0: 6117 c8bc 4e8c 8fbb 1f0a c3ba c715 143d
000003d0: b969 6fbc 982a 8f3b 8014 f03c 6866 e9bc
000003e0: 3df8 863c 5a2b 453c cda2 89bc 7be9 013d
000003f0: bab7 f83c 236f 83bc 866c 683c 124c 813a

tfeb.12.weight f4 [26]
0.09507363 0.20968644 0.16111174 0.2063169 0.2126016 0.25368068 0.14524998 0.10989164
0.088647686 0.10735294 0.21714437 0.12523778 0.16174316 0.16653563 0.1959078 0.17333452
0.09983612 0.1741643 0.18042359 0.08318306 0.17981574 0.12578444 0.085947625 0.23205502
0.14859143 0.15492444
00000000: f7b5 c23d 0bb8 563e 7afa 243e bd44 533e
00000010: 3cb4 593e 6fe2 813e 69bc 143e de0e e13d
00000020: eb8c b53d dcdb db3d 185b 5e3e 553e 003e
00000030: 00a0 253e 5188 2a3e 0e9c 483e 9b7e 313e
00000040: e176 cc3d 2058 323e f6c0 383e e15b aa3d
00000050: 9e21 383e a3cd 003e 4f05 b03d d59f 6d3e
00000060: 5a28 183e 83a4 1e3e

tfeb.12.bias f4 [26]
-0.0030253665 -0.006580664 -0.04726915 -0.02369126 -0.14098534 -0.08633738 0.0132292565 -0.090233155
0.021767471 -0.020050684 -0.15348229 -0.029248968 -0.096344195 -0.054714356 -0.049042292 -0.1292014
-0.02522355 -0.048329055 0.010718462 0.061354212 -0.01793609 0.07295554 -0.06349612 -0.11493183
-0.008591536 0.050936557
00000000: 3a45 46bb 9ca2 d7bb 4c9d 41bd 2c14 c2bc
00000010: 765e 10be a7d1 b0bd 86bf 583c 29cc b8bd
00000020: b251 b23c 5541 a4bc 762a 1dbe 889b efbc
00000030: 1b50 c5bd 291c 60bd 92e0 48bd 5f4d 04be
00000040: 9ea1 cebc b0f4 45bd 7d9c 2f3c 8e4e 7b3d
00000050: b5ee 92bc b769 953d 410a 82bd 6161 ebbd
00000060: 84c3 0cbc daa2 503d

tfeb.12.running_mean f4 [26]
-0.057327986 -0.027890703 -0.060311534 -0.070749536 0.04207616 -0.037350133 0.016245244 -0.06612583
-0.10728303 -0.07701174 -0.083116174 0.063632846 -0.07903939 -0.093813986 0.020175265 -0.060344025
-0.053248234 0.065026484 -0.07960243 -0.0889947 -0.10731843 0.01974918 -0.07805123 -0.09836548
-0.039326213 -0.12741219
00000000: c0d0 6abd 0b7b e4bc 3a09 77bd 22e5 90bd
00000010: 0d58 2c3d 74fc 18bd bf14 853c fb6c 87bd
00000020: 35b7 dbbd 55b8 9dbd d038 aabd f051 823d
00000030: 67df a1bd 8c21 c0bd 9946 a53c 4c2b 77bd
00000040: d21a 5abd 9b2c 853d 9906 a3bd da42 b6bd
00000050: c4c9 dbbd 08c9 a13c 53d9 9fbd d773 c9bd
00000060: 8614 21bd 5778 02be

tfeb.12.running_var f4 [26]
0.003390575 0.0054268246 0.0058940575 0.006974284 0.009833536 0.0063250978 0.0026329493 0.00996698
0.011284061 0.0054229363 0.0054972856 0.0030929155 0.0035031536 0.0065129 0.0052525406 0.0036880276
0.004230869 0.0057931556 0.007956916 0.008455516 0.01349386 0.0068323943 0.0047168764 0.0062577478
0.0044407146 0.011867818
00000000: 6934 5e3b 81d3 b13b f022 c13b 8988 e43b
00000010: d71c 213c c442 cf3b 8f8d 2c3b 8b4c 233c
00000020: c8e0 383c e3b2 b13b 9322 b43b 83b2 4a3b
00000030: 2a95 653b 2a6a d53b 811d ac3b d6b2 713b
00000040: 1aa3 8a3b 83d4 bd3b b95d 023c 0189 0a3c
00000050: 5a15 5d3c 47e2 df3b 0790 9a3b cb0d cd3b
00000060: 6a83 913b 3d71 423c

tfeb.14.weight f4 [40, 26, 3, 3]
-0.01685088 -0.014945219 -0.010323645 5.2601084e-05 -0.0029127565 -0.0045429617 0.025986278 -0.0038968795
-0.0005671687 -0.016571822 -0.03214597 -0.025694698 -0.002385979 -0.017659828 0.014551949 -0.0010213649
0.014662417 -0.02259927 0.041831214 0.0031788673 0.052159376 -0.018846482 -0.004491525 0.03412751
-0.038773637 0.013643344 0.0033808264 -0.019420587 -0.017882844 0.006262745 0.0033097262 -0.030402197
0.0032364472 0.032562822 0.007187675 0.015311278 -0.0016201227 -0.015535479 0.00081007794 -0.006766511
-0.019339073 -0.008818293 0.02168746 -0.022373948 -0.0067358445 -0.00037333588 0.0016094239 -0.027459806
0.0121751875 0.0046557575 -0.0036998044 0.0051180483 0.005286296 -0.0021862632 0.0010351177 -0.001484074
-0.018078268 0.002476546 -0.0020060593 -0.02048359 0.015089918 -0.02005154 0.00015051404 -0.0257362
-0.013618865 -0.0102805225 -0.02696958 -0.0007738965 0.0026362073 -0.020421332 0.00036007765 -0.004898856
-0.01902953 -0.019868853 -0.021417093 -0.0009307055 -0.0013061529 -0.015966594 0.00018847903 -0.0018423302
-0.022642562 0.0020840606 0.018591497 0.0019525599 -0.00028691563 0.0011382942 0.017282331 -0.0011590611
0.012846716 0.0192956 0.002194644 0.0296985 0.00689287 -0.023446681 0.0032280544 0.030506393
-0.0039056 -0.013520636 -0.0011395899 -0.0045132893 0.016207192 0.009708794 -0.002520784 -0.0012334575
0.0031385198 -0.010602797 0.0019137677 0.010807885 -2.131083e-05 -0.002149391 0.019003628 0.00021246895
-0.0084288195 0.0015175366 0.0030503627 0.010320301 -0.01858709 0.023072742 0.0050772843 0.019921815
0.02022681 -0.010974732 0.0027621507 0.0017497038 -0.0030312405 -0.021141116 0.00456104 -0.01612095
-0.01741494 -0.00045409784 0.0013909434 0.019939272 -0.010155766 0.008153521 0.006086324 0.0021565203
0.0058707423 -0.016933007 0.0039528604 0.015797507 0.00062525924 0.031561513 0.02345856 0.0038655614
0.0017571653 -0.0064798123 -0.018121282 -0.0014664142 -0.0107521815 0.0026283727 -0.0037802495 -0.00094636204
-5.0488634e-05 -0.0018076196 0.030297741 -0.0058335545 -0.007628626 -0.0027515558 -0.02002665 -0.0209369
-0.01262679 -0.014382287 0.00092641753 0.007333472 8.307012e-05 0.0034936243 0.012119707 -0.00014702031
0.017645137 -0.009772617 0.008402287 -0.010894495 -0.017470947 -0.0005894343 0.0022062059 -0.014087001
0.00055357465 0.0038594513 0.0014804906 0.0011435961 -0.014313516 0.034109082 -0.00015151738 -0.007339788
0.018691482 0.011071383 0.008196593 -0.007853751 0.01805445 -0.020765543 -0.011098369 -0.00907444
-0.018767653 -0.01801985 -0.019602286 -0.017371591 -0.006696608 -0.017215632 0.014570432 0.019627104
0.0111237 -0.014305434 -0.0028792303 0.004717374 -0.012296822 -0.017053204 0.0052308138 0.02557375
0.0037123158 0.000969112 0.003163526 -0.02632449 -0.0002602586 -0.001581994 -0.018514907 -0.011307255
-0.0051430827 -0.008551272 -0.0047068945 -0.003287476 -0.0044076378 -0.0103451125 -0.0022129905 -0.013920469
0.0038974192 -0.01299353 0.009905798 -0.0026106583 -0.0054369858 -0.008333403 -0.00025699468 0.016860249
-0.03252065 -0.037648834 -0.0108639905 -0.0009280466 0.0026962713 -0.0010237328 0.0151327895 0.021486087
-0.0013196839 -0.001962159 -0.0012352845 0.0024669133 -0.0032782354 -0.028846689 0.011380876 -0.012770914
-0.041591007 -0.008319311 -0.015686993 -0.012048573 0.0010422264 -0.019937463 -0.005310575 0.00045201377
00000000: db0a 8abc cbdc 74bc 8124 29bc fc9f 5c38
00000010: f2e3 3ebb 20dd 94bb 2de1 d43c ca62 7fbb
00000020: 0cae 14ba a1c1 87bc 7eab 03bd b07d d2bc
00000030: 165e 1cbb 58ab 90bc 4c6b 6e3c 52df 85ba
00000040: a23a 703c 1b22 b9bc 3557 2b3d 8b54 503b
00000050: 12a5 553d f063 9abc a42d 93bb 4ac9 0b3d
00000060: 1bd1 1ebd 5588 5f3c db90 5d3b ec17 9fbc
00000070: 0b7f 92bc b637 cd3b fee7 583b 070e f9bc
00000080: 931a 543b 9860 053d 9786 eb3b 28dc 7a3c
00000090: 4c5a d4ba 8688 7ebc 695b 543a 9cb9 ddbb
000000a0: fa6c 9ebc 9a7a 10bc e6a9 b13c 9249 b7bc
000000b0: 5cb8 dcbb 4bbc c3b9 4ef3 d23a 63f3 e0bc
000000c0: 707a 473c 538f 983b 6b78 72bb 4db5 a73b
000000d0: aa38 ad3b 6947 0fbb c9ac 873a 4385 c2ba
000000e0: e018 94bc 8c4d 223b 1778 03bb 34cd a7bc
000000f0: b43b 773c 2143 a4bc 4ed3 1d39 b9d4 d2bc
00000100: a921 5fbc a36f 28bc 4fef dcbc 51df 4aba
00000110: 38c4 2c3b a34a a7bc cec8 bc39 9586 a0bb
00000120: d1e3 9bbc 01c4 a2bc e672 afbc 97fa 73ba
00000130: 3833 abba 60cc 82bc 74a2 4539 587a f1ba
00000140: e57c b9bc bc94 083b 324d 983c 0aed ff3a
00000150: 2a6d 96b9 d132 953a ad93 8d3c a3eb 97ba
00000160: 087b 523c ce11 9e3c 04d4 0f3b 454a f33c
00000170: 96dd e13b 4113 c0bc c48d 533b 8be8 f93c
00000180: 18f5 7fbb a885 5dbc 4b5e 95ba 37e4 93bb
00000190: f2c4 843c a211 1f3c bd33 25bb f7ab a1ba
000001a0: a0af 4d3b 5bb7 2dbc 63d7 fa3a 8e13 313c
000001b0: a9c4 b2b7 ccdc 0cbb 7fad 9b3c 33ca 5e39
000001c0: 0819 0abc 14e8 c63a 98e8 473b 7b16 293c
000001d0: f443 98bc 0c03 bd3c 595f a63b 1333 a33c
000001e0: b2b2 a53c 5dcf 33bc 3305 353b 5156 e53a
000001f0: c7a7 46bb 2230 adbc c774 953b 1510 84bc
00000200: c7a9 8ebc fb13 eeb9 5150 b63a af57 a33c
00000210: 5f64 26bc 5996 053c c96f c73b 6854 0d3b
00000220: 5b5f c03b 17b7 8abc ff86 813b c669 813c
00000230: 70e8 233a a546 013d 2b2c c03c 5c55 7d3b
00000240: af50 e63a 9b54 d4bb 1573 94bc b234 c0ba
00000250: eb29 30bc c740 2c3b 10be 77bb 4815 78ba
00000260: c2c3 53b8 a6ed ecba f832 f83c 6727 bfbb
00000270: 8ef9 f9bb 7253 34bb ee0e a4bc dd83 abbc
00000280: 99e0 4ebc afa3 6bbc d4da 723a 9f4d f03b
00000290: ee35 ae38 4af5 643b bc91 463c 7729 1ab9
000002a0: 898c 903c 541d 20bc bfa9 093c d37e 32bc
000002b0: 3b1f 8fbc 4484 1aba fe95 103b 2acd 66bc
000002c0: c41d 113a d9ee 7c3b 050d c23a b8e4 953a
000002d0: 3d83 6abc f7b5 0b3d a3e0 1eb9 9b82 f0bb
000002e0: e11e 993c bf64 353c 014b 063c 05ad 00bc
000002f0: ede6 933c 801c aabc efd5 35bc f6ac 14bc
00000300: 9fbe 99bc 5d9e 93bc f994 a0bc de4e 8ebc
00000310: 386f dbbb cc07 8dbc d2b8 6e3c 05c9 a03c
00000320: 2e40 363c 5761 6abc 78b1 3cbb 3494 9a3b
00000330: 9c78 49bc 29b3 8bbc 3f67 ab3b 0a80 d13c
00000340: 534a 733b 010c 7e3a 2953 4f3b 75a6 d7bc
00000350: 5173 88b9 e95a cfba 93ac 97bc 1142 39bc
00000360: 4e87 a8bb a21a 0cbc 4b3c 9abb b272 57bb
00000370: f26d 90bb 8c7e 29bc d207 11bb ae12 64bc
00000380: d86b 7f3b d1e2 54bc ee4b 223c 9417 2bbb
00000390: be28 b2bb d388 08bc 3ebd 86b9 811e 8a3c
000003a0: 6034 05bd aa35 1abd e1fe 31bc 2748 73ba
000003b0: edb3 303b c62e 86ba 85ef 773c 9703 b03c
000003c0: 3ef9 acba 9197 00bb 45e9 a1ba f0ab 213b
000003d0: aad7 56bb e44f ecbc db76 3a3c 183d 51bc
000003e0: 555b 2abd b84d 08bc 0282 80bc 6167 45bc
000003f0: 519b 883a e453 a3bc 5504 aebb 43fc ec39

tfeb.15.weight f4 [40]
0.19252747 0.20388779 0.15477875 0.21988639 0.18582502 0.15178315 0.27527437 0.14374697
0.17708926 0.17707111 0.20744064 0.20784159 0.23381075 0.21010588 0.21105179 0.24480043
0.20218086 0.22968979 0.22438815 0.14431615 0.16906986 0.16772869 0.18644334 0.15757616
0.17585531 0.16627365 0.18505523 0.15005249 0.15961756 0.24714762 0.16357547 0.18919334
0.17538472 0.2464492 0.16736145 0.14258726 0.16131248 0.21404362 0.17056406 0.2003181
00000000: ec25 453e f6c7 503e 527e 1e3e e629 613e
00000010: ea48 3e3e 0b6d 1b3e c3f0 8c3e 6832 133e
00000020: e356 353e 2152 353e 526b 543e 6dd4 543e
00000030: 166c 6f3e ff25 573e f61d 583e f7ac 7a3e
00000040: 8008 4f3e cd33 6b3e 02c6 653e 9dc7 133e
00000050: a620 2d3e 12c1 2b3e 01eb 3e3e a55b 213e
00000060: 6a13 343e a443 2a3e 1e7f 3d3e 5ca7 193e
00000070: c972 233e 4414 7d3e 5480 273e e6bb 413e
00000080: 0d98 333e 2e5d 7c3e cd60 2b3e 6502 123e
00000090: 192f 253e 402e 5b3e 58a8 2e3e 3020 4d3e

tfeb.15.bias f4 [40]
-0.15871449 -0.15678585 -0.062336914 -0.13154174 -0.17924339 -0.0777159 -0.12682278 -0.03672272
-0.04419481 -0.19581039 -0.11259569 -0.15543777 -0.18167186 -0.01232129 -0.09333085 -0.071453385
-0.10792286 -0.19274332 -0.13971674 -0.0207787 -0.09667734 -0.17140837 -0.047884017 -0.1288323
-0.12028812 -0.11788121 -0.07326306 -0.075952195 -0.07936117 -0.11264738 -0.05220843 -0.06358389
-0.121853866 -0.12765081 -0.08339521 -0.10736492 -0.047442168 -0.1821238 -0.07840491 -0.112870544
00000000: 0d86 22be 788c 20be fe54 7fbd e1b2 06be
00000010: 948b 37be 8429 9fbd d5dd 01be 906a 16bd
00000020: 9e05 35bd 8582 48be 9298 e6bd 142b 1fbe
00000030: 3008 3abe 3cdf 49bc 3f24 bfbd 2756 92bd
00000040: a906 ddbd 815e 45be e811 0fbe 1838 aabc
00000050: c5fe c5bd ad85 2fbe 0822 44bd 9dec 03be
00000060: 9e59 f6bd b46b f1bd f10a 96bd d38c 9bbd
00000070: 1c88 a2bd abb3 e6bd 82d8 55bd 4538 82bd
00000080: 858e f9bd e5b6 02be 1ccb aabd 24e2 dbbd
00000090: b852 42bd a97e 3abe c192 a0bd ac28 e7bd

tfeb.15.running_mean f4 [40]
-0.029844422 -0.020764869 -0.065963194 -0.038381416 -0.042373147 -0.005070876 -0.029853918 -0.020608064
-0.017595971 -0.022533597 0.0139823295 -0.009851079 -0.0052403654 -0.039117403 -0.061176907 -0.018628972
-0.038658388 -0.0106101055 -0.014184547 -0.019745344 -0.018176932 -0.044743583 -0.020154592 -0.016065642
-0.018434897 -0.045604676 0.0052303197 -0.041405074 -0.03555418 -0.03610226 0.0035464638 -0.015116302
-0.029317234 -0.019884666 -0.01938337 -0.024020486 -0.01103958 0.004364875 0.0022889776 0.002242532
00000000: 4a7c f4bc 161b aabc b617 87bd d535 1dbd
00000010: 778f 2dbd 9729 a6bb 3490 f4bc 3ed2 a8bc
00000020: 6d25 90bc 6198 b8bc 2416 653c 6c66 21bc
00000030: 5fb7 abbb 9239 20bd a394 7abd c99b 98bc
00000040: 4258 1ebd 02d6 2dbc 4d66 68bc fdc0 a1bc
00000050: cae7 94bc 0c45 37bd 3e1b a5bc 189c 83bc
00000060: c804 97bc f8cb 3abd 1a63 ab3b 5e98 29bd
00000070: 43a1 11bd f7df 13bd ca6b 683b 5eaa 77bc
00000080: b22a f0bc 2be5 a2bc e0c9 9ebc 9cc6 c4bc
00000090: 5bdf 34bc 3a07 8f3b ac02 163b 72f7 123b
