refine_codes/retrained_models_after_second_stage_pruning/after_second_pruning_time_2024022015_prunratio0.83/retrained_model_after_second_pruning_0.83ratio_acc85.2272720336914_12th_epoch_20240220155925.pt (torch, 409758 bytes, 62 tensors)

sfeb.0.weight f4 [6, 1, 1, 9]
0	0x3e1bd02d	0.15216132
1	0x3e6c9a78	0.231058
2	0x3db76fb7	0.08956855
3	0x3f45c862	0.77258885
4	0xbe63d9d4	-0.22251064
5	0xbe9dddf5	-0.30833402
6	0xbebf394e	-0.37348408
7	0xbdebfb04	-0.11522487
8	0xbd55d1d2	-0.052202053
9	0xbc9ed980	-0.019390821
10	0x3d8d59d7	0.06901901
11	0x3e3dcfb6	0.18536267
12	0xbe94c6eb	-0.29058012
13	0x3de8e3c9	0.113715716
14	0xbf5d7334	-0.8650391
15	0xbebae274	-0.36500895
16	0x3edc22c6	0.4299528
17	0x3f2fc37c	0.6865766
18	0x3e345d11	0.17613627
19	0x3d0af89b	0.033928495
20	0x3c9bd194	0.019020833
21	0xbe744eda	-0.23858204
22	0xbd22655e	-0.039647453
23	0xbe7151f0	-0.23566413
24	0x3e32938a	0.17439094
25	0x3cba3178	0.022728667
26	0xbed73f65	-0.42040554
27	0x3f22ec34	0.6364167
28	0xbdd6fdd7	-0.10497635
29	0xbd780c3e	-0.06055855
30	0xbe9c4b0f	-0.30526015
31	0x3ca4f849	0.020137923
32	0xbe3cbbbd	-0.18430991
33	0x3dd4953b	0.10380026
34	0x3f062d70	0.5241308
35	0xbec53615	-0.38517824
36	0xbef96a56	-0.4871394
37	0xbf0f26a3	-0.5591833
38	0x3cefb360	0.029260337
39	0x3f165746	0.5872692
40	0x3dd88514	0.10572258
41	0x3e9bae26	0.30406302
42	0xbe7d8ec4	-0.24761492
43	0x3d2583d8	0.04040894
44	0x3de17c8f	0.11010086
45	0x3e0d7fff	0.13818358
46	0x3e127eb6	0.14306149
47	0xbe78816a	-0.24268118
48	0x3ec0a1e8	0.37623525
49	0xbf5c743e	-0.8611487
50	0x3f30ded6	0.6909002
51	0x3d82f872	0.063950434
52	0xbf828f19	-1.019992
53	0x3efc8f2a	0.49327976

sfeb.1.weight f4 [6]
0	0x3f4925ab	0.785731
1	0x3f6a18bb	0.91443986
2	0x3eec05d7	0.46098205
3	0x3ef945ed	0.48686162
4	0x3f22a853	0.6353809
5	0x3f114a6b	0.5675418

sfeb.1.bias f4 [6]
0	0x3d4efa6e	0.050531797
1	0x3dc204d5	0.09473578
2	0x3c114a9f	0.008867889
3	0x3f0ca6c7	0.5494198
4	0x3f0e4dee	0.5558766
5	0x3f19228f	0.5981836

sfeb.1.running_mean f4 [6]
0	0x3921ce09	0.0001543091
1	0xb867e053	-5.528361e-05
2	0xb9f36912	-0.00046426855
3	0x397996bd	0.00023802645
4	0xb8e5d3d9	-0.000109590306
5	0xb944831c	-0.00018740859

sfeb.1.running_var f4 [6]
0	0x3d2cab48	0.042155534
1	0x3d8d2dfb	0.06893536
2	0x3c20c8b7	0.009813479
3	0x3cd4e070	0.025985926
4	0x3d4db819	0.050224397
5	0x3c43dfba	0.011955196

sfeb.3.weight f4 [32, 6, 1, 5]
0	0xbdc1ba44	-0.094593555
1	0xbd1c44b1	-0.038151447
2	0xbd20c58b	-0.03925089
3	0xbc00a30e	-0.007851375
4	0xbb59adfe	-0.003321528
5	0xbce1814a	-0.02752747
6	0xbd1ff923	-0.039055955
7	0xbc91bec4	-0.01779116
8	0xbcfb49d8	-0.03067486
9	0xbb24dba5	-0.0025155332
10	0x3cfa4fe6	0.030555677
11	0x3d953700	0.07285881
12	0x3dd88952	0.10573067
13	0x3e4a24d1	0.19740607
14	0x3e14cddc	0.14531654
15	0xbd6a38ed	-0.057183195
16	0xbd3beb15	-0.04587849
17	0xbd68c4e5	-0.0568284
18	0x3ba2dbbd	0.0049700425
19	0x3c1a57e7	0.009420372
20	0x3cf7108c	0.030159257
21	0x3d83a3fc	0.06427762
22	0x3d57ca6c	0.05268328
23	0xbd867ba9	-0.06566555
24	0x3b9c73d2	0.004774549
25	0xbd7588d8	-0.059944957
26	0xbcbe2d88	-0.02321507
27	0x3c22f562	0.009946199
28	0x3b6fd04a	0.0036592656
29	0xbcba496a	-0.022740085
30	0xbdfbfbee	-0.12303911
31	0xbe03a405	-0.12855537
32	0xbd6fea5f	-0.058573123
33	0xbda85d88	-0.08220965
34	0xbd17c9dc	-0.037057742
35	0xbd587068	-0.052841574
36	0xbd616af7	-0.05503365
37	0x3b951918	0.0045501105
38	0x3d2ba04f	0.04190093
39	0xbd745207	-0.05964854
40	0x3e5fc826	0.21853694
41	0x3e801046	0.25012416
42	0x3e46e2d5	0.19422467
43	0x3e80f3d5	0.2518603
44	0x3e4c774e	0.19967386
45	0xbe1f66de	-0.15566584
46	0xbde91886	-0.113816306
47	0xbe122f27	-0.142758
48	0xbe337cc5	-0.17528065
49	0xbdc096fc	-0.09403798
50	0x3d26c60d	0.04071622
51	0x3dcd7223	0.100315355
52	0x3de9c0a5	0.11413697
53	0x3e0abaf1	0.13547875
54	0x3e1ea9bd	0.15494438
55	0xbd5c6fae	-0.053817444
56	0xbb099614	-0.0020993995
57	0x3ca8cf83	0.020606762
58	0xbd05b3f1	-0.03264231
59	0xbc847f52	-0.016173992
60	0xbe4a0076	-0.19726738
61	0xbe232a26	-0.15934047
62	0xbdc13af4	-0.094350725
63	0xbe06998a	-0.13144508
64	0xbd402219	-0.046907518
65	0x3ce5bca5	0.028044054
66	0xbd34e942	-0.044167764
67	0xbd9ce323	-0.076605104
68	0xbe2ecb3d	-0.17069717
69	0xbe93a78b	-0.28838763
70	0xbda87fcd	-0.08227501
71	0x3d618375	0.055057008
72	0x3da8c8ce	0.082414255
73	0x3e27b462	0.16377404
74	0x3e7003ca	0.23438945
75	0xbe156729	-0.14590134
76	0xbd890caf	-0.06691872
77	0xbd525b07	-0.05135634
78	0xbda3ac9d	-0.07991908
79	0xbd4176b3	-0.04723234
80	0x3e52fc37	0.20604025
81	0x3de62e9e	0.1123936
82	0x3da36342	0.07977916
83	0x3def7c95	0.11693684
84	0x3cd4c657	0.025973482
85	0xbc141572	-0.009038316
86	0xbba0f38f	-0.004911847
87	0xbb377894	-0.0027995454
88	0xbd62df4a	-0.055388726
89	0xbd22c75e	-0.039740913
90	0xbcba315c	-0.022728615
91	0xbbcff7a5	-0.00634666
92	0x3c54bfec	0.012985211
93	0xbd239838	-0.03994009
94	0xbdc28573	-0.0949811
95	0xbe1af85b	-0.15133803
96	0xbd9ad301	-0.07559777
97	0xbd99ffd3	-0.07519498
98	0xbdd6c692	-0.10487093
99	0xbd9f894d	-0.0778986
100	0xbee25738	-0.44207168
101	0xbea8cd7e	-0.32969278
102	0xbe59ee0b	-0.21282212
103	0xbe22c39e	-0.15894935
104	0xbe07d7da	-0.13265935
105	0x3e86cc8d	0.26327935
106	0x3e43c424	0.1911779
107	0x3e226b23	0.15861182
108	0x3dc2a50b	0.09504136
109	0x3d8cac24	0.06868771
110	0xbe1421b4	-0.14465982
111	0xbe57a9af	-0.21060823
112	0xbda59856	-0.080856964
113	0xbe08ab9f	-0.13346718
114	0xbdced27c	-0.100987405
115	0xbc222f47	-0.009898967
116	0xbafc75c2	-0.0019261169
117	0xbd1e44d6	-0.038639866
118	0xbd103127	-0.035203125
119	0x3bf381dc	0.007431252
120	0x3e161e56	0.1466001
121	0x3de42918	0.111406505
122	0xbd2bc4ad	-0.04193561
123	0x3c114e09	0.008868703
124	0x3ddad9a1	0.10686041
125	0xbe17db17	-0.1482967
126	0xbe1f870c	-0.1557886
127	0xbd19f449	-0.037586484
128	0xbda034b3	-0.078225516
129	0xbe50a383	-0.20374875
130	0xbdf42723	-0.11921527
131	0xbda980b1	-0.08276499
132	0xbdc82719	-0.09773082
133	0x3d0cf992	0.034417696
134	0x3df99f1a	0.12188549
135	0x3e7738cb	0.24142759
136	0x3ddda3a9	0.10822231
137	0x3db3d10c	0.08780107
138	0x3d77e078	0.060516804
139	0x3c47aa24	0.012186561
140	0xbe20db75	-0.15708716
141	0xbdd767da	-0.10517855
142	0xbdf77ddf	-0.12084555
143	0xbcec93c9	-0.028879063
144	0xbdc2d247	-0.095127635
145	0x3c8782a8	0.016541794
146	0x3cfb395b	0.030666998
147	0x3c1cdab6	0.009573629
148	0xbd79e055	-0.061004955
149	0xbd71555d	-0.0589193
150	0x3da3562f	0.079754226
151	0x3e0a533f	0.13508318
152	0x3db33b4c	0.08751544
153	0x3cbe54d9	0.023233818
154	0xbc3afb65	-0.011412476
155	0xbe0359f4	-0.12827283
156	0xbe1c1679	-0.15242948
157	0xbe04c68d	-0.12966366
158	0xbe049b86	-0.12949952
159	0xbdeeb3e2	-0.11655404
160	0xbe0be3fb	-0.13661186
161	0x3b3bc7a0	0.0028652921
162	0x3df6684d	0.120316125
163	0x3e40f5e7	0.18843804
164	0x3e315454	0.17317325
165	0x3dee9a78	0.11650556
166	0x3dafcffe	0.08584593
167	0x3de06de8	0.10958463
168	0xbc9c3ab8	-0.019070968
169	0xbdb21d59	-0.08697004
170	0xbdec2da1	-0.115321405
171	0xbe3f9b6b	-0.18711631
172	0xbe085a2d	-0.1331565
173	0xbdd3a991	-0.103350766
174	0xbdbb87ea	-0.09156783
175	0xbd0cc129	-0.0343639
176	0xbc8dd4e5	-0.01731343
177	0xbc502c82	-0.012705924
178	0xbca2c565	-0.019869516
179	0xbc02b0df	-0.00797674
180	0x3cae242a	0.021257479
181	0xbd7e2e9d	-0.062056173
182	0xbd385a1a	-0.045007803
183	0xbda1995d	-0.0789058
184	0xbdbb43fd	-0.09143827
185	0xbda6f25d	-0.08151696
186	0xbd1624c4	-0.036656156
187	0xbdab5121	-0.083650835
188	0x3cd9812b	0.02655085
189	0xbc15de74	-0.009147275
190	0xbbfb176e	-0.007662705
191	0xbc8d6ef1	-0.017264815
192	0xbdac67e3	-0.08418252
193	0xbdfad78c	-0.122481436
194	0xbded8fb1	-0.115996726
195	0x3e09536a	0.13410726
196	0x3dab5333	0.08365478
197	0x3bb32a7a	0.00546771
198	0xbd1cc371	-0.038272325
199	0xbd27d46e	-0.040974073
200	0xbdc8abff	-0.09798431
201	0xbdc5a612	-0.09650816
202	0x3a94eeaf	0.0011362637
203	0x3cf6406e	0.03006002
204	0xbc9bfa7e	-0.019040342
205	0xbc5b7156	-0.013393721
206	0xbd5862bb	-0.05282853
207	0xbccd67a9	-0.025073843
208	0xbc115d72	-0.008872377
209	0x3c46eaa2	0.012140902
210	0xbe45daa3	-0.19321685
211	0xbdfed0ca	-0.12442167
212	0xbdb47fbe	-0.088134274
213	0xbdf7c0be	-0.120973095
214	0x3b5d0156	0.003372272
215	0x3c44ebdc	0.012019124
216	0x3cf8a25c	0.030350856
217	0x3d351462	0.04420889
218	0xbdc45f14	-0.09588447
219	0xbdfc50cd	-0.12320099
220	0xbdfa9f93	-0.122374676
221	0xbdcff839	-0.101547666
222	0xbd6be116	-0.057587706
223	0x3cf26234	0.029587843
224	0x3e56167b	0.20907013
225	0xbe2d07dc	-0.1689753
226	0xbd340f6d	-0.043960024
227	0xbaafddf2	-0.0013417585
228	0x3d160863	0.036629092
229	0x3d27c521	0.04095948
230	0x3d9ffce5	0.07811908
231	0xb9e44bc8	-0.0004354401
232	0xbd459acc	-0.04824333
233	0xbb8b182c	-0.004244825
234	0x3bd42557	0.006474178
235	0x3d03f94c	0.03222017
236	0x3bd50251	0.0065005203
237	0x3b55027b	0.00325027
238	0x3cc2aad1	0.023763092
239	0xbda40e7c	-0.08010575
240	0x3dac1042	0.084015384
241	0x3ce17eea	0.027526338
242	0xbd5238ca	-0.05132369
243	0xbdd87e48	-0.10570961
244	0xbcd0404d	-0.025421286
245	0x3d21e0d3	0.03952105
246	0x3b768a93	0.0037619218
247	0x3c900dc5	0.01758469
248	0x3d97a504	0.07404521
249	0x3d98fd8e	0.07470237
250	0xbd79ccf5	-0.060986478
251	0xbcc4a5ff	-0.024004934
252	0x3d804092	0.06262316
253	0x3d63f61c	0.05565463
254	0x3bf35206	0.0074255494
255	0xbdc83a9e	-0.09776805

sfeb.4.weight f4 [32]
0	0x3e938bf1	0.28817704
1	0x3f3c4b97	0.7355284
2	0x3f591037	0.84790367
3	0x3f79862a	0.97470343
4	0x3f011386	0.50420415
5	0x3f1d55fa	0.61459315
6	0x3e773b16	0.24143633
7	0x3e87cfdb	0.2652577
8	0x3dd2a18c	0.10284719
9	0x3ef27169	0.4735215
10	0x3f22a2c6	0.6352962
11	0x3f1c1348	0.6096692
12	0x3eea875c	0.45806396
13	0x3ee7d485	0.45279327
14	0x3f08aa81	0.5338517
15	0x3f1f8a95	0.62320834
16	0x3e90b2a8	0.28261304
17	0x3ec3a0f6	0.3820874
18	0x3f2ce752	0.67540467
19	0x3f21d80f	0.63220304
20	0x3e74d283	0.23908429
21	0x3f10d7e8	0.56579447
22	0x3f0add18	0.5424361
23	0x3ecc0a60	0.39851665
24	0x3ed89b14	0.42305815
25	0x3f25fcdf	0.64838976
26	0x3f1b60b7	0.6069445
27	0x3f1a2478	0.60211897
28	0x3ecb8d7a	0.39756376
29	0x3eb9c720	0.36284733
30	0x3ed81069	0.4220002
31	0x3e4c5229	0.19953217

sfeb.4.bias f4 [32]
0	0xbd813f44	-0.06310895
1	0x3b83da00	0.0040237904
2	0xbe268b05	-0.16263969
3	0xbd92f7dc	-0.07176182
4	0xbdda5bbc	-0.10662028
5	0xbd6773a4	-0.056506768
6	0xbd0dcd6c	-0.034619734
7	0xbde0edf9	-0.1098289
8	0x3d850a42	0.06496097
9	0xbd5683e8	-0.05237189
10	0x3a5232e2	0.00080184464
11	0xbc48f10c	-0.012264501
12	0xbc13b67f	-0.009015678
13	0x3d79f47f	0.061024185
14	0x3c397630	0.011319682
15	0x3d2479cf	0.04015523
16	0x3c2e8c3b	0.010653551
17	0xbca98899	-0.020695018
18	0x3c85b162	0.016319934
19	0x3c006635	0.007836868
20	0xbc472cc9	-0.012156674
21	0xbc164bb2	-0.009173321
22	0xbd8266e7	-0.06367283
23	0xbdf12e7f	-0.117764466
24	0x3cab7828	0.020931318
25	0xbd75d909	-0.060021434
26	0xbe04ea42	-0.12979987
27	0x3c33d42c	0.010975879
28	0xbda5bd81	-0.080927856
29	0xbdb35c98	-0.08757895
30	0xbd638c13	-0.055553507
31	0x3d20145c	0.039081916

sfeb.4.running_mean f4 [32]
0	0xbdc4c0c8	-0.096070826
1	0xbdde3e70	-0.10851753
2	0xbe4aa4d8	-0.19789445
3	0xbea2e038	-0.3181169
4	0xbe280e2e	-0.16411659
5	0xbecad291	-0.39613774
6	0xbe6a948b	-0.22908227
7	0xbe60706a	-0.21917883
8	0xbde1c84f	-0.11024534
9	0xbf08181a	-0.53161776
10	0xbde436c3	-0.111432575
11	0xbecc098a	-0.39851028
12	0xbe5e46f8	-0.2170676
13	0xbe4ac97e	-0.19803426
14	0xbe95c27a	-0.29249936
15	0x3c0d8163	0.008636805
16	0xbed24335	-0.410669
17	0xbe5d3241	-0.21601202
18	0xbc7cbc75	-0.015425791
19	0xbd9cff84	-0.07665923
20	0xbe03990d	-0.12851353
21	0xbd3adefe	-0.04562282
22	0xbe90f837	-0.28314373
23	0xbeba78f7	-0.36420414
24	0x3b04b507	0.0020249502
25	0xbe5d6891	-0.2162192
26	0xbf0ebe88	-0.5575948
27	0xbda3ecd9	-0.080041595
28	0xbecc7a2f	-0.3993697
29	0xbe877f5a	-0.2646435
30	0xbd5d455b	-0.05402122
31	0xbc2beaac	-0.010492962

sfeb.4.running_var f4 [32]
0	0x3cc46a2b	0.023976406
1	0x3d7330f0	0.059372842
2	0x3e134921	0.14383365
3	0x3e8398e9	0.257026
4	0x3d9dc878	0.07704252
5	0x3db97ed6	0.09057395
6	0x3d820f19	0.06350536
7	0x3da188cf	0.07887422
8	0x3d218c5f	0.03944051
9	0x3e4441ed	0.19165774
10	0x3e8564f7	0.26053593
11	0x3e62a27d	0.22132297
12	0x3e4644cf	0.19362186
13	0x3e3cb638	0.18428886
14	0x3e803436	0.25039834
15	0x3f0a1263	0.53934306
16	0x3d5dcdd2	0.054151364
17	0x3dac5854	0.08415285
18	0x3ee935bb	0.45548806
19	0x3eb72058	0.35766864
20	0x3d44612a	0.047944225
21	0x3e85629f	0.26051804
22	0x3e0dd9a9	0.13852562
23	0x3dcf1acd	0.10112534
24	0x3d7a99a7	0.06118169
25	0x3e063308	0.13105404
26	0x3e491ce3	0.19639926
27	0x3db5e369	0.08881266
28	0x3e142748	0.1446811
29	0x3da66089	0.08123881
30	0x3cffcaf9	0.031224715
31	0x3b727871	0.0036998058

tfeb.0.weight f4 [11, 1, 3, 3]
0	0x3f3ba7c3	0.7330286
1	0xbf184fdf	-0.59496874
2	0xbeb5cd37	-0.3550813
3	0xbe0e2eea	-0.13885084
4	0xbcbbcf3b	-0.022925964
5	0x3d056127	0.032563355
6	0xbd72591a	-0.059167005
7	0x3c9c7619	0.019099282
8	0x3bd7ec02	0.0065894136
9	0xba5c131f	-0.0008395183
10	0x3c2f21f8	0.010689251
11	0xbab7b49f	-0.0014015621
12	0x391fb71c	0.00015231635
13	0x395c91da	0.00021035169
14	0x3a221919	0.00061835494
15	0x3c2b4595	0.010453601
16	0x3cabf69a	0.020991612
17	0x3ac11ffe	0.0014734266
18	0x3d80cc14	0.06288925
19	0xbed7d6dc	-0.42156112
20	0x3dfbd626	0.12296705
21	0x3e454e43	0.19268136
22	0xbf00917b	-0.50221986
23	0x3df0407e	0.11731051
24	0x3e1928a8	0.14956915
25	0xbe9a690d	-0.30158272
26	0x3dc4144a	0.09574182
27	0x3e3c5700	0.18392563
28	0x3e36b9bf	0.17844294
29	0xbed55a44	-0.4167043
30	0x3e7f9696	0.24959788
31	0x3e644940	0.22293568
32	0xbebd9ea7	-0.37035105
33	0x3e0f83d9	0.1401514
34	0x3dcd63ad	0.10028777
35	0xbde3a1de	-0.11114858
36	0xbf092f7e	-0.5358809
37	0x3d85befc	0.06530568
38	0x3e244391	0.160414
39	0xbf12c915	-0.57338077
40	0x3e108f27	0.14117108
41	0x3ecf5d4f	0.40500876
42	0xbe712376	-0.23548684
43	0x3d8fd815	0.07023636
44	0x3e2509e8	0.1611706
45	0xbb999a21	-0.004687563
46	0x3dafa316	0.08576028
47	0x3d4c9870	0.049950063
48	0xbd83f28b	-0.06442746
49	0x3ea47573	0.32120857
50	0x3d315ec1	0.043303255
51	0xbd6e34cd	-0.058155823
52	0x3e2c539c	0.1682877
53	0x3d24c0d7	0.04022297
54	0x3e7b3dfb	0.24535362
55	0xbdfe2d53	-0.12410989
56	0xbe8f5514	-0.27994597
57	0x3ebaf216	0.36512822
58	0xbde0250f	-0.10944568
59	0xbe8e98cc	-0.2785095
60	0x3e297a63	0.16550593
61	0xbdaebcc5	-0.08532099
62	0xbe4f0c3e	-0.20219514
63	0xbb1c2fe4	-0.0023832256
64	0xbb6ba54c	-0.003595668
65	0xbb4f31ff	-0.0031615493
66	0xb9a498a0	-0.00031394232
67	0xba97a728	-0.0011570202
68	0xba9c7473	-0.001193656
69	0x3c8058df	0.015667377
70	0x3c5598f4	0.013036955
71	0x3a681066	0.0008852541
72	0x3c52e31d	0.012871531
73	0x3cb74652	0.022372399
74	0x3a41b38d	0.0007389121
75	0xba5a98e3	-0.0008338822
76	0x3c6badfb	0.014384742
77	0x3c183889	0.009290823
78	0x3c88c43d	0.016695136
79	0x3d02802a	0.031860508
80	0x39c3d9e2	0.00037355634
81	0x3cfb861e	0.0307036
82	0x3d109489	0.035297904
83	0xbde3f861	-0.11131359
84	0x3d954af2	0.07289685
85	0x3d1be3b7	0.038058963
86	0xbe53d7ab	-0.2068774
87	0xbe7cf28a	-0.24701896
88	0xbeea796b	-0.4579576
89	0x3f2be803	0.67150897
90	0xbe8915be	-0.267744
91	0xbeae5d7d	-0.340557
92	0x3ed50985	0.41608825
93	0xbe6d63fd	-0.23182674
94	0xbea3e568	-0.3201096
95	0x3f0a71fa	0.54080164
96	0xbcc73b10	-0.024320155
97	0xbe65febe	-0.22460458
98	0x3e4df6db	0.20113699

tfeb.1.weight f4 [11]
0	0x3e53ee53	0.20696382
1	0x3d2fbd3a	0.04290507
2	0x3e9e5d86	0.30930728
3	0x3e1c2674	0.15249044
4	0x3e6b814b	0.2299854
5	0x3e3b09ba	0.18265429
6	0x3e2e5daf	0.17027925
7	0x3d171cf8	0.03689286
8	0x3da28338	0.07935184
9	0x3e7d87bd	0.24758811
10	0x3ebed6c3	0.37273225

tfeb.1.bias f4 [11]
0	0x3d598515	0.053105433
1	0xbd6e6f60	-0.058211684
2	0x3da08f59	0.078398414
3	0x3e207bb2	0.15672186
4	0x3e38a1a2	0.18030408
5	0x3e1e598c	0.15463847
6	0x3e80ab8f	0.2513089
7	0xbd3e5680	-0.04646921
8	0xbdc1ebad	-0.0946878
9	0x3d548ac2	0.051890142
10	0xbc8f4d57	-0.017492933

tfeb.1.running_mean f4 [11]
0	0xbe1fc9e2	-0.15604356
1	0x3c8d4438	0.017244443
2	0xbe4b68ea	-0.1986424
3	0x3d9a9ee4	0.07549837
4	0xbe115256	-0.14191565
5	0x3e748fc4	0.23882967
6	0xbdf90249	-0.12158639
7	0x3bef5c21	0.007304684
8	0x3d312c62	0.043255217
9	0xbdac5fc2	-0.08416702
10	0xbddc7263	-0.10764005

tfeb.1.running_var f4 [11]
0	0x3d8f63b9	0.070014425
1	0x3a006c6c	0.00048989686
2	0x3daf61e9	0.08563597
3	0x3d3ddff3	0.046356153
4	0x3dc9cac5	0.09853128
5	0x3db0b8cb	0.086289965
6	0x3d5a23ef	0.053256925
7	0x3975996e	0.00023422178
8	0x3b2998a6	0.002587834
9	0x3d04e894	0.032448366
10	0x3d965b84	0.07341674

tfeb.4.weight f4 [21, 11, 3, 3]
0	0x3b877e12	0.004134902
1	0xbbcb34ec	-0.006201377
2	0xbd378067	-0.04480019
3	0xbb45a0df	-0.00301557
4	0x3c8ef839	0.017452346
5	0xbb22fe5c	-0.0024870848
6	0xba83f88b	-0.0010068578
7	0x3ce33a89	0.027737873
8	0xbd1a044c	-0.037601754
9	0xbb51d01f	-0.003201492
10	0xbb33a3a5	-0.0027410772
11	0xbb8b96b3	-0.004259908
12	0xbb28402e	-0.002567302
13	0xbb07083b	-0.002060427
14	0xbb45e30b	-0.0030195143
15	0xbac87630	-0.0015294012
16	0xba6ebda4	-0.0009107238
17	0xbac3cea2	-0.0014938901
18	0x3d133579	0.035939667
19	0x3cb5addd	0.022177631
20	0x3c102a84	0.008799199
21	0xbc70b085	-0.014690523
22	0xbc96aa8b	-0.018391868
23	0xbd18e7dd	-0.037330497
24	0xbc755aa1	-0.014975221
25	0xbcf1542b	-0.02945908
26	0xbcf8c0fb	-0.030365458
27	0x3cacfd71	0.021116944
28	0x3bab21c4	0.005222531
29	0xbbaa3e05	-0.0051953816
30	0x3c2c1686	0.010503417
31	0xbc88231a	-0.0166183
32	0xbd0d4b2a	-0.03449551
33	0xbcbf9975	-0.023388604
34	0xbd81c365	-0.06336097
35	0xbd9dad2f	-0.07699048
36	0x3cb6c447	0.02231039
37	0x3d938241	0.07202578
38	0x3c8131de	0.015770849
39	0x399cfd72	0.0002994347
40	0x3cd79d84	0.026320226
41	0x3c8474e3	0.016169017
42	0xbd37360a	-0.04472927
43	0xbd6b305e	-0.057419173
44	0xbcdc712d	-0.026909435
45	0x3ca35ab3	0.01994071
46	0x3d65bb28	0.05608669
47	0x3cd0c118	0.0254827
48	0xbd07c33b	-0.03314517
49	0xbc9fd7cf	-0.019512085
50	0xbd1eebe7	-0.038799193
51	0xbd891cf4	-0.066949755
52	0xbdac22cc	-0.084050745
53	0xbdab6d36	-0.0837044
54	0x3d053e5a	0.032530166
55	0x3cadd4e3	0.021219676
56	0xbbe77cc7	-0.007064435
57	0x3cb9767f	0.022639511
58	0x3caae101	0.020859243
59	0xbc6403be	-0.013916908
60	0x3c81e19a	0.015854646
61	0x3c7dea9d	0.015497831
62	0xbc425897	-0.011861942
63	0xbb43ac2d	-0.0029857263
64	0xbb14b83e	-0.0022692825
65	0xbb49594e	-0.0030723396
66	0xbae5a499	-0.0017520367
67	0xbac1312c	-0.0014739386
68	0xbae96542	-0.0017806666
69	0xbaa742cb	-0.0012760995
70	0xba85a686	-0.0010196723
71	0xba8fc929	-0.0010969985
72	0xbbb00059	-0.005371135
73	0xbba4247a	-0.005009231
74	0xbbf41d26	-0.007449764
75	0xbb99ddf3	-0.004695648
76	0xbb821cd7	-0.003970723
77	0xbbbc5a38	-0.0057480596
78	0xbb37e5f9	-0.0028060658
79	0xbb04f905	-0.0020290029
80	0xbb3ca090	-0.0028782226
81	0x3c50870b	0.012727509
82	0x3d1fc2e3	0.039004218
83	0x3c52793f	0.01284629
84	0xbb1f328e	-0.0024291608
85	0xbd40110c	-0.046891257
86	0x3c133d4f	0.008986785
87	0xbc9c9328	-0.019113138
88	0x3ca45c96	0.02006368
89	0x3b5a3eb2	0.003330153
90	0x3d0ed591	0.03487164
91	0x3ce0997c	0.027416937
92	0x3d3e80a0	0.046509385
93	0x3c35b852	0.011091309
94	0x3a99779c	0.001170862
95	0x3cf1932a	0.029489119
96	0xbd188011	-0.03723151
97	0xbd84868b	-0.064709745
98	0x3c8f4fc2	0.017494086
99	0xb8ac83f3	-8.2261766e-05
100	0x3db63e5f	0.08898615
101	0xbbe385ac	-0.006943425
102	0xbd16f60b	-0.03685574
103	0xbe37b808	-0.17941296
104	0xbda6b448	-0.08139855
105	0xbcf30a9d	-0.029668147
106	0xbc95e884	-0.018299349
107	0xbd32c51d	-0.043645013
108	0xbade9423	-0.0016981404
109	0xbb2a5cea	-0.0025995323
110	0xbb3d2967	-0.002886379
111	0xb986e1cc	-0.00025726703
112	0xb9ddbae5	-0.00042291652
113	0xbac564e3	-0.0015059974
114	0x3b32df1d	0.002729363
115	0x3b2263a7	0.0024778636
116	0x3ae0a1b2	0.0017138033
117	0x3c77ea6f	0.015131577
118	0xbe19930d	-0.14997502
119	0xbcbf03d2	-0.023317251
120	0x3d8540bd	0.065064885
121	0xbe1f2eda	-0.15545216
122	0xbbf0bf3e	-0.0073470166
123	0x3cfda981	0.030964615
124	0xbdc3e4f7	-0.09565156
125	0x3c942132	0.018082235
126	0xbc131eba	-0.008979494
127	0x3b3a0ec3	0.0028390146
128	0xbbd03a2a	-0.00635459
129	0xbd59a8b8	-0.05313942
130	0xbc5a0e60	-0.013309091
131	0x3cd038b8	0.02541767
132	0x3c895ad7	0.016766949
133	0x3cb62eb1	0.022239061
134	0x3c91addb	0.017783096
135	0x3ce4aea4	0.027915306
136	0x3d15fdf1	0.03661913
137	0xbcbd3101	-0.023094656
138	0x3cd2e64d	0.025744582
139	0x3d3b4551	0.045720402
140	0xbd339d13	-0.04385097
141	0xbc548bca	-0.012972781
142	0x3cdc6307	0.026902689
143	0xbbd1d26f	-0.0064032595
144	0xbd4495fc	-0.0479946
145	0xbcb3291f	-0.021870194
146	0xbd8d7360	-0.06906772
147	0xbc8e68cf	-0.017383961
148	0x3d3a6a58	0.045511574
149	0x3cbe4c2c	0.023229681
150	0x3d00b307	0.031420734
151	0x3d237d5b	0.03991447
152	0x3c0100f4	0.007873762
153	0xbc3f5ccf	-0.011679842
154	0x3bf46489	0.007458274
155	0x3ab89219	0.0014081626
156	0xbd21282f	-0.039344963
157	0xbd288575	-0.0411429
158	0xbcaf7e59	-0.021422552
159	0xbc893d79	-0.016752945
160	0x3bb95f4e	0.005657113
161	0xba73b7eb	-0.000929712
162	0xba7b3b9b	-0.0009583772
163	0xb8297d55	-4.0409464e-05
164	0xbaace5b7	-0.0013191019
165	0x3934ab6f	0.00017230002
166	0x3ac72893	0.0015194587
167	0x3868229c	5.5345343e-05
168	0x3b1165fb	0.002218603
169	0x3b57d3b4	0.0032932581
170	0x3b0d3de7	0.002155179
171	0xbb8693a7	-0.004106957
172	0xbbc0d773	-0.0058850585
173	0xbbcd263b	-0.006260661
174	0xba6cd5f2	-0.0009034566
175	0xbae54826	-0.0017492815
176	0xbb577a84	-0.0032879421
177	0xbc100aab	-0.008791606
178	0xbbeedac7	-0.007289264
179	0xbc11465f	-0.008866875
180	0x3bd5cb75	0.006524498
181	0xbdd95edf	-0.10613798
182	0xbc96cba6	-0.018407654
183	0xbc03a098	-0.008033894
184	0xbd0ba121	-0.03408921
185	0x3cb4670b	0.022021791
186	0x3d88e84a	0.066849306
187	0x3c48cb92	0.012255566
188	0xbc215135	-0.009846021
189	0x3d8d405f	0.068970434
190	0xbe02f542	-0.12788871
191	0xbbc945cd	-0.006142354
192	0x3dad1f7e	0.08453272
193	0xbdc96989	-0.09834582
194	0xbc3515c2	-0.011052551
195	0x3d0172e1	0.031603698
196	0xbd821810	-0.06352246
197	0xbc715186	-0.014728909
198	0xbb817882	-0.003951133
199	0x3be9ddcc	0.007137036
200	0xbc030ba4	-0.007998381
201	0xbcd9dfb2	-0.026595924
202	0x3cab50e8	0.020912603
203	0xbda820ee	-0.08209406
204	0xbc46a92f	-0.012125297
205	0x3d5965b2	0.0530755
206	0xbb96053d	-0.004578261
207	0xbaad7153	-0.0013232626
208	0xba1336ea	-0.0005615788
209	0x39c8de1a	0.0003831245
210	0xb90e23c5	-0.000135555
211	0xb9687554	-0.00022168952
212	0xba71e44f	-0.0009227441
213	0x3a1f2bf1	0.00060719164
214	0x38dd2c2e	0.0001054633
215	0xb9e0533e	-0.0004278663
216	0x3c04c1f5	0.008102884
217	0xbd0830cd	-0.033249665
218	0xbbb098f3	-0.0053893267
219	0xbcaf7088	-0.021415964
220	0xbd0074f4	-0.031361535
221	0xbc7c0bdf	-0.01538369
222	0x3cc1e3b2	0.023668144
223	0xbc163f0d	-0.009170306
224	0xbb2859a0	-0.0025688186
225	0x3d4051ad	0.046952892
226	0xbc9c93f8	-0.019113526
227	0xbd0bc8da	-0.034127094
228	0x3c68b6f9	0.01420378
229	0xbda82386	-0.082099006
230	0xbde06073	-0.10955896
231	0x3d5330ee	0.051560335
232	0x3bfc86bf	0.0077064927
233	0xbc69600f	-0.014244094
234	0xbd039fb8	-0.03213474
235	0x3d51f5a9	0.05125967
236	0xbd405f56	-0.04696592
237	0xbdd2fc8a	-0.10302074
238	0xbd06057f	-0.032720085
239	0x3ba775a0	0.0051104575
240	0x3cb1979d	0.02167874
241	0x3d9bd183	0.076083206
242	0xbbcc0dc6	-0.006227228
243	0xbc220627	-0.009889162
244	0xbc96f99f	-0.018429575
245	0x3b1de42c	0.00240923
246	0xbd7690f2	-0.060196824
247	0xbdcbbb76	-0.09947865
248	0xbd67ee32	-0.056623645
249	0x3c7e3877	0.015516392
250	0x3c5fd8e5	0.0136625515
251	0x3c8d3e37	0.01724158
252	0x3b820f34	0.0039690975
253	0x3bc5fae9	0.0060418737
254	0xbd0536b1	-0.03252286
255	0x3b2c360d	0.0026277334

tfeb.5.weight f4 [21]
0	0x3e0f2dec	0.13982362
1	0x3e9add2c	0.30246866
2	0x3e9ad4c2	0.30240446
3	0x3e08137a	0.1328868
4	0x3e0942ad	0.13404341
5	0x3ee0034e	0.4375252
6	0x3d39a5bd	0.045324076
7	0x3e475c2c	0.19468755
8	0x3eb5dfb6	0.3552224
9	0x3e9b783c	0.3036517
10	0x3dfc194d	0.12309513
11	0x3db34b09	0.08754546
12	0x3c74acc4	0.014933769
13	0x3e1d39c9	0.15354075
14	0x3ea487e9	0.3213494
15	0x3da95005	0.08267216
16	0x3e66e6b4	0.22548944
17	0x3e438556	0.19093832
18	0x3db71c45	0.08940939
19	0x3e2a45f8	0.16628253
20	0x3e0585cb	0.13039319

tfeb.5.bias f4 [21]
0	0x3cb111a4	0.021614857
1	0xbc9d9ec7	-0.01924075
2	0xbe25fed0	-0.16210485
3	0xbce95ca5	-0.02848656
4	0x3e2aaa27	0.1666647
5	0xbd8a539b	-0.06754228
6	0x3ca0c82c	0.0196267
7	0x3d48dfaf	0.049041446
8	0xbd975a9e	-0.07390331
9	0xbe3a629c	-0.18201679
10	0x3c801a67	0.01563759
11	0x3e2278ec	0.1586644
12	0x3de4bf51	0.11169303
13	0x3b85d0c7	0.004083726
14	0xbdde082e	-0.10841404
15	0xbe701605	-0.234459
16	0xbdbc3724	-0.09190205
17	0x3d17d6fc	0.03707026
18	0xbd093511	-0.033497874
19	0x3d6f18aa	0.05837313
20	0x3d02c03c	0.03192161

tfeb.5.running_mean f4 [21]
0	0xbd3d1f6c	-0.046172544
1	0xbe1ef4a8	-0.15523016
2	0xbe14d81b	-0.14535563
3	0xbe0fbc77	-0.14036737
4	0xbe390d71	-0.18071534
5	0xbe0f0d36	-0.13969883
6	0x3c86ba1e	0.01644617
7	0xbe450068	-0.19238436
8	0xbe524276	-0.20533165
9	0xbe1b912a	-0.15192094
10	0xbcc89e72	-0.024489615
11	0xbe3654ea	-0.1780583
12	0xbb81ee7a	-0.003965196
13	0x3d515e5a	0.05111537
14	0xbe213ee8	-0.15746653
15	0x3cb155f7	0.021647437
16	0xbdc09906	-0.09404187
17	0xbdecd120	-0.11563325
18	0xbd9a4ccf	-0.07534181
19	0x3cc861ae	0.02446064
20	0xbe59b6ca	-0.21261135

tfeb.5.running_var f4 [21]
0	0x3c2cacef	0.010539277
1	0x3c92dcd6	0.017927568
2	0x3bd3a3be	0.0064587286
3	0x3b80ad8b	0.003926938
4	0x3c2aeabf	0.010431944
5	0x3c88e826	0.01671226
6	0x3b5a534d	0.0033313811
7	0x3c51fb88	0.012816317
8	0x3c1c421b	0.009537245
9	0x3bd9619d	0.006633951
10	0x3a86faea	0.0010298167
11	0x3c275ff5	0.010215749
12	0x3bbf0d79	0.0058304635
13	0x3bb3e1cb	0.005489563
14	0x3c290996	0.010317227
15	0x3ac69fc5	0.0015153816
16	0x3c15d754	0.0091455765
17	0x3c8a436d	0.016877854
18	0x3a914ab9	0.0011084891
19	0x3b8c281c	0.0042772423
20	0x3c1dc40d	0.009629262

tfeb.7.weight f4 [16, 21, 3, 3]
0	0x3ccc870e	0.024966743
1	0x3c98cd09	0.018652456
2	0x3ca3551d	0.019938046
3	0x3d37d39f	0.044879552
4	0x3c3d013f	0.011535942
5	0xbce06632	-0.02739248
6	0x3d5bbe2c	0.05364816
7	0x3caed6dd	0.02134269
8	0xbb41e04a	-0.002958315
9	0x3c53a504	0.012917761
10	0x3bc3c2c7	0.005974147
11	0x3cbbf98f	0.022946147
12	0xbd839832	-0.06425513
13	0xbceb279a	-0.028705407
14	0xbca8209a	-0.020523358
15	0x3b40e4b1	0.0029433186
16	0x3a6d398a	0.00090494065
17	0x3c553777	0.013013712
18	0xbbc57d1d	-0.0060268776
19	0x3c1c4979	0.009539002
20	0x3d389190	0.045060694
21	0xbd19c7eb	-0.037544172
22	0xbbb5b8be	-0.0055457046
23	0x3ce338f6	0.027737122
24	0xbbfbb55a	-0.007681531
25	0xbad5a7a8	-0.0016300576
26	0xbc406a04	-0.011744026
27	0xbc2dac41	-0.010600151
28	0xbc2678f7	-0.010160676
29	0xbcfec7ec	-0.03110119
30	0xbcca0918	-0.02466254
31	0xbd108811	-0.035286013
32	0xbd3d6234	-0.046236232
33	0x3d1a12b8	0.037615508
34	0x3b5ca2d3	0.0033666387
35	0xbcbd0819	-0.02307515
36	0xbc058dfb	-0.008151527
37	0xbb931a0e	-0.00448919
38	0x3c4fc926	0.012682235
39	0xbdab2b94	-0.08357921
40	0xbd086617	-0.033300485
41	0x3cd9d6e2	0.026591722
42	0xbd1bc0ea	-0.038025774
43	0x3b80459d	0.0039145485
44	0x3d3f1c82	0.046658047
45	0xbceeb665	-0.029139707
46	0x3c047dd1	0.008086638
47	0x3cc67f41	0.024230601
48	0xbd2e636b	-0.04257528
49	0xbcf12e7d	-0.029441113
50	0xbcd5ec19	-0.026113557
51	0x3c735941	0.014852823
52	0xbbcff842	-0.0063467333
53	0xbc34a5fa	-0.0110259
54	0x3c0de5a0	0.008660704
55	0x3c07579c	0.008260634
56	0x3bb92c22	0.005651013
57	0x3c044d94	0.008075137
58	0x3bbdf524	0.0057970453
59	0xbc1ccd84	-0.009570483
60	0x3ccd17a4	0.025035687
61	0x3b545a41	0.0032402428
62	0xbca173d3	-0.01970855
63	0xbd0dab97	-0.03458747
64	0xbab656af	-0.0013911332
65	0x3b8712e5	0.0041221255
66	0xbd8c8396	-0.068610355
67	0xbbdf2bea	-0.006810655
68	0xbc53a67d	-0.012918112
69	0x3c0a6314	0.008446474
70	0x3ceffbae	0.029294815
71	0x3c14b1d7	0.009075603
72	0x3ce9c313	0.028535401
73	0x3cb9dc2b	0.022687992
74	0x3c830c55	0.015997091
75	0x3a2a85d5	0.0006504928
76	0xbbd0743e	-0.0063615134
77	0x3ceb60bf	0.028732656
78	0xbc67f463	-0.014157387
79	0xbbe50035	-0.00698855
80	0x3c013780	0.007886767
81	0xbc91a52c	-0.017778955
82	0x39078017	0.0001292232
83	0x3caaeda8	0.020865276
84	0xbd8128d9	-0.06306619
85	0xbc785606	-0.015157228
86	0x3c7f987a	0.015600318
87	0xbd299a12	-0.0414067
88	0x39a4df42	0.00031446858
89	0x3d62fe2e	0.055418186
90	0x3b492ab8	0.0030695628
91	0xbbce1321	-0.0062889014
92	0x3c1a4bfd	0.009417531
93	0x3bf1eca8	0.007382948
94	0xba93652d	-0.0011245363
95	0x3b310ea2	0.0027016778
96	0xbc6d94af	-0.014500781
97	0xbcb6d309	-0.022317426
98	0xbcab4ac0	-0.020909667
99	0xbd7799ab	-0.060449284
100	0xbdaea8d2	-0.08528294
101	0xbd66b9cf	-0.056329545
102	0xbd902b18	-0.070394695
103	0xbd853b9d	-0.06505511
104	0xbc9ad1df	-0.018898902
105	0xbc9c6bdd	-0.019094402
106	0xbc765e3e	-0.0150371175
107	0x3cac5621	0.021037163
108	0x3c081921	0.008306772
109	0xbcc2dbdb	-0.023786476
110	0xbd194b27	-0.037425186
111	0x3d316fa1	0.04331935
112	0xbcd2c118	-0.02572684
113	0xbd868fba	-0.065703824
114	0x3c7d6cb0	0.015467808
115	0xbc19c055	-0.009384234
116	0xbc3382fd	-0.010956523
117	0x3d2e86e1	0.0426091
118	0x3d3a4892	0.045479365
119	0x3cc9e77f	0.024646519
120	0x3bc92f27	0.006139654
121	0x3c70eea2	0.014705332
122	0x3c22b50a	0.009930858
123	0x3cdb7222	0.026787821
124	0x3bd5b947	0.006522331
125	0xbbd7679c	-0.0065736305
126	0x3c68295c	0.014170017
127	0x3a3341a9	0.0006838092
128	0xbba56a7d	-0.005048095
129	0xbcee4a73	-0.029088235
130	0xbcf76dbf	-0.030203698
131	0x3cac732b	0.02105101
132	0x3b6f6f71	0.003653493
133	0x3c3826f3	0.011239755
134	0x3ab8d1bf	0.0014100595
135	0xbd1bb727	-0.038016465
136	0x3c02779a	0.007963086
137	0x3adbd2e5	0.0016771225
138	0xbd371f45	-0.044707555
139	0xbc8bf55c	-0.01708477
140	0xbc7a57b3	-0.015279698
141	0xbd0114ce	-0.03151398
142	0xbc50b8a2	-0.012739332
143	0x387c6163	6.017218e-05
144	0x3b703cb5	0.0036657278
145	0x3d0d2f63	0.03446902
146	0x3c1968ff	0.009363412
147	0xbd1c3800	-0.038139343
148	0xbc9f61e3	-0.019455856
149	0xbcb0135c	-0.021493606
150	0x3b048e29	0.0020226336
151	0xbba6601e	-0.005077376
152	0xbcae1a1e	-0.021252688
153	0xbbc81f49	-0.006107245
154	0xbcaef1f4	-0.021355607
155	0x39cb7ff9	0.00038814524
156	0xbbfbf861	-0.007689521
157	0x3c81ce19	0.015845345
158	0x3c1dc44b	0.009629319
159	0xbd1bfed6	-0.038084827
160	0xbc92579b	-0.01786404
161	0xbd0fa181	-0.03506613
162	0x3c92c748	0.01791729
163	0x3a612afd	0.00085894746
164	0x3ab6d471	0.001394881
165	0xbbfa944e	-0.007647074
166	0xbb9f879e	-0.0048684618
167	0xbb8c541d	-0.004282488
168	0xbbbb4c86	-0.0057159094
169	0xbb135840	-0.002248302
170	0xbb5b7a8b	-0.003348979
171	0x3d865cf1	0.06560696
172	0x3be4bf5a	0.0069808187
173	0x3b8bea71	0.004269891
174	0xbd349fc4	-0.044097677
175	0xbcdba10d	-0.026810193
176	0xbc99b68b	-0.018763801
177	0x3c605211	0.013691441
178	0x3bf7feea	0.00756823
179	0x3c603cd4	0.013686378
180	0xbc8fb550	-0.017542511
181	0xbcfcaaee	-0.030843224
182	0x3bf451e2	0.0074560503
183	0xbc99e00f	-0.018783597
184	0xbd00439e	-0.031314485
185	0xbb02bb5d	-0.0019948103
186	0x3c712d41	0.014720262
187	0xb90b5b4e	-0.00013290087
188	0x3b33c63b	0.0027431387
189	0xbcefa675	-0.029254178
190	0xbb9c37d5	-0.004767398
191	0xbc31482d	-0.010820431
192	0xbd064bbc	-0.03278707
193	0x3c00ff90	0.007873431
194	0x3d062c1f	0.03275692
195	0xbca12bdc	-0.019674234
196	0x3b78a352	0.0037939143
197	0x3ccdd033	0.025123691
198	0x3cb06071	0.021530362
199	0x3cddc22f	0.027070133
200	0x3d07eb8c	0.03318362
201	0xbbcb3f07	-0.006202582
202	0x3d18bdf3	0.037290525
203	0x3d48c9b9	0.049020503
204	0xbd052cb7	-0.032513347
205	0xbc226056	-0.009910664
206	0xbcf15d94	-0.029463567
207	0x3ca4f3a5	0.02013571
208	0x3b947779	0.004530844
209	0xbc80f6a6	-0.015742611
210	0x39a78cb1	0.00031957545
211	0xbd40716c	-0.046983168
212	0xbd89bd8e	-0.06725608
213	0xbb494e1c	-0.0030716723
214	0x3ce3cf9d	0.027808959
215	0x3d073631	0.033010665
216	0xba435966	-0.0007451981
217	0x3cd5bab8	0.026090011
218	0x3d2c98f7	0.042138066
219	0xbca3b0c5	-0.019981751
220	0xbc9f3e7e	-0.019438978
221	0xbcd72d51	-0.026266726
222	0xbd0a8e16	-0.03382691
223	0x3cc298cf	0.023754505
224	0x3d72d471	0.05928463
225	0x3d08d545	0.033406515
226	0x3c6ac181	0.0143283615
227	0x3aea1337	0.001785851
228	0x3d0a5654	0.033773735
229	0xbc1ea0d3	-0.009681898
230	0xbcec98a9	-0.028881388
231	0xbb3c431e	-0.0028726528
232	0xbcbbd576	-0.022928935
233	0xbd52602c	-0.051361248
234	0xbbe1aa5d	-0.006886764
235	0xbb9b6e53	-0.0047433763
236	0xbd262b36	-0.040568553
237	0xbcb1f697	-0.021724029
238	0x3cc5e98c	0.024159215
239	0x3c32fda9	0.010924735
240	0xbd0fcb82	-0.03510619
241	0xbcf5a6cd	-0.029986763
242	0xbd081313	-0.033221316
243	0xb96cc7fd	-0.00022581215
244	0x3c3dbafa	0.011580223
245	0x3ca9f8b7	0.02074848
246	0xbc505017	-0.012714407
247	0x3b3e2e18	0.0029019173
248	0xbb3f27f2	-0.0029168096
249	0xbc35a49b	-0.011086608
250	0x3a256fc9	0.0006310908
251	0x3c731c66	0.014838314
252	0x3b9aa56f	0.0047194283
253	0x3cebb98e	0.028775003
254	0x3d01493f	0.031563994
255	0xbc76af57	-0.015056453

tfeb.8.weight f4 [16]
0	0x3e7c014e	0.24609873
1	0x3e6b8cd1	0.23002936
2	0x3e7cda3a	0.24692622
3	0x3e7b40cb	0.24536435
4	0x3e5ec3c3	0.21754365
5	0x3e2e6481	0.17030527
6	0x3e3fa367	0.18714677
7	0x3e8b76d5	0.272391
8	0x3ea9d42b	0.33169684
9	0x3e798812	0.24368313
10	0x3df2152b	0.11820444
11	0x3e3e13c9	0.18562235
12	0x3e44fa9d	0.19236226
13	0x3e8471b6	0.25868005
14	0x3e9a9914	0.30194914
15	0x3e51eaa8	0.2049967

tfeb.8.bias f4 [16]
0	0xbd9c8117	-0.076418094
1	0x3ccb3094	0.024803437
2	0xbe8f97d6	-0.2804553
3	0xbd514654	-0.05109246
4	0xbd9bba23	-0.07603862
5	0x3bb001b7	0.005371298
6	0x3c795333	0.01521759
7	0xbda0bdfe	-0.07848738
8	0xbe4b09b7	-0.19827925
9	0xbd3b9f26	-0.045806073
10	0xbc36db62	-0.011160703
11	0xbddb1961	-0.106982
12	0xbd558bd5	-0.052135307
13	0xbe17a0d8	-0.14807451
14	0xbda91530	-0.08255994
15	0x3d360c0a	0.044445075

tfeb.8.running_mean f4 [16]
0	0xbdcb69b8	-0.099322736
1	0xbd2a7c0b	-0.041622203
2	0x3cbd4751	0.023105295
3	0xbd92f06c	-0.07174763
4	0xbb6426b1	-0.00348131
5	0xbcee75b3	-0.029108858
6	0xbbf1eb3a	-0.0073827775
7	0x3bd03557	0.006354015
8	0xbdb3142f	-0.08744084
9	0xbd625464	-0.055256262
10	0x3dbdf389	0.09274966
11	0xbc2bc221	-0.010483296
12	0x3b26edd0	0.0025471337
13	0xbcd75ace	-0.026288416
14	0x3d69da0e	0.05709272
15	0x3bc6e0e0	0.0060692877

tfeb.8.running_var f4 [16]
0	0x3ac39827	0.0014922664
1	0x3b2d34ba	0.0026429133
2	0x3ade4419	0.001695755
3	0x3b62af19	0.003458923
4	0x3aec6aa1	0.0018037149
5	0x3aaa65c2	0.0013000297
6	0x3b1b27cb	0.0023674842
7	0x3c034017	0.008010886
8	0x3ad39fd7	0.0016145658
9	0x3b4291a3	0.0029688857
10	0x3af2d972	0.0018527939
11	0x3a8874fa	0.0010410838
12	0x3b324b96	0.0027205697
13	0x3bb1fe07	0.0054318937
14	0x3b95b53c	0.004568724
15	0x3afb4640	0.0019170716

tfeb.11.weight f4 [26, 16, 3, 3]
0	0xbbaeb555	-0.005331675
1	0xbb9c5964	-0.0047713984
2	0x3bf028ba	0.0073290737
3	0xbc5dec21	-0.013545067
4	0xbb43714c	-0.002982217
5	0xbcb15e93	-0.021651542
6	0xbae53d9a	-0.0017489672
7	0x3b5263c8	0.0032102931
8	0x3b4c0c67	0.0031135322
9	0xba355eac	-0.0006918709
10	0xbb840e0c	-0.004029995
11	0xbbc13654	-0.005896369
12	0xbcb08ee2	-0.021552507
13	0xbc7190cf	-0.014743998
14	0xbb9b2a59	-0.004735273
15	0xbc4c3455	-0.012463649
16	0xbc3ef994	-0.011656184
17	0xbc688708	-0.01419235
18	0x3a6b278a	0.00089704304
19	0xbb44da14	-0.0030037211
20	0x3a5f7609	0.00085243635
21	0xbc74221a	-0.014900709
22	0xbc96a907	-0.018391145
23	0xbb14186a	-0.002259756
24	0xbc085f80	-0.00832355
25	0xbc7f534a	-0.0155838225
26	0xbc220d74	-0.009890903
27	0xbc105696	-0.008809706
28	0xbb2b1939	-0.0026107563
29	0xbb76be3b	-0.0037650007
30	0xbcacba0f	-0.021084813
31	0xbc960713	-0.01831392
32	0xbcc9d01d	-0.024635369
33	0xbc50ebd2	-0.012751536
34	0xbc5b9d24	-0.013404164
35	0xb9a6c0c0	-0.00031805597
36	0xbba1c799	-0.004937124
37	0xbb6870cf	-0.003546763
38	0xbbd55cd9	-0.0065113124
39	0x3be8de08	0.0071065463
40	0xbac72c40	-0.0015195683
41	0xbb523f26	-0.0032081096
42	0x3bf12431	0.0073590507
43	0xbbf10478	-0.007355269
44	0xbc0e2a00	-0.008677006
45	0xbb801514	-0.0039087627
46	0xbb201ea5	-0.0024432328
47	0xbae35047	-0.001734265
48	0xbc83682f	-0.01604089
49	0xb860a916	-5.3563235e-05
50	0xbc2dbfdb	-0.010604824
51	0x3aa1b915	0.0012338484
52	0x3b7c8aaf	0.003853481
53	0x3b67acdd	0.0035350837
54	0x381277dd	3.4920744e-05
55	0xbc88638a	-0.016649026
56	0xbaff55b6	-0.00194805
57	0x3c064d7c	0.008197185
58	0x3bae4c3b	0.005319146
59	0x3c37a406	0.01120854
60	0x3a06b9cf	0.0005139382
61	0x3bf35c4a	0.007426773
62	0x3c7382db	0.014862741
63	0x3b1663be	0.0022947635
64	0xbc10ec24	-0.008845363
65	0xbb9bc0c3	-0.0047532036
66	0x3c8d016c	0.017212592
67	0xbc2e3df4	-0.010634888
68	0x3c49bea7	0.0123135215
69	0x3c9c114d	0.019051218
70	0xbc368e3f	-0.011142313
71	0x3c149788	0.009069331
72	0x3c387497	0.011258266
73	0x3b06e994	0.0020586
74	0xb8ae7a68	-8.3197665e-05
75	0x3cb29744	0.021800645
76	0x3c28828b	0.01028503
77	0x3c255a07	0.010092265
78	0x3c1a7950	0.009428337
79	0xba5c4301	-0.00084023183
80	0xb8c5a8f2	-9.4251605e-05
81	0xbcc319cc	-0.023816012
82	0xbacf5a04	-0.0015819673
83	0x3a2f6a3e	0.00066915515
84	0x3b43d777	0.0029883066
85	0x3bc67782	0.006056727
86	0x3c12c4c0	0.008958042
87	0x3c45d060	0.012073606
88	0x3bb800e7	0.005615342
89	0xbc144638	-0.009049945
90	0xbc66243e	-0.014046727
91	0xbc79f6c6	-0.015256589
92	0xbbd8525f	-0.0066016163
93	0xbbb74a9a	-0.00559361
94	0xbc5521b0	-0.01300852
95	0xbc58c260	-0.013229936
96	0x3c19a8dc	0.009378638
97	0x3bf1f308	0.007383708
98	0x3b4c93ab	0.0031215947
99	0xb9c36562	-0.00037268834
100	0xbb8a3350	-0.0042175427
101	0xbbcaa4c0	-0.0061841905
102	0x3c5da987	0.013529188
103	0x3c5fe285	0.013664846
104	0xbb3ce44b	-0.0028822597
105	0x3cc81f21	0.024428906
106	0x3c769f2a	0.015052596
107	0xbbedb087	-0.0072537097
108	0x3b82ff77	0.003997739
109	0x3c9b9151	0.01899019
110	0xbcc8e334	-0.024522401
111	0x3c1a71df	0.009426563
112	0x3c6c3da1	0.01441899
113	0xbc7cb3a7	-0.015423692
114	0x3d043087	0.03227284
115	0x3c4e1e06	0.0125804
116	0xbb5b9ba6	-0.0033509522
117	0xba3c807f	-0.0007190778
118	0xbc7de35a	-0.015496099
119	0xbc758037	-0.014984182
120	0x3bec0121	0.007202283
121	0x3b761005	0.003754617
122	0x394ef686	0.00019737528
123	0x3b9896fa	0.0046566697
124	0x3c3daae6	0.01157639
125	0x3c6eec5a	0.014582718
126	0x3c9d83d3	0.019227898
127	0x3b0d7ec3	0.0021590448
128	0xbaa6054b	-0.0012666372
129	0x3bcbea64	0.00622301
130	0xbcae37e6	-0.021266889
131	0xbc963246	-0.01833452
132	0x3c98b432	0.018640611
133	0x39cd7e4e	0.0003919475
134	0xbc0e6741	-0.00869161
135	0xbc9e8bee	-0.019353833
136	0xbbe4e7d6	-0.006985645
137	0xbca91f58	-0.020644829
138	0xbca06a83	-0.019582039
139	0xbbf7fdd5	-0.007568101
140	0xbc1eb531	-0.009686754
141	0xbc8b2586	-0.016985666
142	0xbc98001d	-0.018554742
143	0xbc8b3791	-0.01699427
144	0xbc4f38ee	-0.01264785
145	0xbc51d18f	-0.01280631
146	0xbbb1a874	-0.0054216925
147	0x3cffd525	0.031229565
148	0xbcbe7db7	-0.023253305
149	0xbcb27d9a	-0.021788407
150	0x3c81d714	0.015849628
151	0xbcbdf330	-0.02318725
152	0x3ace2a72	0.0015729202
153	0x3c36a91d	0.011148718
154	0x3c8d3634	0.01723776
155	0xbd1cd5df	-0.0382899
156	0xbd001d6f	-0.03127807
157	0xbc6ae818	-0.014337562
158	0xbd935957	-0.071947746
159	0x3bb7e342	0.005611808
160	0x3d0f3c6a	0.034969725
161	0x3c791991	0.015203849
162	0xbca3ea8b	-0.0200093
163	0x3b465f87	0.003026934
164	0xbccf15a1	-0.025278868
165	0xbb09a615	-0.0021003534
166	0x3d2234a3	0.03960098
167	0xbb4600d6	-0.00302129
168	0xbb8eae6d	-0.0043542893
169	0x3cbe6a70	0.023244113
170	0x3bda560f	0.006663091
171	0xba29c46e	-0.00064761087
172	0x3b10b780	0.002208203
173	0xbc2feba3	-0.0107373325
174	0x3cdfb3f3	0.027307486
175	0x3bc4f951	0.006011166
176	0x3c086866	0.008325672
177	0x3bd83c7c	0.006599007
178	0x3bb76250	0.0055964366
179	0x3ca3a8c7	0.01997794
180	0x3b3c4c94	0.0028732168
181	0xbc4c3280	-0.012463212
182	0xbcb2beb0	-0.021819443
183	0xbd09b3e1	-0.03361881
184	0xbcc3ce87	-0.02390219
185	0xbd3d8ad2	-0.046274967
186	0x3accebd2	0.0015634245
187	0x3ce56c8c	0.02800586
188	0x3ad7f415	0.001647594
189	0x3b80e40e	0.0039334362
190	0x3c93b9c8	0.018032923
191	0x3b442069	0.0029926545
192	0xbb4c3b0b	-0.0031163122
193	0x3cb72e69	0.022360997
194	0xbb740963	-0.003723704
195	0x3b32439c	0.0027200943
196	0x3c84dbd8	0.01621811
197	0x3c83914a	0.01606049
198	0x3caadfc0	0.020858645
199	0x3b57e7d5	0.003294458
200	0x3c04a773	0.008096564
201	0x3d19b277	0.037523713
202	0x3c3e2731	0.011606024
203	0x3ce128eb	0.027485332
204	0x3b0554a7	0.0020344646
205	0xbc542585	-0.0129483985
206	0x3ceabceb	0.028654536
207	0x3cd28eb7	0.025702817
208	0xbd0432a2	-0.03227485
209	0x3cba50e0	0.022743642
210	0x3b7d43b7	0.0038645098
211	0xbca29ee3	-0.019851154
212	0x3d1f380b	0.038871806
213	0x3c283268	0.010265924
214	0xbc153dc1	-0.009108962
215	0x3d0c5efc	0.03427027
216	0x3cb8012b	0.022461494
217	0xbc90ed4b	-0.017691275
218	0xb90237f9	-0.00012418618
219	0x3c099cdd	0.0083992155
220	0xbcd5c54b	-0.026095053
221	0x3b8eea04	0.004361393
222	0x3c0ff55d	0.0087865265
223	0x3ac4d5df	0.0015017352
224	0x3a729173	0.0009253241
225	0x3c4213eb	0.011845569
226	0xbd3b966e	-0.045797758
227	0x3c762d95	0.015025516
228	0xbc78f5b1	-0.015195296
229	0xbd2a67a5	-0.04160275
230	0x3c7fabef	0.015604957
231	0xbcc3bcc3	-0.02389372
232	0xb99d1c77	-0.00029966581
233	0x3b7091b1	0.0036707933
234	0xbd55e2d4	-0.052218273
235	0xbca772ff	-0.020440577
236	0x39a35820	0.0003115544
237	0xbd524535	-0.051335532
238	0xbb7881ce	-0.0037919166
239	0x3c8fc36e	0.017549243
240	0xbcb5bda5	-0.022185156
241	0xbb3cd16e	-0.0028811353
242	0x3b392dbe	0.0028256024
243	0x3d2c7e63	0.04211272
244	0xbc3624d6	-0.011117181
245	0xbb7ba7c6	-0.0038399561
246	0x3d162ed1	0.03666574
247	0xbcc642ca	-0.02420177
248	0x3c1e9d24	0.00968102
249	0x3c8b38ca	0.016994853
250	0xbc750220	-0.01495412
251	0x3cdd8b7a	0.027044047
252	0x3d055e6d	0.032560755
253	0xbbfc47f8	-0.007699009
254	0x3c6eacd6	0.0145675745
255	0x3ba15a07	0.004924062

tfeb.12.weight f4 [26]
0	0x3dcd1cc2	0.10015251
1	0x3e520e6e	0.20513317
2	0x3e262f0e	0.16228887
3	0x3e52d31d	0.20588346
4	0x3e6b7642	0.2299433
5	0x3e80f276	0.25184983
6	0x3e1a11fe	0.15045926
7	0x3df1774e	0.11790334
8	0x3db49aee	0.08818613
9	0x3dccc16c	0.0999783
10	0x3e5c65f4	0.21523267
11	0x3de653b7	0.11246436
12	0x3e27f3e5	0.16401632
13	0x3e2b4b29	0.1672789
14	0x3e3676db	0.17818777
15	0x3e4181ff	0.18897246
16	0x3dd8c2d0	0.105840325
17	0x3e3d4ec3	0.18487076
18	0x3e3a872e	0.1821563
19	0x3da0e3ec	0.07855973
20	0x3e44ced4	0.19219524
21	0x3df4d4ad	0.11954627
22	0x3db7c5f7	0.08973306
23	0x3e733b65	0.23753126
24	0x3e23c57d	0.15993305
25	0x3e218514	0.15773422

tfeb.12.bias f4 [26]
0	0x3a2437f9	0.0006264444
1	0xbcb5ea72	-0.022206519
2	0xbd4c6afd	-0.04990672
3	0xbcdcf58a	-0.02697255
4	0xbe1702ce	-0.14747164
5	0xbdcb1e70	-0.09917915
6	0x3c04e226	0.008110559
7	0xbdbad8f9	-0.091234155
8	0x3cf6dc12	0.030134235
9	0xbd19b301	-0.037524227
10	0xbe27ae86	-0.16375169
11	0xbd178cbc	-0.03699945
12	0xbdcd178a	-0.10014255
13	0xbd751d5c	-0.059842452
14	0xbd7ec02a	-0.06219498
15	0xbe01327e	-0.12616917
16	0xbcaf3435	-0.021387199
17	0xbd57cae6	-0.052683733
18	0x3c212071	0.009834395
19	0x3d81a160	0.06329608
20	0xbc42209a	-0.011848593
21	0x3d924777	0.07142537
22	0xbd817be1	-0.06322456
23	0xbdf05528	-0.11734992
24	0xbcd3b9db	-0.025845459
25	0x3d6aec3c	0.057354197

tfeb.12.running_mean f4 [26]
0	0xbd1b154f	-0.03786212
1	0x39ebeb3c	0.00044997956
2	0xbd1f778d	-0.038932372
3	0xbcf4345f	-0.029810129
4	0x3d41c8f2	0.047310777
5	0xbcc5bacc	-0.024136923
6	0x3ccb725a	0.0248348
7	0xbd391687	-0.0451875
8	0xbdb6a539	-0.089182325
9	0xbd9af672	-0.07566537
10	0xbd9e2824	-0.077225
11	0x3cdff4c8	0.0273384
12	0xbd91cd5c	-0.07119247
13	0xbdb4a30d	-0.08820162
14	0x3c98fd54	0.018675484
15	0xbce1d5cd	-0.027567768
16	0xbd3cba05	-0.04607584
17	0x3d81a22c	0.0632976
18	0xbd839211	-0.06424344
19	0xbdb4c777	-0.088271074
20	0xbdc83ec2	-0.09777595
21	0xbc5113e2	-0.012761088
22	0xbd96c2c7	-0.073613696
23	0xbdb84d1b	-0.08999082
24	0x3b7bc346	0.0038415953
25	0xbd7d7975	-0.06188341

tfeb.12.running_var f4 [26]
0	0x3b4835f3	0.0030549734
1	0x3bac63f8	0.0052609406
2	0x3bbb9d8f	0.0057255696
3	0x3b95aa5f	0.004567429
4	0x3c7eae08	0.015544422
5	0x3c11cad2	0.008898454
6	0x3b818b8f	0.0039534043
7	0x3c3f6571	0.0116819
8	0x3c258ad6	0.010103902
9	0x3bee41c5	0.007271024
10	0x3bc5bd50	0.0060345307
11	0x3a859547	0.0010191583
12	0x3b7cb5d8	0.0038560536
13	0x3c0d1461	0.008610816
14	0x3b970ea3	0.004609899
15	0x3b5a46d5	0.003330638
16	0x3b605174	0.0034228237
17	0x3bbdfc81	0.005797923
18	0x3bf4e928	0.0074740835
19	0x3c05b38e	0.008160485
20	0x3c8a449a	0.016878415
21	0x3bd294c0	0.006426424
22	0x3ba7453d	0.0051046894
23	0x3c1db4e5	0.009625648
24	0x3ba8c20c	0.0051500853
25	0x3bf1c644	0.0073783714

tfeb.14.weight f4 [40, 26, 3, 3]
0	0xbc96f844	-0.01842893
1	0xbc87b38e	-0.01656511
2	0xbc444df4	-0.011981476
3	0xbab83b74	-0.0014055804
4	0xbb822859	-0.003972095
5	0xbbbc9059	-0.0057545123
6	0x3cd15c8f	0.02555683
7	0xbb8b237f	-0.004246175
8	0xba8532a5	-0.0010162188
9	0xbc8f12a6	-0.017464947
10	0xbcf6b612	-0.030116115
11	0xbce90cf4	-0.02844856
12	0xbb4d242d	-0.003130208
13	0xbc73e7bc	-0.014886793
14	0x3c5fdfd1	0.013664202
15	0xbad146d6	-0.0015966545
16	0x3c916e83	0.017752891
17	0xbcba0fb6	-0.02271257
18	0x3d2ae4d3	0.04172213
19	0x3b894e38	0.0041902326
20	0x3d593ac7	0.05303457
21	0xbca1f12c	-0.01976832
22	0xbb30e610	-0.0026992597
23	0x3d09fe51	0.0336898
24	0xbd249683	-0.0401826
25	0x3c729ced	0.014807922
26	0x3b23314c	0.002490121
27	0xbcaf2e0e	-0.021384265
28	0xbca4c5ec	-0.020113908
29	0x3bbcc7eb	0.0057611368
30	0x3b61e4b2	0.0034468588
31	0xbd041cd5	-0.03225406
32	0x3b7c17ea	0.0038466402
33	0x3d0989a5	0.033578534
34	0x3baea8eb	0.005330195
35	0x3c7d1506	0.015446907
36	0xbafab18f	-0.0019126403
37	0xbc818aee	-0.015813317
38	0x3b075aa3	0.002065339
39	0xbbf47622	-0.0074603716
40	0xbca28406	-0.019838344
41	0xbbfbb41c	-0.007681383
42	0x3cb49111	0.02204183
43	0xbcb6ed84	-0.022330053
44	0xbb839620	-0.004015699
45	0x3ae97624	0.0017811698
46	0x3b6b7dde	0.0035933177
47	0xbcd9f394	-0.026605405
48	0x3c64bd1d	0.013961104
49	0x3bc563f1	0.006023877
50	0xbb244b37	-0.0025069246
51	0x3bbf51ac	0.0058385935
52	0x3bc76363	0.006084846
53	0xbaade7a5	-0.0013267888
54	0x3b669a63	0.0035187236
55	0x3a9e03c8	0.001205557
56	0xbc8a8564	-0.016909309
57	0x3b9c5595	0.0047709444
58	0xb9f99295	-0.00047602193
59	0xbca01486	-0.019541036
60	0x3c84e5b1	0.016222807
61	0xbca346b3	-0.019931173
62	0x3a61d30a	0.0008614516
63	0xbcde3d33	-0.027128791
64	0xbc7055a0	-0.014668852
65	0xbc30b104	-0.010784391
66	0xbce36882	-0.027759794
67	0xbadc18e1	-0.0016792082
68	0x3b3f70b5	0.0029211466
69	0xbca92c77	-0.020651085
70	0xba062de2	-0.00051185314
71	0xbb9b9fd4	-0.0047492776
72	0xbca090e8	-0.019600347
73	0xbcaa4719	-0.020785855
74	0xbcb4ec8f	-0.022085456
75	0xbace2af5	-0.0015729355
76	0xbb143cba	-0.0022619204
77	0xbc8ddede	-0.017318185
78	0x388decc9	6.7675086e-05
79	0xbb16c9ca	-0.002300846
80	0xbcbe878b	-0.023257991
81	0x3af0325f	0.0018325559
82	0x3c98215f	0.0185706
83	0x3ac9a8a0	0.0015385337
84	0xba387adc	-0.00070373504
85	0x3a1ec312	0.00060562894
86	0x3c8a7224	0.01690013
87	0xbaab5d3e	-0.0013074053
88	0x3c55013e	0.013000784
89	0x3c9fd555	0.019510904
90	0x3b1018de	0.0021987478
91	0x3cfa471f	0.030551491
92	0x3bd4fed7	0.006500106
93	0xbcc5002b	-0.024047932
94	0x3b1e4c5d	0.0024154403
95	0x3cf86f3a	0.030326474
96	0xbb6fbfd5	-0.0036582847
97	0xbc6ff9f0	-0.014646992
98	0xbad088be	-0.0015909893
99	0xbb31ee4b	-0.002715009
100	0x3c99ea07	0.01878835
101	0x3c57d3cf	0.013173058
102	0xbb24e9f0	-0.0025163852
103	0xba23feea	-0.00062559417
104	0x3bb89322	0.005632774
105	0xbc324fba	-0.010883266
106	0x3b2f5541	0.0026753696
107	0x3c4b51b0	0.012409613
108	0xb9cd7cbe	-0.00039193587
109	0xbb17ed30	-0.0023182146
110	0x3c9e0a99	0.019292163
111	0x39da6588	0.00041655847
112	0xbc050c6f	-0.00812064
113	0x3ae253b2	0.0017267375
114	0x3b4dba5c	0.0031391596
115	0x3c2db5fe	0.010602472
116	0xbc9c1211	-0.019051583
117	0x3cbcd876	0.023052435
118	0x3b8f1577	0.0043665725
119	0x3ca13dbc	0.019682758
120	0x3ca43ccf	0.020048527
121	0xbc4439d3	-0.011976677
122	0x3af3c82f	0.0018599088
123	0x3ab7fcd5	0.0014037142
124	0xbb65f263	-0.00350871
125	0xbcb5ab8f	-0.022176532
126	0x3bcc9deb	0.006244411
127	0xbc831739	-0.016002284
128	0xbc590b87	-0.013247377
129	0x3a55333f	0.00081329414
130	0x3a8eea39	0.0010903544
131	0x3ccc0100	0.02490282
132	0xbbfeac21	-0.007771984
133	0x3c0e2891	0.008676664
134	0x3c409d91	0.011756317
135	0x3ac02a44	0.0014661034
136	0x3b953b91	0.00455422
137	0xbc921c74	-0.017835833
138	0x3ac6b5db	0.0015160398
139	0x3c717654	0.014737684
140	0xba316f5a	-0.0006768607
141	0x3ce9ef8e	0.028556611
142	0x3ca83a3e	0.020535585
143	0xba40b0a8	-0.00073505426
144	0x3adc5767	0.0016810716
145	0xbbdd4922	-0.006753103
146	0xbc9c12aa	-0.019051868
147	0xbac1c7d2	-0.0014784283
148	0xbc3146f2	-0.010820137
149	0x3b28bc05	0.0025746834
150	0xbb8438aa	-0.004035075
151	0xba80d6c1	-0.0009829627
152	0x3782eb2c	1.5606718e-05
153	0x3a8d5fa9	0.0010785955
154	0x3d0cee9d	0.034407247
155	0xbb3edfc5	-0.0029125076
156	0xbbad15ca	-0.0052821385
157	0xba3afc9f	-0.00071329804
158	0xbc9a22c8	-0.018815413
159	0xbca95264	-0.02066917
160	0xbc4dc1df	-0.0125584295
161	0xbc5e5d4e	-0.01357205
162	0x3a068758	0.0005131862
163	0x3bec4a46	0.0072110025
164	0xbb0763dc	-0.0020658886
165	0x3b0ab250	0.0021163411
166	0x3c2e8a69	0.010653117
167	0xbb308e15	-0.0026940156
168	0x3c8e69fe	0.017384525
169	0xbc349a43	-0.011023107
170	0x3bfbafe7	0.0076808813
171	0xbc3e8e29	-0.011630573
172	0xbc9beb77	-0.019033177
173	0xbacb7b14	-0.0015524351
174	0x3a74e4a9	0.00093419343
175	0xbc87294e	-0.016499188
176	0xbaa8f0a0	-0.0012889095
177	0x3b7bd9a0	0.0038429275
178	0x3aa152f4	0.0012308047
179	0x3a9fa0ce	0.0012178661
180	0xbc6a64ef	-0.014306291
181	0x3d0dd0d0	0.034622967
182	0xbaf266ca	-0.0018493768
183	0xbc05c653	-0.00816496
184	0x3c8e3f55	0.017364183
185	0x3c15b743	0.009137931
186	0x3c0e815f	0.008697837
187	0xbc0ef77c	-0.008725997
188	0x3c9009fc	0.017582886
189	0xbc9c4b8f	-0.019078998
190	0xbc19f5d6	-0.009396991
191	0xbbe07acb	-0.0068505756
192	0xbc8bc046	-0.017059457
193	0xbc89755b	-0.016779592
194	0xbc96a4f2	-0.018389199
195	0xbc82fde1	-0.0159902
196	0xbbb8b08e	-0.0056362813
197	0xbc8710c4	-0.016487487
198	0x3c74b941	0.014936746
199	0x3ca4268d	0.020037914
200	0x3c3a3f42	0.011367621
201	0xbc702617	-0.014657519
202	0xbb488f61	-0.0030603039
203	0x3b9b1335	0.0047325143
204	0xbc48e397	-0.012261293
205	0xbc8d2c77	-0.017233117
206	0x3bb8d9d1	0.0056412
207	0x3cd29156	0.025704067
208	0x3b6c71a0	0.0036078468
209	0x3a260132	0.00063325756
210	0x3b41f297	0.0029594058
211	0xbcdce694	-0.026965417
212	0xba7d8252	-0.00096706033
213	0xbaa585a1	-0.0012628325
214	0xbc9a8085	-0.018860111
215	0xbc386361	-0.0112541625
216	0xbb8dc3b7	-0.0043263095
217	0xbc06053e	-0.008179961
218	0xbb8d5c7b	-0.004314003
219	0xbb4c08d1	-0.0031133185
220	0xbb880343	-0.0041507795
221	0xbc27997a	-0.010229463
222	0xbb0448ab	-0.0020184915
223	0xbc63b220	-0.013897449
224	0x3b891cab	0.0041843257
225	0xbc7f9318	-0.015599035
226	0x3bfbd27a	0.007685003
227	0xbb8c4d6d	-0.004281691
228	0xbc12325a	-0.008923138
229	0xbc4cbe22	-0.012496503
230	0xbb6780af	-0.0035324504
231	0x3c781b61	0.015143246
232	0xbd0d85d3	-0.034551453
233	0xbd22abfb	-0.039714795
234	0xbc357f8a	-0.011077771
235	0xba692b09	-0.00088946574
236	0x3b39d12c	0.0028353436
237	0xba9f34df	-0.0012146494
238	0x3c7d511e	0.015461234
239	0x3cb3f820	0.021968901
240	0xbabd2b71	-0.0014432502
241	0xbb045042	-0.002018944
242	0xbab2928a	-0.0013623994
243	0x3b39243b	0.0028250355
244	0xbb54c3b6	-0.0032465286
245	0xbced9dfd	-0.029005999
246	0x3c3ea1a4	0.011635218
247	0xbc53f5c7	-0.012937016
248	0xbd2d2455	-0.042270977
249	0xbc0a7133	-0.00844984
250	0xbc831eec	-0.016005956
251	0xbc408b82	-0.011752011
252	0x3ad6ec68	0.0016397359
253	0xbca85243	-0.020547038
254	0xbb90443c	-0.0044026654
255	0x3a42b3c9	0.0007427303
