refine_codes/retrained_models_after_second_stage_pruning/after_second_pruning_time_2024022015_prunratio0.83/retrained_model_after_second_pruning_0.83ratio_acc54.54545593261719_1th_epoch_20240220155853.pt (torch, 409758 bytes, 62 tensors)

sfeb.0.weight f4 [6, 1, 1, 9]
0	0x3e2041fd	0.15650173
1	0x3e702968	0.23453295
2	0x3dc09dbc	0.094050854
3	0x3f4af700	0.7928314
4	0xbe645b56	-0.22300467
5	0xbe9f882e	-0.31158584
6	0xbec24fa7	-0.37951395
7	0xbde898e9	-0.1135729
8	0xbd4f8462	-0.05066336
9	0xbce533c3	-0.027978783
10	0x3d80a73a	0.06281896
11	0x3e3bbeb9	0.18334474
12	0xbe98cdcb	-0.29844508
13	0x3de93056	0.113861725
14	0xbf62ae7d	-0.885475
15	0xbebf2c23	-0.3733836
16	0x3edfbc48	0.43698335
17	0x3f335bb6	0.70061815
18	0x3e3e1d7d	0.18565936
19	0x3d2c3372	0.04204125
20	0x3cc13012	0.023582492
21	0xbe7685e3	-0.24074511
22	0xbd02af04	-0.03190519
23	0xbe6e2003	-0.23254399
24	0x3e3c7c30	0.18406749
25	0x3ce6323a	0.028100122
26	0xbedb96f2	-0.428886
27	0x3f28854a	0.6582838
28	0xbdc3e1a3	-0.09564521
29	0xbd441b51	-0.047877613
30	0xbe98fccd	-0.29880372
31	0x3d0f4249	0.034975324
32	0xbe33b34b	-0.17548864
33	0x3debf2a9	0.11520893
34	0x3f0afd98	0.54293203
35	0xbec53c59	-0.38522604
36	0xbeff3063	-0.49841604
37	0xbf12c220	-0.5732746
38	0x3cfd8321	0.030946316
39	0x3f19a3b3	0.6001541
40	0x3dd4cb77	0.1039037
41	0x3e9a6804	0.30157483
42	0xbe86bb3f	-0.26314732
43	0x3cfd686e	0.030933585
44	0x3dcc22c6	0.0996757
45	0x3e1da99d	0.15396734
46	0x3e1cd952	0.15317276
47	0xbe7da7b4	-0.24771005
48	0x3ec50fe7	0.38488695
49	0xbf61a181	-0.8813706
50	0x3f37fe33	0.7187225
51	0x3db18298	0.08667487
52	0xbf82aa4f	-1.0208224
53	0x3f032192	0.512231

sfeb.1.weight f4 [6]
0	0x3f4dc64a	0.8038069
1	0x3f6f8b6a	0.93572104
2	0x3ef2dd7e	0.4743461
3	0x3efa3ee5	0.4887611
4	0x3f26757c	0.65023017
5	0x3f14ecf9	0.5817409

sfeb.1.bias f4 [6]
0	0x3d6a34d1	0.057179276
1	0x3daf9813	0.08573928
2	0x3c80fd58	0.015745804
3	0x3f0ec9b4	0.55776525
4	0x3f10070c	0.5626075
5	0x3f1d410b	0.6142737

sfeb.1.running_mean f4 [6]
0	0x3985163e	0.00025384309
1	0xb89430f1	-7.066306e-05
2	0xba2e0a1e	-0.0006639081
3	0x3a04bf98	0.000506395
4	0xb97cbb85	-0.00024102449
5	0xb92bca27	-0.00016383138

sfeb.1.running_var f4 [6]
0	0x3d294c30	0.041332424
1	0x3d82804d	0.06372128
2	0x3c194384	0.009354476
3	0x3cc78086	0.024353277
4	0x3d3fa86d	0.046791483
5	0x3c1812a0	0.009281784

sfeb.3.weight f4 [32, 6, 1, 5]
0	0xbdc548c5	-0.0963302
1	0xbd233794	-0.039847925
2	0xbd24f1eb	-0.040269773
3	0xbc0f7771	-0.008756504
4	0xbb4f308e	-0.0031614634
5	0xbcdb7680	-0.026789904
6	0xbd1f70ef	-0.03892606
7	0xbc764cff	-0.015033006
8	0xbd0439af	-0.032281574
9	0xbb437bb2	-0.0029828367
10	0x3d05098f	0.03247982
11	0x3d99687a	0.074906304
12	0x3ddb3be9	0.10704786
13	0x3e4eb9b5	0.20188029
14	0x3e1718cb	0.14755552
15	0xbd6daf1c	-0.058028325
16	0xbd3fa606	-0.04678919
17	0xbd70a8d6	-0.058754764
18	0x3bc0ef64	0.0058879126
19	0x3c131984	0.008978251
20	0x3cfc5d01	0.030806066
21	0x3d8b4d8a	0.06801899
22	0x3d62891e	0.055306546
23	0xbd86ffdf	-0.06591772
24	0x3bdf62da	0.006817204
25	0xbd76caf3	-0.06025214
26	0xbcc14157	-0.023590727
27	0x3c034133	0.00801115
28	0x3afea45e	0.0019427647
29	0xbcbb6448	-0.022874966
30	0xbdf9624d	-0.121769525
31	0xbe062fce	-0.13104174
32	0xbd767b16	-0.060175978
33	0xbdad7d31	-0.08471144
34	0xbd18aae8	-0.037272364
35	0xbd56ea38	-0.052469462
36	0xbd7220a9	-0.05911318
37	0x3c1108e2	0.0088522155
38	0x3d22d837	0.03975698
39	0xbd89f3fe	-0.06735991
40	0x3e65eec9	0.2245437
41	0x3e840756	0.25786847
42	0x3e4ac644	0.19802195
43	0x3e844322	0.25832468
44	0x3e51170b	0.20418946
45	0xbe1daae3	-0.1539722
46	0xbde5b3db	-0.11215945
47	0xbe171f80	-0.1475811
48	0xbe33f199	-0.17572631
49	0xbdc88241	-0.09790469
50	0x3d219653	0.03945
51	0x3dd29123	0.10281589
52	0x3df372ec	0.11887154
53	0x3e0b9a99	0.13633193
54	0x3e225da6	0.15856037
55	0xbd557167	-0.052110102
56	0x3b21957a	0.0024655745
57	0x3ca77f28	0.020446375
58	0xbd0a176b	-0.03371374
59	0xbc5bfe1f	-0.013427286
60	0xbe4d5c71	-0.20054795
61	0xbe24cd6c	-0.16093987
62	0xbdc52450	-0.09626067
63	0xbe07b1d2	-0.13251427
64	0xbd4ceea4	-0.050032273
65	0x3ce40b1b	0.027837327
66	0xbd4e533b	-0.050372344
67	0xbda1189b	-0.07866021
68	0xbe2f90d8	-0.17145097
69	0xbe969c3b	-0.2941607
70	0xbda83b3c	-0.08214423
71	0x3d768903	0.06018926
72	0x3db56c75	0.08858577
73	0x3e2f3ae3	0.17112307
74	0x3e785372	0.24250582
75	0xbe19bfe3	-0.15014605
76	0xbd895405	-0.067054786
77	0xbd52d6dc	-0.051474437
78	0xbdaaa273	-0.08331766
79	0xbd45a89c	-0.0482565
80	0x3e5967b9	0.21230973
81	0x3dd90aee	0.10597788
82	0x3da2b685	0.07944969
83	0x3ded3838	0.115829885
84	0x3cce4338	0.025178537
85	0xbc3cdb04	-0.011526827
86	0xba698082	-0.0008907394
87	0xb9d857a9	-0.00041264042
88	0xbd68e31c	-0.056857213
89	0xbd12824b	-0.03576879
90	0xbcb89274	-0.022530772
91	0xbc0184ab	-0.007905166
92	0x3c66c724	0.014085565
93	0xbd23d207	-0.03999522
94	0xbdc4dedb	-0.09612819
95	0xbe1d4bc4	-0.15360934
96	0xbd9e84fa	-0.07740207
97	0xbda0eff8	-0.078582704
98	0xbdd89eff	-0.10577201
99	0xbda244b6	-0.07923262
100	0xbee6e8a6	-0.45099372
101	0xbeac401b	-0.3364266
102	0xbe5eba99	-0.21750869
103	0xbe258142	-0.16162589
104	0xbe09e38f	-0.13465713
105	0x3e8a6698	0.27031398
106	0x3e48d06a	0.19610754
107	0x3e238226	0.15967616
108	0x3dc926f4	0.09821883
109	0x3d909126	0.07058935
110	0xbe17d7cd	-0.14828415
111	0xbe5c44a2	-0.21510556
112	0xbda3e2d4	-0.080022484
113	0xbe0c6fa2	-0.1371446
114	0xbdd79594	-0.10526577
115	0xbc2041df	-0.00978133
116	0xbb5145b8	-0.0031932425
117	0xbd1e8ae9	-0.038706694
118	0xbd1c50ff	-0.03816318
119	0x3c2ae844	0.010431353
120	0x3e1af901	0.1513405
121	0x3dea9594	0.11454311
122	0xbd38d7ac	-0.045127556
123	0x3be12c57	0.006871741
124	0x3dde7258	0.10861653
125	0xbe1a8eb9	-0.15093507
126	0xbe200be9	-0.15629543
127	0xbd18f426	-0.037342213
128	0xbda432d9	-0.08017511
129	0xbe5595bb	-0.20857899
130	0xbdf98e3f	-0.121853344
131	0xbdadb471	-0.08481682
132	0xbdcec6e6	-0.100965306
133	0x3d06f2c0	0.03294635
134	0x3dfb1ede	0.12261747
135	0x3e7ad631	0.2449577
136	0x3de594cb	0.11210021
137	0x3dbae4e4	0.09125689
138	0x3d7d0911	0.061776225
139	0x3c543562	0.012952181
140	0xbe2301d3	-0.15918665
141	0xbddf17aa	-0.108931854
142	0xbdfc3dd7	-0.123164825
143	0xbce1853e	-0.027529355
144	0xbdc1f829	-0.09471161
145	0x3c903919	0.017605351
146	0x3d065e9c	0.03280507
147	0x3c015a8e	0.007895125
148	0xbd868a56	-0.06569354
149	0xbd83d09d	-0.06436274
150	0x3d9ef97b	0.077624284
151	0x3e07eb50	0.13273358
152	0x3da10f1e	0.078642115
153	0x3ca6f6bf	0.02038133
154	0xbc1fba1e	-0.009748964
155	0xbe09e42e	-0.1346595
156	0xbe1fbd9f	-0.15599678
157	0xbe09ee92	-0.13469914
158	0xbe0aeb5f	-0.1356635
159	0xbe018814	-0.12649566
160	0xbe11260c	-0.1417467
161	0xba8e267c	-0.001084521
162	0x3df2a9fc	0.11848828
163	0x3e3e73ff	0.18598936
164	0x3e32a9a6	0.17447528
165	0x3defd013	0.11709609
166	0x3db49315	0.08817116
167	0x3de7413f	0.112917416
168	0xbcb08dbb	-0.021551957
169	0xbdb7d572	-0.08976258
170	0xbdf3d5c8	-0.1190601
171	0xbe460820	-0.19339037
172	0xbe0db4c4	-0.13838488
173	0xbdd92893	-0.10603442
174	0xbdbde20a	-0.09271629
175	0xbd155d0b	-0.036465686
176	0xbcb79974	-0.02241204
177	0xbc79cef3	-0.015247094
178	0xbcdb9df6	-0.02680872
179	0xbbf255f1	-0.007395499
180	0x3cbd5a92	0.023114476
181	0xbd7e4478	-0.062077016
182	0xbd3e6b7c	-0.046489224
183	0xbda626a3	-0.08112838
184	0xbdbd47c7	-0.09242206
185	0xbdaab888	-0.08335978
186	0xbd148dee	-0.036268167
187	0xbdad5d42	-0.08465053
188	0x3ccef581	0.02526355
189	0xbbfe0940	-0.0077525675
190	0xbbe81fc6	-0.007083866
191	0xbc90e5c5	-0.017687688
192	0xbdaf4854	-0.08558717
193	0xbe000289	-0.12500967
194	0xbdf3b595	-0.118998684
195	0x3e0cfad9	0.13767566
196	0x3daff7b8	0.085921705
197	0x3be1dff4	0.0068931524
198	0xbd1f4a59	-0.038889263
199	0xbd2f0c6c	-0.042736456
200	0xbdcd1ec9	-0.100156374
201	0xbdc9a1fc	-0.09845349
202	0x3a9d821c	0.0012016925
203	0x3d0116fb	0.031516057
204	0xbc93d72f	-0.018046943
205	0xbc5b4e76	-0.013385406
206	0xbd5b987d	-0.05361222
207	0xbcd85f88	-0.02641274
208	0xbc15755d	-0.00912222
209	0x3c4b32df	0.012402265
210	0xbe4958fb	-0.1966285
211	0xbe0429e3	-0.12906604
212	0xbdb68a0c	-0.08913049
213	0xbdfa5792	-0.12223734
214	0x3ba47fa1	0.0050200974
215	0x3c715c33	0.014731455
216	0x3d055e63	0.032560717
217	0x3d373768	0.044730574
218	0xbdc6ed73	-0.097132586
219	0xbdff3598	-0.12461394
220	0xbe003c5e	-0.12523028
221	0xbdd4e333	-0.10394897
222	0xbd714f0b	-0.058913272
223	0x3cf1af39	0.029502498
224	0x3e5b030a	0.21387878
225	0xbe30888e	-0.17239591
226	0xbd36de83	-0.044645797
227	0xbab6bc52	-0.0013941622
228	0x3d14721a	0.03624163
229	0x3d3115c7	0.04323366
230	0x3da5b2dc	0.08090755
231	0x38db37e0	0.00010453141
232	0xbd42a3f8	-0.047519654
233	0xbb3c0521	-0.002868958
234	0x3bbe6aba	0.0058110626
235	0x3d07d055	0.033157665
236	0x3bf0fa12	0.0073540295
237	0x3b55272d	0.0032524571
238	0x3cce26d8	0.025165007
239	0xbda9acab	-0.08284887
240	0x3db44c5c	0.08803627
241	0x3ce95138	0.02848111
242	0xbd51cf87	-0.051223304
243	0xbddb3e6e	-0.10705267
244	0xbccabc2a	-0.024747927
245	0x3d2ba5c6	0.04190614
246	0x3b732f57	0.0037107074
247	0x3c72e3d3	0.014824825
248	0x3d9b8472	0.07593621
249	0x3d9c3cbe	0.07628773
250	0xbd826ce3	-0.06368425
251	0xbcc44258	-0.023957416
252	0x3d83ee52	0.0644194
253	0x3d6c55c6	0.057698987
254	0x3c03d44b	0.00804622
255	0xbdcd8919	-0.10035915

sfeb.4.weight f4 [32]
0	0x3e97651e	0.29569334
1	0x3f413eec	0.75486636
2	0x3f5df2e9	0.86698776
3	0x3f7ea46e	0.9946965
4	0x3f04a853	0.5181934
5	0x3f1fd4be	0.62433994
6	0x3e7e6eef	0.24847005
7	0x3e8b8a79	0.27254084
8	0x3ded0983	0.1157408
9	0x3ef824dc	0.4846562
10	0x3f275404	0.6536257
11	0x3f2010a7	0.6252541
12	0x3ef10862	0.47076708
13	0x3eecc516	0.46244115
14	0x3f0c347f	0.547676
15	0x3f2243cb	0.63384694
16	0x3e94b6df	0.2904577
17	0x3ec5de51	0.38646176
18	0x3f2f3e88	0.6845479
19	0x3f23472a	0.6378046
20	0x3e7890c9	0.24273981
21	0x3f11f22f	0.5701017
22	0x3f0d7ad7	0.55265564
23	0x3ed05644	0.40690815
24	0x3ede84dc	0.4346074
25	0x3f2a46bd	0.6651419
26	0x3f1e8d29	0.61934143
27	0x3f1dabcd	0.6159027
28	0x3ecfd753	0.40593967
29	0x3ebe2366	0.37136382
30	0x3edc45d5	0.43022028
31	0x3e50591a	0.2034649

sfeb.4.bias f4 [32]
0	0xbd84a73b	-0.06477209
1	0x3bd6c918	0.006554734
2	0xbe274809	-0.16336073
3	0xbd98960d	-0.07450495
4	0xbdd7bfc3	-0.105346225
5	0xbd6a83db	-0.057254653
6	0xbd023ea3	-0.031798016
7	0xbde1ad3f	-0.11019372
8	0x3d8bc4a8	0.068246186
9	0xbd618bc2	-0.055064924
10	0xbaa28708	-0.0012399862
11	0xbc80c4af	-0.015718786
12	0xbc22174e	-0.009893252
13	0x3d691550	0.05690509
14	0x3c79ab89	0.015238651
15	0x3d282d93	0.041059088
16	0x3c6ca0b0	0.014442608
17	0xbca01547	-0.019541396
18	0x3c9006eb	0.017581424
19	0x3bd8eb2a	0.0066198306
20	0xbc4f64a9	-0.012658277
21	0xbc2e1df5	-0.0106272595
22	0xbd853f65	-0.06506232
23	0xbdf82fe7	-0.12118512
24	0x3ca4b7e4	0.020107217
25	0xbd762442	-0.060093172
26	0xbe07a596	-0.1324676
27	0x3c2f60bb	0.010704215
28	0xbda880c6	-0.082276866
29	0xbdb37abb	-0.08763643
30	0xbd66da74	-0.056360677
31	0x3d23c761	0.039985064

sfeb.4.running_mean f4 [32]
0	0xbdb65a49	-0.08903939
1	0xbdc44b9f	-0.09584736
2	0xbe3c7848	-0.18405259
3	0xbea2b988	-0.31782174
4	0xbe274f00	-0.1633873
5	0xbed43db6	-0.41453332
6	0xbe6bfdac	-0.23045987
7	0xbe5edf44	-0.21764857
8	0xbdec20a7	-0.115296654
9	0xbf07ba69	-0.53018814
10	0xbdbdcbff	-0.09267425
11	0xbecbf46b	-0.39834914
12	0xbe61bd3c	-0.22044843
13	0xbe421616	-0.18953738
14	0xbe97777f	-0.29583356
15	0x3ae74544	0.0017644544
16	0xbed6759a	-0.41886598
17	0xbe736b98	-0.23771513
18	0xbd16583f	-0.03670525
19	0xbdbad3b2	-0.09122409
20	0xbe17d2c6	-0.14826497
21	0xbd5b4a69	-0.05353776
22	0xbe90c644	-0.28276265
23	0xbeb98722	-0.3623591
24	0x3c31b6fa	0.010846848
25	0xbe609220	-0.21930742
26	0xbf0b10b8	-0.54322386
27	0xbd962fa7	-0.07333308
28	0xbecdefbd	-0.40221968
29	0xbe85f1d2	-0.26161057
30	0xbd6b5b72	-0.057460256
31	0xbc7dcb92	-0.0154904295

sfeb.4.running_var f4 [32]
0	0x3cd22666	0.025653075
1	0x3da1d3b3	0.079017065
2	0x3e1e6514	0.15468246
3	0x3e9cf7bd	0.3065776
4	0x3dcb5f18	0.09930247
5	0x3df9a01f	0.12188744
6	0x3d8e54f0	0.06949794
7	0x3db6c9c3	0.08925202
8	0x3d31e853	0.043434452
9	0x3e52b4b5	0.20576747
10	0x3e83cc42	0.25741774
11	0x3e642854	0.22281009
12	0x3e4201ad	0.18945952
13	0x3e34e4e7	0.17665444
14	0x3e7347b4	0.23757821
15	0x3f09744f	0.536931
16	0x3d6e3cbb	0.058163386
17	0x3db4efdf	0.08834814
18	0x3ef791bc	0.48353374
19	0x3ec76932	0.38947445
20	0x3d4a12c2	0.049334295
21	0x3e8a67b2	0.27032238
22	0x3e10cac0	0.14139843
23	0x3de26488	0.11054331
24	0x3d8c0dfc	0.06838605
25	0x3e156233	0.14588241
26	0x3e7289a0	0.23685312
27	0x3de99b2e	0.11406551
28	0x3e2685fe	0.16262051
29	0x3db70299	0.08936042
30	0x3d1fad60	0.038983703
31	0x3b86176c	0.0040921476

tfeb.0.weight f4 [11, 1, 3, 3]
0	0x3f42f584	0.7615588
1	0xbf18c8de	-0.596815
2	0xbeb370d4	-0.3504702
3	0xbe0c281a	-0.13687173
4	0xbcaed7fe	-0.021343227
5	0x3d1997ef	0.03749841
6	0xbd80fdb0	-0.06298387
7	0x3c721ee3	0.014777872
8	0x3b74a3e0	0.0037329122
9	0xba3debd5	-0.00072449195
10	0x3c2c58ba	0.010519201
11	0xbaf62e9e	-0.0018782204
12	0x39693186	0.0002223906
13	0xba0bb84e	-0.0005329893
14	0xb91d4646	-0.00014998866
15	0x3c3f6bab	0.011683385
16	0x3caca51a	0.02107482
17	0x3a80e9fa	0.0009835355
18	0x3d8ec38b	0.069708906
19	0xbedad731	-0.42742303
20	0x3dfd641e	0.123726115
21	0x3e59e9ea	0.21280637
22	0xbf012217	-0.5044264
23	0x3dfc7eab	0.123288475
24	0x3e2608ff	0.16214369
25	0xbe9df8e6	-0.30853957
26	0x3dbf66ed	0.093458034
27	0x3e3704de	0.1787295
28	0x3e3e45f0	0.18581367
29	0xbed9a977	-0.42512104
30	0x3e7d9c0f	0.24766563
31	0x3e76e8d2	0.24112251
32	0xbec02250	-0.37526178
33	0x3e0f05ed	0.13967104
34	0x3df00504	0.11719707
35	0xbddb39ba	-0.1070437
36	0xbf0a81b4	-0.5410416
37	0x3da49937	0.08037036
38	0x3e3658b8	0.17807281
39	0xbf1542a4	-0.5830481
40	0x3e195ad8	0.1497606
41	0x3ed4672a	0.41484958
42	0xbe76dc2a	-0.24107423
43	0x3d90a6d0	0.07063067
44	0x3e260cab	0.1621577
45	0xbc5e17a2	-0.013555439
46	0x3da5fdd1	0.08105052
47	0x3d30b3df	0.04314029
48	0xbd9573c5	-0.07297472
49	0x3ea831c5	0.3285047
50	0x3d1cc7a3	0.038276326
51	0xbd7dc6f2	-0.061957307
52	0x3e31727c	0.17328829
53	0x3d1b6338	0.03793642
54	0x3e752151	0.2393849
55	0xbe083d3f	-0.13304614
56	0xbe963c59	-0.29342917
57	0x3ebaf067	0.36511537
58	0xbdea4d7d	-0.11440561
59	0xbe9455a3	-0.28971586
60	0x3e2878c6	0.16452321
61	0xbdb96f6d	-0.09054456
62	0xbe575318	-0.21027792
63	0xbabb27d3	-0.0014278836
64	0xbb263bd5	-0.0025365253
65	0xbb14bd91	-0.0022695998
66	0x39128894	0.00013974524
67	0xba139bec	-0.0005630839
68	0xba056ac0	-0.00050894544
69	0x3c82fe16	0.015990298
70	0x3c5e1245	0.0135541605
71	0xb6e0d7c5	-6.700839e-06
72	0x3c589b29	0.013220587
73	0x3ca761ee	0.020432439
74	0xbac857e4	-0.0015284983
75	0xbacb9c50	-0.0015534256
76	0x3c509635	0.012731125
77	0x3be37f1a	0.006942642
78	0x3ca49554	0.020090736
79	0x3d07fc2b	0.03319947
80	0x3a895087	0.001047627
81	0x3cfd48b1	0.030918451
82	0x3cc5ed96	0.024161141
83	0xbdfe62a3	-0.12421157
84	0x3d8e8d18	0.06960505
85	0x3ce6db90	0.028180867
86	0xbe5dc8a1	-0.21658565
87	0xbe848050	-0.25879145
88	0xbef3f9a4	-0.47651398
89	0x3f2c538a	0.6731497
90	0xbe93c32e	-0.28859848
91	0xbeb8ec01	-0.36117557
92	0x3ed2776f	0.41106746
93	0xbe7b9338	-0.24567878
94	0xbea9afb0	-0.3314185
95	0x3f08f7e9	0.5350328
96	0xbd02252e	-0.03177374
97	0xbe75c7c7	-0.2400199
98	0x3e4c0fbe	0.1992788

tfeb.1.weight f4 [11]
0	0x3e5ea393	0.21742086
1	0x3d3845b2	0.04498834
2	0x3ea6c2d5	0.3257052
3	0x3e3644d2	0.1779969
4	0x3e7f2e3c	0.24919981
5	0x3e45446a	0.19264379
6	0x3e342f3d	0.17596145
7	0x3d1eac6f	0.038738664
8	0x3da4f8ef	0.08055293
9	0x3e799c94	0.24376136
10	0x3eb9e40e	0.36306804

tfeb.1.bias f4 [11]
0	0x3d20fc47	0.03930309
1	0xbd71b771	-0.059012834
2	0x3d8f733f	0.07004403
3	0x3e1f3453	0.15547304
4	0x3e359f34	0.17736512
5	0x3e20db00	0.15708542
6	0x3e7f8358	0.24952447
7	0xbd4085c7	-0.04700258
8	0xbdc698b5	-0.09697095
9	0x3d261e19	0.040556047
10	0xbcd365e2	-0.025805417

tfeb.1.running_mean f4 [11]
0	0xbdd4dcd4	-0.10393682
1	0x3c84434b	0.016145369
2	0xbe34438a	-0.17603889
3	0x3d9c39d2	0.07628216
4	0xbdda3694	-0.10654941
5	0x3e5eccc5	0.21757801
6	0xbe104722	-0.14089635
7	0x3c161978	0.009161346
8	0x3d26b53e	0.04070019
9	0xbda1de3a	-0.079037145
10	0xbe19a034	-0.15002519

tfeb.1.running_var f4 [11]
0	0x3d58bc44	0.05291392
1	0x3a00030d	0.0004883267
2	0x3d9fff1d	0.07812331
3	0x3d3f539f	0.046710607
4	0x3db19a65	0.086720265
5	0x3da62704	0.081129104
6	0x3d800f4c	0.06252918
7	0x398afaa8	0.00026508165
8	0x3b2a02d8	0.0025941636
9	0x3d01550b	0.031575244
10	0x3db9e693	0.09077182

tfeb.4.weight f4 [21, 11, 3, 3]
0	0x3b57a3f6	0.0032904125
1	0xbbf110f5	-0.0073567578
2	0xbd402833	-0.046913337
3	0xbb0d4fbd	-0.002156242
4	0x3c99cb79	0.018773781
5	0xbb109648	-0.002206223
6	0x3a97a705	0.0011570161
7	0x3cf9575b	0.030437162
8	0xbd1d70e8	-0.038437754
9	0xbb28c473	-0.0025751858
10	0xbb1579bc	-0.0022808155
11	0xbb69e058	-0.0035686698
12	0xbb0fa5d1	-0.0021918903
13	0xbafa4969	-0.0019095364
14	0xbb30cb8b	-0.002697679
15	0xbac3f1f3	-0.0014949426
16	0xba8bee82	-0.0010675939
17	0xbac91efe	-0.0015344319
18	0x3d0f19f8	0.034936875
19	0x3cb01c35	0.021497825
20	0x3becbd92	0.007224747
21	0xbc8652f0	-0.01639697
22	0xbc9f5592	-0.019449983
23	0xbd238eb2	-0.039931007
24	0xbc7e5a2b	-0.015524427
25	0xbcf939d1	-0.030423077
26	0xbd0260a9	-0.031830464
27	0x3cd35574	0.025797583
28	0x3c0480c6	0.008087343
29	0xbadd3c2a	-0.0016878892
30	0x3c715371	0.014729367
31	0xbc6c1535	-0.014409353
32	0xbd09611f	-0.033539888
33	0xbca74c06	-0.020421993
34	0xbd81b92c	-0.06334147
35	0xbd9f89f7	-0.077899866
36	0x3ca82e0a	0.020529766
37	0x3d9727e7	0.07380658
38	0x3c8c394e	0.017117169
39	0xba188bab	-0.0005819152
40	0x3cdc2708	0.02687408
41	0x3c95a5b1	0.018267484
42	0xbd39af23	-0.04533304
43	0xbd6e2fcd	-0.058151055
44	0xbcd2bc9c	-0.025724702
45	0x3cd4b591	0.025965484
46	0x3d7e86ed	0.062140394
47	0x3d05d21e	0.032671086
48	0xbcf12b38	-0.029439554
49	0xbc8a4d57	-0.016882582
50	0xbd0ec86d	-0.03485911
51	0xbd8616b1	-0.06547297
52	0xbdaca429	-0.084297486
53	0xbda8ebca	-0.08248098
54	0x3d06196e	0.032739095
55	0x3cad6b33	0.02116928
56	0xbbf1250c	-0.0073591527
57	0x3cc2d0c4	0.023781188
58	0x3cb51191	0.022103103
59	0xbc75a64e	-0.014993263
60	0x3c95829a	0.018250752
61	0x3c8d8490	0.017275125
62	0xbc461cd2	-0.012091832
63	0xbb14ff9b	-0.002273536
64	0xbae817c4	-0.0017707278
65	0xbb2429d6	-0.002504935
66	0xbabf8cc6	-0.0014614097
67	0xbab07ac4	-0.0013464321
68	0xbad9f570	-0.0016628932
69	0xba9eeeeb	-0.0012125646
70	0xba92e4b1	-0.0011207071
71	0xba97078b	-0.0011522634
72	0xbb8f1afb	-0.00436723
73	0xbb8ac67f	-0.0042350884
74	0xbbcc59ef	-0.006236307
75	0xbb82917f	-0.0039846296
76	0xbb6dbcd2	-0.0036275876
77	0xbba86384	-0.0051388163
78	0xbb36e9f9	-0.0027910455
79	0xbb1537c7	-0.0022768842
80	0xbb40dc2f	-0.0029428115
81	0x3c55f4cb	0.0130588515
82	0x3d201d66	0.039090537
83	0x3c4b5ebe	0.012412725
84	0xbb202e5b	-0.0024441693
85	0xbd44996f	-0.04799789
86	0x3bea3402	0.007147313
87	0xbc9c1cd8	-0.019056723
88	0x3ca7e5d5	0.020495335
89	0x3b318e6b	0.0027092944
90	0x3d09d2da	0.03364835
91	0x3ce279b9	0.027645933
92	0x3d398a47	0.045297887
93	0x3c3acf38	0.011401944
94	0x3ab1c6a6	0.001356323
95	0x3cf445b0	0.029818386
96	0xbd1ab090	-0.03776604
97	0xbd86a7d5	-0.0657498
98	0x3c905e6f	0.017623154
99	0x3bdb3187	0.0066892537
100	0x3dbc7eb0	0.09203851
101	0xbbdb71e9	-0.0066969288
102	0xbcffc887	-0.031223549
103	0xbe3d09c2	-0.18460754
104	0xbda9cc66	-0.08290939
105	0xbcbcaf1e	-0.023032721
106	0xbcc26ade	-0.023732599
107	0xbd304b5e	-0.043040626
108	0xbad6aec4	-0.0016378989
109	0xbabccd30	-0.0014404412
110	0xbaa6e6bb	-0.0012733558
111	0xba3219a3	-0.00067939813
112	0x39bf8935	0.00036532586
113	0xb884b5be	-6.3281026e-05
114	0x3a7c6884	0.0009628611
115	0x3ae4fd41	0.0017470495
116	0x3aca9e0c	0.0015458479
117	0x3cacfbbd	0.021116132
118	0xbe1dd368	-0.15412676
119	0xbcc5d099	-0.024147319
120	0x3d92fbdf	0.07176947
121	0xbe23f52a	-0.16011491
122	0xbba009b5	-0.0048839697
123	0x3d08a411	0.03335959
124	0xbdcade81	-0.099057205
125	0x3ca627fb	0.020282736
126	0xbc11003f	-0.008850156
127	0x3a8a2445	0.0010539374
128	0xba999bdc	-0.0011719423
129	0xbd67860f	-0.056524333
130	0xbca32fa6	-0.019920181
131	0x3cd71f0a	0.026259918
132	0x3c400af2	0.01172136
133	0x3c5692dd	0.013096538
134	0x3c54ac69	0.012980559
135	0x3cba0ef9	0.022712218
136	0x3d5089bd	0.050912607
137	0xbcae418e	-0.021271493
138	0x3c96de98	0.018416688
139	0x3d8493ce	0.06473504
140	0xbd19a3f8	-0.03750989
141	0xbce1f371	-0.027581902
142	0x3d2856b2	0.041098304
143	0xba85f750	-0.00102208
144	0xbd503d8c	-0.050839946
145	0xbc1be9f5	-0.009516229
146	0xbd708a23	-0.058725487
147	0xbce9913d	-0.028511638
148	0x3d5a2372	0.05325646
149	0x3cf54858	0.029941723
150	0x3c996d59	0.018728899
151	0x3d2b455b	0.04181419
152	0x3c263c04	0.010146145
153	0xbb343d2c	-0.0027502282
154	0x3b872a75	0.0041249343
155	0xbaa03852	-0.0012223816
156	0xbce5db5d	-0.028058702
157	0xbd3a8fb9	-0.04554722
158	0xbcc75d8d	-0.0243366
159	0xbba682af	-0.0050814967
160	0x3ab14e63	0.0013527389
161	0xbb87ea2b	-0.004147788
162	0xbabb9e91	-0.0014314224
163	0xb9caae37	-0.00038658243
164	0xba4c52d8	-0.0007794327
165	0xb9c67000	-0.0003784895
166	0x3a9dabcc	0.0012029349
167	0x3a16d056	0.00057530904
168	0x3a8e1a21	0.0010841527
169	0x3b01c645	0.0019802016
170	0x3aca6c99	0.0015443742
171	0xbb367228	-0.0027839039
172	0xbb1ce45e	-0.0023939828
173	0xbb193e19	-0.002338296
174	0xbabe6cf6	-0.0014528322
175	0x37ad91e8	2.069115e-05
176	0xb9b1c5a0	-0.00033907313
177	0xbc3a4619	-0.011369252
178	0xbc053be7	-0.008131958
179	0xbc0d5ab3	-0.008627581
180	0x3911f937	0.00013921117
181	0xbdd3fd84	-0.10351089
182	0xbc692fc7	-0.014232582
183	0xbc844fa3	-0.016151255
184	0xbce9c940	-0.028538346
185	0x3cf4439d	0.029817397
186	0x3d698795	0.057014067
187	0x3c9865ef	0.018603293
188	0xbb1897b6	-0.0023283786
189	0x3d89593d	0.06706474
190	0xbdf8c377	-0.12146657
191	0x397e9b80	0.00024281256
192	0x3d9bb16c	0.076022
193	0xbdb92513	-0.090402745
194	0xbae655d9	-0.0017573192
195	0x3c2d9aec	0.010596018
196	0xbd659953	-0.056054424
197	0xbb9b0068	-0.004730273
198	0xbb70bb6f	-0.0036732813
199	0x3c198500	0.009370089
200	0xbbfef59c	-0.0077807438
201	0xbcce7548	-0.025202408
202	0x3cbfd598	0.02341728
203	0xbda8af0a	-0.08236511
204	0xbc631151	-0.013859109
205	0x3d61f1d4	0.055162266
206	0xbb979289	-0.0046256226
207	0xba87c52d	-0.0010358446
208	0xb9fa999b	-0.0004779816
209	0x3a0505ed	0.00050744304
210	0x3906489d	0.00012806286
211	0xb8857f8b	-6.365691e-05
212	0xb9eff4c8	-0.0004576801
213	0x3a29cef7	0.00064776785
214	0x38883ef5	6.496712e-05
215	0xb96a7657	-0.00022360064
216	0x3bfbcc15	0.0076842406
217	0xbd03e773	-0.03220315
218	0xbb9e7cd4	-0.004836658
219	0xbcb954df	-0.022623478
220	0xbcf8a5e8	-0.030352548
221	0xbc6e4bf7	-0.014544479
222	0x3ccba350	0.024858147
223	0xbbe13429	-0.006872673
224	0xbaf0427d	-0.0018330362
225	0x3d4c2992	0.049844332
226	0xbc9297f5	-0.017894724
227	0xbd0b88f6	-0.034066163
228	0x3c7fe87a	0.015619392
229	0xbda9389a	-0.08262749
230	0xbde21cfa	-0.11040683
231	0x3d5dd7e8	0.054160982
232	0x3c0c50b7	0.008564166
233	0xbc57e23d	-0.013176498
234	0xbd097ecb	-0.033568185
235	0x3d512ae0	0.05106628
236	0xbd400ca6	-0.046887062
237	0xbdd501cc	-0.10400733
238	0xbcffbc9a	-0.031217862
239	0x3c26f70a	0.010190735
240	0x3cc3f379	0.023919808
241	0x3da5b7a1	0.08091665
242	0xbab3f3de	-0.0013729294
243	0xbc0dbf39	-0.008651548
244	0xbc9a4e1d	-0.018836075
245	0x3b208d49	0.0024498275
246	0xbd75e36e	-0.060031347
247	0xbdccf68b	-0.10007962
248	0xbd640cbe	-0.055676214
249	0x3c8d6290	0.017258912
250	0x3c72f37b	0.014828558
251	0x3ca19ea2	0.019728962
252	0x3b72fa58	0.0037075486
253	0x3bd121dc	0.00638221
254	0xbd064a7b	-0.032785874
255	0x3b017f22	0.0019759615

tfeb.5.weight f4 [21]
0	0x3e10ec3e	0.14152619
1	0x3e9cca19	0.30622938
2	0x3ea09094	0.31360304
3	0x3e0ad3b3	0.1355732
4	0x3e18de32	0.14928511
5	0x3ee37fb7	0.44433376
6	0x3d430f7b	0.047622185
7	0x3e49bdbc	0.19701284
8	0x3eb4e807	0.35333273
9	0x3e9f3918	0.31098247
10	0x3df08a25	0.11745099
11	0x3db86e4c	0.090054125
12	0x3cfdd162	0.03098363
13	0x3e07b452	0.1325238
14	0x3ea91bb7	0.33028957
15	0x3dbcd9c3	0.09221222
16	0x3e7080c7	0.23486625
17	0x3e483ecc	0.19555205
18	0x3db9e10e	0.09076129
19	0x3e311aeb	0.17295425
20	0x3e12ac0d	0.14323445

tfeb.5.bias f4 [21]
0	0x3cf948a5	0.030430147
1	0xbd067d3d	-0.03283428
2	0xbe248165	-0.16064985
3	0xbd01cecb	-0.031691354
4	0x3e3409eb	0.17581908
5	0xbd979bbf	-0.07402753
6	0x3cb5885d	0.02215975
7	0x3d233ada	0.039851047
8	0xbda0e0c1	-0.078553684
9	0xbe3d117e	-0.18463704
10	0x3c69f03b	0.014278467
11	0x3e284b48	0.16434968
12	0x3debebcb	0.11519583
13	0xbbc57305	-0.0060256743
14	0xbddd2a83	-0.10799124
15	0xbe730fb8	-0.23736465
16	0xbdb9cc58	-0.090721786
17	0x3d17516c	0.036942884
18	0xbd13cdc5	-0.03608491
19	0x3d49c491	0.049259726
20	0x3d0d3d0d	0.03448205

tfeb.5.running_mean f4 [21]
0	0xbd0139e0	-0.031549335
1	0xbe13859a	-0.14406434
2	0xbe01536a	-0.12629476
3	0xbdb636da	-0.08897181
4	0xbe3d7cfe	-0.18504712
5	0xbe07e987	-0.13272677
6	0x3cb51fe6	0.022109937
7	0xbe2e4286	-0.17017564
8	0xbe42d7ca	-0.1902763
9	0xbe1a93c2	-0.15095428
10	0xbd0fc94e	-0.03510409
11	0xbe0ca278	-0.13733852
12	0x3bc56734	0.0060242657
13	0x3b00c364	0.0019647712
14	0xbdf3ce28	-0.119045556
15	0x3d08f73b	0.033438902
16	0xbd925c4f	-0.07146513
17	0xbdc130da	-0.09433146
18	0xbc10dc3c	-0.0088415705
19	0x3d985938	0.07438892
20	0xbe16a804	-0.1471253

tfeb.5.running_var f4 [21]
0	0x3c214699	0.009843492
1	0x3c4fbb85	0.0126789855
2	0x3be2bc68	0.0069194324
3	0x3b14798e	0.002265546
4	0x3c333de4	0.010940049
5	0x3c6cc5c3	0.014451447
6	0x3b53c1ad	0.0032311485
7	0x3c297c47	0.010344571
8	0x3c41c9be	0.011827884
9	0x3be7877f	0.007065713
10	0x3ab6d985	0.0013950324
11	0x3c1fd828	0.0097561255
12	0x3bc59698	0.006029915
13	0x3b4e140d	0.0031445057
14	0x3c104f04	0.008807901
15	0x3a8961a5	0.0010481371
16	0x3bf7e0e1	0.0075646495
17	0x3c690f0a	0.014224777
18	0x3a1a46af	0.00058851665
19	0x3b637a32	0.0034710285
20	0x3c099adb	0.008398737

tfeb.7.weight f4 [16, 21, 3, 3]
0	0x3ca1b687	0.019740356
1	0x3c66d90b	0.014089833
2	0x3c89eccd	0.016836548
3	0x3d1de3ee	0.03854745
4	0x3bdf0473	0.0068059503
5	0xbd03855f	-0.032109614
6	0x3d517e45	0.05114581
7	0x3c989d88	0.018629804
8	0xbbe21c73	-0.006900364
9	0x3b82d0d0	0.0039921775
10	0x3b8d86d9	0.0043190536
11	0x3cc160bf	0.023605702
12	0xbd8dae88	-0.06918055
13	0xbcfadb6b	-0.030622205
14	0xbca7701e	-0.020439204
15	0x38ddd646	0.00010578013
16	0x3a1564ce	0.000569892
17	0x3c67c6de	0.014146535
18	0xbba0b5fa	-0.004904506
19	0x3c17e43d	0.009270725
20	0x3d38ccca	0.045117177
21	0xbd0e5f79	-0.03475902
22	0xbb9f5bcd	-0.0048632384
23	0x3cee1efd	0.02906751
24	0xbbf368a0	-0.0074282438
25	0xbb11bf14	-0.0022239136
26	0xbc427d63	-0.011870715
27	0xbc5c6fb6	-0.013454368
28	0xbc635cf2	-0.01387714
29	0xbd08df12	-0.03341586
30	0xbcd4845e	-0.025942024
31	0xbd14a487	-0.036289718
32	0xbd3b3da8	-0.045713097
33	0x3d0655b6	0.032796584
34	0x3a98877b	0.0011637056
35	0xbcd4b100	-0.025963306
36	0xbb678634	-0.0035327794
37	0x38b6a7e1	8.709706e-05
38	0x3cb06cbd	0.021536225
39	0xbda380ad	-0.07983527
40	0xbcecfc51	-0.028928908
41	0x3d1263db	0.03573976
42	0xbd1b0c24	-0.037853375
43	0x3b8f8798	0.0043801777
44	0x3d52bf94	0.051452234
45	0xbd089984	-0.03334953
46	0x3be9c8e2	0.007134543
47	0x3cd7a6e8	0.026324704
48	0xbd44f07d	-0.04808091
49	0xbcdf9505	-0.027292738
50	0xbcea2ba0	-0.028585255
51	0x3c5c7eaf	0.013457938
52	0xbb046a60	-0.0020205006
53	0xbc543ede	-0.012954442
54	0x3bb0eaea	0.0053990977
55	0x3bbd8ea2	0.0057848254
56	0x3b6d8e7a	0.0036248253
57	0x3b861a02	0.004092456
58	0x3b42ec2e	0.0029742825
59	0xbc3fe606	-0.011712557
60	0x3cc25e65	0.023726651
61	0x3adc8fee	0.0016827562
62	0xbcb0baa8	-0.02157338
63	0xbd0f50ad	-0.034989048
64	0x3acd3273	0.0015655294
65	0x3bdbad39	0.0067039994
66	0xbd93497c	-0.071917504
67	0xbbff2096	-0.007785867
68	0xbc4217db	-0.011846508
69	0x3bd6aab5	0.0065511116
70	0x3cd9b472	0.0265753
71	0x3c2f7636	0.010709336
72	0x3cb04615	0.021517793
73	0x3c54d4bb	0.012990172
74	0x3c44bafe	0.012007473
75	0x3838b5f6	4.4038483e-05
76	0xbbcd32f2	-0.0062621767
77	0x3cf9e069	0.030502515
78	0xbc5e2f47	-0.0135610765
79	0xbbce0bf1	-0.0062880446
80	0x3c2de42c	0.010613482
81	0xbc953e25	-0.01821811
82	0xb98d1357	-0.00026908025
83	0x3ca77ace	0.0204443
84	0xbd8225c7	-0.06354862
85	0xbc750ca7	-0.01495663
86	0x3c86528f	0.016396789
87	0xbd30307a	-0.04301498
88	0xba377b32	-0.00069992535
89	0x3d64c63c	0.055853114
90	0x3a285c09	0.0006422406
91	0xbb29988f	-0.0025878286
92	0x3c2c482b	0.010515253
93	0x3b78a589	0.0037940464
94	0x3a479561	0.0007613507
95	0x3b80a3a9	0.00392576
96	0xbc67946d	-0.014134509
97	0xbcaaac3e	-0.020834085
98	0xbc9f9050	-0.019477993
99	0xbd801033	-0.0625309
100	0xbdb14cc9	-0.08657224
101	0xbd6298f1	-0.055321638
102	0xbd8d54fb	-0.06900974
103	0xbd862c98	-0.06551474
104	0xbc730145	-0.014831846
105	0xbca5483f	-0.020176051
106	0xbc9f8c00	-0.019475937
107	0x3cadcc98	0.021215722
108	0x3b83e75f	0.0040253843
109	0xbce27ffc	-0.027648918
110	0xbd256900	-0.04038334
111	0x3d288758	0.0411447
112	0xbcee527d	-0.029092068
113	0xbd8c96f2	-0.06864728
114	0x3c61db43	0.013785186
115	0xbc49af83	-0.012309912
116	0xbc495409	-0.012288102
117	0x3d125a1c	0.035730466
118	0x3cfe1932	0.031017873
119	0x3c9c3221	0.019066872
120	0x3b07f9a0	0.0020748153
121	0x3ba6660b	0.0050780824
122	0x3b510ad3	0.003189732
123	0x3ce1d426	0.02756698
124	0x3b972ccb	0.004613494
125	0xbc3da300	-0.011574507
126	0x3c76a976	0.015055051
127	0xbb2a8665	-0.0026020047
128	0xbbbc7fdb	-0.0057525462
129	0xbcf80590	-0.03027609
130	0xbcfcef02	-0.030875687
131	0x3cb41b31	0.021985622
132	0x3b40594e	0.0029350105
133	0x3c25a759	0.0101107
134	0xb85a10f9	-5.1991057e-05
135	0xbd29edcb	-0.041486543
136	0x3b767eb2	0.0037612137
137	0x3aa207a3	0.0012361895
138	0xbd446b3b	-0.047953825
139	0xbc9e9b25	-0.019361088
140	0xbc832ab6	-0.016011577
141	0xbd0cdd23	-0.03439058
142	0xbc745a4b	-0.014914106
143	0xba4f86df	-0.00079165207
144	0x3b0a18f1	0.0021071995
145	0x3d0b6591	0.03403241
146	0x3c0ff4dc	0.008786406
147	0xbd20dc82	-0.039272793
148	0xbcb968d3	-0.022632992
149	0xbcb03bf5	-0.021512965
150	0x3a99715a	0.0011706755
151	0xbbe4d063	-0.0069828494
152	0xbca1ffd7	-0.019775314
153	0x394597cd	0.00018843934
154	0xbcc0448b	-0.023470184
155	0x3b837200	0.0040113926
156	0x3aaaf91d	0.0013044212
157	0x3c8e7770	0.017390937
158	0x3c8c7890	0.017147332
159	0xbcfc366e	-0.030787673
160	0xbc860099	-0.016357707
161	0xbcdd292d	-0.026997173
162	0x3c626edf	0.013820379
163	0xbb3d0741	-0.0028843435
164	0xbaab3464	-0.0013061878
165	0xbc16f08a	-0.009212622
166	0xbbf07ada	-0.007338864
167	0xbbb4e138	-0.005520012
168	0xbbf8b5a3	-0.007590012
169	0xbb90c750	-0.004418291
170	0xbb8bd42c	-0.004267236
171	0x3d79d272	0.060991712
172	0x3b3f20f0	0.002916392
173	0x3a5b199f	0.0008358005
174	0xbd4ac480	-0.049503803
175	0xbd0eb417	-0.034839716
176	0xbcbd326a	-0.023095328
177	0x3c57c94c	0.0131705515
178	0x3a93cb0a	0.001127572
179	0x3c381764	0.0112360455
180	0xbcc49520	-0.02399689
181	0xbd1a79d0	-0.037713826
182	0x3a119d92	0.0005554791
183	0xbcc08772	-0.023502085
184	0xbd0f5b4d	-0.03499918
185	0xbb9642e7	-0.004585612
186	0x3c262b6b	0.010142188
187	0xbb201fa2	-0.0024432917
188	0xba489ba0	-0.00076525845
189	0xbcfae90a	-0.0306287
190	0xbbda1b98	-0.0066561215
191	0xbc34ed5a	-0.011042917
192	0xbd0d087f	-0.03443193
193	0x3bd7ac94	0.006581852
194	0x3d0bff91	0.034179274
195	0xbcad9aab	-0.021191915
196	0x3b18feea	0.00233453
197	0x3cce8e34	0.025214292
198	0x3c9e152a	0.019297201
199	0x3c9e9547	0.01935829
200	0x3cb4ee8e	0.022086408
201	0xbc04bd5e	-0.008101789
202	0x3cf69768	0.030101493
203	0x3d23d008	0.039993316
204	0xbd04393e	-0.032281153
205	0xbc5f6121	-0.013633997
206	0xbd15e158	-0.036591858
207	0x3cb48514	0.022036113
208	0x3b51cc78	0.0032012742
209	0xbc869c0a	-0.016431827
210	0x39cda553	0.00039223823
211	0xbd45ad04	-0.048260704
212	0xbd8d8c0a	-0.06911476
213	0xbb12c405	-0.0022394669
214	0x3ce7990b	0.028271219
215	0x3d0a4a0c	0.033762023
216	0xbb82e11b	-0.00399412
217	0x3cbd36f0	0.023097485
218	0x3d26da2f	0.04073542
219	0xbcc1cf51	-0.023658426
220	0xbcc1b47c	-0.023645632
221	0xbcf8f9bd	-0.030392522
222	0xbd1c2da6	-0.03812947
223	0x3ca64e77	0.020301087
224	0x3d6ad963	0.057336222
225	0x3cfe13b0	0.031015247
226	0x3c2fb796	0.010724923
227	0xb9b54401	-0.00034573677
228	0x3d04a847	0.032387044
229	0xbc4f9900	-0.012670755
230	0xbcfeba66	-0.031094741
231	0xbbbf43c3	-0.0058369352
232	0xbcdc95fa	-0.026926983
233	0xbd61798c	-0.055047557
234	0xbbeeb6dc	-0.007284982
235	0xbc3d55dc	-0.011556115
236	0xbd2d8572	-0.04236359
237	0xbcb5a7ef	-0.022174804
238	0x3ca6bad4	0.020352758
239	0x3c2e2824	0.010629687
240	0xbd14f955	-0.036370594
241	0xbd024f3c	-0.031813845
242	0xbd0874d9	-0.03331456
243	0xba8105ac	-0.0009843609
244	0x3c371191	0.011173622
245	0x3cab35d5	0.020899693
246	0xbc685d09	-0.014182338
247	0x3b0fbd80	0.002193302
248	0xbb3d9716	-0.0028929166
249	0xbc49f2c4	-0.012325946
250	0xb98e365f	-0.0002712486
251	0x3c702580	0.014657378
252	0x3b2a787d	0.0026011758
253	0x3cca1401	0.024667742
254	0x3cfc3604	0.030787475
255	0xbc951ae4	-0.018201299

tfeb.8.weight f4 [16]
0	0x3e83d75e	0.2575025
1	0x3e706105	0.2347451
2	0x3e87eca6	0.26547736
3	0x3e786585	0.24257477
4	0x3e61175e	0.2198157
5	0x3e2ae905	0.16690452
6	0x3e47da07	0.19516765
7	0x3e8df0c3	0.2772275
8	0x3eac43cd	0.33645478
9	0x3e79e28d	0.24402829
10	0x3dffd25b	0.12491294
11	0x3e40aa4e	0.18814966
12	0x3e440158	0.19141138
13	0x3e88aebe	0.26695818
14	0x3ea18091	0.315434
15	0x3e3b0f6f	0.18267606

tfeb.8.bias f4 [16]
0	0xbd977a41	-0.07396365
1	0x3cea5d20	0.028608859
2	0xbe9185e6	-0.2842247
3	0xbd6734f2	-0.056446977
4	0xbda0b688	-0.07847315
5	0x3b944a64	0.0045254696
6	0x3c7ecef6	0.015552273
7	0xbda512d0	-0.08060229
8	0xbe53f1e1	-0.20697738
9	0xbd536396	-0.051608644
10	0xbbdf5566	-0.0068156
11	0xbde1ca58	-0.11024922
12	0xbd656121	-0.056000832
13	0xbe1db571	-0.15401246
14	0xbdb3f16d	-0.08786283
15	0x3d30389e	0.043022744

tfeb.8.running_mean f4 [16]
0	0xbde58f10	-0.11208928
1	0xbd41d40a	-0.047321357
2	0x3c9de761	0.01927537
3	0xbda3f66c	-0.080059856
4	0x3b4c080d	0.0031132728
5	0xbd08eb6d	-0.033427645
6	0xbcf90e4c	-0.030402325
7	0xbcc078d2	-0.023495112
8	0xbd857ecf	-0.065183274
9	0xbd2655f8	-0.04060933
10	0x3dcf5c8e	0.10125075
11	0xbc951acf	-0.01820126
12	0x3b23defc	0.0025004735
13	0xbcdc3eb0	-0.02688536
14	0x3d2be394	0.041965082
15	0xbcf0ed66	-0.029410075

tfeb.8.running_var f4 [16]
0	0x3af4e83c	0.0018684934
1	0x3b258073	0.0025253564
2	0x3aaed54a	0.0013338712
3	0x3b14de19	0.0022715388
4	0x3ac476f1	0.0014989061
5	0x3a3b0000	0.0007133484
6	0x3abc2bbf	0.0014356299
7	0x3b66f9bd	0.003524407
8	0x3abe738b	0.0014530284
9	0x3b1803d1	0.0023195634
10	0x3aef873b	0.0018274555
11	0x39cf6792	0.00039559283
12	0x3ae5aa44	0.0017522057
13	0x3b873dcc	0.00412724
14	0x3b3bc3cf	0.0028650647
15	0x3ad8fddb	0.0016555147

tfeb.11.weight f4 [26, 16, 3, 3]
0	0xbb82f5b7	-0.0039965766
1	0xbb9c36c2	-0.00476727
2	0x3c009005	0.007846837
3	0xbc4750a6	-0.012165224
4	0xbb265f3f	-0.002538636
5	0xbcaf6551	-0.021410616
6	0x3911f911	0.00013921062
7	0x3b5594a8	0.0032589827
8	0x3b3cef0c	0.0028829006
9	0x39fa8b43	0.00047787474
10	0xbb36715d	-0.0027838566
11	0xbb7aa246	-0.0038243695
12	0xbca66f59	-0.020316767
13	0xbc62e41d	-0.013848332
14	0xbb349ef0	-0.0027560554
15	0xbc23851b	-0.009980465
16	0xbc229cc7	-0.009925074
17	0xbc3f8789	-0.011690029
18	0x3a5adf98	0.0008349358
19	0xbada9b1d	-0.0016678307
20	0x399e48ba	0.00030190294
21	0xbc6677e2	-0.014066668
22	0xbc855b96	-0.016279023
23	0xbad36c8e	-0.0016130374
24	0xbc0fd664	-0.008779142
25	0xbc7e9fa9	-0.015540996
26	0xbc3e6af2	-0.011622177
27	0xbbe91a95	-0.0071137645
28	0xbaab92c2	-0.0013090002
29	0xbaebfdae	-0.001800468
30	0xbca59eb1	-0.020217272
31	0xbc91e142	-0.017807607
32	0xbcbbea66	-0.022938918
33	0xbc501f32	-0.01270275
34	0xbc606599	-0.013696098
35	0x3a2911e6	0.00064495055
36	0xbba342a8	-0.0049823113
37	0xbb70db9a	-0.0036751986
38	0xbbd0f728	-0.0063771196
39	0x3bf41ba9	0.0074495864
40	0xbad37ade	-0.001613464
41	0xbb6bbf82	-0.0035972302
42	0x3bfd3b35	0.0077280053
43	0xbbdf1b91	-0.006808706
44	0xbc09e153	-0.008415538
45	0xbb5e1be3	-0.0033891133
46	0xbb0948eb	-0.0020948004
47	0xba8ed8f5	-0.0010898398
48	0xbc824427	-0.015901638
49	0x39bdbae5	0.00036188136
50	0xbc229389	-0.00992287
51	0x3ac32026	0.00148869
52	0x3b8863cb	0.004162287
53	0x3b7f8ba1	0.0038993137
54	0x3ae89728	0.0017745243
55	0xbc819988	-0.01582028
56	0xbb4d4b5b	-0.0031325433
57	0x3c2bc497	0.010483882
58	0x3bd2543d	0.0064187334
59	0x3c1db72f	0.009626194
60	0x3b2182d5	0.0024644632
61	0x3be741f1	0.0070574214
62	0x3c49180b	0.012273799
63	0x3b03061a	0.001999265
64	0xbc013601	-0.007886411
65	0xbbb01a77	-0.0053742486
66	0x3c8d1bb5	0.017225126
67	0xbc26ca4d	-0.010180068
68	0x3c45badb	0.012068476
69	0x3c8d534b	0.017251631
70	0xbc584937	-0.0132010495
71	0x3bade8cf	0.005307294
72	0x3c42d56b	0.011891703
73	0x3ae73bd6	0.0017641734
74	0x39fb0461	0.00047877713
75	0x3cbfd27c	0.023415796
76	0x3c2a291d	0.010385779
77	0x3c2b33d2	0.010449367
78	0x3c2a1fe9	0.010383585
79	0xba8cd43a	-0.0010744401
80	0x3733857d	1.0700312e-05
81	0xbcc17ce6	-0.023619127
82	0xbadb98ed	-0.001675395
83	0x3afb45c9	0.0019170578
84	0x3b4d7d55	0.0031355221
85	0x3bd02cc4	0.0063529927
86	0x3c205b70	0.009787425
87	0x3c3caec8	0.0115162805
88	0x3bd0ba9f	0.006369903
89	0xbbfeb6a9	-0.0077732396
90	0xbc7da3ef	-0.015480979
91	0xbc84d340	-0.016214013
92	0xbbfb9df4	-0.0076787416
93	0xbbd63a75	-0.0065377303
94	0xbc5ed81b	-0.013601328
95	0xbc60e53e	-0.013726531
96	0x3c0c42c8	0.008560844
97	0x3be730c4	0.007055374
98	0x3b2dc4f9	0.002651511
99	0x37c145bc	2.3039865e-05
100	0xbb4c5603	-0.0031179197
101	0xbbaa5d27	-0.005199093
102	0x3c68e585	0.014214878
103	0x3c6e736f	0.014553889
104	0xbb17c08c	-0.0023155538
105	0x3cc3c4b7	0.023897512
106	0x3c7476b4	0.014920879
107	0xbc05c1aa	-0.008163849
108	0x3b4cb575	0.0031236087
109	0x3c9b8280	0.018983126
110	0xbcc55862	-0.024089996
111	0x3c0a682e	0.00844769
112	0x3c6e4d91	0.01454486
113	0xbc74e878	-0.014948003
114	0x3cfc1cb7	0.030775411
115	0x3c4c698a	0.012476334
116	0xbb5d58e2	-0.0033774902
117	0xbaaa0cd9	-0.00129738
118	0xbc871fc2	-0.016494635
119	0xbc792ab4	-0.015207935
120	0x3bcc75e1	0.006239638
121	0x3b08895e	0.002083383
122	0xba7f51f7	-0.0009739692
123	0x3b706016	0.0036678365
124	0x3c274756	0.010209879
125	0x3c527f93	0.012847799
126	0x3ca1e50d	0.01976254
127	0x3b66af2c	0.0035199625
128	0xbb1ee8c9	-0.0024247637
129	0x3bf528de	0.0074816784
130	0xbcaa7d05	-0.020811567
131	0xbca4afde	-0.020103391
132	0x3c92ba19	0.017911004
133	0xb9987977	-0.00029082198
134	0xbc2bd527	-0.010487831
135	0xbc93d335	-0.018045047
136	0xbbb0fa5b	-0.0054009384
137	0xbc977696	-0.018489163
138	0xbc964655	-0.018344084
139	0xbbbf8e87	-0.005845848
140	0xbbfac97c	-0.0076534133
141	0xbc743770	-0.014905795
142	0xbc83de55	-0.016097227
143	0xbc6a9144	-0.014316861
144	0xbc28bc43	-0.010298791
145	0xbc23714c	-0.009975743
146	0xbaa9a859	-0.0012943848
147	0x3cfd6eec	0.03093668
148	0xbcb09f88	-0.021560445
149	0xbcc0eb7d	-0.02354979
150	0x3c5aacf0	0.013346896
151	0xbcbb0ba7	-0.022832705
152	0x3a889164	0.0010419306
153	0x3bdb8901	0.0066996817
154	0x3c5157fd	0.012777326
155	0xbd30d934	-0.04317589
156	0xbd0ec2cf	-0.034853753
157	0xbc90dc23	-0.017683094
158	0xbd98f4ab	-0.07468542
159	0x3b8bc3fc	0.0042653065
160	0x3d067874	0.032829717
161	0x3c623cbf	0.013808428
162	0xbc694750	-0.014238194
163	0x3b364ec9	0.0027817956
164	0xbcd2055d	-0.025637323
165	0x3b53489a	0.0032239319
166	0x3d24122c	0.040056393
167	0xbb3602c7	-0.0027772652
168	0xb9c57515	-0.00037662
169	0x3cd7d16b	0.026344975
170	0x3bc2bfa7	0.005943257
171	0xb6913b6b	-4.328254e-06
172	0x3a8abb96	0.001058447
173	0xbc52ef44	-0.012874428
174	0x3cd095cf	0.02546206
175	0x3affb220	0.0019508041
176	0x3b64c3a4	0.003490665
177	0x3b2f6661	0.0026763903
178	0x3a3696d8	0.00069652265
179	0x3c761912	0.015020626
180	0x3af2b175	0.0018516021
181	0xbc3df275	-0.011593451
182	0xbccc7bbb	-0.024961343
183	0xbd0f4abf	-0.034983393
184	0xbcbecda8	-0.023291424
185	0xbd44c200	-0.048036575
186	0x3aa7b26d	0.0012794264
187	0x3cf5ae83	0.02999044
188	0x3a09eefd	0.0005261747
189	0x3b7f4dfc	0.0038956394
190	0x3c9352ea	0.017983872
191	0x3b1e2ad9	0.0024134426
192	0xbbf7b3dd	-0.007559283
193	0x3c92fbff	0.017942427
194	0xbbd2fb7c	-0.0064386707
195	0xba6a545c	-0.0008938962
196	0x3c477db2	0.012175964
197	0x3c673216	0.0141110625
198	0x3cdd5327	0.02701719
199	0xbb02f7e3	-0.0019984178
200	0x3c510ea9	0.012759843
201	0x3d38120a	0.04493908
202	0x3b361778	0.0027784985
203	0x3cfabde0	0.030608118
204	0x3c1224b4	0.0089198835
205	0xbc9e9ef6	-0.019362908
206	0x3d03ffbb	0.032226305
207	0x3cd2f761	0.025752725
208	0xbd03b0a0	-0.032150865
209	0x3c79879e	0.015230088
210	0xba8e4d3f	-0.0010856761
211	0xbc9cbc98	-0.019132897
212	0x3cf29d84	0.029616125
213	0x3c0e6f2b	0.008693497
214	0xbb37e522	-0.0028060158
215	0x3ceb6657	0.028735323
216	0x3ccadb35	0.02476273
217	0xbca6ee13	-0.020377195
218	0xbb2c533a	-0.0026294724
219	0x3c235836	0.009969762
220	0xbcdcd7e2	-0.02695841
221	0x3b908137	0.004409935
222	0x3c3d3c20	0.011549979
223	0x3b9408a9	0.004517634
224	0x3b4ecf2f	0.0031556597
225	0x3c28bad0	0.010298446
226	0xbd3370d3	-0.04380877
227	0x3c5edf2b	0.013603012
228	0xbc8cde65	-0.01719589
229	0xbd203b22	-0.039118893
230	0x3c734132	0.014847087
231	0xbccf00ec	-0.025268994
232	0x3b454b8a	0.003010484
233	0x3b07db1c	0.0020729965
234	0xbd5cbc21	-0.05389035
235	0xbcb0e818	-0.021595046
236	0xba618456	-0.00086027884
237	0xbd50719a	-0.05088959
238	0xbb3745ac	-0.0027965112
239	0x3c99507b	0.018715134
240	0xbcabe637	-0.020983798
241	0xbb0a6e3c	-0.0021122834
242	0x3b9b5923	0.0047408505
243	0x3d3361db	0.043794494
244	0xbc06fb60	-0.008238643
245	0xbc280a55	-0.01025637
246	0x3d13fee4	0.036131755
247	0xbca39b8f	-0.019971637
248	0x3b7a085c	0.0038151955
249	0x3c8a611c	0.016892008
250	0xbc1b3a9d	-0.009474424
251	0x3cb1b227	0.021691395
252	0x3d09d179	0.033647034
253	0xbae7c45d	-0.0017682422
254	0x3c39b625	0.011334931
255	0x3b910787	0.004425946

tfeb.12.weight f4 [26]
0	0x3dd298c2	0.102830425
1	0x3e4f5d0b	0.20250337
2	0x3e1f0229	0.15528168
3	0x3e505710	0.20345712
4	0x3e7d9443	0.24763589
5	0x3e82a7a8	0.25518537
6	0x3e136fc6	0.14398107
7	0x3defd6d0	0.11710894
8	0x3db7da64	0.089772016
9	0x3dde55ff	0.10856246
10	0x3e609adf	0.21934079
11	0x3dc5d0a8	0.09658939
12	0x3e309f72	0.17248324
13	0x3e2c19db	0.16806738
14	0x3e2ff2d8	0.17182481
15	0x3e566833	0.20938186
16	0x3ddad12d	0.10684428
17	0x3e3e4ef1	0.18584801
18	0x3e40042d	0.18751593
19	0x3d9b3a40	0.0757947
20	0x3e41c28d	0.18921871
21	0x3e00ebdd	0.12589975
22	0x3dcea2c2	0.10089637
23	0x3e7b9f57	0.24572502
24	0x3e247423	0.16059928
25	0x3e23b101	0.1598549

tfeb.12.bias f4 [26]
0	0xba9ff53e	-0.0012203825
1	0xbcf51ace	-0.029920008
2	0xbd64bf83	-0.055846702
3	0xbd071f57	-0.032988872
4	0xbe1aeae6	-0.15128669
5	0xbdd7f588	-0.10544878
6	0x3bc9ff20	0.0061644465
7	0xbdc7572b	-0.09733423
8	0x3cd3062a	0.025759775
9	0xbd0f04d1	-0.034916703
10	0xbe2cc94a	-0.1687366
11	0xbd3ff2eb	-0.046862524
12	0xbdc6207d	-0.096741654
13	0xbd85e0a6	-0.06536989
14	0xbd94ead8	-0.072713554
15	0xbdf5dd86	-0.12005143
16	0xbcc631d6	-0.024193686
17	0xbd73a16f	-0.059480127
18	0xbb2fd749	-0.00268312
19	0x3d6df498	0.05809459
20	0xbcb852e5	-0.022500465
21	0x3dacb96d	0.08433805
22	0xbd784fb4	-0.060622886
23	0xbdecce57	-0.11562794
24	0xbd144bd8	-0.036205143
25	0x3d55332e	0.052050762

tfeb.12.running_mean f4 [26]
0	0xbcd96e27	-0.026541783
1	0xbd0c1727	-0.034201767
2	0xbd18c3cf	-0.037296113
3	0xbd3d3a47	-0.046198156
4	0x3cfae825	0.030628273
5	0xbc12ba42	-0.00895554
6	0x3c32d46b	0.010914902
7	0xbce86fc4	-0.028373607
8	0xbd74e7fe	-0.059791557
9	0xbd64c094	-0.05584772
10	0xbd7bbd3d	-0.06145977
11	0x3c3ab1ec	0.011394959
12	0xbd85f603	-0.06541064
13	0xbd8e7e1c	-0.06957647
14	0x3c89d397	0.016824527
15	0xbc916006	-0.017745983
16	0xbcf03242	-0.02932084
17	0x3d7adec8	0.061247617
18	0xbd5ee2d0	-0.054415524
19	0xbda00eda	-0.07815333
20	0xbd56acaf	-0.052410778
21	0xbc935535	-0.017984966
22	0xbcabd1a5	-0.02097399
23	0xbd9b4031	-0.07580603
24	0x3c125acf	0.008932783
25	0xbd28c4ca	-0.041203298

tfeb.12.running_var f4 [26]
0	0x3aa5d091	0.0012650659
1	0x3b52b55a	0.003215155
2	0x3b3cef33	0.0028829097
3	0x3b3d19c4	0.002885447
4	0x3c077771	0.008268223
5	0x3b9401ad	0.0045168013
6	0x3b4e4cf2	0.0031478968
7	0x3bca745d	0.0061784224
8	0x3b84d6d0	0.004053928
9	0x3b540bc1	0.0032355639
10	0x3b389871	0.0028167034
11	0x3a2d69bd	0.00066151825
12	0x3b0ebee3	0.0021781258
13	0x3b975993	0.0046188324
14	0x3ac1930d	0.0014768556
15	0x3adf1028	0.0017018365
16	0x3aaf39fd	0.0013368722
17	0x3b749343	0.003731922
18	0x3b7625d1	0.0037559161
19	0x3b9a0599	0.0047003743
20	0x3bd7734f	0.006575025
21	0x3b642a23	0.0034815155
22	0x3ac09f37	0.0014695887
23	0x3bac8f39	0.005266097
24	0x3ad1130e	0.0015951113
25	0x3b37acd7	0.0028026605
