refine_codes/retrained_models_after_second_stage_pruning/after_second_pruning_time_2024022015_prunratio0.83/retrained_model_after_second_pruning_0.83ratio_acc56.818180084228516_2th_epoch_20240220155856.pt (torch, 409836 bytes, 62 tensors)

sfeb.0.weight f4 [6, 1, 1, 9]
0	0x3e20bd77	0.15697275
1	0x3e6fbf00	0.23412704
2	0x3dbfacf9	0.09359164
3	0x3f4ad500	0.7923126
4	0xbe646cca	-0.22307125
5	0xbe9fb0ad	-0.3118948
6	0xbec23969	-0.37934425
7	0xbde861f7	-0.1134681
8	0xbd4aeff9	-0.049545262
9	0xbce582a5	-0.028016398
10	0x3d815e14	0.06316772
11	0x3e3bb2b3	0.18329887
12	0xbe98c8cc	-0.29840696
13	0x3de88caa	0.113549545
14	0xbf6290d7	-0.8850226
15	0xbebf0af5	-0.37313047
16	0x3edfabbc	0.4368571
17	0x3f334770	0.7003088
18	0x3e3d1ae8	0.18467295
19	0x3d2144a8	0.039372116
20	0x3cacf1f0	0.021111459
21	0xbe773aa9	-0.24143471
22	0xbd026bbe	-0.031841032
23	0xbe6e8f19	-0.23296775
24	0x3e3bc2c1	0.18336011
25	0x3ce02b29	0.02736433
26	0xbedbac0e	-0.42904705
27	0x3f284515	0.6573041
28	0xbdc4fe49	-0.096188135
29	0xbd484540	-0.048894167
30	0xbe99c373	-0.30031928
31	0x3d071b42	0.03298498
32	0xbe351b7f	-0.1768627
33	0x3de9ebfb	0.11421963
34	0x3f0ab549	0.5418287
35	0xbec565ff	-0.3855438
36	0xbefec898	-0.49762416
37	0xbf1276de	-0.57212627
38	0x3d037fdf	0.03210437
39	0x3f19c8d0	0.6007204
40	0x3dd6340e	0.104591474
41	0x3e9aa09c	0.3020066
42	0xbe865eb6	-0.26244134
43	0x3d016a5a	0.031595565
44	0x3dcd8b7c	0.1003637
45	0x3e1ddf28	0.15417159
46	0x3e1d12d9	0.15339221
47	0xbe7d81cc	-0.24756545
48	0x3ec4836b	0.38381514
49	0xbf6208c4	-0.88294625
50	0x3f37a184	0.7173083
51	0x3db1207f	0.08648776
52	0xbf826aab	-1.0188802
53	0x3f037397	0.5134825

sfeb.1.weight f4 [6]
0	0x3f4df845	0.80456954
1	0x3f6f7e70	0.93552303
2	0x3ef0d905	0.47040573
3	0x3efb73e2	0.4911185
4	0x3f25ce0b	0.6476752
5	0x3f14934a	0.58037245

sfeb.1.bias f4 [6]
0	0x3d67e314	0.056613043
1	0x3db7316f	0.089449756
2	0x3c836527	0.016039444
3	0x3f0ea9f3	0.5572807
4	0x3f10457e	0.56356037
5	0x3f1d63d1	0.6148043

sfeb.1.running_mean f4 [6]
0	0x39b0d57a	0.00033728388
1	0xb90e45ae	-0.00013568133
2	0xba57c4cc	-0.0008230924
3	0x3a1df9e4	0.00060263113
4	0xb99774c6	-0.00028887967
5	0xb976434d	-0.0002348546

sfeb.1.running_var f4 [6]
0	0x3d300ce9	0.042981062
1	0x3d99a86e	0.075028285
2	0x3c4a8adf	0.012362211
3	0x3cebdcf9	0.028791891
4	0x3d664db5	0.05622645
5	0x3c3a8dac	0.011386316

sfeb.3.weight f4 [32, 6, 1, 5]
0	0xbdc6bc4d	-0.09703884
1	0xbd25478d	-0.04035144
2	0xbd268d1a	-0.04066191
3	0xbc0518c7	-0.008123583
4	0xbb5d8bc4	-0.003380523
5	0xbce03a4e	-0.027371552
6	0xbd21efe9	-0.039535437
7	0xbc84b7e6	-0.01620097
8	0xbd0330f7	-0.03202912
9	0xbb3a46e7	-0.0028423609
10	0x3d01bf16	0.031676374
11	0x3d9818b1	0.074265845
12	0x3ddab388	0.10678774
13	0x3e4ded88	0.20110142
14	0x3e170c3c	0.14750761
15	0xbd6eeca2	-0.05833114
16	0xbd402462	-0.046909697
17	0xbd70850e	-0.05872064
18	0x3bb2f7d9	0.0054616746
19	0x3c19b889	0.0093823755
20	0x3cfe62a0	0.031052887
21	0x3d8aed40	0.06783533
22	0x3d6112f3	0.054949712
23	0xbd87c3a7	-0.066291146
24	0x3bc152cc	0.0058997627
25	0xbd78b149	-0.060715947
26	0xbcca1816	-0.024669688
27	0x3c06ea66	0.008234596
28	0x3b0ebe7b	0.0021781016
29	0xbcbbe256	-0.022935074
30	0xbdfb9205	-0.122837104
31	0xbe059614	-0.13045532
32	0xbd7727f7	-0.060340848
33	0xbdaea91f	-0.08528351
34	0xbd1dac36	-0.03849431
35	0xbd5f76a1	-0.054556493
36	0xbd77b096	-0.06047114
37	0x3c1b5785	0.0094813155
38	0x3d20a029	0.03921524
39	0xbd8b54b8	-0.06803268
40	0x3e650266	0.22364196
41	0x3e839635	0.25700536
42	0x3e4b0523	0.19826178
43	0x3e840a4d	0.2578911
44	0x3e5149bc	0.20438284
45	0xbe1eedf1	-0.15520455
46	0xbde786ca	-0.11305006
47	0xbe16ba63	-0.14719538
48	0xbe335b44	-0.17515284
49	0xbdc8739c	-0.09787676
50	0x3d25d950	0.04049045
51	0x3dd269b3	0.10274067
52	0x3df0125c	0.11722252
53	0x3e0a3cdd	0.1349978
54	0x3e22d292	0.15900639
55	0xbd569c8d	-0.052395392
56	0x3b2821a6	0.0025654822
57	0x3ca1a60d	0.0197325
58	0xbd0b207f	-0.033966538
59	0xbc5f8008	-0.013641365
60	0xbe4e36be	-0.2013807
61	0xbe25ec24	-0.16203362
62	0xbdc63260	-0.09677577
63	0xbe08adc9	-0.13347544
64	0xbd4f4b27	-0.05060878
65	0x3ccf8437	0.0253316
66	0xbd55b5dc	-0.052175388
67	0xbda4804f	-0.080322854
68	0xbe312e03	-0.17302708
69	0xbe970a4c	-0.29500043
70	0xbda95024	-0.08267239
71	0x3d70c4c0	0.058781385
72	0x3db2af0b	0.08724793
73	0x3e2deeef	0.16985677
74	0x3e777520	0.24165773
75	0xbe196f6c	-0.1498391
76	0xbd89a4d7	-0.06720894
77	0xbd54c6b4	-0.05194731
78	0xbdaa7d08	-0.08324629
79	0xbd47528e	-0.048662715
80	0x3e56ef5e	0.20989749
81	0x3dd8728f	0.10568725
82	0x3d9f5125	0.07779149
83	0x3dea7c0f	0.114494435
84	0x3cc46cd8	0.023977682
85	0xbc3ca339	-0.011513525
86	0xbad2b35e	-0.0016075184
87	0xba7750c6	-0.00094343384
88	0xbd68d6c3	-0.056845438
89	0xbd16447b	-0.0366864
90	0xbcba8e38	-0.022772893
91	0xbc000ee7	-0.007816053
92	0x3c71b178	0.0147517845
93	0xbd210f9c	-0.039321527
94	0xbdc36a56	-0.09541766
95	0xbe1d202e	-0.15344307
96	0xbd9e27b5	-0.07722417
97	0xbda139fb	-0.07872387
98	0xbdd8c079	-0.10583586
99	0xbda1dfae	-0.07903992
100	0xbee6cac0	-0.4507656
101	0xbeac2908	-0.33625054
102	0xbe5e5fb5	-0.21716197
103	0xbe254912	-0.16141155
104	0xbe09c2f3	-0.13453273
105	0x3e8a8b10	0.2705922
106	0x3e48cfc5	0.19610508
107	0x3e23d7d0	0.16000295
108	0x3dc9b984	0.098498374
109	0x3d9135c6	0.070903346
110	0xbe17f217	-0.14838444
111	0xbe5bb271	-0.21454789
112	0xbda3c22f	-0.07996022
113	0xbe0c3dec	-0.13695496
114	0xbdd75f0d	-0.105161764
115	0xbc242767	-0.01001916
116	0xbb58d0c9	-0.003308343
117	0xbd217298	-0.039415926
118	0xbd1a8495	-0.037724096
119	0x3c2c2951	0.0105078975
120	0x3e1b4857	0.15164314
121	0x3deb00ae	0.11474739
122	0xbd35c70b	-0.044379275
123	0x3bdcf369	0.006742884
124	0x3dde8cbc	0.10866687
125	0xbe1a201c	-0.15051311
126	0xbe1fe919	-0.15616263
127	0xbd158268	-0.03650132
128	0xbda37920	-0.07982087
129	0xbe552394	-0.20814353
130	0xbdf8afce	-0.12142907
131	0xbdace8f5	-0.084428705
132	0xbdce77f7	-0.10081475
133	0x3d079659	0.033102367
134	0x3dfafd6a	0.12255366
135	0x3e7b397d	0.24533649
136	0x3de5eec8	0.112271845
137	0x3dbaa7c3	0.09114029
138	0x3d7e8e17	0.062147226
139	0x3c57b1f7	0.013164989
140	0xbe2358b9	-0.15951814
141	0xbddeca91	-0.1087848
142	0xbdfc2a47	-0.12312751
143	0xbce26369	-0.027635293
144	0xbdc11bf3	-0.09429159
145	0x3c939f5c	0.018020324
146	0x3d080d54	0.033215836
147	0x3bfca5f8	0.0077102147
148	0xbd864481	-0.06556035
149	0xbd83d4f5	-0.06437103
150	0x3da2730f	0.07932102
151	0x3e091588	0.1338712
152	0x3da2197f	0.07915019
153	0x3cab0b65	0.020879457
154	0xbc1d7b9f	-0.009611993
155	0xbe094492	-0.13405064
156	0xbe1ebb12	-0.15501049
157	0xbe090e65	-0.13384397
158	0xbe0a4a7c	-0.13504976
159	0xbe011238	-0.12604606
160	0xbe10c28e	-0.14136717
161	0xba0849de	-0.00051989953
162	0x3df34885	0.118790664
163	0x3e3e89d7	0.18607269
164	0x3e3288e7	0.17435037
165	0x3def6e71	0.11690987
166	0x3db6440b	0.08899697
167	0x3de81be9	0.113334484
168	0xbcad1020	-0.021125853
169	0xbdb78115	-0.08960167
170	0xbdf378fd	-0.11888311
171	0xbe46ac5d	-0.19401689
172	0xbe0d8d95	-0.1382354
173	0xbdd88136	-0.1057152
174	0xbdbcaf73	-0.09213152
175	0xbd153057	-0.036423054
176	0xbcafc2d3	-0.021455204
177	0xbc73276f	-0.014840945
178	0xbce044f3	-0.027376628
179	0xbbdf501b	-0.0068149692
180	0x3cc02386	0.023454439
181	0xbd7e5132	-0.062089153
182	0xbd3e7312	-0.04649646
183	0xbda55e81	-0.08074666
184	0xbdbd24a0	-0.09235501
185	0xbda97b3a	-0.08275457
186	0xbd145c04	-0.036220565
187	0xbdad74b4	-0.08469525
188	0x3cd29d5c	0.0257098
189	0xbbf431ba	-0.007452217
190	0xbbe770b7	-0.007062997
191	0xbc8ecfe4	-0.017433114
192	0xbdaf14a3	-0.08548858
193	0xbdffc195	-0.12488095
194	0xbdf33804	-0.118759185
195	0x3e0cf9b5	0.1376713
196	0x3db05cf2	0.08611478
197	0x3bdbb1e5	0.0067045563
198	0xbd20027b	-0.039064866
199	0xbd2e6f7c	-0.04258679
200	0xbdcdb4a6	-0.100442216
201	0xbdca1536	-0.09867327
202	0x3ac340e6	0.001489666
203	0x3d01341e	0.031543843
204	0xbc959a0a	-0.018261928
205	0xbc576fe9	-0.01314924
206	0xbd5be34c	-0.053683564
207	0xbcd7c2a9	-0.026337938
208	0xbc0ec319	-0.008713507
209	0x3c4df543	0.012570682
210	0xbe493491	-0.19648959
211	0xbe03f2b6	-0.12885556
212	0xbdb6ec0f	-0.08931743
213	0xbdfa9483	-0.122353576
214	0x3ba27732	0.004958057
215	0x3c6fbe97	0.0146328425
216	0x3d072f66	0.033004187
217	0x3d3974fb	0.045277577
218	0xbdc722cc	-0.09723434
219	0xbdff57f3	-0.12467947
220	0xbdfffac0	-0.12498999
221	0xbdd4a076	-0.10382168
222	0xbd712d6c	-0.05888121
223	0x3cf39a56	0.029736679
224	0x3e5ad409	0.21369947
225	0xbe3078a2	-0.17233518
226	0xbd365a19	-0.044519518
227	0xbab516cd	-0.0013815999
228	0x3d1457cd	0.036216546
229	0x3d2eb6ec	0.042654917
230	0x3da46e1a	0.08028813
231	0xb9f70f47	-0.00047122894
232	0xbd4352fa	-0.047686554
233	0xbb2d01cf	-0.0026398783
234	0x3bd0a30c	0.006367093
235	0x3d098cc8	0.033581525
236	0x3bf72cbd	0.007543175
237	0x3b466469	0.0030272251
238	0x3cce535b	0.025186231
239	0xbda9987b	-0.082810365
240	0x3db34423	0.087532304
241	0x3ce6b6bc	0.028163306
242	0xbd5210fc	-0.05128573
243	0xbddae245	-0.10687689
244	0xbccc0c1c	-0.024908118
245	0x3d2cb72b	0.04216687
246	0x3b81c132	0.0039597983
247	0x3c70d395	0.014698883
248	0x3d9bcbbc	0.076072186
249	0x3d9cab32	0.076498404
250	0xbd81cd5c	-0.06337997
251	0xbcc36634	-0.023852445
252	0x3d842dd0	0.064540505
253	0x3d6c31ec	0.057664797
254	0x3c06a4bc	0.008217987
255	0xbdcd6a4d	-0.10030041

sfeb.4.weight f4 [32]
0	0x3e96d15e	0.2945661
1	0x3f409709	0.7523046
2	0x3f5d74e3	0.8650648
3	0x3f7e9968	0.9945283
4	0x3f048c78	0.5177684
5	0x3f1fe63e	0.62460697
6	0x3e7e194b	0.24814336
7	0x3e8b59b8	0.27216887
8	0x3ded5daa	0.115901306
9	0x3ef82ceb	0.4847177
10	0x3f274a39	0.6534763
11	0x3f2028f1	0.6256247
12	0x3ef11dc6	0.47093028
13	0x3eec3bfe	0.4613952
14	0x3f0c3527	0.54768604
15	0x3f22a1c3	0.6352808
16	0x3e94d20e	0.2906651
17	0x3ec5ff50	0.3867135
18	0x3f2f9a75	0.6859506
19	0x3f2386da	0.6387764
20	0x3e77c0b3	0.24194603
21	0x3f11b7a6	0.5692085
22	0x3f0d3d3c	0.5517156
23	0x3ed0694b	0.40705332
24	0x3ede1929	0.4337857
25	0x3f29eab0	0.6637373
26	0x3f1e8bb1	0.619319
27	0x3f1d7fc4	0.6152308
28	0x3ecfad10	0.40561724
29	0x3ebdd399	0.370755
30	0x3edc45bd	0.43021956
31	0x3e507d21	0.20360233

sfeb.4.bias f4 [32]
0	0xbd84af3f	-0.06478738
1	0x3bb5966c	0.0055416133
2	0xbe289ef0	-0.1646688
3	0xbd97e3bb	-0.07416483
4	0xbdd98bb6	-0.10622351
5	0xbd6a5178	-0.0572066
6	0xbd062f42	-0.032759912
7	0xbde2cec8	-0.11074597
8	0x3d8ae0d3	0.06781163
9	0xbd5ea343	-0.054354917
10	0x39c26d9c	0.0003708423
11	0xbc6fca5a	-0.014635647
12	0xbc288bd2	-0.010287242
13	0x3d6abc2f	0.057308372
14	0x3c68d2df	0.014210432
15	0x3d2a3e32	0.04156322
16	0x3c75b321	0.014996321
17	0xbca85826	-0.020549845
18	0x3c8d24f2	0.017229531
19	0x3bd14e29	0.0063874912
20	0xbc4b99a1	-0.012426765
21	0xbc2ec07b	-0.010666008
22	0xbd85870e	-0.065199
23	0xbdf6e5b5	-0.12055532
24	0x3ca76a78	0.02043651
25	0xbd76cb3e	-0.06025242
26	0xbe06ed91	-0.13176562
27	0x3c2aaa44	0.010416571
28	0xbda95f11	-0.082700856
29	0xbdb52a58	-0.08845967
30	0xbd67db60	-0.056605697
31	0x3d22e4fd	0.03976916

sfeb.4.running_mean f4 [32]
0	0xbdc4340d	-0.095802404
1	0xbdd5bf87	-0.104369216
2	0xbe49fe09	-0.19725813
3	0xbea1c1b5	-0.315931
4	0xbe265d07	-0.16246425
5	0xbed729ce	-0.42024082
6	0xbe6aa2fa	-0.22913733
7	0xbe60c44c	-0.21949881
8	0xbdeb2b4d	-0.11482868
9	0xbf086341	-0.5327645
10	0xbdc34ff4	-0.09536734
11	0xbecc533c	-0.39907253
12	0xbe5dd140	-0.21661854
13	0xbe469307	-0.19392024
14	0xbe979f4c	-0.2961372
15	0x3b87a6aa	0.004139741
16	0xbed7ed63	-0.421733
17	0xbe6f4874	-0.23367482
18	0xbcf329ce	-0.02968302
19	0xbdb268c2	-0.08711387
20	0xbe18f55f	-0.14937352
21	0xbd5c46fe	-0.05377864
22	0xbe94dab9	-0.29073122
23	0xbeba82d8	-0.3642795
24	0x3b851607	0.0040614638
25	0xbe60fcc4	-0.21971422
26	0xbf0cebd6	-0.5504736
27	0xbd9c1fdc	-0.07623264
28	0xbece9096	-0.40344685
29	0xbe879a13	-0.26484737
30	0xbd69131d	-0.056902993
31	0xbc51f5c8	-0.0128149465

sfeb.4.running_var f4 [32]
0	0x3cbdcf62	0.023170177
1	0x3d9a8d0a	0.07546432
2	0x3e1fa2d0	0.15589452
3	0x3e9b1628	0.3029034
4	0x3dc7eeca	0.09762342
5	0x3df5b9dd	0.11998341
6	0x3d8a5a3f	0.06755494
7	0x3db26865	0.08711318
8	0x3d274f65	0.0408472
9	0x3e4a1751	0.19735457
10	0x3e7e4aa5	0.24833162
11	0x3e5df501	0.21675493
12	0x3e3b740f	0.18305992
13	0x3e311cd9	0.17296161
14	0x3e8adfaa	0.27123767
15	0x3f1abb04	0.60441613
16	0x3d6ebd22	0.05828584
17	0x3dac9f9b	0.0842888
18	0x3ee583e2	0.4482718
19	0x3ebdcc1e	0.37069792
20	0x3d47c531	0.04877204
21	0x3e748745	0.23879726
22	0x3e0aabec	0.13542145
23	0x3de1a417	0.11017626
24	0x3d89beb6	0.06725828
25	0x3e0e70fc	0.13910288
26	0x3e72a876	0.23697075
27	0x3def76f5	0.11692611
28	0x3e26a663	0.16274409
29	0x3db5aa7f	0.0887041
30	0x3d213cac	0.0393645
31	0x3b724f45	0.0036973518

tfeb.0.weight f4 [11, 1, 3, 3]
0	0x3f41aa6f	0.75650686
1	0xbf19b69d	-0.6004427
2	0xbeb59ac2	-0.35469633
3	0xbe0f86a1	-0.140162
4	0xbccb0bb0	-0.024785846
5	0x3d066d42	0.03281904
6	0xbd841edf	-0.06451201
7	0x3c5a443a	0.013321931
8	0x3a73e1be	0.00093033526
9	0xba2882fc	-0.00064282096
10	0x3c29c76c	0.010362487
11	0xbaff98fe	-0.0019500551
12	0x39a52fe1	0.00031506925
13	0xb9f6eafd	-0.00047095856
14	0xb7f26327	-2.889482e-05
15	0x3c40702d	0.011745495
16	0x3cacada2	0.021078888
17	0x3a8d08d0	0.0010760073
18	0x3d8f0fd5	0.069854416
19	0xbedae22d	-0.42750683
20	0x3dfce576	0.12348454
21	0x3e5757cb	0.21029584
22	0xbf0143af	-0.504939
23	0x3df9dbd2	0.122001305
24	0x3e26be69	0.16283573
25	0xbe9dfe87	-0.3085825
26	0x3dc003f4	0.09375754
27	0x3e358c9c	0.1772942
28	0x3e3d61fa	0.18494406
29	0xbeda1938	-0.42597365
30	0x3e7d47a9	0.24734367
31	0x3e76833f	0.24073504
32	0xbec00833	-0.37506256
33	0x3e0fd36a	0.14045492
34	0x3df2f95f	0.1186397
35	0xbdd7f8c8	-0.10545498
36	0xbf0b04ed	-0.5430439
37	0x3d9a97f6	0.075485155
38	0x3e3296e1	0.17440368
39	0xbf159da4	-0.58443666
40	0x3e15f4a3	0.14644103
41	0x3ed3793d	0.41303435
42	0xbe77eb69	-0.24210896
43	0x3d8c8ec5	0.068631686
44	0x3e256291	0.16150881
45	0xbc587026	-0.013210332
46	0x3da3a515	0.07990471
47	0x3d29cf75	0.041457612
48	0xbd931cbf	-0.07183217
49	0x3ea84c25	0.32870594
50	0x3d215e2a	0.039396442
51	0xbd785422	-0.06062711
52	0x3e325a90	0.1741736
53	0x3d1df047	0.038559224
54	0x3e7549aa	0.23953882
55	0xbe0801b6	-0.13281903
56	0xbe96047f	-0.29300305
57	0x3ebb4aeb	0.36580595
58	0xbde97964	-0.114001065
59	0xbe93f47f	-0.28897473
60	0x3e28b907	0.16476832
61	0xbdb7f621	-0.08982492
62	0xbe56f85a	-0.20993176
63	0xbac5a496	-0.0015078958
64	0xbb2fdc85	-0.002683432
65	0xbb1e122f	-0.0024119725
66	0x3915e2e2	0.00014294268
67	0xba18c05c	-0.00058270036
68	0xba07db1f	-0.0005182493
69	0x3c82f77c	0.01598715
70	0x3c5c6972	0.0134528745
71	0x37d00cf8	2.4801571e-05
72	0x3c5653bd	0.013081488
73	0x3ca5852c	0.020205103
74	0xbac9da33	-0.0015400111
75	0xbabf8d3c	-0.0014614235
76	0x3c50c045	0.012741153
77	0x3be79622	0.007067458
78	0x3ca5d9f2	0.020245526
79	0x3d083e47	0.033262517
80	0x3a9f6866	0.001216185
81	0x3ccf5554	0.025309242
82	0x3c9e715b	0.019341161
83	0xbe0437aa	-0.12911859
84	0x3d84ac54	0.064781815
85	0x3cbddb2f	0.023175804
86	0xbe62a31a	-0.22132531
87	0xbe8622cd	-0.26198426
88	0xbef5f84c	-0.48040998
89	0x3f2ae6e9	0.6675859
90	0xbe922651	-0.28544858
91	0xbeb8bc60	-0.3608122
92	0x3ed3182f	0.41229388
93	0xbe786bdf	-0.242599
94	0xbeaa0216	-0.33204716
95	0x3f0945dc	0.5362222
96	0xbcef67b0	-0.029224247
97	0xbe749267	-0.23883973
98	0x3e4e3e01	0.2014084

tfeb.1.weight f4 [11]
0	0x3e5d43e1	0.21607925
1	0x3d35f8e8	0.04442683
2	0x3ea726b8	0.32646728
3	0x3e335861	0.17514183
4	0x3e7d673c	0.24746412
5	0x3e41f3bd	0.18940635
6	0x3e332f9f	0.17498635
7	0x3d1ce9a3	0.03830875
8	0x3da51d4b	0.08062228
9	0x3e74f30c	0.2392084
10	0x3ebceb51	0.36898282

tfeb.1.bias f4 [11]
0	0x3d1cc959	0.038277958
1	0xbd723179	-0.059129212
2	0x3d92a920	0.07161164
3	0x3e230a18	0.15921819
4	0x3e36050e	0.17775366
5	0x3e2188e7	0.1577488
6	0x3e7ee9a6	0.24893817
7	0xbd409fd6	-0.04702743
8	0xbdc69500	-0.09696388
9	0x3d2a8f5a	0.041640617
10	0xbcca498b	-0.024693271

tfeb.1.running_mean f4 [11]
0	0xbe0840e3	-0.13306002
1	0x3c8473aa	0.016168434
2	0xbe38fce6	-0.18065223
3	0x3da30cfa	0.079614595
4	0xbdf353ff	-0.11881255
5	0x3e60768c	0.21920222
6	0xbe1065a5	-0.14101274
7	0x3c0fcc7e	0.008776782
8	0x3d27bde1	0.040952567
9	0xbdcd6c54	-0.100304276
10	0xbe0f9cbc	-0.14024633

tfeb.1.running_var f4 [11]
0	0x3d872822	0.065994516
1	0x3a01791d	0.0004939007
2	0x3dad1fc3	0.08453324
3	0x3d51b5aa	0.05119864
4	0x3dc4a9d6	0.09602706
5	0x3daaa3b2	0.08332004
6	0x3d85a36d	0.065253116
7	0x398753a1	0.00025811515
8	0x3b2d1f6a	0.002641643
9	0x3d21ca52	0.03949959
10	0x3dbcc4f8	0.09217256

tfeb.4.weight f4 [21, 11, 3, 3]
0	0x3b496359	0.0030729382
1	0xbc0397d8	-0.008031808
2	0xbd3fb309	-0.0468016
3	0xbb52f4ba	-0.0032189325
4	0x3c8dcf17	0.017310662
5	0xbb4844de	-0.0030558626
6	0x3a1cbebc	0.00059793494
7	0x3cf1527e	0.02945828
8	0xbd1e3f70	-0.038634717
9	0xbb36a4ec	-0.0027869297
10	0xbb1f9b43	-0.0024354018
11	0xbb72e6cd	-0.0037063838
12	0xbb1a1059	-0.002350828
13	0xbb0394a9	-0.0020077622
14	0xbb3759ec	-0.0027977182
15	0xbace496a	-0.0015738432
16	0xba8f3d59	-0.0010928317
17	0xbacfbdf2	-0.0015849455
18	0x3d0fdc79	0.03512237
19	0x3cb6a65e	0.022296127
20	0x3c00e53b	0.007867153
21	0xbc83185c	-0.016002826
22	0xbc99dbd2	-0.018781576
23	0xbd2036ae	-0.039114647
24	0xbc7a2180	-0.015266776
25	0xbcf61dec	-0.030043565
26	0xbd005139	-0.03132746
27	0x3ccbb5a4	0.024866886
28	0x3be5056f	0.006989173
29	0xbb2abb4c	-0.002605158
30	0x3c61f397	0.0137909865
31	0xbc7fbc89	-0.015608915
32	0xbd0c1b03	-0.034205448
33	0xbcae03ef	-0.02124211
34	0xbd83851b	-0.06421872
35	0xbda03964	-0.078234464
36	0x3ca095bd	0.01960265
37	0x3d97186c	0.07377705
38	0x3c96a32d	0.018388355
39	0xba967f95	-0.0011482114
40	0x3cdcb333	0.026940918
41	0x3c9d33d7	0.019189758
42	0xbd3bcfe7	-0.045852568
43	0xbd6df68b	-0.05809645
44	0xbcd055f4	-0.02543161
45	0x3cc53182	0.024071459
46	0x3d774aff	0.060374256
47	0x3d004465	0.031315226
48	0xbcfde771	-0.030994149
49	0xbc94b9d1	-0.01815501
50	0xbd13e8a3	-0.03611053
51	0xbd88b7eb	-0.066757046
52	0xbdae8d1e	-0.0852301
53	0xbdab16db	-0.08353969
54	0x3d0659b8	0.032800406
55	0x3cab5245	0.020913253
56	0xbbfc0ee6	-0.0076922057
57	0x3cc4db26	0.02403028
58	0x3cb2ae3a	0.021811593
59	0xbc718028	-0.0147400275
60	0x3c961d37	0.018324478
61	0x3c8aacd4	0.016928114
62	0xbc409d43	-0.011756244
63	0xbb253ba5	-0.0025212553
64	0xbb013354	-0.0019714432
65	0xbb2de824	-0.0026536072
66	0xbad15bd1	-0.0015972798
67	0xbabe96b7	-0.0014540766
68	0xbae6a401	-0.0017596484
69	0xbaa8e46e	-0.001288546
70	0xba99c779	-0.0011732421
71	0xba9d0b0a	-0.0011981439
72	0xbb990444	-0.004669698
73	0xbb923e14	-0.0044629667
74	0xbbd244b1	-0.00641688
75	0xbb8bb765	-0.0042638057
76	0xbb7b1eac	-0.0038317842
77	0xbbae520a	-0.0053198384
78	0xbb3e1b7d	-0.0029008084
79	0xbb17dc0c	-0.002317193
80	0xbb4543cf	-0.0030100232
81	0x3c3f0a9e	0.011660246
82	0x3d1fe9fe	0.03904151
83	0x3c529dde	0.012855021
84	0xbb53465a	-0.0032237978
85	0xbd446689	-0.047949348
86	0x3bfc2a00	0.0076954365
87	0xbca08e19	-0.019599007
88	0x3ca89574	0.020579077
89	0x3b4139a4	0.002948382
90	0x3d03dca9	0.03219286
91	0x3cea1049	0.028572218
92	0x3d41969e	0.04726278
93	0x3c28b099	0.01029601
94	0x3afc327e	0.0019241122
95	0x3d01a616	0.031652533
96	0xbd1c9d38	-0.038235873
97	0xbd857856	-0.06517093
98	0x3c99856d	0.01874038
99	0x3bd3b6ff	0.006461024
100	0x3dbae112	0.0912496
101	0xbbb77cd2	-0.0055995965
102	0xbcfc1fca	-0.030776877
103	0xbe3daa87	-0.18522082
104	0xbda8148c	-0.08207044
105	0xbcbb52b7	-0.02286659
106	0xbcbd9f4b	-0.023147246
107	0xbd2c5a71	-0.04207844
108	0xbb01e49e	-0.0019820104
109	0xbacd3f4f	-0.0015659126
110	0xbab47df3	-0.0013770446
111	0xba97e236	-0.0011587802
112	0x399bd8fe	0.00029725576
113	0xb9837559	-0.00025073698
114	0x3a0430be	0.00050426635
115	0x3ae26c27	0.0017274664
116	0x3ab9e2d3	0.0014181979
117	0x3cb8466b	0.022494515
118	0xbe1da033	-0.15393142
119	0xbcc4c86b	-0.024021348
120	0x3d97c7b7	0.074111395
121	0xbe23cbdf	-0.1599574
122	0xbbb71ebe	-0.0055883816
123	0x3d125dc5	0.035733957
124	0xbdcd0ddc	-0.10012409
125	0x3ca191bf	0.019722817
126	0xbc2b9bed	-0.010474187
127	0x3a40ab6a	0.00073497614
128	0xbb424bcf	-0.0029647236
129	0xbd6e5254	-0.058183983
130	0xbca477cf	-0.02007666
131	0x3cc8135a	0.02442329
132	0x3c29762c	0.010343116
133	0x3c5dc876	0.013536563
134	0x3c51ace8	0.012797572
135	0x3cba73b3	0.022760248
136	0x3d5a12c2	0.053240545
137	0xbcb0e7b0	-0.021594852
138	0x3ca1d15a	0.019753147
139	0x3d8ac11d	0.06775115
140	0xbd1c82d6	-0.038210712
141	0xbcd1de94	-0.025618829
142	0x3d345ee0	0.044035792
143	0xbaaec2a0	-0.0013333149
144	0xbd595349	-0.053057943
145	0xbc2f353c	-0.010693844
146	0xbd75030e	-0.059817366
147	0xbcf97615	-0.030451814
148	0x3d577e47	0.05261066
149	0x3cef0c3c	0.029180638
150	0x3c931e27	0.017958714
151	0x3d2e94d1	0.04262239
152	0x3c2e97bf	0.010656296
153	0xbb2a9f34	-0.0026034834
154	0x3b5051b6	0.0031786985
155	0xbaa7b923	-0.0012796264
156	0xbce515e9	-0.02796455
157	0xbd3ca739	-0.046057913
158	0xbcc7ec13	-0.024404561
159	0xbbab0dee	-0.0052201664
160	0x3a0fc8ad	0.000548492
161	0xbb83cce5	-0.004022228
162	0xbad8f7c8	-0.0016553337
163	0xb9d4395a	-0.0004047852
164	0xba4d48db	-0.00078309857
165	0xba4344a7	-0.00074488897
166	0x3aa0b472	0.0012260808
167	0x3a0d1375	0.00053816225
168	0x3a402032	0.0007329016
169	0x3b00eff4	0.0019674273
170	0x3ac9baec	0.001539079
171	0xbb6202ca	-0.0034486526
172	0xbb305a87	-0.0026909427
173	0xbb2ae387	-0.0026075558
174	0xbb146413	-0.0022642657
175	0xb97e5db6	-0.00024258238
176	0xba38e278	-0.00070527894
177	0xbc45c6db	-0.012071337
178	0xbc056d9d	-0.00814381
179	0xbc0fd848	-0.008779593
180	0x3b3d2755	0.0028862555
181	0xbdd023a2	-0.101630464
182	0xbc81a7dd	-0.015827114
183	0xbc2a1e6d	-0.010383231
184	0xbcdac1f4	-0.026703812
185	0x3cebd66d	0.02878877
186	0x3d7df59d	0.062001813
187	0x3c9f7940	0.019466996
188	0xbb242288	-0.0025044996
189	0x3d8bdebc	0.068295926
190	0xbdf56bbd	-0.1198344
191	0xba8d6f0d	-0.0010790542
192	0x3da2fc1f	0.079582445
193	0xbdb4f308	-0.08835417
194	0xbba3f226	-0.0050032316
195	0x3c80b221	0.015709938
196	0xbd5de829	-0.054176483
197	0xbbe50448	-0.0069890358
198	0xbb863282	-0.0040953765
199	0x3c03625c	0.008019056
200	0xbc012f06	-0.007884746
201	0xbcd51589	-0.026011245
202	0x3cb331d2	0.021874342
203	0xbda9f3fa	-0.08298488
204	0xbc55713c	-0.013027485
205	0x3d5ee52d	0.054417778
206	0xbb985889	-0.004649226
207	0xbaa5aa02	-0.0012639167
208	0xba1bfcbc	-0.0005950441
209	0x39db747e	0.00041857729
210	0x3705edfb	7.982827e-06
211	0xb9344e99	-0.00017195418
212	0xba2eee64	-0.0006673096
213	0x3a1b8c6a	0.0005933704
214	0xb8866749	-6.408856e-05
215	0xb9c6b7eb	-0.00037902532
216	0x3c035a2e	0.008017106
217	0xbd079a33	-0.03310604
218	0xbba8e5bd	-0.00515434
219	0xbcb60ff5	-0.022224406
220	0xbcfef2e1	-0.031121673
221	0xbc6dd27c	-0.014515515
222	0x3cca7c3d	0.024717445
223	0xbbfdf97c	-0.007750688
224	0xbaf53f2b	-0.0018710842
225	0x3d48d395	0.049029905
226	0xbc99d7d3	-0.01877967
227	0xbd0ed4b5	-0.034870822
228	0x3c76c94b	0.01506264
229	0xbdaadb4e	-0.0834261
230	0xbde390d4	-0.11111608
231	0x3d5c589e	0.05379545
232	0x3bf79f67	0.007556844
233	0xbc603a2d	-0.013685745
234	0xbd0a3503	-0.033741962
235	0x3d4ffd67	0.050778773
236	0xbd404db5	-0.046949107
237	0xbdd62f9b	-0.10458299
238	0xbd04c09a	-0.03241024
239	0x3c28acd9	0.010295116
240	0x3cb95e9e	0.022628125
241	0x3da3467e	0.0797243
242	0xbb0d9170	-0.002160158
243	0xbc171673	-0.009221661
244	0xbc9ca8e3	-0.0191235
245	0x3b1b7559	0.0023721068
246	0xbd78bb95	-0.060725767
247	0xbdce7c60	-0.100823164
248	0xbd65f74a	-0.056144036
249	0x3c888c72	0.016668532
250	0x3c695da2	0.014243515
251	0x3c9cc88f	0.019138603
252	0x3b69d04c	0.0035677133
253	0x3bc327ed	0.0059556873
254	0xbd07f808	-0.033195525
255	0x3b1601bb	0.0022889215

tfeb.5.weight f4 [21]
0	0x3e12ae0a	0.14324203
1	0x3e9e2d5a	0.30893975
2	0x3e9fd5e0	0.3121786
3	0x3e09e648	0.13466752
4	0x3e1ac88a	0.15115562
5	0x3ee5c4d4	0.4487673
6	0x3d44e265	0.04806747
7	0x3e4a22e1	0.19739868
8	0x3eb538a4	0.35394776
9	0x3e9f5aa0	0.3112383
10	0x3df0b8b9	0.11753983
11	0x3dab5dd0	0.08367503
12	0x3cd4cef9	0.025977599
13	0x3e0841ec	0.13306397
14	0x3ea84aa7	0.32869455
15	0x3db9303b	0.09042402
16	0x3e6d97ca	0.23202434
17	0x3e45a548	0.19301331
18	0x3db46d6c	0.08809933
19	0x3e31afef	0.1735227
20	0x3e0e647a	0.13905516

tfeb.5.bias f4 [21]
0	0x3cfae80b	0.030628225
1	0xbcfc376b	-0.030788144
2	0xbe25b433	-0.16182022
3	0xbd029ccc	-0.031887814
4	0x3e34d331	0.17658688
5	0xbd905463	-0.070473455
6	0x3cb610fc	0.022224896
7	0x3d2a55c7	0.04158571
8	0xbda181ea	-0.07886107
9	0xbe3c7bd0	-0.18406606
10	0x3c64756e	0.013944013
11	0x3e26e5e5	0.16298635
12	0x3deb11ba	0.114779904
13	0xbba98843	-0.0051737144
14	0xbde289bf	-0.11061429
15	0xbe732974	-0.23746282
16	0xbdbd2d3b	-0.09237143
17	0x3d0ac868	0.03388253
18	0xbd14fa59	-0.036371563
19	0x3d55f017	0.05223092
20	0x3d0dc4fd	0.03461169

tfeb.5.running_mean f4 [21]
0	0xbd2315c3	-0.039815675
1	0xbe05f4d0	-0.1308167
2	0xbe09a13b	-0.13440411
3	0xbde1e25d	-0.110295035
4	0xbe44a956	-0.19205222
5	0xbde6f370	-0.11276901
6	0x3c9258da	0.017864633
7	0xbe35bb20	-0.17747164
8	0xbe47a463	-0.19496302
9	0xbe1d2d8d	-0.15349407
10	0xbd218978	-0.03943774
11	0xbe26f690	-0.16304994
12	0x3a874ead	0.001032313
13	0x3cda3aa2	0.026639286
14	0xbe0c434e	-0.1369755
15	0x3cee931f	0.029122887
16	0xbd9a6f7f	-0.075407974
17	0xbdced7ec	-0.100997776
18	0xbc8c7ab2	-0.01714835
19	0x3d6abd58	0.05730948
20	0xbe1ba6d4	-0.15200359

tfeb.5.running_var f4 [21]
0	0x3c2e6c7f	0.010645985
1	0x3c52c363	0.012863967
2	0x3bec983b	0.0072202957
3	0x3b39439c	0.0028269058
4	0x3c398cb1	0.011325047
5	0x3c723476	0.0147830155
6	0x3b581088	0.0032968838
7	0x3c46766c	0.012113195
8	0x3c2dac3a	0.010600144
9	0x3bf3569e	0.007426097
10	0x3aaf109f	0.0013356394
11	0x3c2522f4	0.010079134
12	0x3bb5764d	0.005537784
13	0x3b749e00	0.003732562
14	0x3c25dbe8	0.0101232305
15	0x3aa2969e	0.0012404507
16	0x3bffb92a	0.0078040557
17	0x3c71fcfe	0.014769791
18	0x3a2d29f9	0.00066056807
19	0x3b768579	0.0037616177
20	0x3c19295e	0.009348242

tfeb.7.weight f4 [16, 21, 3, 3]
0	0x3cac396c	0.021023475
1	0x3c7f2a6b	0.015574078
2	0x3c916f9f	0.01775342
3	0x3d2af8d0	0.041741192
4	0x3c189001	0.009311677
5	0xbcf77792	-0.030208383
6	0x3d5ede3a	0.05441115
7	0x3cac6e78	0.02104877
8	0xbb978dc7	-0.0046250555
9	0x3b90e9df	0.004422411
10	0x3b5a352f	0.003329586
11	0x3cc884d0	0.024477392
12	0xbd8eccb2	-0.06972636
13	0xbd03dc75	-0.032192666
14	0xbcac3bdd	-0.021024639
15	0xba80b295	-0.0009818847
16	0xba9d5527	-0.0012003527
17	0x3c5c19f3	0.013433921
18	0xbbbcadd6	-0.0057580275
19	0x3c146351	0.009056882
20	0x3d3834f5	0.04497238
21	0xbd11fdd2	-0.035642453
22	0xbbbf6d6c	-0.0058419015
23	0x3ce701eb	0.028199157
24	0xbc04e45a	-0.008111084
25	0xbb20f202	-0.002455831
26	0xbc47f5ac	-0.012204569
27	0xbc539b1e	-0.012915401
28	0xbc5e476d	-0.013566834
29	0xbd07f112	-0.033188887
30	0xbcd5fffc	-0.02612304
31	0xbd15ec18	-0.03660211
32	0xbd3eac7f	-0.046551224
33	0x3d0c9d96	0.034329973
34	0x3afb3ea3	0.0019168447
35	0xbccef90f	-0.025265245
36	0xbb518e2f	-0.0031975617
37	0x3a519865	0.0007995426
38	0x3cb3e1e9	0.021958308
39	0xbda795c7	-0.08182865
40	0xbcfcfa95	-0.030881206
41	0x3d0a11b4	0.03370829
42	0xbd1b9a9c	-0.037989244
43	0x3b8da252	0.0043223286
44	0x3d51470f	0.051093157
45	0xbd093cee	-0.033505373
46	0x3c498041	0.0122986445
47	0x3cddc00a	0.02706911
48	0xbd475195	-0.048661787
49	0xbcc377e0	-0.023860872
50	0xbce73259	-0.02822225
51	0x3c33a2d5	0.010964115
52	0xb9f63d6b	-0.00046966536
53	0xbc479ba9	-0.012183108
54	0x3bc591b2	0.006029331
55	0x3bcaf249	0.0061934334
56	0x3b89f540	0.0042101443
57	0x3bc0e8e9	0.00588714
58	0x3b886b54	0.004163185
59	0xbc304af5	-0.010760059
60	0x3cce38f6	0.025173645
61	0x3b379e36	0.0028017885
62	0xbca89fcb	-0.020584008
63	0xbd0f6ee7	-0.035017874
64	0x3a44eac5	0.000751179
65	0x3bfeb3d8	0.007772904
66	0xbd91a562	-0.071116224
67	0xbbf9f0e0	-0.0076275915
68	0xbc36c48d	-0.01115526
69	0x3bf207d7	0.0073861885
70	0x3cdfd5a1	0.027323546
71	0x3c378f9a	0.011203671
72	0x3cb8b239	0.02254592
73	0x3c580263	0.013184163
74	0x3c46e6c2	0.012139978
75	0xba980def	-0.0011600832
76	0xbc05ad85	-0.008159046
77	0x3ce8eba1	0.02843267
78	0xbc5e22f7	-0.013558141
79	0xbbdeec1d	-0.0068030492
80	0x3c254911	0.010088221
81	0xbc94e69d	-0.018176371
82	0xb9ddccd1	-0.00042305005
83	0x3ca82552	0.020525608
84	0xbd839dd6	-0.06426589
85	0xbc818424	-0.01581008
86	0x3c810906	0.015751373
87	0xbd2f1d9f	-0.04275286
88	0xba10848c	-0.0005512915
89	0x3d6569b7	0.05600902
90	0x3a05b3f3	0.0005100362
91	0xbb4bdd28	-0.0031107161
92	0x3c1fa386	0.009743577
93	0x3b75b7e5	0.0037493643
94	0x3a356faf	0.0006921244
95	0x3b80cde6	0.003930795
96	0xbc792e76	-0.015208831
97	0xbcafed8d	-0.021475578
98	0xbca19c2b	-0.019727787
99	0xbd7ab78d	-0.061210204
100	0xbdaf8b9d	-0.08571551
101	0xbd5b6745	-0.053565282
102	0xbd9101ed	-0.070804454
103	0xbd886429	-0.06659729
104	0xbc7e85b7	-0.01553481
105	0xbca89268	-0.020577624
106	0xbc99a836	-0.018756967
107	0x3cb5fd0c	0.022215389
108	0x3ba32d4a	0.004979764
109	0xbcdbccfa	-0.026831139
110	0xbd21e883	-0.03952838
111	0x3d2b8ddc	0.041883335
112	0xbce85f5b	-0.028365782
113	0xbd8b125b	-0.067906104
114	0x3c658613	0.014009017
115	0xbc3e6d78	-0.011622779
116	0xbc42932e	-0.011875911
117	0x3d0ddcaa	0.03463427
118	0x3d0e9cd4	0.03481753
119	0x3c9fd747	0.019511832
120	0x3af197c5	0.0018432072
121	0x3c1c41ec	0.009537201
122	0x3b7b6a97	0.0038363093
123	0x3ce5a778	0.028033957
124	0x3be009ae	0.0068370914
125	0xbc28af65	-0.010295724
126	0x3c75394a	0.014967272
127	0xbae88f18	-0.001774284
128	0xbbc0fab2	-0.00588926
129	0xbcf69ea5	-0.030104944
130	0xbcfb9f4f	-0.030715613
131	0x3cb13677	0.021632416
132	0x3b417c56	0.0029523573
133	0x3c283482	0.010266425
134	0xb84df0dc	-4.9100126e-05
135	0xbd28516b	-0.04109327
136	0x3b9d3f2e	0.0047987914
137	0x3aa3d9d0	0.0012500826
138	0xbd41e4a7	-0.0473372
139	0xbc99a88c	-0.018757127
140	0xbc83062a	-0.01599415
141	0xbd0b039b	-0.033938985
142	0xbc70c640	-0.014695704
143	0xba401571	-0.0007327414
144	0x3b24fe0b	0.0025175835
145	0x3d04eae8	0.032450587
146	0x3c127539	0.008939081
147	0xbd2187e9	-0.039436255
148	0xbcb90d4a	-0.022589345
149	0xbcb684d1	-0.022280129
150	0x3abeca41	0.0014556126
151	0xbbfa65a1	-0.0076415096
152	0xbca750d3	-0.020424282
153	0x3a328dbc	0.0006811281
154	0xbcbe3b82	-0.023221735
155	0x3b8ee128	0.004360337
156	0xba996acd	-0.0011704803
157	0x3c70d732	0.014699744
158	0x3c74e546	0.014947241
159	0xbd04b82e	-0.03240221
160	0xbc944005	-0.018096933
161	0xbceeba28	-0.0291415
162	0x3c7492fd	0.014927623
163	0xbb2845ce	-0.0025676372
164	0xb9dadbd0	-0.00041743973
165	0xbc211c08	-0.009833343
166	0xbbfb1172	-0.0076619918
167	0xbbbe4fb4	-0.005807841
168	0xbc058038	-0.0081482455
169	0xbb9f0b53	-0.004853645
170	0xbb9a2910	-0.004704602
171	0x3d8387c9	0.06422383
172	0x3b89a039	0.004200008
173	0x3b8429c8	0.004033301
174	0xbd3e8d01	-0.04652119
175	0xbd02b6b7	-0.03191253
176	0xbca290de	-0.019844469
177	0x3c68e407	0.014214522
178	0x3b07911d	0.002068586
179	0x3c505441	0.0127154
180	0xbcc1c92b	-0.023655495
181	0xbd19cccd	-0.03754883
182	0x3ab4e6d6	0.0013801705
183	0xbcc6ea24	-0.024281569
184	0xbd131dd7	-0.03591713
185	0xbbb25a3a	-0.0054428848
186	0x3c1fd438	0.009755187
187	0xbb42413a	-0.002964093
188	0xba767e1c	-0.0009402947
189	0xbcfa43ba	-0.030549873
190	0xbbbd0433	-0.005768323
191	0xbc478b6d	-0.012179238
192	0xbd0b4dc0	-0.034009695
193	0x3bf94298	0.0076068155
194	0x3d08ddbe	0.033414595
195	0xbcaeda8c	-0.021344446
196	0x3b0aafa3	0.0021161817
197	0x3cc5358e	0.024073388
198	0x3c825b28	0.015912607
199	0x3c9ebb7c	0.019376509
200	0x3cbf8ccd	0.023382569
201	0xbc279b1e	-0.010229854
202	0x3cf96410	0.030443221
203	0x3d2601f6	0.040529214
204	0xbd09d2a6	-0.033648156
205	0xbc62699d	-0.0138191255
206	0xbd156231	-0.036470596
207	0x3cb0e656	0.021594208
208	0x3b63cd5e	0.003475986
209	0xbc866b90	-0.016408712
210	0x389ee482	7.57659e-05
211	0xbd46b034	-0.048507884
212	0xbd8dbfb6	-0.069213316
213	0xbb1a2ca1	-0.0023525136
214	0x3ce7ed9c	0.028311543
215	0x3d0a491e	0.033761136
216	0xbb82bf0b	-0.0039900593
217	0x3cc2ba42	0.023770455
218	0x3d268bde	0.04066073
219	0xbcbf29bb	-0.023335328
220	0xbcbc82f2	-0.023011658
221	0xbcf4d3a7	-0.02988608
222	0xbd1bab9b	-0.038005453
223	0x3caaf616	0.020869296
224	0x3d6b1a60	0.0573982
225	0x3cff8aa1	0.031194033
226	0x3c389a83	0.011267307
227	0x3900c9ca	0.00012282204
228	0x3d060764	0.032721892
229	0xbc457990	-0.012052909
230	0xbcf84f7d	-0.03031134
231	0xbbbd9dd4	-0.005786637
232	0xbcdad332	-0.026712034
233	0xbd5f25ba	-0.05447934
234	0xbc11b810	-0.008893982
235	0xbc3113ed	-0.010807973
236	0xbd2f007d	-0.042725075
237	0xbcc9fe5d	-0.024657423
238	0x3c99d709	0.018779295
239	0x3c258f43	0.010104957
240	0xbd1afcc7	-0.037838724
241	0xbd073577	-0.033009972
242	0xbd0d7cc3	-0.03454281
243	0xba58ca74	-0.0008269914
244	0x3c381ea6	0.011237776
245	0x3ca5b533	0.020228004
246	0xbc646762	-0.013940664
247	0x3b1b0306	0.0023652925
248	0xbb65085d	-0.0034947612
249	0xbc4a5164	-0.012348507
250	0xb9e61793	-0.00043886583
251	0x3c654e14	0.013995666
252	0x3b207be8	0.0024487916
253	0x3cd6b692	0.026210103
254	0x3cf2f389	0.029657142
255	0xbc90586f	-0.017620293

tfeb.8.weight f4 [16]
0	0x3e83e3cc	0.25759733
1	0x3e705519	0.23469962
2	0x3e874341	0.26418498
3	0x3e7be597	0.245993
4	0x3e60305b	0.21893446
5	0x3e2bb021	0.16766407
6	0x3e45c8e0	0.19314909
7	0x3e8d1474	0.27554667
8	0x3ead19bf	0.33808705
9	0x3e7a1b73	0.24424534
10	0x3df34545	0.118784465
11	0x3e3dc06f	0.18530439
12	0x3e434260	0.19068289
13	0x3e88e8d8	0.26740146
14	0x3ea36aa5	0.319173
15	0x3e3c98de	0.18417689

tfeb.8.bias f4 [16]
0	0xbd97aadb	-0.07405635
1	0x3cf8e07a	0.030380476
2	0xbe91655c	-0.28397644
3	0xbd5d9743	-0.054099333
4	0xbd9fc3f1	-0.07801045
5	0x3b67fdbf	0.0035399047
6	0x3c89299a	0.01674347
7	0xbda8b8df	-0.08238386
8	0xbe52729f	-0.20551537
9	0xbd4cb901	-0.04998112
10	0xbc37646f	-0.011193379
11	0xbde2f710	-0.1108228
12	0xbd66c734	-0.05634232
13	0xbe1e6db5	-0.15471537
14	0xbdb07e0d	-0.08617792
15	0x3d327f26	0.04357829

tfeb.8.running_mean f4 [16]
0	0xbddad52b	-0.1068519
1	0xbd663626	-0.056203984
2	0x3c950466	0.018190574
3	0xbdadcf65	-0.08486823
4	0xbb6d8cc9	-0.0036247245
5	0xbd242126	-0.040070675
6	0xbcb0fa51	-0.021603735
7	0xbb6981f8	-0.0035630446
8	0xbd917414	-0.07102218
9	0xbd52ba8c	-0.051447436
10	0x3dc61fb9	0.09674019
11	0xbbfd38b7	-0.007727708
12	0x3bbfe9e2	0.0058567384
13	0xbccea449	-0.025224822
14	0x3d6426d8	0.055701107
15	0xbce469be	-0.027882453

tfeb.8.running_var f4 [16]
0	0x3abd2427	0.001443033
1	0x3b27f35b	0.002562723
2	0x3ac05062	0.0014672393
3	0x3b3d7c03	0.0028913028
4	0x3ae40ea0	0.0017399378
5	0x3a7cf23f	0.00096491346
6	0x3af2c93f	0.0018523111
7	0x3bbbbf21	0.0057295715
8	0x3ac7af94	0.0015234821
9	0x3b3cb15e	0.0028792243
10	0x3ae459a1	0.0017421731
11	0x3a3155cc	0.0006764799
12	0x3b131a88	0.0022446234
13	0x3ba5e62e	0.00506284
14	0x3b87a6de	0.004139765
15	0x3afc3138	0.0019240743

tfeb.11.weight f4 [26, 16, 3, 3]
0	0xbba24df8	-0.0049531423
1	0xbbb5a509	-0.0055433554
2	0x3be9c434	0.007133985
3	0xbc57f656	-0.01318129
4	0xbb65c730	-0.0035061352
5	0xbcba9912	-0.022778068
6	0xba976a2f	-0.0011552031
7	0x3b1777cd	0.0023112178
8	0x3af986b4	0.0019037337
9	0xb969ed30	-0.00022308971
10	0xbb737724	-0.003714987
11	0xbb9f409e	-0.004859998
12	0xbcb0288a	-0.021503706
13	0xbc712518	-0.0147183165
14	0xbb75ec01	-0.0037524702
15	0xbc3e5e50	-0.011619166
16	0xbc364c93	-0.011126655
17	0xbc5625d3	-0.013070541
18	0x3acbfb97	0.001556265
19	0xbaf9ea91	-0.0019067099
20	0x3a160dc8	0.00057240995
21	0xbc604ae6	-0.013689732
22	0xbc89a0b7	-0.016800268
23	0xbaee379b	-0.0018174531
24	0xbbf9e42b	-0.0076260767
25	0xbc7a6013	-0.015281695
26	0xbc31c21d	-0.010849503
27	0xbc068b9c	-0.008211996
28	0xbae102a4	-0.0017166925
29	0xbb1ad162	-0.0023623337
30	0xbcaa6288	-0.020798936
31	0xbc9368bd	-0.017994279
32	0xbcc062db	-0.023484638
33	0xbc53610f	-0.012901559
34	0xbc5d2008	-0.013496406
35	0x3a184c59	0.00058097165
36	0xbba8d052	-0.005151787
37	0xbb761a68	-0.003755236
38	0xbbd7821d	-0.00657679
39	0x3be7cbb0	0.007073842
40	0xbae34f60	-0.0017342381
41	0xbb6950c2	-0.0035601114
42	0x3bf0c8ac	0.0073481407
43	0xbbf1b5ef	-0.0073764245
44	0xbc119d36	-0.00888758
45	0xbb718019	-0.0036850034
46	0xbb0fa96d	-0.0021921054
47	0xba920de6	-0.0011143058
48	0xbc848214	-0.016175307
49	0x399ccfd6	0.00029909489
50	0xbc25b46c	-0.010113817
51	0x3aadc46c	0.0013257391
52	0x3b8a5eed	0.004222742
53	0x3b84a612	0.0040481174
54	0x3a77e351	0.0009456175
55	0xbc883a00	-0.016629219
56	0xbb64dc43	-0.0034921325
57	0x3c1a8f7d	0.009433624
58	0x3bb4fa0b	0.0055229715
59	0x3c20d433	0.009816217
60	0x3abb8a6d	0.0014308222
61	0x3bde777e	0.006789147
62	0x3c5af2fa	0.013363594
63	0x3b3d675e	0.0028900723
64	0xbc1aabeb	-0.0094404025
65	0xbbc25353	-0.005930343
66	0x3c96c589	0.018404739
67	0xbc429c12	-0.01187803
68	0x3c419686	0.011815673
69	0x3ca1560c	0.01969435
70	0xbc5c8c81	-0.013461233
71	0x3beb012f	0.007171772
72	0x3c406234	0.011742163
73	0x3b000553	0.0019534423
74	0xb66844d9	-3.4610769e-06
75	0x3cb9aeb0	0.022666305
76	0x3c2a0f0b	0.010379563
77	0x3c28378b	0.010267149
78	0x3c23e019	0.0100021595
79	0xba483e4a	-0.00076386763
80	0xb8b27ba6	-8.510733e-05
81	0xbcc7b083	-0.02437616
82	0xbaffdb00	-0.0019520223
83	0x3a88841e	0.001041535
84	0x3b39f507	0.0028374807
85	0x3bcb26b1	0.0061996807
86	0x3c198828	0.009370841
87	0x3c409ed1	0.011756615
88	0x3bc4c93e	0.0060054353
89	0xbc0f62f8	-0.008751623
90	0xbc6cf9dd	-0.014463869
91	0xbc7dffe3	-0.015502903
92	0xbbe5bbf7	-0.0070109325
93	0xbbb72133	-0.0055886745
94	0xbc54d14b	-0.012989352
95	0xbc5bdbb9	-0.013419085
96	0x3c1d7996	0.009611508
97	0x3c006f5e	0.007839052
98	0x3b4f4f8a	0.0031633102
99	0xb5b2bd05	-1.3317045e-06
100	0xbb8ac090	-0.004234381
101	0xbbca7edc	-0.0061796736
102	0x3c6a8237	0.014313272
103	0x3c5fe674	0.013665784
104	0xbb392f6f	-0.0028257032
105	0x3ccbb280	0.024865389
106	0x3c6e83ed	0.014557821
107	0xbbffc982	-0.007806004
108	0x3b820fb7	0.0039691585
109	0x3ca11fb5	0.01966844
110	0xbccaa01b	-0.024734547
111	0x3c19ffc4	0.009399358
112	0x3c79b1d2	0.01524015
113	0xbc7f4f0f	-0.015582814
114	0x3d044812	0.032295294
115	0x3c58e600	0.01323843
116	0xbb7d2a56	-0.003862997
117	0xb9677ba4	-0.00022075936
118	0xbc83d46b	-0.0160925
119	0xbc7b501b	-0.015338923
120	0x3bfc9178	0.007707771
121	0x3b4efd9c	0.0031584268
122	0xb72f0d64	-1.0433931e-05
123	0x3baa1c47	0.005191359
124	0x3c3e31f8	0.011608593
125	0x3c6f2313	0.014595765
126	0x3ca76ce2	0.020437662
127	0x3b3ba22f	0.0028630605
128	0xbb16415f	-0.0022927148
129	0x3bfed14a	0.007776414
130	0xbcadb16f	-0.021202771
131	0xbc9feac5	-0.019521127
132	0x3c9fe545	0.019518504
133	0x38a25bb1	7.741841e-05
134	0xbc1acb23	-0.009447846
135	0xbc9b19e8	-0.018933252
136	0xbbc69188	-0.006059829
137	0xbca09c97	-0.019605918
138	0xbc9e1d40	-0.019301057
139	0xbbd57028	-0.006513614
140	0xbc0c61e6	-0.008568263
141	0xbc857833	-0.016292667
142	0xbc8e1a4a	-0.01734652
143	0xbc800e6e	-0.01563188
144	0xbc1b8644	-0.009492461
145	0xbc1da96f	-0.009622916
146	0xbaee88ea	-0.0018198763
147	0x3d09e4bf	0.033665415
148	0xbca2ec17	-0.019887967
149	0xbcb5f5ff	-0.022212027
150	0x3c87158f	0.016489772
151	0xbca8bddb	-0.020598343
152	0x3af84463	0.0018941279
153	0x3c0a6076	0.00844585
154	0x3c6fd308	0.014637716
155	0xbd2b98e9	-0.041893873
156	0xbd0896cd	-0.03334694
157	0xbc82571e	-0.015910681
158	0xbd9705ae	-0.0737413
159	0x3bab8226	0.0052340208
160	0x3d0fafcd	0.035079766
161	0x3c8126f9	0.015765654
162	0xbc6b7158	-0.014370285
163	0x3b913e53	0.0044324785
164	0xbcd7e4d2	-0.026354227
165	0x3b7c7206	0.0038520112
166	0x3d2a3a42	0.041559465
167	0xbb662aa7	-0.0035120638
168	0xba97f423	-0.0011593144
169	0x3cd93b78	0.026517615
170	0x3baaf18f	0.0052167843
171	0x39fd7b44	0.0004834776
172	0x3b07ae42	0.002070323
173	0xbc40d037	-0.011768392
174	0x3cdbd63a	0.02683555
175	0x3b606ab7	0.0034243295
176	0x3ba88873	0.005143219
177	0x3b8519cc	0.004061913
178	0x3af1c9d5	0.0018446991
179	0x3c8373d8	0.01604645
180	0x3ac7cd4f	0.0015243682
181	0xbc41d8da	-0.011831487
182	0xbcc9f299	-0.024651812
183	0xbd0f31d9	-0.034959648
184	0xbcba5b73	-0.022748685
185	0xbd471778	-0.048606366
186	0x3ab79916	0.0014007415
187	0x3cfa27d4	0.03053657
188	0x3a43d63b	0.00074705825
189	0x3b885268	0.004160214
190	0x3c95f59b	0.01830559
191	0x3b27231e	0.002550311
192	0xbbd3c196	-0.006462286
193	0x3c9a3199	0.018822478
194	0xbbd0dd60	-0.006374046
195	0xb9dcbcdd	-0.00042102384
196	0x3c5263c8	0.0128411725
197	0x3c685892	0.014181273
198	0x3ce77a9d	0.028256709
199	0xb983ad3b	-0.00025115334
200	0x3c347dca	0.011016319
201	0x3d445571	0.047933046
202	0x3bceb339	0.006307986
203	0x3d008c60	0.031383872
204	0x3c2d01af	0.010559483
205	0xbc861b6f	-0.016370503
206	0x3d0243da	0.03180299
207	0x3ce82a01	0.028340342
208	0xbd0418b6	-0.03225013
209	0x3c74123c	0.014896926
210	0x3b3f9047	0.0029230283
211	0xbc8dea6a	-0.017323691
212	0x3d07efd7	0.033187713
213	0x3c25f29a	0.0101286415
214	0xbb4791fc	-0.0030452004
215	0x3cfec249	0.031098502
216	0x3cc20390	0.02368334
217	0xbca276e8	-0.01983209
218	0xbb28ad13	-0.0025737926
219	0x3c2499e8	0.01004646
220	0xbcd644d5	-0.026155869
221	0x3b9c1195	0.004762838
222	0x3c3394e1	0.0109607885
223	0x3b8c4153	0.004280248
224	0x3b2913d9	0.0025799184
225	0x3c28c8a0	0.010301739
226	0xbd381e3e	-0.044950716
227	0x3c688c07	0.014193541
228	0xbc8d462b	-0.017245373
229	0xbd2261ef	-0.039644178
230	0x3c7de780	0.015497088
231	0xbcce2c35	-0.025167564
232	0x3b4f62a3	0.0031644485
233	0x3b3b0616	0.0028537563
234	0xbd5fd309	-0.05464462
235	0xbcaf04ec	-0.021364652
236	0xba9b119e	-0.0011830812
237	0xbd57b9a3	-0.05266727
238	0xbb69406c	-0.0035591377
239	0x3c929137	0.01789151
240	0xbcb7d34a	-0.022439618
241	0xbb22a7cf	-0.002481926
242	0x3b8aaf8f	0.004232354
243	0x3d32f7f7	0.04369351
244	0xbc0aef06	-0.008479839
245	0xbc20df0b	-0.009818803
246	0x3d18115c	0.03712593
247	0xbca651ef	-0.02030274
248	0x3b9eec03	0.004849912
249	0x3c9218fe	0.017834183
250	0xbc1f6b73	-0.009730208
251	0x3cc1d929	0.02366312
252	0x3cfe3403	0.03103066
253	0xbac3af4a	-0.001492956
254	0x3c3eb175	0.011638989
255	0x3b1ef476	0.0024254597

tfeb.12.weight f4 [26]
0	0x3dd11574	0.1020917
1	0x3e5004a3	0.20314269
2	0x3e21d6d6	0.1580461
3	0x3e55ec6e	0.20890972
4	0x3e7aee4e	0.24504969
5	0x3e8254e1	0.25455382
6	0x3e1462be	0.14490792
7	0x3ded4421	0.1158526
8	0x3db5b4fc	0.08872411
9	0x3ddd5e1d	0.10808966
10	0x3e60e467	0.21962129
11	0x3dc1ab28	0.094564736
12	0x3e2eab48	0.17057526
13	0x3e2dab6f	0.16959928
14	0x3e376956	0.17911276
15	0x3e511a2d	0.20420142
16	0x3dd6f406	0.104957625
17	0x3e3d2024	0.18469292
18	0x3e4420c3	0.19153123
19	0x3da02bb7	0.07820838
20	0x3e47aa75	0.19498618
21	0x3df9feb4	0.12206784
22	0x3dbe77e4	0.09300211
23	0x3e79bc9b	0.24388354
24	0x3e25bb8c	0.16184825
25	0x3e20f531	0.15718533

tfeb.12.bias f4 [26]
0	0xb9f1fe80	-0.0004615672
1	0xbceaac2f	-0.028646557
2	0xbd6510d9	-0.05592427
3	0xbd02fd81	-0.03198004
4	0xbe1b5199	-0.15167846
5	0xbdd8b97a	-0.10582252
6	0x3bae7604	0.005324127
7	0xbdc9d4d4	-0.09855047
8	0x3ce58f54	0.028022446
9	0xbd118612	-0.03552825
10	0xbe2be99b	-0.16788332
11	0xbd442834	-0.047889903
12	0xbdc91bb5	-0.09819738
13	0xbd813cbc	-0.06310412
14	0xbd91701e	-0.07101463
15	0xbdf8bf67	-0.12145882
16	0xbcc6d0c3	-0.024269467
17	0xbd6d701c	-0.057968244
18	0x3a6df717	0.0009077652
19	0x3d6e5778	0.058188885
20	0xbc9da5bd	-0.01924407
21	0x3da1dd0f	0.07903492
22	0xbd84ee68	-0.06490785
23	0xbdf20e85	-0.11819176
24	0xbd0c7ae2	-0.034296878
25	0x3d57c8e9	0.052681837

tfeb.12.running_mean f4 [26]
0	0xbd067a6c	-0.032831594
1	0xbc8c5967	-0.017132474
2	0xbd161a0d	-0.036645938
3	0xbd11f9e3	-0.0356387
4	0x3d3cc4f2	0.04608626
5	0xbc52c6c3	-0.012864771
6	0x3c99e676	0.01878665
7	0xbd224a9f	-0.039621945
8	0xbd9e8fb9	-0.07742257
9	0xbd88c428	-0.06678039
10	0xbd8c8b91	-0.06862558
11	0x3c70fa1f	0.014708071
12	0xbd91b6ba	-0.071149305
13	0xbda39a18	-0.079883754
14	0x3cf9d664	0.030497737
15	0xbc8e4aba	-0.017369617
16	0xbd25b9bd	-0.040460337
17	0x3d88ea49	0.06685311
18	0xbd6b64cf	-0.057469185
19	0xbdb2e635	-0.08735315
20	0xbd9a9e39	-0.0754971
21	0xbc077446	-0.008267468
22	0xbd4c256c	-0.049840376
23	0xbda9242c	-0.08258852
24	0x3c5b5c36	0.013388684
25	0xbd551c1e	-0.052028768

tfeb.12.running_var f4 [26]
0	0x3b09c357	0.0021020973
1	0x3b949e31	0.0045354594
2	0x3b7d40c8	0.003864335
3	0x3b5f6dde	0.0034092586
4	0x3c5adc14	0.013358135
5	0x3be7b3d0	0.007070996
6	0x3b7b005e	0.003829978
7	0x3c0b9143	0.00851852
8	0x3bdcc288	0.006737057
9	0x3ba5fc8c	0.0050655063
10	0x3b7323fd	0.0037100308
11	0x3a43af29	0.00074647606
12	0x3b4bb9c1	0.003108606
13	0x3bd7b3c4	0.006582709
14	0x3b4115db	0.002946249
15	0x3b1090e0	0.0022059008
16	0x3b089e25	0.0020846215
17	0x3b968176	0.0045930697
18	0x3ba55044	0.005044969
19	0x3be860e4	0.0070916284
20	0x3c311d85	0.010810261
21	0x3b99ca5a	0.0046933116
22	0x3b5030b0	0.0031767301
23	0x3be889cc	0.007096505
24	0x3b3f41f1	0.0029183591
25	0x3b937b00	0.0045007467
