th/pruned_models/second_stage_pruned_models/magnitude_pruning/acdnet_tl_hybrid_pruning_magnitude_model_202312280938_095.pt (torch, 108802 bytes, 62 tensors)

sfeb.0.weight f4 [7, 1, 1, 9]
00000000: 6cd9 363e 6f97 803e 9faf ac3d 74d7 513f
00000010: 676a 78be 9171 acbe 5a0c d8be 2326 21be
00000020: 8536 c2bd 38a2 3dbd 4a8b 593d f4fd 3d3e
00000030: 815c 9fbe e195 093e 477f 6bbf d50d c3be
00000040: f47a f53e bc56 463f b5e2 393f e7bb c0bd
00000050: c4a4 32bd 1655 94be 3b10 a13d 9b6d 3abe
00000060: e944 c93d bcb4 0d3f e292 d9be 0a14 0ebf
00000070: f91f 20bf 045e b83c ad4c 1e3f 9cee 8b3d
00000080: e1eb 993e 6842 93be a2a1 ca3c ce02 b53d
00000090: ca15 3639 62d2 d63d e894 46be 5295 a43d
000000a0: 2c55 4b3a 6d5b 923e 3105 533f ae73 1bbf
000000b0: 4d7f 08bf 10d2 203d 8de3 c23d 0ee7 86be
000000c0: eee6 d73e 3e85 78bf 632c 433f e907 203e
000000d0: 753f 7abf 8dd2 303f 5073 09be e5b2 67be
000000e0: 924d 36bd 46f2 733e ceb5 a33d 7526 b73d
000000f0: d869 8ebe 525e 083e 50ad 253f
0.17856377 0.25115535 0.084319346 0.8196938 -0.2425934 -0.33680394 -0.42196923 -0.15737204
-0.09483055 -0.046297282 0.053111352 0.18553907 -0.31125262 0.1343608 -0.91991085 -0.3809649
0.47945368 0.77476096 0.7261155 -0.094108395 -0.043614164 -0.28971165 0.07864424 -0.18205874
0.09827597 0.55353904 -0.42494875 -0.5549933 -0.62548786 0.022505768 0.6183575 0.068326205
0.30062774 -0.287616 0.024735276 0.088384256 0.0001736499 0.10489346 -0.1939274 0.08036293
0.0007756527 0.28585377 0.82429796 -0.6072339 -0.53319246 0.03926283 0.09516058 -0.26348156
0.42168373 -0.9707831 0.76239604 0.15628017 -0.9775308 0.69071275 -0.13422894 -0.22626837
-0.04450757 0.23822889 0.07993661 0.08942882 -0.27815127 0.1331723 0.6471758

sfeb.1.weight f4 [7]
00000000: 2873 4f3f 5a79 6f3f 248b 133f db51 2f3f
00000010: 2281 373f 888a 2d3f 2620 163f
0.8103509 0.9354454 0.57634187 0.68484277 0.71681416 0.67789507 0.58642805

sfeb.1.bias f4 [7]
00000000: b29d f23c e0f0 003d 9960 153f d9aa 133f
00000010: 0085 503e b897 2a3f b907 123e
0.02961621 0.031479716 0.5835052 0.5768257 0.20363235 0.66637754 0.14260758

sfeb.1.running_mean f4 [7]
00000000: b208 74b7 0a9b 7637 2bb7 91b7 5ad2 0d37
00000010: 210c 8336 27b0 7ab6 e515 d5b7
-1.4545558e-05 1.46988405e-05 -1.7370641e-05 8.453231e-06 3.905516e-06 -3.7355437e-06 -2.5401774e-05

sfeb.1.running_var f4 [7]
00000000: 236d 853c 767a bf3c 5630 023c 2747 8b3c
00000010: 6d72 523c ceba 9b3b 4c7d c83b
0.016287392 0.023373824 0.0079460945 0.017001702 0.012844664 0.0047524935 0.006118452

sfeb.3.weight f4 [32, 7, 1, 5]
00000000: 925f e5bd 1c9b 01be cd4e 84bd 2868 95bd
00000010: 7b86 a7ba 1132 2cbd dd53 54bd 7dbe 0ebb
00000020: e7ef 593d 6634 30bd 25ed 29be 0264 e0bd
00000030: 9ef6 15be 7281 42be cbf3 c6bd b734 3e3d
00000040: e5fe e53d 5c73 013e bfb3 193e 763a 263e
00000050: 683a ebb8 ae5c b43d 6003 3eb9 afaa 08bb
00000060: 8d55 85bd a28c 27bd be38 4abb a80b 4e3a
00000070: 1a1a 70b9 9c83 bc3a 33c5 56be d1d2 2bbe
00000080: 4325 4abe b6ca 14be b7f6 4abe 3e2a 55be
00000090: 5fb7 2cbe 4708 b7bd 39ee ecbd 3ad3 f8bc
000000a0: 2994 2d3d a0ff 25bd e920 a0bd 78a2 2fbe
000000b0: f842 a1be 9f6a 22be 79af 70bd 6cbe 59bd
000000c0: 141c a9bd 4295 05bd 882a 733e eafe e83d
000000d0: e8fa bf3d 0020 033e cc7d f538 b12d 0cbd
000000e0: 4908 143b 349b 3c3d e484 883d 0283 c43d
000000f0: f97e 513a 1fc1 1dba a5c7 85ba 6976 81bd
00000100: fbd7 fcbc 723f e5be bed1 a0be d8b3 13be
00000110: 807f 0bbd f50b 4a3d b7ba e8bd ed6c f3bd
00000120: 3e1b 24be 98ac cdbd 5bc7 d4bd 211b b9ba
00000130: b987 2cbd 6eab 08ba 3e35 e4ba f7dc 92bb
00000140: 63f9 25be 49b6 b6bd ce85 5abd 2f38 dcbd
00000150: 04fe adbd 0163 d63d ee48 3d3e f1fb 243e
00000160: 76e1 1f3e 0b82 173e 7086 02bd 6d55 bd3c
00000170: d976 2c3d 6fe9 ecba 4597 01bb 5a0f 9bb9
00000180: d1b2 af3a a690 603a 37e7 09bb c4a3 55bb
00000190: fdf0 52be ec91 6abe 6ab6 fbbd c0b8 bebd
000001a0: d130 24be 4dd2 a3bb e3c2 67bb 9816 093d
000001b0: 4646 febc 75f6 c5bd 8427 29be d7d1 8dbd
000001c0: 5e1c 88bd 1acd b2bd d27c 5fbd bf71 913e
000001d0: 1f11 643e b564 3b3e 6885 e23d edd0 9d3d
000001e0: be4f 1abe 4506 7cbe 4889 c4bd 1016 1bbe
000001f0: 51b9 e7bd 4ac6 1e3d f19b beba b8f6 cd3c
00000200: 7f1f dbba 3154 46bd 3c81 2bbb ab8b b6bb
00000210: f13c 38bb 7c07 77ba 8427 9dbb cfc8 5a3e
00000220: 5386 873e d674 623e 9907 933e 92e7 a33e
00000230: bc51 173e 8842 cd3d afad 87bd c47e afb9
00000240: 9e66 d63d f5b9 24be a764 27be 62b3 2abd
00000250: efd9 bcbd 6a71 71be 01e3 883e 9c52 eb3d
00000260: 57d8 be3d 633d 813d 3cda 89b9 b642 3bbe
00000270: 5270 ecbd 4db4 fcbd 2a20 dabc 10f8 cbbd
00000280: 2c38 fc3c 3c10 1b3d 3977 2f3d a7ee f53d
00000290: af94 3c3e c0d4 923a 6d28 373a d257 213a
000002a0: dc81 96bd f9a6 9cbd cdbd 8cbd 2606 30be
000002b0: 63a6 85be 6594 33be dbaf e3bd d33e bbbd
000002c0: 1411 45be dadc 97be 855f 2ebe caba 15be
000002d0: 202e 043d e29a bebd dd02 52ba 9cb4 973d
000002e0: 1ab6 9739 0ac2 60be afe4 03bd 4021 01be
000002f0: fe96 25bd a7ef 0a3b 8095 8a3e ee42 243e
00000300: bcea 873d e81e 3abd ea61 4abd 8ff8 36b9
00000310: 5c7d 01be 543a f7bd 28a7 f2bd f3df 31be
00000320: 060b a1bd dd6d 4bbd af64 293a 029f 3636
00000330: 34c0 893d c955 0cbd 9d3c eb3d 3fad 3e3d
00000340: c52e 673e 9caf 9f3e 401d b33d 430d 073e
00000350: 7566 c03d a625 013d 764d 7f3b d7b5 edbd
00000360: 859a 0ebe 1f95 02be 3b73 fabd a2a8 05be
00000370: 4bf0 1f3e 823a a33d 7292 de3d 9b41 23bd
00000380: 92eb 9bbd ff3e 22be 0966 39be 8fc3 08be
00000390: ffab dabd ef5e d4bd 5647 6d3d ee35 f53d
000003a0: 01b0 aa3d 86a6 4c3d 1b16 acbd d834 a1b8
000003b0: 5a4b d5bc 21f7 5c3a 711d 1538 b758 d5bc
000003c0: ed62 fb3a c451 84bd 1415 c7bd b860 bfbd
000003d0: 7058 0cbe 6f20 a0bd f448 33be 3ba7 2fbe
000003e0: 9601 1ebe 0eb2 0cbe 033d aa3d b100 af3d
000003f0: 4837 803d 064b 9b3d 55ca 9a3a 59c6 d3bd
-0.11199869 -0.12656826 -0.064603426 -0.07295257 -0.0012781167 -0.042039935 -0.05183779 -0.002178102
0.053207304 -0.04301872 -0.1659437 -0.10956575 -0.14644858 -0.18994692 -0.097144686 0.04643699
0.11230258 0.12641662 0.15009974 0.16233239 -0.00011216552 0.0880674 -0.0001812107 -0.0020853688
-0.06510458 -0.040905602 -0.0030856575 0.0007860013 -0.00022897907 0.0014382484 -0.20973663 -0.16779639
-0.19740777 -0.14530453 -0.19820677 -0.20816895 -0.16866826 -0.08937126 -0.11568875 -0.030374158
0.042377625 -0.040526986 -0.07818777 -0.1715182 -0.31496406 -0.15860985 -0.058761094 -0.053160116
-0.082573086 -0.032613046 0.23746693 0.11376746 0.093740284 0.12805176 0.00011705942 -0.034223262
0.0022587946 0.04604645 0.06665972 0.095953 0.00079916377 -0.0006017852 -0.0010206593 -0.06321413
-0.030864706 -0.44774967 -0.3141002 -0.14424074 -0.03405714 0.04932781 -0.11363738 -0.1188601
-0.16026017 -0.10042685 -0.103895865 -0.0014122465 -0.042121623 -0.00052135333 -0.0017410887 -0.0044819075
-0.16208415 -0.08921487 -0.053350262 -0.10752904 -0.08495715 0.10468102 0.18484852 0.16111733
0.1561335 0.14795701 -0.03186649 0.023112023 0.04210553 -0.001807494 -0.0019774002 -0.00029575342
0.0013404732 0.0008566476 -0.0021042356 -0.0032598833 -0.20599742 -0.22907227 -0.12290652 -0.09312582
-0.16034247 -0.004999435 -0.0035363964 0.033468813 -0.031039368 -0.096661486 -0.1651898 -0.069247894
-0.066460356 -0.08730526 -0.054562397 0.28407094 0.22272156 0.18300135 0.110606015 0.07705865
-0.15069482 -0.24611767 -0.09596497 -0.15145135 -0.11314643 0.038763322 -0.0014542324 0.025142059
-0.0016717761 -0.048420135 -0.002616956 -0.005570849 -0.0028112496 -0.00094234175 -0.0047959704 0.21365665
0.2646967 0.22114882 0.28716734 0.32012612 0.14777273 0.100224555 -0.066249244 -0.0003347305
0.104687914 -0.16086562 -0.1634699 -0.04167498 -0.09221255 -0.2357842 0.2673569 0.11490366
0.09318607 0.06310537 -0.00026293274 -0.18287167 -0.11544861 -0.12339077 -0.026626665 -0.099594235
0.030788504 0.03785728 0.04283831 0.1200841 0.18416093 0.001120232 0.000698692 0.0006154749
-0.073489875 -0.07649035 -0.06872139 -0.17189845 -0.26103505 -0.17537077 -0.11117526 -0.09142842
-0.19244796 -0.29660684 -0.17028625 -0.14622036 0.03227055 -0.09306885 -0.0008011291 0.074074954
0.0002893664 -0.2194902 -0.03220051 -0.1261034 -0.0404272 0.0021199973 0.27067184 0.16041157
0.06636569 -0.04543963 -0.049409784 -0.00017449468 -0.12645477 -0.12071672 -0.11848289 -0.17370586
-0.07863431 -0.04966532 0.00064618414 2.7212668e-06 0.06726113 -0.0342615 0.114861704 0.04655194
0.22576435 0.31188667 0.08745813 0.13188653 0.09394542 0.031530045 0.0038956082 -0.11606949
-0.13926132 -0.12752198 -0.1222901 -0.1305261 0.15619008 0.07970144 0.10867776 -0.039857488
-0.07613291 -0.15844344 -0.1810533 -0.1335585 -0.10677337 -0.1036967 0.05792936 0.11973177
0.08334351 0.049963497 -0.08402654 -7.686921e-05 -0.026036907 0.0008429159 3.5551788e-05 -0.02604328
0.0019179262 -0.06460908 -0.09720817 -0.093446195 -0.13705611 -0.07818686 -0.17508298 -0.17153637
-0.15430292 -0.13739797 0.08312418 0.08545054 0.06260544 0.07582669 0.0011809567 -0.10340566

sfeb.4.weight f4 [32]
00000000: c462 523f 83d4 703f e172 043f c2cc 883f
00000010: fe41 0e3f 578f 183f 5bb5 263f fa94 253f
00000020: d117 043f 67ce 103f e23c 443f 1335 3e3f
00000030: 9d0e 0a3f 389f 003f 422e 073f 91ca 163f
00000040: e31c 223f 790c 253f 8f42 183f dbae 343f
00000050: 54f2 2a3f 4933 163f b97f 2b3f 9a73 103f
00000060: c75f 1a3f ac05 e03e 10bb ef3e 7e18 253f
00000070: e6a7 3a3f 0c03 3b3f de8e 2e3f 6819 293f
0.82181954 0.9407427 0.5173779 1.0687487 0.55569446 0.5959372 0.65120476 0.64680445
0.5159884 0.56564945 0.766554 0.74299735 0.5392855 0.5024295 0.5280496 0.5890284
0.6332533 0.64472157 0.5947656 0.7057931 0.66776013 0.58672005 0.66991764 0.56426394
0.60302395 0.43754327 0.46822405 0.644905 0.7291244 0.73051524 0.6818675 0.6605439

sfeb.4.bias f4 [32]
00000000: 27c2 bc3c ef23 0cbe e945 fd3c be0c a5bd
00000010: d4fd aabd 2531 8bbc bcb5 6cbd 1f0d 90ba
00000020: d72a b3bd e1db 85bd ab53 543b 8885 5b3c
00000030: 2246 e0bb 3365 cb3c 48a2 703b fd76 033d
00000040: ef3a c53b 1e20 85b8 bb4f 30bd 368b 0bbd
00000050: 8e8d a7bc c815 10bd 5447 36bd 942d 77bd
00000060: 40b7 2cbd 82bf f1bd befb 9c3c 8c01 7fbc
00000070: 7ab9 b1bc 5fc9 edbb da1b dfbd e31d 2c3c
0.023041798 -0.13685583 0.030917125 -0.08059071 -0.08349195 -0.016991207 -0.057790503 -0.0010990239
-0.087484054 -0.06536079 0.0032398503 0.013398536 -0.006844298 0.024828529 0.003671782 0.032095898
0.0060189883 -6.3479165e-05 -0.043044787 -0.03406831 -0.02045324 -0.035177022 -0.044501618 -0.0603462
-0.04216695 -0.11804105 0.019163009 -0.015564334 -0.021694887 -0.0072566713 -0.10893984 0.010505172

sfeb.4.running_mean f4 [32]
00000000: 5cc9 cbbe 940d b0be 1787 12be b2ab 803e
00000010: 70f7 8abe e6fd 6cbe 7b1b d9be b0ef 833d
00000020: 342e 16bf da1e 28be f803 98bd ad25 96be
00000030: b41b 5cbe 073c 2abe d3c4 17be 6e9e a9be
00000040: 64f9 85bd c00a a1be 1abc 91be a815 c0bd
00000050: e314 7dbe 6316 0abe 17d9 4fbe 5230 bdbe
00000060: 0d46 cabe 2acd 08bf 5f44 55bd 57ef ec3d
00000070: b3e3 8fbd dff9 a7be 1183 0ebf 79f4 3bbd
-0.39802063 -0.3438536 -0.14309345 0.25130993 -0.27141905 -0.2314373 -0.42403778 0.06442201
-0.5866425 -0.16418019 -0.07422632 -0.2932562 -0.21494943 -0.16624461 -0.14821176 -0.33128685
-0.06541708 -0.31453514 -0.28463823 -0.093791306 -0.24714999 -0.13485102 -0.20297657 -0.36950928
-0.3950657 -0.53438056 -0.052067157 0.11569088 -0.07025852 -0.32807824 -0.5566874 -0.045887444

sfeb.4.running_var f4 [32]
00000000: d8b4 fe3d 168e 8b3e b355 e03d bfea 973d
00000010: a6f3 2e3e 95ab 323e 91af fc3d 6f75 cf3d
00000020: 75fa 713e cde6 813e 78c4 e63e 9273 bf3e
00000030: e727 b73e 083a b83e fb8a e43e e2b7 033f
00000040: a5fa 5e3f 2d33 5e3f bc3c 373f 9d2c 273f
00000050: c319 153f da9a 073f b1b5 1d3f 51c0 b43e
00000060: 9d75 ef3e 0e10 573e 63a3 c93d e162 563e
00000070: ed07 893e 8de3 8d3e d94a 933e 2283 003e
0.12436837 0.2725684 0.10953846 0.07417821 0.17085132 0.17448266 0.12338174 0.101298206
0.23630698 0.253714 0.4507177 0.3739286 0.3577263 0.35981774 0.44637284 0.5145246
0.87101203 0.8679684 0.7157705 0.6530245 0.58242434 0.5297066 0.61605364 0.35302976
0.4676942 0.21002218 0.09845617 0.20936157 0.2676386 0.2771267 0.28768042 0.12550023

tfeb.0.weight f4 [10, 1, 3, 3]
00000000: d612 5a3f 7a27 17bf 3213 aebe fbc4 07be
00000010: 1179 933a 974a 833d 5da3 81bd 6de0 c13b
00000020: a707 a23b 7510 a23d 859f e8be 8f1d f63d
00000030: 337a 843e aea1 04bf 498d 183e e536 523e
00000040: 6813 9abe cf45 f73d 7469 4e3e f2ba 5e3e
00000050: c2d1 e1be 83f3 7e3e c324 823e 18bd d2be
00000060: 0179 f93d aa4e dd3d ba1f 08be a19c 0fbf
00000070: b2cb dd3d 7bb3 5c3e b0a4 1cbf 55d8 273e
00000080: 17b9 e63e 99df 75be 0848 b33d 6fac 3e3e
00000090: 4477 09bf e41d 8e3f 5a3a 3cbf b79d 973b
000000a0: f1ea a73b f9b4 debd 7c49 d33b 1d30 f13b
000000b0: 11f7 12bd 62f8 233e 0646 65be 345e 97be
000000c0: 972e 9c3e 08ce 56be c9e1 8abe c408 873e
000000d0: c0e4 cdbd 67ff 19be 1b6c 813e ef14 1abe
000000e0: ded4 a2be 2f83 c33e 5d59 fbbd dd4d 9ebe
000000f0: ed43 423e b246 aebd ff40 57be 2d74 1a3d
00000100: f44a cb3c 37aa fdbd 85af bd3d 61b5 4d3d
00000110: 8b0e 56be 1bd3 84be d5e6 f9be cd5c 3c3f
00000120: 9da2 743e f24d 0abb a71d e4be 84eb 9e3e
00000130: 3fab 103a c7da c3be 94ae bdbe eddc 883d
00000140: f7bb 6b3e 304f a0be d228 c7be 88c6 da3e
00000150: a3dc 8dbe f041 b9be 4029 0d3f 9b04 d1bc
00000160: c763 7ebe 3a41 6a3e
0.8518499 -0.5904461 -0.3399902 -0.13258736 0.001125129 0.06410711 -0.06329987 0.005916646
0.00494476 0.07913295 -0.45434204 0.120173566 0.2587448 -0.51809204 0.14897646 0.20528753
-0.3009293 0.12073862 0.20157415 0.21751001 -0.44105345 0.2489758 0.25418672 -0.41159892
0.12181283 0.108060196 -0.13293353 -0.5609837 0.108298674 0.21552841 -0.61188793 0.16391118
0.45063087 -0.24011077 0.08753973 0.18620466 -0.5369761 1.1102872 -0.7352654 0.0046269554
0.0051244427 -0.108743615 0.006447969 0.007360472 -0.035880152 0.1601272 -0.22389993 -0.2956406
0.30504295 -0.20977032 -0.27125385 0.26373875 -0.10053396 -0.15038835 0.2527779 -0.15047048
-0.3180303 0.38186023 -0.12272904 -0.3091878 0.18971224 -0.08509578 -0.21020888 0.03770845
0.024816014 -0.123859815 0.09261993 0.050221805 -0.20903985 -0.2594231 -0.48808923 0.735791
0.23890157 -0.0021103588 -0.44553873 0.3103906 0.0005518682 -0.3825285 -0.37047255 0.06682763
0.23020922 -0.31310415 -0.3889833 0.42729592 -0.27707395 -0.3618312 0.5514107 -0.025514891
-0.2484275 0.22876444

tfeb.1.weight f4 [10]
00000000: be3b 933e face b83e 5276 373e 2841 893e
00000010: 9ed7 a53e 9770 e33e 00ea 473e bb5f 813e
00000020: c0d4 bb3e 4095 c03e
0.28756517 0.3609541 0.1791623 0.26807523 0.32391065 0.44421837 0.19522858 0.2526835
0.36685753 0.3761387

tfeb.1.bias f4 [10]
00000000: d530 403d ab22 2d3d 8b11 0f3e 5472 2e3e
00000010: 8d31 69bb ed79 ecbd a743 6e3e 01f0 ab3c
00000020: f8fb 4dbd 2395 45bd
0.04692157 0.04226939 0.13971536 0.170358 -0.0035582513 -0.11546693 0.23267995 0.020988466
-0.050289124 -0.04823793

tfeb.1.running_mean f4 [10]
00000000: c612 e9bd f53f 48be c599 c63d 4969 e1bd
00000010: 504a 1fbe 7d5c 97be 0bee 55be 934b a4bd
00000020: 07c9 4abe 0356 6dbe
-0.11380534 -0.19555648 0.09697298 -0.1100641 -0.15555692 -0.2956275 -0.20891587 -0.08022227
-0.19803248 -0.23177342

tfeb.1.running_var f4 [10]
00000000: eae3 e53d d9b2 253e d204 fb3d 736f 653e
00000010: f937 403e bcef 723e 5b93 303e 10fa 923d
00000020: 84f1 f63d a163 863e
0.11225112 0.16181506 0.12256779 0.22405796 0.18771352 0.23724264 0.17243712 0.07176602
0.12057784 0.26247886

tfeb.4.weight f4 [17, 10, 3, 3]
00000000: 3c15 0f3a 7bda e03d 48bf 91ba 845a d1bc
00000010: eb83 46be b00b a4bd 4dd1 4a3a d73e ebbc
00000020: 3fb1 24bd f7ee d238 bb2b 2cbe 42e4 2dba
00000030: 1937 853d a700 2ebe 5b14 823a babd 103a
00000040: 0c8e d7bd 04e1 84b9 ffb7 a2b9 1a40 adb9
00000050: c2c1 6eba e5ae 56bd 0792 dabc ad42 2b3d
00000060: b5a5 56b8 261b 3a39 3040 15ba c141 16ba
00000070: d5f8 643d bb27 2cba 3866 303a 1a4d 8b3d
00000080: 544d 00bd 0369 4bbd 3747 243d 8201 40ba
00000090: ab21 923d f386 5a3d d60f 3e37 0c14 fcbd
000000a0: d4c2 c3bd 5aff a8bd 06e4 8e3a 8a68 a2bd
000000b0: 061b f039 f860 8e39 b3a4 32bd d08a 03bd
000000c0: 999c 623d 355c 10bd 69b9 fe38 00a7 213a
000000d0: 1cf7 d8bc bc46 143d 24a5 ab38 2570 073a
000000e0: e22b 35ba 1f87 243a 0f02 4abd 9713 c4b7
000000f0: 4e0a d0b8 d6c3 2939 18f8 37ba 4032 cb38
00000100: a7ec dcbd 2781 96b9 93ae 2fbd 4d42 f5bc
00000110: d0f3 1b3d 74d5 f63c d6b2 1eba 8dbe 3cb8
00000120: 753a 483a 0203 263a d340 39bd 12b8 393a
00000130: 54a3 cebc a5b7 eb3c b546 0c3a 2acd f438
00000140: 6554 fab9 81e1 5e3d 78a7 02be 68bb 75b9
00000150: 0ebe 493d 37e1 bdbd 5ade 303a 8be1 4ab9
00000160: c7a6 66bd 8306 96b9 a42f 483b bd0f e739
00000170: 9868 b43d 6792 5fbd 9bca 16be e0dd 65be
00000180: 1c58 25bd 7e4d 5e3d ba7c 0c3e 104f a0bd
00000190: dad9 22b9 bddf 6dbd 3823 ceb9 8690 59ba
000001a0: 1a7c bdbd 5c7d 9839 0d64 6039 4c7f 093d
000001b0: 40ed f13c ed89 dcbd 4c14 b13a b93e e3bc
000001c0: 2f48 3bbe 5973 68bd cf88 bd3d c6b2 aa3d
000001d0: cf1e 203d 446e e8bd 37c3 473a 2ad2 343d
000001e0: f6c8 45bd a53e 95ba 6d93 21bd 2dce 873d
000001f0: 1254 abbd 715b fa3c 17f8 b13a c61c 613d
00000200: ee91 0d3d 32e9 72bd 805b 97be e8c3 09be
00000210: 7089 94b9 c607 8f3d 6876 e63c 6446 b738
00000220: be68 01bd d503 04bd e022 a73d ed43 00bd
00000230: 339f b9bd 9fe8 febc f237 073d 70e3 b739
00000240: b52a d83a fa74 8ebd 1aa9 0ebd 3ad2 ba39
00000250: 8d0a 5abd f841 20bd 5132 20bd 9878 1a3d
00000260: ac61 0a3d f48a 7cbd defa 41bd 9391 5dbd
00000270: 5cc4 c3ba e3eb 323d a120 9a3d da59 1f3d
00000280: 43f6 ecbc 0f8e 50bd b11b c03a a6c2 20b9
00000290: 2d6f 953a fda0 903d b0e5 93bd 4ea5 dcbc
000002a0: 2080 fcbc 2f31 973d 96a7 6539 513a efbd
000002b0: 63bd 243d 821f 963a 895a 5bbd d48e 4c3d
000002c0: 0271 6c37 6805 b7b9 6f99 76bd b652 93b8
000002d0: dbe8 723d 142b 57b8 4d3b e136 57fd 233a
000002e0: c1f5 7bbd 10dd e4bc 4552 3639 f55a 0d3d
000002f0: 4c70 aa3d 16bb a03a 58ab 58bd 5b7d 1fbd
00000300: c890 173a 58bb 28bd 3d22 9b38 d74f 5e3d
00000310: 5f07 163d fbdb 523d c54e 1e39 3641 d1bd
00000320: e034 4dbd 161f 7ab9 0589 d1bd 0ef6 e6bc
00000330: 5d45 6b3d 1286 e8b9 e8f7 423d 14a8 8cbd
00000340: dc2d a7bd db99 973d cae7 3fbd f415 a9bd
00000350: f0fe 24ba e354 9a3d 87b0 3dba 9657 033d
00000360: be90 023d 4338 2ebd 1f4f 4b3a 7357 ed3c
00000370: ab8c 04be f2be 2f3a 0354 0b3e 4ae2 ba3d
00000380: 2445 903d 5285 7d3a 1c1e 53bd f4e9 48bd
00000390: 9226 8d39 2964 11bd d45c 2bba 9f9c efbc
000003a0: 37b0 1e3a e5f7 b9b9 8eb2 953a f0d6 f9bc
000003b0: 93b0 61bd b619 1bbd ad23 73bd 1d97 5dbd
000003c0: f382 1bbd 6352 d2bc b75b ecbc 53e4 503a
000003d0: 538f c138 89e9 423a f4cc 353d 4c7b 993d
000003e0: 9424 ac38 a846 45b9 4bf3 0fbd b588 f7bc
000003f0: 163b 573d 763e fd39 4e20 5539 c59a 34bd
0.0005458181 0.10979172 -0.0011119628 -0.025555857 -0.1938626 -0.08010042 0.0007736877 -0.028716488
-0.040208098 0.00010058091 -0.16813557 -0.00066334393 0.0650465 -0.16992436 0.0009924279 0.00055214355
-0.1052514 -0.00025344652 -0.00031036136 -0.0003304489 -0.00091078517 -0.052412886 -0.02668096 0.041811634
-5.1175903e-05 0.00017748456 -0.00056934636 -0.0005731844 0.055901367 -0.00065671996 0.0006729099 0.06801815
-0.031323746 -0.049660694 0.04010698 -0.00073244434 0.07135328 0.053351354 1.132857e-05 -0.12308511
-0.09558645 -0.082518294 0.0010901697 -0.079300955 0.000457965 0.00027156598 -0.0436141 -0.032114804
0.055325124 -0.035244185 0.00012146199 0.00061665475 -0.026485018 0.03620027 8.184675e-05 0.0005166552
-0.0006911141 0.0006276238 -0.04931837 -2.3374143e-05 -9.920132e-05 0.0001619005 -0.0007017865 9.689154e-05
-0.10787325 -0.00028706455 -0.042891096 -0.029938841 0.038074315 0.03013108 -0.00060538703 -4.5000157e-05
0.00076381053 0.00063328457 -0.045227837 0.00070846186 -0.025224365 0.028774092 0.00053511123 0.000116730414
-0.00047746595 0.054414276 -0.12759197 -0.00023434835 0.049253516 -0.09271472 0.0006747 -0.00019348242
-0.056311395 -0.0002861508 0.0030545974 0.0004407148 0.08809012 -0.05458298 -0.14725725 -0.2244792
-0.04036723 0.05427312 0.13719454 -0.0782758 -0.0001553068 -0.0580747 -0.00039317622 -0.0008299429
-0.09252186 0.000290851 0.00021399577 0.033568665 0.029532075 -0.10768495 0.0013510077 -0.02773987
-0.18289255 -0.05675063 0.0925461 0.083348796 0.03909188 -0.113491565 0.0007620337 0.04414574
-0.048287354 -0.0011386467 -0.039447237 0.06631122 -0.083656445 0.03056118 0.0013577965 0.05495908
0.034562998 -0.059304424 -0.29561996 -0.13453639 -0.0002833116 0.069839045 0.028132632 8.739231e-05
-0.03159403 -0.032230217 0.08160949 -0.03131478 -0.09063568 -0.031116782 0.033012338 0.00035073934
0.001649222 -0.06955905 -0.034829237 0.00035633316 -0.05323272 -0.039125413 -0.039110485 0.037712663
0.033784553 -0.061655954 -0.047358386 -0.05409391 -0.0014935839 0.04368199 0.07525755 0.03890405
-0.02892602 -0.050916728 0.001465669 -0.00015331301 0.0011400931 0.07061956 -0.07221544 -0.026934292
-0.030822814 0.07382428 0.00021901572 -0.11681045 0.040219676 0.0011453482 -0.053553138 0.0499409
1.4093008e-05 -0.00034908508 -0.06020492 -7.024912e-05 0.0593041 -5.1300114e-05 6.712426e-06 0.0006255707
-0.061513666 -0.027937442 0.0001738752 0.03451057 0.083222 0.0012262787 -0.05289778 -0.038937908
0.0005781767 -0.04119429 7.397353e-05 0.05427536 0.036628123 0.05147932 0.00015097398 -0.10217516
-0.050099254 -0.00023853438 -0.102312125 -0.0281935 0.057439197 -0.00044350378 0.047599703 -0.06867996
-0.08163044 0.074023925 -0.04685191 -0.0825614 -0.0006294092 0.07535722 -0.00072360825 0.03206595
0.03187632 -0.042534124 0.00077556254 0.028972363 -0.12944286 0.0006704173 0.13606267 0.091251925
0.070444375 0.00096710504 -0.051542386 -0.04905124 0.00026922353 -0.03549591 -0.0006536965 -0.029249487
0.000605348 -0.00035470646 0.0011421011 -0.030497998 -0.055100035 -0.037866317 -0.059360195 -0.05409919
-0.03796668 -0.02567405 -0.028852327 0.0007968593 9.2296534e-05 0.0007435312 0.04438491 0.0749422
8.208412e-05 -0.00018813706 -0.03514413 -0.030216554 0.052546583 0.00048302457 0.00020325297 -0.044092912

tfeb.5.weight f4 [17]
00000000: 28fd a83e ca06 083f 1946 2b3e abcf a73e
00000010: bfdc e83e ad86 983e e331 623e 15fb b73e
00000020: 79f3 ff3e c41e 0a3f e75e d53e 7297 ca3e
00000030: 429c 783e 4280 683e c016 633e 6297 5c3e
00000040: 3f4f d03e
0.33005643 0.5313536 0.16725959 0.32775626 0.45480916 0.2979025 0.22089343 0.35933748
0.49990442 0.53953195 0.41673967 0.3956867 0.24278358 0.22705176 0.22176647 0.21542123
0.4068546

tfeb.5.bias f4 [17]
00000000: 2cae 14bd be01 24be 2748 9f3d 792e 893b
00000010: 166d 09be c760 12bd 0a1d 713d e066 d0bd
00000020: 8389 80bd 7549 38be a0f2 cdbd cf8e bebd
00000030: edc6 d5bc 64cd 23bc 9254 b03d 482a 703d
00000040: fdbc 0cbd
-0.036298916 -0.1601629 0.07777434 0.004186448 -0.13420519 -0.035736825 0.058865584 -0.10175872
-0.06276228 -0.17996772 -0.10056043 -0.09304582 -0.026095832 -0.009997699 0.086098805 0.058634073
-0.03435992

tfeb.5.running_mean f4 [17]
00000000: cb6b 5abe 5626 8ebe e2db 15be 7cf2 c3be
00000010: 7bd4 72be 86d7 8abe 0ff2 5dbe 636b 82be
00000020: 184b 9ebe cebc 70be af98 91be cae8 51be
00000030: 03bb 70bd 4903 e4bd df3f 5abe 4bf3 06bc
00000040: e9aa b3be
-0.21330182 -0.27763623 -0.1463466 -0.38270938 -0.23713867 -0.27117556 -0.2167437 -0.25472555
-0.30916667 -0.23509523 -0.284368 -0.20498958 -0.0587721 -0.11133439 -0.21313427 -0.0082367165
-0.35091332

tfeb.5.running_var f4 [17]
00000000: 01af fd3c b6a0 5a3d d9d4 943c 332c 8a3d
00000010: b86f 0a3d 9423 1b3d ef07 c23c 77ca 173d
00000020: 8d39 783d a2ab 2a3d 8232 353d 7146 383d
00000030: 8b0d 8b3c aedc 643c e68b 3a3c bf06 703c
00000040: 3b1d 383d
0.030967237 0.053375922 0.0181679 0.067467116 0.03379795 0.037875727 0.023685424 0.03705832
0.06060176 0.041667588 0.04423762 0.044989053 0.016974231 0.01396863 0.011385893 0.014650046
0.04494975

tfeb.7.weight f4 [17, 17, 3, 3]
00000000: 72a0 ef3c e8d4 983a 02d4 a93a fde2 cdbc
00000010: ccdc 7cbd bde4 56bd 2d6d 0cba 8a8b d13c
00000020: abb1 183d 0138 1fbd 8d38 e839 9ce6 003a
00000030: bad0 24bd d084 42bd 8e73 8a3a beec 27b8
00000040: 62f4 8439 1854 4f3d 46f0 5239 1544 16b9
00000050: a192 d8b9 7f18 ce3a 54bd b73a d102 b93a
00000060: 84a8 d3bc 5876 1a39 af04 7339 f15a 36bd
00000070: d484 d9bc 3b92 c93a 9cf9 8a3a 152e c73a
00000080: 92c3 e93a 23ac 2039 7399 2039 ad1f 31bd
00000090: 8992 01bd c45b b53a 7934 d23a acf9 073a
000000a0: f67c 5bbd 5345 3cbd 9923 8e3d 0f31 7a3d
000000b0: 10e9 113d d73d e339 5ad6 d439 cdc5 2f3a
000000c0: 3432 70ba 47b3 37bd d44d 63bd badc 393d
000000d0: 6ce1 e13c a3dd 2b3d 1d60 233d c759 5c39
000000e0: 140c 073a 1d5e 9eb9 eb0b 50bd 8027 88bd
000000f0: 1385 183d 3ac5 1f39 e487 7a3d d11f 0d3d
00000100: 11ff 213a 1b44 4c3a 8219 163a 8cdb 30bd
00000110: 97fd d0bc d2f0 7eb9 78bb a1b9 0d9b eeb7
00000120: 2256 a93a 546e 223d 5060 f63a 8695 a73a
00000130: 29ec 973a f289 d33a f036 25bd e4ae 89b9
00000140: 91b1 e0bc a39d d5bc 8d5a c43a 4617 f63a
00000150: 6aaf 1bba d69c 12bd d661 2bba b7f4 873a
00000160: d9c3 893a a229 0e3d 1fc8 0c3b a192 c83a
00000170: 6b37 b23a 8181 c63a 2e06 c23a 4068 cc3a
00000180: 107f 353d 7e7b 853a 30ea 9a3a 3ddc 6ebd
00000190: 95db c9bc f5ad 0b3a 0fc8 623d b309 9838
000001a0: d147 01ba 1240 1cbd 3122 d3bc aa56 d83c
000001b0: 7c80 17ba fa15 e6bc 4df5 09b9 3b82 563d
000001c0: 7ebe f73c e1ba 893a 4fe0 63bd cfe6 0eba
000001d0: c8e3 39bd 366f 0e3a 9220 0b39 c65e d239
000001e0: 7bfc e938 dec8 3e38 fde2 5b3d b70c 3abd
000001f0: 6010 61bd 8e7e 07bd 51c0 07bd c6b3 c43a
00000200: ff47 4c3d 7e54 afbd 317d 28bd 7ac2 c3bd
00000210: 0eb6 983d 41a0 3c3d bc64 893d b829 0339
00000220: 100c 2d39 f9c6 183a 387c f13c b123 203a
00000230: 52fd 8e3a 5f32 d3bc 28cb ebbc c58a 55bd
00000240: e8f3 edbc f1e5 6ebd 0133 263a 88a7 be3d
00000250: c3b0 ae3d a9f2 ea3c f78d 64bd 39b8 d1bd
00000260: e6de 8abd a5b4 e4b9 512c 74ba 9b3a 84ba
00000270: f325 37ba b074 d53c 5318 1b3d 8c64 32bd
00000280: 06cf 4fb9 3d0e 23bd 9d9a ad39 6576 17bd
00000290: 1fae e138 7556 a6ba a7f9 9eba 9f92 8e3d
000002a0: 3277 313a a9c4 60bd 1d0f 58bd b3bc fbb8
000002b0: 3dfa 2dba bbfa adba 7a91 c7b9 5a73 9cba
000002c0: 07a7 f43c 87df 12ba caf3 56bd 99b3 6cbd
000002d0: 8a11 f53c 0b16 3aba 8f6c 0eba 3e48 15bd
000002e0: 46ab 8eba d400 a9ba 37f1 f8b8 0978 64b9
000002f0: 9c56 fdbc f9f2 0aba e5d4 3bba 3f64 27bd
00000300: a8e7 86ba 4e46 a7ba 0ca3 9cba 1de6 ebbc
00000310: 3c8d debc 24b5 edbc 14a2 a1b9 9a3d 44ba
00000320: 1b22 1cba 4862 6538 9c89 a0ba da25 4b3d
00000330: c2f3 53bd 6a2b 33b8 7723 95b7 a532 1a3a
00000340: 9504 8139 615c 1a3d 83da 9a38 80f9 94ba
00000350: 237f 753d 7d8d 73b9 0ce6 76bd 2512 a8bd
00000360: 28f9 7bb8 fdb6 f8bc 0dff 58bd 9633 2639
00000370: 2630 3a3d 6b30 72b9 eac6 ab39 90fc c938
00000380: 85df c938 90a5 79b9 3c05 3aba ba74 0c3d
00000390: 47dc 28ba a2f8 53ba 6ee8 57ba 6346 0a39
000003a0: b0cc 9a38 318c 153d 7d07 23ba 23d9 08bd
000003b0: 549b 21bd d401 afb8 ccec 0e3d 429f d7ba
000003c0: 7bb2 24b9 1882 b739 ed2e 16bd 1abe 11ba
000003d0: d1e3 99ba 12bc ca3c a918 f8bc 6556 65bd
000003e0: a821 b4bd 3d76 81b9 eb86 98b9 430b 0ebd
000003f0: 0ba4 35ba 67e5 24bd e8fd 34bd 97e7 053a
0.029251311 0.0011660131 0.001295686 -0.02513265 -0.061734006 -0.052464236 -0.00053568446 0.025579233
0.037278812 -0.03887177 0.00044292622 0.0004917176 -0.04023812 -0.04748994 0.0010563002 -4.0036386e-05
0.0002535908 0.050617307 0.0002011667 -0.00014330477 -0.00041307978 0.0015723853 0.0014018216 0.0014115219
-0.02583719 0.00014730671 0.0002317603 -0.044520322 -0.026552595 0.0015378663 0.0010602954 0.0015196229
0.0017834774 0.00015322915 0.00015315953 -0.0432431 -0.031633887 0.0013836552 0.0016037367 0.00051870453
-0.05358597 -0.04596455 0.069403835 0.061081942 0.035622656 0.00043342888 0.00040595495 0.0006705195
-0.0009162754 -0.044848707 -0.055494145 0.045376517 0.02757331 0.041959416 0.039886583 0.0002101428
0.0005151641 -0.00030206228 -0.050792616 -0.06648159 0.037236284 0.00015236894 0.06116475 0.03445417
0.00061796705 0.0007792131 0.0005725847 -0.043178126 -0.025511546 -0.0002431304 -0.00030847988 -2.8444012e-05
0.0012919346 0.039656 0.0018797014 0.001278565 0.0011590767 0.0016139133 -0.040335596 -0.0002626098
-0.02742842 -0.026076144 0.00149806 0.0018775247 -0.00059389195 -0.0357941 -0.0006537711 0.0010372613
0.0010510638 0.034707673 0.0021481586 0.0015302488 0.0013596838 0.0015144796 0.0014802867 0.0015595034
0.04431063 0.0010183898 0.0011819061 -0.058315504 -0.024640838 0.0005328351 0.055366572 7.2497314e-05
-0.0004931661 -0.03814704 -0.02577314 0.026408512 -0.00057793385 -0.028086651 -0.0001315672 0.05237029
0.030242201 0.0010507965 -0.05563384 -0.0005451263 -0.045383245 0.0005433442 0.00013268206 0.00040124933
0.00011157334 4.5486602e-05 0.05368327 -0.045422282 -0.054947257 -0.033079676 -0.03314239 0.001500719
0.04987335 -0.085610375 -0.041135017 -0.09558578 0.07456599 0.046051268 0.06708667 0.00012508675
0.0001650306 0.0005827989 0.029478177 0.0006108834 0.0010909236 -0.025780855 -0.028783396 -0.052134294
-0.029046968 -0.058324758 0.00063399976 0.09309298 0.08529808 0.028680163 -0.05579945 -0.10240216
-0.06780796 -0.0004362214 -0.0009314465 -0.0010088267 -0.0006986551 0.026056617 0.037864994 -0.04355292
-0.0001981818 -0.0398085 0.00033112327 -0.036978144 0.00010761269 -0.0012690561 -0.0012128846 0.069615595
0.00067697756 -0.05487505 -0.05274879 -0.00012003761 -0.00066367147 -0.0013273576 -0.00038064626 -0.0011936233
0.029864801 -0.0005602766 -0.05247859 -0.057788465 0.02991559 -0.00070986216 -0.00054330466 -0.03644585
-0.0010884784 -0.0012893924 -0.00011870491 -0.00021788491 -0.030925088 -0.0005300488 -0.00071652076 -0.040867086
-0.0010292428 -0.0012762041 -0.0011950447 -0.02879625 -0.027166955 -0.029017039 -0.0003082907 -0.0007485986
-0.000595601 5.4689386e-05 -0.0012248042 0.049596645 -0.051746137 -4.2717358e-05 -1.7778699e-05 0.00058821804
0.0002460821 0.037685756 7.383993e-05 -0.0011365861 0.0599357 -0.00023226994 -0.060277984 -0.08206586
-6.007511e-05 -0.030360693 -0.05297761 0.00015850211 0.045456074 -0.00023096956 0.00032763864 9.63147e-05
9.626061e-05 -0.00023808167 -0.0007096117 0.034291007 -0.0006441515 -0.00080860604 -0.0008236234 0.00013186927
7.381418e-05 0.03651065 -0.00062190724 -0.033410203 -0.039454773 -8.344991e-05 0.034893796 -0.0016450661
-0.00015706748 0.00035001407 -0.036665846 -0.00055596384 -0.0011740868 0.024747882 -0.030285196 -0.055990595
-0.08795482 -0.00024692892 -0.0002909222 -0.03467871 -0.00069290464 -0.040257838 -0.044187456 0.0005108057

tfeb.8.weight f4 [17]
00000000: 5c10 6f3e aca8 853e 0496 053e 732a 9c3e
00000010: 63a8 703e 8453 923e 4cb0 813e 67f7 653e
00000020: 5c16 823e e5cd b93e 8c85 7d3e 6415 a23e
00000030: 7639 683e 8a15 903e 1f23 bc3e dc2b 7c3e
00000040: 18a2 483e
0.23346084 0.2610525 0.13045508 0.30501136 0.23501734 0.28579342 0.25329816 0.22457658
0.25407684 0.36289898 0.24757975 0.31656945 0.2267817 0.28141433 0.36745545 0.24626106
0.19593084

tfeb.8.bias f4 [17]
00000000: a9ff 873c 7833 7a3c a479 1c3d 9708 9cbe
00000010: d5a2 b2bd b471 0cbe 07cc 84bd 256a 39bd
00000020: bc6c e6bd b6d1 69be 0cd5 a5bd a37f 10be
00000030: 8bd1 99bd f69b 29be 8569 32be 6c3c a5bd
00000040: bee3 043d
0.0166014 0.01527106 0.038201943 -0.30475304 -0.08722464 -0.1371525 -0.06484228 -0.045267243
-0.11251208 -0.22833905 -0.08097276 -0.1411119 -0.0751067 -0.165634 -0.17423065 -0.08068165
0.032443754

tfeb.8.running_mean f4 [17]
00000000: cba7 23bd 539f a8bd 24f6 83bd d2ac 803d
00000010: c83a 63bd 1ffd 3ebd 0c1f 7cbc 8ba7 abbc
00000020: 7564 99bc 57d2 b0bd 5c62 cbbd 2bbc 3fbd
00000030: f38d 13bd a609 32bd 707a dfbc e55d 9dbd
00000040: d253 f63b
-0.03995494 -0.08233514 -0.06443432 0.06282963 -0.05547598 -0.046628114 -0.0153882615 -0.020953914
-0.01872466 -0.08633869 -0.0993087 -0.04681031 -0.036024045 -0.043466233 -0.027280062 -0.076839246
0.0075173164

tfeb.8.running_var f4 [17]
00000000: 97f5 d23a 1693 243b 3d48 c43b c1a0 bc3b
00000010: 0ba8 993b 66d9 c93b ba13 d63b 7bbf 0a3b
00000020: 876a e33b 2d30 763b 30fb d13b 496d 643b
00000030: 27ab c63b 96d3 493b 4195 2b3b 8671 8e3b
00000040: 9683 c93b
0.001609492 0.0025112084 0.005990057 0.005756468 0.0046892217 0.006159949 0.0065331133 0.002117126
0.0069401893 0.0037565336 0.0064081177 0.0034855178 0.0060628834 0.003079628 0.0026181492 0.004347029
0.0061497195

tfeb.11.weight f4 [18, 17, 3, 3]
00000000: d928 79b8 dbe6 203d b8e0 06bb c8ad 1ebd
00000010: 40cc fdbc 7d0a 19bb 3ac7 b3b8 158a 2fbd
00000020: 3c5b 52b9 1981 6bba f791 3cbd 1e04 11bd
00000030: be50 ffba a0c2 e8ba 033b f43c b740 e339
00000040: 3cb1 a5b9 b790 393d ea24 f53c b35f 003d
00000050: ac71 7539 ec1c 3739 f01f 0fba a759 27ba
00000060: 1dd0 fabc ec7c 07bd e841 0cbd 3218 58ba
00000070: f521 22bd 3f75 48bd 849b 97ba 4a00 83ba
00000080: 99fe 3bba ac27 cf3c 9d6c 173d 55f6 393d
00000090: c365 13bd e544 a5ba b7dc 00bd 8c80 0ebd
000000a0: 0f27 ee3c 2c75 5aba dd2e 1a3a 7db8 e83c
000000b0: 11e6 503d e09d 463d 982c 693d 9efc b738
000000c0: 7147 123a 9b41 89b9 0204 fbbc 8e6c 94b8
000000d0: b5bd 86bd bcb4 08b8 ffcd 11ba c309 53bd
000000e0: 79b2 4cbd a955 eebc 5be7 8aba 38ba e0bc
000000f0: 1d75 1cbd 28d1 fcbc 54c8 7537 c659 9fba
00000100: 1cde 623d 8e89 dfba 4096 bbba cc85 19bd
00000110: 67d4 98ba 0d3e 95ba 350a 20bd 419d 2aba
00000120: 7b91 1c3d 7774 013d 06ab 5b39 cdbd 4bba
00000130: 16e4 1dba 022c 35ba 7bd3 26bd fe0b 40ba
00000140: 5f1e 62bd bf42 ec3c 44bc 24ba dbf0 d8bc
00000150: 8d74 3439 89d5 83ba f747 0b3a 7e0d 2939
00000160: 0d68 e2b8 947a 1e3a c52f 8c3d 9788 cd3d
00000170: 18c9 f239 625d 8b39 2ebd 503d d1fd 01bd
00000180: f011 febc c368 1dbd f261 7a38 b338 51ba
00000190: 9c45 793d 9d02 073d 2616 6eb9 b1b8 25b9
000001a0: 5a85 b2b9 072d e7b9 2108 5abd 8788 e338
000001b0: 7560 803d 8bba 5eba 3088 48ba 3b7c 96ba
000001c0: 5cae debc 1f6d dfb9 e626 45bd 5a1f 99ba
000001d0: 72c2 75bd 2f22 6c3d fbf9 033d 4b57 8dba
000001e0: b8ad 42ba 9395 8eba 7958 aaba a9fd 25ba
000001f0: f183 20bd 8899 a2ba 22ba 13bb 09bf f6bc
00000200: 93d4 82bd 2dbb 83ba a0eb 523d aba4 89ba
00000210: 967d 2f3a 9962 3bba ffb5 413d 800e 1e35
00000220: 3deb c43d bb4b 68b9 c1b4 e339 3bf3 82ba
00000230: cd31 c2b9 5967 a2b9 5402 d5bd a8bb 3a3d
00000240: a5a2 e5bc 8c96 7cba a510 e9b9 42f9 0bbd
00000250: e931 25bd 7485 02bd 781f 75bd 496c 78bd
00000260: bbf2 fdbc e8a0 7b3d 04a1 583d b3c5 0bbd
00000270: a096 31bd 8d5b d5bc 0bde 3e3d 1121 32bd
00000280: c8d8 4139 8752 92b8 cd19 6a39 41d6 8cbd
00000290: fb67 a13a b800 0a3d c205 0c3d 78d1 0a3d
000002a0: 1858 8db8 a1e9 2aba 218c 203d bc01 4c3d
000002b0: f208 b9b8 1e8c f139 3841 4fba edda 25ba
000002c0: 94e3 40ba 2a87 c7b9 bd7b a8b8 042d 18ba
000002d0: d83a 2138 c260 3539 5d3f 9e39 afee e1bc
000002e0: 7b2c fa37 61a1 233d 3133 66b8 dcb4 6fb9
000002f0: ef0f 1a3d 4e63 cb3d 9a27 3e3d 36dd 843a
00000300: 030d afba 3c93 8dba 60b8 013d f8b1 2cba
00000310: e4a6 36ba 57fe 683d 2d29 29ba 416e c539
00000320: f483 b0b9 f4ea 8eba 6335 09bd 2fcf 87ba
00000330: 26d0 34ba fcd8 e837 c5cc 14bd 5f6b 063a
00000340: 9dd6 30bd 0555 183d b2ed 3fba 4159 3d39
00000350: 7dad 5739 04f1 17bd 46e5 25bd 2490 0539
00000360: c0f1 d0b9 6aa4 4b3d 7237 f9bc b97d 203d
00000370: 711b f3bc f13d d738 7dd1 e13c 70ca 17bd
00000380: 86f8 4d3a 3f40 1ab9 6b64 e2b9 b13b 1c3a
00000390: 7c7a 92ba f5e8 543d eef6 22bd 6537 7fba
000003a0: b212 133d 86e4 dab9 8fef 133d da11 4bbd
000003b0: 0e0f 9d3d 0f70 38ba aec8 10ba 939d 2238
000003c0: 11f4 05ba 268b 22b9 8e26 ceb8 63d5 783d
000003d0: 0431 84bd ed6a 703d 67e4 6eba 59ce 0fbd
000003e0: 27af c7b9 3b6a d2b9 459f f539 b640 f5bc
000003f0: d32b 923d 3528 1a3a c1a9 d2bc 2f01 32bd
-5.940427e-05 0.03928266 -0.002058072 -0.03873995 -0.030981183 -0.0023352199 -8.572494e-05 -0.042856295
-0.00020061148 -0.00089837756 -0.04603764 -0.035404317 -0.0019479019 -0.0017758198 0.029813295 0.0004334503
-0.00031603302 0.045304026 0.029924829 0.031341266 0.00023407367 0.00017463014 -0.0005459776 -0.00063839037
-0.030616814 -0.03307812 -0.03424254 -0.00082433515 -0.039583165 -0.04893994 -0.0011566733 -0.0009994593
-0.0007171422 0.025287472 0.036968816 0.045400936 -0.03598572 -0.0012609033 -0.03146049 -0.03479056
0.029071359 -0.00083335 0.0005881617 0.028408283 0.05100066 0.048490405 0.056927294 8.7731736e-05
0.00055801036 -0.00026179556 -0.03064156 -7.07741e-05 -0.065791525 -3.259325e-05 -0.0005562007 -0.05152298
-0.049974892 -0.02909358 -0.0010597514 -0.027432546 -0.038197625 -0.030861452 1.46497805e-05 -0.0012157492
0.0553876 -0.0017054544 -0.0014311746 -0.037481114 -0.001165998 -0.001138629 -0.039072234 -0.0006508418
0.03822468 0.03160521 0.00020949179 -0.0007772118 -0.0006023062 -0.000691116 -0.040729027 -0.0007326006
-0.055204745 0.02884042 -0.0006284157 -0.026482036 0.00017209556 -0.0010058145 0.0005313153 0.00016122122
-0.00010795901 0.0006045487 0.06845049 0.10035818 0.00046307663 0.00026581722 0.050961666 -0.0317362
-0.031014413 -0.038429987 5.9695863e-05 -0.0007981166 0.0608574 0.032961477 -0.000227057 -0.00015804429
-0.0003405016 -0.000440933 -0.05323041 0.00010849634 0.06268398 -0.0008496425 -0.0007649688 -0.0011481115
-0.02718275 -0.00042615176 -0.0481328 -0.0011682317 -0.05999989 0.057649788 0.03222082 -0.0010783462
-0.0007426399 -0.0010878317 -0.0012996338 -0.0006332049 -0.03918833 -0.0012405375 -0.0022541364 -0.03012039
-0.063882016 -0.001005029 0.05149424 -0.0010501345 0.0006694434 -0.0007148176 0.047292706 5.8880687e-07
0.09615181 -0.00022153456 0.00043431486 -0.0009990701 -0.00037039668 -0.00030976048 -0.10400835 0.04558912
-0.028031657 -0.00096354703 -0.00044453624 -0.034173258 -0.0403308 -0.031865552 -0.059844464 -0.060650144
-0.030999532 0.06143275 0.05288793 -0.034124088 -0.043356538 -0.026044631 0.046598475 -0.043488566
0.00018486672 -6.9771944e-05 0.0002232559 -0.06876803 0.0012314314 0.03369209 0.03418518 0.03389117
-6.739813e-05 -0.0006519799 0.039196137 0.04980634 -8.8231536e-05 0.00046071497 -0.00079061417 -0.0006326873
-0.00073581305 -0.00038056943 -8.033912e-05 -0.00058050477 3.8440194e-05 0.0001729755 0.00030183318 -0.027579634
2.9823035e-05 0.039948825 -5.488395e-05 -0.00022860192 0.03761285 0.0993105 0.046424486 0.0010136727
-0.0013355318 -0.0010801326 0.031669974 -0.00065877987 -0.00069676177 0.056883182 -0.0006452974 0.00037656914
-0.0003366765 -0.0010903762 -0.03349818 -0.0010361428 -0.00068974716 2.7757596e-05 -0.036328096 0.0005127694
-0.04317342 0.037190456 -0.0007321491 0.00018057694 0.00020568627 -0.037095085 -0.040501855 0.00012737565
-0.0003985297 0.049717344 -0.030421946 0.0391824 -0.029676171 0.000102635364 0.027565712 -0.037058294
0.0007857162 -0.00014710518 -0.00043180896 0.00059598224 -0.0011175419 0.051979978 -0.03978627 -0.00097357325
0.0359065 -0.00041750463 0.036117133 -0.04957757 0.07668887 -0.0007035741 -0.00055230677 3.8770562e-05
-0.0005109916 -0.00015501361 -9.830027e-05 0.060750376 -0.064546615 0.058695722 -0.0009113014 -0.035108898
-0.00038086736 -0.0004013347 0.00046848707 -0.029938083 0.07137265 0.0005880625 -0.02571571 -0.04345816

tfeb.12.weight f4 [18]
00000000: 90e7 863e 96e8 773e b189 6d3e e86c 873e
00000010: c9a4 533e b517 703e b4bb 303e fdff 643e
00000020: 4325 813e 1f87 9b3e faea 273e 3ca4 0c3e
00000030: 7015 5f3e f782 743e 9828 933e e0f4 983e
00000040: 9da7 343e 250e 4b3e
0.26348543 0.24209818 0.23197056 0.26450276 0.2066833 0.23446544 0.17259103 0.22363277
0.2522374 0.30376527 0.1639823 0.13734525 0.21785522 0.23878084 0.28741908 0.29874325
0.17642064 0.19829614

tfeb.12.bias f4 [18]
00000000: b093 a6bd 413d 41bd 259b 75bc 4c57 ecbd
00000010: f0e4 b43c 473a 4abc 8cf0 333d c3ac 88bd
00000020: 28f1 75bd f7e6 11be 708f 453d 4142 9d3d
00000030: 4ea4 963d 31fb b4bd be8a fbbd 2cea c1bd
00000040: 943b 953c a726 0bbc
-0.08133638 -0.047177557 -0.014990603 -0.11540088 0.022081822 -0.012342996 0.043930575 -0.06673577
-0.060044438 -0.14248262 0.048232496 0.076786526 0.073555574 -0.088369735 -0.12282322 -0.09468493
0.018216886 -0.008493102

tfeb.12.running_mean f4 [18]
00000000: c94a a7bd e4f5 2bbc 1b46 84bd f7e8 97bd
00000010: 63ee 33bd aeef 9cbd a0db 1cbd 2103 d4bd
00000020: b180 3bbd b203 2abe 2728 debd d6ba 16bd
00000030: c0ff b13c 93d8 91bd 603a d9bd dc9b dcbd
00000040: 2ea0 f8bc 553d a8bd
-0.08168561 -0.010495637 -0.06458684 -0.074174814 -0.043928515 -0.07662903 -0.03829539 -0.10352159
-0.045777027 -0.16602972 -0.10847502 -0.036799274 0.021728396 -0.071213864 -0.10606837 -0.10771915
-0.030349817 -0.08214823

tfeb.12.running_var f4 [18]
00000000: d07c 353c be6e 913b 7790 e73b ea4b 8f3c
00000010: 4060 573b 21d6 613c a29e 853b 529e de3b
00000020: 7bc7 eb3b e4c7 623c c743 2b3c 1670 dc3b
00000030: 3d79 8d3b bb0d f93b 37a4 483c ff4f 1b3c
00000040: 7a6c 4e3b 683b b63b
0.011077121 0.0044382503 0.007066782 0.017492253 0.0032863766 0.0137839625 0.0040777484 0.0067937756
0.007195411 0.013841603 0.010453171 0.006727229 0.0043174312 0.0076005138 0.012246183 0.009479522
0.0031497763 0.005561281

tfeb.14.weight f4 [16, 18, 3, 3]
00000000: 9316 23ba 4409 bab9 24e0 05bd 61e1 29ba
00000010: 9c51 04bd bd25 8d3d 54a7 18bd a906 2cbd
00000020: b789 6a3d 6280 1b38 fe7d 463a 57e6 a63a
00000030: c328 95b9 7979 8db9 49b9 6cbd 0421 e939
00000040: 9b14 83b8 2c1f 3ebd 1513 f738 d867 b239
00000050: 79d9 86b9 5322 103d fc0e d73c 4f9a 74ba
00000060: a9aa 6ab9 72ac fbb9 899e 15ba b931 6137
00000070: bda5 17bd 61f8 9eb9 16b7 073d 2ff8 1eb8
00000080: 8154 25bd c448 c7b8 37d6 6138 dc46 30bd
00000090: 53c4 8c38 5325 e2b8 b5d0 403a 5101 e53c
000000a0: 032c 00ba 8e50 31bd f70d 113a d068 5539
000000b0: 512d 103a 744c ce3c 6a88 37ba 7e52 1bbd
000000c0: 6071 17ba c346 34bd 54bf 1dbd 5d38 0eb9
000000d0: a141 9c39 a93c 01bd 5906 30ba b0b5 6cb8
000000e0: d91a 8fb7 8f85 fdb9 06f9 d6bc a1a2 d5b9
000000f0: 18dd 213a c273 ddbc 5200 bc39 a39e fcb7
00000100: 46e5 2d3a 98c6 2abd 2c97 8fb9 42f4 4d39
00000110: da53 e7bc 12d2 54b9 a4ba 1339 cd51 2ab9
00000120: 29e8 8c3a 2a6a 08bd d17c 213d dc4f f8bc
00000130: 08a7 a339 3cef 413d 86ee 603a 98db 023d
00000140: e7ec 2fba 350f 043d 43c3 28ba 6ed8 6d3d
00000150: ba56 103d 56e3 0aba 9b31 91ba f74a 20ba
00000160: 8c67 12bd fa3e 2fba 2012 513a 2986 2838
00000170: 5ff6 1e38 1dc3 223d 07a6 96b9 8c3a bf39
00000180: 3d20 91b9 332f 82b9 d209 2a39 3830 893a
00000190: 01e2 8e39 b27d 1b3d b273 21bd 5e28 663a
000001a0: 6393 3d3d a2f5 753a 10a3 cd39 c647 393d
000001b0: 7931 6139 1293 383a 2c48 f53c 9f7e 17ba
000001c0: b200 f3b9 d7a1 2f3d e0bc 0237 b964 75bd
000001d0: 7904 58b9 c9d5 233a 2201 363a 01c1 45bd
000001e0: a7ab b438 b6f9 4f3a a111 843d 54bd 053a
000001f0: 25ca b13a 8140 8e3d 5cdb 8438 81b2 24bd
00000200: 4de2 94b9 e60e 603d 5698 7eb9 8779 d5b9
00000210: 0e9a a537 4697 90b8 9e53 76b9 8ece c6b9
00000220: cee9 ed3c 5679 93bd 6020 6aba 6f58 043d
00000230: a4de 95bd 0380 11ba f781 e5b9 1f8d fdbc
00000240: e771 50ba 04ed 0cbd d9b2 5e3d d537 b0ba
00000250: a7ee 08bd faef 26ba 1129 6eb9 b24f a2b9
00000260: f947 20bd f8a3 c9b9 41b0 233d 24c0 8cbd
00000270: f59d 67ba b44d 2a3d 5f6f 9dbd f6aa afb9
00000280: 8c69 81b9 967d ecbc b04e 103a 1737 d53c
00000290: e21a 173a 4cec 553d 28fe d83c 3e51 8d39
000002a0: 7d45 94b9 712a cfb9 0a4f d4b9 1d0b 3d39
000002b0: e8bf cbb9 e8fe c7b9 56d4 aaba 1cd9 143d
000002c0: 7dc4 deba e1fd 2b3a 0d55 113a ba7d 10bd
000002d0: acdd 093d 8f7b 613a dad1 ef3a 2c4a 9c39
000002e0: 48af 2bbd f78c 4e3a 658e 2abd f5f0 f2bc
000002f0: b75f 683a 074b 243a a59f 083d ac1d 2a3a
00000300: 95a0 ddbc d395 0e3a 8827 283a b227 26bd
00000310: f97a f639 9689 133a 0125 0bbd fc07 c1b8
00000320: 0f83 13ba a089 18b8 b536 a839 66ad efb9
00000330: e838 1bb9 5ec1 b739 6b6f 083d b78e 383a
00000340: 87f1 923a 16b0 853a 9c13 4a3a 0310 a03a
00000350: 01e6 973a 7d41 08b7 0bcc 333a 1eca 9c39
00000360: 7819 863d 088d 7c3d 28e7 303d 34f5 e53c
00000370: d126 45ba 9a26 84b9 84fa e739 793b 1bbd
00000380: bd17 06bd 150c 8c39 dc6a b339 3acf be3a
00000390: e13f 5537 0776 54ba 5779 0a3d 3fa8 383a
000003a0: 80b3 143a 1773 253d 4744 c0b9 3638 ddbc
000003b0: 7871 1cba 6a4d 7fbd 6a55 16bd d8b5 f0bc
000003c0: 1065 d53c 8d89 09ba 670d 8db8 d645 dc3a
000003d0: 95ce c53a d6f1 fc3a 0c42 263a 1e65 1d3a
000003e0: 60e4 913a 3e3b 713a ac53 4d3a 9d66 943a
000003f0: bacd 76bd 5fa9 41bd eb52 6dbd 6901 02ba
-0.00062213204 -0.00035483588 -0.03268446 -0.00064804225 -0.03230439 0.06891964 -0.03726895 -0.04199854
0.05726024 3.7074446e-05 0.0007571875 0.0012733442 -0.00028449864 -0.0002698412 -0.05779389 0.00044465822
-6.250405e-05 -0.046416447 0.00011781432 0.00034028175 -0.000257205 0.035188984 0.026252262 -0.0009330855
-0.00022379555 -0.00048002932 -0.00057075225 1.3422622e-05 -0.037023295 -0.00030321165 0.03313359 -3.7901274e-05
-0.040363792 -9.502613e-05 5.3843683e-05 -0.043036327 6.7122885e-05 -0.00010783472 0.00073553185 0.02795473
-0.0004889371 -0.043289714 0.0005533392 0.00020352309 0.0005499917 0.02518294 -0.0007001223 -0.037920468
-0.0005777087 -0.044012796 -0.038512543 -0.00013563172 0.00029803536 -0.03155199 -0.0006714813 -5.6435994e-05
-1.705943e-05 -0.0004835543 -0.02624179 -0.00040747694 0.0006174608 -0.027032737 0.00035858393 -3.0114612e-05
0.00066335907 -0.0416933 -0.00027387717 0.00019641317 -0.028238226 -0.00020296153 0.00014088542 -0.00016242937
0.0010750341 -0.03330437 0.039425675 -0.030311517 0.0003121423 0.047347292 0.00085804646 0.031947702
-0.00067110214 0.032241065 -0.00064377877 0.05806773 0.03523896 -0.0005298158 -0.0011077406 -0.0006114686
-0.03574328 -0.00066851045 0.0007975418 4.0179268e-05 3.7899586e-05 0.039736856 -0.0002873393 0.0003647398
-0.00027680575 -0.00024830698 0.00016216122 0.0010466641 0.00027252737 0.03796167 -0.039416976 0.0008779819
0.046283137 0.00093826104 0.00039222138 0.045234464 0.00021476102 0.0007040958 0.02994164 -0.0005779061
-0.0004634909 0.042878952 7.79258e-06 -0.05991051 -0.00020601031 0.0006249813 0.0006942918 -0.048279766
8.6150416e-05 0.0007933633 0.06448675 0.00051017595 0.0013564272 0.06945897 6.335109e-05 -0.040209297
-0.00028397367 0.05470171 -0.00024280077 -0.0004071707 1.974127e-05 -6.894632e-05 -0.00023491538 -0.00037919398
0.02904215 -0.07200877 -0.0008931216 0.0323109 -0.07317856 -0.0005550386 -0.00043775115 -0.03095108
-0.0007951543 -0.034405723 0.05436978 -0.0013444374 -0.03343072 -0.0006368157 -0.00022712747 -0.00030958425
-0.03913114 -0.00038459874 0.03996301 -0.068725854 -0.0008835488 0.04157801 -0.07687258 -0.00033505977
-0.00024683436 -0.028868478 0.00055048894 0.026027245 0.0005764199 0.052227303 0.026488379 0.00026954146
-0.00028280533 -0.00039513738 -0.0004049468 0.00018028585 -0.00038862159 -0.00038146158 -0.0013033252 0.036339864
-0.0016995814 0.0006560963 0.00055439846 -0.035276152 0.03365867 0.00086014805 0.0018296794 0.000298099
-0.041915208 0.0007879282 -0.041639704 -0.029655913 0.000886436 0.00062672835 0.033355374 0.0006489407
-0.02705411 0.00054391957 0.0006414582 -0.0405652 0.00047012398 0.0005628107 -0.033970837 -9.204444e-05
-0.0005627134 -3.6367797e-05 0.00032084217 -0.00045714824 -0.00014803151 0.0003504855 0.03330938 0.0007040309
0.0011210897 0.0010199572 0.00077086105 0.0012211803 0.0011588932 -8.121479e-06 0.0006858713 0.00029905228
0.065478265 0.061657935 0.043189198 0.028071024 -0.00075207377 -0.00025205762 0.00044246402 -0.037898514
-0.032737482 0.00026711883 0.00034221157 0.0014557608 1.2710662e-05 -0.00081047456 0.033807125 0.00070441136
0.00056724995 0.04039296 -0.00036671964 -0.027004343 -0.0005967836 -0.062329687 -0.03670255 -0.029383585
0.026049167 -0.0005246632 -6.7259e-05 0.0016805481 0.0015091473 0.0019298147 0.0006342239 0.00060041423
0.0011130683 0.0009202248 0.00078325975 0.0011322085 -0.06025479 -0.047280665 -0.057940405 -0.00049593166

tfeb.15.weight f4 [16]
00000000: ca58 743e 3024 873e b656 763e ffe0 6b3e
00000010: 96ce 763e 3d47 713e 3ee6 6b3e 07af 8d3e
00000020: a3ed 933e e6e8 893e 9555 833e b7ec 813e
00000030: af20 823e a1bc 593e 831e 893e fba9 423e
0.23861995 0.26394796 0.24056515 0.23035048 0.24102244 0.23562331 0.23037049 0.27672598
0.2889224 0.269355 0.2565123 0.25375912 0.2541556 0.21263362 0.2678109 0.19010155

tfeb.15.bias f4 [16]
00000000: 6171 39be 8fbb 09be b1f7 97bd 0b82 4bbe
00000010: 8f10 16be ad1b 3ebe 3130 fabc 8e2b 59be
00000020: f715 48be c55c 85be 06ff 22be 29c9 10be
00000030: b0de 29be 8753 3fbe b671 41be 0c78 d6bd
-0.18109657 -0.13450454 -0.0742029 -0.19873826 -0.14654754 -0.18565245 -0.030540558 -0.21208021
-0.19539629 -0.2604734 -0.15917596 -0.14139237 -0.16588855 -0.18684207 -0.18891034 -0.10472116

tfeb.15.running_mean f4 [16]
00000000: 1d2f 7bbc ab5d 02bb 6386 09bc d47c 9bbc
00000010: 1b4d 1cbc ae06 0f3c cdae 75bd b07b 9abc
00000020: 5a08 b6bc b983 d2bc d3c0 11bd 5f38 b1bc
00000030: 51f8 02bd f9cf 5f3c 67e8 d739 1075 b83b
-0.015331057 -0.0019892256 -0.008393857 -0.018980421 -0.009539868 0.00872962 -0.059981156 -0.018857807
-0.02222078 -0.025697576 -0.035584282 -0.021633325 -0.031975094 0.013660424 0.0004118115 0.0056291893

tfeb.15.running_var f4 [16]
00000000: 412d d63a 8703 223b 0f66 2b3b 8a69 863a
00000010: adcb e23a c56c fb3a 30d5 213b d189 af3a
00000020: df48 083b f26f a03a 6140 023b 6e32 aa3a
00000030: 330a 6d3b 208a b83a 5330 323b fe3e a43a
0.0016340391 0.002472134 0.002615336 0.0010254842 0.0017303132 0.0019182196 0.002469372 0.0013392513
0.0020795388 0.0012240394 0.0019874799 0.0012985 0.003616941 0.001407925 0.0027189448 0.001253098
