refine_codes/retrained_models_after_second_stage_pruning/after_second_pruning_time_2024022014_prunratio0.85/retrained_model_after_second_pruning_0.83ratio_acc85.2272720336914_32th_epoch_20240220141534.pt (torch, 409758 bytes, 62 tensors)

sfeb.0.weight f4 [6, 1, 1, 9]
0.107931785 0.1337952 0.051345613 0.38958463 -0.11995566 -0.15365556 -0.2177639 -0.06881014
-0.032023177 -0.012066274 0.03992676 0.116388194 -0.14291796 0.057390936 -0.4665501 -0.21525568
0.21145 0.34293926 0.11195867 0.022862576 0.001648834 -0.11884034 -0.008560815 -0.11332037
0.07617288 -0.023416156 -0.25766337 0.30092093 -0.06696818 -0.042596564 -0.19895047 -0.04833713
-0.1527811 0.01949848 0.27342036 -0.19174539 -0.26424065 -0.2856301 0.024898121 0.3222598
0.052575964 0.15053754 -0.12001826 0.028278472 0.048050977 0.13441432 0.08707377 -0.15706682
0.17792776 -0.46551207 0.3493517 0.02254093 -0.5448046 0.20542006
00000000: 570b dd3d 9c01 093e c74f 523d a377 c73e
00000010: 50ab f5bd e257 1dbe 80fd 5ebe 55ec 8cbd
00000020: bc2a 03bd 9fb1 45bc 3e8a 233d ef5c ee3d
00000030: 1659 12be c212 6b3d a8df eebe fc6b 5cbe
00000040: 5986 583e bc95 af3e 964a e53d 4c4a bb3c
00000050: b01d d83a 9062 f3bd a942 0cbc 8314 e8bd
00000060: 8700 9c3d 3dd3 bfbc 74ec 83be 4f12 9a3e
00000070: 9d26 89bd bc79 2ebd acb9 4bbe 28fd 45bd
00000080: a672 1cbe 47bb 9f3c c1fd 8b3e e758 44be
00000090: 8d4a 87be 1c3e 92be 25f7 cb3c 3dff a43e
000000a0: e559 573d 8326 1a3e 22cc f5bd 41a8 e73c
000000b0: 1ad1 443d e8a3 093e bc53 b23d 20d6 20be
000000c0: b232 363e 9957 eebe 3ade b23e c2a7 b83c
000000d0: 5078 0bbf a359 523e

sfeb.1.weight f4 [6]
0.4970104 0.4415934 0.204218 0.2334552 0.24837492 0.2481787
00000000: 2678 fe3e 8818 e23e 861e 513e e10e 6f3e
00000010: ff55 7e3e 8f22 7e3e

sfeb.1.bias f4 [6]
0.035767924 0.050749835 -0.048995424 0.30502763 0.32775235 0.36399862
00000000: 6381 123d 0fdf 4f3d 6daf 48bd 952c 9c3e
00000010: 28cf a73e 075e ba3e

sfeb.1.running_mean f4 [6]
9.0124784e-05 -1.5364236e-05 -0.0004377842 -0.00013146362 -2.6380705e-05 -0.00027718698
00000000: 6001 bd38 72e2 80b7 6786 e5b9 7fd9 09b9
00000010: 224c ddb7 6853 91b9

sfeb.1.running_var f4 [6]
0.010190882 0.01720895 0.003890773 0.007250415 0.0126139205 0.004584363
00000000: a8f7 263c c9f9 8c3c 57fc 7e3b e494 ed3b
00000010: 9eaa 4e3c 6d38 963b

sfeb.3.weight f4 [32, 6, 1, 5]
-0.061974686 -0.02186733 -0.016571842 -0.017131083 -0.010896066 -0.032275353 -0.03582362 -0.006338253
-0.028397406 -0.018404372 0.011648059 0.033016056 0.04543272 0.09839714 0.06445784 -0.03046859
-0.030973267 -0.03244859 0.009477431 -0.0039571384 0.009626702 0.023327883 0.015916027 -0.05309977
0.009451366 -0.043764222 -0.005542645 -0.0045667407 -0.0018069613 -0.021840181 -0.13820183 -0.047548708
-0.010838467 -0.049892396 -0.030610783 -0.07006338 -0.063080505 0.0038985864 0.026550693 -0.07779991
0.091338806 0.099962115 0.09149811 0.12318974 0.13175248 -0.080865376 -0.10757313 -0.068382785
-0.080552265 -0.037146688 0.05974119 0.081650496 0.043488 0.035970334 0.06424431 -0.057931382
-0.03960489 0.014059025 -0.020278594 -0.0068480684 -0.10605291 -0.077792324 -0.04845636 -0.08382086
-0.053081058 -0.009296791 -0.05387879 -0.01772941 -0.10428481 -0.16352338 -0.0479077 0.043233626
0.040963333 0.09435198 0.123260394 -0.092406556 -0.036596518 -0.03192252 -0.036885936 -0.043564536
0.095658064 0.03875018 0.032318372 0.031185068 0.026453873 -0.017218493 -0.00041644095 -0.012670886
-0.02599719 -0.008701832 -0.031085936 -0.022590384 0.00085150934 -0.020541593 -0.05974933 -0.06937958
-0.04300841 -0.042116523 -0.048659094 -0.037939705 -0.22997402 -0.17172082 -0.112872094 -0.08453679
-0.069533445 0.14959103 0.09913156 0.074166976 0.047944296 0.043115348 -0.074889675 -0.096696004
-0.029616417 -0.071788326 -0.05752129 -0.010340666 -0.007006786 -0.026762506 -0.023448264 -0.012881567
0.059354335 0.03677336 -0.03331694 -0.01347842 0.04839983 -0.083298065 -0.083228916 -0.007874405
-0.05297418 -0.119283445 -0.062277596 -0.05063903 -0.064922616 0.009684383 0.051469237 0.128323
0.050205585 0.04067653 0.033212233 -0.0002907995 -0.08376124 -0.058867536 -0.060761854 -0.023386776
-0.044416826 -0.005546866 0.0055997134 -0.013119006 -0.041879535 -0.038593363 0.03406737 0.04221712
0.025001496 -0.0017276272 -0.0050902423 -0.07640818 -0.10732522 -0.07417349 -0.083382964 -0.08334589
-0.07488559 -0.00215462 0.039116245 0.08936929 0.07959262 0.06713211 0.05141088 0.047423173
-0.006112051 -0.04887698 -0.058027696 -0.099161275 -0.06823379 -0.07719655 -0.048578158 -0.03420658
-0.019066319 -0.020609587 -0.02359308 -0.004975794 0.009686546 -0.03709901 -0.021363422 -0.039229214
-0.045514382 -0.040888947 -0.020405078 -0.0461841 0.017938517 -0.001931662 -0.00342066 -0.009411183
-0.04340969 -0.06488524 -0.060277805 0.073473334 0.04647608 0.0044294805 -0.016568698 -0.014038465
-0.050648745 -0.048801184 0.0044683237 0.014146006 -0.014112712 -0.01089786 -0.02877448 -0.012252154
-0.0035335368 0.0080089215 -0.101938814 -0.06879466 -0.04863137 -0.06207291 -0.0049395887 0.0009450464
0.008843394 0.02351344 -0.05134209 -0.06780635 -0.060402397 -0.051275793 -0.028396519 0.015858138
0.109351166 -0.087908536 -0.022844303 -0.0036639683 0.02101064 0.020066928 0.036410183 -0.0035759686
-0.021692317 -0.0044391965 0.009920197 0.01610041 0.014307784 -0.0020161911 0.013590844 -0.04189318
0.044419 0.007999135 -0.033122934 -0.057612933 -0.015012807 0.021114768 0.004638429 0.0060649095
0.039354037 0.042006835 -0.03323901 -0.01316425 0.031162722 0.024072018 0.0019238215 -0.05425902
00000000: 2bd9 7dbd 1d23 b3bc acc1 87bc 7c56 8cbc
00000010: 6a85 32bc 2933 04bd cabb 12bd 1fb1 cfbb
00000020: ada1 e8bc c4c4 96bc 80d7 3e3c d83b 073d
00000030: a917 3a3d 7184 c93d 7902 843d 4499 f9bc
00000040: a6bb fdbc d0e8 04bd 3a47 1b3c e2aa 81bb
00000050: 51b9 1d3c 1e1a bf3c 5462 823c 257f 59bd
00000060: e7d9 1a3c 1d42 33bd 149f b5bb 99a4 95bb
00000070: 8fd7 ecba 2eea b2bc c884 0dbe 6fc2 42bd
00000080: d393 31bc f85b 4cbd 77c3 fabc 647d 8fbd
00000090: 5a30 81bd 6d7f 7f3b d780 d93c 8f55 9fbd
000000a0: d70f bb3d f0b8 cc3d 5c63 bb3d e74a fc3d
000000b0: 1fea 063e bf9c a5bd 4d4f dcbd 460c 8cbd
000000c0: 96f8 a4bd 2027 18bd 2eb3 743d 6038 a73d
000000d0: 7920 323d a155 133d 8592 833d 7549 6dbd
000000e0: bd38 22bd d357 663c 4b1f a6bc c365 e0bb
000000f0: 4532 d9bd 9551 9fbd 2d7a 46bd 45aa abbd
00000100: 866b 59bd 9151 18bc 02b0 5cbd 453d 91bc
00000110: 4693 d5bd ac72 27be dd3a 44bd be15 313d
00000120: 2bc9 273d 9c3b c13d f26f fc3d a63f bdbd
00000130: 3be6 15bd 30c1 02bd b515 17bd ba70 32bd
00000140: 60e8 c33d 82b8 1e3d 4560 043d d477 ff3c
00000150: cbb5 d83c cc0d 8dbc c255 dab9 8c99 4fbc
00000160: 0ff8 d4bc 2192 0ebc efa7 febc 780f b9bc
00000170: d337 5f3a d846 a8bc b7bb 74bd e216 8ebd
00000180: 9629 30bd 6082 2cbd c24e 47bd aa66 1bbd
00000190: 4f7e 6bbe 95d7 2fbe 7c29 e7bd a021 adbd
000001a0: 8d67 8ebd 642e 193e 7d05 cb3d dbe4 973d
000001b0: 3d61 443d b899 303d c25f 99bd 8e08 c6bd
000001c0: 219e f2bc c205 93bd 729b 6bbd e66b 29bc
000001d0: 2e99 e5bb 0b3d dbbc 9316 c0bc 350d 53bc
000001e0: 881d 733d aa9f 163d 5877 08bd 97d4 5cbc
000001f0: e63e 463d 2d98 aabd ec73 aabd a603 01bc
00000200: 74fb 58bd e14a f4bd cb16 7fbd df6a 4fbd
00000210: 26f6 84bd 3fab 1e3c 68d1 523d 1b67 033e
00000220: 5fa4 4d3d 6f9c 263d 8d09 083d 7376 98b9
00000230: 038b abbd 161f 71bd 6ce1 78bd a095 bfbc
00000240: 6bee 35bd 7cc2 b5bb cd7d b73b 19f1 56bc
00000250: e089 2bbd 1314 1ebd 3a8a 0b3d dceb 2c3d
00000260: f0cf cc3c 8d71 e2ba 0ccc a6bb e47b 9cbd
00000270: 53cd dbbd 45e8 97bd b0c4 aabd 40b1 aabd
00000280: 9e5d 99bd 8634 0dbb 5b38 203d 3f07 b73d
00000290: 7501 a33d 8f7c 893d 3794 523d cd3e 423d
000002a0: 9a47 c8bb 3a33 48bd 73ae 6dbd 1115 cbbd
000002b0: 28be 8bbd 3a19 9ebd e4f9 46bd 331c 0cbd
000002c0: f830 9cbc 70d5 a8bc 4646 c1bc fc0b a3bb
000002d0: 52b4 1e3c 22f5 17bd 5802 afbc d0ae 20bd
000002e0: 4a6d 3abd 2b7b 27bd 8d28 a7bc 8a2b 3dbd
000002f0: ccf3 923c d22f fdba 272d 60bb 5d31 1abc
00000300: 5cce 31bd 8de2 84bd dce5 76bd 3079 963d
00000310: b45d 3e3d 2d25 913b 14bb 87bc 9701 66bc
00000320: 0f75 4fbd c0e3 47bd 046b 923b a6c4 673c
00000330: 0139 67bc f08c 32bc 75b8 ebbc 42bd 48bc
00000340: e992 67bb da37 033c 4cc5 d0bd 37e4 8cbd
00000350: b031 47bd 2a40 7ebd 46dc a1bb febc 773a
00000360: e2e3 103c 429f c03c 154c 52bd 0ede 8abd
00000370: 8168 77bd 9106 52bd d19f e8bc ede8 813c
00000380: 81f3 df3d 6409 b4bd fa23 bbbc 301f 70bb
00000390: 811e ac3c 6663 a43c d822 153d cc5a 6abb
000003a0: 16b4 b1bc ae76 91bb 5288 223c 02e5 833c
000003b0: 326b 6a3c 1322 04bb 22ac 5e3c 2f98 2bbd
000003c0: b3f0 353d ce0e 033c eaab 07bd 8afb 6bbd
000003d0: 47f8 75bc e1f8 ac3c f6fd 973b 26bc c63b
000003e0: b331 213d 5c0f 2c3d a125 08bd deae 57bc
000003f0: f748 ff3c ae32 c53c bd28 fc3a b53e 5ebd

sfeb.4.weight f4 [32]
0.111993216 0.33789346 0.42313352 0.4963653 0.23942278 0.2990816 0.12200131 0.13633421
0.024287675 0.23429993 0.33690485 0.34572598 0.20916077 0.2681427 0.31856447 0.35525614
0.15914722 0.24059898 0.38653466 0.36046004 0.18458652 0.30378678 0.32108834 0.20018332
0.16012792 0.30832615 0.31610563 0.29537204 0.2121721 0.19965082 0.23399189 0.093007885
00000000: b35c e53d 5f00 ad3e f5a4 d83e 9823 fe3e
00000010: 3f2b 753e 3921 993e d3db f93d 329b 0b3e
00000020: f2f6 c63c 52ec 6f3e cb7e ac3e ff02 b13e
00000030: 3e2e 563e 004a 893e e21a a33e 22e4 b53e
00000040: 7df7 223e 945f 763e dfe7 c53e 388e b83e
00000050: 4004 3d3e f189 9b3e b165 a43e dbfc 4c3e
00000060: 93f8 233e eddc 9d3e 99d8 a13e 013b 973e
00000070: a543 593e 4471 4c3e 929b 6f3e eb7a be3d

sfeb.4.bias f4 [32]
-0.04678937 -0.037641488 -0.10593736 -0.065345824 -0.07838031 -0.0453168 -0.022658775 -0.06152049
0.02796833 -0.03510124 -0.006896331 0.009975487 0.0014172073 0.07781066 0.069279596 0.076551065
0.036788687 0.037469275 0.050071545 0.037334457 0.012993909 -0.01485693 -0.022471845 -0.089727454
-0.021928186 -0.08096352 -0.09761767 -0.029647425 -0.03395714 -0.035499576 -0.027098436 0.016622562
00000000: 36a6 3fbd f62d 1abd b0f5 d8bd 08d4 85bd
00000010: db85 a0bd 1c9e 39bd e59e b9bc e9fc 7bbd
00000020: d71d e53c 51c6 0fbd 9efa e1bb 3a70 233c
00000030: 96c1 b93a 325b 9f3d 76e2 8d3d cec6 9c3d
00000040: bcaf 163d 6279 193d d217 4d3d 04ec 183d
00000050: 68e4 543c 7b6a 73bc e016 b8bc 07c3 b7bd
00000060: bda2 b3bc 34d0 a5bd c6eb c7bd 28df f2bc
00000070: a416 0bbd 0168 11bd 8afd ddbc 0a2c 883c

sfeb.4.running_mean f4 [32]
-0.08133172 -0.10497182 -0.11000748 -0.078807294 -0.079198465 -0.16345523 -0.056536783 -0.06895337
-0.043818265 -0.15542535 -0.060524374 -0.08360563 -0.06634163 -0.0049584424 -0.04274352 -0.016469534
-0.11242489 -0.06701818 -0.052158665 -0.013818297 -0.0032189905 -0.021668736 -0.035576057 -0.09305878
0.039936006 -0.07115473 -0.13724291 -0.061633013 -0.112864055 -0.073373325 -0.040530078 -0.009215826
00000000: 3f91 a6bd 77fb d6bd 9a4b e1bd b865 a1bd
00000010: ce32 a2bd cf60 27be 1d93 67bd 6d37 8dbd
00000020: c87a 33bd d327 1fbe 68e8 77bd 6e39 abbd
00000030: 1fde 87bd 6e7a a2bb d413 2fbd 1eeb 86bc
00000040: 053f e6bd d440 89bd 53a4 55bd 2366 62bc
00000050: b3f5 52bb a282 b1bc 33b8 11bd 9a95 bebd
00000060: f093 233d 92b9 91bd 6889 0cbe e672 7cbd
00000070: 4525 e7bd c144 96bd de02 26bd fafd 16bc

sfeb.4.running_var f4 [32]
0.003739809 0.011799826 0.020791782 0.0136939855 0.005652047 0.007970718 0.0044813734 0.008173919
0.002739658 0.012880172 0.015725883 0.012880055 0.014092219 0.0150957545 0.020674687 0.040604237
0.0049086525 0.010646248 0.033266515 0.030900905 0.004725376 0.01966656 0.011495663 0.010201828
0.008275167 0.013590659 0.0113750035 0.013618896 0.01115208 0.006498174 0.0056996536 0.0006557055
00000000: 9517 753b 0f54 413c 8753 aa3c bd5c 603c
00000010: cf34 b93b 9d97 023c 7cd8 923b e7eb 053c
00000020: d68b 333b 5b07 533c 91d3 803c de06 533c
00000030: 0de3 663c 2f54 773c f65d a93c a150 263d
00000040: c3d8 a03b 9a6d 2e3c 7842 083d e523 fd3c
00000050: 54d7 9a3b c41b a13c 4e58 3c3c 9125 273c
00000060: 9194 073c 5bab 5e3c 395e 3a3c ca21 5f3c
00000070: 37b7 363c a2ee d43b 29c4 ba3b a7e3 2b3a

tfeb.0.weight f4 [11, 1, 3, 3]
0.3202469 -0.40043825 -0.28972372 -0.15357175 -0.075698294 -0.052737933 -0.12468048 -0.091047056
-0.07907204 0.010634628 0.01244256 0.013805031 0.01080426 0.0076801647 0.009758684 0.029865807
0.027262328 0.025907122 0.04600798 -0.26196775 0.06560785 0.113541074 -0.2892333 0.05368525
0.095544055 -0.18125743 0.05321377 0.13124235 0.12444589 -0.20982216 0.12967053 0.11725758
-0.20565836 0.065202706 0.046068702 -0.070976876 -0.2711149 0.049401715 0.10069561 -0.2627674
0.1373567 0.30416304 -0.14970072 0.0023669181 0.056683447 0.033070635 0.076653026 0.042052418
-0.00091298844 0.13279442 0.026128456 0.04559126 0.14518954 0.08533998 0.210918 -0.025526134
-0.12072181 0.256648 -0.027388647 -0.12632377 0.15548523 0.0016531841 -0.0710681 -0.0017536505
-0.0005373339 0.00067984744 0.009648812 0.00973225 0.008228494 0.01797336 0.01895614 0.015044613
0.062341966 0.06948869 0.0690466 0.026431467 0.023180878 0.036546532 0.05661482 0.05880873
0.05678425 0.053214982 0.04260077 -0.03780307 0.11384002 0.094436236 -0.029317869 -0.0068400605
-0.11022594 0.4370557 -0.1283726 -0.1650741 0.2662774 -0.1325951 -0.15920658 0.33921608
-0.040143915 -0.13140473 0.11998257
00000000: 67f7 a33e 3e06 cdbe ab56 94be ea41 1dbe
00000010: b507 9bbd bb03 58bd 7b58 ffbd e176 babd
00000020: 86f0 a1bd dd3c 2e3c e1db 4b3c 7f2e 623c
00000030: 5a04 313c e4a9 fb3b e3e2 1f3c 23a9 f43c
00000040: 3f55 df3c 2c3b d43c dd72 3c3d a320 86be
00000050: 695d 863d 3988 e83d 6316 94be 11e5 5b3d
00000060: 9aac c33d 8c9b 39be aff6 593d 6564 063e
00000070: 7ddd fe3d 9fdb 56be 5ac8 043e be24 f03d
00000080: 1b98 52be ff88 853d 89b2 3c3d 535c 91bd
00000090: 92cf 8abe 7459 4a3d 8039 ce3d 7389 86be
000000a0: 3ca7 0c3e 42bb 9b3e 254b 19be 4c1e 1b3b
000000b0: e72c 683d 1375 073d 43fc 9c3d 283f 2c3d
000000c0: 9e55 6fba 43fb 073e 580b d63c e7bd 3a3d
000000d0: 91ac 143e bac6 ae3d e3fa 573e 2f1c d1bc
000000e0: ff3c f7bd 5e67 833e 285e e0bc 055b 01be
000000f0: 8537 1f3e a7af d83a 278c 91bd bfda e5ba
00000100: dedb 0cba ca37 323a 0d16 1e3c 0474 1f3c
00000110: ced0 063c de3c 933c e849 9b3c ae7d 763c
00000120: 4a5a 7f3d 1650 8e3d 4e68 8d3d ce86 d83c
00000130: d3e5 bd3c d1b1 153d f1e4 673d 6ce1 703d
00000140: 9a96 683d f4f7 593d 257e 2e3d 64d7 1abd
00000150: f524 e93d c967 c13d 072c f0bc 9622 e0bb
00000160: 23be e1bd c4c5 df3e 1b74 03be 2f09 29be
00000170: 8355 883e 03c7 07be 0d07 23be bbad ad3e
00000180: f26d 24bd f68e 06be 6cb9 f53d

tfeb.1.weight f4 [11]
0.06860895 0.04145125 0.0699616 0.14759561 0.23243159 0.20551045 0.116086446 0.025594415
0.10247267 0.10979052 0.20855619
00000000: d982 8c3d c9c8 293d 0748 8f3d 4e23 173e
00000010: 8c02 6e3e 5571 523e bbbe ed3d 61ab d13c
00000020: 31dd d13d dad9 e03d c18f 553e

tfeb.1.bias f4 [11]
0.057419706 0.008991728 -0.064562 0.06992206 0.11756653 0.147383 0.13158031 0.008192614
0.054323345 0.08690508 -0.08730372
00000000: ed30 6b3d 0a52 133c 1539 84bd 4c33 8f3d
00000010: b9c6 f03d 92eb 163e fdbc 063e 503a 063c
00000020: 2882 5e3d 4afb b13d 4bcc b2bd

tfeb.1.running_mean f4 [11]
-0.19850828 0.030226527 -0.064807706 0.019164762 0.016535971 0.12086398 0.04147198 0.015685044
0.09466949 0.116624676 -0.017079283
00000000: c145 4bbe 9f9d f73c e7b9 84bd 6bff 9c3c
00000010: 7276 873c 8987 f73d 86de 293d ec7d 803c
00000020: 14e2 c13d ebd8 ee3d dae9 8bbc

tfeb.1.running_var f4 [11]
0.08221183 0.0018864573 0.011723542 0.0041578147 0.007821285 0.02993227 0.008005593 0.0005526567
0.018127916 0.029572163 0.0065643294
00000000: ad5e a83d 0143 f73a 1914 403c 473e 883b
00000010: d924 003c 8534 f53c e429 033c 2ae0 103a
00000020: ff80 943c 5241 f23c 9619 d73b

tfeb.4.weight f4 [21, 11, 3, 3]
-0.004104284 -0.020474121 -0.02548996 -0.008640392 -0.0025412755 -0.0021890947 0.001329285 0.015290457
-0.018930433 0.0049285335 0.0055277124 0.005695189 0.00031131576 0.0010808884 0.0013547146 -0.0027605672
-0.0011815134 -0.000653904 0.00041197243 -0.003383535 -0.004444186 -0.014728214 -0.012239172 -0.018327
-0.010729359 -0.019220684 -0.017614882 0.008790937 -0.0030965444 0.005344279 0.0025655709 -0.01414317
-0.014533393 -0.013519877 -0.036834475 -0.035780203 -0.016441252 0.016668918 -0.011177883 -0.022488162
-0.002151761 -0.003238008 -0.03776291 -0.034518935 -0.019626841 0.040473927 0.060594708 0.05076125
0.00038194653 0.0101777725 0.0056655025 -0.028635405 -0.033116594 -0.026670026 0.00059223233 -0.006687825
-0.0039276984 -0.0005198808 0.001964935 -0.0063796593 0.0025782925 0.0032762033 -0.005592817 0.0013871492
0.0020964195 0.002005317 0.0004850867 0.00038972902 0.0006090911 -0.0023064353 -0.0015645514 -0.00093924504
0.014005829 0.016077194 0.016966715 0.006638234 0.008684155 0.008908464 -0.0008090906 0.0021663425
0.0026015358 0.0066009383 0.038898278 0.027938157 -0.004448771 -0.017631182 0.019454379 -0.01828639
0.016609788 0.012092789 -0.01687716 -0.013054387 0.011695705 -0.018360363 -0.01356747 0.0062270258
-0.034345794 -0.042737078 0.0019079766 -0.009135453 0.023689697 -0.02347691 -0.026415076 -0.10097503
-0.06091942 -0.02096823 -0.018965485 -0.022388902 -0.0043408093 -0.003363418 -0.0029221254 -0.0035422798
-0.0030211206 -0.0035397173 -0.002283354 -0.003980556 -0.004006818 0.015230956 -0.07121557 -0.0077905986
0.04991234 -0.065182686 0.017400656 0.02511069 -0.03426791 0.027693031 -0.024764389 -0.01910064
-0.01592415 -0.045478515 -0.033086512 -0.0020426123 -0.0074635446 -0.017332206 -0.011609553 -0.008771077
0.030526541 -0.014384461 -0.008171876 0.04250419 -0.027330674 -0.03982912 0.013438708 -0.0062756343
-0.06274375 -0.03552394 -0.059135184 -0.058952916 -0.010770226 -0.024129381 -0.035559956 -0.027949115
-0.043781195 -0.0014538643 0.0063834186 -0.0009774483 -0.0033916805 -0.009980335 -0.0006366772 0.011220077
0.015263116 0.011848847 -0.0033413367 -0.0024531465 -0.00249641 -0.003425407 -0.0029679118 -0.003763303
-0.0018227013 -0.0028875056 -0.00364002 -0.0062863473 -0.004303158 -0.004083259 -0.005275671 -0.0041313027
-0.004514373 -0.009653884 -0.011287839 -0.011761932 -0.019773597 -0.06822912 -0.018309277 -0.03193429
-0.025141662 0.0051847985 0.006403476 -0.0064028236 -0.01229885 0.028117657 -0.057567224 -0.0029303802
0.03333764 -0.041240685 4.525524e-05 -0.010475165 -0.031901367 -0.0015614257 -0.015180119 -0.003815378
-0.029913586 -0.027674187 -0.006847974 -0.04706421 -0.03253751 0.004851724 -0.017487105 -0.006419731
-0.0043474566 -0.00038164342 0.008953051 0.013221454 0.014932582 -0.00042701905 0.00044890709 0.0013052502
-0.044753347 -0.055268183 -0.038043756 -0.040338967 -0.04814551 -0.029844085 -0.010717143 -0.026307661
-0.028766891 -0.00727799 -0.0400322 -0.06366324 -0.024067909 -0.062726595 -0.070317484 0.012952907
-0.018452728 -0.020096293 -0.046522744 0.019395988 -0.056360975 -0.08150884 -0.033820443 -0.044191234
-0.015596706 0.03568035 -0.03260667 -0.007679354 0.002917964 0.027174212 -0.007795985 -0.009394
0.02003248 0.040045436 0.04806688 0.054068662 -0.033877026 -0.035537954 -0.05938344 -0.030684547
00000000: 3b7d 86bb 58b9 a7bc 52d0 d0bc 6e90 0dbc
00000010: 878b 26bb ea76 0fbb 673b ae3a d384 7a3c
00000020: ff13 9bbc 897f a13b d021 b53b b59e ba3b
00000030: 1838 a339 99ac 8d3a ae90 b13a a2ea 34bb
00000040: 03dd 9aba c16a 2bba 01fe d739 4cbe 5dbb
00000050: 89a0 91bb 9b4e 71bc cf86 48bc 8122 96bc
00000060: 32ca 2fbc b274 9dbc 164d 90bc dd07 103c
00000070: 65ef 4abb 101f af3b 2323 283b c1b8 67bc
00000080: 781d 6ebc 7982 5dbc bfdf 16bd 438e 12bd
00000090: ceaf 86bc 418d 883c 7023 37bc 1839 b8bc
000000a0: 8f04 0dbb c234 54bb 48ad 1abd ba63 0dbd
000000b0: 78c8 a0bc fdc7 253d 2832 783d 07eb 4f3d
000000c0: ff3f c839 acc0 263c aea5 b93b cc94 eabc
000000d0: 44a5 07bd 197b dabc 0a40 1b3a 8b25 dbbb
000000e0: ecb3 80bb 9c48 08ba 24c6 003b 760c d1bb
000000f0: 92f8 283b 92b5 563b f343 b7bb 01d1 b53a
00000100: 1564 093b a36b 033b 3c53 fe39 8b54 cc39
00000110: 69ab 1f3a 9027 17bb a211 cdba ab37 76ba
00000120: b478 653c 52b4 833c c8fd 8a3c 8b85 d93b
00000130: fc47 0e3c cef4 113c 2719 54ba 32f9 0d3b
00000140: 877e 2a3b af4c d83b cd53 1f3d 90de e43c
00000150: ffc6 91bb 456f 90bc ca5e 9f3c 57cd 95bc
00000160: 4011 883c d520 463c f841 8abc 11e2 55bc
00000170: 589f 3f3c 7968 96bc 184a 5ebc 140c cc3b
00000180: 2dae 0cbd 130d 2fbd 1215 fa3a deac 15bc
00000190: e510 c23c a652 c0bc 6e64 d8bc ffcb cebd
000001a0: a486 79bd 91c5 abbc 815d 9bbc ee68 b7bc
000001b0: 593d 8ebb ca6c 5cbb 2181 3fbb 9825 68bb
000001c0: fefd 45bb 9afa 67bb 53a4 15bb 536f 82bb
000001d0: a04b 83bb 428b 793c 78d9 91bd 4748 ffbb
000001e0: e270 4c3d 807e 85bd d28b 8e3c efb4 cd3c
000001f0: 825c 0cbd 7fdc e23c b0de cabc f278 9cbc
00000200: 5d73 82bc ae47 3abd b985 07bd 59dd 05bb
00000210: c090 f4bb 45fc 8dbc ff35 3ebc 90b4 0fbc
00000220: cc12 fa3c cdac 6bbc 55e3 05bc e018 2e3d
00000230: 94e4 dfbc dc23 23bd 072e 5c3c d6a3 cdbb
00000240: cc7f 80bd 8d81 11bd bc37 72bd 9d78 71bd
00000250: 9a75 30bc fbaa c5bc 51a7 11bd 8bf5 e4bc
00000260: e953 33bd 978f beba ff2b d13b b91d 80ba
00000270: f546 5ebb 8f84 23bc afe6 26ba 6ad4 373c
00000280: 2612 7a3c ab21 423c 54fa 5abb f8c4 20bb
00000290: cf9a 23bb cb7c 60bb 4c81 42bb bfa1 76bb
000002a0: b5e7 eeba 4e3c 3dbb 678d 6ebb b4fd cdbb
000002b0: 8101 8dbb dccc 85bb 89df acbb e15f 87bb
000002c0: 4eed 93bb 532b 1ebc a1f0 38bc 1eb5 40bc
000002d0: 3dfc a1bc b5bb 8bbd 56fd 95bc 88cd 02bd
000002e0: e3f5 cdbc 3ee5 a93b 40d4 d13b c7ce d1bb
000002f0: 1e81 49bc 0057 e63c 9ccb 6bbd 9f0b 40bb
00000300: 0d8d 083d feeb 28bd 72d0 3d38 07a0 2bbc
00000310: 02ab 02bd c1a8 ccba 09b6 78bc 6c0b 7abb
00000320: 560d f5bc fab4 e2bc f864 e0bb 67c6 40bd
00000330: 0d46 05bd 36fb 9e3b 1e41 8fbc 9b5c d2bb
00000340: 1c75 8ebb 5017 c8b9 d1af 123c cc9e 583c
00000350: caa7 743c 87e1 dfb9 4a5b eb39 ee14 ab3a
00000360: 494f 37bd e460 62bd c5d3 1bbd 793a 25bd
00000370: 3a34 45bd 957b f4bc f596 2fbc 2a83 d7bc
00000380: 8ba8 ebbc 357c eebb cef8 23bd df61 82bd
00000390: 102a c5bc cd76 80bd 9d02 90bd 6e38 543c
000003a0: 2d2a 97bc fba0 a4bc a28e 3ebd 56e4 9e3c
000003b0: c4da 66bd 1bee a6bd 4e87 0abd de01 35bd
000003c0: 5489 7fbc 8f25 123d 928e 05bd 17a3 fbbb
000003d0: 503b 3f3b 749c de3c 7675 ffbb 4be9 19bc
000003e0: 281b a43c af06 243d c7e1 443d 1a77 5d3d
000003f0: a3c2 0abd 3f90 11bd 0d3c 73bd 295e fbbc

tfeb.5.weight f4 [21]
0.07935837 0.12736112 0.18678074 0.072621375 0.073156714 0.22876978 0.043929875 0.07586981
0.22823702 0.14505582 0.16005304 0.07739088 0.23046796 0.00943548 0.169625 0.08664981
0.1081069 0.1326534 0.04747878 0.06577694 0.007834848
00000000: a486 a23d f46a 023e 7343 3f3e 84ba 943d
00000010: 30d3 953d a042 6a3e d0ef 333d a261 9b3d
00000020: f7b6 693e 8389 143e f2e4 233e 1c7f 9e3d
00000030: cbff 6b3e 4697 1a3c 2db2 2d3e 7575 b13d
00000040: 2667 dd3d 4bd6 073e 1c79 423d 0fb6 863d
00000050: bc5d 003c

tfeb.5.bias f4 [21]
0.02953806 -0.04108315 -0.11723244 -0.021331644 0.15504946 0.02129461 0.018875705 -0.05771001
0.03138181 -0.10968252 0.056305602 0.058543336 0.111254804 0.012734401 -0.05552285 -0.13383314
-0.0557765 0.09175561 -0.018459393 0.03346024 -0.009988394
00000000: cdf9 f13c ce46 28bd 9017 f0bd b3bf aebc
00000010: 49c5 1e3e 0972 ae3c 39a1 9a3c 5561 6cbd
00000020: 368a 003d 3ba1 e0bd b4a0 663d 23cb 6f3d
00000030: 8fd9 e33d f3a3 503c ee6b 63bd 8e0b 09be
00000040: e675 64bd 5eea bb3d 2738 97bc 9b0d 093d
00000050: 5ca6 23bc

tfeb.5.running_mean f4 [21]
-0.021954747 -0.13125916 -0.12382219 -0.06390155 -0.11955744 -0.15895922 0.009899751 -0.07840226
-0.09198654 -0.049599368 0.08318867 -0.10235994 0.07510805 0.04826771 -0.14258917 0.12518473
-0.06642696 -0.09763901 -0.012652561 0.11720664 -0.10121595
00000000: 71da b3bc cd68 06be 7d96 fdbd d1de 82bd
00000010: 88da f4bd 35c6 22be 9132 223c 5d91 a0bd
00000020: 7063 bcbd b528 4bbd d25e aa3d 17a2 d1bd
00000030: 40d2 993d 5db4 453d e502 12be 6d30 003e
00000040: dc0a 88bd f6f6 c7bd b04c 4fbc 090a f03d
00000050: 4f4a cfbd

tfeb.5.running_var f4 [21]
0.002195376 0.017596142 0.010134382 0.0040059807 0.01833027 0.024301453 0.0011601467 0.008153004
0.009513711 0.003397011 0.0082352 0.008281788 0.04834892 0.004608579 0.022482809 0.012205298
0.0054938337 0.015981693 0.00023563532 0.019013561 0.0065813633
00000000: 4ce0 0f3b c925 903c ae0a 263c 9a44 833b
00000010: 5d29 963c d713 c73c 1010 983a 2d94 053c
00000020: 65df 1b3c 63a0 5e3b efec 063c 56b0 073c
00000030: 8409 463d 9003 973b de2d b83c bbf8 473c
00000040: 9e05 b43b 0aec 823c e014 7739 54c2 9b3c
00000050: 7aa8 d73b

tfeb.7.weight f4 [16, 21, 3, 3]
0.011922392 0.009306312 0.011654921 0.012946866 0.002312946 -0.01581572 0.008918695 -0.001152789
-0.013945735 -0.00034609932 0.0010791591 0.010997511 -0.044335287 -0.017328233 -0.015537534 -0.005144482
0.0015379345 -0.0013384895 0.005039932 0.01863985 0.036901623 -0.005293744 0.012269275 0.02393703
0.0053204214 0.011737024 3.897431e-05 -0.0047652847 -0.0041837785 -0.009031686 -0.015082868 -0.029568302
-0.019076806 0.01749444 0.00018254724 -0.010322381 -0.018855097 -0.01804624 -0.0021643336 -0.05734688
-0.031271227 0.0075381882 -0.038082067 -0.00964694 0.020977963 -0.027245969 -0.011558455 -0.003454371
-0.035007447 -0.029694527 -0.031364024 -0.0014902795 -0.015863169 -0.02438437 0.0070884856 0.009470148
0.0076885144 0.0021187463 0.0034314923 -0.0011509173 0.0102057345 0.0005259695 -0.011225295 -0.017252872
-0.005470704 0.00073763955 -0.0361388 -0.0012338617 -0.009218062 0.0025566265 0.01654207 -0.0013197697
-0.014102571 -0.017818736 -0.015826937 -0.025608456 -0.026176823 -0.00034984684 -0.025825085 -0.021907324
-0.017230812 -0.01005908 -0.0010747545 0.008540741 -0.033021547 -0.011949175 0.00591723 -0.022927387
-0.0037804954 0.026875006 0.010431168 0.022308635 0.022088075 0.025640642 0.02745893 0.02163822
0.017077217 0.009732783 0.0043195356 -0.029280262 -0.034162264 -0.0073959874 -0.036808528 -0.028340284
0.0019360255 -0.0076581817 -0.010817044 0.018691082 0.050824814 0.033843383 0.02524641 0.057578035
0.022055969 -6.936635e-05 0.04309036 0.030088905 0.025645504 0.021015694 0.012241314 0.009556277
-0.0021642535 -0.005304862 6.35601e-05 0.010648351 -0.0048480057 -0.011191415 0.014230066 -0.00948668
-0.00016235575 -0.023976449 -0.027380798 0.007392157 -0.0034936673 -0.0028563568 -0.0060237846 -0.015155935
0.010962322 0.005619325 -0.020318935 -0.00291545 -0.0027726735 -0.016481139 0.0005010253 0.0077060396
0.004970821 0.02159241 0.020825474 -0.011577297 -0.009205029 0.0017950394 0.017145518 -0.006340163
-0.006675185 -0.010789411 -0.0344968 -0.0039248294 -0.012433507 -0.017979031 0.0027150898 -0.02435725
-0.023327243 -0.014699193 0.009918791 0.000606123 0.00273506 -0.004795352 -0.0041483142 0.0006650081
-0.003617307 0.002780258 0.0052353106 0.044379286 0.018563198 0.017689137 -0.017674599 -0.011744122
-0.004234965 0.016641026 0.0095925955 0.016198825 -0.00024128778 -0.010370134 0.010964666 -0.006677593
-0.016027585 -0.0023106297 0.016596418 0.001197441 -0.0034564144 0.0060600406 0.0016206172 0.0015629426
0.015096338 0.023564322 0.033321705 0.016529933 0.018155253 0.026579436 -0.009053385 -0.011035785
0.009103636 -0.009655137 0.009612292 0.014078862 -0.020917114 -0.019532114 -0.020712921 0.08066777
0.07766735 0.03935748 0.008287212 -0.016594145 -0.035071403 -0.008319503 0.010836334 0.02212385
-0.0092051 0.011584931 -0.00015666641 -0.011474019 -0.016568704 -0.02057936 -0.018399924 0.014570598
0.021001017 -0.021981945 -0.03481358 -0.04178019 -0.009316318 -0.04241961 -0.044515733 -0.010865578
-0.030264316 -0.039120663 -0.03209312 -0.017210627 -0.053507444 -0.03047758 0.0003808244 -0.02664884
-0.024499541 -0.016655836 -0.024491938 0.0132479165 0.01291238 0.02099255 0.0042921556 0.0067376173
0.0043640076 0.0035944686 0.0039334213 0.009613919 -0.009119753 0.01851786 0.016421998 -0.0024941002
00000000: 2356 433c 8079 183c 48f4 3e3c 181f 543c
00000010: cb94 173b f88f 81bc b81f 123c 2e19 97ba
00000020: a77c 64bc aa74 b5b9 9272 8d3a e82e 343c
00000030: eb98 35bd f0f3 8dbc 2491 7ebc 0b93 a8bb
00000040: 8594 c93a 4170 afba 0426 a53b 99b2 983c
00000050: 2826 173d 2577 adbb 1205 493c 9717 c43c
00000060: ee56 ae3b a64c 403c 5978 2338 1b26 9cbb
00000070: 1418 89bb a3f9 13bc 221e 77bc 3939 f2bc
00000080: f646 9cbc 8050 8f3c 276a 3f39 341f 29bc
00000090: 0176 9abc b5d5 93bc 7ed7 0dbb 90e4 6abd
000000a0: 4216 00bd e802 f73b f1fb 1bbd 330e 1ebc
000000b0: fad9 ab3c f032 dfbc ad5f 3dbc ba62 62bb
000000c0: f863 0fbd f041 f3bc 9077 00bd 7b55 c3ba
000000d0: 7af3 81bc bbc1 c7bc 8746 e83b ae28 1b3c
000000e0: efef fb3b aada 0a3b e3e2 603b 60da 96ba
000000f0: f435 273c 37e1 093a 4dea 37bc e555 8dbc
00000100: 9743 b3bb 275e 413a 4706 14bd 87b9 a1ba
00000110: 5b07 17bc 138d 273b 3c83 873c 1ffc acba
00000120: 780e 67bc 99f8 91bc 7ea7 81bc d3c8 d1bc
00000130: c770 d6bc a66b b7b9 218f d3bc fd76 b3bc
00000140: a227 8dbc d7ce 24bc c7de 8cba 77ee 0b3c
00000150: 9a41 07bd 79c6 43bc 53e5 c13b 37d2 bbbc
00000160: 30c2 77bb f928 dc3c 7de7 2a3c 99c0 b63c
00000170: 0df2 b43c 530c d23c 8df1 e03c a342 b13c
00000180: 85e5 8b3c 4076 1f3c e48a 8d3b 29dd efbc
00000190: bbed 0bbd 0a5a f2bb 8ac4 16bd e229 e8bc
000001a0: 3cc2 fd3a 7cf1 fabb f939 31bc 0a1e 993c
000001b0: ae2d 503d 5c9f 0a3d 8fd1 ce3c f2d6 6b3d
000001c0: b8ae b43c c778 91b8 847f 303d 027d f63c
000001d0: 8516 d23c 1b29 ac3c cb8f 483c ee91 1c3c
000001e0: 26d6 0dbb 68d4 adbb 924b 8538 6c76 2e3c
000001f0: 05dc 9ebb 325c 37bc 3925 693c 056e 1bbc
00000200: 0a3e 2ab9 426a c4bc b24d e0bc e839 f23b
00000210: 03f6 64bb b731 3bbb 2b63 c5bb 9950 78bc
00000220: 509b 333c 5122 b83b e573 a6bc 2211 3fbb
00000230: beb5 35bb 7403 87bc 3d57 033a f282 fc3b
00000240: 45e2 a23b 91e2 b03c 2f9a aa3c b4ae 3dbc
00000250: b1d0 16bc 8747 eb3a c274 8c3c 24c1 cfbb
00000260: 83bb dabb 12c6 30bc 844c 0dbd db9b 80bb
00000270: e8b5 4bbc c348 93bc a6ef 313b db88 c7bc
00000280: c618 bfbc e2d4 70bc 6d82 223c 3ae4 1e3a
00000290: b13e 333b 5422 9dbb 95ee 87bb f053 2e3a
000002a0: 5710 6dbb fd34 363b f88c ab3b 0ec7 353d
000002b0: d911 983c cfe8 903c 52ca 90bc 6b6a 40bc
000002c0: 76c5 8abb c352 883c 432a 1d3c 66b3 843c
000002d0: 3202 7db9 7fe7 29bc 24a5 333c b6cf dabb
000002e0: 484c 83bc ef6d 17bb 36f5 873c 74f3 9c3a
000002f0: 0385 62bb 4e93 c63b e46a d43a a7db cc3a
00000300: a156 773c f709 c13c 577c 083d c869 873c
00000310: 53ba 943c 1ebd d93c a654 14bc 70cf 34bc
00000320: 6b27 153c 9430 1ebc e07c 1d3c 07ab 663c
00000330: 5e5a abbc d001 a0bc 25ae a9bc 2535 a53d
00000340: 0f10 9f3d 4f35 213d 16c7 073c 72f0 87bc
00000350: 08a7 0fbd 864e 08bc e18a 313c 143d b53c
00000360: fdd0 16bc b9ce 3d3c d246 24b9 86fd 3bbc
00000370: 17bb 87bc 0c96 a8bc 70bb 96bc 84b9 6e3c
00000380: 530a ac3c 7b13 b4bc af98 0ebd b421 2bbd
00000390: 78a3 18bc 2fc0 2dbd 2156 36bd 8a05 32bc
000003a0: dfec f7bc fd3c 20bd 1374 03bd 4dfd 8cbc
000003b0: 9f2a 5bbd 1eac f9bc 63a9 c739 ab4e dabc
000003c0: 43b3 c8bc d271 88bc 51a3 c8bc ca0d 593c
000003d0: 728e 533c 91f8 ab3c 36a5 8c3b 3bc7 dc3b
000003e0: f3ff 8e3b 2d91 6b3b eee3 803b b383 1d3c
000003f0: 046b 15bc c4b2 973c 6d87 863c 0f74 23bb

tfeb.8.weight f4 [16]
0.14133584 0.09429436 0.12082037 0.10449505 0.08216195 0.22199371 0.06431101 0.15439877
0.16256967 0.17058745 0.044160288 0.058839146 0.104721725 0.1160203 0.22649942 0.08400355
00000000: 58ba 103e 671d c13d ac70 f73d 8001 d63d
00000010: 8644 a83d 5252 633e 7eb5 833d b61a 1e3e
00000020: aa78 263e 7aae 2e3e 6be1 343d 5101 713d
00000030: 5878 d63d 0d9c ed3d 77ef 673e 0e0a ac3d

tfeb.8.bias f4 [16]
-0.03052116 0.03493345 -0.14813958 -0.03389747 -0.06926747 0.05421908 0.010376897 -0.018486846
-0.116732284 0.027862705 -0.027432984 -0.050451983 -0.010217936 -0.08925673 0.07544084 0.030591115
00000000: 8307 fabc 6116 0f3d e7b1 17be 13d8 0abd
00000010: 1adc 8dbd d314 5e3d dc03 2a3c ba71 97bc
00000020: 5611 efbd 5440 e43c 23bb e0bc bda6 4ebd
00000030: 2169 27bc 3ccc b6bd ba80 9a3d 389a fa3c

tfeb.8.running_mean f4 [16]
-0.03511888 -0.06726301 0.01687593 -0.059932314 0.04316928 0.00062865455 -0.020619564 -0.013565767
0.005067654 0.0069238218 0.0146058295 -0.03315037 0.006195074 -0.015199783 -0.03436895 -0.04508955
00000000: d1d8 0fbd 30c1 89bd 643f 8a3c 967b 75bd
00000010: 45d2 303d 4bcc 243a 5cea a8bc f342 5ebc
00000020: 900e a63b 3ae1 e23b 4a4d 6f3c afc8 07bd
00000030: 0c00 cb3b 8308 79bc 75c6 0cbd d2af 38bd

tfeb.8.running_var f4 [16]
0.010729982 0.0068984507 0.0010944145 0.001716591 0.0019406985 0.005538253 0.001838423 0.00189294
0.0018570382 0.006827867 0.0015177567 0.0036173305 0.0008487321 0.00070925185 0.018943146 0.0016762849
00000000: cecc 2f3c 660c e23b 7572 8f3a 3cff e03a
00000010: 095f fe3a 3c7a b53b 3df7 f03a 871c f83a
00000020: dd67 f33a 4dbc df3b 77ef c63a bc10 6d3b
00000030: 727d 5e3a 16ed 393a a82e 9b3c cab6 db3a

tfeb.11.weight f4 [26, 16, 3, 3]
0.0005302835 -0.0077016517 -0.0046552625 -0.010467552 -0.009888374 -0.02642784 -0.006780979 -0.000552015
-0.0043456503 -0.003014326 0.010982825 -0.00385788 0.009967428 0.02506401 0.022592522 -0.012601774
-0.009285435 -0.023252629 0.0018950817 -0.0026531115 -0.004257319 -0.005318951 -0.0062859836 0.0009539387
0.00045912032 -0.002048617 -0.0057902713 0.00025942628 0.004369713 0.0002706208 0.00047571998 -0.0031845542
-0.0050078654 -0.00036902772 0.0068147373 0.0048949206 -0.006822236 0.0010280581 -0.012492921 -0.006833983
0.0027472621 -0.0023965817 -0.018788869 -0.010088739 -0.020174053 -0.027152505 -0.02883513 -0.027761647
-0.022258468 -0.011102498 -0.020389915 0.011653785 0.013997906 0.010592671 0.0073480755 -0.015751174
-0.0063544335 0.022684976 0.0049729953 0.016834777 0.0067011854 0.007184096 0.013435838 -0.0112163
-0.014202174 -0.013121984 0.0028559198 -0.004901655 0.004984688 0.022492502 -0.009626021 0.010150808
0.0008854934 0.0013157933 -0.0057515455 -0.0011512818 -0.0024388314 -0.009728796 -0.0013536115 -0.007941458
-0.013455798 -0.010564843 0.011213635 9.080435e-05 0.010077399 0.020954734 0.014284809 0.027078189
0.04413741 0.006648944 -0.01421855 -0.014115582 -0.013540706 -0.0026674322 -0.0078059332 -0.012057025
0.009800017 0.0026844898 -0.005920234 -0.005420186 -0.003307694 -0.006767928 0.00018653474 0.006028621
-0.0063977716 -0.002115827 -0.0030074338 -0.01464884 -0.008085063 0.006494498 -0.027931597 0.015372069
0.022167541 -0.012841677 0.05911451 0.029886367 -0.004128598 -0.008081272 -0.013915856 -0.016027955
0.0046056965 0.0040888474 0.014622676 -0.0027085787 0.0072662397 0.013916093 -0.031160308 -0.019135796
-0.038143635 -0.041938845 -0.03840404 -0.049689766 -0.0009046072 -0.027279861 -0.026314832 0.0047734547
0.01337557 -0.00084469165 0.01917683 0.022853812 0.010416473 0.01729564 0.0047350805 0.0038657642
-0.014546723 -0.016663773 -0.0034513883 0.01049257 -0.0128185665 -0.0076901545 0.0065292725 -0.01716232
0.008084566 -0.01278296 -0.0077264057 -0.02936691 -0.036029138 -0.04052327 -0.051145904 0.00878713
0.0045621716 0.012132134 -0.011173005 0.004102888 -0.008797388 0.0029901501 0.020264857 0.0040058773
-0.0018272682 0.011296289 0.0010013792 -0.0069112005 -0.0010026119 -0.010439009 0.0067409864 0.0011263025
-0.009391088 -0.0090582 -0.0008962633 5.5519708e-05 -0.0048064473 -0.011771521 -0.017637981 -0.021892041
-0.018958732 -0.028089203 -0.00079461216 0.010975833 0.004041495 -0.0041244305 0.004389361 -0.002240433
-0.012855505 0.0006750242 -0.0057548396 -0.009309924 -0.003053116 0.005113539 0.011126542 -0.0010996772
0.017580243 0.019924438 -0.0033291478 0.018095031 -0.0042699156 -0.022828585 0.013215841 0.005102232
-0.0011432498 -0.00038876166 -0.011263344 -0.0064952755 0.001816476 -0.005098791 -0.0032516685 -0.006083086
0.00457714 -0.013129172 -0.008442975 -0.0011045445 -0.015763795 -0.0011936638 0.011276111 0.008918381
0.0071387943 -0.0012828922 -0.016694648 0.0013686497 -0.017878655 -0.015416568 -0.010981988 -0.022051658
0.008272407 -0.01735253 -0.02964354 -0.011730295 -0.0008405827 -0.025600752 -0.0047163423 0.0063212914
-0.009194489 -0.002884623 -7.6946555e-05 0.010973212 -0.0063856677 -0.011640578 0.01563268 -0.005256733
-0.0010484662 0.0057059852 -0.002894008 0.00077089533 0.01570141 0.00914689 0.0044366857 -0.007204707
00000000: b902 0b3a 235e fcbb 2c8b 98bb 1880 2bbc
00000010: d902 22bc 337f d8bc fa32 debb 19b5 10ba
00000020: f565 8ebb 008c 45bb 4ff1 333c 7cd4 7cbb
00000030: 6c4e 233c 0a53 cd3c f413 b93c ac77 4ebc
00000040: f021 18bc 4c7c bebc 6464 f83a d3df 2dbb
00000050: fb80 8bbb 984a aebb a7fa cdbb be11 7a3a
00000060: 16b6 f039 1742 06bb 51bc bdbb 9b03 8839
00000070: cf2f 8f3b 1ce2 8d39 0e6a f939 f4b3 50bb
00000080: 0519 a4bb 107a c1b9 294e df3b 9265 a03b
00000090: 108d dfbb e8bf 863a 1caf 4cbc 9bef dfbb
000000a0: 690b 343b f80f 1dbb 1deb 99bc 3d4b 25bc
000000b0: 0e44 a5bc ee6e debc a737 ecbc 656c e3bc
000000c0: 6457 b6bc 40e7 35bc c008 a7bc 84ef 3e3c
000000d0: 7957 653c e28c 2d3c 20c8 f03b 9b08 81bc
000000e0: da38 d0bb d8d5 b93c 82f4 a23b 16e9 893c
000000f0: 9e95 db3b 9168 eb3b fd21 5c3c 92c4 37bc
00000100: 3cb0 68bc 97fd 56bc 622a 3b3b 109e a0bb
00000110: 9856 a33b 3242 b83c 75b6 1dbc 934f 263c
00000120: 7520 683a b276 ac3a 7677 bcbb 9be6 96ba
00000130: cdd4 1fbb 8765 1fbc aa6b b1ba e41c 02bc
00000140: b575 5cbc 2a18 2dbc 65b9 373c 376e be38
00000150: ad1b 253c 43a9 ab3c d50a 6a3c 14d3 dd3c
00000160: 6ec9 343d 63df d93b ecf4 68bc 0b45 67bc
00000170: d6d9 5dbc 16d0 2ebb eac8 ffbb d48a 45bc
00000180: 4090 203c 44ee 2f3b 86fe c1bb d19b b1bb
00000190: e6c5 58bb 7fc5 ddbb 8a98 4339 bd8b c53b
000001a0: 66a4 d1bb b0a9 0abb 5e18 45bb b001 70bc
000001b0: 3677 04bc cccf d43b ced0 e4bc 21db 7b3c
000001c0: b498 b53c e665 52bc 0e22 723d 41d4 f43c
000001d0: 3149 87bb 5067 04bc 55ff 63bc 0f4d 83bc
000001e0: 62eb 963b bdfb 853b f393 6f3c 6982 31bb
000001f0: a319 ee3b 5300 643c e743 ffbc acc2 9cbc
00000200: 803c 1cbd 11c8 2bbd 8e4d 1dbd 7f87 4bbd
00000210: 2923 6dba 047a dfbc 3492 d7bc a46a 9c3b
00000220: 3525 5b3c 4c6e 5dba ba18 9d3c eb37 bb3c
00000230: dba9 2a3c 96af 8d3c bc28 9b3b c358 7d3b
00000240: 6155 6ebc 7782 88bc b030 62bb 07e9 2b3c
00000250: f704 52bc b1fd fbbb 82f3 d53b fe97 8cbc
00000260: 2175 043c 9f6f 51bc ca2d fdbb e092 f0bc
00000270: 4a93 13bd bafb 25bd 5e7e 51bd e5f7 0f3c
00000280: 457e 953b dcc5 463c fb0e 37bc 8571 863b
00000290: eb22 10bc 65f6 433b 7c02 a63c bc43 833b
000002a0: f280 efba 1214 393c b640 833a 5a77 e2bb
000002b0: 136a 83ba 6108 2bbc 7ee3 dc3b 71a0 933a
000002c0: 14dd 19bc d868 14bc 36f3 6aba d5dd 6838
000002d0: 677f 9dbb 56dd 40bc 877d 90bc f056 b3bc
000002e0: 584f 9bbc 541b e6bc 854d 50ba fbd3 333c
000002f0: 846e 843b 3b26 87bb a1d4 8f3b 3ad4 12bb
00000300: e59f 52bc 1bf4 303a 1893 bcbb a788 18bc
00000310: c916 48bb 798f a73b 1a4c 363c 0b23 90ba
00000320: 7104 903c 9338 a33c d52d 5abb 083c 943c
00000330: a6ea 8bbb 0303 bbbc 4187 583c a030 a73b
00000340: 19d9 95ba b5d2 cbb9 e489 38bc 52d6 d4bb
00000350: d216 ee3a c213 a7bb f219 55bb a054 c7bb
00000360: d5fb 953b bd1b 57bc 6754 0abc 5dc6 90ba
00000370: 1323 81bc b674 9cba 70bf 383c 671e 123c
00000380: 8cec e93b b826 a8ba 37c3 88bc 4364 b33a
00000390: 4276 92bc c695 7cbc cced 33bc aea5 b4bc
000003a0: fd88 073c e526 8ebc 02d7 f2bc 6c30 40bc
000003b0: 8d5a 5cba abb8 d1bc 8c8b 9abb d622 cf3b
000003c0: 7ba4 16bc f10b 3dbb 5e5e a1b8 fdc8 333c
000003d0: dd3e d1bb 1fb8 3ebc 1b10 803c ac40 acbb
000003e0: b06c 89ba 46f9 ba3b 66a9 3dbb e915 4a3a
000003f0: 3ea0 803c d6dc 153c 9e61 913b 7615 ecbb

tfeb.12.weight f4 [26]
0.041867666 0.1350035 0.09484938 0.10342228 0.12564027 0.09041739 0.111202404 0.08856397
0.07550909 0.05905695 0.0973825 0.06853047 0.08122057 0.08406021 0.11806183 0.112904064
0.088120095 0.075244635 0.035568845 0.027491072 0.071105815 0.058680218 0.1433532 0.18071654
0.09118152 0.052702118
00000000: 6e7d 2b3d 5c3e 0a3e 6440 c23d 0fcf d33d
00000010: d8a7 003e c12c b93d 16be e33d 0761 b53d
00000020: 83a4 9a3d b3e5 713d 7a70 c73d b459 8c3d
00000030: f856 a63d c227 ac3d 67ca f13d 3f3a e73d
00000040: 4f78 b43d dc19 9a3d a3b0 113d f534 e13c
00000050: ed9f 913d ab5a 703d 2ecb 123e c20d 393e
00000060: 60bd ba3d 2dde 573d

tfeb.12.bias f4 [26]
-0.032336544 0.022944508 -0.033789933 -0.0032614688 -0.07124207 -0.07633026 0.009954396 -0.048659973
0.034437776 -0.027967323 -0.061024766 -0.0059109405 -0.05429726 -0.046542596 0.052124653 -0.038254023
0.010564636 -0.0626871 -0.0034003814 0.017872125 0.03930694 0.062235232 0.06718564 0.03517481
0.00144017 -0.0026244847
00000000: 5373 04bd 1ff6 bb3c 5067 0abd 5ebe 55bb
00000010: 5de7 91bd 0a53 9cbd c317 233c ae4f 47bd
00000020: a00e 0d3d ba1b e5bc 1bf5 79bd 90b0 c1bb
00000030: ce66 5ebd 73a3 3ebd a980 553d 40b0 1cbd
00000040: 4c17 2d3c 1862 80bd efd8 5ebb 9068 923c
00000050: 5000 213d 5fea 7e3d a098 893d 7613 103d
00000060: 16c4 bc3a 8cff 2bbb

tfeb.12.running_mean f4 [26]
-0.033528056 -0.04500495 -0.018652951 -0.017911157 -0.04776208 -0.06496829 -0.00047563046 -0.121911824
0.002812773 -0.0062444527 0.046233095 0.0021431907 -0.074096344 -0.026309272 0.06962679 0.013174049
0.028473241 -0.017028248 0.014652344 0.010466354 0.013327233 -0.038121726 0.036783487 -0.014317329
-0.1586899 -0.036668662
00000000: b754 09bd 1c57 38bd 13ce 98bc 6bba 92bc
00000010: 2ca2 43bd 180e 85bd 0a5e f9b9 e8ac f9bd
00000020: 8056 383b 449e ccbb ea5e 3d3d c674 0c3b
00000030: d3bf 97bd 8b86 d7bc 7e98 8e3d f7d7 573c
00000040: b740 e93c d37e 8bbc 6310 703c 127b 2b3c
00000050: 775a 5a3c 8725 1cbd 48aa 163d 3b93 6abc
00000060: 9b7f 22be e131 16bd

tfeb.12.running_var f4 [26]
0.008892784 0.002705749 0.009001062 0.0011642157 0.001142592 0.0029950512 0.0025971285 0.07036056
0.004541288 0.0003963962 0.0036082433 0.0012747954 0.00362444 0.00096700486 0.008416484 0.0038532908
0.0030848156 0.003146142 0.0010768643 0.00033470514 0.0069323033 0.0010324814 0.0043581557 0.011526542
0.08254874 0.0020221523
00000000: 0ab3 113c ef52 313b 3179 133c 9998 983a
00000010: 07c3 953a 9f48 443b 9634 2a3b 3319 903d
00000020: 16cf 943b 66d3 cf39 4778 6c3b 0917 a73a
00000030: 0388 6d3b 997e 7d3a 4be5 093c 7e87 7c3b
00000040: 9e2a 4a3b 812f 4e3b 9225 8d3a 5d7b af39
00000050: 6028 e33b 5454 873a dcce 8e3b d2d9 3c3c
00000060: 500f a93d 1686 043b

tfeb.14.weight f4 [40, 26, 3, 3]
-0.00261998 -0.004262382 0.00032098556 -0.00046924263 -0.002940751 6.212479e-05 0.010268215 -0.0067424234
-0.0057572145 -0.010001125 -0.020648697 -0.016555946 0.005243028 -0.008600013 0.011749554 0.0021864276
0.0053022834 -0.010229474 0.040720556 0.009882497 0.023634497 -0.009392031 0.002245507 0.014890677
-0.029126696 0.010279787 0.0053658364 -0.0016698904 -0.0087357275 0.010332056 0.011618474 -0.019828573
0.006883365 0.02947961 0.0013335065 0.008161705 0.014421375 0.0030821878 0.009650526 0.0071113524
0.0071620042 0.009540422 0.01598026 -0.00911591 0.006255317 0.0026409095 0.010131594 -0.0106408205
0.0032907447 0.0075200885 0.004226161 -0.008479579 0.007149612 0.0010281961 -0.004559207 -0.0050121457
-0.017797789 -0.0035161788 -0.004495193 -0.014359963 0.00889937 -0.008310975 0.0026863585 -0.008497124
-0.0030887017 -0.000101767095 -0.016066294 -0.0018423091 0.0024511355 -0.015146074 0.0012824447 -0.004358577
0.001499465 -0.0038221108 -0.00839846 0.004931584 0.0018494615 -0.008470405 -0.006330691 -0.008298266
-0.017049197 0.0036346086 0.00872989 0.0068602934 -0.0060153534 -0.0032874073 0.0069373273 -0.0046616
0.0048163636 0.011488016 -0.0018556386 0.0033684548 -0.0035139602 -0.019596491 -0.011252438 0.005413186
-0.012816697 -0.013442146 -0.0077527245 -0.0056181797 0.000893121 0.0053445124 -0.005941108 -0.009974923
-0.0026215592 0.0017187546 0.006830355 0.01752708 -0.004037811 -0.0068451185 0.0074035195 -0.002088191
-0.0065882835 -0.0044867573 0.004367071 0.004450067 -0.013438459 0.02296846 0.00527615 0.008226475
0.013791938 -0.0060074194 0.0060938504 0.0012658266 -0.0043801093 -0.006897968 0.001415074 -0.021320876
-0.015628565 -0.015418541 -0.0051376894 0.009795328 -0.01580006 0.003973333 0.017456833 -0.011099057
-0.0008560056 -0.007903616 -0.012029641 0.0025568146 0.0036304537 0.0036478653 0.0033403984 -0.00023511071
-0.009155099 -0.012161016 -0.02026804 0.002943142 -0.008844263 0.0018350036 -0.008385792 -0.0075303223
-0.0009440287 0.012009971 0.0278866 0.008572324 0.000102755665 0.011738341 -0.0038279693 -0.008180636
0.002332368 0.0002978129 0.008124164 0.007974662 0.008857283 -0.011472211 -0.0029829743 -0.006925938
0.00533195 -0.014574623 -0.00013064184 -0.0012904163 -0.0038339093 0.0016397631 -0.002342634 -0.0120044
-0.0075005353 0.0013123843 -0.0011810448 -0.0037522465 -0.011998147 -0.006780377 -0.004880533 -0.013536797
-0.021498833 -0.012392859 -0.001092643 -0.013869107 0.0019133977 -0.014622199 -0.005058702 -0.0033926375
-0.0114438515 -0.013491981 -0.015803747 -0.0065084575 -0.009114985 -0.014857243 0.023448953 0.023996396
0.020725278 -0.005228731 0.003527654 0.003505367 -0.0017181775 0.0025018791 0.015451243 0.032863084
0.017061498 0.039138697 -0.003914275 -0.03095789 -0.0074042687 -0.006953076 -0.016927669 -0.016631387
0.0006593554 -0.009325826 -0.0044522895 -0.0008693434 -0.0038331691 -0.0031974146 0.00069397874 -0.007908817
0.0066521894 0.0011037668 0.013398032 0.010813662 0.0017268615 -0.005443725 0.0024842115 0.0089526335
-0.026842201 -0.021703023 -0.0030224295 -0.001104059 0.0008797139 -0.0057831067 0.008501274 0.003928746
-0.004709541 -0.0031901198 -0.0070014726 -0.0005236037 0.001722287 -0.016903352 0.0035713727 -0.007223072
-0.023349378 -0.0062430804 -0.01086247 -0.008432036 -0.007088469 -0.0143055 -0.011699148 -0.0043810084
00000000: f8b3 2bbb 74ab 8bbb f449 a839 ae04 f6b9
00000010: 9db9 40bb fe48 8238 043c 283c 8cef dcbb
00000020: 04a7 bcbb c2db 23bc 7527 a9bc 56a0 87bc
00000030: b5cd ab3b 12e7 0cbc 3481 403c 2b4a 0f3b
00000040: c7be ad3b 8699 27bc 99ca 263d 32ea 213c
00000050: 229d c13c 08e1 19bc 5b29 133b 07f8 733c
00000060: 1c9b eebc 8d6c 283c e6d3 af3b 39e0 daba
00000070: 4c20 0fbc c947 293c 695b 3e3c 886f a2bc
00000080: da8d e13b 397f f13c 0ec9 ae3a acb8 053c
00000090: a147 6c3c 88fe 493b 3d1d 1e3c 5906 e93b
000000a0: 3faf ea3b 6e4f 1c3c 09e9 823c e65a 15bc
000000b0: 67f9 cc3b 1c13 2d3b fcfe 253c d656 2ebc
000000c0: 89a9 573b 136b f63b 9c7b 8a3b efed 0abc
000000d0: 4b47 ea3b 89c4 863a 6665 95bb ed3c a4bb
000000e0: abcc 91bc b16f 66bb 694c 93bb 0d46 6bbc
000000f0: aace 113c c12a 08bc 9e0d 303b 8537 0bbc
00000100: d16b 4abb cb6b d5b8 769d 83bc a379 f1ba
00000110: 3ba3 203b 3d27 78bc b417 a83a 65d2 8ebb
00000120: b289 c43a 617c 7abb b299 09bc 2099 a13b
00000130: a169 f23a 74c7 0abc af71 cfbb 73f5 07bc
00000140: c2aa 8bbc 9d32 6e3b d007 0f3c 50cc e03b
00000150: 711c c5bb 8b71 57bb 8552 e33b 56c0 98bb
00000160: 96d2 9d3b 3b38 3c3c e638 f3ba 4bc1 5c3b
00000170: 784a 66bb d288 a0bc 255c 38bc 1861 b13b
00000180: 20fd 51bc 723c 5cbc 910a febb b518 b8bb
00000190: 5620 6a3a 0521 af3b a0ad c2bb dc6d 23bc
000001a0: 77ce 2bbb d647 e13a 2cd1 df3b f394 8f3c
000001b0: 9d4f 84bb 044d e0bb 3999 f23b 08da 08bb
000001c0: 87e2 d7bb a605 93bb a619 8f3b ded1 913b
000001d0: fb2c 5cbc 5a28 bc3c 8ee3 ac3b 56c8 063c
000001e0: 95f7 613c e3d9 c4bb ecae c73b 18ea a53a
000001f0: 0587 8fbb 5908 e2bb 017a b93a 1ea9 aebc
00000200: 7a07 80bc 0c9e 7cbc 105a a8bb 957c 203c
00000210: 216f 81bc bc32 823b a201 8f3c d2d8 35bc
00000220: 9065 60ba 2b7e 01bc f917 45bc 3b90 273b
00000230: e8ec 6d3b 0611 6f3b 96ea 5a3b 0d88 76b9
00000240: 45ff 15bc 003f 47bc 2909 a6bc bbe1 403b
00000250: 87e7 10bc 8184 f03a 9064 09bc ecc0 f6bb
00000260: b278 77ba 78c5 443c 7072 e43c ef72 0c3c
00000270: 877e d738 2c52 403c abde 7abb 1308 06bc
00000280: a4da 183b c523 9c39 371b 053c 28a8 023c
00000290: 231e 113c f1f5 3bbc 017e 43bb fbf2 e2bb
000002a0: a3b7 ae3b 66ca 6ebc e7fc 08b9 3023 a9ba
000002b0: 5342 7bbb 52ed d63a e086 19bb 1aae 44bc
000002c0: 0dc7 f5bb 4f04 ac3a 4acd 9aba 40e8 75bb
000002d0: e093 44bc ed2d debb e1ec 9fbb 71c9 5dbc
000002e0: 521e b0bc 6b0b 4bbc 0437 8fba 403b 63bc
000002f0: f9ca fa3a f391 6fbc 78c3 a5bb 0357 5ebb
00000300: fe7e 3bbc 780d 5dbc dc76 81bc e644 d5bb
00000310: 0557 15bc cb6b 73bc 0518 c03c 1794 c43c
00000320: 0fc8 a93c c655 abbb 3730 673b 4dba 653b
00000330: 7834 e1ba 91f6 233b 3627 7d3c 719b 063d
00000340: 8ec4 8b3c e64f 203d 5243 80bb 679b fdbc
00000350: 829f f2bb a1d6 e3bb e5ab 8abc 8c3e 88bc
00000360: 98d8 2c3a 59cb 18bc 83e4 91bb a6e4 63ba
00000370: e835 7bbb b78b 51bb 20ec 353a fc93 01bc
00000380: 9cfa d93b 45ac 903a 6b83 5b3c c92b 313c
00000390: db57 e23a 4661 b2bb 27ce 223b 11ae 123c
000003a0: 2de4 dbbc 8aca b1bc f413 46bb 13b6 90ba
000003b0: 9a9c 663a 3780 bdbb ed48 0b3c b6bc 803b
000003c0: 7e52 9abb 5411 51bb 9c6c e5bb 7342 09ba
000003d0: 5dbe e13a e678 8abc b10d 6a3b 85af ecbb
000003e0: 3247 bfbc c192 ccbb 80f8 31bc 8626 0abc
000003f0: 6346 e8bb 9e61 6abc c9ad 3fbc 908e 8fbb

tfeb.15.weight f4 [40]
0.12244877 0.08998775 0.089132115 0.08468048 0.06951781 0.079724915 0.20629185 0.08051942
0.07447009 0.08540574 0.14686102 0.12824634 0.11863424 0.113823384 0.15816307 0.11459999
0.07227204 0.14192721 0.10565476 0.022314288 0.09553376 0.13048401 0.09874655 0.08388424
0.107015796 0.08402549 0.13410448 0.07420055 0.08019344 0.13656609 0.16510797 0.093457706
0.09298776 0.1057619 0.08955722 0.06787 0.0859512 0.13158442 0.08097812 0.112250626
00000000: 6cc6 fa3d 7f4b b83d e68a b63d f66c ad3d
00000010: 5b5f 8e3d d146 a33d 2c3e 533e 5ee7 a43d
00000020: c683 983d 34e9 ae3d bc62 163e 0253 033e
00000030: 82f6 f23d 3c1c e93d 80f5 213e 66b3 ea3d
00000040: 5d03 943d 5e55 113e 8661 d83d 74cc b63c
00000050: 34a7 c33d 9a9d 053e a23b ca3d 80cb ab3d
00000060: 192b db3d 8e15 ac3d af52 093e 75f6 973d
00000070: 753c a43d fbd7 0b3e 1012 293e c166 bf3d
00000080: 5e70 be3d b299 d83d c769 b73d 6dff 8a3d
00000090: 2f07 b03d 11be 063e dbd7 a53d a8e3 e53d

tfeb.15.bias f4 [40]
-0.06715371 -0.08949968 -0.026276322 -0.08819822 -0.11440481 -0.036598213 0.0030279404 -0.025007652
-0.040978752 -0.10899408 0.009382628 -0.06140239 -0.07372943 0.011573093 0.0059199925 -0.056997012
-0.078858845 -0.0883524 -0.07333365 -0.03680357 -0.05222347 -0.07482857 -0.024061406 -0.05893522
-0.042192806 -0.0485361 -0.0025119653 -0.04921059 -0.0424381 -0.049824785 0.039562084 -0.047439687
-0.068394184 -0.09352996 -0.025964024 -0.06276661 -0.015419423 -0.07729804 -0.033984307 -0.046565842
00000000: e287 89bd 9c4b b7bd 7141 d7bc 45a1 b4bd
00000010: 124d eabd 02e8 15bd 6970 463b d9dc ccbc
00000020: 56d9 27bd 4a38 dfbd 98b9 193c 1381 7bbd
00000030: 75ff 96bd 129d 3d3c 7ffc c13b b375 69bd
00000040: bf80 a1bd 1af2 b4bd f42f 96bd 57bf 16bd
00000050: 47e8 55bd b93f 99bd 6d1c c5bc 0f66 71bd
00000060: 5dd2 2cbd cacd 46bd c99f 24bb 0b91 49bd
00000070: 93d3 2dbd 1315 4cbd da0b 223d 1e50 42bd
00000080: 4012 8cbd a38c bfbd 81b2 d4bc c88b 80bd
00000090: bfa1 7cbc 6f4e 9ebd 2133 0bbd d3bb 3ebd

tfeb.15.running_mean f4 [40]
-0.014999125 -0.035491694 -0.0227825 -0.03979344 -0.037123248 -0.0004659156 0.00850884 -0.004808058
-0.03459727 -0.027685264 0.0211496 -0.0010622924 0.012038743 0.011351619 -0.00924588 -0.020779978
-0.009775682 -0.024094284 -0.018262211 -0.0053671654 -0.010357633 -0.0062108953 -0.0338132 0.0124472
0.019727461 0.02270866 -0.0055385823 -0.019099357 0.0064265756 -0.025399186 0.03180551 -0.004463351
-0.019152524 -0.011813349 -0.015101999 -0.012922302 -0.009885201 -0.019868838 -0.022244133 0.0225468
00000000: e4be 75bc bd5f 11bd 5ea2 babc 72fe 22bd
00000010: 8c0e 18bd 2246 f4b9 a968 0b3c ea8c 9dbb
00000020: deb5 0dbd 35cc e2bc ed41 ad3c 9e3c 8bba
00000030: 263e 453c 24fc 393c 087c 17bc c63a aabc
00000040: 2f2a 20bc 6061 c5bc a29a 95bc 0cdf afbb
00000050: 10b3 29bc c484 cbbb b67f 0abd 57ef 4b3c
00000060: 7c9b a13c 8307 ba3c ff7c b5bb 4176 9cbc
00000070: 0696 d23b f411 d0bc 7f46 023d 4d41 92bb
00000080: c1e5 9cbc c78c 41bc 606e 77bc 10b8 53bc
00000090: 8af5 21bc f9c3 a2bc 5439 b6bc 11b4 b83c
