refine_codes/retrained_models_after_second_stage_pruning/after_second_pruning_time_2024022014_prunratio0.85/retrained_model_after_second_pruning_0.83ratio_acc90.90909576416016_77th_epoch_20240220141746.pt (torch, 409836 bytes, 62 tensors)

sfeb.0.weight f4 [6, 1, 1, 9]
000000 1b 65 23 3e 36 91 27 3e fc 95 64 3e 30 77 ad 3e
       0.15956537 0.16363987 0.2232284 0.33879995
000010 79 67 08 3d 82 ce 50 bd 7c ef ae bb 76 9c 1d bc
       0.033301804 -0.05097819 -0.0053386074 -0.009619823
000020 e3 8d df bd fd e0 cf bc f1 ee 89 bc 0c b0 13 bd
       -0.109157346 -0.025375837 -0.016837569 -0.036056563
000030 73 b0 55 be 53 2b 7d bd 50 7c 4e be e9 6b c3 bd
       -0.20868091 -0.061808895 -0.20164609 -0.095420666
000040 9e 60 24 3e 19 e1 4e 3e ca ae b6 3d 59 c8 8a 3c
       0.16052482 0.20203055 0.08920057 0.016941236
000050 82 4f b6 3c 03 04 ad bc 1b 1e 02 3d d8 05 12 bd
       0.02225471 -0.021120077 0.031766992 -0.035650104
000060 7f e7 31 bd 9b 07 9a bd ec d2 50 be c5 d9 de 3d
       -0.043433663 -0.07520982 -0.2039296 0.1088138
000070 4e 18 41 bc fb d4 ff bc 60 25 d4 bd fe 79 80 bc
       -0.01178558 -0.031229487 -0.10358691 -0.01568317
000080 0d eb 9a bc 89 11 45 3c 6d 3b 52 3d dd c2 98 bd
       -0.01891091 0.0120281065 0.051326204 -0.07459042
000090 5b d5 21 be 38 c2 00 be 48 4b 69 3c a1 4f d6 3d
       -0.15804045 -0.12574089 0.01423914 0.10464407
0000a0 87 f7 5d 3c fb 7a a1 3c 20 21 3e bd e6 0f a1 bc
       0.013547785 0.019711962 -0.04641831 -0.019660901
0000b0 af 51 eb 3c 6a d0 ae 3d 48 a2 8a 3d 6f 44 c0 bb
       0.028725473 0.085358456 0.06769234 -0.005867533
0000c0 e6 2c 91 3d 32 cb db bd cb 7f ff 3d 52 9d 8d 3c
       0.07088642 -0.10732116 0.124755464 0.01728693
0000d0 57 e2 31 be 38 4d aa 3b
       -0.17371498 0.0051971935

sfeb.1.weight f4 [6]
000000 cc 64 92 3e da 77 c7 3e b1 86 66 3e af 07 b2 bc
       0.28592527 0.38958627 0.22512318 -0.02173218
000010 48 06 02 3e c0 39 5e 3d
       0.12697709 0.054254293

sfeb.1.bias f4 [6]
000000 97 c1 77 3d 7e a7 53 bd a0 8c 4d 3d ef a8 cf 3d
       0.060487356 -0.051673405 0.05018294 0.101396434
000010 88 f1 91 3d 0f 62 ee 3d
       0.071261466 0.11639797

sfeb.1.running_mean f4 [6]
000000 ed 60 b4 3a 5b 5b 68 b9 3f 75 be b9 13 f7 14 b9
       0.0013761796 -0.00022159277 -0.0003632698 -0.00014206422
000010 3c 10 9c b9 dc ce 1c 39
       -0.00029766734 0.0001495438

sfeb.1.running_var f4 [6]
000000 94 f1 5a 3c d2 fb 19 3c 08 02 2c 3b 36 f0 e8 3a
       0.013363261 0.009398418 0.0026246328 0.0017771784
000010 29 df 79 3b f1 42 8d 3a
       0.0038127399 0.0010777396

sfeb.3.weight f4 [32, 6, 1, 5]
000000 78 2a 1c bc 31 99 b5 3b 94 80 a1 3c f0 37 bb 3c
       -0.00953161 0.0055419435 0.019714631 0.022853822
000010 f5 26 cf 3b b2 0e 5a bb b2 fc c0 bb 24 fe 34 bc
       0.0063217827 -0.003327292 -0.0058894986 -0.01104692
000020 a5 1c 29 bc 3f 06 8e 3b 74 f6 fc b9 94 2f 28 3c
       -0.010321771 0.0043342407 -0.00048248807 0.01026525
000030 9e ce 82 3c 62 cb 24 3d 4b 7d cd 3c 6f 21 d8 bb
       0.015967663 0.040233023 0.025084158 -0.0065957825
000040 32 34 1b bc f1 93 46 bc 98 f0 91 3b ac 13 56 bb
       -0.009472894 -0.012120233 0.00445373 -0.0032665534
000050 32 91 99 bb a1 9b 69 bb 04 2e b1 3b cf dc 93 bc
       -0.004686498 -0.003564574 0.005407097 -0.018049626
000060 c7 a3 1a bc 98 58 51 bc 97 f4 fa 3a 7c 00 15 b9
       -0.009438462 -0.01277747 0.001914638 -0.00014209928
000070 72 ce e5 3b 65 62 d5 3a 52 25 5b bd 50 ba 75 bd
       0.0070131356 0.0016279934 -0.05350239 -0.059992135
000080 52 3f 6c bc a1 86 5f bd 3a d4 67 bc 9b 0b 38 bd
       -0.014419394 -0.05457175 -0.01414972 -0.044932943
000090 08 5c d4 bc ad fb 33 bd e7 6b 27 bd a2 26 ce bc
       -0.02592279 -0.04394119 -0.040874388 -0.025164906
0000a0 d5 10 c0 3b 89 05 e8 3b 10 c7 67 3c 81 85 ff 3c
       0.0058613815 0.007080738 0.014146581 0.03119159
0000b0 1e e1 1b 3d 2e d8 d4 bc e1 c6 ba bc a7 86 05 bd
       0.038056485 -0.025981989 -0.022799911 -0.032599118
0000c0 fb 4c ae bc 8c ce b7 bc a5 d4 ce 3b 1f c7 d0 38
       -0.021276942 -0.022437356 0.0063119703 9.955302e-05
0000d0 80 2b 0b 3c a8 33 03 3c aa 4b 4f 3b f1 39 bf bc
       0.008494258 0.008007921 0.0031630793 -0.023343058
0000e0 c2 cd c4 bc 1b 41 a1 bb 6a 57 86 bb 07 80 38 bc
       -0.024023894 -0.0049210913 -0.004099776 -0.011260993
0000f0 82 79 00 bd f0 01 0b bd c6 f1 cc bc 88 80 0a bd
       -0.03136588 -0.033937395 -0.02501763 -0.033813983
000100 ee ea c9 bc e1 b5 af bc 3d 8a d9 bb e3 0c 53 bc
       -0.024648156 -0.021449031 -0.0066387937 -0.01288149
000110 19 36 16 bd 6e 64 4f bd 9a b3 80 bc f7 ea 16 3b
       -0.036672685 -0.050632887 -0.01571064 0.0023028234
000120 43 35 8b 3b 89 62 43 3c ff 97 47 3c f4 d4 c8 bc
       0.0042482927 0.011925348 0.012182235 -0.024515606
000130 67 d9 d0 bb 8f af 9a bb b7 e5 95 bc 2f f1 a3 bc
       -0.0063735726 -0.0047206352 -0.018298013 -0.020012466
000140 79 42 3f 3c 25 da 62 39 f9 4c c3 38 43 52 66 3c
       0.011673563 0.00021634305 9.312662e-05 0.014057699
000150 f1 1c 2d 3c ee 1f 96 bb 88 08 bf bb 65 49 77 bb
       0.010565982 -0.004581443 -0.0058298744 -0.0037732956
000160 e5 ea 74 bc 48 b6 62 bc 5b 61 9c 3b cb 1a 18 3b
       -0.014948581 -0.013837405 0.004772348 0.002320933
000170 98 dc 9a bd 9a 27 52 bd 07 a6 18 bd f7 4e 69 bd
       -0.07561606 -0.0513073 -0.03726771 -0.056960072
000180 f6 a7 d6 bd 4d a3 fc bc b1 a8 37 bd bf c3 13 bd
       -0.10481255 -0.030839587 -0.04483861 -0.03607535
000190 54 c4 75 bd 88 26 90 bd 75 98 82 bd 97 ca 27 bd
       -0.060001686 -0.07038599 -0.06376735 -0.04096469
0001a0 0e 85 e0 bc 2b 10 4d 3d 0d 04 11 3d f3 76 b6 3c
       -0.027407195 0.050064247 0.035404254 0.022273516
0001b0 ce 46 16 3d 51 1f 2a 3b ed e6 4b bd 09 63 6a bd
       0.03668862 0.0025958607 -0.049780775 -0.057223354
0001c0 9b be ef bc 1b a6 4d bd a5 e8 c2 bc bb 52 9f 3c
       -0.029265692 -0.05020724 -0.023792574 0.019448629
0001d0 03 bd 26 3a 89 98 85 bc 52 5e 4d 3b a7 e3 10 3c
       0.00063605624 -0.016308086 0.0031336737 0.008843339
0001e0 9e b4 d0 bc 6b 9a cf bc 1c cc 38 bd 62 ce 22 bd
       -0.02547675 -0.025342187 -0.04511653 -0.039747603
0001f0 0d 03 06 bd de 43 fd bc d3 66 02 bd 8e e4 33 bc
       -0.032717753 -0.03091615 -0.031836342 -0.010979785
000200 3a f1 bd bc 08 e3 30 bd dd b9 bd bc d1 03 7f bc
       -0.023186315 -0.043185264 -0.023159916 -0.015564875
000210 37 b2 97 bc 37 19 8d 3a 1d a9 0f 3c 6f 7d 0d 3d
       -0.018517597 0.0010764961 0.008768347 0.03454345
000220 e9 2b 5e 3c d4 5a 2f 3c 30 35 1d 3c 37 82 e9 3a
       0.013560274 0.010702807 0.0095952 0.0017815296
000230 ac f5 50 bc dd 97 cb bb 5c 5e 19 bc eb f9 db 3a
       -0.012753885 -0.006213172 -0.009360876 0.0016782855
000240 02 73 93 bb 04 cb e1 bb 0a be cb bb 32 c9 f1 bb
       -0.004499794 -0.0068906564 -0.006217723 -0.0073787207
000250 bd ed 7d bc db 65 8f bc 8f 63 28 bc 0a 9d e9 bb
       -0.015498576 -0.017504623 -0.010277643 -0.007129316
000260 af f0 7f bc b9 5b b7 bc 65 61 a2 bc 0b 4a ed bc
       -0.015621348 -0.022382604 -0.019821832 -0.02896597
000270 a1 71 1d bd 98 37 06 bd 41 36 f7 bc 71 02 e1 bc
       -0.038438443 -0.032767862 -0.030177237 -0.027466984
000280 9f 7d d0 bc 08 c9 35 bc 24 bb 3a ba b8 c6 36 3c
       -0.025450526 -0.011095293 -0.0007123223 0.011155777
000290 bc ed 50 3c c7 4e ad 3c 18 38 30 3c e2 4d 46 3c
       0.012751993 0.021155728 0.010755561 0.01210353
0002a0 37 29 38 bb 8f e3 6c bc f4 79 9d bc 86 74 a3 bc
       -0.0028100738 -0.014458551 -0.01922319 -0.019953024
0002b0 0d b0 a5 bc ae d4 aa bc 22 83 88 bc d3 ca 49 bb
       -0.02022555 -0.020853367 -0.016664091 -0.0030791059
0002c0 6e 6c 75 bb 66 31 5f bb 8e 74 26 bc 84 a5 7f bb
       -0.0037448662 -0.0034056543 -0.010159625 -0.0039008567
0002d0 a4 05 08 3b ce fa 48 bc 11 7c a1 bc 8b 02 de bc
       0.0020755315 -0.012266828 -0.01971248 -0.027100822
0002e0 e5 4c 78 bc 29 f6 e7 bc 5b 08 0e bd 64 33 2d bd
       -0.015155052 -0.02831562 -0.034675937 -0.042285338
0002f0 e4 dc 09 bd d8 04 96 bc 4e f9 0d bb bf 3d e0 ba
       -0.033657923 -0.018312857 -0.002166349 -0.0017108246
000300 32 71 b3 bc ed cc a6 bc f6 03 81 bc c2 17 56 3c
       -0.021904562 -0.020361388 -0.015748959 0.013067188
000310 68 a6 54 3c 7c 80 10 3c be d3 5a bb 25 51 bd 38
       0.0129791275 0.008819696 -0.0033390368 9.027337e-05
000320 02 69 9e bc 17 b3 c5 bc a4 24 0a bc af 94 ce ba
       -0.019337181 -0.024133248 -0.008431587 -0.0015760864
000330 d6 98 a9 bc 6f ec 5a bb 48 6f 42 ba 9c 33 7b bb
       -0.02070276 -0.0033405086 -0.0007417095 -0.0038330322
000340 aa d9 a3 3b 88 f1 11 3c 9d 0b 12 bd 8d 59 2c bd
       0.005000313 0.008907683 -0.035655607 -0.04207759
000350 d5 0a b3 bc f4 f7 e9 bc f5 61 85 bc aa bf 01 bd
       -0.021855751 -0.028560616 -0.016282061 -0.031676926
000360 35 3d 4d bc ae c9 2a bc 09 66 9e bc 59 1e 9c bc
       -0.0125268 -0.010424061 -0.019335764 -0.01905744
000370 71 c6 f0 bc 87 ee b0 bc 8b 4b 44 bc e8 01 24 ba
       -0.0293915 -0.021598114 -0.0119809015 -0.00062563876
000380 56 91 f2 3c 5a 54 0b bd 02 89 13 bc 01 87 d5 bb
       0.029610317 -0.03401599 -0.009004833 -0.006516338
000390 61 a7 3a 3c 9d 6f 45 bb eb 12 09 3d 18 48 30 bc
       0.011392445 -0.003012634 0.033465307 -0.010759376
0003a0 b8 d9 15 ba 2a 0e 02 bc 80 87 2b b8 dc 94 e0 bb
       -0.00057163415 -0.007937947 -4.089577e-05 -0.006853683
0003b0 f0 ea 16 3b a7 ca 8f 3b 93 2d 6b 3b 15 ef 5f bc
       0.0023028217 0.0043881717 0.0035885319 -0.013667841
0003c0 8d 62 d0 3c 5e 1a 08 3b 7f 54 36 bc 21 40 06 bd
       0.025437618 0.002076767 -0.011128544 -0.032776
0003d0 56 97 ec bc 38 49 e8 3c 06 a5 82 3c 63 be a5 3c
       -0.028880756 0.028355226 0.01594783 0.020232385
0003e0 46 64 d2 3c b7 8f b6 3c 94 2f 8c b9 af f6 9d 3a
       0.02568258 0.022285325 -0.0002673833 0.0012051667
0003f0 ab 7c 7b 3c d0 5f 58 3c 8e 45 29 39 63 5d da bb
       0.015349547 0.013206437 0.00016143007 -0.0066639646

sfeb.4.weight f4 [32]
000000 9f 77 6d 3d a9 95 ae 3d e5 b4 9b 3d d6 c7 2c 3e
       0.057975408 0.08524639 0.07602862 0.16873106
000010 92 7c 41 3c 88 b0 40 3d 81 5a d4 3c 32 99 9b 3d
       0.011809485 0.047043353 0.025922062 0.07597579
000020 72 b4 8b bd 5f f2 04 3e 10 bc 33 3e 38 f1 1c 3e
       -0.068215266 0.12983082 0.17552209 0.15326393
000030 01 22 6d 3c fd 61 32 bd 80 94 20 3e 22 05 45 3e
       0.014473439 -0.04355048 0.15681648 0.1924024
000040 df bc 3d 3d 82 17 34 3e 2e 82 87 3e 6b 0a e3 3d
       0.0463227 0.17587093 0.26466507 0.110859714
000050 fc 52 51 3e 18 5c b4 bc ae a2 45 3e cc bd cc 3c
       0.20441812 -0.02201657 0.19300339 0.024992846
000060 3b d2 b6 3d 7e 7a 80 3d e7 87 d0 3d 0e c0 a6 3e
       0.08926817 0.062733635 0.10182171 0.325684
000070 33 22 42 3d 32 0c b2 3d f2 df c8 3e 25 3c 5a 3b
       0.047395896 0.08693732 0.39233357 0.003330001

sfeb.4.bias f4 [32]
000000 9a 60 46 bc 41 e1 5e bc 1a 3a bb bd 0c c1 4e bc
       -0.012107993 -0.013603509 -0.09141941 -0.012619268
000010 d3 a6 bf bd 55 8b 94 bd 4d eb 0f bd 4e 2d 1d 3c
       -0.09357991 -0.07253138 -0.03513651 0.009593321
000020 77 d3 65 3d a1 be 16 3b 72 08 89 3d 2b b9 25 3d
       0.05610987 0.0023001807 0.06691064 0.040459793
000030 4e 1a 64 bd 71 44 87 bc d3 de 5c 3e 77 e5 8f 3d
       -0.05568915 -0.016512128 0.21569376 0.07026189
000040 9d 31 e9 3c 55 b8 6b 3d 50 e5 8c bc b0 c7 4c 3d
       0.02846604 0.05754884 -0.017199188 0.049995124
000050 15 cc 94 3d 4a 39 a3 bd e5 f8 6f 3e 6a 7f 40 bd
       0.07265488 -0.079699114 0.2343479 -0.04699651
000060 23 65 8a bd 23 7a c0 bd a3 e2 cf bc d0 ba 4d 3d
       -0.067575715 -0.09398296 -0.025376623 0.050226986
000070 95 26 2a bd a1 62 0a be 66 c5 e0 3d 8b 58 67 bc
       -0.0415407 -0.13514186 0.10975151 -0.014120231

sfeb.4.running_mean f4 [32]
000000 4c ae 18 3b 1e a8 31 bd 3a 65 ff bc 3e 6d 43 bd
       0.0023297248 -0.04337322 -0.031176198 -0.047711603
000010 cf 30 ea bc ca 0f d4 bc 63 c9 b9 bc 87 45 d3 bc
       -0.028587727 -0.025886435 -0.022679036 -0.02578999
000020 28 8f 6f 3c 37 4c 84 bc 8e d2 31 3d b4 87 55 bd
       0.014621533 -0.016149623 0.04341369 -0.05213137
000030 a4 8b b6 bc d8 ad b6 3c f2 eb 30 bd ef 77 36 3b
       -0.022283383 0.022299692 -0.043193765 0.0027842482
000040 5a 08 d5 3c 15 8e 9e bc 40 4b d7 3c 2d f1 ee bc
       0.026004959 -0.01935486 0.026281 -0.029167736
000050 46 b7 be 3b 46 81 b0 3c 88 00 70 bc c5 14 f0 bc
       0.0058201877 0.021546017 -0.014648564 -0.029306779
000060 87 54 b8 bd 99 cb e7 bc 6e 5e 61 bc 30 24 cd bd
       -0.09000497 -0.028295325 -0.013755424 -0.10016668
000070 09 97 90 bc 40 cc 9e bd 31 7a 0f be ad 36 e4 bb
       -0.017650144 -0.07753801 -0.14011456 -0.0069645257

sfeb.4.running_var f4 [32]
000000 d3 32 59 39 37 af 07 3b 04 31 ae 3a 28 f2 eb 3b
       0.00020713666 0.0020703801 0.0013289754 0.007200498
000010 52 b6 06 3b 95 50 ac 3a 57 50 ba 3a 8a 33 99 3a
       0.0020555449 0.0013146574 0.0014214617 0.0011688333
000020 01 a9 05 3a d5 86 90 3a 0b 16 c9 3b da 6a 4c 3b
       0.0005098731 0.0011026511 0.006136661 0.0031191618
000030 3c a4 18 3a 1b a5 97 3a 50 b7 5a 3b e6 0b 10 3b
       0.00058228127 0.0011569591 0.0033373423 0.0021979748
000040 9a 32 2d 3b 8d ed 15 3b bb 4e 5d 3b 7a 6c 1e 3b
       0.0026427866 0.0022877187 0.003376885 0.0024173544
000050 a4 1a 8a 3a 66 6d 26 3b b1 5b 82 3b 6a 04 8b 3a
       0.0010536504 0.0025394796 0.0039782156 0.0010606174
000060 e6 03 4a 3c f3 8c bb 3b bc e9 6c 3b be f0 c0 3c
       0.012330031 0.0057235896 0.0036150059 0.023552295
000070 98 3e 17 3a 95 81 02 3c ab c8 1a 3d 1d 11 d7 38
       0.000576952 0.007965465 0.03778903 0.000102551865

tfeb.0.weight f4 [11, 1, 3, 3]
000000 3a 44 29 3d 39 2a a6 be aa 60 9d be cd ba 60 be
       0.04132483 -0.32454088 -0.3073781 -0.21946259
000010 7e 50 44 be 34 0c 3d be 46 d7 0d be cc e7 21 be
       -0.1917133 -0.18461686 -0.13851652 -0.1581108
000020 a1 0e 25 be a6 9c 39 3c 70 07 3a 3c 3d b5 57 3c
       -0.16118862 0.011328852 0.011354312 0.013165769
000030 5a 26 0f bb c5 75 d2 bb 75 49 a0 ba e6 da 70 3c
       -0.0021842928 -0.0064227306 -0.0012228923 0.014700627
000040 3b 16 84 3c 20 f7 60 3c 81 25 3e 3c eb c8 98 bd
       0.016123882 0.013730794 0.011605621 -0.07460197
000050 a3 93 93 3c 9b af f7 3c 62 86 a8 bd e9 2f 6a 3c
       0.018014735 0.030235102 -0.082287565 0.014293649
000060 43 bf d3 3c d6 a0 53 bd 40 0f 6b 3c 1d 68 e9 bd
       0.025848037 -0.051667057 0.014346898 -0.11396811
000070 64 a5 f5 bd 5c 31 87 be dc 02 53 3d 86 55 5e 3c
       -0.119944364 -0.26404846 0.0515164 0.013570195
000080 ea c5 14 be 32 5b 27 bd a4 a9 4a bd 1e ec a7 bd
       -0.14528623 -0.040858455 -0.04947819 -0.08199333
000090 45 50 37 be 94 9d 99 bd 50 ae 8a bd 69 c6 59 be
       -0.17901714 -0.07500759 -0.06771529 -0.21267094
0000a0 8f b6 84 bd 28 12 99 bb ac 10 10 be fb 03 9f bd
       -0.06480133 -0.004671354 -0.1406886 -0.07764431
0000b0 ea 0e 89 bd b5 a8 2e 3d 14 d6 03 3d 5d 98 7b 3d
       -0.06692298 0.04264136 0.032186583 0.0614246
0000c0 66 db d7 bc 9d 53 b4 bc b7 e9 ab bc 04 9c ae 3d
       -0.026349735 -0.022012526 -0.020985467 0.08525851
0000d0 21 14 c0 3d 80 67 a5 3d b1 80 03 3d 45 96 2e bd
       0.09378839 0.08076382 0.03210515 -0.042623777
0000e0 6f b4 95 bd 1a b5 00 3e d3 70 70 bc aa 44 80 bd
       -0.073098056 0.12569085 -0.014675337 -0.06263097
0000f0 e6 1a 26 3e c0 f4 e9 3d 29 f1 b6 3d e4 af bf 3a
       0.16221198 0.114236355 0.089327164 0.0014624563
000100 94 d5 64 3a 0b 0c a2 3b d3 69 9d bb 51 bd cc bb
       0.00087293354 0.0049452833 -0.004803875 -0.006248154
000110 80 1d 9d bb e2 04 16 3c 73 38 30 3c 58 c2 1d 3c
       -0.0047947764 0.009156438 0.010755646 0.009628855
000120 72 97 60 3c a5 1a 18 3c 54 bd 8f 3c 2b 20 6b 3d
       0.013707982 0.009283696 0.017546333 0.057403725
000130 6a 0b 6a 3d 6e 4a 84 3d cf 27 a6 3c a3 3b bb 3c
       0.05713979 0.06459509 0.020282654 0.022855585
000140 01 df 5e 3c 15 2f d6 bc 8e 74 c0 bc 07 aa 5b bd
       0.013602973 -0.026145497 -0.023493078 -0.053628948
000150 5e ab 83 3d 0d f3 7b 3d 5d a7 7d 3c 06 5d 0a 3c
       0.0642917 0.06151109 0.015481797 0.00844503
000160 e6 6d a6 bb 9c 4e f7 3d 79 d6 7d 3d 06 19 4f 3d
       -0.005079019 0.120755404 0.061972115 0.050560974
000170 25 5d ba 3e 4c cf 35 3d e9 c6 b4 3c 27 f9 f2 3e
       0.3639919 0.044387147 0.022067504 0.47455713
000180 59 f4 10 3e 62 f0 06 3e 83 26 58 3e
       0.14155711 0.13177636 0.21108441

tfeb.1.weight f4 [11]
000000 fe 2b 0f be cf b0 21 3d 05 f4 65 3c e8 72 b5 3c
       -0.13981625 0.03947526 0.01403523 0.022149518
000010 14 0e ae 3d d5 d4 31 be 0d ce 08 3e 4a e3 8a bc
       0.08498779 -0.17366345 0.13359852 -0.016954083
000020 5b 73 1a 3e 49 6e c7 3d 1f 6e 90 3e
       0.15083067 0.09737832 0.28209016

tfeb.1.bias f4 [11]
000000 c2 dc 4d 3e 36 8e 93 3c 43 25 b5 bc 94 10 67 3d
       0.20103744 0.018012147 -0.022112494 0.056412295
000010 bf 8e 07 3e 76 15 8a 3d 7a 80 9e 3d cd 83 22 3c
       0.13238047 0.067423746 0.07739349 0.009919119
000020 80 63 c4 3c cf 33 87 3d 62 6c 95 3e
       0.023973227 0.066016786 0.29184252

tfeb.1.running_mean f4 [11]
000000 31 01 2b be 13 0f e9 3b 25 2f 20 bc cc da 9c bd
       -0.16699673 0.0071123927 -0.009776865 -0.0765892
000010 1b 2e ba bd 88 32 0e 3d f5 7f 0a 3d 44 ea 12 3b
       -0.09090825 0.03471616 0.033813436 0.0022417465
000020 78 bb e8 3c 5b c9 82 3c 8a ac 19 3e
       0.028409705 0.015965154 0.15007225

tfeb.1.running_var f4 [11]
000000 08 b8 51 3d c3 25 1b 39 66 f4 6d 39 e9 e0 60 3c
       0.051200897 0.00014796019 0.00022693127 0.013725498
000010 69 c9 79 3c 4c e4 7a 3b 94 c9 a3 3b eb 5f 25 38
       0.015245774 0.0038283048 0.004998395 3.9428396e-05
000020 4d 70 e1 3a ce fa c0 3a f4 e4 2a 3d
       0.0017199606 0.0014723183 0.041722253

tfeb.4.weight f4 [21, 11, 3, 3]
000000 db 17 5d bd be c9 5b bd ad 95 43 bd d2 a0 b4 bc
       -0.05397783 -0.053659193 -0.047750164 -0.022049341
000010 f8 11 8a bc b8 7d 88 bc 05 99 bc bc 19 13 93 bc
       -0.016854271 -0.01666151 -0.023022184 -0.017953442
000020 79 50 f0 bc 80 ad 41 3c e4 2a 2b 3c a9 05 1c 3c
       -0.029335247 0.011821151 0.010447238 0.009522834
000030 a6 22 b4 3a 02 27 b1 36 21 1c 2a ba 44 16 18 bc
       0.0013743236 5.279552e-06 -0.0006489177 -0.009282652
000040 42 a9 08 bc 06 8a d3 bb eb fb 75 3a 0e 7a bc 38
       -0.008341135 -0.0064556627 0.0009383547 8.987273e-05
000050 f3 1d d3 b8 20 6a 74 bb 54 e1 49 bb 5e 8a 98 bb
       -0.000100668425 -0.00372947 -0.0030804472 -0.0046551665
000060 87 70 3b bb 02 53 af bb 64 01 a0 bb 2a 9f b9 bc
       -0.0028601007 -0.0053504715 -0.0048829783 -0.022658903
000070 7c 83 c0 bc 05 41 46 bc 77 bd ae 39 02 05 ed 3a
       -0.023500197 -0.012100463 0.00033329029 0.0018083157
000080 df 3a 12 3c 5e a9 5d bc 19 ce 89 bc a3 cd 29 bc
       0.008925169 -0.01352915 -0.016821908 -0.010363969
000090 61 d8 32 bd e8 e8 29 bd 05 41 61 bd 95 42 05 3d
       -0.043663386 -0.041481882 -0.054993648 0.0325342
0000a0 a9 60 06 3d 9d 79 d2 3c b9 25 40 3d 8f a2 23 3d
       0.032807026 0.025692755 0.046910975 0.03994995
0000b0 67 42 0c 3d 96 28 64 3d 7b f7 8c 3d 22 6b 97 3d
       0.034243014 0.05570277 0.06883141 0.07393481
0000c0 5c 72 c9 3c ca 3a 10 3d 94 13 18 3d 90 cb 33 3c
       0.024590664 0.035212316 0.037128046 0.010973826
0000d0 bc 18 6c 3c a6 90 93 3c ba b3 27 bd 08 8b 23 bd
       0.014410194 0.01801331 -0.040942885 -0.039927512
0000e0 44 9d 1d bd a0 7c 0b bd 5c d0 fe bc a8 c0 ff bc
       -0.03848006 -0.0340544 -0.031105213 -0.031219795
0000f0 b7 9c 30 bd 72 71 25 bd 0a ff 16 bd 60 f5 c2 3b
       -0.043118205 -0.040391393 -0.036864318 0.005949661
000100 ae f7 ed 3b 8d 2e 03 3c aa 25 62 3b c6 4a 8a 3b
       0.0072621917 0.008006704 0.0034507313 0.0042203395
000110 ec dd 9b 3b 34 0d 2e ba 22 fe 04 b8 a0 5a 28 3a
       0.0047566798 -0.00066395407 -3.1707932e-05 0.00064221956
000120 11 82 0c 3d 98 2e 05 3d 22 ae fe 3c 0e 8b 12 bc
       0.03430373 0.03251514 0.031088892 -0.008944286
000130 ef 68 5c bc 29 a9 7c bc ff 81 23 bd 82 36 1e bd
       -0.0134527525 -0.01542119 -0.039918896 -0.0386262
000140 28 5c 0b bd 18 15 84 3c dd 9e c3 3c 18 a2 b5 3c
       -0.034023434 0.01612334 0.023879463 0.022172019
000150 2c ee c0 bb 72 ef 3f bc 1a 66 9b ba b2 85 fe bc
       -0.0058877673 -0.011714803 -0.001185599 -0.03106961
000160 ba 58 a5 bc a1 01 87 bc f3 fe 93 bd 08 12 81 bd
       -0.02018391 -0.016480269 -0.07226362 -0.06302267
000170 ad df 54 bd b2 28 df bd b7 a5 e8 bd 2d 56 d2 bd
       -0.051971126 -0.10896434 -0.113597326 -0.10270343
000180 02 93 e9 bd 50 4e 02 be c2 50 e2 bd 6c d9 63 bb
       -0.11404993 -0.12725186 -0.110505596 -0.0034767045
000190 40 91 e4 3b f1 58 ed bb 49 13 11 bc 9f 02 ea bc
       0.006975323 -0.0072432687 -0.008854696 -0.028565703
0001a0 20 16 88 bc c8 50 5d bc e1 4c 4c bc b3 f3 70 bc
       -0.016612113 -0.013508029 -0.012469501 -0.01470654
0001b0 ae bb a8 bb 7c 2d a6 bb b9 04 b9 bb 5d 7c 91 ba
       -0.0051493263 -0.00507134 -0.005646315 -0.0011099685
0001c0 e9 6e a4 ba 0d 8d fd ba ed 3a 3f 3b fd 09 08 3b
       -0.0012545261 -0.0019344405 0.002917941 0.0020757907
0001d0 96 e4 d8 3a cb e7 8a 3b 47 ab a4 bc 69 1a 14 bb
       0.0016547616 0.0042390577 -0.020101203 -0.002259875
0001e0 2c c0 67 3c 76 42 96 bc 41 2b a1 3b 5e 6e ec 3b
       0.014144938 -0.018342238 0.0049184863 0.007215305
0001f0 b7 ad 1c bc 2c d8 00 3c 36 a0 54 bc a6 9c 1d bc
       -0.009562901 0.007864039 -0.01297765 -0.009619867
000200 52 db 01 bc 53 96 62 bc f3 e6 1c bc 6f 34 20 3a
       -0.007925825 -0.013829785 -0.009576547 0.0006111329
000210 85 c4 3f bc 9c c2 58 bc ea 79 3a bc 4e ba 3e 3c
       -0.011704569 -0.013229992 -0.011381606 0.011641098
000220 69 ed bf 3c d1 29 4d 3c 35 4f ad bb 89 95 23 3c
       0.023428636 0.012522177 -0.005288983 0.009984382
000230 4b 94 fb bb 63 e5 15 bd 77 6f a1 bc 1f 3e c1 bc
       -0.00767759 -0.036595713 -0.01970647 -0.023589192
000240 50 c9 be bc 3e 72 78 bc 2f 85 cd bc 0c c3 3d bc
       -0.023289353 -0.015163956 -0.025087921 -0.011582147
000250 b8 cb f9 3a d0 68 60 bb 53 e0 97 3b ad a4 d1 3b
       0.0019057905 -0.003424216 0.004634896 0.0063978047
000260 e6 f0 9c 3a 67 1f 1d bc 06 52 06 bc 6a b2 22 bc
       0.0011973649 -0.009590006 -0.008198267 -0.009930233
000270 ea 6e f8 3a 6e fe 30 b9 f0 83 5f 3b 6b 5c a0 ba
       0.0018953953 -0.0001687945 0.003410574 -0.0012234574
000280 0b 08 6b ba 92 c6 da ba 5e d2 e6 ba 80 be c6 ba
       -0.0008965737 -0.0016691259 -0.0017610302 -0.0015162975
000290 3b b0 ed ba bd 9a 93 ba 8a 1d 86 ba 3a b4 b8 ba
       -0.0018134186 -0.0011261326 -0.0010232192 -0.0014091798
0002a0 52 a9 70 3a f8 eb 0e 3a 55 78 89 39 f6 63 7c bc
       0.0009180504 0.0005452032 0.0002622033 -0.015404692
0002b0 3f b2 85 bc 13 ce 98 bc 6d be b3 bb f9 7e cb bb
       -0.016320346 -0.018652951 -0.005485347 -0.0062102047
0002c0 35 63 05 bc f5 3c 14 3c 03 a5 ef 3b 6d 13 bf 3b
       -0.008141329 0.009047736 0.007313372 0.005831173
0002d0 34 f4 6e bc 48 94 e9 bc eb e5 84 bc e6 11 34 bc
       -0.01458459 -0.028513089 -0.016222915 -0.010990595
0002e0 8a e8 15 bc e4 f8 a5 ba ea 22 03 3c 67 c1 70 3b
       -0.00914968 -0.0012662676 0.00800393 0.003673637
0002f0 0c 3c 01 3b b7 ee 8c 3b c2 4a 70 bc 19 33 9c bb
       0.0019719629 0.004300918 -0.014666261 -0.0047668335
000300 4f f2 92 3b c5 5c 68 bc e0 2a 5f bb da e9 b4 bc
       0.004484452 -0.014182274 -0.0034052655 -0.022084165
000310 08 cb d5 bc 1a da 88 bc 5f 98 5c bc 56 ef 40 bc
       -0.02609779 -0.016705561 -0.0134640625 -0.011775812
000320 00 18 94 bc e2 4b 28 bc c1 50 e4 bb ec 64 93 bc
       -0.01807785 -0.010271998 -0.0069676344 -0.01799246
000330 f2 9a b1 bb 83 79 10 3b bf 16 86 bb c1 d5 04 b9
       -0.0054200822 0.0022045083 -0.004092067 -0.0001266813
000340 4f 0e 9d 3a 9d e8 1d 3b f8 41 94 ba 35 7d 71 39
       0.0011982414 0.0024094947 -0.0011311164 0.00023030194
000350 e6 a6 6d 3a de 0f 47 bb 2a fe 2e bb 7a 78 0a bb
       0.00090657023 -0.0030374448 -0.0026701787 -0.0021128939
000360 2e dd 4a bc a2 21 7c bc 8a 52 2c bc 10 b1 37 bc
       -0.012381835 -0.015388878 -0.010517726 -0.011211649
000370 89 21 5b bc 2c e4 06 bc 4c ed 3c bb 82 76 ed bb
       -0.013374695 -0.008233111 -0.0028827963 -0.0072467932
000380 44 36 02 bc 63 31 50 bc 73 d7 93 bc 0e 9d cb bc
       -0.007947508 -0.012707087 -0.01804707 -0.024855163
000390 40 af e0 bc 1b 95 0b bd 7a 78 1f bd 78 70 34 bc
       -0.027427316 -0.034077745 -0.038933255 -0.011013143
0003a0 9e 08 8c bc c8 80 b0 bc 55 20 64 bc f2 93 ab 3a
       -0.017093953 -0.021545783 -0.013923724 0.0013090356
0003b0 8d 0f 9d bc 3d 97 77 bc a5 6a be bb c2 4e f5 bb
       -0.019172454 -0.015111742 -0.005811053 -0.0074861953
0003c0 92 ae 45 3c 09 49 c1 3c b8 52 f7 3b 7e 21 74 3c
       0.012065547 0.023594396 0.0075477026 0.014900563
0003d0 41 db c5 3c 89 09 f3 3c 7e a0 db bc ee 08 c9 bc
       0.0241524 0.029667633 -0.026809927 -0.02454039
0003e0 9f 10 88 bc 9a 21 f1 3b 79 2a 40 3c 63 24 5c 3c
       -0.016609488 0.007358742 0.011728876 0.01343641
0003f0 99 bc 9a bc 66 6e a6 bc 0a 01 dc bc 13 20 ad bc
       -0.018888758 -0.020316314 -0.026855964 -0.021133458

tfeb.5.weight f4 [21]
000000 08 ed 88 3e 7e f2 8e 3d 81 93 ce 3d 62 8b 75 3c
       0.2674334 0.069798455 0.10086728 0.014986845
000010 1e 4a 7c 3c 57 73 4a 3e c6 8d 69 3d 2e 8e ac 3c
       0.01539853 0.19770561 0.05701997 0.02106389
000020 b4 b0 5d 3d bf 7b 27 3d 97 a9 7b 3b 09 d6 0e 3d
       0.054123595 0.040889498 0.0038400644 0.03487209
000030 90 3c 49 3d f5 3d 9a bb 43 70 da 3d 9e 9e 30 3b
       0.049130023 -0.004707093 0.106659435 0.0026950012
000040 20 03 ed 3c 34 1b 18 3e 7f fa 03 3c 12 1c be 3c
       0.028932154 0.14854127 0.008055328 0.023206744
000050 8e cd df 3a
       0.001707481

tfeb.5.bias f4 [21]
000000 c9 1c 07 3e 0a 6e e3 3b 60 17 f1 3b f0 25 2d bc
       0.13194574 0.006940608 0.007357523 -0.010568127
000010 78 ee de 3d b2 4d 5a 3d e0 61 08 3d 9b f2 0a bb
       0.10885328 0.053296752 0.033296466 -0.0021201733
000020 e2 d5 db bc 91 a9 f5 bc d2 12 b8 3d 3e 2c 64 3b
       -0.026835386 -0.029988082 0.08987965 0.003481641
000030 0c f8 84 3d b3 99 03 3c 75 33 cd 3c a5 96 78 bd
       0.06492624 0.00803225 0.02504895 -0.06069054
000040 57 19 88 3b 25 89 4c 3d 0a 57 57 bc b9 19 19 3d
       0.0041534114 0.04993548 -0.01314331 0.037378047
000050 d5 51 63 bb
       -0.0034686227

tfeb.5.running_mean f4 [21]
000000 e0 7f b8 be 0f 6e ad bd 0f ac 1a be fa af 18 3b
       -0.3603506 -0.08468258 -0.15104698 0.002329825
000010 3c 2d 3c be 44 1e 7d be fc 44 8e bd d4 18 83 bc
       -0.1837663 -0.24718577 -0.069467515 -0.01600305
000020 c8 6b b6 3d 8f 59 a2 bc 5b 10 3b 3e a6 65 96 bd
       0.089072764 -0.019818095 0.18267958 -0.07343607
000030 32 6e ca 3d 92 87 5d 3c f7 1c ad bd d7 de 76 3d
       0.09884299 0.013521092 -0.0845279 0.06027111
000040 c6 2d 2d bd ba 97 4e be 4b 19 c3 bb 25 36 0e bc
       -0.04227998 -0.20175067 -0.005953943 -0.008679901
000050 79 a7 1c bd
       -0.038245652

tfeb.5.running_var f4 [21]
000000 95 1b 07 3e c9 d4 30 3b 01 15 5d 3c a6 47 87 39
       0.13194115 0.0026982299 0.013493777 0.0002580259
000010 96 8c 62 3c 1b a2 63 3d 81 e9 a8 3b f7 98 f2 39
       0.013827464 0.055574518 0.005154789 0.00046271805
000020 8e bd fd 3b f6 77 ef 38 cd 03 b3 3c cb 07 b0 3a
       0.007743544 0.000114187525 0.021852398 0.0013430057
000030 fb 35 75 3c 17 cd 72 38 88 ec 02 3c 9d 38 99 3a
       0.014966483 5.78883e-05 0.007990964 0.0011689846
000040 4f 34 6c 3a c4 49 32 3d dc bc 8e 37 4b 67 81 3a
       0.000901048 0.04352738 1.7015664e-05 0.0009872703
000050 2f 56 fa 39
       0.00047747928

tfeb.7.weight f4 [16, 21, 3, 3]
000000 d9 66 37 bc b9 6f 52 bc d6 ee 35 bc b5 bc 78 bc
       -0.011193954 -0.01284402 -0.011104306 -0.01518171
000010 d0 16 8b bc 2c ae a3 bc 02 19 78 bc 6b 69 8c bc
       -0.016978651 -0.019980513 -0.015142681 -0.017140111
000020 05 91 92 bc c7 4b 1e bc ae ef 1d bc 62 1c a1 bb
       -0.017891416 -0.009661621 -0.009639664 -0.0049167136
000030 8f be e0 bc c4 29 a5 bc 1d e8 8d bc 03 e7 24 3b
       -0.027434615 -0.020161517 -0.017322594 0.0025162108
000040 60 b4 ab 3b 56 79 e8 3b 96 5f 29 bc 3d 60 c6 bb
       0.0052400082 0.0070945425 -0.010337731 -0.006053953
000050 eb a7 93 3a 54 c9 93 bc 62 20 55 bc 8b 80 00 bc
       0.0011265253 -0.018040337 -0.013008209 -0.007843147
000060 ce ff b0 ba 08 78 a3 3a b2 fc 60 3a f7 00 e6 ba
       -0.001350397 0.0012471685 0.00085825764 -0.0017547895
000070 e9 4a c9 ba 45 41 29 bb c5 15 9b bb 84 db 0f bc
       -0.0015357408 -0.0025826257 -0.0047328197 -0.008780364
000080 d0 34 b6 bb 36 57 a7 3b 57 3a 92 39 d4 b0 24 bb
       -0.005560495 0.005106832 0.00027890757 -0.0025129812
000090 27 d9 a1 bc 3a 7b 88 bc c3 8f a3 bb 42 cd e6 bc
       -0.019756867 -0.016660322 -0.004991503 -0.028174046
0000a0 5d 49 96 bc df 46 49 ba 5a 49 b1 bb 46 8d c0 3b
       -0.01834553 -0.0007678102 -0.0054103555 0.005876216
0000b0 28 5e aa 3c 93 a6 e1 bc 9d 38 af bc 2c 1b 89 bc
       0.02079685 -0.02754525 -0.0213893 -0.01673659
0000c0 e8 13 e2 bc 2e c1 c7 bc b2 1e ae bc bc 51 22 3b
       -0.027597383 -0.024384107 -0.021254871 0.0024767956
0000d0 16 b6 d2 3a e2 e9 31 3b 9b c7 ec 3c 3f 47 db 3c
       0.0016075994 0.0027147462 0.028903773 0.026767371
0000e0 6e 22 a8 3c e9 33 82 3c ce 96 6f 3c 0b 2e 2b 3c
       0.02052423 0.015893893 0.014623357 0.010447989
0000f0 11 98 ab bb 4a 37 0d bc 10 c9 53 bc 9d 47 b4 bb
       -0.0052366336 -0.008619139 -0.012926355 -0.005501701
000100 02 55 0d bb e8 1f 50 b9 14 3a 30 bc b1 02 85 ba
       -0.0021565561 -0.00019848312 -0.010756034 -0.0010147897
000110 0e a9 40 bb a9 09 00 3a 52 aa 92 3b ae 6e 92 b9
       -0.002939764 0.0004884252 0.00447587 -0.00027929753
000120 ec 82 ad bc d9 ae cf bc 8f 21 ca bc 9e b9 f9 bc
       -0.021180592 -0.025351929 -0.024674205 -0.030484017
000130 d5 c8 fb bc e8 b8 bf bc 23 53 6b bc 17 d2 60 bc
       -0.030735413 -0.0234036 -0.014363083 -0.013721964
000140 8d 5c 47 bc d1 af 55 bb 5a 0e 4b ba 51 8d 0d 3b
       -0.012168062 -0.0032606015 -0.0007745974 0.0021599124
000150 2c 24 24 bc ec f0 87 bb 1f f3 95 3a 80 9d d5 bb
       -0.01001839 -0.004148593 0.0011440254 -0.0065190196
000160 43 a7 91 ba 87 7e fb 3b c1 43 51 bb 98 8a 81 bb
       -0.001111247 0.0076749953 -0.0031931254 -0.0039532892
000170 87 3a 82 bb 5c b5 c0 3b ec 79 38 3b ee f8 6e 38
       -0.003974262 0.0058809947 0.0028148843 5.6975456e-05
000180 6b 4a ab 3a 62 b3 69 bb 0a 51 c9 bb 1f 7f 8c bc
       0.0013068443 -0.00356599 -0.006143694 -0.01715046
000190 56 41 a6 bc e8 b9 4a bc 10 10 99 bc 00 96 8d bc
       -0.020294826 -0.012373425 -0.018684417 -0.01728344
0001a0 ca 98 f4 bb 80 4a 97 bb d4 47 c0 bb 81 0a 74 3b
       -0.007464503 -0.0046170354 -0.0058679376 0.0037237706
0001b0 50 12 62 3c 2a 34 84 3b 8f 7c 43 bb f1 4b 34 3b
       0.013798311 0.0040345388 -0.0029828881 0.0027511085
0001c0 c2 e4 2d bc 87 e9 a0 bc 15 0d 05 3b ea 45 9d bb
       -0.010613622 -0.019642605 0.0020301987 -0.004799594
0001d0 d7 9b 14 bc 54 f0 96 3b 6f 08 0f 3b 4c 0e ce 3a
       -0.009070358 0.004606286 0.0021825095 0.0015720814
0001e0 d9 92 01 bb 4d a0 3d bb 77 5b 9b ba 1f b2 42 3b
       -0.0019771366 -0.0028934658 -0.001185282 0.002970822
0001f0 08 62 ad ba 38 99 45 bb 9b 86 d8 39 c9 ed b5 bb
       -0.0013228068 -0.003015114 0.0004129902 -0.005552028
000200 f3 69 7d ba d7 86 c6 bc f6 cc c5 bc 20 bd 50 bc
       -0.0009666972 -0.024234219 -0.024145585 -0.012740403
000210 ac 3d f0 3b ce 96 21 3c 2b 36 33 3c d8 55 ff bb
       0.0073315706 0.009862615 0.010938208 -0.007792216
000220 d0 74 af ba 69 7e 52 bb 23 0a 10 bc 72 c4 95 bb
       -0.0013386253 -0.0032118803 -0.008791479 -0.0045705372
000230 b5 50 a7 bb 91 fe ef bb 88 87 43 bb 9f d9 b6 ba
       -0.0051060566 -0.007324048 -0.0029835422 -0.0013950354
000240 db c4 6b 3b f8 70 04 3c 43 84 e9 3b 48 f7 30 bb
       0.003597549 0.0080835745 0.0071263625 -0.002700286
000250 21 23 20 bb cd e9 87 39 70 bc 93 3b c6 29 05 bb
       -0.0024435 0.00025923402 0.0045085475 -0.0020319088
000260 f0 db 1a bb d1 f5 20 bc 2d a3 63 bc e3 0a 7b ba
       -0.0023629628 -0.009824232 -0.013893885 -0.00095765124
000270 1f 5f 97 bc f9 a8 8f bc d3 af fb bb dd c8 54 bb
       -0.018477974 -0.017536627 -0.007680872 -0.0032468357
000280 ac 21 0e ba e5 26 d0 3b 93 61 34 3b 64 1e 2d 39
       -0.00054218876 0.006352293 0.002752398 0.00016509887
000290 6d 6f 5a 3a 6e 7a b4 ba e2 f0 9c ba b4 dd 7b 39
       0.0008332644 -0.0013769397 -0.0011973644 0.00024019816
0002a0 97 6d 91 ba bc 4b 36 3a dd 36 bd 3a 28 c7 fc 3b
       -0.0011095282 0.00069540343 0.0014435906 0.007714171
0002b0 6d dc 2e bb 43 68 7d bb b6 3c 54 bc 54 b0 60 bc
       -0.0026681677 -0.003866688 -0.012953928 -0.013713915
0002c0 ed bd 48 bc f1 2a 4e 3a 67 15 57 bb 8d fb 03 bb
       -0.012252313 0.0007864675 -0.0032819153 -0.002013895
0002d0 27 d5 b5 b8 9e e3 3f bb 81 c8 4a 3b 9c 2c f9 ba
       -8.670455e-05 -0.0029279958 0.0030942264 -0.0019010487
0002e0 69 25 94 bb 72 3d 2b ba e4 cd 98 3b 25 15 af 39
       -0.004521061 -0.00065322884 0.004663216 0.00033394355
0002f0 77 8a 80 ba 3c e9 ce 3c 61 ff ca 3c 98 5f c2 3c
       -0.0009806891 0.0252577 0.024779977 0.023727223
000300 b9 d2 4b 3d bf e2 6d 3d 19 9b 5e 3d dc 8a 5e 3d
       0.049761508 0.05807757 0.05434713 0.054331645
000310 99 f4 80 3d 01 23 6f 3d 76 7e e1 3a d8 17 5d ba
       0.06296653 0.05838299 0.0017203826 -0.0008434034
000320 c4 4c b9 3b ba dd 29 3b 60 dd ad 3b 88 4d de 3b
       0.005654903 0.0025919513 0.005305931 0.006784145
000330 a5 44 f4 bb 97 d1 0e bc c8 55 16 bc 51 21 07 3d
       -0.007454472 -0.008716962 -0.009175725 0.032990757
000340 61 f2 04 3d 78 86 ad 3c 67 fc b8 3c c4 4f 71 3c
       0.032457713 0.021182284 0.022581292 0.01472849
000350 63 be 00 3c 27 1a 29 3c 3b 6c 8b 3c 34 f2 8a 3c
       0.007857892 0.010321177 0.017019382 0.016961195
000360 41 28 cf ba 1e fc 80 3b 45 f3 66 39 55 b2 2c bb
       -0.0015804843 0.0039363047 0.00022025134 -0.0026351411
000370 74 eb 8b bb c3 20 b9 bb b2 59 bb bb 5e b8 7c 3b
       -0.0042700116 -0.0056496575 -0.0057174796 0.003856204
000380 04 6f a6 3b 91 f1 05 bc b0 75 79 bc d1 98 a4 bc
       0.005079152 -0.00817527 -0.015225813 -0.0200924
000390 67 a1 d4 3a 63 10 30 bc 70 f2 85 bc 9a 3e 35 3b
       0.0016222418 -0.010746094 -0.016350955 0.0027655722
0003a0 ee f0 a9 bb d6 88 73 bc b7 5f 66 3c c4 7e 8a 3c
       -0.0051861918 -0.014864167 0.014060906 0.01690615
0003b0 56 c3 ba 3b ad 1b a8 3c 9e d4 ec 3c 15 c4 87 3c
       0.0056995554 0.02052101 0.028909978 0.016572991
0003c0 20 d5 15 3d a6 4c 25 3d 19 f2 07 3d 06 63 0e 3d
       0.036580205 0.0403563 0.033189867 0.034762405
0003d0 ce ad 0f 3d 44 9a 1c 3d 68 4d a1 3c f1 da 9e 3c
       0.035077862 0.038233057 0.01969023 0.019391509
0003e0 34 2b a0 3c 37 ab 80 3c d8 8c 7f 3c bd 5e 89 3c
       0.01955185 0.015706642 0.015597545 0.016768808
0003f0 54 fb bb 3b 34 6f 54 3c f4 65 3b 3c 43 19 91 3b
       0.0057367478 0.012965966 0.011437882 0.0044280603

tfeb.8.weight f4 [16]
000000 6b 73 30 bc a3 93 dd 3d 0c 1b ca 3c b3 d5 20 3d
       -0.010769705 0.10819175 0.0246711 0.0392663
000010 8f 58 8c 3a 63 df 6c 3e 27 84 a0 3d 14 dd 06 3e
       0.0010707545 0.2313209 0.07837706 0.13170272
000020 19 13 7a 3d 95 69 07 3c 6b fe 95 bb f9 87 f1 3c
       0.06105337 0.008264919 -0.004577448 0.029483782
000030 a7 cd f1 3d 8b 7e 0e 3d 81 83 3f 3e 3a cf a6 bc
       0.11806803 0.03478865 0.18702509 -0.020362485

tfeb.8.bias f4 [16]
000000 b6 c9 86 3d 14 b2 bc bc b6 ef 3f bd 92 fa 82 bc
       0.06581442 -0.023034133 -0.046859466 -0.015988622
000010 33 9e 15 bd 94 89 72 3d 5c 9e 6a 3c 9b 54 77 bb
       -0.036527824 0.059213236 0.014319982 -0.0037739638
000020 5a 9d 8b bc c8 a0 56 bd 09 9f 53 bc 6d c8 d1 bc
       -0.017042805 -0.052399427 -0.012916335 -0.025608266
000030 e9 90 9e 3c cf 29 e3 bc e7 f8 38 3d 73 4b ac bc
       0.019356208 -0.027729897 0.045159247 -0.02103207

tfeb.8.running_mean f4 [16]
000000 cc 1c 78 bd 5e 59 c1 3d 89 44 72 bc 5f d3 b4 bc
       -0.060574338 0.094408736 -0.014786848 -0.022073446
000010 db 40 12 3c cf ee 1a be a7 8c 88 3d 0c 0e 9d 3d
       0.008926596 -0.15130161 0.06667452 0.07668695
000020 9f 70 49 bd b3 5c 87 3d a3 5c df 3a 33 25 ae bc
       -0.04917967 0.06609478 0.0017041158 -0.021257972
000030 8c ca ae 3d 04 a1 bb bb 4c 8a 14 be bc 8c 81 bc
       0.085347265 -0.0057259817 -0.14505881 -0.015814178

tfeb.8.running_var f4 [16]
000000 c3 a1 1d 3a cc 5f aa 3b 1b cf d8 37 cb 15 91 38
       0.0006013179 0.005199408 2.5845648e-05 6.918198e-05
000010 e8 69 08 38 cc 1f 39 3c f2 4d b5 3a bb 22 2c 3b
       3.252356e-05 0.011299085 0.0013832434 0.0026265818
000020 8d 25 62 3a 6e 49 38 3a 18 29 ac 37 54 58 ef 37
       0.00086268113 0.0007029985 2.0523134e-05 2.8532151e-05
000030 ab 84 45 3b 2c dd 9c 38 5e de f4 3b 5d 09 4d 39
       0.003013889 7.479856e-05 0.0074727973 0.00019553812

tfeb.11.weight f4 [26, 16, 3, 3]
000000 4e a7 e7 38 e9 ca 0e bb 4f 98 ac ba 24 68 42 bb
       0.00011046101 -0.0021788424 -0.001316795 -0.0029664123
000010 2e 6c 35 bb 50 47 f3 bb f5 3d 04 bb ba 94 7b b9
       -0.0027682888 -0.0074242726 -0.002017853 -0.0002399263
000020 b7 b2 a9 ba 49 f2 94 ba 4d b2 47 3b 9b d3 94 ba
       -0.0012946938 -0.001136371 0.0030471266 -0.0011354567
000030 ce 7e 2f 3b ec fd eb 3b 3b b4 d5 3b 60 34 9b bb
       0.0026778462 0.0072019007 0.0065217293 -0.004736468
000040 42 2c 6e bb cd b5 f7 bb 5d 8c 03 3a 46 d9 4d ba
       -0.0036342298 -0.007559514 0.0005018169 -0.00078525057
000050 2c d1 a4 ba ac db d1 ba bd 3b f6 ba b5 9b 2a 39
       -0.0012574545 -0.0016010902 -0.0018786114 0.00016270469
000060 b3 65 8b 38 20 c3 2b ba cc 58 e3 ba 0c ad 95 38
       6.6469795e-05 -0.0006552208 -0.0017345189 7.137106e-05
000070 bb a3 a2 3a 46 36 92 38 94 ea f8 38 7c 2b 6f ba
       0.0012408415 6.971932e-05 0.00011869255 -0.0009123606
000080 06 0b bb ba 08 38 43 b9 c9 22 f0 3a d5 f6 a7 3a
       -0.0014270253 -0.00018617522 0.0018320914 0.001281465
000090 d9 7a ff ba 24 73 93 39 01 69 67 bb 9e 1c f9 ba
       -0.0019491568 0.0002812381 -0.003531039 -0.0019005721
0000a0 e0 28 57 3a 24 d4 23 ba 58 2b ac bb f0 43 36 bb
       0.000820769 -0.0006249568 -0.0052541904 -0.002781149
0000b0 c3 f9 b7 bb a3 95 f7 bb 99 f3 03 bc f3 39 01 bc
       -0.0056144907 -0.00755568 -0.008053684 -0.007887351
0000c0 6a 7a d2 bb 94 95 59 bb 09 14 c7 bb 37 99 58 3b
       -0.0064232843 -0.0033200728 -0.0060753864 0.0033050308
0000d0 1b 3b 82 3b e2 72 3d 3b e0 9e e7 3a a1 09 98 bb
       0.003974331 0.0028907587 0.001767125 -0.0046398197
0000e0 4f 0d 03 bb b6 72 dd 3b 2d bc fb 3a 95 c2 ab 3b
       -0.0019996946 0.0067580594 0.0019205861 0.005241702
0000f0 94 e7 b7 3a 2f ad dc 3a 06 10 61 3b c3 fc 65 bb
       0.0014030808 0.0016836281 0.0034341826 -0.0035093285
000100 8e c4 89 bb a0 24 80 bb 77 eb 81 3a bb 74 81 ba
       -0.0042043393 -0.003910616 0.0009912093 -0.0009876707
000110 ca 8f eb 3a ab 8e ae 3b b8 f1 6b bb fc f6 01 3b
       0.001797193 0.005327066 -0.003600223 0.0019831052
000120 d2 a2 08 3a c2 26 42 3a 00 cb a5 ba be 05 aa b9
       0.00052122504 0.0007406288 -0.0012649 -0.00032429205
000130 9f 67 1e ba 81 7d 2b bb d6 e4 33 ba 67 0c 26 bb
       -0.00060426624 -0.0026167335 -0.00068624073 -0.0025336982
000140 4f 97 85 bb be 53 4f bb d1 cc 44 3b b2 bb 1e b9
       -0.0040768753 -0.0031635608 0.0030029307 -0.00015137976
000150 b0 b3 38 3b 06 f4 c2 3b 35 74 83 3b cd 01 ea 3b
       0.0028183274 0.0059495 0.0040116557 0.007141328
000160 4c 45 44 3c 9c 96 b2 3a 97 dc 83 bb ae e8 82 bb
       0.011979412 0.0013625207 -0.004024099 -0.0039950227
000170 c9 40 7b bb bf 46 4b ba 24 f0 11 bb 1f 96 60 bb
       -0.0038338176 -0.00077543774 -0.002226838 -0.0034269167
000180 8c ea 33 3b cf b2 40 3a f9 5d de ba 7c 80 cd ba
       0.0027453033 0.00073508633 -0.0016965262 -0.001567855
000190 6b ce 74 ba d6 a6 f8 ba 90 15 b4 b8 06 ec d0 3a
       -0.000933862 -0.001897062 -8.587085e-05 0.0015939481
0001a0 5f 78 f5 ba 6b f1 34 ba d7 d9 75 ba ee d3 89 bb
       -0.001872789 -0.0006902429 -0.0009378469 -0.004206172
0001b0 d8 38 32 bb 79 36 cb 3a af c6 05 bc eb 5d 9f 3b
       -0.0027194526 0.0015503905 -0.008165046 0.004863491
0001c0 7c 51 e7 3b f4 f9 39 bb d0 06 83 3c 75 11 03 3c
       0.0070592742 -0.0028377743 0.01599446 0.007999768
0001d0 75 14 ce ba af 54 15 bb 87 3b 80 bb af a9 93 bb
       -0.0015722649 -0.002278607 -0.003913346 -0.004506312
0001e0 cb 2d af 3a 11 f4 9d 3a 64 c3 88 3b f6 bb 27 ba
       0.0013365088 0.0012050887 0.004173683 -0.0006398553
0001f0 10 bb 0f 3b 44 dc 84 3b d9 95 0f bc 90 34 ad bb
       0.0021931566 0.004054578 -0.008763754 -0.005285807
000200 96 19 2d bc 21 3e 47 bc aa cb 35 bc be c3 67 bc
       -0.010565182 -0.012160809 -0.011095921 -0.01414579
000210 21 17 d4 b9 18 20 00 bc 56 a3 f3 bb 9d 67 a4 3a
       -0.00040453023 -0.007820152 -0.0074352426 0.0012543086
000220 25 14 71 3b 3d eb ab b9 ac 72 ad 3b ea 02 cf 3b
       0.0036785689 -0.00032790928 0.005293211 0.006317486
000230 bd e8 38 3b d9 68 9a 3b d4 79 97 3a 9b bf 73 3a
       0.0028214895 0.004712206 0.0011556693 0.0009298266
000240 23 99 49 bc 6e 78 1c bc 89 cf 65 bb da 1a ea 3a
       -0.012304577 -0.009550197 -0.0035066328 0.0017860786
000250 e8 3e 4d bb f1 c3 ae 3a 98 b1 d0 ba 80 d7 b2 bb
       -0.0031318013 0.0013333542 -0.0015922068 -0.0054578185
000260 1f 9c bb 3b ab 19 7a 3a 93 b2 44 3b a4 a1 a0 bb
       0.005725398 0.0009540568 0.0030013665 -0.0049020816
000270 f1 05 90 bc 5f 1e 9a bc bb 61 ae bc bd 41 e9 3b
       -0.017580958 -0.01881331 -0.021286836 0.0071184323
000280 50 58 0b 3c 7a 35 54 3c 8a 74 65 bb 68 25 24 3a
       0.008504942 0.012952203 -0.003501209 0.00062616775
000290 ba 5a 3d bb ea cb 97 3a a3 90 c3 3b 0a 70 af 3a
       -0.0028893189 0.0011581157 0.00596817 0.0013384831
0002a0 64 a5 b8 ba 92 77 1a 3b 35 b8 e8 b9 bd e6 f3 ba
       -0.0014087376 0.0023569805 -0.00044387733 -0.0018608194
0002b0 4c eb b7 b9 8e e7 32 bb 22 fe ae 3b 11 a6 77 3b
       -0.0003507979 -0.0027298662 0.0053403536 0.0037788192
0002c0 1c b5 47 3a 5c 96 77 bb 99 3c e0 ba ac ea fa ba
       0.0007618235 -0.003777883 -0.0017107903 -0.0019143424
0002d0 ce a8 da ba ea 5e 81 bb 9c 57 bd bb 44 29 b7 bb
       -0.0016682388 -0.003948082 -0.005778266 -0.005589636
0002e0 c1 69 a4 bb 97 59 f4 bb 55 1c 81 b9 52 db 3a 3b
       -0.0050174897 -0.007456969 -0.00024625906 0.0028512073
0002f0 89 a7 8b 3a f3 1d 17 bd e8 35 f7 bc ce c1 26 bd
       0.0010654788 -0.036893796 -0.030177072 -0.04071217
000300 6b fd ea bb 1f fa cc 3b 16 25 7c b9 f2 4f 3e bc
       -0.007171323 0.0062554027 -0.00024046408 -0.01161574
000310 b8 a2 e9 b9 ff bb 64 ba 16 3e 6c 3c 56 32 2a 3c
       -0.00044562458 -0.00087255234 0.014419099 0.010387978
000320 30 63 88 3c 08 11 ac 3b 89 33 59 bb 66 31 21 3b
       0.016648859 0.0052510537 -0.003314229 0.0024596094
000330 51 3b 45 3b 95 8f 79 bb a3 9f dd 3b 59 26 8d 3c
       0.003009517 -0.0038079966 0.006763415 0.0172302
000340 6f fe 95 3c 3b 55 92 3c 86 e8 64 bb b7 18 aa ba
       0.0183098 0.017862907 -0.0034928634 -0.0012977336
000350 d7 66 46 3a f9 5d 9c 3c 83 78 b5 3c 90 c6 bb 3c
       0.0007568425 0.019087778 0.022152191 0.02292183
000360 a8 b8 86 b9 21 85 ab bb ce e9 8b bb 65 bf 0b bb
       -0.0002569605 -0.005234376 -0.004269815 -0.0021323797
000370 fe e9 d1 bb 65 68 25 bb bf 5e fa 3a 06 ff 83 3a
       -0.006406068 -0.0025239226 0.0019101723 0.001007051
000380 20 f0 1e 3a 22 37 23 3c ff 4e a3 3b dc c0 01 3c
       0.0006063003 0.009961875 0.0049837823 0.007919516
000390 c0 9c 90 bb 6c da 97 bb 00 8b b5 bb 54 3b 14 bc
       -0.0044132173 -0.004634192 -0.0055402517 -0.009047348
0003a0 0c c7 89 b9 69 4c 18 bc a7 1a 05 bc d7 c4 47 bb
       -0.00026278978 -0.009295561 -0.00812403 -0.0030482316
0003b0 4b 65 20 ba bc 90 dd bb 12 93 5b ba d1 60 af 3a
       -0.00061186095 -0.0067616384 -0.0008376102 0.0013380294
0003c0 ee e9 26 bb 5e d9 7f ba 2e c3 b6 ba 9f 55 7a 3b
       -0.0025469023 -0.0009759868 -0.0013943666 0.0038198007
0003d0 3e a9 74 ba be 9e 2a bb f3 6a 95 3b 2b 57 c7 ba
       -0.00093330804 -0.002603456 0.0045598685 -0.0015208473
0003e0 3a 6a 2e b9 c4 21 02 3b 2c ee 32 ba bd ae 18 3a
       -0.00016633506 0.0019856552 -0.00068256515 0.0005824378
0003f0 f5 17 8b 3c b0 38 68 3c 13 6a 70 3c b7 5c db bb
       0.016979197 0.014173672 0.014673728 -0.006694402

tfeb.12.weight f4 [26]
000000 81 65 67 3c c5 9d c2 3d 2e 85 a1 3d 53 3f 57 3d
       0.0141233215 0.095027484 0.0788673 0.052550625
000010 3d 5c 05 3d e8 02 5b 3d dc 66 00 3e 28 26 04 3d
       0.03255867 0.05346957 0.12539238 0.03226295
000020 34 a6 4c 3d 8e 7d 65 3d fb 33 2d 3d ad 7e d5 3c
       0.04996319 0.05602794 0.0422859 0.02606138
000030 80 70 fa 3c 42 82 d0 3c 54 a4 d2 3d 88 97 21 3d
       0.030571222 0.025452737 0.10285249 0.039451152
000040 c1 1f 5a 3d fa 55 74 3c 01 83 30 3d 25 51 17 3d
       0.05325294 0.014913077 0.043093685 0.03694262
000050 15 e7 be 3d 29 4a 77 3d 85 b3 c5 3d fe 36 0c 3e
       0.09321419 0.06037346 0.09653381 0.13692853
000060 86 67 f3 3c d5 44 ea 3c
       0.02971245 0.028597275

tfeb.12.bias f4 [26]
000000 2e ca 3d bc bd e2 f0 3c 9f e3 22 3b 1b e6 b5 bc
       -0.011583848 0.029404992 0.002485491 -0.02220445
000010 36 80 8a bc 4c db ad 3a d9 dd 85 3c 30 6f 7f bc
       -0.016906839 0.0013264208 0.016341137 -0.015590474
000020 eb f4 2f bc e7 33 45 bb 15 31 36 3c 9b da 75 bc
       -0.010739545 -0.003009075 0.0111201005 -0.015005733
000030 d6 61 94 bb c5 84 45 bc c5 ae 9d 3d b6 fe 70 3d
       -0.0045282645 -0.0120555805 0.0769935 0.05883666
000040 8d 19 f6 3c a1 69 b6 bc c5 8b a1 3c 93 5b a4 3c
       0.03004148 -0.022267165 0.019719968 0.020063197
000050 86 4e 9e 3c 17 6d 18 3d da 3a 9f bc 02 4d 7c bc
       0.019324552 0.03721341 -0.019437242 -0.0153992195
000060 bd 1a 5f bb 58 2d 8a 3c
       -0.0034043037 0.016867325

tfeb.12.running_mean f4 [26]
000000 0b 18 50 bc 5a b5 04 bd 9d c9 f1 3b 34 71 12 3b
       -0.012701045 -0.032399513 0.0073787705 0.0022345306
000010 3f f1 88 bc c0 d2 0d bc 28 d3 c7 3b fb d4 1d bd
       -0.016716598 -0.008656204 0.00609817 -0.038533192
000020 15 96 e0 ba 5e 17 db 3a dd 4c 8f 3c 26 62 bf bc
       -0.0017134572 0.0016715338 0.017492706 -0.02336223
000030 f2 b2 e0 bb ee 0a dd bb aa 7a 1e 3d 9e b3 aa 3c
       -0.0068572694 -0.0067456877 0.0386912 0.020837601
000040 56 c5 2e 3c 8e 87 00 bc 41 24 f4 3b e0 a5 8b 3c
       0.010667166 -0.007844819 0.007450611 0.017046869
000050 80 e1 63 bc 2b b8 f0 bc b6 1b a7 ba 92 c2 f9 bb
       -0.013908744 -0.029384693 -0.0012749347 -0.0076220715
000060 85 84 4f bd e6 13 fc bb
       -0.05066349 -0.0076928018

tfeb.12.running_var f4 [26]
000000 a4 6a 8f 39 74 ad 00 3b bc d9 37 3b ed 89 43 3a
       0.0002735454 0.0019634636 0.0028053364 0.0007459212
000010 21 2e 0c 39 fd 5c 28 39 2f 88 87 3b db 4c c6 3a
       0.00013368625 0.0001605637 0.0041361074 0.0015129106
000020 b3 b7 96 3a 39 c2 53 3a 54 86 eb 39 92 7c ff 38
       0.0011498838 0.00080779527 0.00044922775 0.000121825506
000030 57 c6 94 38 2c 2c e1 37 24 8d 1d 3b 9a 7c 1c 3b
       7.0941336e-05 2.684266e-05 0.0024040425 0.002387798
000040 c9 58 58 3a 8a 91 83 38 bb 4b fa 39 b1 17 80 3a
       0.0008252976 6.2736755e-05 0.0004774014 0.0009772686
000050 ee 2e c9 3a d8 5d ae 3a 7d 7a 48 3b c6 ac 33 3c
       0.0015349069 0.0013303114 0.0030590587 0.010966485
000060 43 d1 fb 3a 33 22 c9 39
       0.0019212145 0.00038363188
