refine_codes/retrained_models_after_second_stage_pruning/after_second_pruning_time_2024022014_prunratio0.85/retrained_model_after_second_pruning_0.83ratio_acc87.5_34th_epoch_20240220141540.pt (torch, 408438 bytes, 62 tensors)

sfeb.0.weight f4 [6, 1, 1, 9]
0.095719896 0.12785171 0.07200471 0.36969334 -0.078498036 -0.14413968 -0.21310116 -0.083555356
-0.05286143 -0.02470475 0.0273004 0.08499025 -0.1510984 0.037803844 -0.44799316 -0.20841406
0.19306304 0.32210138 0.12044979 0.02870223 0.019429596 -0.101474896 0.0029756872 -0.096199594
0.078121856 -0.020125322 -0.2451272 0.28587124 -0.065189324 -0.044053756 -0.19629371 -0.04730163
-0.14102235 0.017054297 0.24720788 -0.1888004 -0.24688683 -0.27090126 0.023171574 0.3042914
0.042177714 0.1398208 -0.12181273 0.03328901 0.055928487 0.13829377 0.09785208 -0.1367996
0.1738567 -0.44101894 0.32553145 0.020436848 -0.51449955 0.19439912
00000000: cb08 c43d 8feb 023e 3577 933d 7248 bd3e
00000010: 94c3 a0bd 5a99 13be 3137 5abe 121f abbd
00000020: 3a85 58bd 9e61 cabc 17a5 df3c 5e0f ae3d
00000030: 8ab9 1abe 34d8 1a3d 5c5f e5be 7f6a 55be
00000040: 51b2 453e 79ea a43e 61ae f63d f020 eb3c
00000050: d12a 9f3c 12d2 cfbd bf03 433b 4b04 c5bd
00000060: 5afe 9f3d dcdd a4bc a002 7bbe b75d 923e
00000070: fb81 85bd b671 34bd 3801 49be 5bbf 41bd
00000080: 2a68 10be 74b5 8b3c 1024 7d3e e454 41be
00000090: e7cf 7cbe 92b3 8abe 50d2 bd3c 15cc 9b3e
000000a0: 8ac2 2c3d 2f2d 0f3e f478 f9bd 0f5a 083d
000000b0: 4515 653d e29c 0d3e ac66 c83d 3215 0cbe
000000c0: 7e07 323e 3ccd e1be 0fac a63e 2d6b a73c
000000d0: 3eb6 03bf 9010 473e

sfeb.1.weight f4 [6]
0.4562541 0.43965057 0.20257904 0.21129777 0.22629727 0.2185348
00000000: 239a e93e e119 e13e e170 4f3e 715e 583e
00000010: 79ba 673e 96c7 5f3e

sfeb.1.bias f4 [6]
0.07844953 0.06305234 -0.014200458 0.28489643 0.31082487 0.35501245
00000000: 26aa a03d 9621 813d 0aa9 68bc f2dd 913e
00000010: 7024 9f3e 31c4 b53e

sfeb.1.running_mean f4 [6]
0.00016718614 -0.00023572356 -0.00046974805 -0.00025604956 -7.2265895e-05 -0.00030589564
00000000: b04e 2f39 902c 77b9 8448 f6b9 643e 86b9
00000010: 758d 97b8 9e60 a0b9

sfeb.1.running_var f4 [6]
0.008520504 0.012159484 0.0026243348 0.005235335 0.008642908 0.0033210563
00000000: 9699 0b3c 9338 473c 08fd 2b3b 2c8d ab3b
00000010: fc9a 0d3c 14a6 593b

sfeb.3.weight f4 [32, 6, 1, 5]
-0.059226874 -0.021598643 -0.016690822 -0.016594995 -0.010366583 -0.030978551 -0.034578376 -0.0075791203
-0.027322276 -0.018023219 0.010178358 0.030649798 0.042087402 0.091603205 0.059977926 -0.029268837
-0.029744439 -0.031359877 0.0077733207 -0.0040195556 0.008732791 0.021569453 0.015334673 -0.050556596
0.008316223 -0.042254508 -0.0059377505 -0.0054629515 -0.0021929038 -0.021552414 -0.13308944 -0.046122745
-0.016711341 -0.049131554 -0.031578492 -0.06819717 -0.061360884 -0.0026004773 0.024538966 -0.0758879
0.08309509 0.09323438 0.08453649 0.112044364 0.121895246 -0.079939045 -0.10249743 -0.0648537
-0.080256365 -0.035411604 0.05700846 0.07393173 0.040369645 0.033629116 0.05841328 -0.056198858
-0.03895904 0.011571094 -0.020957783 -0.0090841 -0.09940569 -0.0731304 -0.046608716 -0.080026254
-0.051183544 -0.008870282 -0.05023306 -0.018195655 -0.09793532 -0.1551813 -0.045164715 0.040884253
0.038616832 0.08830358 0.11561998 -0.0882454 -0.034117147 -0.030423902 -0.036316156 -0.041777674
0.090442576 0.035262153 0.030496662 0.030562814 0.024930356 -0.01677243 -0.00063571153 -0.011568311
-0.025496207 -0.009036939 -0.031212166 -0.023111476 -0.0020576068 -0.022254981 -0.05760424 -0.06547102
-0.041720703 -0.03874094 -0.048170056 -0.0363739 -0.21709521 -0.16197433 -0.10661235 -0.079459086
-0.06642624 0.14077657 0.09403811 0.070733346 0.045729835 0.038990363 -0.07080376 -0.0918179
-0.028303048 -0.067523405 -0.053257868 -0.009079954 -0.0052631153 -0.024870245 -0.022489365 -0.01002568
0.0511312 0.031044932 -0.03327672 -0.015375638 0.043540742 -0.0802869 -0.080249526 -0.008859141
-0.053082187 -0.11492159 -0.060058635 -0.048576333 -0.061907522 0.009207896 0.048555803 0.120439045
0.04712339 0.037990417 0.03163589 -0.0002851693 -0.078683294 -0.055660777 -0.05719272 -0.022538416
-0.042627484 -0.0059694727 0.0057222173 -0.011905 -0.038564082 -0.034604363 0.02577569 0.033194814
0.015477838 -0.007595942 -0.007652707 -0.074410565 -0.102600634 -0.0718879 -0.081790045 -0.08300124
-0.071043536 -0.0023346948 0.0360125 0.08421616 0.07641451 0.06401608 0.04979871 0.045605157
-0.006226072 -0.04559705 -0.05482674 -0.09327844 -0.06451593 -0.071934946 -0.04637216 -0.027926976
-0.015802022 -0.017561814 -0.01990446 -0.0018975832 0.007669849 -0.035611585 -0.021161187 -0.037483346
-0.04337473 -0.038942788 -0.020146564 -0.04477459 0.015961709 -0.0013218117 -0.003991006 -0.00907086
-0.041085042 -0.061454106 -0.057019375 0.068343796 0.043501634 0.0042579914 -0.016105149 -0.012851303
-0.04714188 -0.045989636 0.0037508977 0.013263034 -0.014047584 -0.010996968 -0.027569596 -0.011296825
-0.0028846164 0.006543946 -0.096368365 -0.065446965 -0.046183806 -0.059332293 -0.0058660577 0.00038938882
0.0084518595 0.022062179 -0.048540477 -0.06418001 -0.05695687 -0.048447225 -0.026781173 0.014898301
0.1029269 -0.08285136 -0.021336824 -0.0034750716 0.020180572 0.018678028 0.033985402 -0.003935846
-0.020660253 -0.004335079 0.009730469 0.015148257 0.014166668 -0.0012892612 0.012494803 -0.039791316
0.040281314 0.0075572086 -0.031325243 -0.05567405 -0.014590325 0.018734446 0.0041306545 0.005742173
0.036109354 0.03869299 -0.031690624 -0.01305808 0.029205386 0.022723123 0.0015652364 -0.051469967
00000000: e197 72bd a3ef b0bc 31bb 88bc 3af2 87bc
00000010: 9ad8 29bc bbc6 fdbc 0ea2 0dbd 455a f8bb
00000020: f7d2 dfbc 6ea5 93bc 21c3 263c 4915 fb3c
00000030: d763 2c3d 769a bb3d 6aab 753d 33c5 efbc
00000040: 9caa f3bc 3773 00bd 57b7 fe3b 7ab6 83bb
00000050: fb13 0f3c 6cb2 b03c 483e 7b3c 6f14 4fbd
00000060: c440 083c 1013 2dbd 7691 c2bb 8f02 b3bb
00000070: d2b6 0fbb b08e b0bc 9948 08be 34eb 3cbd
00000080: 39e6 88bc 2b3e 49bd 7358 01bd f5aa 8bbd
00000090: 8d55 7bbd c56c 2abb f105 c93c 1e6b 9bbd
000000a0: c22d aa3d abf1 be3d 7821 ad3d 8477 e53d
000000b0: 37a4 f93d 15b7 a3bd 2cea d1bd 04d2 84bd
000000c0: 735d a4bd c20b 11bd b481 693d 8569 973d
000000d0: a45a 253d afbe 093d c342 6f3d c630 66bd
000000e0: 8493 1fbd b094 3d3c a8af abbc 7ad5 14bc
000000f0: 3695 cbbd 64c5 95bd c8e8 3ebd cee4 a3bd
00000100: d6a5 51bd a954 11bc 2ec1 4dbd 0e0f 95bc
00000110: 5092 c8bd d9e7 1ebe a3fe 38bd 3f76 273d
00000120: af2c 1e3d 82d8 b43d 2bca ec3d 01ba b4bd
00000130: 6cbe 0bbd 8c3b f9bc 40c0 14bd 111f 2bbd
00000140: f539 b93d 0c6f 103d 23d4 f93c de5e fa3c
00000150: bf3a cc3c 5666 89bc e1a5 26ba 0389 3dbc
00000160: 6cdd d0bc ab0f 14bc a8b0 ffbc 4754 bdbc
00000170: ead8 06bb 1450 b6bc 6cf2 6bbd ac15 86bd
00000180: 54e3 2abd d2ae 1ebd f74d 45bd ccfc 14bd
00000190: 354e 5ebe 99dc 25be 9357 dabd 72bb a2bd
000001a0: 7b0a 88bd bc27 103e 0d97 c03d a5dc 903d
000001b0: 354f 3b3d 5cb4 1f3d 9001 91bd 060b bcbd
000001c0: cbdb e7bc b649 8abd ec24 5abd 16c4 14bc
000001d0: 3676 acbb afbc cbbc 9e3b b8bc c042 24bc
000001e0: f36e 513d f151 fe3c 2c4d 08bd 1aea 7bbc
000001f0: c757 323d 756d a4bd dd59 a4bd ee25 11bc
00000200: b56c 59bd 035c ebbd 0b00 76bd faf7 46bd
00000210: be92 7dbd b7dc 163c 73e2 463d bfa8 f63d
00000220: 7504 413d d79b 1b3d a394 013d c782 95b9
00000230: b524 a1bd 8efc 63bd ea42 6abd 7ca2 b8bc
00000240: 289a 2ebd 919b c3bb 7081 bb3b 300d 43bc
00000250: 5ff5 1dbd 4ebd 0dbd 8a27 d33c 49f7 073d
00000260: c296 7d3c 61e7 f8bb 8fc3 fabb 9164 98bd
00000270: 4820 d2bd f739 93bd 8a81 a7bd 8efc a9bd
00000280: 467f 91bd ae01 19bb d881 133d 8679 ac3d
00000290: 367f 9c3d dd1a 833d bbf9 4b3d 79cc 3a3d
000002a0: 1404 ccbb f9c3 3abd 0192 60bd c408 bfbd
000002b0: ee20 84bd a152 93bd bcf0 3dbd 1dc7 e4bc
000002c0: 3e73 81bc cbdd 8fbc ae0e a3bc 54b8 f8ba
000002d0: 5b53 fb3b 74dd 11bd 3a5a adbc 2388 19bd
000002e0: b3a9 31bd 7982 1fbd 680a a5bc 8f65 37bd
000002f0: 21c2 823c a440 adba fcc6 82bb f29d 14bc
00000300: ca48 28bd 4db7 7bbd 268d 69bd d5f7 8b3d
00000310: c52e 323d 9f86 8b3b f2ee 83bc 468e 52bc
00000320: d817 41bd a15f 3cbd 9fd1 753b 324d 593c
00000330: d627 66bc a02c 34bc a2d9 e1bc 5116 39bc
00000340: d50b 3dbb 996e d63b c75c c5bd 0f09 86bd
00000350: 3b2b 3dbd 6b06 73bd 0f38 c0bb e226 cc39
00000360: ab79 0a3c bebb b43c 61d2 46bd cf70 83bd
00000370: 9b4b 69bd 9970 46bd 3164 dbbc 0118 743c
00000380: 57cb d23d f9ad a9bd 90ca aebc 07be 63bb
00000390: ba51 a53c aa02 993c 4734 0b3d 45f8 80bb
000003a0: b13f a9bc 470d 8ebb 8c6c 1f3c 6530 783c
000003b0: 501b 683c 6dfc a8ba 01b7 4c3c 38fc 22bd
000003c0: 05fe 243d 76a2 f73b e64e 00bd 790a 64bd
000003d0: 420c 6fbc fb78 993c 715a 873b d728 bc3b
000003e0: 67e7 133d 8a7c 1e3d 07ce 01bd 8ff1 55bc
000003f0: 2240 ef3c d825 ba3c 9e28 cd3a 2cd2 52bd

sfeb.4.weight f4 [32]
0.10554442 0.31558573 0.40021354 0.4689148 0.22407007 0.27911997 0.11468258 0.12893485
0.01887516 0.2156811 0.31241262 0.31586438 0.19540422 0.24539416 0.30324343 0.34570298
0.14020379 0.23383212 0.37679094 0.31225923 0.1737855 0.30408382 0.35615826 0.2222263
0.17161101 0.293172 0.30335534 0.28057188 0.19836155 0.1881809 0.22202843 0.051522728
00000000: ac27 d83d 7494 a13e cae8 cc3e 9a15 f03e
00000010: a072 653e d0e8 8e3e b3de ea3d 7f07 043e
00000020: 14a0 9a3c 82db 5c3e 8cf4 9f3e fab8 a13e
00000030: 0b18 483e 9b48 7b3e b942 9b3e fbff b03e
00000040: 9591 0f3e b071 6f3e beea c03e 71e0 9f3e
00000050: d3f4 313e e0b0 9b3e 605a b63e 4b8f 633e
00000060: ccba 2f3e a41a 963e 6451 9b3e 1ea7 8f3e
00000070: 4a1f 4b3e 7eb2 403e 6c5b 633e 7f09 533d

sfeb.4.bias f4 [32]
-0.042954706 -0.038796995 -0.102029145 -0.06351954 -0.073427394 -0.04415589 -0.02121497 -0.057616852
0.023907766 -0.039427113 -0.015192542 -0.0054434002 -0.01000526 0.050914064 0.055040795 0.05590009
0.014983455 0.03409297 0.05572284 0.040942814 0.025180502 0.019378033 0.023451023 -0.05174837
0.013256288 -0.06440174 -0.08523315 -0.03748267 -0.039249007 -0.040838104 -0.03931026 0.002920428
00000000: 46f1 2fbd 99e9 1ebd a8f4 d0bd 8816 82bd
00000010: 1a61 96bd cedc 34bd 04cb adbc a6ff 6bbd
00000020: 38da c33c 537e 21bd 24ea 78bc 8d5e b2bb
00000030: 1aed 23bc 448b 503d 7572 613d 7ef7 643d
00000040: 2a7d 753c 12a5 0b3d a23d 643d a7b3 273d
00000050: 5747 ce3c aebe 9e3c 5c1c c03c 19f6 53bd
00000060: e730 593c 0fe5 83bd b88e aebd 6e87 19bd
00000070: 91c3 20bd db45 27bd cc03 21bd a764 3f3b

sfeb.4.running_mean f4 [32]
-0.08167233 -0.11393243 -0.118380055 -0.09340933 -0.08583917 -0.15647991 -0.061775766 -0.07287024
-0.040757287 -0.14999726 -0.051876977 -0.073273584 -0.0583034 -0.0074735363 -0.046170227 -0.004065083
-0.11349924 -0.07758296 -0.022354467 -0.028338417 0.01273648 -0.015579368 -0.047772616 -0.08262881
0.023400363 -0.064159274 -0.12406233 -0.068216056 -0.114857085 -0.09207747 -0.049247533 -0.008794034
00000000: d343 a7bd 6855 e9bd 3e71 f2bd 644d bfbd
00000010: 72cc afbd 453c 20be 9608 7dbd fe3c 95bd
00000020: 1df1 26bd e298 19be f47c 54bd 7610 96bd
00000030: 8ccf 6ebd 91e4 f4bb fe1c 3dbd 6334 85bb
00000040: 4a72 e8bd d1e3 9ebd b720 b7bc f825 e8bc
00000050: abac 503c 9b40 7fbc 38ad 43bd 4b39 a9bd
00000060: 1eb2 bf3c f065 83bd 6414 febd dcb4 8bbd
00000070: 313a ebbd 1d93 bcbd c8b7 49bd da14 10bc

sfeb.4.running_var f4 [32]
0.0029568567 0.009478105 0.016362743 0.012144304 0.005333635 0.0069392333 0.003766382 0.0066524744
0.0027089515 0.009904743 0.0107752895 0.0087246355 0.0098939 0.010996415 0.015065767 0.029183067
0.003854441 0.00878382 0.028539125 0.026307775 0.005357316 0.018424535 0.010591927 0.0076248744
0.008243495 0.012493134 0.009232251 0.01175993 0.008454905 0.0058175526 0.0052904147 0.00079825585
00000000: d3c7 413b 0e4a 1b3c 290b 863c e7f8 463c
00000010: c6c5 ae3b 8262 e33b 68d5 763b 00fd d93b
00000020: aa88 313b 8147 223c d78a 303c c6f1 0e3c
00000030: 061a 223c 4f2a 343c 68d6 763c 5411 ef3c
00000040: ca9a 7c3b 03ea 0f3c e2ca e93c 6783 d73c
00000050: 6d8c af3b 0def 963c c389 2d3c 15da f93b
00000060: b90f 073c 00b0 4c3c de42 173c b9ac 403c
00000070: 7186 0a3c 2ba1 be3b 375b ad3b 0b42 513a

tfeb.0.weight f4 [11, 1, 3, 3]
0.30314815 -0.37849686 -0.27365723 -0.14513873 -0.071436286 -0.04962892 -0.11793988 -0.08613484
-0.074768 0.011455438 0.012386838 0.014432605 0.007586358 0.0049204915 0.0074166893 0.028366212
0.026278827 0.025417952 0.042676933 -0.2480252 0.06132081 0.10668647 -0.2737698 0.050169684
0.09007887 -0.17152193 0.05001419 0.10093879 0.103563726 -0.22035414 0.11303256 0.109533414
-0.20367087 0.07108364 0.051437348 -0.06230009 -0.27979803 0.029860377 0.076450236 -0.29267704
0.10121377 0.2688106 -0.12036387 0.038367853 0.08835604 0.05518164 0.09340642 0.063374594
-0.0281029 0.08740038 0.002970298 0.053067148 0.14257443 0.092290774 0.19479199 -0.030004008
-0.11884228 0.2442088 -0.0278053 -0.118235454 0.1552356 0.0070759975 -0.061180692 -0.0019524441
-0.0011991122 0.00068163814 0.010668511 0.010681808 0.009585773 0.016266787 0.017160242 0.013877939
0.059491843 0.065205194 0.066916466 0.012572336 0.009856306 0.024621438 0.0576828 0.05940201
0.06129396 0.046788838 0.03704822 -0.038082685 0.10963058 0.09122719 -0.023299562 -0.006019183
-0.10217695 0.41367906 -0.13227692 -0.1882887 0.24799192 -0.15706815 -0.19865133 0.2955428
-0.012270877 -0.10092388 0.15653972
00000000: 3c36 9b3e 57ca c1be cd1c 8cbe 3f9f 14be
00000010: 304d 92bd b247 4bbd 778a f1bd 7767 b0bd
00000020: f71f 99bd 97af 3b3c 2af2 4a3c bc76 6c3c
00000030: fc96 f83b 133c a13b b307 f33b 4260 e83c
00000040: b246 d73c 4f39 d03c 02ce 2e3d 51fa 7dbe
00000050: 882b 7b3d 707e da3d 8e2b 8cbe ba7e 4d3d
00000060: 457b b83d 72a3 2fbe aedb 4c3d ffb8 ce3d
00000070: 3819 d43d 84a4 61be 9d7d e73d 0e53 e03d
00000080: 198f 50be 4d94 913d f8af 523d 612e 7fbd
00000090: b041 8fbe c09d f43c f191 9c3d c4d9 95be
000000a0: 2a49 cf3d 8ba1 893e 5581 f6bd 9c27 1d3d
000000b0: 03f4 b43d 2506 623d dd4b bf3d 8aca 813d
000000c0: 0e38 e6bc f8fe b23d 55a9 423b f05c 593d
000000d0: 08ff 113e f202 bd3d 8d77 473e f7ca f5bc
000000e0: 9563 f3bd df11 7a3e f1c7 e3bc 6e25 f2bd
000000f0: 15f6 1e3e c5dd e73b 9b98 7abd 27e9 ffba
00000100: 872b 9dba f6af 323a faca 2e3c c002 2f3c
00000110: a50d 1d3c ed41 853c a393 8c3c 4c60 633c
00000120: b8ad 733d 4d8a 853d 800b 893d 33fc 4d3c
00000130: 587c 213c e6b2 c93c cd44 6c3d 864f 733d
00000140: 600f 7b3d a7a5 3f3d e0bf 173d 97fc 1bbd
00000150: ff85 e03d 52d5 ba3d b9de bebc 913c c5bb
00000160: 2642 d1bd becd d33e 9a73 07be c1ce 40be
00000170: 98f1 7d3e 79d6 20be 416b 4bbe 6351 973e
00000180: ca0b 49bc 2eb1 cebd f34b 203e

tfeb.1.weight f4 [11]
0.057431187 0.03336858 0.061135326 0.15121621 0.19978948 0.20020135 0.1061782 0.021362673
0.09665335 0.11571516 0.22897765
00000000: f73c 6b3d 7ead 083d 0969 7a3d 6cd8 1a3e
00000010: 9d95 4c3e 9501 4d3e f573 d93d c600 af3c
00000020: 31f2 c53d 12fc ec3d 1e79 6a3e

tfeb.1.bias f4 [11]
0.061436947 0.022197323 -0.06692395 0.062896006 0.103998266 0.14935076 0.12367457 0.014938401
0.07079259 0.0849575 -0.038801555
00000000: 4fa5 7b3d 29d7 b53c 6d0f 89bd 9fcf 803d
00000010: 0bfd d43d 68ef 183e 1849 fd3d 32c0 743c
00000020: b5fb 903d 33fe ad3d 61ee 1ebd

tfeb.1.running_mean f4 [11]
-0.19830067 0.030959127 -0.06506455 0.018918345 -0.016874924 0.12344115 0.051563293 0.017047558
0.093498036 0.11782034 0.0026219287
00000000: 550f 4bbe ff9d fd3c 9040 85bd a5fa 9a3c
00000010: 483d 8abc b7ce fc3d 0834 533d 52a7 8b3c
00000020: e67b bf3d ca4b f13d aad4 2b3b

tfeb.1.running_var f4 [11]
0.07277041 0.0017340094 0.010984446 0.003906297 0.007773508 0.027508244 0.008536583 0.00056598784
0.015603481 0.027004143 0.0065206876
00000000: a708 953d b347 e33a 1bf8 333c 6500 803b
00000010: e9b8 fe3b f858 e13c 06dd 0b3c cd5e 143a
00000020: bea5 7f3c cb37 dd3c 7eab d53b

tfeb.4.weight f4 [21, 11, 3, 3]
-0.006371163 -0.021944903 -0.026326008 -0.009760384 -0.004177607 -0.0035454927 0.002233711 0.01513761
-0.016999723 0.0059791775 0.0069884835 0.0074838363 0.0017492515 0.0029952219 0.0035396093 -0.0018692814
0.00013042057 0.0007988527 0.0006399944 -0.0028773898 -0.0036793766 -0.013694311 -0.011348622 -0.016946046
-0.010001723 -0.018042669 -0.016457142 0.0067149927 -0.005085403 0.008812797 -0.00015794647 -0.015515813
-0.010151794 -0.019037649 -0.0393537 -0.033504367 -0.009572025 0.025554037 -0.0035581319 -0.017889999
0.003895038 -0.00022589849 -0.031352554 -0.02674134 -0.016764358 0.04401054 0.06540844 0.057620704
0.006454001 0.01837922 0.015451642 -0.025456164 -0.02694686 -0.020058082 0.0011200632 -0.0055453796
0.0004924327 -0.0011327325 0.002453876 -0.0018337653 -0.0014567758 0.0013006063 -0.0036233487 0.0017016432
0.0026128006 0.002727325 0.0007990502 0.0010422714 0.0014438344 -0.0022156353 -0.0011819798 -0.0004656831
0.016984047 0.02011868 0.021753764 0.009992181 0.013231348 0.014073324 0.0007209148 0.004839566
0.005731812 0.007595754 0.039373558 0.02907707 -0.0030810027 -0.013976696 0.021132441 -0.01808453
0.016124036 0.0120005915 -0.017306177 -0.012119104 0.009391548 -0.017891325 -0.011708485 0.004009853
-0.035319183 -0.042019542 -0.0041057505 -0.008451148 0.022569224 -0.021984236 -0.024842413 -0.095319934
-0.05742241 -0.019714257 -0.01781304 -0.021022702 -0.004083964 -0.0031577284 -0.0027475753 -0.0033142066
-0.0028321014 -0.0033333385 -0.0021293738 -0.0037464981 -0.0037752194 0.014390686 -0.06732651 -0.0073704906
0.04717648 -0.0616196 0.016445585 0.023739014 -0.03238394 0.0261849 -0.023613146 -0.018104449
-0.015066061 -0.04293567 -0.031271502 -0.0019028521 -0.006934065 -0.016339116 -0.010935263 -0.007951476
0.028897244 -0.01365824 -0.0077803833 0.039868344 -0.026109163 -0.03782735 0.0122936 -0.006073672
-0.059538014 -0.033844464 -0.056242835 -0.055688206 -0.010270954 -0.022967642 -0.033547983 -0.026518831
-0.041520607 -0.0014861283 0.0059137484 -0.0009299703 -0.0031880317 -0.009519313 -0.0006150087 0.010730102
0.01441116 0.011224156 -0.0031578063 -0.0023233984 -0.0023700395 -0.0032342945 -0.0028108414 -0.0035720689
-0.001721058 -0.0027398951 -0.0034548857 -0.00606312 -0.0041822973 -0.0040187016 -0.0049489103 -0.0039058675
-0.004309725 -0.009091505 -0.010697853 -0.011167819 -0.018763006 -0.06458395 -0.017448647 -0.030189011
-0.023825381 0.0047639785 0.006044283 -0.006101261 -0.011702792 0.02681717 -0.054085817 -0.002864394
0.031513244 -0.038749695 -2.2077937e-05 -0.009960664 -0.029991657 -0.0014527246 -0.013897358 -0.0031053333
-0.02787435 -0.025448447 -0.00574181 -0.04387578 -0.030268406 0.005043954 -0.016160708 -0.0064221267
-0.004439084 -0.00066035084 0.008282067 0.01227276 0.013893061 -0.0004842109 0.00026195185 0.0010265515
-0.042086378 -0.05201567 -0.035751175 -0.03787373 -0.045235608 -0.027955215 -0.009900828 -0.024619065
-0.026971212 -0.007537232 -0.03874893 -0.06094933 -0.023157204 -0.05989753 -0.067195326 0.012061354
-0.017790768 -0.019979797 -0.046159867 0.016986739 -0.055589706 -0.0778968 -0.031668138 -0.042342186
-0.016129857 0.0330343 -0.032571364 -0.009448492 0.00077107275 0.02370555 -0.008892134 -0.010515046
0.017267616 0.03676467 0.044069555 0.049466476 -0.033060953 -0.035036027 -0.057288088 -0.02941107
00000000: 30c5 d0bb ccc5 b3bc a4a9 d7bc 05ea 1fbc
00000010: 4fe4 88bb 7f5b 68bb 7463 123b bd03 783c
00000020: 0143 8bbc faec c33b a6ff e43b f83a f53b
00000030: 2447 e53a 7c4b 443b caf8 673b ad02 f5ba
00000040: 81c1 0839 196a 513a 4cc5 273a 9792 3cbb
00000050: b221 71bb 1a5e 60bc 92ef 39bc 6fd2 8abc
00000060: 44de 23bc 38ce 93bc 21d1 86bc 7109 dc3b
00000070: 74a3 a6bb 8d63 103c 6f9e 25b9 0936 7ebc
00000080: b653 26bc d8f4 9bbc 5831 21bd e03b 09bd
00000090: fcd3 1cbc b356 d13c 8c2f 69bb 0c8e 92bc
000000a0: e543 7f3b 2adf 6cb9 896b 00bd a810 dbbc
000000b0: 6855 89bc 6544 343d dcf4 853d b003 6c3d
000000c0: 167c d33b 0590 963c e228 7d3c 7289 d0bc
000000d0: a9bf dcbc d950 a4bc 16cf 923a 04b6 b5bb
000000e0: 9916 013a 3278 94ba 35d1 203b f45a f0ba
000000f0: 49f1 beba 1b79 aa3a b475 6dbb ac09 df3a
00000100: 853b 2b3b ecbc 323b 5a77 513a d39c 883a
00000110: 0b3f bd3a 3134 11bb a9ec 9aba ed26 f4b9
00000120: 2122 8b3c eecf a43c f334 b23c 3fb6 233c
00000130: 4cc8 583c cd93 663c c6fb 3c3a 3995 9e3b
00000140: edd1 bb3b cee5 f83b 2b46 213d 0933 ee3c
00000150: a6ea 49bb 83fe 64bc f11d ad3c 0226 94bc
00000160: 8e16 843c 219e 443c afc5 8dbc 358f 46bc
00000170: 02df 193c d490 92bc f2d4 3fbc 1665 833b
00000180: d9aa 10bd af1c 2cbd 8889 86bb af76 0abc
00000190: 18e3 b83c 4918 b4bc 5182 cbbc 1937 c3bd
000001a0: c333 6bbd cb7f a1bc a7ec 91bc cd37 acbc
000001b0: c6d2 85bb e4f1 4ebb aa10 34bb 2933 59bb
000001c0: c79a 39bb 2474 5abb f78c 0bbb cf87 75bb
000001d0: ac69 77bb e9c6 6b3c 7be2 89bd 2884 f1bb
000001e0: 203c 413d d564 7cbd e4b8 863c 5278 c23c
000001f0: 06a5 04bd b781 d63c 5b70 c1bc c84f 94bc
00000200: a4d7 76bc 50dd 2fbd 8c16 00bd 1f69 f9ba
00000210: 2737 e3bb 9cd9 85bc d129 33bc e846 02bc
00000220: eab9 ec3c d0c6 5fbc 96f2 febb fd4c 233d
00000230: e2e2 d5bc daf0 1abd 186b 493c a705 c7bb
00000240: 22de 73bd 7ea0 0abd e35e 66bd 5119 64bd
00000250: 8147 28bc a326 bcbc 9c69 09bd 053e d9bc
00000260: 8311 2abd 31ca c2ba 1ec8 c13b 40c9 73ba
00000270: 4cee 50bb e5f6 1bbc 8938 21ba 4fcd 2f3c
00000280: c91c 6c3c 86e5 373c 33f3 4ebb 2844 18bb
00000290: aa52 1bbb 75f6 53bb 1836 38bb 5f19 6abb
000002a0: 2095 e1ba d08f 33bb 5d6b 62bb 23ad c6bb
000002b0: a70b 89bb 50af 83bb 782a a2bb 95f9 7fbb
000002c0: 9838 8dbb 89f4 14bc 0c46 2fbc 3af9 36bc
000002d0: e0b4 99bc 9744 84bd 77f0 8ebc f24e f7bc
000002e0: 722d c3bc 261b 9c3b 1f0f c63b 16ed c7bb
000002f0: 11bd 3fbc afaf db3c 1789 5dbd 8fb8 3bbb
00000300: 0814 013d 00b8 1ebd 0234 b9b7 0e32 23bc
00000310: 10b1 f5bc 5969 beba bfb1 63bc d982 4bbb
00000320: c058 e4bc 4379 d0bc cb25 bcbb 17b7 33bd
00000330: 73f5 f7bc c147 a53b 7663 84bc b470 d2bb
00000340: bc75 91bb 651b 2dba 82b1 073c b013 493c
00000350: b99f 633c b0dd fdb9 9556 8939 5a8d 863a
00000360: c462 2cbd 620e 55bd d36f 12bd 7c21 1bbd
00000370: f948 39bd 5602 e5bc 1537 22bc ecad c9bc
00000380: bbf2 dcbc e2fa f6bb 33b7 1ebd 01a6 79bd
00000390: 2db4 bdbc 1d57 75bd b49d 89bd fc9c 453c
000003a0: f2bd 91bc acac a3bc 2112 3dbd c627 8b3c
000003b0: 08b2 63bd 5c88 9fbd 73b6 01bd 006f 2dbd
000003c0: c322 84bc f94e 073d 8d69 05bd d9cd 1abc
000003d0: d121 4a3a 2432 c23c 50b0 11bc 4d47 2cbc
000003e0: d174 8d3c 8d96 163d 4782 343d 5c9d 4a3d
000003f0: ec6a 07bd f081 0fbd eaa6 6abd 7cef f0bc

tfeb.5.weight f4 [21]
0.075709276 0.1271975 0.17667416 0.070006 0.078022614 0.2184611 0.04090682 0.06875731
0.21674287 0.13708518 0.15770157 0.10985525 0.2142157 0.00060615054 0.15982535 0.10550582
0.105160296 0.13667168 0.046418335 0.05633083 0.007356088
00000000: 770d 9b3d 1040 023e 12ea 343e 4e5f 8f3d
00000010: 52ca 9f3d 44b4 5f3e e98d 273d a2d0 8c3d
00000020: d8f1 5d3e 0f60 0c3e 857c 213e cafb e03d
00000030: 5c5b 5b3e 13e6 1e3a 42a9 233e 6f13 d83d
00000040: 485e d73d a9f3 0b3e 2721 3e3d 28bb 663d
00000050: 570b f13b

tfeb.5.bias f4 [21]
0.035010703 -0.029567663 -0.11082273 -0.019054124 0.14742877 0.015683804 0.0234388 -0.0570657
0.012133664 -0.10373441 0.09260556 0.048553426 0.1434934 0.015383609 -0.058033135 -0.1254909
-0.04763444 0.05994841 -0.014624603 0.05071798 -0.009560508
00000000: 6267 0f3d e237 f2bc 07f7 e2bd 6517 9cbc
00000010: 91f7 163e 527b 803c ba02 c03c b9bd 69bd
00000020: 47cc 463c b572 d4bd fca7 bd3d f5df 463d
00000030: efef 123e 880b 7c3c 27b4 6dbd b080 00be
00000040: 551c 43bd 778c 753d 089c 6fbc a8bd 4f3d
00000050: ada3 1cbc

tfeb.5.running_mean f4 [21]
-0.010844855 -0.12535276 -0.12049691 -0.063781366 -0.13691613 -0.15198474 0.0019011012 -0.08694502
-0.09054909 -0.04826209 0.07018369 -0.07735338 0.059088044 0.04754718 -0.13684794 0.117604814
-0.066452526 -0.08958271 -0.023793375 0.113317646 -0.0929004
00000000: 9eae 31bc 795c 00be 15c7 f6bd ce9f 82bd
00000010: be33 0cbe e3a1 1bbe 5f2e f93a 3b10 b2bd
00000020: cd71 b9bd 78ae 45bd 77bc 8f3d 736b 9ebd
00000030: 4e06 723d d5c0 423d de21 0cbe cbda f03d
00000040: 4318 88bd 2477 b7bd 53ea c2bc 1513 e83d
00000050: 9142 bebd

tfeb.5.running_var f4 [21]
0.0022915967 0.01534903 0.00907611 0.003869761 0.018507 0.020519152 0.0008823489 0.00996045
0.008204587 0.002977137 0.009592796 0.005266763 0.044947725 0.0039287447 0.018712526 0.00991797
0.004946827 0.012792408 0.0004777415 0.016353281 0.0056362194
00000000: 9d2e 163b 7f7a 7b3c f7b3 143c d19b 7d3b
00000010: fe9b 973c c817 a83c 6f4d 673a 2831 233c
00000020: 886c 063c 121c 433b 1a2b 1d3c cf94 ac3b
00000030: 1b1b 383d b3bc 803b 034b 993c fb7e 223c
00000040: fe18 a23b 3f97 513c 6179 fa39 51f7 853c
00000050: 09b0 b83b

tfeb.7.weight f4 [16, 21, 3, 3]
0.010440391 0.008129216 0.01034501 0.009480024 -0.00023705621 -0.01741875 0.0062744427 -0.0029893946
-0.015172124 -0.0005396252 0.00080193544 0.010153549 -0.04213222 -0.016615681 -0.014935473 -0.0056078923
0.0006803601 -0.002033564 0.005949397 0.018727114 0.03623164 -0.003974985 0.012595338 0.023716087
0.0058483374 0.011820094 0.0008429835 -0.0046816003 -0.00413698 -0.0085776085 -0.014394921 -0.028100017
-0.018095551 0.016103221 -0.00027439214 -0.010127689 -0.016499558 -0.015513764 -0.0002591435 -0.05461579
-0.029446667 0.0076537943 -0.036680788 -0.009128988 0.020229103 -0.027190505 -0.012190658 -0.0046110116
-0.034957554 -0.02961759 -0.031243853 -0.0044073975 -0.017554153 -0.025905933 0.005871322 0.008148854
0.0063261534 0.0008740799 0.0022580924 -0.0022548535 0.008775008 -0.00017935583 -0.011436447 -0.016269028
-0.005160447 0.00071444915 -0.034057792 -0.0011270655 -0.008655665 0.0024565118 0.015682217 -0.0012215663
-0.015310165 -0.018082006 -0.016292376 -0.026674267 -0.026533207 -0.0021204732 -0.027741252 -0.023385283
-0.01875064 -0.009506292 -0.0010134752 0.008076497 -0.031219848 -0.011299516 0.0055915415 -0.021673013
-0.0035739632 0.025405373 0.008976943 0.019086838 0.020709831 0.027906893 0.02748751 0.023856025
0.018529389 0.009924613 0.0062821005 -0.027964018 -0.03318098 -0.007904285 -0.0355153 -0.02795391
0.00075865915 -0.0076107676 -0.011056329 0.016916914 0.04566929 0.029494153 0.01925086 0.053353045
0.01997361 -0.003191425 0.044000637 0.03172586 0.025184898 0.01983812 0.01157417 0.008946793
-0.0021343257 -0.00503767 -7.487184e-05 0.010135757 -0.004477729 -0.010569374 0.013105995 -0.009327049
-0.00050857326 -0.023020374 -0.026248867 0.0066208923 -0.004122873 -0.0035177104 -0.0065112165 -0.014539539
0.010320486 0.004687993 -0.018646369 -0.0021115667 -0.0026063044 -0.014686791 0.0013659545 0.0076485816
0.004698324 0.02041247 0.019690393 -0.010985893 -0.00874015 0.0016650889 0.016208168 -0.0059919013
-0.0063108336 -0.0105754435 -0.032847755 -0.0037332287 -0.012814862 -0.018078867 0.0016535482 -0.02455521
-0.02358583 -0.015236892 0.009327223 0.00059037626 0.0027355219 -0.0044276095 -0.003781018 0.00091173296
-0.0033909818 0.002675609 0.005129685 0.04174763 0.017074538 0.016103128 -0.015970502 -0.010640188
-0.0037578766 0.016917566 0.010072004 0.016102841 -0.0002323728 -0.00980515 0.010362046 -0.00631369
-0.015150271 -0.0021882143 0.015687423 0.0011314752 -0.003270812 0.0050565284 6.9010064e-05 -0.0027854869
0.018093044 0.026011504 0.032019753 0.016374266 0.017217757 0.02354602 -0.00972252 -0.011601075
0.0074277557 -0.01042682 0.0077893566 0.011989332 -0.01980316 -0.01842198 -0.01958128 0.076210305
0.07297955 0.036984086 0.007701631 -0.016006885 -0.033465408 -0.007813649 0.010301705 0.020941885
-0.009265251 0.010452086 -0.0005403974 -0.011479558 -0.01630952 -0.020070618 -0.017297482 0.013786576
0.019783396 -0.020023778 -0.031399693 -0.03872364 -0.009907671 -0.040750325 -0.04362009 -0.010144665
-0.028437031 -0.037821364 -0.026944155 -0.013082744 -0.0467889 -0.026686016 0.0019983337 -0.023175221
-0.019977242 -0.013260533 -0.019885583 0.01420439 0.013489813 0.019567797 0.005172436 0.00743479
0.0038211294 0.0032791935 0.003347047 0.007942092 -0.008770439 0.017455436 0.015460426 -0.002596929
00000000: 2c0e 2b3c 6730 053c 1e7e 293c 1a52 1b3c
00000010: 4b92 78b9 c4b1 8ebc d799 cd3b b8e9 43bb
00000020: 8094 78bc a275 0dba fa38 523a 125b 263c
00000030: d692 2cbd 9c1d 88bc eab3 74bc 69c2 b7bb
00000040: 325a 323a 8b45 05bb 29f3 c23b 9b69 993c
00000050: a167 143d 9740 82bb ad5c 4e3c 3d48 c23c
00000060: 69a3 bf3b 11a9 413c aafb 5c3a 1c68 99bb
00000070: 818f 87bb 1989 0cbc add8 6bbc 0232 e6bc
00000080: 1f3d 94bc e7ea 833c 4adc 8fb9 9bee 25bc
00000090: 152a 87bc 712d 7ebc a7dd 87b9 ceb4 5fbd
000000a0: 233a f1bc aecc fa3b 983e 16bd c091 15bc
000000b0: 81b7 a53c 9fbe debc 53bb 47bc f817 97bb
000000c0: a72f 0fbd 97a0 f2bc 1cf3 ffbc ee6b 90bb
000000d0: bacd 8fbc ae38 d4bc 3864 c03b c582 053c
000000e0: 9f4b cf3b 8222 653a 81fc 133b 2ac6 13bb
000000f0: 0dc5 0f3c 7711 3cb9 ef5f 3bbc a046 85bc
00000100: f818 a9bb df49 3b3a 2f80 0bbd 0bba 93ba
00000110: 7ed0 0dbc 6efd 203b fe77 803c f71c a0ba
00000120: 7cd7 7abc b720 94bc 9777 85bc fe83 dabc
00000130: 2b5c d9bc a3f7 0abb 9f41 e3bc 7e92 bfbc
00000140: f19a 99bc 47c0 1bbc 96d6 84ba 4953 043c
00000150: c4c0 ffbc 9b21 39bc 4039 b73b 9a8b b1bc
00000160: 2739 6abb ee1e d03c 0714 133c 005c 9c3c
00000170: aaa7 a93c ff9c e43c 7d2d e13c b66d c33c
00000180: f2ca 973c d89a 223c 14da cd3b cc14 e5bc
00000190: c7e8 07bd f980 01bc 7e78 11bd 99ff e4bc
000001a0: c1e0 463a bf63 f9bb 9b25 35bc 5795 8a3c
000001b0: b90f 3b3d b99d f13c fbb3 9d3c b988 5a3d
000001c0: b29f a33c 3a27 51bb 033a 343d faf2 013d
000001d0: 8f50 ce3c 8e83 a23c 96a1 3d3c 9295 123c
000001e0: 0be0 0bbb 0a13 a5bb 8304 9db8 7210 263c
000001f0: eab9 92bb 2b2b 2dbc 87ba 563c 7bd0 18bc
00000200: c651 05ba 3995 bcbc dd07 d7bc 12f4 d83b
00000210: 2a19 87bb 6389 66bb 0b5c d5bb 3f37 6ebc
00000220: 4117 293c bc9d 993b 45c0 98bc 3662 0abb
00000230: 88ce 2abb dea0 70bc d409 b33a f4a0 fa3b
00000240: 66f4 993b 0d38 a73c bf4d a13c 2dfe 33bc
00000250: d932 0fbc 1d3f da3a fec6 843c b657 c4bb
00000260: 1ccb cebb a044 2dbc 5e8b 06bd 2fa9 74bb
00000270: 6df5 51bc 221a 94bc dfbb d83a 0228 c9bc
00000280: 1237 c1bc 28a4 79bc 35d1 183c 7bc3 1a3a
00000290: 7146 333b 7b15 91bb f5ca 77bb 5d01 6f3a
000002a0: 3c3b 5ebb 4559 2f3b eb16 a83b 90ff 2a3d
000002b0: e7df 8b3c b5ea 833c 92d4 82bc 2f54 2ebc
000002c0: b546 76bb b596 8a3c 0c05 253c 1bea 833c
000002d0: 19a9 73b9 c8a5 20bc 92c5 293c 12e3 cebb
000002e0: d838 78bc 2568 0fbb e982 803c 024e 943a
000002f0: 1f5b 56bb 3cb1 a53b 7fb9 9038 b78c 36bb
00000300: dd37 943c 1416 d53c 2527 033d 5323 863c
00000310: 410c 8d3c 95e3 c03c 344b 1fbc 6f12 3ebc
00000320: 8864 f33b 41d5 2abc dc3d ff3b e76e 443c
00000330: 3d3a a2bc b1e9 96bc ec68 a0bc 2614 9c3d
00000340: 4d76 953d a07c 173d f75d fc3b df20 83bc
00000350: 0613 09bd d204 00bc 7cc8 283c 518e ab3c
00000360: 48cd 17bc 3a3f 2b3c 75a9 0dba c214 3cbc
00000370: 8b9b 85bc 236b a4bc 73b3 8dbc 17e1 613c
00000380: ca10 a23c e808 a4bc f79c 00bd ae9c 1ebd
00000390: c953 22bc d0e9 26bd fbaa 32bd cf35 26bc
000003a0: c7f4 e8bc 93ea 1abd fdb9 dcbc 0159 56bc
000003b0: b8a5 3fbd a29c dabc 7af6 023b f6d9 bdbc
000003c0: 50a7 a3bc b542 59bc 17e7 a2bc 88b9 683c
000003d0: 6004 5d3c a54c a03c 8a7d a93b 8a9f f33b
000003e0: ea6b 7a3b bde7 563b 215a 5b3b 8c1f 023c
000003f0: e3b1 0fbc b4fe 8e3c ba4d 7d3c 3d31 2abb

tfeb.8.weight f4 [16]
0.12155711 0.10724109 0.12438287 0.096993566 0.08035928 0.18479224 0.062114518 0.15097584
0.15290147 0.16532736 0.04189243 0.07156811 0.10627369 0.10929081 0.2122366 0.08149619
00000000: eff2 f83d 37a1 db3d 72bc fe3d 90a4 c63d
00000010: 6893 a43d 2d3a 3d3e cb6b 7e3d 6999 1a3e
00000020: 3492 1c3e 934b 293e 6697 2b3d 4d92 923d
00000030: 05a6 d93d dcd3 df3d 8d54 593e 79e7 a63d

tfeb.8.bias f4 [16]
-0.027126865 0.065862164 -0.13209373 -0.03565047 -0.064804696 0.088019416 0.00929082 -0.026250508
-0.111077555 0.027791731 -0.026386201 -0.040060997 -0.009160275 -0.08432803 0.11785706 0.027270861
00000000: 2939 debc bee2 863d 9443 07be 3a06 12bd
00000010: 53b8 84bd 8643 b43d 8638 183c 4e0b d7bc
00000020: a17c e3bd 7cab e33c e027 d8bc 0017 24bd
00000030: fa14 16bc 2db4 acbd 0b5f f13d 2467 df3c

tfeb.8.running_mean f4 [16]
-0.016983107 -0.056352563 0.014801303 -0.0650064 0.033095617 -0.0018955304 -0.024481324 -0.014249196
-0.0030748998 -0.003262512 0.00933633 -0.023669807 0.006843152 -0.019186059 -0.0038633225 -0.046479966
00000000: 2820 8bbc f2d1 66bd 2a81 723c 1322 85bd
00000010: 458f 073d 7273 f8ba 0f8d c8bc 7675 69bc
00000020: 4284 49bb decf 55bb 68f7 183c 2fe7 c1bc
00000030: 853c e03b 152c 9dbc cc2f 7dbb c761 3ebd

tfeb.8.running_var f4 [16]
0.010534852 0.007854147 0.00080754235 0.0017371253 0.0016258331 0.0055210367 0.0017984483 0.0014703553
0.0019547006 0.006079504 0.0014179944 0.003647626 0.0005111184 0.00060783495 0.018719636 0.0019735503
00000000: 5f9a 2c3c aeae 003c 40b1 533a 41b0 e33a
00000010: e819 d53a d0e9 b43b e9b9 eb3a f0b8 c03a
00000020: 6f1a 003b 9336 c73b ffdb b93a 020d 6f3b
00000030: 93fc 053a 1d57 1f3a ec59 993c ae56 013b

tfeb.11.weight f4 [26, 16, 3, 3]
0.00046614814 -0.0073191714 -0.0044382666 -0.009937579 -0.009392423 -0.025025921 -0.0064239237 -0.0005367448
-0.0041226144 -0.0028574425 0.010370133 -0.0036608079 0.009407712 0.02367599 0.021338612 -0.011914756
-0.008780179 -0.021982716 0.0017896631 -0.0025095188 -0.0040257988 -0.005024093 -0.0059376047 0.00090678246
0.00042240147 -0.001947882 -0.005484445 0.00025694488 0.004142875 0.000266361 0.00047917076 -0.002981708
-0.0047075306 -0.00033380822 0.006455888 0.0046357457 -0.006463012 0.000958965 -0.011824039 -0.0064932317
0.0025639823 -0.0023018988 -0.017804068 -0.009579517 -0.019115906 -0.025709787 -0.027300922 -0.026279222
-0.021065217 -0.010516336 -0.019289503 0.011055013 0.013277976 0.010060665 0.006937565 -0.014895339
-0.0060143247 0.021437809 0.0046968553 0.015906207 0.006311921 0.0067706727 0.012676687 -0.010616502
-0.013436705 -0.012419913 0.002661558 -0.0046687387 0.0046720123 0.021203883 -0.00915305 0.0095391795
0.0008256 0.0012341136 -0.005447162 -0.0011277199 -0.002344861 -0.009238549 -0.0013304534 -0.007557464
-0.012773003 -0.010037039 0.010554068 3.3527907e-05 0.009459988 0.01974445 0.013431012 0.025493639
0.04162167 0.00617657 -0.013446222 -0.013348973 -0.012805809 -0.0025234064 -0.007381551 -0.011400835
0.009254622 0.0025269357 -0.005608253 -0.00514569 -0.003150872 -0.0064225225 0.00014672679 0.0056669097
-0.00608041 -0.0020208522 -0.0028655042 -0.013870305 -0.007672279 0.0061188745 -0.026429953 0.014486482
0.020917596 -0.012183938 0.05582083 0.02820142 -0.0039571337 -0.007639735 -0.013147737 -0.015150521
0.0043540522 0.0038733021 0.013823792 -0.0025646249 0.006872516 0.013152315 -0.029497439 -0.018138047
-0.036107935 -0.03970777 -0.036372937 -0.047041308 -0.00087844743 -0.025815323 -0.024901617 0.0044828695
0.012617731 -0.00082896533 0.018104738 0.021582637 0.009819773 0.01629012 0.0044183778 0.0035914285
-0.012612258 -0.013528685 -0.00012729228 0.011756563 -0.009429307 -0.0037058743 0.009734577 -0.012083961
0.012539374 -0.0131309945 -0.008022524 -0.02803258 -0.03694516 -0.04085911 -0.050412606 0.00827688
0.004498336 0.0124995755 -0.01102512 0.0033989293 -0.008806405 0.002763749 0.019099101 0.0037471135
-0.0015172802 0.010905532 0.0012018322 -0.006713253 -0.0010897494 -0.009979434 0.007118494 0.001682492
-0.008421174 -0.008373166 -0.00061082665 0.00016663411 -0.004835709 -0.01144912 -0.017024033 -0.02081366
-0.01797824 -0.026559234 -0.0006475817 0.010632473 0.0042250734 0.0008362476 0.012065376 0.0070194174
-0.0071311034 0.008300372 0.0033656883 -0.00084881403 0.0064857826 0.014712948 0.01113341 -0.00047608337
0.016978633 0.019469962 -0.0024995487 0.017577091 -0.003990704 -0.021433838 0.012480779 0.0052989693
-0.00083011814 -0.00027789306 -0.010992324 -0.006285935 0.0015301724 -0.005685283 -0.0036209882 -0.0064644306
0.0039103203 -0.012873714 -0.00844705 -0.0010891049 -0.014888619 -0.0010593417 0.010701213 0.008626876
0.00706806 -0.00043102063 -0.015401289 0.001157373 -0.017113233 -0.014592443 -0.010666814 -0.022502957
0.006823561 -0.017460342 -0.028002387 -0.011051294 -0.0007757209 -0.024096204 -0.0043480275 0.0060513457
-0.008671788 -0.0026248973 4.8515765e-05 0.011167232 -0.0049802084 -0.009901856 0.015606481 -0.004031895
0.0001220181 0.006551142 -0.0014568784 0.0023423315 0.014915459 0.008738168 0.004148815 -0.008099163
00000000: 5865 f439 a9d5 efbb e16e 91bb 3ad1 22bc
00000010: ade2 19bc 2903 cdbc c77f d2bb 55b4 0cba
00000020: ff16 87bb ee43 3bbb 7ee7 293c 2aea 6fbb
00000030: ce22 1a3c 26f4 c13c 50ce ae3c 1c36 43bc
00000040: bdda 0fbc 1915 b4bc 2193 ea3a bd76 24bb
00000050: d9ea 83bb 26a1 a4bb 3d90 c2bb 24b5 6d3a
00000060: c475 dd39 1350 ffba dcb6 b3bb 8fb6 8639
00000070: f4c0 873b 5ea6 8b39 3639 fb39 c268 43bb
00000080: a141 9abb fb02 afb9 ea8b d33b 74e7 973b
00000090: adc7 d3bb 0d63 7b3a 9db9 41bc 2dc5 d4bb
000000a0: 7c08 283b 74db 16bb d6d9 91bc 68f3 1cbc
000000b0: f698 9cbc 559d d2bc 2fa6 dfbc 8647 d7bc
000000c0: f690 acbc b64c 2cbc 0505 9ebc 1620 353c
000000d0: de8b 593c 7dd5 243c 8354 e33b 940b 74bc
000000e0: d013 c5bb 589e af3c 14e8 993b bc4d 823c
000000f0: 3bd4 ce3b 85dc dd3b e1b1 4f3c d6f0 2dbc
00000100: a025 5cbc e47c 4bbc 896d 2e3b 38fc 98bb
00000110: ae17 993b c4b3 ad3c adf6 15bc 384a 1c3c
00000120: 146d 583a fbc1 a13a 1b7e b2bb 00d0 93ba
00000130: 3dac 19bb 485d 17bc 9c62 aeba 9aa4 f7bb
00000140: dc45 51bc 6572 24bc f8ea 2c3c 51a0 0c38
00000150: 11fe 1a3c 1dbf a13c bf0d 5c3c 09d8 d03c
00000160: 7c7b 2a3d d364 ca3b 8b4d 5cbc a7b5 5abc
00000170: 75cf 51bc bc5f 25bb f0e0 f1bb 91ca 3abc
00000180: b3a0 173c f29a 253b 70c5 b7bb 2d9d a8bb
00000190: dc7e 4ebb 0674 d2bb acda 1939 7cb1 b93b
000001a0: 2d3e c7bb 4670 04bb 2fcb 3bbb 4740 63bc
000001b0: be67 fbbb d780 c83b a183 d8bc b658 6d3c
000001c0: 615b ab3c 249f 47bc 62a4 643d aa06 e73c
000001d0: d8aa 81bb be56 fabb 9b69 57bc e439 78bc
000001e0: 70ac 8e3b 3ad7 7d3b 307d 623c 4413 28bb
000001f0: d832 e13b cf7c 573c 9da4 f1bc 3e96 94bc
00000200: eae5 13bd 9da4 22bd cafb 14bd 63ae 40bd
00000210: 9c47 66ba a87a d3bc 7afe cbbc 09e5 923b
00000220: 99ba 4e3c ec4e 59ba 6350 943c 12ce b03c
00000230: 1de3 203c dc72 853c 0ac8 903b 2c5e 6b3b
00000240: a5a3 4ebc 6ba7 5dbc c379 05b9 999e 403c
00000250: 617d 1abc 41de 72bb c67d 1f3c cefb 45bc
00000260: f271 4d3c 6223 57bc e870 03bc 95a4 e5bc
00000270: cf53 17bd e25b 27bd 737d 4ebd c09b 073c
00000280: c766 933b 05cb 4c3c b4a2 34bc 92c0 5e3b
00000290: bd48 10bc 0420 353b b875 9c3c 2292 753b
000002a0: 7adf c6ba 1ead 323c cc86 9d3a d9fa dbbb
000002b0: ecd5 8eba c880 23bc 4142 e93b 1087 dc3a
000002c0: f7f8 09bc 9b2f 09bc e21f 20ba 81ba 2e39
000002d0: de74 9ebb 1795 3bbc fc75 8bbc 6981 aabc
000002e0: 1a47 93bc c092 d9bc 79c2 29ba d333 2e3c
000002f0: 7c72 8a3b a037 5b3a dbad 453c 2403 e63b
00000300: 08ac e9bb 49fe 073c e192 5c3b f282 5eba
00000310: b086 d43b 940e 713c e868 363c d49a f9b9
00000320: c616 8b3c 787f 9f3c 78cf 23bb d5fd 8f3c
00000330: 74c4 82bb 0496 afbc 2e7c 4c3c faa2 ad3b
00000340: 499c 59ba 2db2 91b9 2619 34bc 3ffa cdbb
00000350: 1190 c83a 9c4b babb 1a4e 6dbb 93d3 d3bb
00000360: 2522 803b 45ec 52bc 7f65 0abc 4cc0 8eba
00000370: 65ef 73bc 9cd9 8aba 2454 2f3c be57 0d3c
00000380: 2f9b e73b 9cfa e1b9 b055 7cbc feb2 973a
00000390: 0d31 8cbc 2415 6fbc dcc3 2ebc 1f58 b8bc
000003a0: 2e98 df3b fe08 8fbc 4365 e5bc 7d10 35bc
000003b0: c059 4bba 6765 c5bc e679 8ebb 5e4a c63b
000003c0: 1d14 0ebc 7806 2cbb 687d 4b38 c4f6 363c
000003d0: 0431 a3bb 653b 22bc 53b2 7f3c fd1d 84bb
000003e0: f8e3 ff38 f6aa d63b baf4 beba cd81 193b
000003f0: f85f 743c 882a 0f3c c8f2 873b 5ab2 04bc

tfeb.12.weight f4 [26]
0.03718416 0.13425967 0.097470164 0.099185884 0.11823959 0.0914209 0.09542377 0.07689201
0.07006202 0.055141203 0.09839201 0.0505931 0.07888963 0.07858311 0.1075119 0.089647084
0.08699298 0.06587948 0.036256284 0.027756318 0.08076622 0.039344937 0.14929657 0.19042164
0.07737552 0.04968291
00000000: 6b4e 183d 5e7b 093e 709e c73d f821 cb3d
00000010: 9927 f23d e13a bb3d 8a6d c33d 8f79 9d3d
00000020: ad7c 8f3d bedb 613d c081 c93d b63a 4f3d
00000030: e390 a13d 2ef0 a03d 332f dc3d e498 b73d
00000040: 6029 b23d d2eb 863d 7881 143d 3861 e33c
00000050: c368 a53d 2828 213d 33e1 183e e4fd 423e
00000060: 0e77 9e3d 4f80 4b3d

tfeb.12.bias f4 [26]
-0.033691406 0.024224889 -0.01996848 -0.012618092 -0.06689045 -0.067969985 -0.007385788 -0.05607661
0.02203065 -0.029270919 -0.055239707 -0.01004017 -0.04915487 -0.045592926 0.071629584 -0.043828093
0.018108265 -0.06462471 0.004285671 0.0139231905 0.05097557 0.06453361 0.0684601 0.03060911
-0.004466565 -0.009044454
00000000: 0000 0abd 4673 c63c f094 a3bc 1dbc 4ebc
00000010: dcfd 88bd d933 8bbd 7b04 f2bb 96b0 65bd
00000020: 9f79 b43c 91c9 efbc 0843 62bd 867f 24bc
00000030: 9e56 49bd a6bf 3abd 88b2 923d 1685 33bd
00000040: c957 943c f659 84bd d06e 8c3b 181e 643c
00000050: c2cb 503d 332a 843d cf34 8c3d f5bf fa3c
00000060: 435c 92bb 312f 14bc

tfeb.12.running_mean f4 [26]
-0.034668032 -0.04189467 -0.020709898 -0.024210658 -0.049907368 -0.06134764 -0.0013542289 -0.13312168
0.0030498742 -0.005510082 0.0540589 0.0018817147 -0.07612236 -0.027378887 0.076333895 0.01838035
0.03624845 -0.019187482 0.013285238 0.0080482215 0.012217158 -0.033934955 0.04214205 0.0022173934
-0.17249137 -0.041801594
00000000: 1100 0ebd bf99 2bbd cea7 a9bc 6e55 c6bc
00000010: ab6b 4cbd aa47 7bbd 6280 b1ba 0d51 08be
00000020: 66e0 473b eb8d b4bb dd6c 5d3d dea3 f63a
00000030: 0ae6 9bbd b049 e0bc f254 9c3d 6392 963c
00000040: 4179 143d 112f 9dbc 54aa 593c b0dc 033c
00000050: 7a2a 483c 61ff 0abd 249d 2c3d b051 113b
00000060: 94a1 30be 2638 2bbd

tfeb.12.running_var f4 [26]
0.0067720427 0.0018010255 0.0069172 0.0016292115 0.00094570545 0.0025428396 0.0026772092 0.0537916
0.0038162025 0.00054318475 0.0037637295 0.0014470922 0.0030027109 0.0007221077 0.007420008 0.003933481
0.0033651663 0.0026490132 0.0008874805 0.000445314 0.0054973788 0.0019475654 0.006327848 0.010660958
0.06299045 0.0018415079
00000000: 03e8 dd3b 6310 ec3a aea9 e23b 448b d53a
00000010: 38e9 773a c5a5 263b 1e74 2f3b 9554 5c3d
00000020: 4119 7a3b 8364 0e3a e7a8 763b 5bac bd3a
00000030: 21c9 443b d44b 3d3a 8a23 f33b 6ee4 803b
00000040: 1f8a 5c3b 119b 2d3b cfa5 683a 0979 e939
00000050: 5b23 b43b 7345 ff3a d659 cf3b 4cab 2e3c
00000060: 2301 813d c05e f13a

tfeb.14.weight f4 [40, 26, 3, 3]
-0.0024887372 -0.004038798 0.00029364513 -0.00045233406 -0.002789533 5.019219e-05 0.009698543 -0.00638205
-0.005450396 -0.008995857 -0.018849313 -0.014717897 0.008346101 -0.0046073645 0.01477264 0.0031866196
0.006521265 -0.0079335645 0.03953275 0.010380525 0.023458553 -0.008087325 0.002982033 0.014962901
-0.027156094 0.010126383 0.005480232 0.0009387012 -0.0057559446 0.012318561 0.0091026295 -0.02057041
0.0047599925 0.027594721 0.0008384457 0.0070036114 0.013873437 0.0032548723 0.009397119 0.0067116884
0.0069986223 0.00913158 0.015158519 -0.008556604 0.0058822013 0.0026554416 0.009770052 -0.0098773865
0.0033484257 0.007348473 0.004204014 -0.0077906945 0.006955685 0.0012023881 -0.0066562304 -0.0072063943
-0.019773088 -0.003916365 -0.0047463765 -0.014372838 0.009643866 -0.0065903943 0.0038732828 -0.008361156
-0.0032368554 -0.00040840314 -0.015228346 -0.0017948195 0.0022844558 -0.014180676 0.0013650134 -0.003959473
0.0031973107 -0.0015056438 -0.005493339 0.005802181 0.0031571824 -0.0062949 -0.0047456026 -0.0063753068
-0.014686517 0.0027497069 0.007744717 0.0056892335 -0.0069295834 -0.0043321736 0.004885063 -0.004418326
0.004404284 0.010491811 -0.004983845 -0.00010068359 -0.006761705 -0.01855323 -0.010802099 0.004797003
-0.010996914 -0.011596243 -0.0061920118 -0.008028093 -0.0022754662 0.0017643106 -0.0068085324 -0.010711364
-0.003981633 0.0020525104 0.0068699135 0.016943049 -0.003744788 -0.0063763005 0.0070940694 -0.0018977206
-0.006192423 -0.0042578294 0.0042513018 0.0043356814 -0.012590999 0.021687575 0.004981086 0.007779088
0.012959912 -0.0057343505 0.0056625963 0.0013921876 -0.0039963853 -0.006335059 -0.0047111195 -0.026688296
-0.022319779 -0.017430436 -0.007983581 0.0053967154 -0.012960179 0.0054674004 0.018038873 -0.013830649
-0.0046220934 -0.011439284 -0.012723713 0.0007811714 0.0017776974 0.0044733235 0.0041845706 0.00082611083
-0.011246471 -0.0143698305 -0.022262802 0.0034875248 -0.007816333 0.0021170026 -0.006140562 -0.005491483
0.00065498956 0.011068599 0.026065234 0.00782501 -0.00018615776 0.010811128 -0.0039130207 -0.0077790297
0.0021899624 0.00027354437 0.0064963824 0.0062056426 0.006718141 -0.012615317 -0.004674736 -0.008641688
0.005235663 -0.013663115 -0.000117275005 -0.0028738528 -0.00516554 -4.5522705e-05 -0.003434318 -0.012523704
-0.0084858155 0.0014917206 -0.0009439048 -0.0035381708 -0.0151626365 -0.010777176 -0.009592018 -0.017236296
-0.024920262 -0.016819246 -0.0009769554 -0.013271311 0.0013449602 -0.012833577 -0.0037280002 -0.0023652725
-0.009270707 -0.011234043 -0.013490145 -0.005103395 -0.0074791755 -0.012698972 0.017730009 0.017520325
0.013744426 -0.014254182 -0.0060941307 -0.0067372164 -0.0007532404 0.0029879159 0.014448487 0.033961955
0.019083051 0.039914526 -0.007989984 -0.033163615 -0.01118743 -0.005283185 -0.01479313 -0.01522008
0.000584441 -0.008703098 -0.0038713124 -0.00012454267 -0.0027564524 -0.0019925192 0.0011763254 -0.0067403344
0.007057994 0.0012094595 0.01298189 0.010634801 0.0019591362 -0.0046856017 0.002915937 0.0089207105
-0.024866315 -0.019946225 -0.0028567766 -0.0010426523 0.00083253125 -0.0054665324 0.008036478 0.0037139386
-0.004451139 -0.0030148928 -0.0066179004 -0.00046234683 0.0016667747 -0.015922153 0.0033543764 -0.0068186945
-0.02205895 -0.005876149 -0.010234942 -0.007957881 -0.006708277 -0.013522142 -0.011054349 -0.0041382355
00000000: 151a 23bb e557 84bb 62f4 9939 4027 edb9
00000010: 99d0 36bb 7485 5238 a3e6 1e3c 8420 d1bb
00000020: 3c99 b2bb 5c63 13bc e069 9abc 5623 71bc
00000030: 16be 083c 60f9 96bb f108 723c 9bd6 503b
00000040: 56b0 d53b c8fb 01bc 18ed 213d 1413 2a3c
00000050: 272c c03c b380 04bc 366e 433b f526 753c
00000060: 7576 debc 21e9 253c 8593 b33b 2c13 763a
00000070: 5d9c bcbb cad3 493c 3223 153c 4783 a8bc
00000080: b6f9 9b3b 530e e23c 23cb 5b3a 8d7e e53b
00000090: 6a4d 633c b24f 553b 60f6 193c b9ed db3b
000000a0: b354 e53b 9f9c 153c 705b 783c 0031 0cbc
000000b0: 7bbf c03b eb06 2e3b 9112 203c c3d4 21bc
000000c0: 4371 5b3b 76cb f03b d3c1 893b 1549 ffbb
000000d0: 84ec e33b 7399 9d3a 821c dabb 9e23 ecbb
000000e0: 2cfb a1bc da54 80bb 7e87 9bbb 0d7c 6bbc
000000f0: 4e01 1e3c 3cf4 d7bb e7d6 7d3b 3bfd 08bc
00000100: 6c21 54bb f11e d6b9 5080 79bc 2640 ebba
00000110: cfb6 153b 1156 68bc 40ea b23a 78be 81bb
00000120: f989 513b 0659 c5ba 7801 b4bb 3920 be3b
00000130: bbe8 4e3b 7345 cebb 0081 9bbb f3e7 d0bb
00000140: b89f 70bc 6d34 343b 65c7 fd3b c06c ba3b
00000150: 8f11 e3bb e8f4 8dbb e112 a03b 9bc7 90bb
00000160: d051 903b d8e5 2b3c 864f a3bb 1726 d3b8
00000170: 4b91 ddbb f2fc 97bc 49fb 30bc 2e30 9d3b
00000180: 662c 34bc 2bfe 3dbc 5ce6 cabb 4388 03bc
00000190: fd1f 15bb 7140 e73a 1c1a dfbb b87e 2fbc
000001a0: 5c78 82bb 6983 063b 031d e13b 26cc 8a3c
000001b0: 1e6b 75bb 49f0 d0bb 5e75 e83b f0bc f8ba
000001c0: cfe9 cabb 4385 8bbb 814e 8b3b 5512 8e3b
000001d0: 7a4a 4ebc 24aa b13c 6138 a33b b8e7 fe3b
000001e0: d055 543c 38e7 bbbb 4d8d b93b 107a b63a
000001f0: 1cf4 82bb 5496 cfbb bc5f 9abb 6aa1 dabc
00000200: f8d7 b6bc 46ca 8ebc 91cd 02bc eed6 b03b
00000210: ee56 54bc e127 b33b 42c6 933c f299 62bc
00000220: ee74 97bb d66b 3bbc 1f77 50bc 86c7 4c3a
00000230: a001 e93a f594 923b b91e 893b 5c8f 583a
00000240: 1e43 38bc 706f 6bbc 7b60 b6bc f58e 643b
00000250: 1410 00bc 69bd 0a3b c436 c9bb e6f1 b3bb
00000260: 9bb3 2b3a 1259 353c c286 d53c 7934 003c
00000270: 5833 43b9 2821 313c cc38 80bb 3be7 febb
00000280: 7985 0f3b 816a 8f39 9bdf d43b b458 cb3b
00000290: da23 dc3b 79b0 4ebc 872e 99bb de95 0dbc
000002a0: ed8f ab3b 42db 5fbc 8af1 f5b8 4057 3cbb
000002b0: b143 a9bb a2ef 3eb8 4b12 61bb 3930 4dbc
000002c0: 1708 0bbc d685 c33a 6170 77ba a8e0 67bb
000002d0: b56c 78bc c192 30bc d727 1dbc 2233 8dbc
000002e0: 9425 ccbc 84c8 89bc 2f0d 80ba ea6f 59bc
000002f0: 6049 b03a ec43 52bc 7751 74bb b002 1bbb
00000300: 2ae4 17bc fe0e 38bc c505 5dbc 613a a7bb
00000310: df13 f5bb 590f 50bc 863e 913c c986 8f3c
00000320: 4d30 613c 5f8a 69bc 46b1 c7bb dec3 dcbb
00000330: 1c75 45ba e9d0 433b 59b9 6c3c b11b 0b3d
00000340: 0f54 9c3c 6a7d 233d 6ce8 02bc 92d6 07bd
00000350: 7b4b 37bc 911e adbb e25e 72bc a45d 79bc
00000360: 2c35 193a 7097 0ebc d8b5 7dbb ab97 02b9
00000370: 99a5 34bb ed94 02bb ee2e 9a3a 06de dcbb
00000380: bf46 e73b ba86 9e3a feb1 543c 973d 2e3c
00000390: da64 003b ad89 99bb 4e19 3f3b 2c28 123c
000003a0: 71b4 cbbc 4466 a3bc c238 3bbb 9ba9 88ba
000003b0: 3a3e 5a3a 9920 b3bb 6fab 033c 8d65 733b
000003c0: dcda 91bb 8295 45bb f9da d8bb 2467 f2b9
000003d0: ae77 da3a 2d6f 82bc 19d5 5b3b 5b6f dfbb
000003e0: f9b4 b4bc b68c c0bb 75b0 27bc c661 02bc
000003f0: 1bd1 dbbb f98b 5dbc 4d1d 35bc 099a 87bb

tfeb.15.weight f4 [40]
0.11324187 0.084937975 0.08485396 0.080016345 0.06572953 0.07310505 0.18916163 0.07613443
0.07145753 0.08073411 0.15361665 0.11854287 0.12163695 0.10722322 0.1380463 0.10851312
0.068048984 0.13411286 0.094840385 0.021072716 0.093483046 0.12649406 0.093194276 0.077102326
0.10721984 0.08376055 0.1365758 0.07006417 0.07188744 0.13326634 0.15309806 0.08700857
0.087582015 0.09943392 0.08997747 0.06417811 0.078331895 0.12853658 0.08538878 0.110793985
00000000: 5beb e73d f6f3 ad3d eac7 ad3d 9cdf a33d
00000010: 349d 863d 1ab8 953d 96b3 413e 5eec 9b3d
00000020: 5358 923d ed57 a53d af4d 1d3e 9bc6 f23d
00000030: cb1c f93d d997 db3d 025c 0d3e 203c de3d
00000040: 445d 8b3d e254 093e ad3b c23d b0a0 ac3c
00000050: 0a74 bf3d a987 013e a4dc be3d d3e7 9d3d
00000060: 1396 db3d a78a ab3d 87da 0b3e ce7d 8f3d
00000070: b939 933d f976 083e bdc5 1c3e 8d31 b23d
00000080: 335e b33d 03a4 cb3d 1c46 b83d d06f 833d
00000090: 796c a03d 189f 033e 50e0 ae3d f5e7 e23d

tfeb.15.bias f4 [40]
-0.07573334 -0.08472538 -0.023510162 -0.08340607 -0.10814089 -0.03272042 0.00017453924 -0.024838477
-0.03715754 -0.10303425 0.024029396 -0.06714084 -0.06261325 0.0053988327 -0.0047559524 -0.054185934
-0.07517056 -0.081626765 -0.07185888 -0.03487354 -0.046093453 -0.06029485 -0.021639025 -0.055282105
-0.035020106 -0.040910944 0.0024711692 -0.046599984 -0.04027159 -0.051685136 0.04803053 -0.04502939
-0.06497379 -0.08885323 -0.019887913 -0.059409782 -0.018076377 -0.06827022 -0.021287639 -0.040643003
00000000: 151a 9bbd 8084 adbd 6298 c0bc cdd0 aabd
00000010: f978 ddbd d905 06bd 8504 3739 107a cbbc
00000020: 8132 18bd 9f03 d3bd 4cd9 c43c 2381 89bd
00000030: 603b 80bd b1e8 b03b d2d7 9bbb 12f2 5dbd
00000040: 06f3 99bd ef2b a7bd c02a 93bd 8fd7 0ebd
00000050: 7dcc 3cbd bcf7 76bd 5344 b1bc 7d6f 62bd
00000060: 3e71 0fbd 3c92 27bd 57f3 213b a0df 3ebd
00000070: d3f3 24bd cbb3 53bd a9bb 443d bd70 38bd
00000080: fa10 85bd aff8 b5bd faeb a2bc ac57 73bd
00000090: e914 94bc 42d1 8bbd 6a63 aebc 4779 26bd
