refine_codes/retrained_models_after_second_stage_pruning/after_second_pruning_time_2024022014_prunratio0.85/retrained_model_after_second_pruning_0.83ratio_acc52.27272415161133_3th_epoch_20240220141409.pt (torch, 409758 bytes, 62 tensors)

sfeb.0.weight f4 [6, 1, 1, 9]
000000 4f 12 04 3e f2 1f 5c 3e dd c9 9f 3d 68 fe 45 3f
       0.12897609 0.21496561 0.07802174 0.7734132
000010 20 6c 71 be e0 3c a7 be 9a 91 c9 be b7 ea 0b be
       -0.23576403 -0.3266363 -0.39368898 -0.13663755
000020 49 af 82 bd b0 1e 46 bd 26 ab 1e 3d 73 9d 30 3e
       -0.06381089 -0.04836911 0.03873744 0.17247562
000030 b1 3f a5 be ad 36 b0 3d 6b 6f 65 bf 1e 74 c2 be
       -0.32275155 0.086041786 -0.89623135 -0.37979215
000040 fc f0 da 3e 3d df 2b 3f 5f 27 0e 3e e5 51 67 ba
       0.4276198 0.6713751 0.13882206 -0.0008824154
000050 40 58 04 bc 84 68 7f be 60 54 3f bd 05 f5 84 be
       -0.008077681 -0.24942213 -0.046711326 -0.25968185
000060 ae c4 10 3e 70 0a 24 bc 66 9f e3 be e2 97 28 3f
       0.14137527 -0.010012254 -0.4445755 0.65856755
000070 b8 8a bb bd 97 6a 3a bd 2f b4 99 be 29 fd b4 3c
       -0.09157318 -0.04551181 -0.30020282 0.022093372
000080 6a bb 33 be 16 67 ea 3d 27 3d 0b 3f cb fd b9 be
       -0.17551962 0.11445443 0.54390186 -0.3632644
000090 a0 7b 02 bf 53 4a 16 bf 6b 9f 77 3b c0 af 12 3f
       -0.50969887 -0.5870716 0.003778423 0.57299423
0000a0 b8 f2 b8 3d a1 e1 95 3e 44 6e 83 be 24 20 09 3d
       0.0903067 0.29273704 -0.25670063 0.033477917
0000b0 05 0c e0 3d 33 34 49 3e b7 fb 36 3e b7 a8 6f be
       0.109397925 0.19648819 0.17869459 -0.23404203
0000c0 1c 4e c3 3e 56 1a 60 bf 31 5b 34 3f 30 0b 9d 3d
       0.3814553 -0.87540185 0.7045165 0.076681495
0000d0 fc c4 81 bf 54 e3 ff 3e
       -1.013824 0.49978125

sfeb.1.weight f4 [6]
000000 62 5a 4c 3f 57 76 6a 3f 57 1f 04 3f 12 a1 f5 3e
       0.79825413 0.9158682 0.5161032 0.4797445
000010 04 bc 1e 3f 41 48 17 3f
       0.6200564 0.59094626

sfeb.1.bias f4 [6]
000000 3e 2b 19 3d 72 b7 bd 3d 15 44 34 bd af 89 10 3f
       0.037394755 0.09263505 -0.04401024 0.5646009
000010 fe f9 0e 3f 02 ec 18 3f
       0.5585021 0.5973512

sfeb.1.running_mean f4 [6]
000000 67 50 7e 38 28 60 98 b9 17 94 58 ba 2c 7c e0 39
       6.06332e-05 -0.0002906334 -0.0008261813 0.00042817125
000010 72 49 93 b9 e4 c0 ce b8
       -0.00028092746 -9.858774e-05

sfeb.1.running_var f4 [6]
000000 a0 04 39 3d c5 ee 9e 3d dd 80 43 3c fb 0a fe 3c
       0.045170426 0.077603854 0.011932579 0.031011095
000010 a1 82 65 3d a5 46 3a 3c
       0.05603278 0.011369382

sfeb.3.weight f4 [32, 6, 1, 5]
000000 21 5b c1 bd b4 c1 13 bd ca f9 06 bd 5f d7 ee ba
       -0.094412096 -0.0360734 -0.03295306 -0.0018222145
000010 60 d2 99 3b 11 a9 17 bd be a0 15 bd 0a f0 53 bc
       0.004694268 -0.03702647 -0.03653025 -0.012935648
000020 43 f4 45 bd b1 61 02 3b 3a d2 09 3d ad 9b 97 3d
       -0.04832865 0.0019894654 0.033647753 0.0740274
000030 da 32 e6 3d 72 c4 57 3e 0f 30 14 3e 85 05 71 bd
       0.11240168 0.21071032 0.14471458 -0.058843154
000040 d2 e3 2a bd 16 29 57 bd 22 98 35 3c 15 4a 74 ba
       -0.041721173 -0.052529417 0.011083635 -0.00093189004
000050 88 19 0f 3d e8 37 45 3d 86 f1 1e 3d d2 b4 8f bd
       0.034936458 0.04814902 0.038804553 -0.070169106
000060 d2 50 86 3c 21 09 7b bd a7 03 77 bc ba ad e2 3b
       0.01639596 -0.061288003 -0.015076554 0.0069176825
000070 e0 01 09 3c 88 6d 81 bc af 5f e3 bd 29 2e eb bd
       0.008362263 -0.015799299 -0.111022346 -0.11483414
000080 42 aa 51 bd 1e 37 89 bd 6e 21 ee bc 2b d5 36 bd
       -0.05118776 -0.06699966 -0.029068675 -0.044636887
000090 fb 94 2f bd de 37 a1 3c 71 f3 82 3d 32 17 26 bd
       -0.04286669 0.01967996 0.06394089 -0.040549465
0000a0 f8 7c 6f 3e e0 33 85 3e 8d 69 56 3e 3f 5f 87 3e
       0.23387516 0.2601614 0.20938702 0.26439855
0000b0 4a 7c 57 3e 43 b1 17 be a8 bd da bd 36 33 0a be
       0.21043506 -0.14813714 -0.10680705 -0.13496098
0000c0 08 1c 2c be e2 d0 b3 bd 7b 0b 46 3d 87 c6 db 3d
       -0.16807568 -0.087800756 0.048350792 0.107312255
0000d0 25 00 f5 3d 63 8f 15 3e 4e 45 20 3e 01 83 51 bd
       0.11962918 0.14605479 0.15651438 -0.051150326
0000e0 6d 37 a9 bc fd f3 95 3c a9 73 08 bd 9f c1 80 bc
       -0.020656312 0.01830482 -0.033313427 -0.015717326
0000f0 68 3b 49 be 76 47 1b be df 10 c6 bd a2 9f f3 bd
       -0.19651568 -0.15163979 -0.09671187 -0.11895682
000100 7f 74 5c bd f1 a9 c3 3c 3b dc 83 bd 50 86 70 bd
       -0.053822037 0.023884745 -0.0643849 -0.05872184
000110 b6 96 2d be 08 6d 8e be ad 57 85 bd c7 2c a4 3d
       -0.16952023 -0.2781756 -0.065108635 0.08016353
000120 41 a5 d6 3d f6 9c 47 3e 8a 2d 83 3e 45 3d 19 be
       0.104807384 0.1949347 0.2562068 -0.14964779
000130 b5 ae 8a bd 28 ee 5e bd 36 56 9b bd 03 50 50 bd
       -0.06771604 -0.054426342 -0.07584803 -0.050857555
000140 ff d0 4f 3e 89 88 f7 3d 5c 98 aa 3d c1 6c cf 3d
       0.2029457 0.12086589 0.083298415 0.10128165
000150 56 e1 35 3d 51 c2 27 bb bf ac 3d bb 7f 70 22 3b
       0.04440435 -0.0025598 -0.0028942076 0.0024786291
000160 d1 99 0e bd c6 e9 0d bd 9d 5c d9 bc a1 2c d4 bb
       -0.03481466 -0.03464677 -0.02653342 -0.0064750467
000170 cf 48 57 3c 67 e6 0f bd 10 68 b8 bd 7f 46 1b be
       0.0131399175 -0.03513184 -0.09004223 -0.15163611
000180 b7 d4 95 bd 87 5e a7 bd bc a9 e8 bd e1 70 95 bd
       -0.07315963 -0.081723265 -0.11360499 -0.072969206
000190 19 a9 e3 be 10 38 aa be 45 0b 5c be 82 f9 20 be
       -0.4446495 -0.33245897 -0.21488674 -0.1572018
0001a0 47 f3 04 be 1f 9e 8e 3e d9 9d 49 3e dc 79 27 3e
       -0.12983428 0.27855012 0.1968912 0.1635508
0001b0 d2 51 cb 3d 69 ab 9a 3d a8 81 16 be b8 81 53 be
       0.09927715 0.07552225 -0.14697897 -0.20654953
0001c0 d3 f7 a2 bd 53 2e 0b be 81 84 d9 bd e6 29 12 bc
       -0.07957425 -0.1359189 -0.10620976 -0.008921122
0001d0 6f db 15 bc ea 24 2e bd fb 26 ee bc fd 0e dc bb
       -0.009146555 -0.042515673 -0.029071322 -0.006715654
0001e0 02 a9 1a 3e 57 48 f5 3d 28 6d 3f bd a9 3f 50 3a
       0.15103534 0.11976688 -0.04673496 0.00079440564
0001f0 8a a3 e2 3d 11 f7 1b be 20 9d 16 be 12 96 0e bc
       0.11066349 -0.15230967 -0.14708376 -0.008702772
000200 c3 bf ae bd 05 b7 53 be cf 99 e6 bd 08 fb aa bd
       -0.085326694 -0.20675285 -0.112598054 -0.08348662
000210 cb b0 d1 bd 7e 76 1a 3d 50 64 fb 3d 30 2d 80 3e
       -0.10238799 0.03771066 0.122749925 0.25034475
000220 cf e0 db 3d 4b 76 c2 3d 39 03 8b 3d 1b 31 13 3c
       0.10736238 0.09495219 0.06787724 0.008983876
000230 68 66 22 be 1a be ea bd 28 d2 f9 bd 45 5b ec bc
       -0.15859377 -0.1146204 -0.12198287 -0.028852114
000240 ff 3b 9f bd aa cb 80 3c d1 06 c1 3c c5 b4 8f 3b
       -0.07775115 0.015722115 0.02356282 0.004385563
000250 1b 5f 7e bd 67 b6 8a bd f1 54 e3 3d 87 16 1f 3e
       -0.06210242 -0.06773072 0.11100186 0.15535937
000260 15 44 cd 3d 22 c7 48 3d af 96 36 3c f3 de e9 bd
       0.10022751 0.049018033 0.011144324 -0.11419477
000270 79 17 04 be 72 f6 02 be e8 8c fc bd c8 92 f2 bd
       -0.12899579 -0.12789324 -0.12331563 -0.118444026
000280 39 7c 04 be 32 d9 b6 3b ee f2 01 3e 8e f0 45 3e
       -0.12938012 0.005580091 0.12690327 0.19330046
000290 4a cd 44 3e e2 8b 0d 3e d0 cc d9 3d bd f2 02 3e
       0.19218937 0.13822892 0.10634768 0.1278791
0002a0 6c bf 15 bc 21 eb 9b bd 58 ed de bd aa 98 3c be
       -0.009139877 -0.07613207 -0.108851135 -0.18417612
0002b0 dd d9 ec bd 57 df bc bd 54 ec b3 bd c8 38 d1 bc
       -0.115649916 -0.09222286 -0.087853104 -0.02553977
0002c0 fd 14 ee bc 8e 6a d2 ba 35 bf 83 bc 6e 21 66 bb
       -0.029062742 -0.0016053484 -0.016082386 -0.003511514
0002d0 f6 1c c4 3c cc f7 8f bd b7 37 2f bd 62 e4 9b bd
       0.02393959 -0.070296854 -0.042777743 -0.0761192
0002e0 f9 da a8 bd 46 8e 93 bd 58 04 05 bd 1f 5e af bd
       -0.08244891 -0.07204871 -0.032474846 -0.08562874
0002f0 5b 7f 11 3d f1 2a fb bb 85 e8 c9 bb 45 26 8f bc
       0.035521846 -0.007665031 -0.0061617517 -0.017474303
000300 6a 84 ac bd 00 58 ff bd da ab ec bd 5b 56 13 3e
       -0.084236935 -0.124679565 -0.115562156 0.14388411
000310 17 03 bb 3d 87 5e 0f 3c 50 ce 0b bd f3 48 06 bd
       0.09131449 0.008750564 -0.0341323 -0.032784414
000320 73 82 d2 bd 3d 0d c6 bd be ff 1d 3c 88 8b 07 3d
       -0.102787875 -0.09670494 0.009643493 0.03309205
000330 ba 3a d1 bc 00 dc 7b bc 05 0c 68 bd a9 0b ea bc
       -0.025540698 -0.015372276 -0.056652088 -0.028570013
000340 ff b1 89 bc 6e 22 a6 3c f6 2c 4a be a7 44 06 be
       -0.016808508 0.02028009 -0.19743714 -0.13112126
000350 c8 24 b8 bd a4 2c ed bd 49 c4 01 bc 93 4a 12 3c
       -0.089913905 -0.1158078 -0.007920333 0.008928913
000360 31 ca e7 3c c9 44 3a 3d bd bf c8 bd c7 41 03 be
       0.028294655 0.045475755 -0.09802196 -0.12818061
000370 d5 94 ee bd 09 1d cd bd 69 de 5e bd 15 b9 f7 3c
       -0.11649481 -0.10015304 -0.054411326 0.030239621
000380 c0 9c 59 3e 43 68 31 be 77 79 47 bd 1e 12 08 bc
       0.21251202 -0.17324929 -0.048699822 -0.008305101
000390 86 65 1b 3d 62 58 1e 3d c7 8a a8 3d 71 ac 22 3b
       0.037938617 0.038658507 0.08229595 0.0024822021
0003a0 b7 a6 29 bd 80 80 dd bb 01 30 6a 3c ec 8b f1 3c
       -0.041418757 -0.006759703 0.014293672 0.029485665
0003b0 0e 36 81 3c 2c f9 4c bb 01 41 cd 3c 3f d4 ac bd
       0.015772846 -0.0031276448 0.02505541 -0.0843892
0003c0 b2 5f b2 3d d6 23 d6 3c e0 6e 60 bd 78 17 dc bd
       0.08709659 0.026140135 -0.05479324 -0.10746664
0003d0 11 93 c4 bc 68 8d 2a 3d 24 7e 18 3c fc d9 cc 3c
       -0.023995908 0.04163876 0.009307418 0.025006287
0003e0 39 c0 9c 3d 29 05 ae 3d 63 89 77 bd 94 13 c3 bc
       0.07653851 0.08497078 -0.060433757 -0.023813047
0003f0 c1 55 81 3d e1 7b 5a 3d 64 ed 8e 3b 45 ad cd bd
       0.063151844 0.053340796 0.0043617953 -0.10042814

sfeb.4.weight f4 [32]
000000 84 fb 93 3e 89 6f 48 3f 84 0e 5d 3f 6b b0 7d 3f
       0.2890283 0.7829519 0.86350274 0.9909732
000010 7e f7 00 3f 6a 2a 28 3f 4d fc 7d 3e 6f 15 8a 3e
       0.50377643 0.6568972 0.24803276 0.26969478
000020 4b e9 c7 3d 06 00 01 3f 76 8a 22 3f 35 79 1e 3f
       0.09761294 0.5039066 0.63492525 0.619037
000030 f7 08 e1 3e 1e a4 e0 3e 88 7a 08 3f 7f af 1d 3f
       0.43952152 0.4387521 0.5331197 0.6159591
000040 10 59 95 3e 0e 86 bf 3e 3e f0 27 3f b4 21 1f 3f
       0.29169512 0.37406963 0.65600955 0.621608
000050 ad c2 84 3e b6 d6 0e 3f 1a 6c 0d 3f 96 e3 d0 3e
       0.25929776 0.5579637 0.55243075 0.40798634
000060 9e 43 db 3e f2 33 27 3f c4 54 1e 3f 3e 4f 1b 3f
       0.42825025 0.6531364 0.6184809 0.6066779
000070 65 9b d3 3e 3a 0d bd 3e 43 f3 dc 3e 12 6e 52 3e
       0.41329494 0.36924154 0.43154344 0.20549801

sfeb.4.bias f4 [32]
000000 d6 3f 8e bd e9 2d 8a bc 6a 7c 2a be 90 44 93 bd
       -0.069457695 -0.016867595 -0.16649023 -0.07190812
000010 af 9f f5 bd d3 94 6e bd e5 ca e5 bc 8e fa de bd
       -0.11993348 -0.0582474 -0.02805085 -0.10887633
000020 e4 eb 76 3d dd 70 9b bd 63 5f 19 bd 8d d0 cf bc
       0.060283557 -0.07589886 -0.037444483 -0.025368
000030 0b c0 1e bd b7 5e 8f 3d 38 81 1d 3d a3 8f 87 3d
       -0.038757365 0.07000487 0.03845331 0.066191934
000040 da 42 e9 3c a8 7b 28 bc 99 95 df 3c 07 b0 4b 3c
       0.02847426 -0.010283388 0.027293013 0.012432105
000050 ab b8 05 3c 67 d9 66 bc fd f8 5e bd 8b fb ee bd
       0.008161704 -0.014089919 -0.054436672 -0.11669072
000060 dd 52 b8 3c 03 32 7b bd 4e 25 05 be 6b bd 31 3c
       0.02250045 -0.06132699 -0.13002512 0.010848383
000070 73 d5 6d bd 26 6e a8 bd c2 1e 63 bd ba 38 25 3d
       -0.05806489 -0.08224134 -0.055449255 0.0403373

sfeb.4.running_mean f4 [32]
000000 18 8b cb bd da 47 72 bd 10 b1 22 be 95 ad 91 be
       -0.099386394 -0.059150554 -0.15887856 -0.28452745
000010 f6 2e 1e be ed 7d 95 be ad 39 4b be a7 8f 61 be
       -0.15447602 -0.29197636 -0.1984622 -0.22027455
000020 8a 5e ce bd 01 f5 d8 be 66 c2 7e bd 1b 67 c2 be
       -0.10076626 -0.42374423 -0.06219711 -0.37969288
000030 67 e4 4c be 95 b5 64 be cc 44 ab be ff 62 d1 bc
       -0.20009004 -0.22334893 -0.33450925 -0.0255599
000040 a0 7f e1 be 0c 1a 93 be d8 c4 88 bd 62 b8 e2 bd
       -0.44042683 -0.2873081 -0.0667817 -0.110703245
000050 83 17 10 be ec 8a 8b bd e2 54 ab be 9a ca b4 be
       -0.14071469 -0.068136066 -0.33463198 -0.35310823
000060 d5 ab ee bc df c9 5d be 2f 16 0c bf 1f 30 ac bd
       -0.02913467 -0.21659039 -0.5472135 -0.08407616
000070 7f db bf be 5f 2b 6e be d4 c0 8d 3b 24 b1 b8 3b
       -0.3747215 -0.23258732 0.0043259654 0.005636351

sfeb.4.running_var f4 [32]
000000 44 5c df 3c 7c 1b be 3d 52 55 05 3e 80 f7 a4 3e
       0.027265675 0.09282586 0.13020828 0.32220078
000010 40 61 b5 3d bd a4 aa 3d 86 11 89 3d 95 b8 b0 3d
       0.088564396 0.083322026 0.066927955 0.08628956
000020 b7 e0 44 3d 8f a6 3a 3e 19 5e 82 3e 83 88 4f 3e
       0.048065867 0.182276 0.25462416 0.20266919
000030 c1 fa 42 3e 47 f8 3d 3e 49 b8 71 3e 44 13 0b 3f
       0.19040968 0.18551742 0.23605455 0.5432627
000040 e8 93 7f 3d d7 46 c4 3d 3e 9c fb 3e 95 75 cd 3e
       0.062396914 0.09583824 0.4914264 0.4012877
000050 b5 b9 45 3d 56 d7 8a 3e 9b c5 0f 3e 4d 56 d4 3d
       0.048272807 0.27117413 0.14040224 0.10368023
000060 43 f7 78 3d 11 9c 10 3e bc 2c 4e 3e 29 34 c7 3d
       0.060782682 0.14122035 0.20134252 0.09726746
000070 74 93 22 3e 8c 02 ba 3d 8f ca 14 3d 18 53 b3 3b
       0.15876561 0.09082517 0.036325987 0.005472552

tfeb.0.weight f4 [11, 1, 3, 3]
000000 86 e5 50 3f f8 e9 07 bf 1c c8 99 be 8a 7a fa bd
       0.81600225 -0.53091383 -0.30035484 -0.12230404
000010 e7 b0 ac 3c 40 b1 8e 3d e9 e1 8d bb e8 40 86 3d
       0.021080447 0.069674015 -0.004329909 0.06555349
000020 9a ee a3 3d 68 0c 55 ba 39 c9 2a 3c 61 7b 29 bb
       0.08004494 -0.0008127154 0.010423952 -0.0025860893
000030 bf 2c c4 ba da ee 13 bb 79 de 72 bb 72 cd 5a 3c
       -0.0014966949 -0.0022572787 -0.0037058874 0.013354646
000040 55 89 a6 3c b0 5e b6 38 f4 f4 c4 3d c7 9d d5 be
       0.020329157 8.696073e-05 0.096170336 -0.41721937
000050 79 1f 00 3e 8e 8e 5d 3e 57 15 01 bf 17 51 ef 3d
       0.12512006 0.21636412 -0.50423187 0.116853885
000060 49 b8 4f 3e bd 71 8a be 26 12 e6 3d 75 91 4e 3e
       0.20285143 -0.270399 0.1123393 0.20172675
000070 06 2c 5a 3e 5c 69 cd be de 24 6a 3e fd 89 6f 3e
       0.21305856 -0.40119445 0.22865626 0.23392482
000080 05 8c c3 be 9b a4 0b 3e c1 e1 dc 3d a8 c9 f1 bd
       -0.38192764 0.13637011 0.10785247 -0.11806041
000090 5d 4a 0d bf 1b 8f 94 3d cb 90 30 3e 87 37 12 bf
       -0.55191594 0.07253858 0.17242734 -0.5711598
0000a0 04 d4 10 3e 68 56 d2 3e 0e f2 80 be db 70 37 3d
       0.14143378 0.41081548 -0.25184673 0.04478536
0000b0 be 17 1a 3e 49 a1 37 3c 64 e0 db 3d 14 25 c8 3c
       0.1504812 0.011207887 0.107361585 0.024431743
0000c0 7e 21 34 bd 50 4f af 3e 91 3e fa 3c 8c cb 98 bd
       -0.043977253 0.34240198 0.030547412 -0.074606985
0000d0 0b 3e 17 3e ff eb 32 3c 84 69 9e 3e d5 d3 91 bd
       0.14769761 0.010920524 0.30939877 -0.07120482
0000e0 9e 42 7a be c5 40 dc 3e 14 25 79 bd 8f fb 76 be
       -0.24439475 0.43018165 -0.060826376 -0.241194
0000f0 be b7 4d 3e 21 e9 80 bd 3a 96 3d be 60 f5 9c bb
       0.20089623 -0.06294466 -0.18514338 -0.004789993
000100 62 5c ad bb e9 1f 8e bb d7 f0 8d bb 47 66 73 bb
       -0.005290554 -0.0043373 -0.004331689 -0.003713982
000110 8d 5b 86 bb df a2 5b 3c d7 b6 68 3c d0 e4 b1 ba
       -0.004100269 0.013405531 0.014203749 -0.001357222
000120 16 08 8c 3c 0a 02 bd 3c e9 71 6b bb 53 c3 11 bc
       0.0170937 0.023072261 -0.003592605 -0.008896667
000130 76 59 03 39 e7 65 05 bc 96 b6 db 3c 86 b6 05 3d
       0.0001252646 -0.008141971 0.026820462 0.03264477
000140 f7 d6 44 bb 2b 8b f7 3d 44 98 d9 3d 9e ee 90 bd
       -0.0030035356 0.12087091 0.106247455 -0.070767626
000150 15 27 2e 3e 9e 80 f9 3d 7b 8a 19 be c5 ad 11 be
       0.17007096 0.12182735 -0.14994232 -0.14226444
000160 0b df bc be 23 56 46 3f c8 7b 8b be 77 ec b8 be
       -0.36888918 0.77475184 -0.27242875 -0.36117908
000170 ca e6 ce 3e 58 41 4d be b7 e3 96 be 42 93 17 3f
       0.40410453 -0.20044458 -0.29470608 0.5920907
000180 7d 1f 52 ba 2f cf 47 be d6 e5 75 3e
       -0.00080155564 -0.19512628 0.24013457

tfeb.1.weight f4 [11]
000000 5b 9b 73 3e 08 a1 66 3d 93 d1 8c 3e ce 3d 88 3e
       0.23789732 0.056305915 0.27503642 0.26609653
000010 1b 1a 7b 3e dc 95 67 3e 73 f2 32 3e 8d 33 2d 3d
       0.24521677 0.2261576 0.174753 0.04228549
000020 a0 98 07 3e 48 60 82 3e e0 65 9a 3e
       0.13241816 0.25464082 0.3015585

tfeb.1.bias f4 [11]
000000 7c c9 a8 3d da ef 65 bd 24 be 14 3c c9 da 29 3e
       0.08241555 -0.056136943 0.009078536 0.16587366
000010 bb 16 1e 3e cf 2f 20 3e bc 78 8a 3e a2 c1 3d bd
       0.15438358 0.15643238 0.27045238 -0.04632724
000020 1f 0c a8 bd 91 4e 43 3d e7 88 ed bd
       -0.08205437 0.04768235 -0.11598378

tfeb.1.running_mean f4 [11]
000000 80 ce 06 3d 70 1a 61 3c 7b 6a 08 be 4a 61 b1 3d
       0.032911777 0.013739213 -0.13321869 0.086611345
000010 f7 20 18 be d4 ed 65 3e aa 44 9b 3c 32 da 0e 3b
       -0.14856325 0.22454005 0.01895364 0.0021797535
000020 98 87 00 3d f9 12 58 3e 1c be 25 bd
       0.031379312 0.21100987 -0.040464506

tfeb.1.running_var f4 [11]
000000 64 98 36 3d 8b 74 e2 39 c0 93 8d 3d 75 da 5d 3d
       0.044578925 0.0004319291 0.06912947 0.054163415
000010 cb 25 ee 3d de 0e bb 3d 43 c6 37 3d f2 28 73 39
       0.11628302 0.09133695 0.04486681 0.00023189539
000020 b9 84 f0 3a fe 1f c4 3d 83 82 a4 3d
       0.0018350101 0.095764145 0.08032706

tfeb.4.weight f4 [21, 11, 3, 3]
000000 97 ec 88 3c 12 86 4e bc 5e 90 bd bc 89 ff e0 ba
       0.016714377 -0.012605207 -0.023140129 -0.0017165999
000010 c7 aa ee 3b 95 e6 13 3c 14 69 c7 3b 09 fa e2 3c
       0.007283542 0.009027143 0.0060855243 0.027707117
000020 49 db 22 bd 1a da cf ba 86 ff 16 bb 44 31 b8 ba
       -0.039759908 -0.0015857846 -0.0023040487 -0.0014052768
000030 25 b4 3f bb 6b 1f 74 bb 4d 34 3c bb 25 6a 56 bb
       -0.0029251662 -0.0037250172 -0.0028717697 -0.0032717076
000040 ad a0 33 bb bb 3b ca ba af 58 05 3c 89 80 56 3b
       -0.0027409003 -0.0015429178 0.00813882 0.0032730422
000050 e9 f6 21 3b 6c 88 12 bd 09 54 00 bd 84 b0 2f bd
       0.002471382 -0.035774633 -0.031330142 -0.042892948
000060 75 1c d3 bc a6 be 2e bd 9d 92 29 bd ac fb 28 3d
       -0.025770405 -0.042662285 -0.041399587 0.041255638
000070 58 1c 47 3c 06 5b 6f 3c c2 83 ed 3c b4 35 82 bc
       0.012152754 0.014609104 0.028993491 -0.015894748
000080 95 14 da bc 9c 78 a6 bb af c3 87 bd 9b d4 95 bd
       -0.026621142 -0.0050802957 -0.066291206 -0.07315942
000090 69 57 14 bc ba ab 84 3d e3 5b 7b 3c bd e9 c1 bc
       -0.009054043 0.06478067 0.015341732 -0.023671025
0000a0 74 d1 c4 3c c8 c5 d8 3c 73 9f 86 bd 82 97 62 bd
       0.024025656 0.026461497 -0.06573381 -0.05532027
0000b0 ee f8 6b bc 74 63 41 3d bd ad a2 3d ac c1 73 3d
       -0.014402611 0.047213987 0.07943294 0.05951087
0000c0 70 e2 8f bc 58 eb c1 bb 73 2c 80 bc f9 b5 66 bd
       -0.017564029 -0.0059179477 -0.015646195 -0.056325886
0000d0 1a 84 97 bd 57 f4 79 bd 0a 6d db 3c 91 26 84 3b
       -0.07398243 -0.061024036 0.026785392 0.004032918
0000e0 7b 58 d6 bb 05 55 a2 3c b2 e5 28 3c 2e a2 97 bc
       -0.0065413094 0.019815931 0.01030867 -0.01850995
0000f0 8c a9 b6 3c 97 1c e9 3b ad 88 aa bc ed 8b 0c bb
       0.022297643 0.007114004 -0.020817125 -0.0021445707
000100 d5 0d f1 ba c7 85 fd ba 19 3c b2 b9 bc 8c fe ba
       -0.0018390963 -0.0019342237 -0.00033995582 -0.0019420604
000110 45 ab c4 ba 37 56 ff ba 16 60 0f bb b0 19 85 ba
       -0.0015004656 -0.001948065 -0.002187734 -0.001015475
000120 3c 5c 22 bb 8f 4f 81 bb c5 b9 2b bb a7 3d c9 bb
       -0.0024774214 -0.0039462517 -0.0026203257 -0.0061413827
000130 94 65 e7 bb d3 5b bb bb cd d5 b2 bb f9 95 a9 bb
       -0.0070616696 -0.0057177334 -0.005457616 -0.005175349
000140 8e 40 51 bb fb 57 43 bc fc cf 54 3d 3d d7 03 3d
       -0.0031929347 -0.011922832 0.05195616 0.03218769
000150 09 c1 b0 bc 98 9f 46 bd e2 a5 e0 3c 01 6e 14 bd
       -0.021576421 -0.048492044 0.02742285 -0.03623772
000160 83 9f f2 3c 40 f7 b4 3c 51 8d ef b9 1f fd 85 3c
       0.029617077 0.022090554 -0.0004569092 0.01635605
000170 69 78 72 3d c3 4a 99 bc 19 73 d8 ba ff e6 22 3d
       0.059196863 -0.018712407 -0.0016513794 0.039771076
000180 4e 1d 72 bd 12 a0 8b bd 6b 16 e7 3c 1a 47 8d bc
       -0.05910998 -0.0681764 0.028208932 -0.017245818
000190 55 b2 3d 3d 66 b6 38 bd db c4 51 bd 65 b6 48 be
       0.04631265 -0.045095824 -0.051213127 -0.19600828
0001a0 f8 88 f1 bd d6 5d 2d bd f5 4e 1e bd 77 1a 38 bd
       -0.11793703 -0.042325817 -0.038649518 -0.044947114
0001b0 36 f9 08 bc 42 28 d4 bb be fd b8 bb d1 f5 df bb
       -0.008360198 -0.0064745257 -0.005645483 -0.0068347235
0001c0 31 1e be bb ad e6 de bb 79 3f 94 bb 7d 09 ff bb
       -0.005801939 -0.006802401 -0.004524168 -0.0077831135
0001d0 70 54 00 bc ed af ef 3c 94 aa 0d be ba 1b 79 bc
       -0.0078326315 0.029258693 -0.13834602 -0.015204364
0001e0 b7 52 c6 3d bf 83 01 be 82 47 0b 3d fb 67 45 3d
       0.09683745 -0.12647913 0.034003742 0.048194867
0001f0 52 37 89 bd 99 e1 5a 3d 59 3b 40 bd 04 90 14 bd
       -0.06700005 0.053437803 -0.0469316 -0.036270157
000200 d4 ff f3 bc 12 4e b4 bd dd 96 82 bd 7c 39 55 bb
       -0.029785074 -0.08803953 -0.06376431 -0.0032535484
000210 6b 75 81 bc cc 12 0e bd 2a c3 bf bc 4c f4 82 bc
       -0.01580306 -0.034685895 -0.023408491 -0.01598563
000220 5e df 75 3d 19 ec df bc 63 03 74 bc 82 14 aa 3d
       0.060027473 -0.02733426 -0.014893386 0.08304693
000230 57 9f 57 bd 99 71 a0 bd ad 6a c8 3c e0 a3 6a bc
       -0.052642193 -0.07834167 0.02446493 -0.014321297
000240 47 dc f5 bd eb ca 89 bd 2e 9b e7 bd bd 05 e8 bd
       -0.12004905 -0.06728157 -0.11308895 -0.113292195
000250 f4 5a a2 bc 81 2e 3c bd b4 c1 8d bd e3 65 5e bd
       -0.01981876 -0.045942787 -0.069217116 -0.054296385
000260 e1 7a ae bd 37 66 03 bb 64 cc 55 3c 15 0c 6d ba
       -0.08519531 -0.0020049938 0.013049219 -0.0009042633
000270 87 15 df bb f5 8c 9f bc 65 1c 32 ba 89 30 9f 3c
       -0.006807986 -0.019476393 -0.0006794392 0.019432323
000280 4a 32 e0 3c 60 c9 ad 3c 25 dc d1 bb 90 07 99 bb
       0.02736773 0.021214187 -0.006404417 -0.004670091
000290 c1 8d 9c bb ad 1e d8 bb 1b 70 ba bb 7d e3 ec bb
       -0.0047776406 -0.0065954537 -0.0056896335 -0.007229267
0002a0 43 16 6b bb ec 30 b8 bb 73 51 e7 bb e4 64 40 bc
       -0.0035871423 -0.0056210663 -0.00705927 -0.011742804
0002b0 24 11 01 bc a6 9c f1 bb 08 d4 28 bc ac 71 03 bc
       -0.007877622 -0.0073734103 -0.010304458 -0.008022707
0002c0 2d e5 0f bc 48 7d 9d bc d0 f2 b6 bc 9e 7b be bc
       -0.008782667 -0.019224778 -0.022332579 -0.023252305
0002d0 6a f2 19 bd d2 9c 06 be b7 c2 0d bd cb 0e 7c bd
       -0.0375847 -0.1314576 -0.034609523 -0.061537545
0002e0 c4 54 45 bd 6a 9e 2a 3c 88 2a 43 3c 59 0c 50 bc
       -0.048176542 0.010413745 0.011911996 -0.012698256
0002f0 4e 44 c7 bc 77 c3 60 3d b8 23 e4 bd 82 ed ba bb
       -0.024324562 0.05487391 -0.11139625 -0.0057045827
000300 bc d3 84 3d b1 8e a3 bd 44 38 7b 38 93 0b a7 bc
       0.064856976 -0.079862006 5.9895465e-05 -0.020391261
000310 b1 8a 7d bd 6f b6 63 bb 25 64 85 bb a4 a4 9f 3c
       -0.061899845 -0.003474619 -0.004070776 0.019487686
000320 ea 56 45 bb 64 58 76 bc bb fe 1c 3d 15 dd 85 bd
       -0.003011162 -0.015035722 0.038328867 -0.06536309
000330 14 b8 77 bc 82 50 8a 3d b2 6a 2e 3c fc 36 81 3b
       -0.015119571 0.06753637 0.010645555 0.003943322
000340 fd d7 9a 3b eb c9 01 3c 39 ac 1e 3b 51 84 85 3b
       0.004725455 0.007921676 0.002421154 0.0040746112
000350 52 22 55 3b c7 34 30 3b 8d 09 36 3b 5a 64 8f 3b
       0.0032521677 0.0026886926 0.0027776689 0.0043759765
000360 bd bc 0e 3c a1 0e c6 bc 55 13 92 bc 97 34 aa bc
       0.008711991 -0.024176897 -0.017831484 -0.02077703
000370 27 4e 1e bd c0 6c a2 bc 8f 8b e6 3c c2 e8 0d bc
       -0.03864875 -0.019827247 0.028142719 -0.008661451
000380 55 5b 8b bc 84 4e a5 3d 8c e9 df bb 6c 07 ea bc
       -0.017011324 0.08071616 -0.006833261 -0.028567992
000390 d6 16 fa 3c d0 c0 9c bd 10 ed ca bd 22 7b b3 3d
       0.030528467 -0.076539636 -0.09908497 0.0876372
0003a0 da bf b9 3c 4f 3b b6 ba 30 84 76 bc fc 63 b1 3d
       0.02267449 -0.0013903173 -0.015046164 0.08661649
0003b0 79 36 cf bc c0 e9 b1 bd c5 98 4b bb 8f 11 64 3c
       -0.02529453 -0.086871624 -0.00310664 0.013920202
0003c0 56 31 00 3d 49 07 f4 3d 69 c7 3a 3c e6 c8 15 3d
       0.03129705 0.11915452 0.011400082 0.036568545
0003d0 ff fb 11 3d 14 0a 95 3d cc 5c 2a bd 9f a2 90 bd
       0.035640713 0.07277313 -0.041592404 -0.070622675
0003e0 20 bb a8 bc 18 7f 5d 3d ab bc 67 3d f7 e2 86 3d
       -0.02059704 0.054076284 0.056576412 0.06586259
0003f0 f3 0a 1a bb 41 46 a3 3a f5 e4 51 bd c3 88 84 bb
       -0.0023505061 0.001245685 -0.05124374 -0.0040446236

tfeb.5.weight f4 [21]
000000 b9 cd b2 3d 62 2e 85 3e 66 dc b0 3e f0 28 25 3e
       0.08730645 0.2601195 0.3454315 0.16128898
000010 cd 67 10 3e ff 13 da 3e 80 b9 88 3d 72 3b 51 3e
       0.14102097 0.4259338 0.06676006 0.20432833
000020 de f0 db 3e e0 e2 91 3e 27 75 d0 3d 4e 32 75 3e
       0.42957205 0.28493404 0.10178595 0.23944971
000030 d3 d2 5c 3e 0b aa da 3d 27 20 a7 3e f5 7e 23 3e
       0.21564798 0.10676964 0.32641718 0.15966399
000040 75 2f 63 3e 62 5a 60 3e 74 40 b3 3d e9 f6 4c 3e
       0.22186072 0.21909478 0.08752528 0.20016064
000050 8d 6d b2 3c
       0.021780754

tfeb.5.bias f4 [21]
000000 91 6d 5a 3b 2d 0a 52 bd c3 19 f4 bd ba 12 1f 3c
       0.0033329467 -0.051279236 -0.11918976 0.009709055
000010 47 22 2f 3e fb e3 06 bc 90 50 0e 3b e8 ec 3f bd
       0.1710292 -0.008233066 0.00217155 -0.04685679
000020 bb f5 e5 3c 37 4e 56 be ac 26 84 3c c1 87 14 3e
       0.028071275 -0.20928274 0.016131721 0.14504911
000030 b0 8d bd 3d 11 44 12 bd 4e d0 d8 bd 79 39 60 be
       0.0925554 -0.035709444 -0.10586606 -0.21896924
000040 c7 6d aa bd 05 b8 65 3d 10 a4 23 bd 67 fa dc bc
       -0.083217196 0.056083698 -0.039951384 -0.02697487
000050 93 b7 87 3d
       0.06626811

tfeb.5.running_mean f4 [21]
000000 4a e9 2b bd 10 a3 c1 be ca 6e ee 3c 1e 9d 55 be
       -0.04197053 -0.3781972 0.029105563 -0.20860717
000010 f5 f2 28 be a0 c5 e0 be 2e 84 86 3d 77 e0 5a be
       -0.16498931 -0.43900776 0.0656818 -0.21374689
000020 1d ae 1a be f3 be 06 be c3 1e 80 bd 62 2b 5c bd
       -0.15105481 -0.13158779 -0.06255867 -0.05375231
000030 d1 e2 82 3c 47 85 e0 3d 9b 20 c6 be 43 af 9a 3e
       0.015977295 0.10962921 -0.3869675 0.3021184
000040 d9 94 4a be fd b9 2c be 84 1b a9 bc 3e c0 96 3e
       -0.19783343 -0.16867824 -0.020643003 0.29443544
000050 77 3d b2 be
       -0.3481252

tfeb.5.running_var f4 [21]
000000 5d 65 72 3c 4b 53 4f 3e 1e ba 86 3c 31 dc 22 3d
       0.014794675 0.20246617 0.01644617 0.039760772
000010 94 9a f7 3c c1 4c 59 3e ef 3a 08 3c e6 10 8d 3d
       0.030225076 0.21220686 0.008314832 0.06887989
000020 6e 48 20 3d bf 3a 4e 3c 85 f4 57 3c bf f8 bc 3c
       0.039131574 0.012587248 0.013180857 0.02306783
000030 97 01 55 3c db 41 0f 3d 6f 72 1d 3e 58 b2 b4 3d
       0.013000867 0.034974914 0.15375684 0.08823079
000040 8f 74 17 3d cd 39 a3 3d 36 b9 a8 3a 46 0e b7 3d
       0.036976393 0.07970009 0.001287258 0.08938269
000050 fb 1a 9a 3d
       0.07524677

tfeb.7.weight f4 [16, 21, 3, 3]
000000 8a 9a 19 3c 1e 9e 30 3b 59 e3 c9 3b 3d c6 db 3c
       0.009375224 0.0026949714 0.006161135 0.026827926
000010 ab 4d 49 3b 03 b7 f9 bc 8d 27 4f 3c 56 b7 3a bc
       0.003071646 -0.030482775 0.012643707 -0.01139625
000020 0c 95 06 bd 51 9b 0e 3b 9d d6 b0 3b c3 14 cc 3c
       -0.032856986 0.0021760056 0.0053966776 0.024912244
000030 bd 28 ab bd e9 19 fd bc 3e 17 e0 bc df 02 0d bc
       -0.083573796 -0.030896144 -0.027354833 -0.008606642
000040 cf 1b 96 3b 8e cf a0 ba 1f 1f 0d bd 10 8b 49 ba
       0.0045809518 -0.0012268887 -0.034453508 -0.00076882634
000050 52 c8 f8 3c b1 50 35 bd 16 1a d2 bb 9d 0a 6b 3c
       0.030368958 -0.044266406 -0.006411801 0.014345792
000060 db 43 33 bc aa 52 a9 3b 60 98 8f bc cd 7b 25 bc
       -0.010941471 0.005167325 -0.017528713 -0.010100317
000070 12 59 11 bc cb bb 92 bc 9e 91 f7 bc 75 c7 6c bd
       -0.008871334 -0.017911812 -0.030220803 -0.057807405
000080 2b 16 17 bd 6b 79 02 3d 34 17 cb ba 55 e9 b3 bc
       -0.036886375 0.031854074 -0.0015494586 -0.021961847
000090 85 17 c8 bc 74 bb ab bc b5 45 26 3c af d5 d0 bd
       -0.024425277 -0.020963408 0.010148455 -0.10197007
0000a0 8d e9 62 bd 39 47 92 3c 12 0e 8d bd 98 4f a7 bc
       -0.055398513 0.017856227 -0.06887449 -0.020423695
0000b0 fe 1d 22 3d 70 89 04 bd 4a ef 1b b8 d4 e8 8a 3c
       0.039579384 -0.032357633 -3.7177735e-05 0.016956724
0000c0 eb cc 48 bd 78 e3 21 bd 70 d5 24 bd 7a e3 3a 3c
       -0.04902355 -0.03952357 -0.040242612 0.011406774
0000d0 8a d0 9a bc 0c db 0a bd ec bb 08 3b a1 7e d4 3b
       -0.018898267 -0.033900306 0.0020863963 0.006484822
0000e0 af 11 5e 3b 92 78 b9 39 d6 db 26 3b 85 8d c9 bb
       0.0033885052 0.00035375782 0.0025460622 -0.0061509036
0000f0 4d 49 67 3c db 1a a6 bb 51 e1 dd bc 53 a1 0d bd
       0.014116597 -0.0050691194 -0.027084978 -0.03457768
000100 e6 10 2c bc 22 7e f6 3a 89 47 92 bd eb 80 31 bb
       -0.010502076 0.0018805901 -0.071425505 -0.0027084898
000110 a0 46 94 bc d9 32 57 3b 03 e3 ff 3c cf 5d 33 bb
       -0.018100083 0.0032836704 0.031236177 -0.0027369147
000120 5f ff 95 3b 99 d5 dd ba a8 e0 93 3b ea 65 d8 bc
       0.0045775617 -0.0016924619 0.004512865 -0.026415784
000130 6d a5 ce bc e2 77 b9 3c fd 3e d3 bc dc f4 8c bc
       -0.025225366 0.022640172 -0.025786871 -0.017206602
000140 90 9f 0f bc 39 0a 9f bc 4e 43 03 bb a9 4b 88 3c
       -0.00876607 -0.019414054 -0.002002913 0.01663764
000150 cb 49 83 bd f7 01 be bc da dd 3a 3c 5e c2 35 bd
       -0.06410559 -0.023194296 0.011405433 -0.044374816
000160 be 00 eb bb ee 62 56 3d 04 dd e0 bc 49 84 e0 ba
       -0.0071717193 0.05234044 -0.027449138 -0.0017129268
000170 93 6b 28 3c 8b 97 8a bb f9 c3 7e 3b df f0 75 3b
       0.010279554 -0.004229491 0.0038874133 0.0037527604
000180 e3 c1 8f bc fc b6 e7 bc 60 6c fe bc a3 59 7b bd
       -0.017548507 -0.028285496 -0.031057537 -0.06136478
000190 32 fd a9 bd d4 ac 12 bd b1 9a 99 bd c3 46 8d bd
       -0.08300246 -0.035809353 -0.07500208 -0.06898262
0001a0 bd d4 85 bc 4c 2e bc bc 24 83 ff bc cc 07 b2 3c
       -0.016336793 -0.022971295 -0.031190462 0.021732233
0001b0 6e 4f bb 3c 56 bb 4d bc 02 c3 af bc 29 8e 6c 3d
       0.022865023 -0.012556871 -0.021455292 0.057752762
0001c0 a4 94 88 bc 1a 0d 56 bd 79 0f af 3c de 77 fd bb
       -0.01667244 -0.05225859 0.021369683 -0.0077352365
0001d0 16 2f eb bb 37 e1 0b 3d 5d bc 84 3c d5 92 4f 3c
       -0.007177244 0.03415033 0.0162031 0.012669285
0001e0 98 50 bd bb b1 5b 4e bc 86 89 97 ba 8d ae 9a 3c
       -0.00577743 -0.012595103 -0.0011561371 0.01888206
0001f0 e2 41 47 bc 34 73 c0 bc 2c 15 05 3d 71 ea 51 bc
       -0.012161704 -0.023492433 0.032490894 -0.012812243
000200 9c ea a6 3b 6e 3d 2c bd bd 46 45 bd 72 6e 9c 3c
       0.0050938856 -0.04205077 -0.048163164 0.019095633
000210 54 49 5f bb 26 7b eb ba dd b0 05 bc e6 d3 65 bd
       -0.0034070807 -0.0017965778 -0.008159843 -0.056110285
000220 1f a9 94 bb 2a 17 03 bc a3 de 87 bd 00 3e 01 bd
       -0.0045367624 -0.008001128 -0.066342615 -0.03155327
000230 05 c8 d5 bc a6 05 68 bd c8 3b bb bc 7e dd b6 bb
       -0.026096353 -0.05664601 -0.022855654 -0.005580603
000240 2c 59 2a 3c 8f 33 2e 3d 5e 95 27 3d ef 1a af bc
       0.010397237 0.04252964 0.040913932 -0.021375148
000250 e4 e0 8a bc 3c c9 8c 3b 27 21 0a 3d c7 4b 3e bc
       -0.01695294 0.00429645 0.033723023 -0.011614746
000260 e5 12 48 bc 05 89 4c 3c ad 01 07 bd 45 ed c8 3c
       -0.012211536 0.01248384 -0.032960583 0.024527201
000270 14 2e 97 3b 47 6b 97 bb 32 ee 07 3d f2 4d b9 bc
       0.0046136472 -0.0046209428 0.033186145 -0.022620175
000280 48 72 ac bc 7f 52 08 bc 95 cf 96 3c f6 bb f7 ba
       -0.021050587 -0.00832045 0.01840953 -0.0018900621
000290 fe 96 19 3b bf 0f 50 bc 6f 45 55 bc 6b ef b6 bb
       0.0023435946 -0.012699067 -0.013017043 -0.00558274
0002a0 6a 13 fe bb 87 fa 25 3b f4 28 ca 3b 95 ba 65 3d
       -0.007753779 0.0025326328 0.006169433 0.05608614
0002b0 8d 7d fe 3b cd e0 e7 3b 25 40 6a bd d3 0d 32 bd
       0.0077664317 0.007076359 -0.05719008 -0.043470215
0002c0 91 b8 e8 bc 99 7b 69 3c bb 68 02 3b f6 27 76 3c
       -0.02840832 0.014250659 0.001989885 0.015024176
0002d0 6d dc 27 ba c0 05 a4 bc 89 3e b0 3c c7 36 64 bc
       -0.00064033904 -0.020022273 0.021514194 -0.013929076
0002e0 4c d6 02 bd 14 81 a3 bb 8a ea fe 3c 45 7a ad 3a
       -0.03194265 -0.0049897525 0.031117696 0.0013235292
0002f0 2c b6 f5 bb da b7 95 bc 65 13 ae bc 8c 5c 95 bc
       -0.007498523 -0.018276144 -0.021249482 -0.018232606
000300 bd e4 84 bc 1d 1b 90 3b 58 46 0c 3d 55 79 3b bc
       -0.016222352 0.0043977634 0.034246773 -0.011442502
000310 97 a0 76 bb c8 33 b4 3c 30 fd 11 bc 32 d2 46 bc
       -0.003763234 0.021997347 -0.008910462 -0.012135075
000320 82 47 cf 3c 2e 28 08 bc 98 d1 fb 3c 1a 74 1a 3d
       0.025302652 -0.008310361 0.03073959 0.03770838
000330 ad 7b 19 bd 7d aa 09 bd ba 4f 14 bd 3e 19 91 3c
       -0.037471462 -0.033609856 -0.036208846 0.017712232
000340 e5 3c 63 3c b4 10 90 bc e9 43 30 ba 3f fd 3e bd
       0.013869499 -0.01758609 -0.00067239866 -0.046628233
000350 ab a8 97 bd eb f8 c3 bb a7 f5 ed 3c 91 90 85 3d
       -0.07405218 -0.005980601 0.0290478 0.065217145
000360 96 3e 29 bc 39 51 ff 3c aa 40 ba 3b 1e 97 53 bc
       -0.010329863 0.03116666 0.005683978 -0.012914447
000370 fa 52 b4 bc ee 9e 06 bd b5 a4 02 bd 9d 8b 08 3d
       -0.022012223 -0.03286641 -0.031895358 0.03333627
000380 0b ad 3a 3d 3f c1 77 3c 6b 6d d8 ba 8b 8f 49 bc
       0.045575183 0.015121757 -0.0016512101 -0.01230229
000390 df 43 dc 3c 1c f1 d7 bc 2f 44 d4 bc 6e 2b 96 bc
       0.026887832 -0.026360087 -0.025911419 -0.018331256
0003a0 d7 36 43 bd 09 74 7a bd 0e 89 eb bc 0f 1b 1b 3b
       -0.04765972 -0.061145816 -0.028751876 0.0023667251
0003b0 08 1b 9a bd b8 36 e1 bc 41 5d 0e 3d 09 b2 c5 bc
       -0.07524687 -0.027491912 0.034756903 -0.024132745
0003c0 39 2f 5b bd 53 0f 00 bd 44 5b 55 bd 31 12 a9 3a
       -0.053511832 -0.031264614 -0.05208899 0.0012899098
0003d0 e6 fd e4 3b db ec a1 3c 79 99 d2 bb 84 b4 29 3b
       0.006988275 0.019766262 -0.006426987 0.002589495
0003e0 20 c2 0d 3b 65 f7 8b bb 46 9d cd ba 72 52 46 3c
       0.00216306 -0.004271435 -0.001568713 0.012104617
0003f0 cc 7f 99 bb 12 fd 41 3d c8 e9 0b 3d 1c 42 a1 3b
       -0.004684424 0.047360487 0.034158498 0.004921211

tfeb.8.weight f4 [16]
000000 4d 8b 94 3e af 66 8d 3e 1e 41 74 3e aa 3f 70 3e
       0.29012528 0.27617404 0.23852965 0.23461786
000010 fb 95 4c 3e 1d 4f 24 3e 22 1e 06 3e 75 0b 8d 3e
       0.19979088 0.16045804 0.13097432 0.27547804
000020 1f 13 a1 3e fc 82 9a 3e f8 66 c4 3d f2 ab 33 3e
       0.314599 0.30178058 0.09589952 0.1754606
000030 62 4a 38 3e 64 b7 70 3e db 50 a8 3e bf 1a 1d 3e
       0.17997125 0.23507458 0.32874188 0.15342234

tfeb.8.bias f4 [16]
000000 ca 26 5a bd cb a9 0c 3d af 86 93 be b5 51 ec bc
       -0.05325965 0.034341615 -0.28813693 -0.028847555
000010 15 ca aa bd 0d 4f 43 bc 5e 7d c5 3c 5c 55 a9 bd
       -0.08339325 -0.011920703 0.024107631 -0.08268234
000020 f1 41 6c be 5f bd 10 bd 86 c2 00 bd 85 2f ee bd
       -0.2307203 -0.03533685 -0.031435512 -0.116301574
000030 17 a4 67 bd 64 5d 2a be ec 68 1d be 64 13 6c 3d
       -0.056552973 -0.16637188 -0.15372056 0.05763568

tfeb.8.running_mean f4 [16]
000000 86 db 2e be 1a 45 14 bd a0 fc 22 3c 78 ba 19 be
       -0.17075929 -0.036198713 0.009947926 -0.15012538
000010 da 32 b9 3d fe 17 6c 3d 55 8a be bd 13 ae 07 be
       0.09042902 0.05764007 -0.093037285 -0.13249998
000020 d2 af a3 3c 4d 30 66 bd 51 b8 e6 3c 22 5e 33 bd
       0.019981299 -0.056198407 0.02816406 -0.043790944
000030 1e 2b 2d bd f5 63 96 bd 8f dc 49 3e 9f 89 54 be
       -0.042277448 -0.07343284 0.19713043 -0.20755623

tfeb.8.running_var f4 [16]
000000 93 c3 ef 3b f7 c3 d0 3b 72 92 40 3c 4a 9c 5f 3c
       0.0073170154 0.006371017 0.011753665 0.013648102
000010 a0 0e e0 3b 90 3f 36 3b 34 7c 52 3c 6a 22 08 3c
       0.006837681 0.0027808882 0.012846995 0.008308986
000020 4f c8 87 3a f8 c1 90 3c 4f 65 30 3b d9 ea 12 3b
       0.0010359379 0.017670617 0.0026915853 0.0022417812
000030 c5 b1 2c 3c cb 5d 01 3c 6f ed 01 3d ff 46 96 3c
       0.01054043 0.007895897 0.031720575 0.0183444

tfeb.11.weight f4 [26, 16, 3, 3]
000000 f8 b9 01 39 9c 55 82 bc ee 26 1a bc 26 18 8c bc
       0.00012371677 -0.015909962 -0.009408696 -0.017101359
000010 db 1c 87 bc 48 e9 43 bd 60 a9 21 bc 54 e1 d8 3a
       -0.016493252 -0.047829896 -0.009867042 0.0016546645
000020 61 81 a1 bb 67 3d cf 3c d0 4b 5f 3d 9d e8 c5 3c
       -0.0049287532 0.025297834 0.05451566 0.02415877
000030 2e 8e 38 3d 41 bd 9a 3d 54 ad 8f 3d 9c e1 7d bb
       0.045057468 0.075556286 0.070154816 -0.003873921
000040 ad 2c 19 3b 97 e2 d3 bc 07 10 6f 3b 51 5b a6 bb
       0.0023372576 -0.025864882 0.003647806 -0.0050768037
000050 fb 58 06 bc e9 ee 29 bc e4 69 48 bc aa 75 ef 3a
       -0.008199926 -0.010371902 -0.012232278 0.001826932
000060 de f9 56 3a 70 3c 85 bb 77 df 37 bc 79 ad f8 ba
       0.0008200685 -0.0040660426 -0.011222712 -0.0018972597
000070 8b 2e c8 3b d5 fd d7 ba 44 33 cf ba c9 1e 0e bc
       0.006109064 -0.0016478846 -0.0015808125 -0.008674332
000080 62 fa 46 bc 91 a1 53 bb c7 19 2f 3c 6a af ed 3b
       -0.012144657 -0.0032292346 0.010687298 0.007253577
000090 db 3b 81 bc b4 f8 31 ba 9e 60 d9 bc 41 c3 82 bc
       -0.015775612 -0.0006789074 -0.026535328 -0.015962245
0000a0 79 ea 16 3b c7 ed ef bb e2 66 22 bd a6 14 ba bc
       0.002302794 -0.0073220464 -0.039648898 -0.022714924
0000b0 ae 6e 2b bd 06 59 0b bd 73 4d 0d bd 2d dc 03 bd
       -0.0418536 -0.034020446 -0.03449769 -0.032192398
0000c0 51 00 e7 bc a6 fb 9d bb 67 22 b8 bc 9c 59 02 3d
       -0.028198393 -0.0048212586 -0.022477342 0.03182374
0000d0 4f 84 19 3d 24 8d f9 3c 9d e2 49 3c 65 75 03 bd
       0.037479695 0.030462809 0.012322095 -0.032094378
0000e0 8f 4a 62 bc 7a 7a 2b 3d e8 4a 01 3c 41 e2 fb 3c
       -0.0138117215 0.04186485 0.007891394 0.030747535
0000f0 32 fd 30 3c dc 83 42 3c f6 9f c3 3c 9d f6 b4 bc
       0.010802554 0.011872258 0.023879986 -0.02209025
000100 55 25 e5 bc 50 b4 d2 bc 92 ea d1 3b dd 47 10 bc
       -0.027971903 -0.025720745 0.006406137 -0.008806196
000110 34 9c 2e 3c 2d 1c 37 3d fd 2a 8f bc 50 b8 aa 3c
       0.010657359 0.044704605 -0.017476553 0.02083984
000120 a3 84 5a 3a 49 74 a3 3a 8c 34 55 bc 11 5b 91 bb
       0.00083358045 0.0012470569 -0.013013016 -0.004435905
000130 89 7f e6 bb 20 b1 ae bc 8f 89 6a bb 5a 4c 86 bc
       -0.0070342463 -0.021324694 -0.0035787558 -0.01639383
000140 87 57 dd bc 9a 61 b6 bc 9d e9 a3 3c f5 b7 9d ba
       -0.027019275 -0.022263337 0.020008856 -0.0012032973
000150 d3 33 95 3c ee 5b 21 3d 74 29 da 3c 3d ed 4e 3d
       0.018213188 0.03939431 0.026631095 0.050519217
000160 a8 13 ab 3d e7 75 3c 3c cb 6d ed bc 9c 54 ec bc
       0.083533585 0.0115027195 -0.028983017 -0.028848939
000170 a0 5c e1 bc e5 e2 dd bb 9c 30 89 bc 90 19 cb bc
       -0.027509987 -0.0067714327 -0.016746812 -0.024792463
000180 39 1a 8f 3c cc 7d 7f 3b 5e e8 4e bc 8f 78 1e 3c
       0.017468559 0.0038984893 -0.012628643 0.009672298
000190 60 19 80 3c 6e a8 0b 3c d0 ce 95 3c 35 29 fd 3c
       0.0156371 0.0085240435 0.018287092 0.030903438
0001a0 3e 01 db 3b 2b 56 25 3c 67 17 16 3c 4c 33 64 bc
       0.0066834977 0.010091345 0.009160853 -0.013928246
0001b0 4a 65 80 bc 0f 86 4a 3c f7 d3 5c bd 1b 82 f2 3c
       -0.015673298 0.012361064 -0.053913083 0.029603055
0001c0 ac 4e 2e 3d fa 8b c9 bc a3 28 e8 3d f1 fa 68 3d
       0.042555496 -0.024602879 0.11335876 0.05687994
0001d0 3e 8e 07 bc 72 0d 7e bc 43 c6 dc bc e4 9a fc bc
       -0.008273659 -0.015506135 -0.026950007 -0.030835576
0001e0 50 e8 13 3c 95 44 01 3c 84 20 e7 3c ce bc a2 bb
       0.009027556 0.007889886 0.028213747 -0.004966355
0001f0 a1 be 68 3c 6b 50 dd 3c 57 72 9a bc ae e5 de 3b
       0.014205606 0.027015885 -0.01885335 0.0068022823
000200 2f ef 01 bd 02 35 47 bd 2d f5 25 bd 83 6e 80 bd
       -0.031722244 -0.048634537 -0.04051702 -0.062710784
000210 8e f7 b0 3c 6e 64 f1 bc e6 7f ef bc f4 6e eb 3b
       0.021602418 -0.029466834 -0.029235791 0.0071848575
000220 55 f7 c2 3c e7 79 65 bb 05 23 11 3d be 84 2e 3d
       0.023799578 -0.0035015286 0.035433788 0.04260706
000230 b0 30 9a 3c 37 40 04 3d ca 98 06 3c 10 7c df 3b
       0.018822044 0.032287803 0.008215139 0.0068202093
000240 2f 69 87 bc 1f b8 c9 bc 0e 19 a8 ba 7d 32 ce 3c
       -0.016529648 -0.024623929 -0.001282485 0.025170559
000250 f0 51 b8 bc 4d c6 77 bc 09 1d c4 3b e3 6c 27 bd
       -0.022500008 -0.015122962 0.0059849066 -0.040875327
000260 2d 98 d8 3b 7f 9e 7c bc e0 e2 0e bc 98 4d 52 bd
       0.0066099376 -0.015418648 -0.008721083 -0.05134353
000270 9c 33 82 bd cf c7 9a bd dc 21 c8 bd 94 9c b5 3c
       -0.063575 -0.07557642 -0.09772083 0.022169389
000280 01 7c 41 3c d3 6c be 3c f5 10 a8 bc 5e cb 15 3c
       0.01180935 0.02324525 -0.020515898 0.009142725
000290 a4 14 80 bc 11 1c 95 3b 0c 8d 1c 3d cd 71 d8 3b
       -0.015634842 0.004550465 0.03822045 0.006605363
0002a0 f1 81 60 bb b4 0d b4 3c 03 a8 08 3b c5 b5 6b bc
       -0.0034257139 0.02197919 0.0020852096 -0.014386599
0002b0 b3 a5 71 bb 9e 35 b8 bc 3a c2 ec 3b 72 10 71 bb
       -0.0036872446 -0.022486504 0.007225302 -0.0036783484
0002c0 99 89 c6 bc 14 6c a7 bc b4 9b a5 bb ac 09 48 bb
       -0.024235534 -0.020437278 -0.0050539616 -0.0030523343
0002d0 fc c0 17 bc 9f ec b7 bc 1c da 0a bd d5 f9 31 bd
       -0.00926232 -0.022451697 -0.03389941 -0.04345115
0002e0 c1 6e 18 bd fb 1b 5f bd 8f 59 d8 39 6c f9 c5 3c
       -0.037215 -0.054470044 0.00041265457 0.024166785
0002f0 cc 57 3f 3c 60 9c 53 3c 19 18 c7 3c 70 fd 75 3c
       0.011678647 0.012915701 0.024303483 0.0150140375
000300 a5 dc de bb 39 97 69 3c 66 ae 35 3a 64 55 b3 bb
       -0.006801205 0.014257246 0.00069305894 -0.005472826
000310 00 80 9c 3a 75 03 66 3c ad 56 99 3c 8d bd ac bb
       0.0011940002 0.01403891 0.018718088 -0.0052716197
000320 68 f9 fb 3c f2 c9 07 3d 7d d6 44 bc b2 c1 f8 3c
       0.030758575 0.033151574 -0.012014029 0.030365799
000330 f7 18 36 bc bb e3 40 bd 58 3b c2 3c a6 42 90 3b
       -0.0111143505 -0.04709218 0.023709938 0.0044024764
000340 4a d8 f8 bb 75 a6 bb bb 3b a0 d1 bc 9e d7 85 bc
       -0.007594143 -0.0057266303 -0.0255891 -0.016338166
000350 64 e9 9e 38 4d 8e 63 bc 52 91 21 bc 5a e6 74 bc
       7.5774995e-05 -0.013888908 -0.009861307 -0.014947498
000360 55 9d 1c 3c 85 82 c6 bc 9b ae 6a bc 40 5b fc ba
       0.009558995 -0.024232158 -0.014323856 -0.0019253269
000370 7d 5e ff bc 9a c7 00 bb 63 b1 84 3c c1 5c 3c 3c
       -0.031172985 -0.0019650222 0.016197866 0.011496724
000380 19 29 f9 3b e6 63 ff bb f8 35 17 bd e4 36 3e 3a
       0.007603776 -0.0077938912 -0.036916703 0.0007256104
000390 08 a1 34 bd 0e 51 22 bd 64 f1 d6 bc fb 48 37 bd
       -0.044098884 -0.03962808 -0.02623815 -0.044747334
0003a0 60 32 59 3c 3c dd 05 bd 17 0e 67 bd 60 26 af bc
       0.013256639 -0.03268169 -0.05640992 -0.021380603
0003b0 40 b0 e0 39 7d 20 4a bd d0 4d 0e bc a7 37 5b 3c
       0.00042855926 -0.04934739 -0.008685544 0.013379968
0003c0 46 40 8e bc 27 79 b2 bb bc 41 72 39 67 4d c9 3c
       -0.017364632 -0.0054465714 0.00023103406 0.024573041
0003d0 c9 86 2d bc e7 66 aa bc a4 e7 00 3d d1 b3 27 bc
       -0.010591217 -0.02080102 0.03147091 -0.010235743
0003e0 a5 48 42 bb cb 88 76 3c 97 c5 39 bb 5a eb 12 3b
       -0.002964535 0.015047262 -0.0028346532 0.0022418112
0003f0 03 8c d5 3c 9e f6 4c 3c ce ee ae 3b 28 f1 75 bc
       0.02606774 0.01250997 0.0053385263 -0.015011109

tfeb.12.weight f4 [26]
000000 1f d2 9d 3d f7 eb 7a 3e 5c 84 29 3e c0 a1 29 3e
       0.07706093 0.24504076 0.16554397 0.16565609
000010 1b cf 6e 3e cf f6 33 3e 7a 86 1e 3e e6 fc 2f 3e
       0.23321192 0.17574619 0.15480986 0.17186317
000020 5c 14 cf 3d f7 4a ae 3d 1e 03 7a 3e d4 0b 02 3e
       0.10111305 0.08510392 0.24415252 0.12699825
000030 a3 6d 26 3e c7 7f 34 3e 26 1e 64 3e 31 26 4c 3e
       0.1625276 0.17626868 0.22277126 0.19936444
000040 58 a8 2e 3e 16 c3 48 3e 39 7f 17 3e cb 6b 02 3d
       0.17056406 0.1960567 0.14794625 0.03184108
000050 9b 97 2c 3e ae cd d0 3d fb ae e4 3d 1a 2d 89 3e
       0.16854708 0.1019548 0.111661874 0.26792222
000060 1f d7 1d 3e 75 06 0f 3e
       0.15414093 0.13967307

tfeb.12.bias f4 [26]
000000 7a 1d b2 bc af d3 53 3c 65 64 ca bd 0f 9c 36 bd
       -0.021742571 0.012928887 -0.0988243 -0.044582423
000010 8d 0c 1c be f5 dc 16 be 98 98 e7 bb 08 cd 85 bd
       -0.15239163 -0.14732726 -0.007067751 -0.06533247
000020 12 a1 b0 3d 02 cb d8 bd 22 87 1a be 8b 14 8f bd
       0.08624472 -0.10585596 -0.15090612 -0.0698634
000030 9c ff ce bd bb 37 82 bd f3 72 8a bd ef d1 dd bd
       -0.10107347 -0.06358286 -0.06760206 -0.10831057
000040 b0 a6 eb bc a6 db 27 bd 5a a4 b4 bc ae 68 07 3d
       -0.028766006 -0.040980957 -0.022051025 0.033058815
000050 b2 da 58 bd 96 90 8e 3d 9a 58 8b bc f1 5c 07 be
       -0.05294294 0.06961171 -0.017010022 -0.13219048
000060 21 08 27 bd 41 ba ae 3d
       -0.040779237 0.08531619

tfeb.12.running_mean f4 [26]
000000 6a 2f 04 3d 63 ac df bd 24 fd c5 3d cc ff 91 bd
       0.03227178 -0.10921552 0.09667423 -0.071288675
000010 7c 19 b1 bd cc 42 68 be 18 0c 92 bd 8f 8d 48 3d
       -0.08647439 -0.22681731 -0.07131213 0.048963126
000020 06 19 b9 3d c6 bd 32 bc ef 3b d0 3d d6 8e ba bc
       0.09037976 -0.010909503 0.101676814 -0.022773188
000030 82 1d 63 be a0 d2 60 bd 30 74 0f 3e c6 d4 24 bd
       -0.22179225 -0.054888368 0.14009166 -0.04024198
000040 d1 e9 1f 3d 5b 89 3a 3d 6f 7c c3 3c 68 d1 d4 bc
       0.039041344 0.04554115 0.023863045 -0.025978759
000050 9a 57 c2 bd bc 1a f8 bd 29 40 2a 3c e2 e3 24 3e
       -0.09489365 -0.12114474 0.010391274 0.16102555
000060 06 e2 73 3a bb 71 f5 bd
       0.00093033945 -0.11984583

tfeb.12.running_var f4 [26]
000000 72 35 b5 3b 6f d4 45 3c 53 67 fa 3b d0 9d f2 3b
       0.005530053 0.012074574 0.0076417117 0.0074040666
000010 fc 55 0e 3c cc b7 61 3d 9f ff b5 3b 23 7d c3 3b
       0.008687492 0.055106923 0.005554154 0.005965845
000020 e9 9c fa 3b 44 97 38 3b 20 e8 87 3c 82 c4 9d 3b
       0.0076480997 0.0028166333 0.016590178 0.0048146853
000030 8c d6 24 3d 3d a9 41 3b da 60 a3 3c bd 93 f9 3b
       0.04024367 0.0029550337 0.019943643 0.0076164887
000040 18 c9 d7 3b 69 d6 bc 3b c4 40 4c 3b dc d0 4c 3a
       0.0065852515 0.0057628644 0.0031166533 0.0007813105
000050 62 89 77 3c 3b 30 a3 3c ce f5 ac 3b 45 e1 4a 3d
       0.015108438 0.019920459 0.0052783256 0.04953124
000060 f7 b6 41 3b 86 46 78 3c
       0.0029558518 0.015153533
