refine_codes/retrained_models_after_second_stage_pruning/after_second_pruning_time_2024022014_prunratio0.85/retrained_model_after_second_pruning_0.83ratio_acc89.7727279663086_57th_epoch_20240220141648.pt (torch, 409758 bytes, 62 tensors)

sfeb.0.weight f4 [6, 1, 1, 9]
0	0x3de83d91	0.11339868
1	0x3e0522d7	0.13001572
2	0x3dfd0577	0.12354558
3	0x3e93f5fc	0.2889861
4	0xbd0ec8fd	-0.034859646
5	0xbddf02aa	-0.1088918
6	0xbd9006f6	-0.07032578
7	0xbd4da7fe	-0.050209038
8	0xbe18b8c5	-0.14914234
9	0xbd75bcee	-0.05999463
10	0xbccd3c80	-0.025053263
11	0xbcf8acb3	-0.030355787
12	0xbe4a24af	-0.19740556
13	0xbd0a4613	-0.033758234
14	0xbe83db45	-0.25753227
15	0xbe406e4b	-0.18792073
16	0x3d633c6e	0.055477552
17	0x3de5280e	0.111892805
18	0x3dcabfd5	0.0989987
19	0x3d1aa995	0.037759382
20	0x3da3554e	0.07975255
21	0x3c852ff8	0.016258225
22	0x3d3f346f	0.046680864
23	0xbd9b072e	-0.07569729
24	0xbcc0d2f0	-0.023538083
25	0xbd61a0f4	-0.055085137
26	0xbe2d2f18	-0.16912496
27	0x3e2bf3fa	0.16792288
28	0x3c229c1e	0.009924917
29	0xbaabab4e	-0.0013097317
30	0xbe075ea8	-0.13219702
31	0xbce0a356	-0.027421635
32	0xbd73698e	-0.059426837
33	0x3bba1e83	0.005679907
34	0x3e079599	0.1324066
35	0xbdc36f70	-0.095427394
36	0xbe39e9c7	-0.18155585
37	0xbe2131b1	-0.15741612
38	0x3beb804b	0.0071869246
39	0x3e1ff3c6	0.15620336
40	0xbae6d27e	-0.0017610339
41	0x3d9a4a0c	0.075336546
42	0xbd0cc88a	-0.034370936
43	0x3bd8849f	0.0066076065
44	0x3c222dc7	0.0098986095
45	0x3da0c435	0.078499235
46	0x3cd5bf6a	0.02609225
47	0xbd36d2f7	-0.044634786
48	0x3dc0c583	0.09412672
49	0xbe855ef6	-0.26049012
50	0x3e2c63e8	0.16834986
51	0x3c19af93	0.009380239
52	0xbe96cd5e	-0.29453558
53	0x3d43b9b7	0.047784533

sfeb.1.weight f4 [6]
0	0x3ea1898d	0.31550255
1	0x3eb0fbb3	0.3456703
2	0x3e2e885d	0.17044206
3	0x3e0a4426	0.13502559
4	0x3e12c4f3	0.14332943
5	0x3e1ad1c7	0.15119086

sfeb.1.bias f4 [6]
0	0x3d90e268	0.070744336
1	0x3b64be38	0.0034903418
2	0x3dd34d76	0.10317509
3	0x3e04d0aa	0.12970224
4	0x3e034953	0.1282094
5	0x3e315cb9	0.17320527

sfeb.1.running_mean f4 [6]
0	0x39e37404	0.00043383252
1	0xba0dbda0	-0.00054069795
2	0x38931411	7.013244e-05
3	0x3712ae8b	8.742917e-06
4	0xb8e31df8	-0.000108297856
5	0xb967b10a	-0.00022095829

sfeb.1.running_var f4 [6]
0	0x3c0b2195	0.008491893
1	0x3c068d37	0.008212379
2	0x3b11d3d4	0.0022251504
3	0x3b2cd7b7	0.0026373693
4	0x3b89be53	0.0042035966
5	0x3b126a73	0.002234128

sfeb.3.weight f4 [32, 6, 1, 5]
0	0xbd0263d8	-0.0318335
1	0xbc1a87b1	-0.009431765
2	0xbba3c217	-0.0049975025
3	0xbb9a9d13	-0.0047184317
4	0xbbd2539f	-0.00641866
5	0xbc84e3e2	-0.016221944
6	0xbca3aaa8	-0.019978836
7	0xbbaffc85	-0.005370679
8	0xbc86a493	-0.016435897
9	0xbc0e7040	-0.008693755
10	0x3b4fe7ee	0.0031723934
11	0x3c8fca42	0.017552499
12	0x3cc3fd38	0.023924455
13	0x3d491a9f	0.049097653
14	0x3cfefe01	0.031126978
15	0xbc836ac1	-0.016042115
16	0xbc796f87	-0.015224344
17	0xbc89f640	-0.016841054
18	0x3b6c50c3	0.003605888
19	0xbb12e888	-0.0022416431
20	0x3b73e883	0.0037217445
21	0x3bdda150	0.0067636147
22	0x3c0956bd	0.008382496
23	0xbce1406f	-0.027496545
24	0x3b18334f	0.0023223942
25	0xbcc30066	-0.0238039
26	0xbb11d356	-0.002225121
27	0xbb44c87e	-0.003002673
28	0xb8c20a22	-9.252528e-05
29	0xbc22b5af	-0.009931012
30	0xbd98ea91	-0.07466615
31	0xbd19afc1	-0.037521128
32	0xbd230d0c	-0.039807364
33	0xbd622b05	-0.055216808
34	0xbcd53af9	-0.026029097
35	0xbd383825	-0.04497542
36	0xbd17f23f	-0.03709626
37	0xbc29860d	-0.010346902
38	0xbc0983ec	-0.008393269
39	0xbd32053a	-0.043462016
40	0x3d0331f8	0.032030076
41	0x3d290ba0	0.041270852
42	0x3cec76db	0.028865268
43	0x3d238307	0.03991988
44	0x3d3020fe	0.043000214
45	0xbd4dd969	-0.050256167
46	0xbd538c58	-0.051647514
47	0xbcf7f6d6	-0.030269068
48	0xbd3eb9c0	-0.046563864
49	0xbd0980ae	-0.033569984
50	0x3d06081f	0.03272259
51	0x3cb232cf	0.021752743
52	0x3c58042c	0.013184588
53	0x3ccfcc41	0.02536595
54	0x3d1e417e	0.038636677
55	0xbccfe61b	-0.025378278
56	0xbce7697e	-0.028248545
57	0xbb5328ea	-0.0032220432
58	0xbc924129	-0.017853336
59	0xbc4f9685	-0.012670164
60	0xbd5fc1b3	-0.054628085
61	0xbd4b12ca	-0.049578466
62	0xbd1a2b3e	-0.037638895
63	0xbd556f61	-0.052108172
64	0xbd2a4353	-0.04156811
65	0xbcbcbfd5	-0.023040691
66	0xbcb33495	-0.021875659
67	0xbc936033	-0.017990207
68	0xbd4e5aa6	-0.050379418
69	0xbd9e7277	-0.07736676
70	0xbce25196	-0.027626794
71	0x3c632735	0.013864328
72	0x3c91215a	0.017716099
73	0x3d21f41f	0.039539453
74	0x3d335ebd	0.04379152
75	0xbd4a7561	-0.049428347
76	0xbc51c728	-0.01280383
77	0xbc11789f	-0.008878856
78	0xbca9b1fe	-0.020714756
79	0xbcec8ae0	-0.028874815
80	0x3d404873	0.046944093
81	0x3b67a46e	0.003534581
82	0x3b819254	0.0039542112
83	0x3ca392b9	0.019967424
84	0x3c813b44	0.01577533
85	0xbba6b88d	-0.005087918
86	0xbb1d7229	-0.0024024344
87	0xb997e2b8	-0.00028969883
88	0xbc9b2eb1	-0.018943163
89	0xbc457a20	-0.012053043
90	0x3be2de79	0.0069234935
91	0x3c17ecaa	0.009272734
92	0x3c1d7251	0.009609775
93	0xbc92d016	-0.017921489
94	0xbd097417	-0.033557978
95	0xbc647d11	-0.013945834
96	0xbd9f6012	-0.07781996
97	0xbc3ffea6	-0.011718428
98	0xbc5ac129	-0.013351717
99	0xbd37c733	-0.044867706
100	0xbddd9b16	-0.10820596
101	0xbd9cd532	-0.07657851
102	0xbd60e143	-0.054902326
103	0xbd3a2711	-0.045447413
104	0xbcf96c08	-0.030447021
105	0x3db8a0d2	0.09015049
106	0x3d893f66	0.067015454
107	0x3c013300	0.0078856945
108	0x3d57566c	0.052572653
109	0x3d1086cc	0.035284802
110	0xbd78ba00	-0.06072426
111	0xbd4d1134	-0.050065234
112	0x3caba892	0.020954404
113	0xbd759369	-0.059955034
114	0xbd0c0bfd	-0.03419112
115	0xbc818342	-0.015809659
116	0x3c63a3cd	0.013894034
117	0xbcfccfec	-0.030860864
118	0xbbc6aabc	-0.0060628336
119	0xbbfc15a5	-0.00769301
120	0x3c30e586	0.01079691
121	0x3c061402	0.008183481
122	0xbccd4d6e	-0.025061335
123	0xbc285069	-0.0102730775
124	0x3bd609f0	0.0065319464
125	0xbd347f0c	-0.044066474
126	0xbd453d66	-0.048154257
127	0xbc5a2faf	-0.013317033
128	0xbcff93b7	-0.031198366
129	0xbd7f9669	-0.0623993
130	0xbd1ec82a	-0.03876511
131	0xbced4f3c	-0.028968446
132	0xbd0a9ea9	-0.033842716
133	0x39445166	0.0001872234
134	0x3c7e3131	0.015514658
135	0x3d79ea51	0.061014477
136	0x3cbcb353	0.023034727
137	0x3c8fdc9d	0.017561251
138	0x3c60d0e7	0.013721681
139	0x3b02eaf0	0.001997646
140	0xbd23307c	-0.03984116
141	0xbcda0ae2	-0.026616517
142	0xbcf86b1b	-0.03032451
143	0xbc441952	-0.011968927
144	0xbcdbe8bb	-0.026844373
145	0xba473dc9	-0.0007600454
146	0xbb288031	-0.0025711174
147	0xbb98fea8	-0.0046690293
148	0xbc9b8eb0	-0.018988937
149	0xbcbe8a8c	-0.023259424
150	0xbc94939d	-0.018136794
151	0xbbbbafcc	-0.0057277437
152	0xbca09a73	-0.019604897
153	0xbd0c7566	-0.034291647
154	0xbd107aca	-0.03527335
155	0xbd3c7984	-0.046014324
156	0xbd828c9a	-0.06374474
157	0xbd44d3f2	-0.04805369
158	0xbd3b6e5a	-0.045759536
159	0xbd3cc00f	-0.0460816
160	0xbd445f8d	-0.047942687
161	0xbc69a893	-0.014261383
162	0x3b11316a	0.0022154697
163	0x3cd74732	0.026279066
164	0x3cbd57bc	0.023113124
165	0x3d0680d8	0.03283772
166	0x3caa59e7	0.020794822
167	0x3cb0475a	0.021518398
168	0xbb361a75	-0.0027786766
169	0xbcda4e73	-0.026648736
170	0xbcefb37d	-0.029260391
171	0xbd34696e	-0.044045858
172	0xbd168371	-0.036746446
173	0xbd2c0291	-0.041994635
174	0xbcf0b848	-0.029384747
175	0xbc2dcb9d	-0.010607627
176	0xbbc49e35	-0.006000305
177	0xbb830faa	-0.00399967
178	0xbc2daa9e	-0.01059976
179	0xb9ef3775	-0.0004562695
180	0x3c32611c	0.0108874105
181	0xbc973e6e	-0.018462386
182	0xbc640ce0	-0.013919085
183	0xbcb83b70	-0.02248928
184	0xbcbb820e	-0.022889163
185	0xbc72bee4	-0.01481602
186	0xbb965d6e	-0.0045887744
187	0xbce1821a	-0.027527858
188	0x3bbd5849	0.0057783467
189	0xbb310f6f	-0.0027017256
190	0xbb14029e	-0.0022584568
191	0xbb9f2b34	-0.004857445
192	0xbcb9c706	-0.02267791
193	0xbd053043	-0.03251673
194	0xbcf90a6e	-0.030400481
195	0x3d0e81e0	0.034791827
196	0x3ceeaf02	0.029136185
197	0x3bb47753	0.0055073886
198	0xbc4516e4	-0.012029383
199	0xbb90847e	-0.0044103255
200	0xbcc835d1	-0.024439724
201	0xbcc80618	-0.024416968
202	0xba3bcb34	-0.00071637635
203	0x3c5bd839	0.013418251
204	0xbbfb4f21	-0.007669345
205	0xbb4dbdb7	-0.0031393596
206	0xbc5a0c88	-0.013308652
207	0xbbfe0395	-0.007751892
208	0x39e71da2	0.00044081832
209	0x3b1e8983	0.002419085
210	0xbd5a1535	-0.05324288
211	0xbd27801f	-0.04089367
212	0xbcf486ec	-0.029849492
213	0xbd130fd2	-0.03590376
214	0xbb622fc7	-0.003451334
215	0xba8d1686	-0.0010764159
216	0x3c2650fd	0.010151145
217	0x3c1acf1d	0.009448794
218	0xbcd16006	-0.025558483
219	0xbd183820	-0.0371629
220	0xbd00e51c	-0.031468496
221	0xbce5f202	-0.0280695
222	0xbc82a22b	-0.015946468
223	0x3be1b24d	0.00688771
224	0x3d4fa4d4	0.0506943
225	0xbd290da7	-0.041272786
226	0xbbff02a9	-0.0077822995
227	0x39536f8e	0.00020164085
228	0x3c4ab3f7	0.0123720085
229	0x3c18fbcf	0.00933738
230	0x3c656114	0.014000196
231	0xbbc7034c	-0.006073391
232	0xbc6b37be	-0.014356552
233	0xbb460e03	-0.0030220754
234	0x3b15a39c	0.0022833114
235	0x3c429e7d	0.011878607
236	0x3c2236d9	0.009900772
237	0x3bc3018b	0.0059511117
238	0x3c47fd73	0.012206423
239	0xbc75d6d9	-0.015004837
240	0x3ca01c97	0.019544883
241	0x3b19278e	0.0023369524
242	0xbc986d41	-0.018606784
243	0xbd084e1e	-0.033277623
244	0xbc25da64	-0.010122869
245	0x3bce2f08	0.0062922277
246	0x3b128398	0.0022356268
247	0x3a823b60	0.0009935908
248	0x3c82fe4a	0.015990395
249	0x3ca2ac44	0.019857533
250	0xbc7a5851	-0.015279845
251	0xbbcc8cec	-0.006242385
252	0x3c7a8b3d	0.015291986
253	0x3c2af42c	0.010434192
254	0xba9271d1	-0.0011172836
255	0xbcdbdb9d	-0.026838118

sfeb.4.weight f4 [32]
0	0x3d4b3159	0.04960761
1	0x3e2fe86b	0.17178504
2	0x3e59d699	0.21273269
3	0x3e9b3414	0.3031317
4	0x3dd5d09b	0.10440179
5	0x3e0fc2c9	0.14039148
6	0x3d913df4	0.07091895
7	0x3d349b3c	0.044093356
8	0xbd0d3f70	-0.034484327
9	0x3dda173e	0.10648964
10	0x3e09cb19	0.13456382
11	0x3e8bcd73	0.27305183
12	0x3d952f5f	0.07284426
13	0x3e0eebea	0.13957182
14	0x3e0ed6e7	0.13949166
15	0x3e56d655	0.20980199
16	0x3d245b89	0.040126357
17	0x3e2e6b49	0.17033114
18	0x3e257b29	0.16160263
19	0x3e45398d	0.19260235
20	0x3d8093e3	0.06278207
21	0x3e0d8212	0.13819149
22	0x3e44c131	0.19214322
23	0x3d345367	0.04402485
24	0x3da256bd	0.079267
25	0x3e2c60e3	0.16833834
26	0x3d8114d3	0.063028
27	0x3ea7c44b	0.32766947
28	0x3da43b3e	0.08019112
29	0x3e7c827f	0.24659155
30	0x3eba53e8	0.3639214
31	0x3bbd40da	0.005775553

sfeb.4.bias f4 [32]
0	0xbcc3ee9f	-0.023917494
1	0x3bafbf17	0.005363356
2	0xbd506389	-0.050876174
3	0x3ce962fc	0.028489582
4	0xbd691563	-0.05690516
5	0xbba8548c	-0.005137032
6	0x3bd8c022	0.006614701
7	0xbd523a94	-0.051325396
8	0x3cafe455	0.021471182
9	0xbc986f25	-0.018607685
10	0xbc83b909	-0.016079443
11	0x3c9e2702	0.01930571
12	0xbd020091	-0.03173882
13	0x3caf3756	0.02138869
14	0x3c9fb65e	0.01949614
15	0x3daad0f4	0.08340636
16	0xbd26e322	-0.040743954
17	0x3df60624	0.1201289
18	0x3d9bc357	0.076056175
19	0x3df68843	0.120377086
20	0xbd94ba7a	-0.0726213
21	0xbca64b79	-0.02029966
22	0x3cc9da48	0.024640217
23	0xbda8b402	-0.08237459
24	0x3a244b50	0.0006267326
25	0xbdb924c3	-0.09040215
26	0xbe252e53	-0.16130953
27	0xbc7cdb1d	-0.0154331
28	0xbd89218b	-0.06695851
29	0xbcbe0342	-0.023194913
30	0x3dbb0e0e	0.0913354
31	0xbccafc72	-0.024778578

sfeb.4.running_mean f4 [32]
0	0xbc9055c2	-0.017619018
1	0xbd57458c	-0.05255656
2	0xbd488236	-0.048952304
3	0xbd490996	-0.049081407
4	0xbd2a2327	-0.04153743
5	0xbd8530ae	-0.065034255
6	0xbcd852fb	-0.026406756
7	0xbcd4adcc	-0.025961779
8	0xbc2cedf6	-0.010554781
9	0xbbd3559d	-0.006449415
10	0xbd58f73a	-0.05297015
11	0xbd3cfe99	-0.04614124
12	0xbd022d7b	-0.031781655
13	0x3cfcbc42	0.030851487
14	0xbd29475e	-0.041327827
15	0x3ce7ee72	0.028311942
16	0xbcd182b2	-0.025575016
17	0xbd3d804c	-0.04626493
18	0xbcf9bbce	-0.03048506
19	0xbc266db6	-0.010157993
20	0xb92fd04e	-0.000167669
21	0x3caf7304	0.021417148
22	0xbd1c0f03	-0.038100254
23	0xbd95247d	-0.0728235
24	0xbc87e478	-0.016588435
25	0xbd0c2277	-0.034212556
26	0xbcc1a3e4	-0.02363772
27	0xbe0324cd	-0.12807007
28	0xbd421454	-0.047382668
29	0xbdc9886e	-0.09840475
30	0xbe09e84e	-0.13467523
31	0xbca27ed4	-0.019835867

sfeb.4.running_var f4 [32]
0	0x39f35c82	0.00046417495
1	0x3b116c59	0.0022189824
2	0x3b53e369	0.0032331592
3	0x3b451f28	0.0030078385
4	0x3b01c027	0.001979837
5	0x3b67fc51	0.0035398195
6	0x3a2b068d	0.00065241085
7	0x3aae74b6	0.0013309929
8	0x39a70bf1	0.0003186162
9	0x3af79a66	0.0018890619
10	0x3b2ed1f9	0.0026675446
11	0x3b0391dd	0.0020075955
12	0x3ac22551	0.0014812147
13	0x3b10eab8	0.002211256
14	0x3b07e256	0.0020734272
15	0x3ba4c41a	0.00502826
16	0x3a0c3552	0.00053485215
17	0x3b8adc12	0.00423766
18	0x3b8e0b85	0.0043348693
19	0x3bcf5729	0.006327529
20	0x3b03ae1c	0.002009279
21	0x3b63c8db	0.003475717
22	0x3baf2aa9	0.0053456617
23	0x3b78455c	0.0037883138
24	0x3b2f4947	0.0026746558
25	0x3bf75dec	0.007549038
26	0x3c1fabbb	0.009745534
27	0x3c90edb1	0.017691465
28	0x3ad5435b	0.0016270684
29	0x3c0fc0cf	0.0087739965
30	0x3c80e467	0.01573391
31	0x39b97ed4	0.00035380444

tfeb.0.weight f4 [11, 1, 3, 3]
0	0x3e3895b7	0.18025862
1	0xbe4185ed	-0.18898745
2	0xbe084628	-0.13308012
3	0xbd9d0b08	-0.0766812
4	0xbd252871	-0.04032177
5	0xbce4997d	-0.02790522
6	0xbd68eef6	-0.056868516
7	0xbd2c5e79	-0.042082284
8	0xbd112dcb	-0.035444062
9	0x3b734af7	0.003712354
10	0x3b3e1005	0.0029001248
11	0x3ba84d4f	0.005136169
12	0x3b5a0805	0.003326894
13	0x3aa82baa	0.0012830396
14	0x3b82106c	0.003969243
15	0x3c9b3756	0.018947285
16	0x3c96af82	0.018394236
17	0x3c8f5fc7	0.017501725
18	0x3cab82d1	0.020936402
19	0xbe05c919	-0.13064994
20	0x3d00eb38	0.031474322
21	0x3d5d7029	0.054062042
22	0xbe13ab83	-0.14420895
23	0x3cce6681	0.025195362
24	0x3d3ab144	0.04557921
25	0xbdb98260	-0.0905807
26	0x3ccd2fdd	0.025047237
27	0x3d7f9dc6	0.062406324
28	0x3d5ee79a	0.05442009
29	0xbe18930a	-0.14899841
30	0x3de45a45	0.1115003
31	0x3dbd15a1	0.09232641
32	0xbdea3c73	-0.11437311
33	0x3d95ef5c	0.07321045
34	0x3d866c7f	0.06563663
35	0x3c91f5c2	0.017817382
36	0xbe9c93bb	-0.3058146
37	0xbe03d7a7	-0.12875234
38	0xbde7dde5	-0.1132162
39	0xbec53b49	-0.38521793
40	0xbe0d0095	-0.13769753
41	0xbcafe9a8	-0.02147372
42	0xbe66e80e	-0.2254946
43	0xbe06b527	-0.13155042
44	0xbdd5be50	-0.1043669
45	0x3d949264	0.07254484
46	0x3d8353ef	0.064124934
47	0x3d9591c2	0.07303192
48	0xbd1c604f	-0.038177785
49	0xbc8b40c1	-0.01699865
50	0xbce61890	-0.028087884
51	0x3db66b03	0.089071296
52	0x3db9c5de	0.09070943
53	0x3da0315c	0.078219146
54	0x3dc726b9	0.09724183
55	0xbce1caa3	-0.027562445
56	0xbd9efaa1	-0.077626474
57	0x3e2a3b7c	0.16624254
58	0xbbc7c326	-0.0060962616
59	0xbd73586d	-0.0594105
60	0x3dfc7b6d	0.12328229
61	0x3d1de36e	0.038546972
62	0x3abca979	0.0014393769
63	0x3b0aa465	0.0021155116
64	0x3aaf1518	0.0013357727
65	0x3b8f12f7	0.0043662745
66	0x3bfcd542	0.007715852
67	0x3bdbfe09	0.006713633
68	0x3bf080ad	0.007339558
69	0x3c2fed7a	0.010737771
70	0x3c32fcf3	0.010924566
71	0x3c171193	0.009220499
72	0x3cf2b911	0.029629262
73	0x3cf0396c	0.029324256
74	0x3d074d84	0.03303291
75	0x3c9d8761	0.019229593
76	0x3c68a580	0.0141996145
77	0x3cc66385	0.024217376
78	0x3d3bd0e7	0.04585352
79	0x3d2bf532	0.041981883
80	0x3d312f02	0.04325772
81	0x399f3df7	0.0003037301
82	0x3b5d6289	0.0033780655
83	0xbd3c8c18	-0.04603204
84	0x3d8aa9c2	0.0677066
85	0x3d84ce04	0.06484607
86	0x3b0e1a69	0.0021683222
87	0x3c36ca93	0.011156696
88	0xbcdeff22	-0.027221266
89	0x3e5de700	0.21670151
90	0xbded3e2e	-0.115841255
91	0xbe258302	-0.16163257
92	0x3e700cd9	0.23442401
93	0xbdf996c7	-0.121869616
94	0xbe1a540e	-0.15071127
95	0x3e9ab423	0.30215558
96	0x3c653c69	0.013991454
97	0xbd06fc77	-0.032955613
98	0x3dacf1bd	0.084445454

tfeb.1.weight f4 [11]
0	0x3d979fc2	0.07403518
1	0x3d49bea6	0.049254082
2	0x3cd9ec8a	0.026602048
3	0x3defd4cb	0.11710509
4	0x3e0912bb	0.13386051
5	0x3ea2465b	0.31694302
6	0x3d7ade74	0.061247304
7	0x3d02a2a4	0.031893387
8	0x3e1f7cfe	0.15575024
9	0x3db24e83	0.08706381
10	0x3e7448a2	0.23855832

tfeb.1.bias f4 [11]
0	0x3d8e54af	0.06949746
1	0x3c8a4e0e	0.016882923
2	0xbd1b96d0	-0.037985623
3	0x3dbddd00	0.09270668
4	0x3e20556d	0.15657587
5	0x3df537f4	0.11973563
6	0x3d8844cc	0.06653747
7	0x3c6d90f7	0.014499894
8	0x3d677ca9	0.05651537
9	0x3d88c3a8	0.066779435
10	0x3d3dacef	0.0463075

tfeb.1.running_mean f4 [11]
0	0xbd532eb3	-0.051558208
1	0x3c15b429	0.009137192
2	0xbca3bac8	-0.019986525
3	0x3cbc83ae	0.023012009
4	0xbe40d027	-0.18829404
5	0x3d33fb33	0.043940734
6	0x3d01fe64	0.031736746
7	0x3bec11fb	0.007204292
8	0x3d096cd8	0.033551067
9	0x3d0e2cbd	0.034710634
10	0x3c70790b	0.014677296

tfeb.1.running_var f4 [11]
0	0x3b64498d	0.0034833879
1	0x390f1d55	0.0001364847
2	0x3a2cf944	0.0006598423
3	0x3aa4168d	0.0012518928
4	0x3d345a72	0.044031568
5	0x3b9a77aa	0.004713972
6	0x3ae3d142	0.0017381089
7	0x3890a446	6.8970534e-05
8	0x3ac34caf	0.0014900173
9	0x3b09abba	0.0021006898
10	0x3ac7ba38	0.0015237993

tfeb.4.weight f4 [21, 11, 3, 3]
0	0xbcbedd34	-0.023298837
1	0xbd006f93	-0.031356405
2	0xbd078412	-0.033084936
3	0xbc1e5e8c	-0.009666096
4	0xbbdbcd94	-0.0067078564
5	0xbbc0d35c	-0.005884571
6	0x3c31b786	0.010846978
7	0x3c8e7768	0.017390922
8	0x3a2be0b6	0.0006556617
9	0x3b4cfd4c	0.0031278906
10	0x3b916eba	0.0044382485
11	0x3bbd6f39	0.005781081
12	0xbc105e05	-0.0088114785
13	0xbbddadff	-0.0067651267
14	0xbbb9ab5f	-0.005666181
15	0xbc0ac53f	-0.008469879
16	0xbbd5e3da	-0.006527406
17	0xbbb98a44	-0.0056622345
18	0x39ff8e9e	0.00048743648
19	0xba9d274f	-0.0011989864
20	0xbac9c590	-0.0015393961
21	0xbbe7e97d	-0.0070773945
22	0xbbc0d6aa	-0.005884965
23	0xbc0e590d	-0.008688224
24	0xbbaa65e2	-0.0052001337
25	0xbc1bd48b	-0.009511123
26	0xbc0cb9bb	-0.0085892035
27	0xbc9c2904	-0.019062527
28	0xbcaa09d4	-0.02075664
29	0xbbead47c	-0.0071664434
30	0xbd2932cb	-0.041308206
31	0xbd2c08b1	-0.042000476
32	0xbd027dd3	-0.031858277
33	0xbd6c94d7	-0.057759132
34	0xbd7f8a14	-0.06238754
35	0xbd56147e	-0.052265637
36	0xbd2c76ce	-0.04210549
37	0xbcc75c34	-0.024335958
38	0xbd296c2b	-0.041362923
39	0xbc909867	-0.017650796
40	0xbbc8e041	-0.006130249
41	0xbc3a743e	-0.011380253
42	0x3a5ea591	0.0008493299
43	0x3b3f164f	0.0029157584
44	0x3b938f18	0.004503142
45	0x3c1ccf05	0.009570842
46	0x3cbbb5db	0.022913864
47	0x3cda2d9f	0.026633082
48	0xbd888a8f	-0.06667053
49	0xbd536a57	-0.051615085
50	0xbd408d15	-0.047009546
51	0xbd9b239f	-0.075751536
52	0xbd902fc9	-0.07040364
53	0xbd83c8eb	-0.064348064
54	0xbc33b925	-0.010969435
55	0xbc2dc0b4	-0.010605026
56	0xbb979e1b	-0.004627002
57	0xbcd55f06	-0.026046287
58	0xbc9d28f9	-0.019184576
59	0xbc8bd63e	-0.017069932
60	0xbcdbcf60	-0.026832283
61	0xbcb03195	-0.021508018
62	0xbca13e31	-0.019682975
63	0x3b4210c4	0.0029612044
64	0x3b87da47	0.0041458937
65	0x3b9c6978	0.004773315
66	0xbb894038	-0.0041885637
67	0xbb543b9b	-0.003238416
68	0xbb2d92ad	-0.002648513
69	0xbc0ef133	-0.008724499
70	0xbbf37b61	-0.0074304794
71	0xbbd69aef	-0.0065492312
72	0x3c628c1a	0.013827348
73	0x3c8cf009	0.017204301
74	0x3cb4e63c	0.02208244
75	0xbcb1ef27	-0.021720482
76	0xbc80fa68	-0.015744403
77	0xbc4a154d	-0.01233418
78	0xbcfbc0b7	-0.030731542
79	0xbccde606	-0.025134098
80	0xbcbea9a5	-0.023274252
81	0xbbd333d3	-0.006445387
82	0x3c4dd11f	0.012562065
83	0x3c1f704e	0.009731365
84	0xbcd40aa0	-0.025883973
85	0xbce770e7	-0.028252078
86	0xbc13086a	-0.008974174
87	0xbd26d8ed	-0.04073422
88	0xbc9d9bb2	-0.01923928
89	0xbc9a224e	-0.018815186
90	0xbd77dc87	-0.060513046
91	0xbd532b83	-0.051555168
92	0xbd2347e7	-0.039863493
93	0xbd950c4e	-0.072777376
94	0xbd88f889	-0.06688029
95	0xbd782668	-0.060583502
96	0xbda70936	-0.08156054
97	0xbda74466	-0.08167343
98	0xbd823c1f	-0.063591234
99	0xbb3ebe1f	-0.002910502
100	0x3c57893b	0.013155277
101	0xbc230c09	-0.0099516
102	0xbc2807f9	-0.010255807
103	0xbd42423e	-0.047426455
104	0xbcdf80fa	-0.02728318
105	0xbbcf5431	-0.006327175
106	0xbbb8a0fd	-0.0056344257
107	0xbbe7f63a	-0.007078913
108	0xbb043d56	-0.002017816
109	0xbab45e2a	-0.0013760973
110	0xbabb5732	-0.0014292954
111	0xbb088bc2	-0.0020835255
112	0xbad475f9	-0.0016209475
113	0xbb02f11c	-0.0019980138
114	0xbab06623	-0.0013458173
115	0xbb01ec19	-0.0019824563
116	0xbaff6c68	-0.0019487264
117	0x3bf68aa8	0.0075238533
118	0xbd105c33	-0.035244178
119	0xbb7fccfe	-0.0039032097
120	0x3cca5480	0.024698496
121	0xbd041076	-0.03224226
122	0x3c0d0453	0.008606988
123	0x3c4be556	0.012444815
124	0xbc8a9d04	-0.016920574
125	0x3c6135f2	0.013745772
126	0xbc6042b0	-0.013687775
127	0xbc24af11	-0.010051505
128	0xbc02fa89	-0.007994303
129	0xbcdee0e2	-0.027206842
130	0xbca6af9f	-0.020347415
131	0xbb91794e	-0.0044395095
132	0xbc07150c	-0.008244764
133	0xbc4625c3	-0.012093964
134	0xbc0b5aac	-0.008505505
135	0xbaf3ae50	-0.0018591378
136	0x3c860a96	0.01636247
137	0xbbb01d1e	-0.005374565
138	0x39442611	0.00018706197
139	0x3cc16422	0.023607317
140	0xbc27500e	-0.010211958
141	0xbc6ec9ee	-0.014574511
142	0x3c2859c6	0.01027531
143	0x3aa6cc8d	0.0012725756
144	0xbce92014	-0.028457679
145	0xbc6c1704	-0.014409784
146	0xbce5bc24	-0.028043814
147	0xbd0889eb	-0.033334654
148	0xbc098f88	-0.008396037
149	0xbc837092	-0.016044889
150	0xbcb66b44	-0.022267945
151	0xbc8a441c	-0.01687818
152	0xbccb2a31	-0.024800392
153	0xba539ffc	-0.0008072851
154	0x3b55b47c	0.0032608798
155	0x3991be52	0.00027798355
156	0xbb9f032d	-0.0048526735
157	0xbc00cb1a	-0.007860923
158	0xbb2c8728	-0.0026325677
159	0x3b236845	0.0024933976
160	0x3b9dccc7	0.004815671
161	0x3b6e247d	0.0036337667
162	0xbab249f1	-0.0013602359
163	0xba618293	-0.0008602526
164	0xba88f6a8	-0.0010449486
165	0xbb257f95	-0.0025253047
166	0xbb0ffbdc	-0.0021970188
167	0xbb2ebc64	-0.0026662583
168	0xbad71fc8	-0.001641267
169	0xbb05e117	-0.0020428353
170	0xbb1bf405	-0.002379657
171	0xbaa535f3	-0.0012604579
172	0x3843bead	4.6669204e-05
173	0xba5e1b5f	-0.00084727065
174	0xbb52b4d2	-0.0032151234
175	0xbb0d51ed	-0.0021563724
176	0xbb3a31e5	-0.0028411087
177	0xbbc4fbed	-0.006011477
178	0xbbcb8c1c	-0.0062117707
179	0xbbd03d9b	-0.006355
180	0xbc157007	-0.009120948
181	0xbd06d3ef	-0.03291696
182	0xbc11d55e	-0.008900968
183	0xbca0f237	-0.019646747
184	0xbc8356cb	-0.016032597
185	0xbaa6dbad	-0.0012730263
186	0xb9bd4952	-0.00036103517
187	0xbbcdc365	-0.0062793964
188	0xbc15b46a	-0.009137252
189	0x3c50eff2	0.01275252
190	0xbcdc6754	-0.02690474
191	0xbbce3c0c	-0.0062937792
192	0x3c368725	0.011140619
193	0xbcc76683	-0.024340874
194	0xbc02347a	-0.007947082
195	0xbc29835a	-0.010346258
196	0xbca3f33c	-0.020013444
197	0xbbdbad33	-0.0067039966
198	0xbc1116ec	-0.008855563
199	0xbb8f4ec7	-0.0043734047
200	0xbc8b3a68	-0.016995624
201	0xbc291072	-0.010318862
202	0xba45b644	-0.00075421133
203	0xbca3875a	-0.019962002
204	0xbc2da0bc	-0.010597404
205	0x3bf6a2f4	0.0075267497
206	0xbb497e97	-0.003074562
207	0xbbb3d5af	-0.0054881196
208	0xbb54800a	-0.003242495
209	0xbab3471c	-0.0013677808
210	0x3ac7d60d	0.0015246287
211	0x3b89c1e5	0.004204022
212	0x3b9fc8ef	0.004876248
213	0xba6ee63c	-0.0009113287
214	0x38f90aeb	0.00011875279
215	0x3a170107	0.0005760346
216	0xbcb2bbf4	-0.021818139
217	0xbcdda49e	-0.027056035
218	0xbc97aa44	-0.018513806
219	0xbca194fb	-0.01972436
220	0xbcc07304	-0.023492344
221	0xbc6d4063	-0.014480683
222	0xbba6c9f1	-0.0050899913
223	0xbc50d865	-0.012746905
224	0xbc65265b	-0.013986195
225	0xbcc27101	-0.023735525
226	0xbd096131	-0.033539955
227	0xbd398e19	-0.04530153
228	0xbd1d5fa0	-0.038421273
229	0xbd5680b4	-0.052368835
230	0xbd74047f	-0.0595746
231	0xbca617e0	-0.020275056
232	0xbd0016ed	-0.031271864
233	0xbd17e29a	-0.03708134
234	0xbca4c98d	-0.020115638
235	0x3bf34419	0.0074238894
236	0xbcdbe210	-0.026841193
237	0xbcf0e7fc	-0.029407494
238	0xbc403465	-0.011731242
239	0xbc530b84	-0.0128811635
240	0x3b1da032	0.0024051783
241	0x3cb731c1	0.022362592
242	0xbb950069	-0.004547168
243	0xbb509f28	-0.0031833146
244	0x3c3a9e25	0.011390244
245	0x3cbc1e9a	0.02296381
246	0xbd1b2d77	-0.037885156
247	0xbd0d2701	-0.034461025
248	0xbcb0c307	-0.021577371
249	0x3c2d95cf	0.010594799
250	0x3c992c2b	0.018697819
251	0x3ca9d8a2	0.020733181
252	0xbc9ceb96	-0.019155305
253	0xbc9929a5	-0.018696615
254	0xbcfd69e4	-0.030934282
255	0xbcc5791b	-0.0241056

tfeb.5.weight f4 [21]
0	0x3e1a78a1	0.15085079
1	0x3df6c14f	0.120485894
2	0x3e09f8f0	0.13473868
3	0x3cec4578	0.028841719
4	0x3df6c350	0.12048972
5	0x3e3ba33b	0.18323986
6	0x3e01bbc5	0.12669285
7	0x3d18ea67	0.03733292
8	0x3e3cbff3	0.18432598
9	0x3d930acb	0.07179793
10	0x3db84cca	0.08999021
11	0x3d7f37b4	0.062308982
12	0x3dae165a	0.08500357
13	0xbc32ecf8	-0.010920756
14	0x3e1752ba	0.14777651
15	0x3b9af8ba	0.0047293575
16	0x3d7476a1	0.059683446
17	0x3e2f125a	0.17096844
18	0x3c981a1b	0.018567136
19	0x3d5f2b8f	0.0544849
20	0x3b8b3669	0.0042484296

tfeb.5.bias f4 [21]
0	0x3da91f22	0.08257891
1	0x3d33e20e	0.043916754
2	0x3d350adf	0.04419982
3	0xbceda1d9	-0.029007839
4	0x3df2d1c6	0.11856417
5	0x3d8d6aa8	0.06905109
6	0x3cb56f8d	0.022147918
7	0xbce846f9	-0.028354155
8	0xbd110889	-0.03540853
9	0xbd5e9640	-0.05434251
10	0x3d87ac88	0.066247046
11	0x3b875ca3	0.004130916
12	0x3dc235f9	0.09482951
13	0x3c020189	0.007934936
14	0x3d4b6c84	0.049664035
15	0xbdda1e87	-0.10650354
16	0xbc8a0bf4	-0.016851403
17	0x3ddcfb8a	0.10790165
18	0xbca83770	-0.020534247
19	0x3d3854ad	0.045002628
20	0xbb9d6ce1	-0.004804239

tfeb.5.running_mean f4 [21]
0	0xbe9f6fb7	-0.3113992
1	0xbdd4f883	-0.10398962
2	0xbe19afd4	-0.1500848
3	0xbd14633d	-0.036227454
4	0xbe6d96e6	-0.23202094
5	0xbe379900	-0.17929459
6	0x3d477cf9	0.048703168
7	0xbd840e6f	-0.064480655
8	0x3e1ab7a8	0.15109122
9	0xbd0fee70	-0.0351395
10	0x3dded42f	0.108803146
11	0xbded331d	-0.11582015
12	0x3e8b6f60	0.2723341
13	0x3d0c0ca1	0.03419173
14	0xbdd3e5a4	-0.10346535
15	0x3dd9cbcc	0.10634574
16	0xbd451af0	-0.048121393
17	0xbe459644	-0.19295603
18	0xbc75a1da	-0.014992202
19	0x3d181d4d	0.03713732
20	0xbd4abede	-0.04949843

tfeb.5.running_var f4 [21]
0	0x3dd6b8b8	0.10484451
1	0x3c45d623	0.01207498
2	0x3c753708	0.014966734
3	0x3aa175ef	0.0012318472
4	0x3d8668ed	0.06562982
5	0x3d4fb268	0.05070725
6	0x3d01b0d6	0.031662785
7	0x3bab4c39	0.0052275923
8	0x3c8e5f59	0.01737945
9	0x3a8debed	0.0010827758
10	0x3c3c8b71	0.011507855
11	0x3ba61acd	0.005069113
12	0x3e811068	0.2520783
13	0x3b01dfe2	0.0019817282
14	0x3c459233	0.012058782
15	0x3c18c633	0.009324598
16	0x3ad69294	0.0016370588
17	0x3d5ff401	0.05467606
18	0x38ec0b8c	0.00011255508
19	0x3ba699d8	0.0050842576
20	0x3a8358d3	0.0010020979

tfeb.7.weight f4 [16, 21, 3, 3]
0	0xbc1e7a1d	-0.009672669
1	0xbc3b1c3c	-0.011420306
2	0xbc3507dd	-0.011049238
3	0xbc6a5841	-0.014303268
4	0xbc95d803	-0.018291479
5	0xbcd3a177	-0.025833828
6	0xbc224484	-0.009904031
7	0xbc704d9c	-0.014666941
8	0xbcaef46e	-0.021356788
9	0xb9d2cd1e	-0.00040207146
10	0x3aad3540	0.0013214722
11	0x3be205d2	0.0068976665
12	0xbccb8bab	-0.024846872
13	0xbc27756f	-0.010220869
14	0xbc0863cb	-0.008324574
15	0xbb9315ce	-0.0044886833
16	0x39c60465	0.00037768777
17	0x390849ec	0.00012997509
18	0xbbbc2dfa	-0.0057427855
19	0x3b38c477	0.0028193274
20	0x3c45ee68	0.012080766
21	0xbc5472da	-0.012966836
22	0xbb13db98	-0.0022561308
23	0x3b7cf0b6	0.0038595623
24	0xbb7a83fd	-0.0038225644
25	0x3ab9503a	0.0014138289
26	0xbb772243	-0.003770963
27	0xbb247f5a	-0.0025100322
28	0xbb0de463	-0.0021651022
29	0xbb89fe76	-0.0042112423
30	0xbbfb9768	-0.007677961
31	0xbc71ee63	-0.0147663085
32	0xbc18c889	-0.009325155
33	0x3c07abc4	0.008280698
34	0xb9635835	-0.00021681267
35	0xbbac3921	-0.0052558337
36	0xbb80d4df	-0.003931626
37	0x3a4aaf5a	0.0007731818
38	0x3c6ba118	0.014381669
39	0xbcef1b36	-0.02918778
40	0xbc3e11d9	-0.011600935
41	0x3c52965b	0.01285323
42	0xbc9b42c4	-0.018952735
43	0x392aedd4	0.00016301061
44	0x3ca4e4f5	0.020128706
45	0xbcc3ef7d	-0.023917908
46	0xbc57b166	-0.013164854
47	0xbc0c21a7	-0.008552945
48	0xbce282b1	-0.02765021
49	0xbcb0e978	-0.021595702
50	0xbcaac6ce	-0.02084675
51	0xbbdf8c24	-0.006822126
52	0xbc25f7ea	-0.010129908
53	0xbc5c905d	-0.013462153
54	0xbc42376d	-0.011854035
55	0xbc426917	-0.011865876
56	0xbc65d9eb	-0.0140290065
57	0xbc2eff2a	-0.010680953
58	0xbc35fe50	-0.011107996
59	0xbc5fc6b7	-0.013658217
60	0xbae40a4b	-0.0017398087
61	0xbbfde502	-0.007748247
62	0xbc6f2ccd	-0.014598084
63	0xbc0b5c81	-0.008505941
64	0xbb2ec36b	-0.002666677
65	0x39cd34ba	0.0003913993
66	0xbc9233c5	-0.017846951
67	0xba1b4be2	-0.0005924088
68	0xbb937a04	-0.0045006294
69	0x3aa29a05	0.001240552
70	0x3c068ede	0.008212773
71	0xba295688	-0.00064597325
72	0xbcb73996	-0.022366326
73	0xbccc113f	-0.024910567
74	0xbcd0fb7c	-0.025510542
75	0xbcfbb2aa	-0.030724842
76	0xbcf52d5d	-0.029928857
77	0xbc979e0a	-0.018507976
78	0xbd0036d8	-0.031302303
79	0xbce8621a	-0.028367091
80	0xbcdbe104	-0.026840694
81	0xbba38dc9	-0.0049912673
82	0xba0c9c4e	-0.00053638674
83	0x3b8a30d7	0.004217248
84	0xbc862d4a	-0.016379017
85	0xbbc26cdf	-0.0059333886
86	0x3b3e33c0	0.0029022545
87	0xbc39f66d	-0.011350256
88	0xbaf4756e	-0.001865072
89	0x3c5a02c9	0.013306328
90	0xbbffb3c0	-0.0078034103
91	0xbbd597f9	-0.0065183607
92	0xbbed7f61	-0.0072478508
93	0x3b192085	0.002336533
94	0xbaa8b89c	-0.0012872401
95	0xbbb786ed	-0.005600801
96	0xbb7e2859	-0.0038781373
97	0xbc2f5327	-0.010700977
98	0xbc6d527a	-0.014484996
99	0xbc9bc874	-0.019016482
100	0xbcb2a16c	-0.021805488
101	0xbc011732	-0.007879065
102	0xbce8d4b6	-0.028421741
103	0xbcca0775	-0.024661759
104	0xbc06cfbd	-0.00822824
105	0xbc2055a0	-0.00978604
106	0xbc3c3593	-0.011487382
107	0x3b9580a8	0.004562456
108	0xbc429f61	-0.011878819
109	0xbccfc7bb	-0.025363794
110	0xbd1090b4	-0.03529425
111	0xbc2ea8e3	-0.010660383
112	0xbd007432	-0.031360812
113	0xbd3c1ccc	-0.0459259
114	0x3a051d3e	0.0005077905
115	0xbc1778f9	-0.009245151
116	0xbc8723ec	-0.016496621
117	0x3c1ce6cc	0.009576511
118	0x3bab39cb	0.0052253953
119	0x3b77f150	0.0037833042
120	0xbb0cd979	-0.0021491928
121	0xbb7110d2	-0.0036783707
122	0xba92162c	-0.0011145524
123	0x3b96b672	0.004599386
124	0xbb468a8e	-0.0030294987
125	0xbbcdf3df	-0.006285175
126	0x3bba8a4d	0.0056927563
127	0xbb8f7258	-0.0043776445
128	0x3a8f076f	0.001091225
129	0xbc8045ad	-0.015658224
130	0xbc7e13e0	-0.015507668
131	0x3b2471f5	0.0025092338
132	0xbb589b72	-0.0033051637
133	0xba68a73c	-0.00088750175
134	0xbab99a8c	-0.0014160438
135	0xbc600a08	-0.013674267
136	0xbb19f35f	-0.0023491008
137	0xbbb8b197	-0.0056364047
138	0xbc7cc50a	-0.015427837
139	0xbc036917	-0.008020661
140	0xbc12cec1	-0.008960427
141	0xbc52941f	-0.012852698
142	0xbbab903e	-0.005235701
143	0xbb20702d	-0.0024480924
144	0x3b44cace	0.0030028108
145	0x3c38da00	0.011282444
146	0x3c33c549	0.010972329
147	0xbbc2dc86	-0.0059466986
148	0xbba1934b	-0.004930889
149	0x3a0275fe	0.00049766887
150	0x3c0de79a	0.008661175
151	0xbb43e018	-0.002988821
152	0xbb4a9e0c	-0.0030916957
153	0x3ab3ba07	0.0013712057
154	0xbbd61734	-0.0065335277
155	0x3c3b6d38	0.011439614
156	0xbb95776a	-0.0045613544
157	0xbb446a79	-0.002997069
158	0x3c189801	0.009313584
159	0xbc4405f0	-0.011964306
160	0xbc027751	-0.007963018
161	0xbaed92ed	-0.0018125452
162	0x3b9f6627	0.0048644724
163	0x39ab2414	0.00032642542
164	0x3abfa14a	0.0014620211
165	0xbb19449a	-0.0023386837
166	0xbb011096	-0.0019693724
167	0x39fdc1f4	0.00048400427
168	0xbaeffef8	-0.001831024
169	0x3ab2e6f5	0.0013649153
170	0x3b2dcf6c	0.0026521338
171	0x3c192513	0.009347218
172	0xbbf550b5	-0.0074864277
173	0xbc24ffad	-0.0100707235
174	0xbca97996	-0.02068786
175	0xbcabce58	-0.020972416
176	0xbc99c4f0	-0.018770665
177	0xbb0d4268	-0.0021554474
178	0xbc0b2703	-0.008493188
179	0xbbd7f53a	-0.0065905126
180	0xb913542a	-0.00014050366
181	0xbba81996	-0.005130003
182	0x3bb21c39	0.0054354933
183	0xbb5a3b39	-0.003329946
184	0xbc01f1b0	-0.007931158
185	0xba9587f3	-0.0011408314
186	0x3c063eef	0.0081937155
187	0x3a1afbd9	0.0005912162
188	0xbae090f5	-0.0017133044
189	0x3c988b3f	0.018621085
190	0x3ca16d60	0.019705474
191	0x3c8a1728	0.016856745
192	0x3c9a56ec	0.018840276
193	0x3cd4cf95	0.02597789
194	0x3ce5425a	0.02798574
195	0x3c9f80dd	0.019470626
196	0x3cb5b3b8	0.022180423
197	0x3cbc9718	0.023021266
198	0xbc8b4f2b	-0.017005524
199	0xbc9b4a18	-0.01895623
200	0xbc05ae3d	-0.008159217
201	0xbcb42608	-0.021990791
202	0xbc59a811	-0.013284699
203	0xbc30a77d	-0.01078212
204	0xbcae9039	-0.021309005
205	0xbcacf28b	-0.021111747
206	0xbcaf4368	-0.021394446
207	0x3d2149b7	0.03937694
208	0x3d1ee3e1	0.03879154
209	0x3ca38e5b	0.019965341
210	0x39a3eb68	0.00031265174
211	0xbc33a092	-0.010963576
212	0xbca85c38	-0.020551786
213	0xbba7edc0	-0.0051247776
214	0x3bbdaaf8	0.0057882033
215	0x3c16af22	0.009197028
216	0xbb924d75	-0.0044648
217	0x3bbbbe99	0.005729508
218	0xb977753d	-0.0002359943
219	0xbbca9f77	-0.0061835605
220	0xbc105265	-0.008808707
221	0xbc33abf6	-0.010966292
222	0xbc0c22c6	-0.0085532125
223	0x3bf742ab	0.0075457892
224	0x3c2a6e03	0.010402205
225	0xbc988f12	-0.018622909
226	0xbce440b9	-0.027862893
227	0xbd12e073	-0.035858583
228	0xbca3ea0b	-0.020009061
229	0xbd1dd066	-0.038528822
230	0xbd3600d9	-0.044434402
231	0xbb81aaa6	-0.0039571105
232	0xbc8b0b12	-0.016973052
233	0xbce34d24	-0.027746744
234	0xbc8b8174	-0.017029501
235	0xbc3a061b	-0.011353995
236	0xbce35f23	-0.027755326
237	0xbc442af2	-0.01197313
238	0x3af34c35	0.001856214
239	0xbc4ab273	-0.012371647
240	0x3aede938	0.001815117
241	0x3bb3a512	0.0054823244
242	0x398d16f2	0.0002691071
243	0x3d1f9ce7	0.038967993
244	0x3d1e148d	0.038593818
245	0x3d199edc	0.037505016
246	0x3cfa1a96	0.030530255
247	0x3cf55069	0.02994557
248	0x3cc5dbaf	0.024152605
249	0x3ca6586b	0.020305833
250	0x3c9a4668	0.0188324
251	0x3c924968	0.017857268
252	0xbb9055d3	-0.0044047623
253	0x3c189da5	0.009314929
254	0x3c06bc31	0.008223579
255	0xbaaeb830	-0.0013330039

tfeb.8.weight f4 [16]
0	0x3d92918f	0.07156669
1	0x3e0b260b	0.13588731
2	0x3d5bb9a0	0.053643823
3	0x3d2a7269	0.041613016
4	0x3d4b7afa	0.049677826
5	0x3e6a0082	0.22851756
6	0x3d86fbd6	0.06591003
7	0x3df82324	0.121160775
8	0x3db83c3f	0.08995866
9	0x3d0e4a3c	0.034738764
10	0x3cb63326	0.022241186
11	0x3cde420a	0.0271311
12	0x3de7f6a3	0.11326339
13	0x3d724a18	0.059152693
14	0x3e5c0f7b	0.2149028
15	0x3d0e5c2a	0.034755863

tfeb.8.bias f4 [16]
0	0x3be2f7ae	0.0069264984
1	0x3d384ab2	0.04499311
2	0xbda4489b	-0.08021661
3	0xbcdd09e2	-0.026982252
4	0xbd106a15	-0.035257418
5	0x3d9c3d88	0.07628924
6	0x3c188a0c	0.009310257
7	0x3b2c1811	0.0026259462
8	0xbd60f8ef	-0.0549249
9	0xbd8888a1	-0.06666685
10	0xbc9415ca	-0.018076796
11	0xbd708b31	-0.058726493
12	0x3ccb8c40	0.02484715
13	0xbd29a360	-0.041415572
14	0x3dfd1acc	0.12358627
15	0xbcc2bc5f	-0.023771463

tfeb.8.running_mean f4 [16]
0	0xbda5957b	-0.08085152
1	0xbd1f193a	-0.038842417
2	0xbad1d466	-0.0016008734
3	0xbd2fb13d	-0.042893637
4	0x3ceb17b2	0.028697822
5	0xbd95e63e	-0.07319306
6	0x3cd5cff3	0.026100134
7	0x3c299897	0.010351322
8	0x3bbd260a	0.005772357
9	0x3d61baea	0.055109896
10	0x3c6897af	0.01419632
11	0xbcbb4222	-0.022858683
12	0x3c4a950c	0.012364637
13	0xbc96e9b5	-0.018421987
14	0xbd918072	-0.07104577
15	0xbc95d80c	-0.018291496

tfeb.8.running_var f4 [16]
0	0x3b1d97dd	0.0024046816
1	0x3bd50228	0.006500501
2	0x3980e3f8	0.00024583912
3	0x39d3cc54	0.00040397292
4	0x39bf2ea6	0.00036465115
5	0x3c51f054	0.012813646
6	0x3a381264	0.00070217834
7	0x3ba56fd1	0.00504873
8	0x3a2171b7	0.00061586074
9	0x3b7b7ec0	0.003837511
10	0x394be22a	0.00019443841
11	0x3a2ffa9c	0.0006713064
12	0x3af20b39	0.0018466479
13	0x38a0096b	7.631149e-05
14	0x3c901d0f	0.017591981
15	0x3a80132f	0.0009771342

tfeb.11.weight f4 [26, 16, 3, 3]
0	0x396dd2d9	0.00022680628
1	0xbb7bc032	-0.0038414118
2	0xbb1958ad	-0.0023398802
3	0xbba99696	-0.005175422
4	0xbb9fe6c8	-0.004879806
5	0xbc5638e6	-0.013075089
6	0xbb5a97d0	-0.0033354647
7	0xb9824893	-0.00024849604
8	0xbb0c0a76	-0.002136854
9	0xbad12970	-0.0015957784
10	0x3bae9e49	0.0053289277
11	0xbb049a92	-0.0020233733
12	0x3b9e0efa	0.0048235627
13	0x3c496956	0.01229318
14	0x3c353d91	0.011062042
15	0xbbcdc06a	-0.006279041
16	0xbb97d7f9	-0.0046339002
17	0xbc3d6211	-0.011559025
18	0x3a6e17bf	0.0009082518
19	0xbab014c8	-0.0013433928
20	0xbb0c3b6d	-0.0021397725
21	0xbb31f1cb	-0.0027152176
22	0xbb518ff1	-0.0031976665
23	0x39ceeec3	0.00039469273
24	0x38f9a690	0.0001190427
25	0xba94f069	-0.0011363152
26	0xbb42980b	-0.0029692675
27	0x391f87d3	0.0001521402
28	0x3b0f9108	0.0021906514
29	0x392d1456	0.00016506141
30	0x398b50bd	0.000265723
31	0xbaca126f	-0.0015416871
32	0xbb1fe286	-0.0024396493
33	0xb97bad07	-0.00024001683
34	0x3b58a554	0.0033057528
35	0x3b1a6c6f	0.0023563167
36	0xbb63ab28	-0.0034739468
37	0x39e0649a	0.00042799563
38	0xbbcd280f	-0.006260879
39	0xbb634f6d	-0.0034684793
40	0x3aa87636	0.0012852612
41	0xbaa3d79b	-0.0012500169
42	0xbc18c094	-0.009323258
43	0xbba3ede4	-0.005002724
44	0xbc238c27	-0.009982145
45	0xbc5fbc3f	-0.013655721
46	0xbc6db534	-0.014508534
47	0xbc64a1e0	-0.01395461
48	0xbc35ccd9	-0.011096203
49	0xbbb6d637	-0.0055797356
50	0xbc26d3d5	-0.010182341
51	0x3bb9f8fa	0.0056754323
52	0x3bdefb78	0.0068048798
53	0x3ba5af27	0.00505628
54	0x3b68c38d	0.0035516948
55	0xbc010a7d	-0.007876036
56	0xbb52fd9b	-0.0032194618
57	0x3c37c98b	0.011217485
58	0x3b20a34d	0.0024511397
59	0x3c086cc4	0.008326713
60	0x3b58e178	0.0033093374
61	0x3b68cc55	0.0035522182
62	0x3bda2aaa	0.006657918
63	0xbbb83b68	-0.005622316
64	0xbbe8f414	-0.0071091745
65	0xbbd73d31	-0.006568574
66	0x3a9ecf76	0.0012116272
67	0xbb2d8af4	-0.0026480528
68	0x3b1497a6	0.0022673397
69	0x3c324e9d	0.010883001
70	0xbba4c44e	-0.005028284
71	0x3b9d23d4	0.004795531
72	0x39b299da	0.00034065434
73	0x3a151f89	0.0005688598
74	0xbb3f2833	-0.0029168248
75	0xba315b8b	-0.0006765655
76	0xbaab9cb9	-0.0013092972
77	0xbba01a8a	-0.004885976
78	0xba42a668	-0.0007425309
79	0xbb82d270	-0.0039923713
80	0xbbdab952	-0.006674924
81	0xbbb6a27f	-0.0055735703
82	0x3baad757	0.005213659
83	0xb9833c15	-0.00025031032
84	0x3b9659a7	0.004588324
85	0x3c22de5b	0.009940709
86	0x3bdbe75c	0.00671093
87	0x3c55f137	0.013057998
88	0x3cafeb84	0.021474607
89	0x3b467b7f	0.0030286012
90	0xbbe775e0	-0.0070636123
91	0xbbe5cc78	-0.0070129
92	0xbbdc5590	-0.006724067
93	0xbab1e6d5	-0.0013572822
94	0xbb7fbe89	-0.003902348
95	0xbbc4ac8b	-0.006002014
96	0x3b9e0fc5	0.004823657
97	0x3aaa2be9	0.0012983057
98	0xbb41b101	-0.0029554965
99	0xbb31b673	-0.0027116805
100	0xbada17a1	-0.0016639122
101	0xbb5d90e6	-0.003380829
102	0x3889b5f1	6.566558e-05
103	0x3b41eb82	0.0029589836
104	0xbb516dbc	-0.0031956276
105	0xba8cb584	-0.0010735248
106	0xbac6931d	-0.0015150044
107	0xbbee96d1	-0.0072811623
108	0xbb883bf3	-0.004157537
109	0x3b4966f6	0.0030731536
110	0xbc64aea4	-0.013957653
111	0x3bf3a051	0.0074348827
112	0x3c3100b8	0.010803394
113	0xbbd49d97	-0.0064885127
114	0x3cee6428	0.029100493
115	0x3c702610	0.014657512
116	0xbb09e9db	-0.002104393
117	0xbb8471af	-0.0040418725
118	0xbbe2caab	-0.0069211326
119	0xbc028f66	-0.007968759
120	0x3b107400	0.0022041798
121	0x3afff09a	0.0019526661
122	0x3bea9f46	0.0071601
123	0xbab8c391	-0.0014096369
124	0x3b669fd1	0.0035190473
125	0x3bdf031c	0.0068057906
126	0xbc80aed6	-0.015708368
127	0xbc1fe518	-0.00975921
128	0xbc9d1254	-0.019173779
129	0xbcac0cea	-0.021002252
130	0xbc9db597	-0.019251628
131	0xbccb94af	-0.024851171
132	0xba29edc1	-0.00064822665
133	0xbc60b5f7	-0.013715259
134	0xbc596f75	-0.013271202
135	0x3b108463	0.0022051565
136	0x3bd3a897	0.0064593065
137	0xba15e441	-0.00057179114
138	0x3c1848ff	0.009294747
139	0x3c35bc06	0.011092192
140	0x3ba27659	0.004957956
141	0x3c078b9c	0.008273032
142	0x3b053495	0.002032553
143	0x3ad6ed1a	0.0016397566
144	0xbc3579ea	-0.01107643
145	0xbc02c08a	-0.007980475
146	0x3aff742a	0.0019489576
147	0x3ba31b93	0.0049776523
148	0xbb598371	-0.0033189917
149	0x3b7e2a36	0.0038782484
150	0xbb48d124	-0.0030642236
151	0xbc5bc30e	-0.013413204
152	0x3b980553	0.0046393066
153	0x3c49288e	0.012277735
154	0x3c6f518f	0.014606847
155	0x3a8b16a1	0.0010611602
156	0xbce8edf1	-0.028433772
157	0xbcfef3d9	-0.031122135
158	0xbd1d4d45	-0.038403768
159	0x3bc0ff83	0.0058898344
160	0x3bd5670f	0.0065125297
161	0x3c5992a0	0.013279587
162	0xbbf652ba	-0.007517186
163	0xb9afbb7a	-0.00033518282
164	0xbbdcdeaa	-0.006740411
165	0x3ad2e8a1	0.0016091057
166	0x3c24ef30	0.010066792
167	0x3afbc7cd	0.0019209326
168	0xbb1327ca	-0.0022454136
169	0x3b942134	0.0045205597
170	0xba0d6afa	-0.0005394664
171	0xbb8c53b1	-0.0042824377
172	0xbad4af31	-0.0016226528
173	0xbbc56853	-0.0060243993
174	0x3be01e1d	0.0068395273
175	0x3b71d621	0.0036901312
176	0xbabfb265	-0.0014625309
177	0xbbbbfc47	-0.005736861
178	0xbaf83fa8	-0.001893987
179	0xbaead818	-0.0017917184
180	0xbb497762	-0.0030741324
181	0xbbeaed05	-0.007169368
182	0xbc2a9e20	-0.0104136765
183	0xbc2a3127	-0.010387695
184	0xbc1cad42	-0.009562792
185	0xbc6679e3	-0.014067146
186	0xba21de9b	-0.00061748334
187	0x3b9ce9d2	0.0047886157
188	0x3ab7b212	0.0014014861
189	0xbc2440fb	-0.010025258
190	0x3a6daa32	0.00090661936
191	0xbc24cf4c	-0.010059189
192	0xbca28fb7	-0.01984392
193	0xbad955a5	-0.001658131
194	0xbb78a2c2	-0.0037938808
195	0xba16dd6f	-0.0005755042
196	0x3c587a92	0.013212817
197	0x3c99c9c1	0.018772962
198	0x3c8878eb	0.01665922
199	0x3c184eff	0.009296178
200	0x3c97b276	0.018517714
201	0x3c8a3839	0.016872512
202	0x3b54d36d	0.0032474652
203	0x3c3f6353	0.011681396
204	0x3b067dd0	0.0020521767
205	0xbc18aa91	-0.00931801
206	0x3bd5fa5e	0.0065300902
207	0x3cfff344	0.031243928
208	0x3d001a32	0.03127498
209	0x3cecb68a	0.028895635
210	0x3ba6a767	0.005085874
211	0x3c123bc1	0.008925379
212	0x3c2508bd	0.010072884
213	0x3ca2a814	0.019855537
214	0x3cc366fb	0.023852816
215	0x3cbc2b4e	0.022969868
216	0x3acd223f	0.0015650465
217	0xbc0081bd	-0.007843432
218	0xbbce9c44	-0.0063052494
219	0xbab3ae69	-0.0013708594
220	0xbc1757ab	-0.00923721
221	0xbb3a31dd	-0.0028411068
222	0x3ba15e48	0.0049245693
223	0x3b5e43a0	0.003391482
224	0x3af4851b	0.0018655391
225	0x3c59f9ee	0.013304217
226	0x3b7aa40a	0.0038244748
227	0x3c0a251e	0.008431701
228	0xbba9ac41	-0.005178005
229	0xbba3fb01	-0.005004287
230	0xbbdb2fce	-0.0066890484
231	0xbc93c131	-0.018036457
232	0xbb1a12ed	-0.0023509816
233	0xbc9cb2cb	-0.019128224
234	0xbc791e4b	-0.015204976
235	0xbbcf5977	-0.0063278037
236	0xbac744f2	-0.0015203042
237	0xbc4a2777	-0.012338511
238	0xbb028a9e	-0.0019919048
239	0x3b2df397	0.0026542896
240	0xbb9ccb6d	-0.0047849924
241	0xbae76e92	-0.0017656854
242	0xbad2e987	-0.0016091325
243	0x3baa1d89	0.005191509
244	0xbb3db449	-0.002894657
245	0xbbb79373	-0.005602294
246	0x3be5ef8f	0.007017083
247	0xbb5970bc	-0.0033178767
248	0xba44b61d	-0.00075039436
249	0x3b8a2bf7	0.004216667
250	0xb8c5b339	-9.427075e-05
251	0x3b202495	0.0024435867
252	0x3ccb1ba2	0.02479345
253	0x3c9bbf59	0.01901214
254	0x3c8942d3	0.016755497
255	0x3b04a2f6	0.0020238734

tfeb.12.weight f4 [26]
0	0x3c8a4ba2	0.016881768
1	0x3ded4c20	0.11586785
2	0x3df39ffa	0.118957475
3	0x3d634fad	0.055495907
4	0x3d6e844f	0.058231648
5	0x3d4db76a	0.050223745
6	0x3d38824f	0.045046147
7	0x3d1befee	0.03807061
8	0x3d814bb9	0.06313271
9	0x3d3c949a	0.046040155
10	0x3cef8e78	0.02924274
11	0x3d1fc3fc	0.039005265
12	0x3d3ee288	0.046602756
13	0x3d26d348	0.040728837
14	0x3d8e16cc	0.06937942
15	0x3d64e53c	0.055882677
16	0x3d308bf0	0.043102205
17	0x3cc9c331	0.024629207
18	0x3cc22bbe	0.023702499
19	0x3ce8ef4e	0.028434422
20	0x3d439edc	0.047758922
21	0x3d8bfbc3	0.06835129
22	0x3dadad11	0.084802754
23	0x3e6f5e8f	0.23375915
24	0x3d07ca68	0.033152014
25	0x3d4432b7	0.047899928

tfeb.12.bias f4 [26]
0	0xbca1921c	-0.01972299
1	0x3ca04bdc	0.019567423
2	0xbcaa7484	-0.020807512
3	0xbd033e2b	-0.03204171
4	0xbd1b00ac	-0.037842438
5	0xbd1d75a1	-0.038442258
6	0xbd35e6c2	-0.04440952
7	0xbd12b285	-0.03581478
8	0x3b02a68f	0.0019935702
9	0xbc8494b8	-0.016184196
10	0xbbe87a7d	-0.00709468
11	0x3cbf61ff	0.023362158
12	0xbcc5d5ca	-0.024149794
13	0xbccf3649	-0.02529444
14	0x3d788a00	0.060678482
15	0xbc107345	-0.008816545
16	0x3d00c5e0	0.03143871
17	0xbd22a585	-0.039708633
18	0xba49f0c7	-0.000770342
19	0x3c03473b	0.008012588
20	0x3d30d550	0.04317218
21	0x3d588723	0.05286325
22	0x3d89e104	0.067323714
23	0xbd600ff2	-0.054702707
24	0xbc8e8474	-0.017397143
25	0xbbb82fcb	-0.0056209317

tfeb.12.running_mean f4 [26]
0	0xbcfa8e2e	-0.030585375
1	0xbce8c5a0	-0.028414547
2	0xbcfc3db9	-0.03079115
3	0xbc7566fb	-0.014978166
4	0xbcd782b2	-0.026307438
5	0xbd086e44	-0.033308282
6	0x3ca34c02	0.019933704
7	0xbdbf6b44	-0.09346631
8	0xbc640ccb	-0.013919066
9	0xbc3b3e52	-0.011428433
10	0x3d3c12cb	0.04591636
11	0xbd1093cf	-0.03529721
12	0xbcf79fd3	-0.030227577
13	0xbc5234e0	-0.012829989
14	0x3dc89ccb	0.09795531
15	0x3d76d9ff	0.06026649
16	0x3d14f855	0.03636964
17	0xbcc1f56f	-0.023676602
18	0x3cc7cc77	0.024389489
19	0x3c978545	0.018496165
20	0x3d0b3662	0.03398741
21	0xbd22b7f7	-0.039726224
22	0x3d0b909e	0.034073465
23	0xbd99c1dd	-0.075076796
24	0xbde70a6e	-0.11281286
25	0xbc5c14bc	-0.013432678

tfeb.12.running_var f4 [26]
0	0x3a8db82f	0.0010812337
1	0x3ac7a9b6	0.0015233073
2	0x3ba128bf	0.0049181874
3	0x3ab097d7	0.0013472986
4	0x3a4b434e	0.00077538646
5	0x3a83bc20	0.0010050572
6	0x3a637289	0.000867643
7	0x3c375003	0.01118851
8	0x3afa2b53	0.0019086398
9	0x3a196112	0.00058509514
10	0x3b0606db	0.0020450864
11	0x3af5ff49	0.0018768098
12	0x3a79aa0c	0.0009523935
13	0x3900573b	0.00012239527
14	0x3c251439	0.010075622
15	0x3b96c99a	0.0046016695
16	0x3aea5e16	0.0017880823
17	0x3a1ef44d	0.00060636253
18	0x3a4053c5	0.00073367014
19	0x3a252cd0	0.0006300928
20	0x3affe092	0.0019521883
21	0x3aeb234a	0.0017939594
22	0x3bb15972	0.005412274
23	0x3c97a677	0.018511994
24	0x3c65d4d9	0.014027798
25	0x3a460106	0.0007553253
