refine_codes/retrained_models_after_second_stage_pruning/bak/retrained_acdnet_after_tylor_pruning_model_from_acc_97.7_0.85compress_20240207114755_acc_94.31818389892578_113th_epoch.pt (torch, 335626 bytes, 62 tensors)

sfeb.0.weight f4 [7, 1, 1, 9]
0	0xbd0c15ed	-0.034200598
1	0x3d7f114b	0.06227235
2	0x3e350795	0.17678674
3	0xbe894705	-0.26811996
4	0x3de3c8c8	0.1112228
5	0xbf4e1662	-0.80502903
6	0xbeadc357	-0.33938095
7	0x3eccce39	0.40001085
8	0x3f24998c	0.64296794
9	0x3e29d6cd	0.16585846
10	0x3d068680	0.032843113
11	0x3c1dd15d	0.009632436
12	0xbe6e3724	-0.23263222
13	0xbd148308	-0.036257774
14	0xbe577e0a	-0.21044174
15	0x3e1c8b47	0.15287505
16	0x3c93fc03	0.018064504
17	0xbeca1540	-0.39469337
18	0x3f1aadbe	0.6042136
19	0xbdac1467	-0.08402329
20	0xbd0bb2ae	-0.03410595
21	0xbe7e334a	-0.24824253
22	0x3d63c40b	0.055606883
23	0xbe14f955	-0.14548238
24	0x3dfac4fe	0.122446045
25	0x3f048845	0.5177043
26	0xbeab34f1	-0.3343883
27	0xbeef6ef2	-0.46764332
28	0xbf07a854	-0.52991223
29	0x3cb904bb	0.022585263
30	0x3f091849	0.5355268
31	0x3db0536b	0.08609661
32	0x3e9139ec	0.28364503
33	0xbe6dad1b	-0.23210566
34	0x3ca87722	0.02056462
35	0x3da78b92	0.08180918
36	0xbb5f29a7	-0.0034051926
37	0x3d98bc59	0.074577995
38	0xbe30f8a9	-0.17282356
39	0x3d9e9125	0.07742528
40	0x3c9dbf22	0.019256178
41	0x3e8b2b05	0.2718126
42	0x3f36be74	0.7138436
43	0xbf037da7	-0.51363605
44	0xbee1d971	-0.44111207
45	0x3df12723	0.11775043
46	0x3dda18b8	0.10649246
47	0xbe7204bc	-0.23634619
48	0x3eb75302	0.35805517
49	0xbf4b1614	-0.79330564
50	0x3f2d5d08	0.6772008
51	0x3dcffc80	0.101555824
52	0xbf6cac7c	-0.9245069
53	0x3ef4312f	0.47693774
54	0xbe05bcf8	-0.13060367
55	0xbe38e99d	-0.18057866
56	0xbcb9bedc	-0.022674017
57	0x3e583a9a	0.21116105
58	0x3da1c815	0.07899491
59	0x3d8e9fb0	0.06964052
60	0xbe7d5ef0	-0.24743247
61	0x3dca0108	0.09863478
62	0x3f0e0a7d	0.55484754

sfeb.1.weight f4 [7]
0	0x3f55ddba	0.8354145
1	0x3efa1f2d	0.4885191
2	0x3eeb3925	0.45942035
3	0x3f1f3746	0.62193716
4	0x3f1fde48	0.6244855
5	0x3f067bf4	0.5253289
6	0x3ef010dc	0.46887863

sfeb.1.bias f4 [7]
0	0x3dc15460	0.094399214
1	0x3c768205	0.0150456475
2	0x3f02ffe5	0.51171714
3	0x3f0095bf	0.50228494
4	0x3e25d008	0.16192639
5	0x3f1329cc	0.5748565
6	0x3dbdcec3	0.09267952

sfeb.1.running_mean f4 [7]
0	0xb65276a7	-3.1361503e-06
1	0xb77bf3d8	-1.501754e-05
2	0x37526083	1.2539446e-05
3	0xb69bc8ad	-4.6427217e-06
4	0x3411421b	1.3528226e-07
5	0xb602cbd0	-1.9490144e-06
6	0x3757876f	1.2846532e-05

sfeb.1.running_var f4 [7]
0	0x3d3992d7	0.045306053
1	0x3c04c081	0.008102537
2	0x3c98a5bc	0.018633716
3	0x3d0b217b	0.033967476
4	0x3ccfb9f1	0.025357218
5	0x3bc2c4e6	0.0059438823
6	0x3c4de73d	0.0125673385

sfeb.3.weight f4 [32, 7, 1, 5]
0	0xbca6d2d6	-0.020364206
1	0xbcdd4ef9	-0.027015196
2	0xbc35fae2	-0.011107178
3	0xbd21106f	-0.039322313
4	0x3b8da4b2	0.0043226117
5	0x3cd25d91	0.025679382
6	0x3d873aa1	0.066029795
7	0x3dc87317	0.09787577
8	0x3e3c37bd	0.18380637
9	0x3e0c8129	0.13721146
10	0xbd836ce7	-0.06417256
11	0xbd2c742b	-0.042102974
12	0xbd373bea	-0.044734873
13	0x3bf74496	0.007546018
14	0xbb8ccb72	-0.0042967135
15	0x3d25c6c2	0.040472753
16	0x3d8b913f	0.06814813
17	0x3d3b4230	0.04571742
18	0xbd68dcd3	-0.05685122
19	0x3c05206f	0.008125409
20	0x3becdf69	0.007228781
21	0xbb24e812	-0.0025162739
22	0xbace994c	-0.0015762239
23	0x3d1dfd0a	0.038571395
24	0xbcb26a1a	-0.021779109
25	0xbd479417	-0.048725214
26	0xbcd5f0ae	-0.026115742
27	0x3a9b8406	0.0011864908
28	0xbb69d5a3	-0.0035680316
29	0xbc80e12c	-0.01573237
30	0xbd200ea4	-0.039076462
31	0x3b84838b	0.0040440015
32	0x3b761c8e	0.003755364
33	0x3cb6dc02	0.022321705
34	0x3d258eb2	0.040419288
35	0x3bb3b1b8	0.005483832
36	0xbcd417c7	-0.025890244
37	0xbab7645b	-0.00139917
38	0xbb118de5	-0.002220982
39	0x3d0512cf	0.03248864
40	0x3e1ad901	0.15121843
41	0x3e4c71a6	0.19965228
42	0x3e298de7	0.16558038
43	0x3e5f033b	0.21778576
44	0x3e4a1261	0.19733573
45	0xbe0bf8b8	-0.13669097
46	0xbda61f0c	-0.081113905
47	0xbd310661	-0.043218974
48	0xbdc50318	-0.09619731
49	0xbda23b60	-0.07921481
50	0x3dd0d3f2	0.10196675
51	0x3e26eb9d	0.16300817
52	0x3e0c0860	0.1367507
53	0x3e0f84e8	0.14015543
54	0x3e056005	0.1302491
55	0xbcc4c1b6	-0.02401815
56	0x3c7c8afb	0.015413995
57	0x3d2af5b3	0.041738223
58	0x3cd64822	0.026157442
59	0xbcdbff35	-0.02685509
60	0x3b47ef35	0.0030507569
61	0xbacae429	-0.0015479374
62	0xbb0f1586	-0.0021832897
63	0xbbc9ad1b	-0.006154669
64	0x3bccd173	0.006250554
65	0xbe3161c1	-0.17322446
66	0xbe48e71b	-0.1961941
67	0xbde4c276	-0.11169903
68	0xbda01a9d	-0.07817576
69	0xbe0b227d	-0.13587375
70	0xbe1d96d3	-0.15389566
71	0xbd9512e5	-0.072789945
72	0xbd87b70e	-0.06626712
73	0xbda93036	-0.08261149
74	0xbd9ec4c4	-0.07752374
75	0xbed4c675	-0.4155766
76	0xbe9d35cb	-0.30705103
77	0xbe4fca48	-0.20292008
78	0xbe1e842b	-0.15480106
79	0xbe074897	-0.13211285
80	0x3e7866ab	0.24257915
81	0x3e38f066	0.18060455
82	0x3e106874	0.14102346
83	0x3dbc8f75	0.0920705
84	0x3d88c53b	0.06678244
85	0xbe0c4171	-0.13696839
86	0xbe577406	-0.21040353
87	0xbda386a9	-0.07984669
88	0xbe0a6f28	-0.13518965
89	0xbdc20e09	-0.09475333
90	0x3cdc2e31	0.026877495
91	0xbbd461e7	-0.0064813974
92	0x3a043994	0.000504398
93	0xbd0e11fb	-0.034685116
94	0xbd00ff84	-0.03149368
95	0xbc1bcfc8	-0.009509988
96	0x3b0b4b15	0.002125447
97	0xbb5ee945	-0.0034013551
98	0xbc613973	-0.013746607
99	0xbc09c639	-0.008409076
100	0x3e2aa961	0.16666175
101	0x3e5debbf	0.21671961
102	0x3e3d591f	0.18491028
103	0x3e6fd3c0	0.2342062
104	0x3e81a933	0.253244
105	0xbd3c54b2	-0.04597921
106	0xbb8bb22c	-0.004263183
107	0xbd2961a3	-0.04135288
108	0xbdff4897	-0.12465017
109	0xbd59e76f	-0.053199228
110	0x3cb58cb1	0.022161813
111	0x3da324c2	0.07965995
112	0x3d79b2e7	0.06096163
113	0x3da57c30	0.080803275
114	0x3dae73d9	0.0851819
115	0x3e225423	0.15852408
116	0x3e00eb76	0.12589821
117	0x3d13e64d	0.036108304
118	0xbc01252b	-0.007882397
119	0xbabc7f14	-0.0014381134
120	0xbcb18f99	-0.021674918
121	0xbbf461db	-0.0074579543
122	0xbd4c5f8a	-0.0498958
123	0xbb21f187	-0.0024710612
124	0xbc0d4b82	-0.0086239595
125	0xbd143f0b	-0.036192935
126	0xbac2dd2a	-0.0014866937
127	0xba9b6e46	-0.0011858426
128	0xbbcf624c	-0.0063288566
129	0xbd2914b4	-0.04127951
130	0x3cb06299	0.02153139
131	0x3c841999	0.016125487
132	0xba8d0d7d	-0.0010761466
133	0xbd138ca1	-0.036022786
134	0x3b65572a	0.003499458
135	0xbb24545d	-0.0025074698
136	0xbba5feb1	-0.005065762
137	0xbd353fb5	-0.04425021
138	0xbc86184a	-0.016369004
139	0xbb89b506	-0.004202488
140	0xbe100a6b	-0.14066474
141	0xbe103bf4	-0.1408537
142	0xbd387ee7	-0.0450429
143	0xbd9e8f73	-0.077422045
144	0xbe4c9edd	-0.19982477
145	0xbde9f29c	-0.11423227
146	0xbda23b79	-0.079215
147	0xbdc3c8f9	-0.09559817
148	0x3ccc81e9	0.02496429
149	0x3de0705d	0.109589316
150	0x3e637d96	0.22215876
151	0x3dd02215	0.10162751
152	0x3da61251	0.08108962
153	0x3d42e2d6	0.04757961
154	0x3b219bfc	0.0024659624
155	0xbe17a287	-0.14808093
156	0xbdce7474	-0.100808054
157	0xbdde7cd8	-0.10863656
158	0xbc9ff63e	-0.019526597
159	0xbdb95a09	-0.09050376
160	0x3cb35936	0.021893125
161	0x3d1e1963	0.03859843
162	0x3d2e5caf	0.04256886
163	0x3ddbaaef	0.10725962
164	0x3e15778f	0.14596389
165	0x3be3a050	0.006946601
166	0x3c7d66ec	0.015466433
167	0xbb686797	-0.0035462135
168	0xbd8a9db4	-0.06768361
169	0xbd8a7a5b	-0.06761619
170	0xbd5f3349	-0.05449227
171	0xbe1b0735	-0.15139468
172	0xbe69d2f7	-0.22834383
173	0xbe1c5891	-0.1526816
174	0xbdc29cc3	-0.09502556
175	0x3d30620a	0.043062247
176	0xbd8ba5b7	-0.06818717
177	0x3b5de1ca	0.0033856505
178	0x3d52a573	0.051427316
179	0x3cb6e9b6	0.022328239
180	0xbdd232f1	-0.102636226
181	0xbac0577a	-0.0014674508
182	0xbdb8aa73	-0.090168856
183	0xbcd7caf4	-0.026341893
184	0x3d9f57f8	0.077804506
185	0xbe4ba194	-0.19885856
186	0xbd196833	-0.037452888
187	0xbdde465e	-0.10853265
188	0xbd4342b8	-0.04767105
189	0x3a911d91	0.0011071434
190	0x3e78cd34	0.24297029
191	0x3e191bd5	0.14952023
192	0x3d8d433b	0.06897589
193	0xbce4be5e	-0.027922805
194	0xbd1d379d	-0.038383115
195	0xbba55587	-0.005045596
196	0xbdeb11b2	-0.114779845
197	0xbdd36c0f	-0.10323345
198	0xbdc16619	-0.09443302
199	0xbe1961c7	-0.14978705
200	0xbd90bd6d	-0.0706738
201	0xbd505d4f	-0.050870236
202	0xbcb09c42	-0.021558885
203	0xbbf19655	-0.0073726573
204	0x3cd30744	0.0257603
205	0xbcb9347b	-0.022608032
206	0x3ddefdf9	0.10888285
207	0x3d2dd22b	0.04243676
208	0x3e43c0b9	0.19116487
209	0x3e86a0d2	0.2629457
210	0xbdf1911f	-0.11795258
211	0xbe0a6d72	-0.13518313
212	0xbdf4f514	-0.119608074
213	0xbde39a51	-0.11113418
214	0xbdd352c7	-0.10318523
215	0xbdf1dfc5	-0.11810259
216	0x3c44a6fe	0.012002705
217	0x3e02b615	0.12764771
218	0x3e39ff67	0.18163835
219	0x3e347039	0.17620935
220	0x3dd631a0	0.10458684
221	0x3d8a5044	0.06753591
222	0x3dd12306	0.10211758
223	0xbcf0e0f4	-0.029404141
224	0xbda7f1c5	-0.08200411
225	0xbdd294a7	-0.102822594
226	0xbe2da4bf	-0.16957377
227	0xbe061355	-0.13093312
228	0xbdccc1aa	-0.09997876
229	0xbdb144ba	-0.08655687
230	0x3d5ca704	0.053870216
231	0x3dc211f5	0.09476081
232	0x3d8a23db	0.0674512
233	0x3d46c00a	0.048522986
234	0xbda48f13	-0.08035102
235	0xbc6c6a51	-0.014429645
236	0xbc947866	-0.018123817
237	0x3baef46a	0.005339195
238	0xbc53cdb2	-0.01292746
239	0xbc64bbef	-0.0139608225
240	0x3bdd65dd	0.006756528
241	0xbd6d89d4	-0.05799277
242	0xbdae4f6d	-0.08511243
243	0xbdafd3f8	-0.08585352
244	0xbdd4ef2f	-0.10397183
245	0x3d71f3db	0.05907045
246	0x3d4fc281	0.050722603
247	0x3d00f8a7	0.031487133
248	0x3d07a52e	0.033116512
249	0xbcfbc36c	-0.030732833
250	0x3ceca110	0.028885394
251	0xbd294588	-0.041326076
252	0xbdedc03e	-0.11608933
253	0xbdc9111f	-0.09817719
254	0xbdb0511f	-0.086092226
255	0xbdb4a6be	-0.08820866

sfeb.4.weight f4 [32]
0	0x3e8cdf3c	0.27514064
1	0x3ee27ff3	0.44238243
2	0x3f680b75	0.9064248
3	0x3e281afe	0.16416547
4	0x3ef07df6	0.469711
5	0x3f0178cb	0.5057494
6	0x3f12ada7	0.5729622
7	0x3f0d9ec9	0.5532041
8	0x3e868668	0.2627442
9	0x3dc0eea3	0.09420516
10	0x3ed0686a	0.40704662
11	0x3eebda17	0.46064827
12	0x3f1e625a	0.6186882
13	0x3ed8588a	0.4225505
14	0x3ee11d27	0.43967554
15	0x3ef6c2a0	0.48195362
16	0x3e6122c4	0.21985918
17	0x3f0d92b6	0.5530199
18	0x3e58e646	0.21181592
19	0x3e9fac55	0.31186166
20	0x3f05c550	0.522542
21	0x3e8ba38d	0.27273217
22	0x3f038df8	0.513885
23	0x3eb563ce	0.35427707
24	0x3ed1d146	0.40979975
25	0x3f131cf9	0.57466084
26	0x3f256061	0.6460019
27	0x3e6574ab	0.22407787
28	0x3f081065	0.53150016
29	0x3eb0c397	0.34524223
30	0x3ec97cdb	0.3935307
31	0x3e347a76	0.1762484

sfeb.4.bias f4 [32]
0	0xbd8169a7	-0.0631898
1	0x3c788e15	0.015170594
2	0xbda296a2	-0.07938887
3	0x3c80c52d	0.01571902
4	0xbd9e4e83	-0.07729819
5	0xbcf964e4	-0.030443616
6	0xbd969114	-0.0735189
7	0xbcd2c8fa	-0.025730599
8	0xbd9fb0ea	-0.077974156
9	0x3d6bb996	0.057550035
10	0xbda316c9	-0.0796333
11	0xbd9f83b7	-0.077887945
12	0xbc8aca52	-0.016942177
13	0xbcb851bb	-0.02249991
14	0x3ce442ae	0.027863827
15	0x3ccbdf78	0.024886832
16	0x3d880937	0.066423826
17	0xbce73813	-0.02822498
18	0xbc4a061e	-0.01233056
19	0xbd975701	-0.073896416
20	0x3bd4c3b3	0.0064930557
21	0xbd678d5a	-0.056531288
22	0xbd9e37fb	-0.07725521
23	0xbdf4ae70	-0.11947334
24	0x3d3e3e41	0.04644609
25	0x3d16a570	0.036778867
26	0x3cabeb4d	0.020986224
27	0xbd4bad1a	-0.04972563
28	0xbcef938e	-0.029245164
29	0xbd909ea7	-0.070615105
30	0xbd5bba00	-0.05364418
31	0x3d32182e	0.04348009

sfeb.4.running_mean f4 [32]
0	0xbcd71989	-0.026257293
1	0x3e13ee94	0.14446479
2	0xbdad92aa	-0.084752396
3	0x3d7e4397	0.062076177
4	0xbe906aa3	-0.28206357
5	0xbdbac4fb	-0.09119602
6	0xbec391a3	-0.3819705
7	0x3b430c5b	0.0029762003
8	0xbe42eec4	-0.19036394
9	0xbc794223	-0.015213522
10	0xbed5ebb9	-0.41781405
11	0xbe3f68fb	-0.1869239
12	0xbd21620f	-0.039400157
13	0xbe3ba2b4	-0.18323785
14	0xbe0e23ea	-0.13880888
15	0xbe82a717	-0.25518104
16	0x3daae7f5	0.083450235
17	0xbe1caf56	-0.1530126
18	0xbe4e7522	-0.2016187
19	0xbe417025	-0.18890436
20	0xbd7a1750	-0.06105739
21	0xbe5c37b1	-0.2150562
22	0xbe8b8f96	-0.27257985
23	0xbea9516b	-0.3306993
24	0xbb8d4a8a	-0.0043118643
25	0x3e0be4c8	0.13661492
26	0x3cc61662	0.024180595
27	0xbc0b0bf5	-0.0084867375
28	0x3d0b61df	0.034028884
29	0xbda38051	-0.07983459
30	0xbbaa8f75	-0.0052050897
31	0xbda74f9f	-0.081694834

sfeb.4.running_var f4 [32]
0	0x3c941827	0.018077923
1	0x3db4200e	0.087951764
2	0x3e463abc	0.19358343
3	0x3c62b70b	0.013837586
4	0x3e17be6e	0.14818737
5	0x3d4e52a3	0.050371777
6	0x3de92806	0.11384587
7	0x3d2a9d3d	0.04165386
8	0x3d1b8913	0.03797252
9	0x3cb3a576	0.021929484
10	0x3da0cf5e	0.07852052
11	0x3dffe8fd	0.12495611
12	0x3e1156a8	0.14193213
13	0x3e10b9a4	0.14133316
14	0x3e767ea3	0.24071746
15	0x3e91fc61	0.28512862
16	0x3dc99684	0.09843162
17	0x3ecb59ab	0.3971685
18	0x3d347cc4	0.0440643
19	0x3d4c2298	0.04983768
20	0x3e13478a	0.14382759
21	0x3d6f65f6	0.058446847
22	0x3e1c6ad8	0.15275133
23	0x3d93194a	0.07182558
24	0x3d23ca1f	0.03998768
25	0x3da82fec	0.08212265
26	0x3dc34e89	0.09536464
27	0x3c829240	0.015938878
28	0x3d7b1f2c	0.061309025
29	0x3ca805b0	0.020510525
30	0x3c83e789	0.016101616
31	0x3bd82d57	0.006597202

tfeb.0.weight f4 [7, 1, 3, 3]
0	0x3f469f71	0.7758704
1	0xbeebc5f8	-0.46049476
2	0xbe85e2a7	-0.26149485
3	0xbd955fac	-0.072936386
4	0x3cfc77c3	0.030818826
5	0x3d9565ac	0.07294783
6	0x3c1f42f0	0.009720549
7	0x3d7d50d5	0.061844666
8	0x3d94a0fc	0.07257268
9	0x3a20b609	0.0006130641
10	0x39d2d588	0.00040213414
11	0x3ae779c0	0.0017660186
12	0xbb00659b	-0.0019591812
13	0xbac72362	-0.001519304
14	0xb982babd	-0.00024934663
15	0x3a220a7a	0.00061813707
16	0x3ca59592	0.020212922
17	0x3b8db8df	0.004325017
18	0x3db63e70	0.08898628
19	0xbec2d18d	-0.380505
20	0x3df79578	0.12089056
21	0x3e69769c	0.22799152
22	0xbee351dc	-0.4439839
23	0x3e03dc91	0.12877108
24	0x3e2aefc5	0.16693027
25	0xbe8a9443	-0.2706624
26	0x3db70c22	0.08937861
27	0xbbd6a7bb	-0.0065507567
28	0xbba6d2c5	-0.0050910437
29	0xbb6047da	-0.0034222514
30	0xbbea29fb	-0.0071461177
31	0xbbcb64c7	-0.006207082
32	0xbba9925e	-0.005174919
33	0x3c4a1786	0.01233471
34	0x3cf1f269	0.029534535
35	0x3ca34bf8	0.019933686
36	0x3e3cde6f	0.18444227
37	0x3e08ad00	0.13347244
38	0x3dd9bb69	0.10631449
39	0xbd6a17a9	-0.05715147
40	0xbe22bb70	-0.15891814
41	0xbd91a92a	-0.071123436
42	0xbe1d7455	-0.15376408
43	0xbdadf2c6	-0.08493571
44	0x3d206cc9	0.039166246
45	0xbb17d1a9	-0.0023165739
46	0x3c8f8446	0.017519128
47	0xb94eb117	-0.00019711662
48	0xba446183	-0.0007491337
49	0xb91443a2	-0.00014139575
50	0x3a0ab5c0	0.0005291365
51	0x3c7688c6	0.015047258
52	0x3cd009ef	0.025395362
53	0x3b3bc410	0.0028650798
54	0x3d4f89c0	0.050668478
55	0x3d343a56	0.044000946
56	0xbdb18403	-0.08667757
57	0x3da5ec56	0.08101718
58	0x3d53b702	0.0516882
59	0xbe2f8056	-0.171388
60	0xbe7a60de	-0.24451014
61	0xbede2023	-0.43383893
62	0x3f1f5ced	0.6225117

tfeb.1.weight f4 [7]
0	0x3e444946	0.19168577
1	0x3d2d1c3f	0.042263266
2	0x3e90ed5f	0.283061
3	0x3d97ecc1	0.07418204
4	0x3eb23aee	0.34810585
5	0x3d578374	0.052615598
6	0x3e681290	0.22663331

tfeb.1.bias f4 [7]
0	0x3d614116	0.05499371
1	0xbd521c91	-0.051296774
2	0x3d2e48b9	0.042549822
3	0xbd84cd56	-0.06484477
4	0xbc663d18	-0.014052652
5	0xbda646a9	-0.08118946
6	0x3d126474	0.03574033

tfeb.1.running_mean f4 [7]
0	0x3db05da2	0.08611609
1	0x3c162619	0.009164357
2	0xbdda903d	-0.106720425
3	0x3c2b6d48	0.010463066
4	0xbcd18e0b	-0.025580427
5	0x3cb48866	0.022037696
6	0xbd0a3663	-0.033743273

tfeb.1.running_var f4 [7]
0	0x3d31a1e3	0.043367278
1	0x396999ea	0.00022277949
2	0x3d3bad16	0.045819364
3	0x3a614dee	0.0008594681
4	0x3d531001	0.051528934
5	0x3a82a94a	0.0009968665
6	0x3caf9773	0.021434521

tfeb.4.weight f4 [10, 7, 3, 3]
0	0x3c30df61	0.010795445
1	0x3c8c4903	0.017124658
2	0x39d1d279	0.000400204
3	0x3caa40de	0.020782884
4	0x3cd49077	0.025947792
5	0x3bd0c7c7	0.0063714716
6	0xbc2f3986	-0.010694867
7	0x3b23fe18	0.0025023278
8	0x3a3679c9	0.00069608964
9	0x3adbc50c	0.0016767099
10	0x3a5371e0	0.000806598
11	0x3af2e4f6	0.001853137
12	0xb84cc31d	-4.8819104e-05
13	0xba15b570	-0.0005710935
14	0xb897c950	-7.2377385e-05
15	0xba51e2a1	-0.00080064876
16	0x3a13987d	0.00056303275
17	0x3a227b1c	0.00061981543
18	0xbb281f59	-0.002565345
19	0xbc600cc4	-0.013674919
20	0xbcc868e2	-0.024464075
21	0xbccb5cf0	-0.02482459
22	0xbcb8315d	-0.022484476
23	0xbc60068e	-0.013673438
24	0xbd351c66	-0.044216536
25	0xbc1c379c	-0.009534743
26	0xbbe6186c	-0.0070219543
27	0x3bce950e	0.00630439
28	0x3bb3e056	0.0054893894
29	0x3bb609de	0.0055553755
30	0x3ab7421b	0.0013981493
31	0x3ab4663d	0.001376338
32	0x3a7d3ef3	0.0009660564
33	0x3a07c4d2	0.000517917
34	0x3b2b746e	0.0026161927
35	0x3b27faa9	0.0025631583
36	0xbd565ee1	-0.052336577
37	0xbd3b921b	-0.045793634
38	0xbd2355c6	-0.03987672
39	0x3c6c0347	0.014405078
40	0x3c50df7c	0.012748595
41	0xbb82520e	-0.003977067
42	0x3d881899	0.06645317
43	0x3d8b963e	0.06815766
44	0x3cff910c	0.031197093
45	0x3b3ebe68	0.002910519
46	0x3b0b6e7d	0.0021275573
47	0xbc5d1907	-0.0134947365
48	0x3a3ae24b	0.0007129057
49	0x397d89df	0.00024179321
50	0x39423336	0.0001852036
51	0xbaf67f29	-0.0018806207
52	0xba387587	-0.0007036556
53	0xb9a756c7	-0.00031917376
54	0xbcc3dec5	-0.023909936
55	0xbcc32b83	-0.023824459
56	0xbc8275da	-0.015925337
57	0xbc8550d2	-0.01627389
58	0xbc8f2da5	-0.01747782
59	0xbd05a36e	-0.03262656
60	0xbd0ca6be	-0.034338705
61	0xbc331c23	-0.010932001
62	0x3c9c6dc7	0.019095315
63	0xba417b43	-0.0007380733
64	0xbb724e24	-0.0036972845
65	0xbb1b8738	-0.002373172
66	0xbc5cae10	-0.013469234
67	0xba247c25	-0.00062746025
68	0xbafcd035	-0.0019288125
69	0x3b03459e	0.0020030509
70	0x3ab2aa4a	0.0013631072
71	0xbcb519d7	-0.022107048
72	0x38cdbd06	9.81037e-05
73	0x39062e23	0.00012796423
74	0x38bb381c	8.927306e-05
75	0x3a238b6a	0.0006238731
76	0x3a116c39	0.00055474375
77	0x39ce81d5	0.00039388114
78	0x394fa2d3	0.00019801715
79	0x38d4c922	0.00010146412
80	0x394c1d04	0.00019465765
81	0x3aa3b589	0.0012490015
82	0x3b1f927f	0.0024348793
83	0x3ace9e42	0.0015763717
84	0x3ab9033c	0.0014115344
85	0x3aa24122	0.001237903
86	0x3c994eb3	0.018714285
87	0x3a30c7c0	0.0006743632
88	0x3998676b	0.00029068752
89	0xb92da5a4	-0.00016560272
90	0x39a0de5d	0.00030683252
91	0x38cc1aea	9.732491e-05
92	0x39213bf2	0.00015376488
93	0x3a845dd5	0.0010098765
94	0x3a527768	0.0008028657
95	0x3a134293	0.00056175253
96	0x3956a5a9	0.00020470344
97	0x38cfff64	9.9180994e-05
98	0x39475ecc	0.00019013433
99	0xbb8a87d7	-0.004227619
100	0xbb88837e	-0.0041660657
101	0xbb857582	-0.004072846
102	0xbb3afa94	-0.0028530704
103	0x3c3d1846	0.011541432
104	0xbb8e8976	-0.0043498827
105	0x3b22cb58	0.002484044
106	0x3a5c3147	0.0008399677
107	0x39a6a917	0.0003178797
108	0x3943e86e	0.00018683236
109	0x38f805fb	0.000118266755
110	0x3833262f	4.2712487e-05
111	0x3a5b7849	0.0008372111
112	0x3a611a2c	0.0008586969
113	0x3a285347	0.00064211007
114	0x3a01008f	0.0004921043
115	0x39e08699	0.00042824892
116	0x39a586d1	0.00031571698
117	0xba966cec	-0.0011476553
118	0x3a9e0b10	0.001205774
119	0xbc77cc21	-0.015124352
120	0xbcd78270	-0.026307315
121	0x3a8692e3	0.0010267164
122	0xbafc69a3	-0.0019257556
123	0xbaa8afdf	-0.0012869796
124	0x398594da	0.0002547864
125	0xba2cae4e	-0.0006587253
126	0x3c11805d	0.008880702
127	0x3ca06216	0.019578021
128	0x3ce51a6b	0.027966699
129	0xbc2d912a	-0.010593692
130	0x3cdef773	0.027217602
131	0x3c9027c5	0.017597089
132	0x3c390892	0.011293547
133	0x3ca20959	0.019779848
134	0x3c55d34c	0.013050865
135	0x3aae439d	0.0013295297
136	0x394ad754	0.00019344437
137	0xbb8a8128	-0.0042268224
138	0x3a9e7a9c	0.0012090984
139	0xb952c3db	-0.00020100122
140	0xbbab9595	-0.0052363374
141	0x3b4c94d3	0.0031216636
142	0x3ae450f8	0.001741915
143	0xbb705f49	-0.0036677888
144	0xbcc92ad2	-0.024556551
145	0xbccbd163	-0.024880117
146	0xbcba7aa4	-0.022763558
147	0xbcc9d2d3	-0.024636662
148	0xbccb92d4	-0.024850287
149	0xbcb74c0e	-0.022375133
150	0xbb107c49	-0.0022046736
151	0xbcc9e5a0	-0.024645627
152	0xba2d4929	-0.0006610328
153	0x3aaab47f	0.0013023763
154	0xba4b6cd1	-0.00077600504
155	0xbbe365d2	-0.006939628
156	0x3b0e973f	0.002175763
157	0xba18bcb8	-0.0005826461
158	0xbbfe6ae1	-0.007764206
159	0x3bbcfab5	0.0057671913
160	0x3b4ed802	0.0031561856
161	0xbb8d655f	-0.004315063
162	0xbc403f59	-0.011733853
163	0xbc97db02	-0.018537048
164	0xbcb506fc	-0.022098057
165	0xbc2f104f	-0.010685041
166	0xbc3eca1a	-0.011644864
167	0xbcb51fcf	-0.022109894
168	0x3bee9ece	0.0072821146
169	0xba52456d	-0.00080212095
170	0xbc41ca49	-0.011828014
171	0x3aa6496e	0.0012686679
172	0x3a134132	0.000561732
173	0xbb961615	-0.004580269
174	0x3b10c88e	0.0022092196
175	0x3a68b8b8	0.0008877623
176	0xbba74a48	-0.0051052906
177	0x3b6d5e02	0.0036219363
178	0x3b324aad	0.0027205155
179	0xbb7e0fdb	-0.0038766775
180	0x3cfd42ef	0.030915705
181	0x3d0f57b9	0.03499577
182	0x3bbfdd65	0.0058552497
183	0x3c98d56b	0.018656453
184	0x3cda30d6	0.026634615
185	0xbad79673	-0.0016448036
186	0x3c8ac590	0.016939908
187	0xbac8033a	-0.0015259751
188	0xbc873eee	-0.0165095
189	0x3d3d6e11	0.046247546
190	0xbd112dc5	-0.03544404
191	0x3ae2868d	0.0017282531
192	0xbc9ea8cc	-0.019367598
193	0xbc31025e	-0.010803787
194	0x3b991f33	0.0046729087
195	0x3cc3277f	0.023822544
196	0xbd9ea5d5	-0.07746474
197	0x3b8b6f01	0.004255176
198	0x3b08d1d1	0.0020877013
199	0x3b820abe	0.0039685657
200	0x3b91d4c7	0.004450414
201	0x3a8e28c5	0.001084589
202	0x3b3df9ff	0.002898812
203	0x3b4e89f4	0.0031515332
204	0x3a9add3a	0.0011815198
205	0x3b174140	0.0023079664
206	0x3b312854	0.0027032094
207	0xbd052ce7	-0.032513525
208	0xbd400286	-0.046877407
209	0xbb9191cf	-0.0044424306
210	0x3d13d77d	0.036094178
211	0xbc24e397	-0.010064027
212	0x3c823a81	0.015897037
213	0xbbb206b4	-0.005432928
214	0xbd0dd79f	-0.03462946
215	0xbb6c50ef	-0.0036058982
216	0x3b88f989	0.0041801375
217	0x3bef9859	0.0073118624
218	0x3c06ddaa	0.00823156
219	0x3b0df7b2	0.002166253
220	0x3ba62b45	0.005071076
221	0x3bbc438c	0.005745357
222	0x3b440826	0.0029912083
223	0x3b97c301	0.0046314006
224	0x3bb10d00	0.005403161
225	0x3caa7599	0.020808028
226	0x3d202320	0.039095998
227	0x3d038cf5	0.03211685
228	0x3c02c891	0.007982389
229	0xbb53b432	-0.003230345
230	0xbbbbe611	-0.005734213
231	0x3c1842c4	0.009293262
232	0x3cb1bf53	0.021697676
233	0x3cdc1cbf	0.026869176
234	0x3afb8967	0.0019190729
235	0x3b8c3ecc	0.004279947
236	0x3bac3e99	0.0052564857
237	0x3aa928ae	0.00129058
238	0x3b642f19	0.0034818111
239	0x3b7e1ed1	0.0038775692
240	0x3a65d9cc	0.0008768111
241	0x3b03ea37	0.0020128617
242	0x3b2dff06	0.002654971
243	0xbc9b695f	-0.018971143
244	0xbd339f47	-0.04385307
245	0xbc53ebce	-0.012934638
246	0xbd1e4daf	-0.038648304
247	0xbbc6fbe3	-0.0060725077
248	0xbbc36d19	-0.005963933
249	0xbc2967c7	-0.010339684
250	0xbb8a5f2f	-0.0042227725
251	0x3b17ec85	0.0023181748
252	0x3c82188e	0.01588085
253	0xbd8e68e9	-0.06953604
254	0xb9245a16	-0.00015673818
255	0xbbe0f6d8	-0.0068653636

tfeb.5.weight f4 [10]
0	0x3e1fb9d6	0.15598235
1	0x3dd990ef	0.10623347
2	0x3e11603b	0.14196865
3	0x3df611c4	0.12015107
4	0x3e2fe5ed	0.17177553
5	0x3df849b1	0.121234305
6	0x3ef354e6	0.4752571
7	0x3de05eb6	0.10955565
8	0x3dd6632d	0.10468135
9	0x3e48b09b	0.1959862

tfeb.5.bias f4 [10]
0	0x3df68b65	0.12038306
1	0xbdd26892	-0.102738515
2	0xbd6d57f1	-0.057945196
3	0x3c7aa04d	0.015297008
4	0x3d215663	0.039389025
5	0x3cb55d42	0.022139195
6	0xbe90931d	-0.2823724
7	0x3e3f380a	0.18673721
8	0xbcc381f8	-0.023865685
9	0xbd814d0a	-0.06313522

tfeb.5.running_mean f4 [10]
0	0xbce17129	-0.02751978
1	0xbc0d46c4	-0.008622829
2	0xbbdc4951	-0.006722607
3	0xbc9701b7	-0.018433435
4	0xbcdb9992	-0.026806626
5	0xbd25651a	-0.04037962
6	0xbdb4a544	-0.088205844
7	0xbd4e8482	-0.050419338
8	0xbd1582f9	-0.03650186
9	0xbb8c030c	-0.004272824

tfeb.5.running_var f4 [10]
0	0x3b93b8b5	0.004508103
1	0x39442b7c	0.00018708216
2	0x3a586e80	0.0008256212
3	0x3ade495e	0.0016959121
4	0x3b54cfd7	0.0032472515
5	0x3abd491a	0.0014441342
6	0x3bbe4b74	0.0058073346
7	0x3b3f2fd5	0.0029172797
8	0x3a44537b	0.0007489246
9	0x3b043b58	0.0020176973

tfeb.7.weight f4 [15, 10, 3, 3]
0	0x3d41168a	0.047140636
1	0x3c714598	0.014726065
2	0x3ca69968	0.020336822
3	0x3bb7caff	0.005608916
4	0xbb0ef53b	-0.002181365
5	0x3c0ea57c	0.008706447
6	0x3d8f45d6	0.06995742
7	0x3d37a1a0	0.044831872
8	0x3d54964a	0.05190114
9	0xbb599ee8	-0.0033206288
10	0xbb5cf4bf	-0.0033715216
11	0xba7e5b99	-0.000970298
12	0xba9176d0	-0.0011098031
13	0xbad1e6a5	-0.0016014172
14	0xba7ca8f3	-0.00096382125
15	0xba077e2a	-0.0005168641
16	0x3a631c8f	0.00086636184
17	0x3aefe1e9	0.0018301579
18	0xbd1c9235	-0.03822537
19	0xbc845ee0	-0.016158521
20	0xbcb84e12	-0.022498164
21	0xbc8ec7b4	-0.01742921
22	0xbc3532af	-0.011059447
23	0xbbfbd9cd	-0.007685876
24	0xbc43b5eb	-0.011945228
25	0xb99e085f	-0.00030142345
26	0x3c4eaab7	0.012613944
27	0x3c94f8b2	0.018184993
28	0x3b9daac0	0.0048116148
29	0x3b500b82	0.003174514
30	0xbc23bfa6	-0.009994423
31	0xbc023404	-0.007946972
32	0x3baf0a09	0.0053417725
33	0x3cec65b8	0.028857097
34	0x3c33c990	0.010973349
35	0x3cc52d00	0.02406931
36	0x3abfb9ee	0.0014627555
37	0x3b8ba827	0.0042619887
38	0x3af6fe28	0.0018844055
39	0xbca3402a	-0.019928057
40	0xbcefa913	-0.029255426
41	0xbce7093f	-0.028202651
42	0xbd22d5bb	-0.03975461
43	0xbd57e96a	-0.052712835
44	0xbd119adb	-0.035548072
45	0xbafa92eb	-0.0019117271
46	0x3c0ebfcd	0.008712721
47	0xbc5ae279	-0.013359659
48	0x3c364c9e	0.011126665
49	0x3af25a9f	0.0018490142
50	0x3b746eda	0.0037297518
51	0x3c9a3b26	0.018827032
52	0x3cc9054d	0.02453866
53	0x3a450f37	0.0007517221
54	0xba9134b9	-0.0011078335
55	0xbd002d43	-0.031293165
56	0xbcb2c652	-0.021823082
57	0xbced5f65	-0.028976152
58	0xbd40708f	-0.046982344
59	0xbd0cf1ec	-0.034410402
60	0xbba44679	-0.005013284
61	0xbcbaeae6	-0.022817086
62	0xbcb924d6	-0.022600573
63	0x3ca3fef2	0.020019028
64	0xbb25a9e2	-0.002527826
65	0xbcda5a24	-0.02665431
66	0xbcdeeb2d	-0.02721175
67	0xbcc247b7	-0.023715837
68	0xbd4f062b	-0.05054299
69	0xbcdb027e	-0.026734587
70	0xbcb2b8b5	-0.02181659
71	0xbd1690f7	-0.036759343
72	0x3b6743a0	0.003528811
73	0xbb1af87e	-0.0023646648
74	0x3a0339e6	0.0005005881
75	0x3bc83483	0.0061097755
76	0x3a7ec979	0.0009719353
77	0x3ac7943c	0.0015226672
78	0x3c15af7b	0.009136076
79	0x3bbcdc73	0.0057635843
80	0x3b9c7f96	0.0047759516
81	0xbc969e2b	-0.018385967
82	0x3c3a06aa	0.011354128
83	0x3b8b821e	0.0042574545
84	0xbce4ec78	-0.027944788
85	0xbd0101b5	-0.03149577
86	0xbc098fc5	-0.008396094
87	0xbd276f6c	-0.040877745
88	0xbd04fc89	-0.0324674
89	0xbc9baa72	-0.019002173
90	0x3c5ed3c0	0.01360029
91	0x3cec4c81	0.028845074
92	0x3d09e876	0.033668958
93	0xbbf30142	-0.0074159214
94	0x3cd5b1a2	0.026085678
95	0x3d18a910	0.037270606
96	0xbc0a3f79	-0.008437985
97	0xb9b2b231	-0.0003408357
98	0x3bd380bf	0.0064545567
99	0xba7ce66b	-0.0009647372
100	0x39ac762f	0.0003289445
101	0x3afe1920	0.001938615
102	0x3a45411a	0.00075246545
103	0x39d222c3	0.0004008022
104	0x3a156ad3	0.0005699817
105	0xba973711	-0.0011536797
106	0x3911a0ff	0.00013888253
107	0x38912520	6.921054e-05
108	0x3cc8dcf5	0.024519423
109	0x3c9b9162	0.018990222
110	0x3c1821f5	0.00928544
111	0x3c9afc48	0.018919125
112	0x3c6d46e0	0.01448223
113	0x3ba1bb5e	0.004935666
114	0x3c53d9fb	0.012930389
115	0x3c028285	0.007965689
116	0x3b403beb	0.002933259
117	0xbb89efc1	-0.004209489
118	0xbaf9041d	-0.0018998418
119	0xbbc28107	-0.0059357914
120	0x3ad848d2	0.0016501194
121	0x3b6f3177	0.003649799
122	0x3a58bfd5	0.00082683313
123	0x3afecfdd	0.001944061
124	0x3c174612	0.009233015
125	0x3b6a0753	0.0035709932
126	0x3b481caf	0.0030534675
127	0x3a89bc73	0.0010508433
128	0xbb5fe101	-0.0034161212
129	0x3ca56320	0.020188868
130	0x3cb816c4	0.022471793
131	0xbb5dcde9	-0.0033844656
132	0xbb4314a3	-0.002976694
133	0xba9a0822	-0.0011751691
134	0xbbec98c0	-0.0072203577
135	0x3a85b7e8	0.0010201903
136	0x3b93ef00	0.004514575
137	0x3b8fba9c	0.0043862592
138	0x3bbc53d7	0.005747299
139	0x3baf43b4	0.005348647
140	0x3b5a378c	0.0033297269
141	0xbad82699	-0.0016490995
142	0x3b01cfef	0.0019807776
143	0x3b0e7e58	0.0021742787
144	0x3a291981	0.0006450639
145	0x39c9bc43	0.00038477973
146	0x3a8246bf	0.0009939297
147	0xba18588e	-0.00058115355
148	0xb97b43d8	-0.00023962499
149	0xb997bbf2	-0.00028940995
150	0xba022ea6	-0.00049660576
151	0x3976868c	0.00023510511
152	0xb98db7a0	-0.00027030427
153	0xbbcf608c	-0.006328648
154	0xbb72a969	-0.0037027246
155	0x3c7c65f3	0.015405166
156	0xbc020433	-0.0079355715
157	0xbbcbbd0a	-0.0062176036
158	0x3c5083aa	0.012726704
159	0xba8e94a1	-0.0010878035
160	0xba1e59b4	-0.00060405885
161	0x3c6630e8	0.014049746
162	0xbc157d65	-0.009124135
163	0xbb864b75	-0.0040983506
164	0xb9bffb33	-0.00036617517
165	0xbc1f17b5	-0.009710242
166	0xbba60328	-0.005066294
167	0xbb032ecb	-0.0020016904
168	0xbc504e42	-0.012713971
169	0xbc000280	-0.007813096
170	0xbbd4417d	-0.0064775334
171	0xbb2cc957	-0.0026365125
172	0x3b6c7a67	0.00360837
173	0x3ba3700e	0.004987723
174	0xbc436774	-0.011926521
175	0x3c028c47	0.007968015
176	0x3c4c50e7	0.0124704605
177	0x3b88a4be	0.0041700294
178	0x3c43eaba	0.011957819
179	0x3ca9512f	0.020668594
180	0x3b30b708	0.0026964564
181	0x3c569f5a	0.013099516
182	0x3c440edc	0.011966433
183	0xbc8eb1f2	-0.017418835
184	0x3c58d049	0.013233253
185	0xbc84a356	-0.016191166
186	0x3bf00942	0.0073253224
187	0x3c5feefa	0.013667816
188	0x3c444912	0.011980312
189	0x38464956	4.7275178e-05
190	0xba32e67f	-0.0006824508
191	0x3a47b4da	0.00076181965
192	0xbac2db9b	-0.0014866473
193	0xbae869d2	-0.0017731732
194	0xb8077333	-3.2293796e-05
195	0xb81f7fac	-3.8027458e-05
196	0x3884c7fc	6.3315005e-05
197	0x3b389d54	0.0028169947
198	0x392a4f56	0.00016242018
199	0xbb2d469e	-0.0026439796
200	0xbaae54e4	-0.0013300446
201	0x3b6c6378	0.003607003
202	0x3b08a2d1	0.0020849
203	0x3b18b0bc	0.0023298701
204	0x39c12166	0.00036836712
205	0xba95154c	-0.0011374145
206	0xba5edb5a	-0.0008501314
207	0xbbe83d58	-0.007087391
208	0xbb46e162	-0.003034674
209	0xbb5c8462	-0.0033648242
210	0x3b1d1d7f	0.002397388
211	0x3c0562d6	0.00814124
212	0x3cc92dff	0.024558065
213	0xbc084a80	-0.008318543
214	0x3c5fab3f	0.013651668
215	0x3cf075b2	0.029352996
216	0xbb7632b7	-0.003756685
217	0x3cedbed3	0.029021656
218	0x3d37808a	0.04480032
219	0x3c82b6d6	0.015956324
220	0x3cf45105	0.02982379
221	0x3d6a533c	0.057208285
222	0x38e9e6a1	0.00011153264
223	0xba8b5b6a	-0.0010632102
224	0x3b5f37e2	0.0034060408
225	0x3bd8e97a	0.0066196295
226	0x3c14ae5b	0.009074773
227	0x3c1425d5	0.009042223
228	0x3b3d2035	0.0028858308
229	0x3bcfdfbb	0.0063438094
230	0x3bf86e9a	0.007581544
231	0x3c19e318	0.009392522
232	0x3c494235	0.012283851
233	0x3c2d67b8	0.0105838105
234	0xbcc4e0d3	-0.024032986
235	0x3abe4763	0.0014517125
236	0xb9a2fa9b	-0.00031085763
237	0xbd333f12	-0.04376132
238	0xbcced349	-0.025247233
239	0xbcc0a108	-0.023514286
240	0xbccee3f3	-0.025255179
241	0xbc775634	-0.015096236
242	0xb9e41fcc	-0.0004351124
243	0xbd1cb52f	-0.038258728
244	0xbd2cef54	-0.04222043
245	0xbd8af7b6	-0.06785528
246	0xbc8cca79	-0.01718639
247	0xbcd3c2d3	-0.025849735
248	0xbd502205	-0.050813694
249	0xbcc246f8	-0.023715481
250	0xbce8cda7	-0.028418375
251	0xbd291b0b	-0.041285556
252	0x3b867f41	0.0041045253
253	0x3bac495c	0.0052577686
254	0x3bf12534	0.0073591713
255	0x3b60af23	0.0034284077

tfeb.8.weight f4 [15]
0	0x3e3c7f9b	0.18408053
1	0x3e1d503e	0.15362641
2	0x3e29b752	0.16573837
3	0x3e1f1da7	0.15538655
4	0x3dfec501	0.12439919
5	0x3e78a144	0.24280268
6	0x3e4a274e	0.19741556
7	0x3e27d9c1	0.1639166
8	0x3e654a59	0.22391643
9	0x3e89b379	0.2689474
10	0x3df18e93	0.11794772
11	0x3e6ebef4	0.2331503
12	0x3e53a222	0.20667318
13	0x3e4c25b8	0.19936264
14	0x3e195047	0.1497203

tfeb.8.bias f4 [15]
0	0x3e3638b0	0.17795062
1	0xbe3afc4c	-0.18260306
2	0x3ce5d55d	0.028055841
3	0x3c806852	0.015674744
4	0x3d81a97f	0.06331157
5	0xbe25b9fd	-0.1618423
6	0xbd98f669	-0.07468874
7	0x3ca9f750	0.02074781
8	0xbdb2bebd	-0.08727787
9	0xbe10a865	-0.14126737
10	0x3ccb8f0c	0.024848484
11	0xbdcaf9b2	-0.09910907
12	0xbcfe5749	-0.03104748
13	0xbd0a3e63	-0.033750903
14	0x3d3eb3b5	0.0465581

tfeb.8.running_mean f4 [15]
0	0xbccddaf7	-0.025128825
1	0x3ce3fb1a	0.027829695
2	0xbd24dc4b	-0.04024915
3	0x3c2890bf	0.010288416
4	0xbc0abb2e	-0.008467479
5	0xbd144d95	-0.0362068
6	0xbd1e7389	-0.0386844
7	0xbc6b566e	-0.014363868
8	0xbcdd3406	-0.027002346
9	0xbc6a8d8c	-0.014315974
10	0xbc20b077	-0.0098076975
11	0xbc5f3d1c	-0.013625409
12	0x3cd32ba6	0.02577765
13	0xbcf219e1	-0.029553356
14	0xbcff59e5	-0.031170795

tfeb.8.running_var f4 [15]
0	0x3aa94817	0.0012915161
1	0x3a062caf	0.0005118353
2	0x3a155301	0.00056962675
3	0x39922c88	0.00027880468
4	0x3a454812	0.0007525693
5	0x39ebbb43	0.00044962214
6	0x3a4892e9	0.0007651286
7	0x3930dc68	0.00016866776
8	0x3a0aefdb	0.00053000235
9	0x39b0e7f4	0.00033742154
10	0x3991a5e9	0.00027780168
11	0x39a5b425	0.0003160547
12	0x3a11b493	0.00055582187
13	0x3a59aebb	0.000830393
14	0x39c75955	0.00038022795

tfeb.11.weight f4 [22, 15, 3, 3]
0	0xbb128dc3	-0.0022362329
1	0xba7d2acc	-0.00096575613
2	0xbabf37b0	-0.001458874
3	0xb9b6a2b6	-0.00034834974
4	0x3a8300a5	0.0009994699
5	0xb85a3e2b	-5.203315e-05
6	0x3c06111c	0.00818279
7	0x3bf06166	0.0073358295
8	0x3b683825	0.0035433855
9	0x3a7a2a1c	0.0009543018
10	0xbaaad849	-0.0013034429
11	0xbaf78cb2	-0.0018886535
12	0x3bc55e91	0.006023236
13	0x3adda135	0.0016909005
14	0xbb038c8c	-0.0020072786
15	0x3c159206	0.009129053
16	0x3b1dfd3e	0.0024107243
17	0xbb9fe2ba	-0.004879323
18	0xbaea287b	-0.0017864847
19	0xbc9c42ae	-0.019074764
20	0xbd136581	-0.035985474
21	0x3b40089a	0.0029302002
22	0xba90d36e	-0.0011049339
23	0xbce0a7eb	-0.02742382
24	0x3bae13cd	0.005312419
25	0xba455186	-0.00075271016
26	0xbb7f62c3	-0.0038968779
27	0xba9a89fb	-0.0011790389
28	0xb9354ef1	-0.00017290913
29	0x3a4032d0	0.00073317904
30	0xbae02783	-0.0017101619
31	0xba977f91	-0.0011558403
32	0x3a121c3a	0.0005573664
33	0x3c82ead5	0.015981117
34	0xbae3b606	-0.0017372973
35	0x38237c69	3.8978094e-05
36	0xbb2ffaad	-0.0026852295
37	0xbcd76f0f	-0.026298074
38	0xbb46f229	-0.003035674
39	0xbc89e8de	-0.016834673
40	0xbcf72ce8	-0.03017278
41	0x3a4e5ffb	0.00078725786
42	0xbc8c7a7b	-0.017148247
43	0x3a4192ca	0.0007384239
44	0xbaa88b4e	-0.0012858899
45	0x3c9b411a	0.018951941
46	0x3cba55b5	0.022745946
47	0xbba43eda	-0.0050123753
48	0x3cb7bde7	0.02242942
49	0xba8cd636	-0.0010744992
50	0xbcc78ba1	-0.024358572
51	0x3b2e5f49	0.0026607087
52	0xb9e0b5df	-0.00042860114
53	0xbac245c3	-0.0014821816
54	0x3aa87d11	0.0012854656
55	0x3ac338bb	0.0014894226
56	0x3c99556e	0.018717494
57	0xbcd2f8c7	-0.025753392
58	0xbcf541f3	-0.029938674
59	0xb7f2a08d	-2.892341e-05
60	0xbcf0eda9	-0.0294102
61	0xbcb4daeb	-0.022077044
62	0x3923a3fe	0.00015605983
63	0x39f2fcb3	0.00046346113
64	0x39e8d303	0.00044407704
65	0xba5f56bb	-0.0008519699
66	0xba861656	-0.0010230045
67	0xba4727e5	-0.00075971923
68	0xba6a78cd	-0.00089443923
69	0xbab8869e	-0.0014078205
70	0xbad915ad	-0.0016562246
71	0x3c809cd9	0.01569979
72	0x3b3972e2	0.0028297235
73	0xbbd981d0	-0.0066377893
74	0xbcbe0b27	-0.023198677
75	0x3c3a3b79	0.011366718
76	0x3a656489	0.00087506376
77	0xbb4aaee4	-0.0030926997
78	0x3c5ce13f	0.013481437
79	0x3bbdef56	0.0057963533
80	0xb9891e9d	-0.00026153485
81	0x3cc01fec	0.023452722
82	0xbb83bb49	-0.004020129
83	0xbca3ccfe	-0.019995209
84	0x3d25b1e3	0.04045285
85	0xb9cb11b5	-0.0003873237
86	0xbc97741b	-0.01848798
87	0x3ce28b0c	0.027654193
88	0x39a7eca1	0.00032029024
89	0x3945255b	0.000188013
90	0xbb28b0e6	-0.0025740205
91	0xbb0f8fdd	-0.0021905818
92	0xbb4a8277	-0.0030900517
93	0xbaf0e2ff	-0.0018378197
94	0xbad14906	-0.0015967197
95	0xbb04373d	-0.0020174526
96	0xb9dfdf9b	-0.00042700474
97	0xba27c3e7	-0.0006399736
98	0xbab6c89d	-0.0013945285
99	0xbb0653e1	-0.0020496773
100	0xbc95e45e	-0.01829737
101	0xbcbda560	-0.023150146
102	0x3a7d9697	0.0009673624
103	0xbc92fac1	-0.017941834
104	0xbcfbdc0c	-0.030744575
105	0x38efb4d3	0.00011430089
106	0xbad651eb	-0.0016351318
107	0xbad85662	-0.0016505236
108	0xbb6ac605	-0.0035823595
109	0xbb0579af	-0.0020366719
110	0xba23c078	-0.00062466366
111	0xbaee2cbc	-0.0018171291
112	0xbc88be46	-0.016692292
113	0xbc983b75	-0.018583039
114	0xbac83d59	-0.0015277072
115	0xba5156de	-0.00079856615
116	0xbb14eb76	-0.0022723353
117	0xbb439ab2	-0.0029846844
118	0xbcde4eae	-0.027137127
119	0x3caccef1	0.021094771
120	0xbcab516d	-0.02091285
121	0xbd332779	-0.043738816
122	0xbac96187	-0.0015364148
123	0x38ebf4b6	0.00011251254
124	0x3a34cf8c	0.0006897382
125	0x38b27419	8.509326e-05
126	0xbb58a46a	-0.0033056983
127	0xbb1e7312	-0.0024177474
128	0x3c59f550	0.013303116
129	0xbb40374b	-0.0029329832
130	0xbb4075c7	-0.0029367076
131	0x3c70cdf2	0.014697539
132	0xbb9077d9	-0.004408818
133	0x3c8017a5	0.015636275
134	0x3c675c1a	0.01412108
135	0xbaf6de42	-0.0018834549
136	0xbc05f0f2	-0.008175122
137	0xbd3d95a5	-0.04628529
138	0x3d522146	0.051301263
139	0x3cdf232d	0.027238453
140	0xbcd5621c	-0.026047759
141	0x3bff8ce2	0.007798777
142	0x3a12e9d1	0.00056042994
143	0xbce182da	-0.027528215
144	0xbc6f129c	-0.014591839
145	0xbca1248e	-0.019670751
146	0x3aeffa7d	0.0018308904
147	0xbc983e5c	-0.018584423
148	0xbce66dfc	-0.028128617
149	0xbca450b2	-0.02005801
150	0x38a583fd	7.892398e-05
151	0xbc86cd94	-0.01645545
152	0x3b2929c6	0.0025812252
153	0xbcad850d	-0.021181608
154	0xbd0566c6	-0.032568716
155	0xbd043147	-0.032273557
156	0xbc67202b	-0.014106791
157	0xbcf3b7b3	-0.02975068
158	0xbced1f9d	-0.028945738
159	0x3b02d1ed	0.0019961551
160	0x3a5b9537	0.0008376422
161	0xbb96e0db	-0.0046044416
162	0xba730a74	-0.0009271272
163	0xbbac302f	-0.0052547674
164	0xbb860a9c	-0.00409062
165	0x3c0e471b	0.008683945
166	0x3b072735	0.0020622734
167	0x3a26ce73	0.0006363161
168	0x3ba24d88	0.00495309
169	0x39951911	0.0002843817
170	0xba325b84	-0.0006803798
171	0x3bbd10a3	0.0057698055
172	0xbc4c2dcb	-0.01246209
173	0x3a2e31d3	0.00066449976
174	0x3cd0cea7	0.025489165
175	0x3ca866cc	0.02055683
176	0xbb4ca21b	-0.0031224552
177	0x3c8ed610	0.017436057
178	0x3c629632	0.013829755
179	0xbc72cb37	-0.014818958
180	0xbcd3cc30	-0.0258542
181	0xbce6040b	-0.0280781
182	0x3ac46253	0.0014982916
183	0xbcbea15e	-0.023270305
184	0xba439f1e	-0.000746237
185	0xba2ec575	-0.00066669966
186	0xbce70949	-0.02820267
187	0xbc88e535	-0.016710857
188	0x3b139769	0.0022520667
189	0x3a7a94c5	0.00095589116
190	0xbcde2080	-0.027115107
191	0x39407f14	0.00018357887
192	0xbaa41dd4	-0.0012521097
193	0xba49c8f0	-0.00076974835
194	0xbc763844	-0.015028063
195	0x3b80feaa	0.0039366083
196	0x3b24c203	0.0025140054
197	0x3b2ec207	0.0026665942
198	0x3b0e7507	0.0021737234
199	0x3b140522	0.0022586067
200	0x3b55ec0a	0.003264191
201	0xbafb4083	-0.0019169006
202	0xbacce6c5	-0.001563274
203	0x386c1c21	5.629298e-05
204	0x3b484ccc	0.0030563353
205	0x3b5301b6	0.0032197065
206	0x3b8d2500	0.0043073893
207	0xbc65c650	-0.014024332
208	0x3b46f9eb	0.0030361365
209	0x3b5579f8	0.003257392
210	0x3c90ba89	0.017667072
211	0xbb295cb0	-0.00258426
212	0xbb616a93	-0.0034395799
213	0xba9f8bc6	-0.0012172393
214	0xb959e11c	-0.00020778592
215	0x3af080b5	0.0018348905
216	0xbc88dc07	-0.01670648
217	0x3b4ec5ed	0.0031551078
218	0x3bbadd09	0.005702619
219	0xbb4ec1be	-0.0031548585
220	0xba8d78ad	-0.001079341
221	0x3acad171	0.0015473795
222	0xbb6c03f3	-0.0036013096
223	0xba9702d3	-0.0011521227
224	0xbcba3b3c	-0.022733323
225	0x3b98ab52	0.004659095
226	0x3bbcdccc	0.0057636257
227	0x3bc3b884	0.0059729237
228	0xbc81e1d0	-0.015854746
229	0xbc83bc2d	-0.01608094
230	0xbca415fb	-0.020030012
231	0x3b4f8bb6	0.0031668968
232	0xbc53168a	-0.012883792
233	0xbcb2b0b0	-0.021812767
234	0xbb38d287	-0.0028201656
235	0xbb4af80c	-0.0030970601
236	0xbb42e3c5	-0.0029737812
237	0xba67f81e	-0.0008848923
238	0xba7e0c73	-0.0009691186
239	0xba98ba9c	-0.0011652294
240	0xba89443e	-0.0010472608
241	0x39f88ec4	0.00047408615
242	0x3a50ba1b	0.0007962302
243	0x3d154d58	0.036450714
244	0x3ce1e523	0.027575081
245	0x3ba5710b	0.005048876
246	0x3c0ef63d	0.0087257
247	0xbc867c26	-0.01641662
248	0xbc8c702e	-0.017143335
249	0x3c0a3023	0.008434328
250	0x3ba5a5aa	0.005055149
251	0x3bc5a7d7	0.006031971
252	0x3d1426b9	0.03616974
253	0x3cb2622f	0.021775333
254	0x3ca0455e	0.019564327
255	0xb9f63dd2	-0.00046966836

tfeb.12.weight f4 [22]
0	0x3e676ae1	0.22599365
1	0x3e30507b	0.17218201
2	0x3e5f18a3	0.21786742
3	0x3e50c785	0.2038861
4	0x3e65e961	0.22452308
5	0x3e410be9	0.188522
6	0x3e203ac7	0.15647422
7	0x3e8a7f6f	0.2705035
8	0x3e362743	0.17788415
9	0x3df0d901	0.1176014
10	0x3e3d69e2	0.18497422
11	0x3e38bdf6	0.18041214
12	0x3e15d8d4	0.14633495
13	0x3e072554	0.13197833
14	0x3e13e170	0.14441466
15	0x3e28e6f3	0.1649435
16	0x3e068b70	0.13139129
17	0x3e851424	0.2599193
18	0x3e36d44d	0.17854424
19	0x3e4a0bf2	0.1973112
20	0x3e2add87	0.16686068
21	0x3e1ed093	0.15509252

tfeb.12.bias f4 [22]
0	0xbe1e4710	-0.15456796
1	0x3b556211	0.0032559673
2	0xbceb8eeb	-0.028754672
3	0xbd261123	-0.040543687
4	0xbddb24df	-0.10700392
5	0xbd0f2631	-0.03494853
6	0x3bce1fba	0.006290403
7	0xbde1d718	-0.11027354
8	0xbe128d2f	-0.1431167
9	0xbc2ac366	-0.010422563
10	0xbd5dd5e9	-0.05415908
11	0xbdab0e80	-0.08352375
12	0xbd46c478	-0.04852721
13	0x3d92a90c	0.071611494
14	0xbdda6332	-0.10663451
15	0xbd8e62d4	-0.06952444
16	0x3cd65223	0.026162213
17	0xbd8173a5	-0.063208856
18	0xbe0c6e43	-0.13713937
19	0xbd45d2c3	-0.0482967
20	0xbddd8def	-0.10818087
21	0xbd2106ef	-0.039313253

tfeb.12.running_mean f4 [22]
0	0xbcb239e0	-0.021756113
1	0xbcde8047	-0.027160777
2	0xbd1f12f1	-0.038836423
3	0x3a52a257	0.0008035055
4	0x3c1abe51	0.009444789
5	0xbcb8f20b	-0.022576353
6	0xbd0dab1e	-0.03458702
7	0xbd8c9c62	-0.06865765
8	0xbc75e061	-0.015007109
9	0x3d543186	0.05180504
10	0xbd0033a5	-0.031299252
11	0x3d08ce5f	0.033399936
12	0x3cb068d4	0.021534361
13	0xbcf52b3a	-0.029927839
14	0xbc192dc5	-0.009349291
15	0xbc776b91	-0.015101329
16	0x3d7dd9ac	0.061975166
17	0xbcec1c4e	-0.02882209
18	0xbcfe1edc	-0.031020574
19	0xbd93bf15	-0.072141804
20	0x3b7f14db	0.0038922343
21	0x3c836c62	0.016042892

tfeb.12.running_var f4 [22]
0	0x3a1da61f	0.00060138287
1	0x3ab7d26a	0.00140245
2	0x3ad2bb1d	0.0016077493
3	0x3ab9a530	0.001416361
4	0x3a1da965	0.00060143165
5	0x3a4bf0be	0.0007779709
6	0x3b0237c7	0.0019869672
7	0x3b16e195	0.002302264
8	0x39e738aa	0.0004410197
9	0x3b297b2a	0.0025860765
10	0x3a7681a5	0.0009403474
11	0x3ab71d86	0.0013970591
12	0x3a43b694	0.0007465866
13	0x3b07af52	0.0020703864
14	0x3a6fe861	0.00091517536
15	0x3a05f6bd	0.0005110314
16	0x3b27e277	0.0025617161
17	0x3b4033a2	0.002932765
18	0x3b018e74	0.0019768747
19	0x3b99253b	0.0046736277
20	0x3aeb91f2	0.0017972572
21	0x39b3f5b8	0.00034324615

tfeb.14.weight f4 [27, 22, 3, 3]
0	0xbac29c9d	-0.00148477
1	0xbb0a7d56	-0.0021131835
2	0xba29c710	-0.0006476501
3	0xba95bff7	-0.0011425008
4	0xb98e8088	-0.00027180114
5	0x3a2f28ec	0.0006681818
6	0xba0f08df	-0.0005456339
7	0xb9b4336c	-0.00034370588
8	0xb9211c62	-0.0001536473
9	0xbb17b1ea	-0.0023146817
10	0xbb78f7e7	-0.0037989558
11	0xbc9bc1e3	-0.01901335
12	0xba96f708	-0.0011517713
13	0xbb0699ca	-0.0020538443
14	0xbc906eba	-0.017630924
15	0xbb27b231	-0.0025588388
16	0xbb86884d	-0.004105604
17	0xbbb12b2b	-0.0054067574
18	0xbb80ea1d	-0.0039341585
19	0xbc1a580d	-0.009420407
20	0x3ba5749b	0.005049301
21	0x3d17d089	0.03706411
22	0x3d181b9e	0.037135713
23	0x3c2cfa52	0.010557728
24	0xba99e85f	-0.0011742226
25	0xbbe2f695	-0.0069263675
26	0xbacf9ced	-0.0015839614
27	0x3902e920	0.00012484612
28	0xbaeb35e1	-0.0017945134
29	0xbc98bea5	-0.018645594
30	0x3c93f262	0.018059913
31	0x3c9b632c	0.018968187
32	0x3c4bf35d	0.012448159
33	0xbb1f6f1d	-0.0024327703
34	0xbb3f0bba	-0.0029151277
35	0xbbc6a73c	-0.0060624164
36	0x3c063bdb	0.008192982
37	0x3c0a78b9	0.008451634
38	0xbbfebd0a	-0.007774
39	0x3c89f2b4	0.016839363
40	0x3a4d3d73	0.0007829286
41	0xb8e33df0	-0.0001083574
42	0xba9673aa	-0.0011478562
43	0x3aad36e3	0.001321521
44	0xb8895ce3	-6.5499706e-05
45	0xbb860c91	-0.0040908535
46	0xbab6c2a8	-0.001394351
47	0xbb321787	-0.0027174668
48	0xba72e45f	-0.00092655973
49	0x3a01f993	0.0004958149
50	0x39edc97d	0.00045354283
51	0xbab41da9	-0.001374175
52	0x395bc13f	0.00020957457
53	0xb926106c	-0.00015837111
54	0xbbcadc44	-0.0061908085
55	0xbbc04602	-0.0058677206
56	0xbbaaeb13	-0.0052160113
57	0xbb79ae95	-0.0038098444
58	0xbb5c271d	-0.003359265
59	0xbb1c7b92	-0.0023877365
60	0xbb7783b2	-0.0037767706
61	0xbbec1aed	-0.0072053582
62	0xbbcc9499	-0.0062433
63	0xbbf4d014	-0.007471094
64	0xbb9a5510	-0.0047098473
65	0xbbc10284	-0.0058901925
66	0xbb523a8b	-0.0032078351
67	0xbc8e0c83	-0.01733995
68	0xbc9d38e7	-0.019192172
69	0xbb28e192	-0.0025769216
70	0x3ac2579e	0.0014827137
71	0x3ab60238	0.0013886159
72	0xbb16a264	-0.0022984976
73	0x3ca3295e	0.019917186
74	0xb8807bcf	-6.126577e-05
75	0xb9f9111d	-0.0004750573
76	0xb9944eb5	-0.000282874
77	0x3a613037	0.00085902534
78	0x3a78d25a	0.0009491794
79	0x3aa96dc2	0.0012926387
80	0x3b5c39e3	0.003360384
81	0x3c963d05	0.018339643
82	0x3cb66c43	0.02226842
83	0xbabee295	-0.0014563376
84	0xb916bf64	-0.00014376413
85	0xbb2b610a	-0.002615037
86	0xbb768c36	-0.0037620193
87	0xbabf78a7	-0.0014608101
88	0xbaea6224	-0.0017882031
89	0xbaf9a6f5	-0.001904695
90	0xbbb638c3	-0.0055609657
91	0xbabfa1a9	-0.0014620322
92	0xbaa1bd84	-0.0012339805
93	0xbb971ee2	-0.004611836
94	0xbb4aa6a0	-0.003092207
95	0xbb00e490	-0.0019667484
96	0xbbbc19a4	-0.0057403613
97	0xbb5e3fa0	-0.0033912435
98	0xbb89a8cc	-0.0042010304
99	0x3a3dfe3f	0.00072476635
100	0xbaac3845	-0.0013139328
101	0xbb40ea0b	-0.0029436375
102	0x3b91f304	0.0044540185
103	0xbab7185f	-0.0013969055
104	0xbb938912	-0.004502424
105	0x3af33e7d	0.0018558052
106	0xbce22f3a	-0.02761041
107	0xbb260acc	-0.0025336025
108	0x3cae81c0	0.021302104
109	0x3cb333f0	0.021875352
110	0xbb3bdd38	-0.0028665792
111	0xbb8a2e82	-0.00421697
112	0xbb32f679	-0.0027307554
113	0xbbcda5d7	-0.006275873
114	0xbc8d5897	-0.017254157
115	0xbacd40b2	-0.001565954
116	0xbcb1ec61	-0.02171916
117	0x3baa5bd8	0.005198937
118	0xbc5396e3	-0.012914392
119	0xbcbc6c93	-0.023000991
120	0x3af50042	0.0018692093
121	0xbc9903d4	-0.018678583
122	0xbc579c92	-0.013159888
123	0x3af893b5	0.0018964919
124	0xb9a70169	-0.00031853773
125	0xb9b0c768	-0.00033717905
126	0x3cfeae83	0.031089073
127	0x3c6b6c60	0.0143691
128	0x3cde5765	0.027141282
129	0x3b0fb17e	0.0021925862
130	0x3a6ab530	0.00089533906
131	0x3b2ab11c	0.0026045507
132	0xbbc5732e	-0.0060256934
133	0xbbabc186	-0.0052415757
134	0xbb988c39	-0.0046553877
135	0x3b7828a0	0.0037866011
136	0x3cb64c48	0.02225317
137	0x3ca56f1d	0.020194585
138	0xba698237	-0.0008907648
139	0xbaa49c1d	-0.0012558732
140	0xba9774c8	-0.0011555189
141	0x3a667b7b	0.0008792204
142	0x3aa33f5a	0.0012454793
143	0x3af831ff	0.0018935798
144	0x3ba87926	0.005141395
145	0x3b61c2c3	0.0034448362
146	0x3ac116d3	0.0014731534
147	0x3bc086de	0.0058754524
148	0x3a996209	0.001170219
149	0xbab016dd	-0.0013434548
150	0xbc7fbc16	-0.015608808
151	0xbcb2735b	-0.021783521
152	0xbb7c311e	-0.0038481425
153	0xb92fb74d	-0.00016757585
154	0x39fd4731	0.00048308962
155	0xbca1defd	-0.01975965
156	0x3bcd4b1a	0.0062650563
157	0x3d04092c	0.03223531
158	0xb9f6375f	-0.0004696203
159	0x3afb23d5	0.0019160459
160	0xbb645c92	-0.0034845215
161	0xbb881c62	-0.004153774
162	0x38ebf8fb	0.000112520494
163	0x39c3c7fa	0.00037342292
164	0x3989cffe	0.00026285643
165	0xb79ded83	-1.8826458e-05
166	0xba130fa4	-0.00056099356
167	0x38436ede	4.6594876e-05
168	0x3cdd5bf1	0.02702138
169	0x3cbb40dd	0.022858078
170	0xba4675cf	-0.00075706554
171	0xbb0fc1e2	-0.0021935632
172	0xba9f59af	-0.0012157465
173	0xbadfe699	-0.0017082273
174	0xba334042	-0.0006837883
175	0xb91b8142	-0.00014830104
176	0xb921946e	-0.00015409451
177	0x39e4377b	0.00043528885
178	0x3a400ffa	0.00073265994
179	0x3a779a3a	0.0009445284
180	0x3b00fd4e	0.0019682231
181	0x3ad7efff	0.0016474723
182	0x3aec3456	0.0018020968
183	0x3ac63e64	0.0015124795
184	0x3abb4042	0.0014286118
185	0x3a94753d	0.0011326444
186	0x3b7c7490	0.0038521625
187	0x3b81fb08	0.003966693
188	0x3b7e9ef0	0.0038852058
189	0xbb9b0000	-0.0047302246
190	0xbbb2912d	-0.005449435
191	0xbbd07385	-0.0063614273
192	0xbac4dd78	-0.0015019616
193	0xbb4fa59b	-0.0031684402
194	0xbba560d1	-0.005046942
195	0xbb018466	-0.0019762754
196	0xbb96f529	-0.004606862
197	0xbba79033	-0.0051136254
198	0xba83fbef	-0.0010069589
199	0x3c8c243e	0.017107125
200	0x3cce2d93	0.025168216
201	0x3ab74ce4	0.0013984707
202	0x394ca051	0.00019514679
203	0x3a8d0f99	0.0010762095
204	0x3c8665df	0.016405998
205	0x3cc62085	0.024185428
206	0xba63e449	-0.000869338
207	0x3c9c5f7b	0.019088497
208	0x3cda6d06	0.026663315
209	0x3cd0633d	0.025437946
210	0xbd0711ef	-0.032976087
211	0xbcc6c2d1	-0.024262818
212	0xbcabeea8	-0.020987824
213	0xbba11eb3	-0.0049169897
214	0xbb09e334	-0.0021039965
215	0xbb4deeb1	-0.0031422789
216	0xbd1279f9	-0.035760853
217	0xbacbe622	-0.0015556256
218	0x3b10fa1b	0.002212173
219	0xbb172f5f	-0.0023069007
220	0x3cbc3b5d	0.022977525
221	0x3939a75b	0.0001770532
222	0x3c6b71a5	0.014370357
223	0x3c9b0e3d	0.018927688
224	0xbced1d8a	-0.02894475
225	0xbb732cbc	-0.0037105521
226	0xbaba74f3	-0.0014225527
227	0xbb207ed0	-0.0024489649
228	0xbb98ae41	-0.0046594446
229	0xba9220dc	-0.0011148709
230	0x395e2f84	0.00021189271
231	0xbba8cb35	-0.0051511773
232	0x3c877d31	0.016539188
233	0x3cc42e34	0.023947813
234	0x3b8d8bb7	0.004319634
235	0x3a5092ab	0.00079564255
236	0x3a033d91	0.00050064275
237	0x3a90bb76	0.0011042196
238	0xba88685f	-0.0010407082
239	0x39a8e5d6	0.00032214698
240	0xbcabba35	-0.020962814
241	0xbb903735	-0.0044011124
242	0xbb63bd46	-0.0034750267
243	0xb823d7b5	-3.906312e-05
244	0xbb431f79	-0.0029773398
245	0xba747f08	-0.00093267905
246	0xba873f87	-0.0010318615
247	0xbb216f99	-0.0024633168
248	0xbb15d885	-0.0022864651
249	0xba17bfcc	-0.0005788773
250	0xbb0998a5	-0.0020995524
251	0xbb630351	-0.0034639428
252	0x3b72a04e	0.0037021819
253	0x3b4bd185	0.0031100225
254	0x3c947cf7	0.018125994
255	0xbc9c7778	-0.019099936

tfeb.15.weight f4 [27]
0	0x3e22e1f8	0.15906513
1	0x3e1d5b9a	0.15366974
2	0x3e38d73f	0.1805086
3	0x3e3ce518	0.18446767
4	0x3e341509	0.1758615
5	0x3e6d2058	0.2315687
6	0x3e16933d	0.14704604
7	0x3e37f3ca	0.17964092
8	0x3e408038	0.18798912
9	0x3e13613f	0.14392565
10	0x3e1cc27b	0.15308563
11	0x3e1cd5ca	0.15315929
12	0x3e61ee97	0.22063671
13	0x3e6a7153	0.22894792
14	0x3e1a6127	0.15076123
15	0x3e1ec822	0.15506032
16	0x3e42c543	0.19020562
17	0x3e40f7fe	0.18844602
18	0x3e236acb	0.15958707
19	0x3e5b716b	0.21429984
20	0x3e1f812f	0.15576623
21	0x3e1f89d5	0.15579922
22	0x3e258327	0.16163312
23	0x3e36b4bd	0.17842384
24	0x3e65beba	0.22436038
25	0x3e58a5ba	0.2115697
26	0x3e3f7e26	0.18700466

tfeb.15.bias f4 [27]
0	0xbdbd4928	-0.09242469
1	0xbdd44505	-0.10364727
2	0xbe1458fc	-0.1448707
3	0xbda712b8	-0.08157867
4	0xbd2ec140	-0.042664766
5	0xbd8e3816	-0.06944291
6	0xbe021eaf	-0.12707017
7	0xbdce8fb8	-0.10086006
8	0xbdbe046f	-0.092781894
9	0x3bc68f55	0.006059567
10	0xbdd2e8b2	-0.10298289
11	0xbc36b6c8	-0.011151977
12	0xbdfdbb14	-0.12389198
13	0xbd35ab09	-0.044352565
14	0xbde78e01	-0.11306382
15	0xbd265c15	-0.04061516
16	0xbd542515	-0.051793177
17	0xbe21506e	-0.15753338
18	0xbd0a69c4	-0.033792272
19	0xbdb3bbdd	-0.087760665
20	0xbe041d46	-0.12901792
21	0xbdfc7b80	-0.12328243
22	0xbd76b12e	-0.060227565
23	0xbd865da7	-0.065608315
24	0xbe3055cc	-0.17220229
25	0xbe369a90	-0.17832398
26	0xbe3bae65	-0.18328245

tfeb.15.running_mean f4 [27]
0	0xbc16d93b	-0.009207065
1	0x3b91034e	0.004425443
2	0xbc834bbd	-0.016027326
3	0xbb3f09be	-0.0029150094
4	0xbbca0b63	-0.006165908
5	0x3c74b439	0.014935547
6	0xbc339deb	-0.010962944
7	0x3b81a60c	0.003956562
8	0xbcb4a5bf	-0.02205169
9	0xbb81267a	-0.0039413543
10	0xbbcb5432	-0.006205105
11	0x3adf9f63	0.0017061051
12	0xbc8343db	-0.016023567
13	0x3b00069c	0.001953519
14	0xbc8507a8	-0.016239002
15	0x3b1f53c6	0.0024311407
16	0x3a29649a	0.0006461829
17	0xbc8ed693	-0.017436301
18	0x3c9b35db	0.018946579
19	0xbcd9f639	-0.026606666
20	0xbc883951	-0.016628893
21	0xbc453d8b	-0.012038599
22	0xbc51a264	-0.012795065
23	0xbb9f4315	-0.0048602917
24	0xbbf5645a	-0.0074887695
25	0x3cb978b5	0.022640565
26	0xbae69af6	-0.0017593789
