refine_codes/retrained_models_after_second_stage_pruning/bak/retrained_acdnet_after_tylor_pruning_model_from_acc_97.7_0.85compress_20240207092932_acc_92.04545593261719_30th_epoch.pt (torch, 335484 bytes, 62 tensors)

sfeb.0.weight f4 [7, 1, 1, 9]
00000000: dfb9 1ebd 88d2 843d 18de 3e3e f3fa 8dbe
00000010: a594 fa3d 9c27 57bf 3ee3 b5be 8ba4 d83e
00000020: 099d 2e3f 6620 273e b1c3 d23c f2a4 ef3b
00000030: 31aa 7cbe bafb 27bd 2a03 64be 6179 293e
00000040: 04f5 cf3c 62b5 d4be 6e14 233f 3ad2 b3bd
00000050: f687 08bd 9bf1 82be 0e0b 863d 0377 18be
00000060: 5496 063e 4f7c 0b3f 752e b3be a4f6 fabe
00000070: fed7 0cbf 9ec1 ea3c b556 123f b5bf b63d
00000080: c197 943e 24d7 81be 160f 833c 7f04 9e3d
00000090: 010a 65bb aebb a83d 9c49 30be abb3 b23d
000000a0: 589b 9a3c a5a4 903e e0cd 3f3f 0438 0bbf
000000b0: 2b9e edbe a0ac fc3d f72b ee3d 67c5 7ebe
000000c0: 7c6b c03e 2389 56bf 8e9f 373f 68fc 043e
000000d0: eb57 75bf 1b76 013f b2d2 18be 14b8 52be
000000e0: a121 14bd 28c3 5b3e f360 993d 4833 803d
000000f0: 7cd0 89be a70d c13d e8aa 133f
-0.03875148 0.06485468 0.1863941 -0.27730522 0.12235383 -0.84044814 -0.35524935 0.42313036
0.68208367 0.16320953 0.025728079 0.007313364 -0.24674298 -0.04101155 -0.22266832 0.16550209
0.025385387 -0.41544634 0.6370305 -0.08780332 -0.033332787 -0.25574955 0.06545077 -0.1488915
0.13143283 0.54486555 -0.3499638 -0.49016297 -0.5501708 0.028656777 0.57163554 0.08923284
0.2902203 -0.25359452 0.015998404 0.07715701 -0.003494859 0.08238922 -0.1721558 0.08725675
0.018872902 0.28250614 0.74923515 -0.5438235 -0.46409735 0.12337613 0.116294794 -0.2487999
0.37582004 -0.83803004 0.71727836 0.1298691 -0.9583728 0.5057084 -0.14924124 -0.20578033
-0.036164884 0.21461165 0.07489195 0.06259781 -0.26916873 0.09426432 0.5768266

sfeb.1.weight f4 [7]
00000000: 3306 633f 83ae 013f d951 fb3e 644c 253f
00000010: a5a0 283f f1bd 0b3f a484 ff3e
0.88681334 0.5065691 0.49085882 0.6456969 0.65870124 0.545867 0.49905884

sfeb.1.bias f4 [7]
00000000: 8edb c73d 542a 1c3d 9b48 093f 7cda 053f
00000010: cf29 343e 0426 1a3f 7ef6 a43d
0.097586736 0.038126305 0.5362641 0.52286506 0.17594074 0.6021426 0.08054827

sfeb.1.running_mean f4 [7]
00000000: 5cfd 29b8 c82a 3aba 9520 2e3a c45a 9ab9
00000010: 4b9f 4638 6e64 d6b8 2bc3 fa39
-4.05287e-05 -0.0007101712 0.00066424283 -0.00029440795 4.735523e-05 -0.00010223022 0.00047829127

sfeb.1.running_var f4 [7]
00000000: c082 4e3d 2527 253c 0232 9d3c 76b9 1e3d
00000010: 77e2 e23c 8a9d 0b3c 716b 763c
0.05041766 0.010080134 0.019188885 0.038751088 0.027695877 0.008521447 0.015040264

sfeb.3.weight f4 [32, 7, 1, 5]
00000000: a0e4 bfbc 0c0b f8bc 44d7 70bc fa24 2dbd
00000010: 619d 003c 89be ef3c 5a43 8e3d 3908 d73d
00000020: 965b 443e 3dae 133e a2ee 86bd 84fd 34bd
00000030: e2f0 44bd 89ec 923b 9831 a8bb d3bd 1b3d
00000040: 2c48 953d 4d62 393d 4cf1 74bd a8a3 033c
00000050: 8186 263c f0eb f2bb e5da adba 844c 1d3d
00000060: 74a2 d3bc d7b9 52bd 5397 d0bc 06d4 153b
00000070: 763a ceba cd83 96bc d180 30bd a7b8 8c3b
00000080: 588b a139 df2e ba3c 245b 303d 850a cd3b
00000090: 97a1 ebbc fea7 3638 45d7 5aba af41 0f3d
000000a0: 6d58 243e 74e9 573e b82c 333e 54f6 6a3e
000000b0: c11c 533e 12c7 10be 682f aebd 5520 3bbd
000000c0: bb27 d1bd d0bc aabd 0663 d53d 61f2 2d3e
000000d0: 2f8a 133e af19 173e e385 0d3e f659 e4bc
000000e0: 4430 8f3c fe3c 363d aafc d63c 3b57 e9bc
000000f0: 3f0d d03b 6cb5 c43b e171 a5bb eea9 a3bb
00000100: 3f9c ed3b a523 3bbe ed25 53be 5b0d efbd
00000110: 3d64 a5bd cd04 11be 25a2 22be c47b 9bbd
00000120: 9cc1 7bbd 6f7c a6bd b836 9abd 7b97 debe
00000130: eec9 a3be e2d3 57be a21f 24be 4ff6 0abe
00000140: f768 833e 12ff 3f3e 86ce 183e ef1e ce3d
00000150: ec84 983d d04c 0dbe 655e 5fbe 2645 a8bd
00000160: 3439 13be 0546 c8bd ac5c e73c f94c 2539
00000170: 9432 573b f543 0bbd 87d6 fabc 41d5 47bc
00000180: 2aee 043c a5e1 e6bb c149 55bc 832a 46bc
00000190: c7cd 3b3e 52e2 6b3e 3891 4c3e 2052 803e
000001a0: b55b 8b3e 7171 49bd cc0f 5bbb b242 1ebd
000001b0: 1c39 0abe d8dc 69bd a5a4 cd3c cb49 aa3d
000001c0: 3d45 813d ca97 b03d 5796 b53d 8622 2b3e
000001d0: 6aba 043e 5b1a 1d3d e164 d6bb 027c 8abb
000001e0: 91fd babc fb89 37bb 0bc8 54bd a51c f9ba
000001f0: 75b8 6abb edd8 1bbd 43f9 c0ba bf8c 6a38
00000200: 9f7d 80bb 487d 31bd dced ad3c 3c96 943c
00000210: 14e4 2fbb 928a 1dbd ab98 fe3b b403 58bb
00000220: 463d 80bb 7339 38bd 094c 9abc e83b 63bb
00000230: 701e 17be 2f7e 19be 6e53 47bd 2df7 a5bd
00000240: e7fa 57be 3300 f8bd c0ec acbd 641c d1bd
00000250: 3c3a c53c 75a4 e93d 4ba4 6d3e 21ed da3d
00000260: f5d2 ae3d 31e8 483d 57dc 233b 852c 1fbe
00000270: f053 d8bd 631d e8bd 9714 9fbc 6751 c4bd
00000280: ff52 b03c 2f8d 1f3d 63ec 3b3d 96bf e33d
00000290: 59f0 1d3e 6005 283c b93e 813c 77ab 8ebb
000002a0: 2654 95bd 7e57 89bd 6929 69bd 45a3 22be
000002b0: 5586 76be 4970 23be 63bd cbbd 97e7 183d
000002c0: 53f9 8abd 7175 463b 9f38 a93d fdf0 ff3b
000002d0: 09ec d6bd 6767 ac3a 92d4 babd 05f5 04bd
000002e0: f0ab b63d a606 56be d6a1 24bd 4db4 f0bd
000002f0: ba43 46bd cfb7 be3b 4934 853e 4296 1c3e
00000300: 3264 873d dbbe e2bc 2ef8 27bd cf10 3e3b
00000310: 776a fdbd 6c76 d2bd 5933 d8bd 8b67 1bbe
00000320: 8e8f 90bd 8e31 7fbd 875b e4bb 9f3b 55bc
00000330: dfdd cc3c 1d09 f5bc 753b e23d 1f86 043d
00000340: 3600 563e 6899 893e 7e4c fdbd cca1 10be
00000350: 518e fcbd c5ab f3bd c21a e3bd 4883 f9bd
00000360: b886 5a3c b2b8 0c3e d218 473e 4aa6 3f3e
00000370: 36ec e53d 4fc9 8a3d b558 dd3d 418e f1bc
00000380: ba1f afbd 8a8a dcbd c47f 34be c149 0abe
00000390: 5b0e d3bd 334c b3bd 8dcc 773d bc0d ce3d
000003a0: 2c79 8c3d 08b7 4b3d acd6 aebd c4ca 74bc
000003b0: ec9c 9bbc 9b78 b53b fef5 28bc d32f 6cbc
000003c0: 03c7 013c 52cc 7abd 477c b4bd d988 b8bd
000003d0: f149 debd 11d2 843d 0b31 593d 618a 283d
000003e0: da97 1c3d 0100 40bd 8150 ed3c 314f 0ebd
000003f0: b5eb fcbd ee85 d7bd 6a75 bbbd 686a d1bd
-0.023424447 -0.030278705 -0.014699761 -0.04227159 0.007850022 0.029265659 0.0694644 0.10499615
0.19175562 0.14421935 -0.06588484 -0.044187084 -0.048081286 0.0044837636 -0.005132865 0.038022827
0.07289156 0.045259763 -0.05980043 0.008034624 0.010163904 -0.00741338 -0.0013264088 0.03840305
-0.0258343 -0.051446762 -0.025462782 0.0022861972 -0.0015733975 -0.018373394 -0.0430916 0.004294473
0.00030812132 0.022727428 0.04305567 0.0062573575 -0.028763575 4.3548636e-05 -0.00083481177 0.03497475
0.16049357 0.21085149 0.17497528 0.22945529 0.20616437 -0.1413844 -0.08505136 -0.04568513
-0.10212656 -0.083367944 0.10419278 0.16986991 0.14408182 0.14755891 0.13820605 -0.027874928
0.01747907 0.04449176 0.026243526 -0.028483978 0.0063492353 0.0060030725 -0.005048976 -0.0049946224
0.007251292 -0.18275316 -0.20619936 -0.11672469 -0.080757596 -0.14161988 -0.15882166 -0.07591966
-0.061463937 -0.081292026 -0.07529968 -0.43474945 -0.31989998 -0.2107692 -0.16027692 -0.13570522
0.2566602 0.18749645 0.14922532 0.10064494 0.07447228 -0.13798833 -0.21813352 -0.08216314
-0.1437729 -0.0977898 0.028242432 0.00015764301 0.0032836543 -0.034000356 -0.030619873 -0.01219684
0.008113423 -0.007045942 -0.013018073 -0.0120950965 0.18340217 0.23035553 0.19977272 0.25062656
0.27218404 -0.04918045 -0.0033426164 -0.038637824 -0.13498348 -0.05709538 0.025102923 0.08314856
0.06312034 0.086227015 0.08866566 0.16712388 0.12961736 0.038355213 -0.0065427874 -0.0042262087
-0.022825988 -0.0028005827 -0.05194859 -0.0019005729 -0.0035815511 -0.038048673 -0.0014722723 5.5921028e-05
-0.003921225 -0.043332368 0.021231584 0.018138044 -0.0026838826 -0.03846223 0.0077696643 -0.0032961192
-0.0039135544 -0.044976663 -0.018835085 -0.0034673158 -0.14757705 -0.14989541 -0.04866355 -0.08103786
-0.21091805 -0.12109413 -0.08443594 -0.10210493 0.02407562 0.11408321 0.23207204 0.1068976
0.085363306 0.04904956 0.002500316 -0.15544327 -0.10562885 -0.1133373 -0.019418998 -0.09585839
0.02152395 0.038953003 0.045879733 0.111205265 0.15423717 0.010255188 0.015776979 -0.0043539363
-0.07291441 -0.06706141 -0.056924257 -0.15882595 -0.24074681 -0.15960802 -0.09948232 0.037330236
-0.06785836 0.0030282403 0.08262753 0.0078107105 -0.10494239 0.0013153375 -0.09122576 -0.03246023
0.08919513 -0.20900974 -0.0401934 -0.1175314 -0.048404433 0.0058202515 0.26016453 0.15291694
0.066109076 -0.027678898 -0.041008167 0.0029001718 -0.12373822 -0.102764934 -0.10556669 -0.15176217
-0.07058631 -0.06230312 -0.0069689187 -0.013014703 0.02500814 -0.029911572 0.11046497 0.03235447
0.20898518 0.26874852 -0.12368105 -0.1412422 -0.12331832 -0.11897997 -0.11089088 -0.12183243
0.0133377835 0.1374233 0.19443062 0.18715778 0.11226694 0.06776678 0.10807935 -0.029486777
-0.08550973 -0.10768612 -0.17626864 -0.13504697 -0.103054725 -0.08754768 0.06049781 0.100612134
0.06859049 0.0497351 -0.08537039 -0.014940921 -0.018995725 0.005538059 -0.010312555 -0.014415699
0.007920983 -0.06123001 -0.088127665 -0.090104766 -0.10853947 0.064853795 0.053025287 0.041147593
0.038230754 -0.046875004 0.028969051 -0.03474349 -0.12349645 -0.10523592 -0.09153254 -0.102253735

sfeb.4.weight f4 [32]
00000000: 7363 913e 1f54 eb3e 5f4a 763f a245 2a3e
00000010: a49f fa3e 9ecb 083f c9fc 193f f192 143f
00000020: b9eb 8c3e 0655 ca3d f099 e03e 8a8d f73e
00000030: 65da 273f c7a3 ea3e 5c87 ee3e 399a 013f
00000040: ad6f 753e 290f 163f 10ef 5e3e ae74 a73e
00000050: 681e 103f 8591 913e d19b 033f 9101 be3e
00000060: 91de dc3e 4a3e 193f 78f1 273f 7ed4 6e3e
00000070: 6436 103f 21b9 b83e 945b d33e 9c4d 433e
0.28396186 0.45962617 0.9620723 0.16628125 0.4894992 0.53435695 0.60151345 0.58036715
0.27523592 0.09879498 0.43867445 0.48350173 0.6556762 0.45828077 0.46587646 0.5062595
0.23968382 0.5861688 0.21770883 0.32706207 0.56296396 0.28431335 0.5140963 0.3711057
0.43138555 0.5986067 0.6560283 0.23323247 0.56332994 0.36078742 0.41280806 0.19072574

sfeb.4.bias f4 [32]
00000000: 22ff 87bd 03fa 483c dd35 91bd d8e6 3c3c
00000010: 8964 aebd 8af4 06bd 2df9 99bd 8507 cbbc
00000020: e388 b2bd 0c35 4e3d 3038 99bd 4a94 adbd
00000030: 2ae6 b7bc 3587 8cbc 1b3f cf3c 391c 023d
00000040: 8d85 a13d 2f2f fabc 2ba9 9c3a fe95 9cbd
00000050: f7ad 6f3b d11d 6fbd 719e c2bd a83e 04be
00000060: 89b5 3e3d f64d 213d a71d 413c 575b 4bbd
00000070: 1c21 09bd 592a 9abd df74 4abd d3f2 363d
-0.066404596 0.012266639 -0.07090352 0.011529647 -0.08515269 -0.032948054 -0.0751823 -0.024783859
-0.08717515 0.05034356 -0.0748142 -0.084755495 -0.022448618 -0.017154315 0.025298646 0.031765196
0.07886801 -0.030540077 0.0011952271 -0.07645796 0.0036572197 -0.058378045 -0.095028765 -0.12914526
0.046559844 0.03938099 0.011786855 -0.049647655 -0.03347884 -0.075276084 -0.049427863 0.04466517

sfeb.4.running_mean f4 [32]
00000000: 3770 ebbc 6d77 3f3e 7a11 ccbd 701d a53d
00000010: 1cf5 9bbe 46bf e4bd ba9c ccbe 1dca 61bc
00000020: 1cd4 40be ca5f 7cbc f601 e4be 8c4d 61be
00000030: baa8 a1bd f06f 3bbe aaaf 10be 9f48 90be
00000040: 853f dc3d 278d 1ebe 7dd5 79be 1552 53be
00000050: 31e6 1dbd c996 7fbe 3ac8 afbe e309 c2be
00000060: f892 693c f564 0b3e 3e3c 27bc ed16 55bb
00000070: c9ec 453d dece a4bd bd50 69bd 4901 22bd
-0.028740032 0.18697901 -0.09964271 0.080622554 -0.3046044 -0.11169295 -0.39963323 -0.013781098
-0.18830913 -0.015403697 -0.44532746 -0.22002238 -0.0789351 -0.1830442 -0.1412951 -0.28180405
0.10754303 -0.15483533 -0.24397846 -0.2063678 -0.038549606 -0.24959864 -0.34332448 -0.37898168
0.0142562315 0.13612731 -0.010207234 -0.0032514886 0.04832152 -0.08047269 -0.056961764 -0.039552007

sfeb.4.running_var f4 [32]
00000000: 81e9 c33c 252a da3d bcd5 5d3e 12f4 b23c
00000010: 183c 4b3e fa10 993d 2f5f 283e 0445 8b3d
00000020: bf7e 403d aff4 e23c e7ca dc3d f4d2 233e
00000030: daf3 4f3e 7e38 373e a7ee 773e e6cf 973e
00000040: a667 c13d 2b34 d93e 105a 7c3d df8f 973d
00000050: 26e2 693e ac90 9b3d 819a 693e 6fda 9f3d
00000060: 7213 6e3d a184 e73d 3d5e 0d3e 6933 ac3c
00000070: 5a7b ca3d f5fd bb3c 697b c43c e1c3 bc3b
0.023915054 0.1065257 0.21663564 0.021844897 0.19847143 0.07473941 0.1644256 0.06800273
0.046995874 0.027704565 0.10780888 0.15998441 0.20307866 0.17892644 0.24212132 0.296508
0.094435975 0.42422614 0.061609328 0.07400488 0.22840175 0.07595953 0.22812845 0.07805335
0.058124013 0.11304594 0.1380548 0.021020608 0.09886809 0.022948245 0.023984628 0.0057606553

tfeb.0.weight f4 [7, 1, 3, 3]
00000000: e321 4a3f 9c3a 05bf d5dc a0be 0851 c9bd
00000010: ef11 383c b9ea 6f3d 539d 77bd 66a5 3dbc
00000020: 6ec5 5a3c 8ffb 8d3b 0b4d a73b 0b91 fa3b
00000030: 86dd 10bb 9d15 a6ba 14b7 34ba 02d5 a2bb
00000040: 93d2 973c c1c3 27b9 974c a53d 4b40 d0be
00000050: 53d0 e73d 7a8a 6c3e 84f9 f1be 0f2e 063e
00000060: cb79 1b3e 7253 9abe 419e 9a3d 1a97 15bb
00000070: 56f1 95ba 3fcf 293a 6921 e2b9 f098 e838
00000080: 6e56 123a dbf4 5c3c f3cb 033d 4c80 a93c
00000090: 8361 4f3e 3ec4 063e 2779 cb3d 084f 08bd
000000a0: 5313 14be 87f7 79bd c4d2 38be 6fd9 e0bd
000000b0: 4a81 8f3c b634 88b9 5afe b23c 0e38 593b
000000c0: 2384 4cba 9292 6ab5 e61b 423a c230 6e3c
000000d0: 098f ca3c 471b 4f3a 76c0 433d 4b64 213d
000000e0: 0e2d d6bd c206 ab3d 211b 543d fb68 34be
000000f0: cbfd 83be c50e ebbe 08f3 253f
0.7895796 -0.52042556 -0.3141848 -0.098299086 0.011234744 0.05857346 -0.06045277 -0.011575079
0.013352735 0.0043329666 0.00510562 0.007646685 -0.0022104695 -0.0012671236 -0.0006893736 -0.00496924
0.018533027 -0.00015999285 0.08071249 -0.40674052 0.113190316 0.230997 -0.47260678 0.13103507
0.15183179 -0.3014179 0.07549716 -0.002282566 -0.0011439722 0.00064777205 -0.00043130972 0.00011091109
0.0005582337 0.0134861125 0.032176923 0.02069106 0.20252042 0.13160798 0.09935217 -0.033278495
-0.14460497 -0.061027076 -0.1804915 -0.10978972 0.017517705 -0.00025979214 0.0218498 0.0033144983
-0.00078016723 -8.738508e-07 0.000740467 0.014537992 0.024726408 0.0007900488 0.047790967 0.039402287
-0.10457812 0.08350898 0.051783685 -0.17618172 -0.25779566 -0.45909706 0.6482396

tfeb.1.weight f4 [7]
00000000: abd5 793e 8606 1a3d 459d 953e c9b0 7e3d
00000010: 3c73 b83e e0fa 4d3d 30f7 5b3e
0.24397914 0.037603877 0.2922155 0.062180314 0.36025417 0.05028808 0.21481013

tfeb.1.bias f4 [7]
00000000: d550 6d3d 64e3 6cbd 5145 1a3d 8471 9cbd
00000010: 9b00 54bc ab86 b5bd 6051 f63c
0.057938416 -0.057834044 0.03766376 -0.07638839 -0.0129395975 -0.088635765 0.0300681

tfeb.1.running_mean f4 [7]
00000000: 16d0 65bd 714f 2f3c 20fc 29be 2a1a d43c
00000010: d835 0dbd da45 d83c 40e8 5bbd
-0.05610665 0.010700093 -0.16600084 0.025891382 -0.034475178 0.026400495 -0.053688288

tfeb.1.running_var f4 [7]
00000000: cffd 1e3d aace 7639 ebf6 933d 1428 d53a
00000010: 6cde 743d d9b3 a73a e0e2 d03c
0.03881627 0.00023537377 0.0722483 0.0016262555 0.05978243 0.0012794688 0.025498807

tfeb.4.weight f4 [10, 7, 3, 3]
00000000: e09a 7a3d 4157 e93c d86d 41b9 efe0 a13d
00000010: 0ed8 2c3d 3022 7c3b af58 4a3d 5bea cd3c
00000020: fc30 29bc 9f40 9439 cf08 3dba ebba c6ba
00000030: c2c0 9aba cbf4 04bb d746 56bb fe2b 413a
00000040: 4b08 e539 c71b b1ba cde4 513c 5fc9 82bc
00000050: 641f 7cbc a768 03bc 0f67 a4bc 5992 68bb
00000060: 3bda 31bd 4c7f a3bc d822 f7ba 7b80 dc3b
00000070: 3600 fe3a e910 14bb 43a0 963b 63b5 f738
00000080: 85a5 aabb 5f01 883b 661d 9d3a 5480 7ebb
00000090: fd69 5bbd e457 85bd 0f32 84bd 7543 8b3c
000000a0: 0917 8abb cdff f4bc 33bd 0a3d 92cf df3c
000000b0: 5fe9 62bc 5fcd 523b c6cd 153a c929 9bbc
000000c0: 791f f93a ce23 1bba c273 7dbb eefc f53a
000000d0: ad77 3fba 7513 89bb e1bf 103c 848b 64bc
000000e0: 7f01 4ebc ff06 50bb 3e67 cabc 822a 22bd
000000f0: 6c79 c2bc 2c55 95bb fb6d 5f3c 0b55 2f3c
00000100: 2032 853c 271c df3b daac 463a 2f54 6e3c
00000110: ff1b 093c 820c 113c 1fcc b93b 6939 a1bc
00000120: 2206 203b 072b 1b3b c42e de3a 1a16 993a
00000130: 85a0 663a 6208 8639 c726 063a 9a63 0539
00000140: 9950 ddb8 5738 9b3b 9e09 973b 9e0b 323b
00000150: 0eb4 d43b 793a 873b 9fc1 ac3c 0093 a63a
00000160: e77b 01bb 3b3c 4cba 3ad0 4b3b 6f9d 4a3b
00000170: 48ca 523b 7df2 363b 90b2 333b 9e72 0a3b
00000180: 480d e639 c8ff e239 9009 e839 7250 80ba
00000190: a27b b8ba cc29 45bb 05b9 8c3c 2b0a 083d
000001a0: b730 843c 3677 9c3b 6afd 7c3b 1179 aa3a
000001b0: 1090 2e3b fbd2 133b 406e 143b 3244 ae3a
000001c0: 9d5c d43a dfa7 9b3a d703 bb3a 5d15 a03a
000001d0: edfa 863a 3d67 8a3c b910 b23b 1326 82bc
000001e0: dbc5 95bc 6325 d7b5 b09f c9b8 2c3c 123a
000001f0: 6c37 b3ba 4c71 a0b9 2f66 0abc cdc5 bcb9
00000200: efd2 7c3c db4a dbbc fca1 783a 77c9 26bc
00000210: 72b8 b1bb e301 98b9 75f1 a1bb 622e 663a
00000220: ee1e d938 1fb4 743a d862 9539 1b4d 1339
00000230: 703b 803a 20dd 2a3a 149c 3539 d023 c439
00000240: b04e a9bb fb1c 8b3b d708 99bb cc2d 46bb
00000250: 0afc ee3b 37f9 93bb ac46 963c 5d9c 043c
00000260: db03 a43c 428c fd3a 6a6f 7f3a 7f21 da3a
00000270: 76cc 653a d75d b639 ff1e b33a 4fe8 5e3a
00000280: 64f7 fcb9 f0b2 37b9 db3c 9dbb d419 56bb
00000290: b614 a2bb e186 9d3a 1e89 8b39 0b95 01bb
000002a0: 5fa3 90ba e1cd b339 9a21 f13a ffd2 933a
000002b0: c4b8 2e3a a0ed 8a3a ad79 4e3a 36c8 ad39
000002c0: 8351 733a 3522 8f3a 512e 063a 4da8 383a
000002d0: 07fd abbb 167a c13c 401b cbbb 2de4 7cbb
000002e0: 043e 0a3d 2b75 b5bb cd14 8ebb a4fd 023c
000002f0: a389 94bb 3b3e c83d 23a1 0bbd 7493 813c
00000300: 1f69 903c 4a88 aebb c222 193c f860 5e3d
00000310: f37a 96bd 5cd3 a03a 4cc3 7bba f9df 3fba
00000320: 0972 79b9 8d53 08ba 07bf 72ba 3147 5a38
00000330: 0db6 a6b9 2779 94ba faa2 63ba 5c8e 83bc
00000340: e7aa 29bd f866 03bb 0f58 463d 2175 e4bb
00000350: a943 773c a663 de3b 5a21 edbc 6b55 b1ba
00000360: 6874 fc3a ec99 613a 1633 edb6 bd4e 613a
00000370: 6c68 c639 0cef c339 b4a1 c93a 5390 61b9
00000380: 38f5 89ba b487 783c 3baf b13c c45c 2c3c
00000390: ac0e 163c a721 8abc 6b2d e8bc 8c92 5bbc
000003a0: dcdb 57bc 022c 0abc 1120 98ba e64e 02bb
000003b0: 88c2 e0ba 5645 feb9 6d5e 52ba 8c1d 32ba
000003c0: fc34 5839 c5b7 61ba de67 b3ba f402 c1bb
000003d0: b3a0 b2bc d982 75bc fe3d ccbc cbc0 0c3c
000003e0: 1108 f9ba 54c4 05bb 7c44 703b 7d02 db3b
000003f0: 6efe 883c 9a9a 83bd 891c 0d3c d6bb bfbc
0.061182857 0.028483989 -0.00018446834 0.07904231 0.042198233 0.0038472526 0.04940098 0.025136163
-0.01032662 0.00028276906 -0.00072110904 -0.0015161907 -0.0011806714 -0.002028751 -0.0032696032 0.0007368921
0.00043684462 -0.0013512307 0.012810898 -0.015965162 -0.0153883435 -0.0080205565 -0.020068673 -0.003548762
-0.04342101 -0.01995816 -0.0018854989 0.0067291833 0.0019378725 -0.0022593087 0.0045967414 0.00011811664
-0.0052077197 0.004150554 0.0011986911 -0.0038833814 -0.053567875 -0.065109044 -0.064548604 0.01699994
-0.004214172 -0.029907132 0.03387184 0.027320657 -0.013849585 0.0032165868 0.00057145616 -0.018940823
0.0019006572 -0.0005918116 -0.0038673733 0.0018767396 -0.0007303905 -0.0041832277 0.00883481 -0.013949279
-0.012573599 -0.0031742451 -0.024707433 -0.03959132 -0.02373954 -0.0045572724 0.013637061 0.010701428
0.016259253 0.006808776 0.00075788575 0.014546438 0.008368491 0.00885308 0.005670085 -0.019680696
0.0024417718 0.002367677 0.0016951193 0.001167956 0.0008797723 0.00025564717 0.00051174726 0.00012720973
-0.00010553114 0.004736941 0.0046093008 0.002716757 0.0064911908 0.0041268435 0.02108842 0.0012708604
-0.001975769 -0.00077909575 0.0031099454 0.0030916592 0.0032164026 0.002791553 0.0027419664 0.0021125446
0.00043878914 0.0004329665 0.00044257613 -0.00097896 -0.0014074931 -0.0030084727 0.017178068 0.033212822
0.01613651 0.0047749532 0.0038603195 0.0013006051 0.002663616 0.0022556174 0.0022648722 0.001329547
0.0016201917 0.0011875591 0.0014268112 0.0012213398 0.001029817 0.016894931 0.0054341224 -0.015887296
-0.018282821 -1.6029629e-06 -9.614171e-05 0.00055784243 -0.0013673133 -0.0003060199 -0.008447214 -0.00036005527
0.01543115 -0.026769092 0.0009484587 -0.010179869 -0.005423599 -0.00028993105 -0.004942114 0.0008780715
0.000103531274 0.00093347015 0.0002849314 0.00014047736 0.0009783339 0.00065179355 0.00017319649 0.00037410716
-0.005166851 0.004245398 -0.0046702432 -0.00302397 0.007293229 -0.0045157927 0.018344246 0.008093921
0.02002137 0.0019344168 0.000974408 0.0016642063 0.0008766124 0.0003478366 0.0013665854 0.00085032446
-0.00048249506 -0.000175189 -0.0047985143 -0.0032669203 -0.0049463166 0.0012018346 0.00026614306 -0.0019772674
-0.0011035017 0.00034294932 0.0018396855 0.0011278092 0.00066651055 0.0010599382 0.00078764075 0.000331463
0.00092818605 0.0010920229 0.0005118596 0.0007044122 -0.005248669 0.023617785 -0.006198317 -0.0038588152
0.03375055 -0.005537649 -0.0043359757 0.007995043 -0.004533009 0.097774945 -0.03408922 0.015817381
0.01762825 -0.0053263055 0.009346666 0.054291695 -0.073476695 0.0012270021 -0.00096039916 -0.00073194463
-0.00023788972 -0.00052004383 -0.00092600327 5.2041552e-05 -0.00031797626 -0.001132761 -0.0008683648 -0.016059093
-0.04142275 -0.0020050388 0.048423823 -0.0069719707 0.015091815 0.0067867814 -0.028946567 -0.0013529485
0.0019260766 0.0008606005 -7.0690976e-06 0.0008594802 0.00037843303 0.00037371402 0.0015383274 -0.00021511437
-0.0010525351 0.015169073 0.021690002 0.010520164 0.0091587715 -0.01686175 -0.02834197 -0.013401639
-0.013174977 -0.008433344 -0.0011606236 -0.0019883453 -0.0017147819 -0.00048498315 -0.0008024935 -0.0006794564
0.00020619103 -0.00086104526 -0.0013687571 -0.0058902446 -0.021805143 -0.01498481 -0.024931904 0.008590887
-0.0018999596 -0.002041121 0.0036661914 0.0066836462 0.016722884 -0.06425972 0.00861276 -0.023404997

tfeb.5.weight f4 [10]
00000000: 4588 013e 6039 fd3d c741 133e 635e 043e
00000010: 0228 3b3e bd2a 0b3e 4e38 093f c41c d83d
00000020: f741 cf3d 0027 4d3e
0.12649639 0.12364459 0.14380561 0.1292663 0.1827698 0.13590522 0.5360154 0.105523616
0.10120004 0.20034409

tfeb.5.bias f4 [10]
00000000: b066 0f3e 9e19 d0bd e320 93bd 188c 363b
00000010: 63b9 8a3d 1b6e 253d fc77 6fbe abab 413e
00000020: eb15 8bbc ab43 b0bd
0.14004016 -0.10161136 -0.07184007 0.0027854498 0.06773641 0.040388208 -0.23385614 0.18913142
-0.016978225 -0.08606657

tfeb.5.running_mean f4 [10]
00000000: e5f0 e3bb 95f7 d83c 5bc3 0c3b 3e40 bdba
00000010: cc11 ecbb 3696 513c ede7 cdbd 3f3b a0bd
00000020: d707 b63c e43c 3abd
-0.006956207 0.026485244 0.0021478746 -0.0014438701 -0.00720427 0.012792161 -0.10054002 -0.078238
0.022220535 -0.045468226

tfeb.5.running_var f4 [10]
00000000: 8ebf 743b 13f9 213a 55e2 1e39 4cdd dc3a
00000010: 9a8d 9b3b b85d 963a d6ce 983b 663a 0a3b
00000020: cf60 2d3a bb58 5b3b
0.003734562 0.00061787775 0.0001515237 0.001685062 0.004747105 0.0011472022 0.0046633286 0.0021091937
0.0006613852 0.0033469636

tfeb.7.weight f4 [15, 10, 3, 3]
00000000: 6ade 743d 77a8 b03c d267 c93b e79e 933c
00000010: 8aee 683b 9984 9ebb 9c42 6b3d a7c5 b53c
00000020: 43f1 163c 2582 03bc 1a4d 6dbc 7ab6 1cbc
00000030: 61fa 32bc b5ff 5fbc f1ca 263b e3f2 06bc
00000040: 7cf9 37bb dc8f 293b b4e3 b8bc 694a 4e3a
00000050: db69 bcbc 5674 64bb 5b22 043b f42f 73bc
00000060: 778f 8fbb 4cd6 943a 5004 093b 65a3 c93c
00000070: 3db4 b3bb e1a6 6abc 1b8d 363c faf6 e2ba
00000080: 026f 083c d6f1 c93c 41b4 413b b8a6 4c3c
00000090: 2bb0 ccbc e796 6ebc 3ed0 80bc 54b9 1cbd
000000a0: 2d5e 54bd 22cd 15bd 1a9c 47bd ffbd 82bd
000000b0: 0f20 10bd d270 83bc d5b0 08bc 9473 11bd
000000c0: f087 873c dc41 c3bb bd15 8ebc 1808 593b
000000d0: 73cb 203c 7d72 7cbc 4b86 5bbc 2802 2ebd
000000e0: 23ef 0cbd 22a2 1cbd 6610 6fbd 3bb6 1cbd
000000f0: b2ae 4dbc a4ff 0abd bcdc eebc a76b 75ba
00000100: f6b8 76bc 4c0d 18bd ff0d 14bd 58c8 b9bc
00000110: 6641 28bd 95af debc 9e62 71bc a413 cebc
00000120: 5423 cb3a baac 69bc f9e4 59bc 85c3 f43b
00000130: 7e71 b7bb 1236 c6bb 6671 a13b dc01 dd36
00000140: 0228 c7ba 1c72 22bb 736a 9e3c 3f51 c8ba
00000150: a15d 233b df8a 86bb 16f4 093a aeb8 40bc
00000160: 452d 1dbb e389 8e3a b008 b5ba b78a f2bb
00000170: 7155 ed3b 9259 d6bc cda1 4cbc 0915 003b
00000180: b5e3 89bc e096 71bc ea15 a33a dd99 e6bb
00000190: 1a73 75bb 9ffd 0d3a e6d9 afbb 772f 60bb
000001a0: a1a4 c0ba bfb8 e8bb c8ef 74bb 8830 5ebb
000001b0: ead2 b53a 5a68 953b d83b 6b3b 7812 cbba
000001c0: 4e01 833b cdb9 2f3b 6f43 7eba e103 6d3b
000001d0: a5a6 413b 323e 81bb f4cd aabb 3158 21bc
000001e0: 0650 f8ba b1a2 1cbb 5ce7 4dbc 9eab 6fbb
000001f0: 8dd5 b4ba f143 d3bb b4fd 99b9 4735 0f3b
00000200: 4b24 0b3b 76b2 9d3c 8464 a13c ff0d a1bb
00000210: 846f 25bb 353e ffba b60a d4bb fde3 99ba
00000220: 09cd 4ebb b524 223c 0240 ffbb 7aff 9dbc
00000230: e559 8abb 635e 56bc 7f84 89bc a171 74bb
00000240: 99bc 5e3a 5615 923a 2f40 2b3b 7d1e 1b3b
00000250: 1121 623b e9e9 403b 5cc3 99ba 7da1 92ba
00000260: a08a 3eba 25f6 7ebb e4c9 a83b 1183 af3c
00000270: a16d 173b 8512 663c 8f10 e53c 1813 ee3a
00000280: 5d59 1d3c 2557 cd3c 46da fbbb b1b3 91bb
00000290: 568e dd3a f5c9 7cbc 8219 2dbc 8603 8cbb
000002a0: 8aad 66bc f9b2 3bbc daac 9dbb 43ac ba3a
000002b0: dc07 4aba 0630 833b 4388 4fbc 31a8 ca3b
000002c0: 3a52 1a3b 9440 7d3a a100 4a3a 5df3 243b
000002d0: 5be4 c03c 9822 673b 9238 40ba 2a0b 213b
000002e0: c4c0 0b3b 676c f5bc 0c54 9e3c fc8a 6dbb
000002f0: b2c8 2dbc 7996 0cbb e2ff 34bb 0dd7 e6ba
00000300: 3905 cd3b 4818 843b e062 463b f2b0 0d3a
00000310: 9b52 b93a a2b1 fe3b 3f6b 48bb 7426 ad3a
00000320: 2cb8 a3b9 178a c9ba e133 f63a 0c58 6839
00000330: f97c 04bb 871c 023b 19a7 353a 12ff 4e3c
00000340: d02b 37bb 5c5e 83bb 661c fb3b 2151 1ebb
00000350: 00e2 b33c 66f4 683c 87d2 b13c abf2 013d
00000360: 4271 e9bb 9848 033d a38d 5a3d c582 7b3c
00000370: 6351 213d de1a 843d ba24 63bb bb11 cb3b
00000380: 5112 113c d306 aa3b 95e9 a5bb ce56 32bb
00000390: 169d 0e3c fec7 083b 01d2 083b 9250 c63c
000003a0: fae8 203c cfe7 2f3c d622 bfbc 3e03 d13b
000003b0: 21b7 723b bf60 38bd 273d e0bc c209 ccbc
000003c0: a95c e4bc 43e2 88bc ecaf 50bb 0a0b 06bd
000003d0: b756 11bd 3bcc 7bbd c80e 81bc 89c6 d1bc
000003e0: de91 51bd 985f b3bc efc5 c7bc ed92 17bd
000003f0: 7af5 ba3b 9926 10bb 496a 233b f3b9 2d3c
0.059782423 0.021564705 0.0061464095 0.018020106 0.003554257 -0.004837584 0.05743657 0.022188975
0.009212795 -0.008026634 -0.0144837145 -0.00956499 -0.010923953 -0.013671805 0.0025450552 -0.00823662
-0.0028072288 0.00258731 -0.022569515 0.00078693643 -0.022999695 -0.003485938 0.002016208 -0.014842976
-0.004381116 0.0011355369 0.0020907111 0.024614045 -0.0054841326 -0.014322014 0.011142041 -0.0017316036
0.008327248 0.02465145 0.0029556903 0.012490921 -0.024986347 -0.014562345 -0.015724298 -0.03826268
-0.051847626 -0.036572583 -0.048732854 -0.06383895 -0.035186823 -0.016045008 -0.008342941 -0.035510615
0.016544312 -0.005958779 -0.01734435 0.0033116397 0.009814131 -0.0154081555 -0.013398717 -0.042482525
-0.034407746 -0.03824056 -0.05836525 -0.038259726 -0.012553858 -0.033935204 -0.029157989 -0.000936205
-0.015058747 -0.037122056 -0.03614616 -0.02267854 -0.041077994 -0.027183333 -0.014732985 -0.02515585
0.00154982 -0.014262373 -0.01329922 0.007469597 -0.005598246 -0.006048926 0.004926848 6.5865297e-06
-0.0015194418 -0.0024787253 0.019337868 -0.0015283002 0.0024927633 -0.00410591 0.0005262507 -0.011762781
-0.0023983282 0.0010874834 -0.0013811793 -0.00740179 0.0072428514 -0.026165757 -0.012489748 0.0019543788
-0.016832212 -0.014745444 0.0012442444 -0.007037385 -0.003745264 0.00054165156 -0.0053665517 -0.0034207979
-0.0014697501 -0.0071021016 -0.0037374366 -0.0033903439 0.0013872061 0.004559559 0.0035893824 -0.0015493175
0.0039979583 0.0026813627 -0.00096993794 0.0036165642 0.002954879 -0.003944182 -0.00521254 -0.009847687
-0.0018944747 -0.0023900683 -0.012567367 -0.0036570798 -0.0013796553 -0.006447308 -0.00029371458 0.0021851824
0.002123135 0.019250136 0.01970125 -0.0049149985 -0.002524347 -0.0019473495 -0.0064710034 -0.001174092
-0.0031555316 0.009896447 -0.0077896127 -0.01928686 -0.004222142 -0.013084027 -0.016786812 -0.0037299173
0.0008496731 0.0011145275 0.0026130786 0.0023669295 0.0034504572 0.0029436296 -0.0011731195 -0.0011187043
-0.00072685815 -0.0038904038 0.0051510204 0.021424802 0.0023106115 0.014042501 0.027961997 0.0018163649
0.009603825 0.025065968 -0.0076859323 -0.0044464697 0.0016903381 -0.01542901 -0.010565164 -0.004272881
-0.014079461 -0.011456245 -0.0048118653 0.0014242012 -0.00077068596 0.0040035276 -0.012666765 0.0061846008
0.0023547546 0.0009660807 0.0007705782 0.002516947 0.023546388 0.0035268422 -0.00073326484 0.0024573305
0.0021324614 -0.029958917 0.019327186 -0.0036246171 -0.0106069315 -0.0021451993 -0.0027618338 -0.0017611698
0.006256726 0.004031215 0.0030271336 0.000540509 0.0014138998 0.0077726403 -0.0030581502 0.0013210312
-0.00031227 -0.0015376237 0.0018783772 0.00022158044 -0.002021609 0.001985343 0.00069295015 0.012634056
-0.0027949698 -0.0040090512 0.0076632975 -0.0024157243 0.021958351 0.014218425 0.021706833 0.031725567
-0.007124097 0.032051653 0.05335773 0.015351002 0.039384257 0.06450437 -0.0034659342 0.006197182
0.008854465 0.005188802 -0.0050632455 -0.0027212384 0.008704444 0.0020871158 0.0020877125 0.02420834
0.009821171 0.01073642 -0.02333204 0.0063785603 0.0037035423 -0.04501414 -0.02737291 -0.024906997
-0.027876215 -0.016709452 -0.003184314 -0.03272537 -0.03548309 -0.061474066 -0.015754119 -0.025607364
-0.0511645 -0.021896169 -0.024386374 -0.037005354 0.0057055326 -0.0021995662 0.0024935177 0.010603416

tfeb.8.weight f4 [15]
00000000: 5009 323e 9f53 253e 874b 393e 1e45 313e
00000010: 848d 043e 69b1 853e cd37 563e d260 2e3e
00000020: 9d27 723e 582a 943e 836b 043e 8548 793e
00000030: 47ad 483e 341f 4b3e fc0c 123e
0.17386365 0.1614518 0.18095218 0.17311522 0.12944609 0.26111916 0.20919724 0.17029122
0.23647924 0.28938556 0.12931637 0.2434407 0.1959735 0.19836122 0.14262766

tfeb.8.bias f4 [15]
00000000: e0f9 5e3e 8abf 49be 99e7 1f3d 7dc6 d63c
00000010: 7d0d 683d ae42 25be 98d5 69bd 28d9 bf3c
00000020: 0c69 bebd 719f 0ebe 9c2a 1e3d 7616 e4bd
00000030: 8b73 16bd 5056 5ebd 54bf 553d
0.21775007 -0.19701973 0.039039228 0.026217693 0.05665349 -0.16138718 -0.057088464 0.023418978
-0.0929738 -0.1392801 0.038614854 -0.111370966 -0.036731284 -0.054281533 0.052184418

tfeb.8.running_mean f4 [15]
00000000: 8e14 6bbd e5ce a63b a05c 11bd 7c20 0d3c
00000010: 31da d4ba 9785 3fbd 9144 66bd 0856 afbc
00000020: 3ecb 21bd dfe8 c93a e3d1 47bb e064 a2bc
00000030: 3e8b c63b 77b9 02bd 3611 83bc
-0.05739265 0.0050905817 -0.035488725 0.008613702 -0.0016239343 -0.04675826 -0.056217734 -0.021403328
-0.039500467 0.0015404484 -0.0030490092 -0.019823492 0.0060590794 -0.031915154 -0.015999418

tfeb.8.running_var f4 [15]
00000000: 3041 703b 8969 a039 9369 413b 15b8 483a
00000010: 96d9 603a 8c18 0d3a 61fd 133b 5a0a cf39
00000020: c25a 893a 0297 ed3a 47ce 053a dfee 243a
00000030: e206 1b3b f7ba b13a fb24 693a
0.0036659949 0.00030596208 0.002951239 0.0007656825 0.00085773447 0.0005382381 0.0022581446 0.0003948983
0.0010479318 0.0018126669 0.0005104285 0.0006291698 0.0023655226 0.0013559748 0.0008893755

tfeb.11.weight f4 [22, 15, 3, 3]
00000000: bbe8 0ebb b160 18bb 8b40 afbb 440a 94ba
00000010: cd33 b03a 4e8e 34bb ee44 5abb 8372 9abb
00000020: d642 06bc 3ae4 5e3a c604 593a 16f6 773b
00000030: 5b11 dfba dcb2 1c3a 47b3 9c3a 9361 ebba
00000040: 1d50 5dbb 9486 6abb 6a5f 44bb 5342 59bc
00000050: 02e0 ffbc fd79 44bb 1452 3d3b 845a adbc
00000060: 9699 c4bb 52c0 943a 6a0b 4f3b 164b a6ba
00000070: e414 f9ba 901a bdbb 2152 c8ba 1fec 08bb
00000080: 47d9 cfbb 8c14 913c bd12 aaba 3fb9 eebb
00000090: 856b 5dba 2e2c eebc 5927 70bb 227e acbc
000000a0: 2ce7 0bbd 0a2c f139 2db5 a8bc 2a7f 42bb
000000b0: b43c 50bb 325d cc3c 7d50 b13c 3b99 abbb
000000c0: 363e fd3c 4dc1 16bb e1ca d8bc 79d6 123c
000000d0: e623 a3ba 8b98 fdba 914f b8b8 e44e 2839
000000e0: c041 af3c 4502 ebbc f3dd ffbc 148b fe39
000000f0: f879 08bd d935 c4bc 9a35 023b 01be 073b
00000100: 6979 ea39 e68f 82ba 2ba7 6fba 5ff0 56ba
00000110: 3546 95bb 5664 ed39 6380 e63a 181f 853c
00000120: 9bb4 8d3b 75e1 08bc 59ff c6bc 50cd 343c
00000130: 2962 77bb d276 5bbb 98db 163c f538 aa3a
00000140: d0f6 89ba 833d c23c 9a52 27bc d2a5 d8bc
00000150: 75d6 393d 021b 28bb 20fb cabc de0b fe3c
00000160: 782c 71ba 82d6 dbbb d87b 6e3a 3b92 a43a
00000170: 73cd 2c3b ae14 08bb af36 eb39 d33b 3ab9
00000180: 9fbc 493a 1d3d 303b e16d 273b bbb6 aaba
00000190: 0845 94bc 5e43 c7bc a7b6 b93a de35 93bc
000001a0: 1adc 04bd 158d 203b b8d0 223b 1951 05bb
000001b0: e60b 49bb 72bc b4ba 5e0b e7bb 1fde 10bb
000001c0: e5ca 89bc 00be d6bc 9b41 4e3a 573f 423a
000001d0: fc9d 1dbc a39c 79b8 6173 e4bc 2157 a93c
000001e0: 2fc5 75bc a6ab 33bd a5d4 51bb 3ef3 ec3a
000001f0: b11e c5ba 34d5 e4bb f4b5 ffba 2786 2a3b
00000200: f2ca a33c 6d54 d6bb a1ed b2ba 9402 833c
00000210: 49b8 1cbc 667b 8c3c 9d25 723c 7485 53bb
00000220: fd8d abbb 9ac2 30bd 428b 313d 105d 9e3c
00000230: 73a0 02bd 7892 623b 0c63 94bb 848b f5bc
00000240: 2a76 78bc c5a8 bbbc 72b5 913a 5bac bbbc
00000250: 6768 15bd 2ff9 cebc d125 863a 5aa7 b3bc
00000260: 53f6 64ba b5c2 d2bc 4fc6 0fbd 8a9a f9bc
00000270: ea3f 97bc bde4 0cbd 2499 edbc a75f 20bb
00000280: 6651 93bb 55b2 c9bb bc27 0d3b d06e fa3a
00000290: d0ac d1ba 9b31 f639 f396 213a 156a 3abb
000002a0: 4610 063b df59 003a 6b58 38bb 838b 65bb
000002b0: f26b 9cbc 191e 6eba 9d78 b33c 34bf 9a3c
000002c0: 8c9f 15bb 4d58 9c39 c60a 18bb 1afd cfbc
000002d0: 736d e7bc 67d3 f9bc e8c2 4b3a 975d c0bc
000002e0: 8f7a e838 c82d 58b6 6289 ecbc cbc7 92bc
000002f0: 2fd8 cc3a 5375 bdbb 6ff0 08bd 4a16 a8bb
00000300: 4f67 36bb e80e bfba f9d1 92bc 3aaa ffba
00000310: d39d 9fbb 9f8f 80bb 55e0 0bbb 4ebc 2fbb
00000320: 620a 60bb 85b2 023a b850 10b9 edab 0ebb
00000330: c5b0 f6ba 8ff4 48ba 8971 0fbb 08e7 92bc
00000340: ba49 7eba e24e 7fbb 2c34 a93c 959b 2439
00000350: f060 58bb 7b2c 2e3b 216c e03a fdb8 2dba
00000360: 82a3 a1bc 18f6 333a 872e feba a842 283a
00000370: 346e e53a b674 50ba 0b8d 73bb f7a4 e2b9
00000380: b7ca d7bc a01a 82bb 9746 2cbb 6027 0bbb
00000390: 20e4 6fbc daef 74bc 039c abbc da0b 153a
000003a0: 9b82 85bc 21a4 e5bc eee7 0bbb 7616 4a38
000003b0: 12e2 e3ba 17f5 32b6 003f a03a 3e6a 2bba
000003c0: 94cf 3a3a 34b4 1d3b 99be 3f3a 5b01 cb3c
000003d0: 3496 923c 71b9 bfba 7b5a 123c 6811 96bc
000003e0: db23 96bc 7ea6 bd3b 30f4 793a 8481 feb8
000003f0: 997b 233d 1754 d63c 6d93 9e3c d3b8 a138
-0.0021806199 -0.0023250992 -0.0053482703 -0.0011294563 0.0013443172 -0.002755064 -0.0033305245 -0.004713358
-0.008194646 0.00085026363 0.00082786044 0.0037835888 -0.0017018722 0.000597758 0.0011955284 -0.0017958157
-0.0033769675 -0.0035785781 -0.0029964098 -0.013260442 -0.031234745 -0.0029979937 0.0028888034 -0.021161325
-0.005999754 0.001134882 0.0031592497 -0.0012687172 -0.0019003418 -0.0057709888 -0.0015283265 -0.0020892692
-0.00634304 0.017709993 -0.0012975555 -0.0072852666 -0.00084465026 -0.0290738 -0.0036644547 -0.021056239
-0.03415601 0.00045999914 -0.020594204 -0.0029677846 -0.0031774463 0.024946783 0.021644825 -0.0052367724
0.030913454 -0.00230034 -0.026463928 0.008962267 -0.0012446612 -0.001934783 -8.788624e-05 0.00016051118
0.021393657 -0.028687606 -0.031233763 0.00048550277 -0.033319443 -0.023951458 0.0019868375 0.0020712616
0.00044722416 -0.0009961098 -0.00091420364 -0.000819927 -0.0045554885 0.0004527892 0.001758587 0.016250178
0.0043245084 -0.008354534 -0.024291681 0.011035278 -0.0037747717 -0.003348757 0.009207629 0.0012986945
-0.0010525826 0.023710972 -0.010212565 -0.026446257 0.045370538 -0.0025650864 -0.024777949 0.031011518
-0.0009200047 -0.006708921 0.00090974336 0.0012555787 0.0026367574 -0.002076428 0.00044863435 -0.00017760629
0.0007695648 0.0026891895 0.002554767 -0.0013024429 -0.018099323 -0.024324115 0.0014168815 -0.017970022
-0.032436468 0.0024498154 0.0024843644 -0.0020342527 -0.0030677258 -0.0013789071 -0.0070509156 -0.002210505
-0.01682038 -0.026213646 0.00078680523 0.0007409951 -0.009620186 -5.9512106e-05 -0.027887048 0.02067143
-0.0150006255 -0.04386487 -0.0032017615 0.0018077863 -0.0015039054 -0.0069834236 -0.0019509182 0.0026019902
0.019994233 -0.006540826 -0.0013651141 0.01599244 -0.009565421 0.017148685 0.0147794755 -0.003227559
-0.005235432 -0.043154337 0.043345697 0.019331485 -0.031891298 0.0034572165 -0.004528409 -0.029973753
-0.015164891 -0.022907624 0.0011116697 -0.022909334 -0.03647652 -0.025265304 0.0010234659 -0.021930385
-0.0008734215 -0.02572761 -0.03510123 -0.030469198 -0.018463094 -0.03439783 -0.029003687 -0.0024471076
-0.0044957874 -0.006155292 0.0021538576 0.0019106511 -0.0015996937 0.00046957735 0.0006164156 -0.0028444577
0.0020456477 0.00048962043 -0.0028128873 -0.0035025782 -0.019094441 -0.00090834644 0.021908099 0.01889
-0.0022830693 0.00029820428 -0.002319978 -0.025389243 -0.028250432 -0.030496312 0.0007772879 -0.023482127
0.000110854504 -3.2213156e-06 -0.028874103 -0.017917534 0.0015628393 -0.0057818084 -0.03343242 -0.00512961
-0.0027832573 -0.0014576586 -0.017922388 -0.0019505688 -0.004871109 -0.003923371 -0.002134343 -0.002681512
-0.0034185876 0.0004985708 -0.0001376298 -0.0021769956 -0.0018820992 -0.00076658366 -0.002188774 -0.01793243
-0.0009700317 -0.003895693 0.02065476 0.00015698218 -0.0033016764 0.0026576805 0.0017122069 -0.00066269917
-0.019731287 0.0006864979 -0.0019392528 0.0006418624 0.0017504157 -0.00079519616 -0.0037162926 -0.00043228987
-0.02634178 -0.003970459 -0.0026287192 -0.0021233186 -0.014641792 -0.014949763 -0.020948416 0.0005685665
-0.01629763 -0.028032364 -0.0021347958 4.818147e-05 -0.00173861 -2.6666728e-06 0.0012225807 -0.00065389636
0.00071262685 0.0024063708 0.0007314473 0.02478092 0.017893888 -0.0014627409 0.008932705 -0.018318847
-0.018327644 0.0057876697 0.0009534983 -0.00012135788 0.039912794 0.026163144 0.019357407 7.7115044e-05

tfeb.12.weight f4 [22]
00000000: 832e 6f3e 7ea1 3b3e 8355 6e3e 310d 643e
00000010: 32f9 733e a51c 4e3e 1e1f 2c3e 1a0a 8e3e
00000020: 0937 423e 30fd f33d 98f4 403e e2d0 4e3e
00000030: d240 0f3e 42bd 153e 50b9 1e3e fc86 353e
00000040: 8b8c 183e 9300 863e 491b 303e a72c 4d3e
00000050: 5da3 2b3e 50d7 253e
0.23357587 0.18323323 0.23274808 0.22270657 0.23825529 0.20128115 0.16808745 0.27742082
0.18966307 0.11913526 0.18843305 0.2019687 0.1398957 0.14622977 0.15500379 0.17727274
0.14897363 0.26172313 0.17197908 0.20036565 0.16761537 0.16195416

tfeb.12.bias f4 [22]
00000000: 1957 2abe ed4d 8abb 9782 a3bc 09b1 39bd
00000010: 59e0 d8bd 240b 23bd f64b 5b3c 5a2f fdbd
00000020: f86b 15be f4ef d7bc ef90 68bd b339 b4bd
00000030: 9c39 86bd fdbc 943d 2db8 efbd 0ffc 86bd
00000040: af10 583c fa4e b1bd 75a9 16be 6365 51bd
00000050: 2378 f4bd 668f 31bd
-0.16634788 -0.0042207153 -0.019959731 -0.04533485 -0.10589666 -0.039805546 0.01338481 -0.12362547
-0.14591968 -0.026359536 -0.056778844 -0.08800068 -0.06553957 0.07262609 -0.117050506 -0.06591045
0.013187571 -0.08657642 -0.1471308 -0.05112208 -0.11936977 -0.043349646

tfeb.12.running_mean f4 [22]
00000000: c747 10bd 9d31 62bd 34c0 683d 7022 5abd
00000010: 5f12 e73c 6187 0fbd 8da0 56ba 4481 7bbd
00000020: 088b c13c 700c 6e3b 3817 1ebd 4a72 afbd
00000030: 0f4c d73c e07b dcbb b219 01bb e674 9e3c
00000040: 2e2c 03bc 2d0c 47bd 1648 003d 6b30 bcbd
00000050: bf86 a13c 4020 823b
-0.035224702 -0.055223096 0.056823924 -0.0532555 0.028207002 -0.035041217 -0.0008187376 -0.061402574
0.023625866 0.0036323331 -0.038596362 -0.08566721 0.026281385 -0.0067286342 -0.0019699153 0.01934285
-0.008006139 -0.048595596 0.031318747 -0.091889225 0.019717572 0.0039711297

tfeb.12.running_var f4 [22]
00000000: c04a bf39 1c24 463b fca6 183b 6112 bd3a
00000010: 3b23 983a 0eff eb3a 65ef cf3a c36b 4d3b
00000020: 4921 0c3a 0fe6 473a 47d9 a43a 70be 943b
00000030: 3909 103a 2227 b03a 5637 7f3b 5239 ce39
00000040: 2e6e 443a b1fb 963b 6475 8c3a 71aa db3a
00000050: e0e4 bb39 c8e1 1a3a
0.00036486052 0.0030233925 0.002329289 0.0014425033 0.0011607179 0.0018005089 0.0015864192 0.0031344749
0.0005345536 0.0007625529 0.0012576961 0.0045393035 0.00054945383 0.0013439397 0.0038942895 0.0003933409
0.00074932247 0.0046076407 0.0010716137 0.001675917 0.00035837945 0.0005908278

tfeb.14.weight f4 [27, 22, 3, 3]
00000000: f315 013b cb5f 24bb ade5 a2ba 81b7 213a
00000010: ee33 3fbb 6677 7bba c6fd fb39 9c32 0bbb
00000020: ccaa b639 8114 38bb 8146 56bb ce50 9cbc
00000030: bde9 18bb cd64 0bbb ec6a 96bc 84d4 efba
00000040: 906f 30bb ceee b9ba 1508 923a 8215 213a
00000050: 2038 193c 1246 dd3c 93b7 fb3c 1f22 cdbb
00000060: c0c0 d03b 58f4 723b 663e 053a fc17 7aba
00000070: ed41 ccbb 9277 92bc b7fc 9f3c 122c a43c
00000080: d703 ad3c 5f65 923a 52cd e0ba dacc ad3a
00000090: 4661 803c 842d 4b3c 7f25 bfbb 596f 9f3c
000000a0: de32 22bb afa0 31bb 4640 973a 3241 823a
000000b0: a3e5 e3b9 0b7c 1cbb b761 153b 2af6 8fb8
000000c0: d14c 133a 7150 8d3b b96c 583a a047 963b
000000d0: 466e 6b3b 58c4 983a 62ac f4bb b663 c2bb
000000e0: 194d b4bb 20c2 11bb 88c3 96ba 87a0 5fbb
000000f0: d4ec caba 5b94 5bbb 7dcc 5abb a811 c13a
00000100: 79b1 b73b b863 303b 9a56 043c 3a37 52bc
00000110: bba9 7fbc 36e3 0c3c 75b9 b63b c347 bf3b
00000120: cf77 2b3b a0e2 c53c 00ba 9d3a aa93 233b
00000130: ebaa 763b 0374 1d3a 5163 cc3b 617b fd3b
00000140: 8161 773b 6427 853c 7d13 ab3c 8cb2 93bb
00000150: e423 953a f7bc 243a 8e2e 86ba c7dc 69b9
00000160: d3c3 443a a0dc 3aba 8aa9 1bbb 5897 1a3a
00000170: 2cf1 28b7 2e18 393a f2b0 0c3b c5e7 a5b9
00000180: 3fc8 803b 18ce 5b3b d795 00bb b32e 873b
00000190: 6b9c 263c 4169 013b f00c 913b 92a3 e93b
000001a0: 920e 0a3b b621 223b 26cc c0bc 9725 c23b
000001b0: 135b cf3c ccde fe3c 5815 723b 7d27 ac3a
000001c0: 4897 b93b 8907 d33a 1ffd 58bc c86f 933b
000001d0: 2771 95bc 2ecf 443b 43d7 7cbc 9321 e4bc
000001e0: 18aa a839 feab aabc d6cb 88bc d9be 533b
000001f0: 7187 0a3a e8c8 2b3a e58f 173d c273 823c
00000200: 8951 dd3c afb9 da3a 38a7 e8ba c569 0439
00000210: f8bb 9fba 642b 08bb 5bdb 9eba 8cc3 b03b
00000220: 43d7 ad3c ae83 853c c398 723b c70c 2f3b
00000230: 0c3c 163a e859 a03b 4f71 173b 4735 6139
00000240: b77f 6a3a f078 1d3b d068 1f3a 2e38 e43a
00000250: b38d da3a 54f3 1e3b aed0 22bc ae4b 8abc
00000260: b4ef 963b 6586 aabb 08c0 d63a 3af8 a6bc
00000270: 489f 263b 493e 243d fe7b a53b 2703 833b
00000280: 0ae8 a33b 770f 733b 42e1 843b 43cf 0e3b
00000290: c272 1a3a 6586 adb9 6765 68ba 88f2 4dbb
000002a0: 9534 f13c 439d cd3c abe6 c9ba 722a 753b
000002b0: 5039 583b 91b7 623b 13be fe3a 0276 ee3a
000002c0: 6ad6 623b f442 923b 1cdc 803b cace c23b
000002d0: 0f48 233b 11c3 31bb c503 3abb b121 553b
000002e0: 449a 943a d2a8 3abb 8c93 ee3b f75e 003c
000002f0: 8dbf 6f3b 6134 33b9 6a66 353a 43a9 9839
00000300: 52e9 29ba a731 a4ba 4e63 34bb 2082 233b
00000310: 7b4f 0ab9 b6e1 9fba e008 373b 8a95 9b3c
00000320: 4e18 d13c 67c7 1a3b 7f38 48ba 7964 cfba
00000330: a384 b23c e195 da3c fa3c 5eb9 a87e 9f3c
00000340: 6c47 e23c c39a ef3c 166a 01bd a66f b9bc
00000350: ba70 86bc f419 c4ba f4d5 ea37 953b cf3a
00000360: 0459 0ebd 122b 3f3b cf20 323b eb8e 7b37
00000370: d202 e83c 32e8 f03a 5287 b73c b957 f83c
00000380: 4e97 9dbc 2efe 6c3b 9bbd e8b9 e2f9 2e3c
00000390: a7a1 133b 4303 d8b7 1741 3a3c 5461 90b8
000003a0: 7c8b 803c 861f 0c3d ea73 c4b9 e3e5 5cbb
000003b0: 5d12 03ba b6b0 aaba 58bf c1ba 14f3 263a
000003c0: cfde c2bc b4b4 6cbb 3ae1 e8ba 4074 87b8
000003d0: 3dc7 9b3b 8b6d 70ba 494d 91b9 6adc ba3b
000003e0: 6d0d a5ba 7a7c b6bb b287 2f3a 68b4 a6bb
000003f0: ddb1 86bb 57f9 89bb ea26 1a3c 9bdc d8bc
0.001969692 -0.002508151 -0.0012428068 0.0006169007 -0.002917524 -0.0009592682 0.00048063527 -0.0021239882
0.00034841 -0.0028088393 -0.0032695832 -0.0190815 -0.0023332678 -0.0021269799 -0.018361531 -0.0018297588
-0.0026921965 -0.0014185549 0.0011141325 0.00061448675 0.00935176 0.027010951 0.030727183 -0.006260171
0.006370634 0.003707191 0.00050828455 -0.0009540317 -0.006233445 -0.017879281 0.019529684 0.020040546
0.021119995 0.0011169127 -0.0017151034 0.0013259903 0.015671384 0.0124009885 -0.0058333273 0.019462274
-0.0024749557 -0.0027103832 0.0011539541 0.0009937643 -0.00043467907 -0.0023877646 0.0022793838 -6.864623e-05
0.00056190515 0.004312568 0.0008255947 0.004586175 0.0035923882 0.0011655195 -0.0074668387 -0.0059322966
-0.005502355 -0.0022240952 -0.0011502365 -0.0034122781 -0.0015481957 -0.0033505175 -0.0033386045 0.0014729993
0.005605873 0.0026914906 0.008077288 -0.01283055 -0.015604432 0.008599093 0.0055763074 0.005837412
0.002616394 0.024155915 0.0012033582 0.002495984 0.0037638496 0.0006006362 0.0062374254 0.007735655
0.0037747326 0.016254134 0.020883316 -0.0045073684 0.0011378494 0.00062842615 -0.0010237263 -0.00022302858
0.0007505987 -0.00071282126 -0.0023752176 0.0005897186 -1.00697325e-05 0.0007060793 0.0021467772 -0.00031643934
0.003930121 0.003353959 -0.0019620562 0.00412544 0.010169129 0.0019746574 0.004426591 0.007130095
0.0021065813 0.0024739332 -0.023534846 0.005924891 0.025311982 0.031112097 0.0036938991 0.0013134327
0.005663786 0.0016100268 -0.0132439425 0.0044994093 -0.018242432 0.0030030715 -0.015432182 -0.02784804
0.00032170187 -0.020833965 -0.016698759 0.00323098 0.00052844646 0.00065530697 0.037002463 0.015924338
0.027016418 0.0016687418 -0.001775003 0.00012627903 -0.0012186756 -0.0020777816 -0.0012119816 0.0053944048
0.021220809 0.016298141 0.0037017323 0.0026710497 0.00057309936 0.00489353 0.0023108309 0.0002147752
0.00089454226 0.0024028383 0.0006080987 0.0017411762 0.001667431 0.0024253922 -0.009937448 -0.01688179
0.0046062116 -0.0052040094 0.0016384134 -0.020382036 0.002542453 0.040098462 0.0050501814 0.0039981785
0.0050020264 0.0037088075 0.004055173 0.0021791018 0.0005891734 -0.00033097263 -0.0008865208 -0.0031425077
0.029444018 0.025099402 -0.0015403827 0.0037409333 0.0032993145 0.0034594277 0.0019435309 0.0018193128
0.0034612664 0.004463548 0.003932489 0.0059450613 0.0024914776 -0.0027124325 -0.0028383594 0.0032521302
0.0011337479 -0.0028481972 0.0072807726 0.007835141 0.003658268 -0.00017090283 0.0006919863 0.0002911781
-0.0006481606 -0.0012527005 -0.002752501 0.0024949387 -0.00013190314 -0.0012198004 0.0027928874 0.018992204
0.025524285 0.0023617388 -0.0007637813 -0.001582279 0.021791762 0.026682796 -0.00021194285 0.019469574
0.027621947 0.0292486 -0.031595312 -0.022636246 -0.016411174 -0.0014961348 2.7994603e-05 0.0015810604
-0.03475286 0.002916996 0.00271802 1.49940415e-05 0.028321657 0.0018379746 0.022403393 0.030315267
-0.019237187 0.0036162245 -0.00044391755 0.010679694 0.0022526772 -2.5750725e-05 0.011368058 -6.884584e-05
0.015691511 0.03420975 -0.00037470396 -0.003370636 -0.000499999 -0.0013022635 -0.0014781756 0.0006368619
-0.023787884 -0.003611845 -0.0017767318 -6.458955e-05 0.0047539757 -0.00091715966 -0.00027714137 0.005702545
-0.0012592502 -0.005569038 0.00066959404 -0.005087424 -0.0041105584 -0.004210632 0.009408692 -0.02647238

tfeb.15.weight f4 [27]
00000000: e4fa 2b3e 8862 293e d25d 483e 1e2c 4b3e
00000010: 64ea 3f3e 2de9 803e 6f9b 193e 7890 473e
00000020: 9788 453e 4cf6 193e c9c7 223e ac81 2c3e
00000030: bc1c 6d3e 63f0 7a3e 6474 383e 480e 213e
00000040: 91bb 463e 869f 493e 7f21 233e 92df 633e
00000050: bd08 293e 5b24 243e 5df3 2e3e 80fb 393e
00000060: 9265 723e 6baa 393e b299 443e
0.16794926 0.16541493 0.1956704 0.19841048 0.18741757 0.251779 0.150007 0.19488704
0.19290386 0.15035361 0.15896524 0.16846341 0.23155493 0.24505763 0.1801315 0.15728104
0.19407488 0.1968976 0.15930746 0.22253254 0.1650724 0.16029494 0.17085023 0.18162346
0.23671558 0.18131416 0.19199255

tfeb.15.bias f4 [27]
00000000: bab5 bfbd 1635 e5bd 0d3e 1abe 588d babd
00000010: 9067 35bd 6d2d 9cbd 9e1d 0abe 0523 d1bd
00000020: 255f c9bd 774c 503c ec22 ddbd ff91 85ba
00000030: 7c69 05be b957 6cbd 2948 eebd 84ea 36bd
00000040: 94d9 74bd a215 2bbe bd0d 30bd f1e2 b7bd
00000050: a8f4 0abe 19f8 06be 71e0 75bd b36b a1bd
00000060: 9e03 3bbe 1add 48be fc90 44be
-0.093608335 -0.11191766 -0.15062733 -0.091089904 -0.044288218 -0.07625852 -0.1348786 -0.102117576
-0.098326005 0.012713543 -0.107976764 -0.0010190605 -0.1302852 -0.057700846 -0.11634857 -0.044657245
-0.05977781 -0.16707471 -0.04298185 -0.089788325 -0.13569891 -0.13180579 -0.060028497 -0.0788187
-0.18263099 -0.19615594 -0.19195932

tfeb.15.running_mean f4 [27]
00000000: 43c3 013c dad7 843c b04b 75bb fdb1 15bc
00000010: da8b 3ebc 56f2 fbbc c5bb 85bc b8ef 333c
00000020: f0cb a039 4e28 90bb 31e7 d13b 23cd d63b
00000030: a48b 43bc 375d 3a3c 3a45 07bc fdca 1b39
00000040: 230a bc3b bdb3 e0bc e6d0 013c f712 a1bc
00000050: 5d99 a8bc 5be0 6dbc f167 e739 0faf fcbc
00000060: 6768 cebb 41d6 c53c 932f 38bc
0.007920089 0.016216207 -0.0037429146 -0.009136674 -0.011630023 -0.030755203 -0.016324887 0.010982446
0.00030669523 -0.004399336 0.006405734 0.006555216 -0.011935148 0.011374763 -0.008256251 0.00014857571
0.005738513 -0.027429456 0.00792334 -0.019662363 -0.020580942 -0.014518823 0.00044137196 -0.030845193
-0.006299067 0.024150016 -0.011241811

tfeb.15.running_var f4 [27]
00000000: 9fb2 1e3a 330a 9a39 461c 1a3a c232 9c39
00000010: b515 7e39 9cac f93a 58b3 9b39 bb08 023a
00000020: afd9 1d3a 1fbd db39 5c4a b139 e1ff 4c3a
00000030: 2223 0d3a 7eda 4f3a 666c be39 8ff3 f139
00000040: 6376 b939 8cc1 8f39 589b 743a 33ca 8c3a
00000050: ccc6 af39 34c8 9739 caab e639 cb63 943a
00000060: ce1f ed39 ab30 fa39 3adc d339
0.00060538383 0.00029380768 0.0005878847 0.00029792456 0.00024231414 0.0019048634 0.00029697525 0.00049604074
0.0006021512 0.0004191184 0.00033815473 0.00078201114 0.00053839583 0.0007928981 0.00036320387 0.00046148567
0.00035374155 0.0002741929 0.00093310094 0.0010741412 0.00033526716 0.00028950127 0.0004399701 0.0011321245
0.0004522786 0.00047719976 0.00040409138
