refine_codes/retrained_models_after_second_stage_pruning/bak/retrained_acdnet_after_tylor_pruning_model_from_acc_97.7_0.85compress_20240207121540_acc_95.45455169677734_880th_epoch.pt (torch, 335626 bytes, 62 tensors)

sfeb.0.weight f4 [7, 1, 1, 9]
000000 dc 0c 0b bd c0 0f 7f 3d d3 bc 34 3e a2 0b 89 be
       -0.03394781 0.06227088 0.17650156 -0.26766688
000010 a2 7c e3 3d b3 b0 4d bf 18 59 ad be 18 8f cc 3e
       0.11107756 -0.80347747 -0.33857036 0.39952922
000020 98 5e 24 3f 4d 66 29 3e c2 bb 05 3d 03 6a 1f 3c
       0.6420684 0.16542931 0.032649763 0.009729865
000030 ab ba 6d be a9 81 15 bd 16 ef 57 be 2f 72 1b 3e
       -0.2321574 -0.036500607 -0.21087298 0.15180276
000040 e5 9b 90 3c 70 bc c9 be 60 6c 1a 3f bb a2 ab bd
       0.017652461 -0.3940158 0.6032162 -0.08380648
000050 27 85 0b bd 9f e2 7d be c4 57 62 3d 5c 00 15 be
       -0.03406253 -0.2479348 0.05525948 -0.14550918
000060 79 c3 f9 3d 13 3c 04 3f 64 13 ab be 5d 03 ef be
       0.121954866 0.51654166 -0.3341323 -0.46682253
000070 ac 6c 07 bf b8 91 b8 3c b3 d7 08 3f 4d 78 b0 3d
       -0.52900195 0.022530422 0.5345413 0.086166956
000080 e0 35 91 3e df 85 6c be 4d 2e ae 3c 38 a2 a8 3d
       0.28361416 -0.23097943 0.021262312 0.08234066
000090 fb 14 42 bb 79 49 99 3d f9 64 30 be e5 9f 9e 3d
       -0.0029614556 0.07484717 -0.17226018 0.07745341
0000a0 9c c7 9d 3c c1 00 8b 3e a4 74 36 3f e1 3c 03 bf
       0.01926022 0.27149013 0.7127173 -0.5126477
0000b0 43 68 e1 be cb 42 f1 3d 18 7f d9 3d 7b f4 71 be
       -0.44024858 0.11780318 0.10619944 -0.23628418
0000c0 e2 e1 b6 3e 37 be 4a bf 0e 22 2d 3f e4 a4 d0 3d
       0.3571921 -0.79196495 0.6763009 0.101877004
0000d0 61 23 6c bf a4 03 f4 3e 97 0b 06 be 75 db 38 be
       -0.92241484 0.47659028 -0.13090359 -0.18052466
0000e0 cc 40 ba bc e6 d3 57 3e 75 79 a1 3d 34 35 8e 3d
       -0.022735976 0.21076927 0.07884494 0.069437414
0000f0 00 f6 7c be d5 77 c9 3d 5f c0 0d 3f
       -0.24703217 0.09837309 0.5537166

sfeb.1.weight f4 [7]
000000 46 7b 55 3f be 2e fa 3e b6 c4 ea 3e 69 dd 1e 3f
       0.83391225 0.48863786 0.45853204 0.62056595
000010 8d b9 1f 3f 3f 46 06 3f f8 01 ef 3e
       0.62392503 0.5245094 0.4668119

sfeb.1.bias f4 [7]
000000 e9 0a c3 3d 77 b0 70 3c 50 bc 02 3f ef 5f 00 3f
       0.09523565 0.01469051 0.5106859 0.50146383
000010 62 3a 25 3e 76 e8 12 3f a4 85 bf 3d
       0.16135553 0.5738596 0.09351662

sfeb.1.running_mean f4 [7]
000000 cc 8b a6 b7 eb 9c 2f b9 b0 79 1e 39 1d e3 86 b8
       -1.985384e-05 -0.00016747757 0.00015113386 -6.431921e-05
000010 05 35 1f 37 75 61 1e b8 5e b6 17 39
       9.489483e-06 -3.77609e-05 0.00014468419

sfeb.1.running_var f4 [7]
000000 b4 cd 1b 3d 94 a3 fb 3b 36 98 6d 3c 38 c6 ec 3c
       0.03803797 0.007679412 0.014501622 0.028903112
000010 7d 1b b9 3c 7d 2f 09 3c 28 31 54 3c
       0.022596115 0.0083731385 0.012951173

sfeb.3.weight f4 [32, 7, 1, 5]
000000 15 12 a6 bc dc 29 dd bc 8a a4 41 bc e4 8b 20 bd
       -0.020272294 -0.0269975 -0.011819014 -0.03919591
000010 6f a0 95 3b bf a2 cf 3c de fc 86 3d 4b 2d c8 3d
       0.0045662443 0.025346158 0.06591199 0.09774264
000020 7c cc 3b 3e 6c 76 0c 3e f5 cb 83 bd 81 e1 2b bd
       0.18339723 0.1371705 -0.06435386 -0.041963104
000030 3d 28 37 bd a4 8d eb 3b cc 38 84 bb ae ba 26 3d
       -0.04471611 0.0071885157 -0.004035091 0.040705375
000040 da e5 8a 3d 88 f8 3a 3d 3c 65 68 bd b5 a3 f2 3b
       0.06782122 0.045647174 -0.05673717 0.0074047693
000050 cb 4c de 3b 3b ec 1b bb 0e 8b a6 ba 67 5e 1c 3d
       0.006784057 -0.0023791927 -0.0012706236 0.038175967
000060 53 7a b3 bc e9 b3 47 bd 93 3e d8 bc 64 e5 b1 3a
       -0.021908915 -0.04875556 -0.026397025 0.0013572392
000070 8c 4e 6a bb cd 83 7f bc ca c0 1e bd 85 37 80 3b
       -0.0035752384 -0.015595389 -0.038758077 0.0039128684
000080 3d df 6e 3b fe 92 b6 3c 1f 82 24 3d 86 3e af 3b
       0.0036448978 0.022286888 0.040163156 0.0053480295
000090 fc 05 d4 bc 27 9c cb ba 55 7a 16 bb c2 eb 04 3d
       -0.02588176 -0.0015534208 -0.00229611 0.0324514
0000a0 6d 96 1a 3e 55 23 4c 3e 69 53 29 3e 17 a0 5e 3e
       0.15096445 0.19935353 0.16535725 0.21740757
0000b0 49 bd 49 3e d6 cc 0b be e9 e8 a5 bd f0 bf 30 bd
       0.19701113 -0.13652357 -0.08101065 -0.043151796
0000c0 d0 ea c4 bd 52 17 a2 bd c6 6a d0 3d 01 7a 26 3e
       -0.096150994 -0.07914604 0.101766154 0.16257478
0000d0 e7 a8 0b 3e ac 43 0f 3e 47 09 05 3e 3b 73 c5 bc
       0.1363865 0.13990659 0.1299182 -0.024102798
0000e0 87 d4 7a 3c 21 8d 2a 3d 02 65 d5 3c d5 1d dc bc
       0.0153094595 0.041638497 0.02604914 -0.026869694
0000f0 0a 94 4b 3b 3e f3 c8 ba de 2f 0e bb 19 aa c8 bb
       0.003106358 -0.0015331281 -0.0021696012 -0.006123793
000100 69 ff ca 3b b1 0a 31 be 7f 98 48 be 2a 63 e4 bd
       0.006194998 -0.17289235 -0.19589423 -0.111517265
000110 4d db 9f bd 50 f3 0a be 5c b0 1d be 7d 79 95 bd
       -0.078055 -0.13569379 -0.15399307 -0.07298563
000120 26 f9 87 bd 9b a5 a9 bd 0f 98 9f bd 57 80 d4 be
       -0.06639318 -0.0828354 -0.07792675 -0.41504166
000130 35 0f 9d be 8d ad 4f be 57 76 1e be 4f 48 07 be
       -0.30675665 -0.20281048 -0.1547483 -0.13211177
000140 4c c5 77 3e ce 6c 38 3e 13 ff 0f 3e fa ef bb 3d
       0.24196357 0.18010256 0.14062147 0.09176631
000150 fb 14 88 3d 17 1c 0c be 0c 2d 57 be 8b 8f a3 bd
       0.06644627 -0.1368259 -0.21013278 -0.07986363
000160 bc 43 0a be 28 b8 c1 bd 95 2d da 3c cc e3 dc bb
       -0.13502401 -0.09458953 0.026633063 -0.0067410227
000170 29 b0 39 39 b1 db 0e bd f4 89 01 bd 31 43 1c bc
       0.000177086 -0.034877483 -0.031625703 -0.009537504
000180 b3 32 07 3b a0 7c 67 bb d7 18 63 bc 35 4b 0b bc
       0.0020629584 -0.0035322085 -0.013860903 -0.0085018175
000190 87 00 2a 3e 05 2a 5d 3e 9c be 3c 3e c0 1c 6f 3e
       0.16601764 0.2159806 0.18432087 0.23350811
0001a0 4c 3f 81 3e 32 02 3c bd 6f eb 88 bb bd b2 29 bd
       0.25243604 -0.04590053 -0.0041784565 -0.041430224
0001b0 26 d1 fe bd 2d 1f 59 bd 2b b4 b4 3c 90 09 a3 3d
       -0.12442236 -0.053008247 0.022058567 0.07960808
0001c0 23 5c 79 3d cf ad a4 3d 70 a4 ad 3d 04 f8 21 3e
       0.060878884 0.08040964 0.084786296 0.15817267
0001d0 4d eb 00 3e d0 11 14 3d c4 fe 01 bc b0 c2 b7 ba
       0.1258976 0.0361498 -0.007934276 -0.0014019813
0001e0 54 58 b1 bc bf 9c fa bb bf 33 4c bd 8d 95 19 bb
       -0.021648563 -0.00764808 -0.049854036 -0.0023435086
0001f0 1b 43 0e bc da 56 14 bd 11 a2 d9 ba 99 bf a2 ba
       -0.008682991 -0.03621564 -0.0016604086 -0.001241672
000200 3f 3d d6 bb eb 0d 29 bd 7a ff b0 3c d9 41 84 3c
       -0.006538063 -0.04127304 0.021606196 0.01614468
000210 a2 b5 83 ba 20 c1 13 bd 6b be 56 3b 50 c4 23 bb
       -0.0010048638 -0.03607285 0.0032767307 -0.0024988838
000220 d0 74 a7 bb fd 0d 35 bd 29 16 85 bc 9f d9 87 bb
       -0.0051103607 -0.044202793 -0.016245918 -0.0041458155
000230 dd c1 0f be cb f2 0f be 62 76 38 bd 7e 3f 9e bd
       -0.14038797 -0.14057462 -0.045034774 -0.07726954
000240 69 32 4c be 07 94 e9 bd 10 ef a1 bd 47 59 c3 bd
       -0.19941105 -0.11405187 -0.07906926 -0.09538513
000250 15 1a cc 3c e1 18 e0 3d 55 25 63 3e 88 ee cf 3d
       0.02491478 0.10942245 0.2218221 0.10152918
000260 2c e6 a5 3d f9 67 42 3d 6e 9c 23 3b 4c 67 17 be
       0.081005424 0.047462437 0.0024965066 -0.14785498
000270 2e 38 ce bd 66 2b de bd 87 9f 9f bc 73 1f b9 bd
       -0.10069309 -0.10848121 -0.019485248 -0.090392016
000280 f1 50 b3 3c 2e bc 1d 3d c6 7a 2e 3d c9 42 db 3d
       0.021889182 0.03850954 0.042597555 0.10706098
000290 7e 20 15 3e 00 46 e4 3b 6b df 7c 3c 91 0c 61 bb
       0.14563176 0.0069663525 0.015434126 -0.0034339766
0002a0 20 43 8a bd 87 3a 8a bd 1b c9 5e bd ed bf 1a be
       -0.06751084 -0.067494445 -0.054391008 -0.15112276
0002b0 8f 75 69 be fe 0f 1c be cc 42 c2 bd b0 75 2c 3d
       -0.22798751 -0.15240476 -0.09485397 0.042104423
0002c0 a7 b6 8b bd 49 9e 54 3b 8d 06 4f 3d 91 4e b6 3c
       -0.068219475 0.0032442978 0.050543357 0.02225426
0002d0 92 f1 d1 bd e8 50 fe ba d6 57 b8 bd 32 8b d7 bc
       -0.10251154 -0.0019402774 -0.090011284 -0.02631149
0002e0 1e 2b 9e 3d 02 57 4b be 54 02 1c bd 84 f6 dd bd
       0.07723068 -0.1985741 -0.038088158 -0.10838035
0002f0 37 77 42 bd 85 86 30 3a 66 18 78 3e 28 6b 19 3e
       -0.047476973 0.0006733912 0.24228057 0.14982283
000300 b4 50 8c 3d d1 4b e8 bc df f6 1c bd 6b 04 a3 bb
       0.068513304 -0.028356465 -0.038321372 -0.004974892
000310 e7 d3 ea bd 82 28 d4 bd 05 0b c1 bd b2 97 19 be
       -0.114661984 -0.10359289 -0.0942593 -0.14999273
000320 1f 3e 90 bd e0 35 50 bd ee 1a b4 bc 41 85 e6 bb
       -0.07043099 -0.05083263 -0.021985497 -0.007034928
000330 ed 56 d1 3c e9 81 bc bc 1d d7 de 3d ee 3b 2d 3d
       0.025554145 -0.023011165 0.10880873 0.04229348
000340 37 e6 42 3e f1 66 86 3e f1 c2 f0 bd 2f f4 09 be
       0.19033132 0.26250413 -0.11755932 -0.13472055
000350 51 0a f4 bd 3e aa e2 bd c0 6e d2 bd 3e 23 f1 bd
       -0.1191603 -0.11067627 -0.1027503 -0.117743
000360 58 e7 46 3c c6 c6 02 3e 67 fa 39 3e 0a 68 34 3e
       0.012140118 0.12771139 0.18161927 0.17617813
000370 a1 09 d6 3d 98 58 8a 3d 04 1b d1 3d 53 a6 ef bc
       0.10451055 0.06755179 0.10210231 -0.029254114
000380 c1 aa a7 bd da 16 d2 bd 60 52 2d be 20 d9 05 be
       -0.081868656 -0.10258265 -0.16925955 -0.13071108
000390 00 56 cc bd 0c d1 b0 bd d4 84 5d 3d 07 17 c2 3d
       -0.09977341 -0.086336225 0.054081753 0.09477048
0003a0 5e 68 8a 3d 11 7a 47 3d c8 e1 a3 bd 88 3a 6a bc
       0.06758188 0.048700396 -0.08002049 -0.0142961815
0003b0 19 26 93 bc b9 3d b3 3b 16 d1 51 bc 59 5f 61 bc
       -0.017962502 0.0054700044 -0.012806198 -0.013755643
0003c0 34 c3 df 3b 64 b1 6c bd 79 d2 ad bd bc 49 af bd
       0.00682869 -0.05778636 -0.0848741 -0.085589856
0003d0 82 60 d4 bd 4c 7b 71 3d 42 10 4e 3d 0a df fd 3c
       -0.1036997 0.058955476 0.050308473 0.030990142
0003e0 8f ae 02 3d d3 e4 fe bc 37 ee ec 3c ad 84 29 bd
       0.031904753 -0.031114971 0.028922183 -0.041386295
0003f0 19 c6 ed bd 32 09 c9 bd 3f ba b0 bd 4b a0 b3 bd
       -0.1161005 -0.09816207 -0.086292736 -0.08770808

sfeb.4.weight f4 [32]
000000 a1 a3 8c 3e 2a 5f e2 3e 3b 88 67 3f d7 d9 27 3e
       0.2746859 0.4421323 0.90442246 0.16391693
000010 3a 20 f0 3e ad 1d 01 3f 98 78 12 3f 19 78 0d 3f
       0.46899587 0.50435907 0.5721526 0.5526138
000020 95 33 86 3e 3a 13 c0 3d bf 06 d0 3e c9 6b eb 3e
       0.2621123 0.09378667 0.40630147 0.4598067
000030 ce 0d 1e 3f 2d c2 d7 3e f3 a1 e0 3e b4 55 f6 3e
       0.61739814 0.42140332 0.43873557 0.4811226
000040 c1 b2 60 3e 05 8a 0d 3f 8d 4d 58 3e e2 69 9f 3e
       0.21943189 0.55288726 0.21123333 0.3113547
000050 27 96 05 3f be 5c 8b 3e c6 7d 03 3f 4a f3 b4 3e
       0.5218224 0.27219194 0.5136379 0.35341865
000060 13 6a d1 3e b5 f2 12 3f b7 f4 24 3f 67 1c 65 3e
       0.4090124 0.5740159 0.64435905 0.22374116
000070 36 ce 07 3f 86 65 b0 3e e2 51 c9 3e 07 0c 34 3e
       0.5304903 0.34452456 0.39320284 0.17582713

sfeb.4.bias f4 [32]
000000 f3 39 81 bd 69 e8 7a 3c d2 ea a2 bd 44 a7 7e 3c
       -0.06309881 0.0153142 -0.07954945 0.015542809
000010 19 0d 9e bd 90 6b fb bc 46 8d 97 bd 48 46 ce bc
       -0.07717342 -0.030690938 -0.07399993 -0.025179997
000020 b8 32 9f bd 12 23 6d 3d 3a 68 a2 bd 3e 22 9f bd
       -0.07773346 0.057894774 -0.07930036 -0.07770203
000030 11 8d 8b bc da 43 bc bc 69 ae de 3c 66 c0 cc 3c
       -0.01703504 -0.022981573 0.027182775 0.024994086
000040 3a d3 88 3d 55 af dc bc 65 bf 55 bc de 17 97 bd
       0.06680913 -0.026939074 -0.01304612 -0.07377599
000050 8c d8 e6 3b 97 d3 67 bd 55 b6 9d bd 35 4c f4 bd
       0.0070448574 -0.056598272 -0.07700793 -0.11928598
000060 d3 95 3d 3d 0c fe 15 3d f3 1e aa 3c 1f b8 4b bd
       0.04628546 0.03661923 0.02076671 -0.04973614
000070 c9 f9 eb bc 25 b8 90 bd 81 f8 5b bd 17 2d 32 3d
       -0.02880563 -0.07066373 -0.05370379 0.043500032

sfeb.4.running_mean f4 [32]
000000 89 8e e7 bc e5 1b 13 3e a5 1e b7 bd ba 8f 75 3d
       -0.028266208 0.1436611 -0.08941392 0.05995152
000010 9a 63 90 be 15 77 c0 bd 64 53 c3 be 9a 1a c4 39
       -0.2820099 -0.09397713 -0.3814956 0.00037403853
000020 f8 bc 42 be 40 28 6b bc 44 8a d5 be 60 2f 42 be
       -0.19017398 -0.014352858 -0.4170705 -0.18963385
000030 76 84 26 bd f1 f0 3a be ae 64 0e be 75 de 82 be
       -0.04065367 -0.18255974 -0.13905594 -0.25560346
000040 eb ce a8 3d fc ba 1e be f3 9b 4f be 16 95 42 be
       0.082425915 -0.15501016 -0.20274334 -0.19002184
000050 e0 2a 81 bd 8c 74 5d be 25 04 8c be 92 8f a9 be
       -0.06307006 -0.2162649 -0.27346912 -0.33117348
000060 6e 12 90 bb 6d 8d 0b 3e b7 ad a9 3c 79 b3 13 bc
       -0.0043967282 0.13628168 0.020712717 -0.009014958
000070 9b 3a 09 3d a4 f2 a4 bd fb 06 25 bb d4 42 a7 bd
       0.033503156 -0.080540925 -0.0025181163 -0.08167043

sfeb.4.running_var f4 [32]
000000 1a ad 8f 3c bf 79 9f 3d d1 b4 32 3e 6d 57 6c 3c
       0.017538596 0.07786893 0.17451788 0.014425141
000010 a8 e0 15 3e 78 31 49 3d ef d8 f1 3d 97 28 38 3d
       0.14636481 0.049119443 0.11808955 0.044960584
000020 8c 78 2a 3d 0d 27 b6 3c 92 f3 ad 3d ee 1f 05 3e
       0.04161887 0.022235418 0.08493723 0.13000461
000030 a5 4d 1e 3e 2b d8 26 3e 48 1c a7 3e bc 0d bf 3e
       0.15459307 0.16293399 0.32638764 0.37315166
000040 5a d7 b4 3d e1 0e aa 3e 50 13 2e 3d f5 c4 50 3d
       0.088301376 0.33214477 0.042498887 0.050969083
000050 74 08 19 3e 4e 85 7e 3d aa 59 1a 3e 9f 10 88 3d
       0.14944631 0.062138848 0.15073267 0.06643795
000060 12 02 35 3d 6f 98 a8 3d 0f fd d2 3d ec 61 83 3c
       0.044191428 0.082321994 0.10302173 0.016037904
000070 8f e1 83 3d 27 74 9b 3c 78 91 97 3c de 2f d1 3b
       0.06439506 0.018976284 0.018501982 0.00638388

tfeb.0.weight f4 [7, 1, 3, 3]
000000 1d 0e 46 3f 55 db eb be ae 63 86 be d6 20 96 bd
       0.77365285 -0.46065775 -0.26247925 -0.07330482
000010 f9 de f6 3c bf 8a 93 3d c7 a3 19 3c 64 31 7b 3d
       0.030135619 0.07204198 0.0093774265 0.0613264
000020 0a c0 92 3d 3f 70 24 3a a4 0a ea 39 bf 81 f3 3a
       0.07165535 0.00062728295 0.00044639886 0.0018578096
000030 bb 8a fc ba f3 d9 c1 ba be 1a 40 b9 9a fb 15 3a
       -0.0019267419 -0.0014789685 -0.00018320509 0.00057213905
000040 e8 3a a5 3c 93 4e 8e 3b e5 e6 b7 3d 7d 24 c2 be
       0.02016969 0.004342863 0.089795865 -0.37918463
000050 e4 22 f9 3d 83 85 69 3e 0e d5 e2 be 6e da 03 3e
       0.12164858 0.22804837 -0.44303173 0.12876293
000060 9b 19 2b 3e 95 2d 8a be 9d 30 b7 3d 44 c6 d7 bb
       0.16708986 -0.269879 0.08944819 -0.0065849144
000070 59 8b a6 bb 28 9f 5c bb 11 54 ec bb 91 f8 cc bb
       -0.0050825295 -0.00336642 -0.00721217 -0.0062552174
000080 73 07 ab bb 9d cb 48 3c a5 72 f1 3c 84 e3 a2 3c
       -0.005219394 0.012255576 0.029473612 0.019883879
000090 a1 48 3e 3e 31 e3 09 3e 1f 7a dc 3d 37 47 63 bd
       0.18582393 0.13465573 0.1076548 -0.055487838
0000a0 3e 04 21 be 16 e3 8d bd 35 e9 1b be 45 0b ab bd
       -0.15724275 -0.06928079 -0.1522568 -0.08351759
0000b0 df 95 26 3d e1 c1 15 bb 26 b7 8f 3c 79 64 03 b9
       0.040670272 -0.0022851157 0.017543387 -0.00012530563
0000c0 51 a3 30 ba e7 bf 6a b8 4c f9 23 3a 51 a2 75 3c
       -0.0006738203 -5.596867e-05 0.00062551047 0.0149923125
0000d0 43 84 cf 3c ea c3 3c 3b 5e 55 51 3d 9f da 37 3d
       0.025331622 0.0028803297 0.051106803 0.044886228
0000e0 b4 69 ae bd a8 02 a6 3d ba c2 54 3d 80 b7 2e be
       -0.08516255 0.081059754 0.05194352 -0.17062187
0000f0 6a 2e 7b be b1 08 de be 8d e8 1e 3f
       -0.24529424 -0.43366006 0.62073594

tfeb.1.weight f4 [7]
000000 60 41 43 3e 71 a2 2c 3d 37 0d 91 3e e2 87 97 3d
       0.19067907 0.042147104 0.28330395 0.073989645
000010 c8 5d b1 3e 10 c7 56 3d 71 be 68 3e
       0.34641862 0.052435935 0.22728898

tfeb.1.bias f4 [7]
000000 b7 ff 66 3d 99 b5 51 bd 19 f1 2c 3d fd 4d 84 bd
       0.056396212 -0.051198576 0.042222116 -0.064601876
000010 3c 6a 7f bc c8 0f a6 bd 34 ca 10 3d
       -0.015589293 -0.08108479 0.035349086

tfeb.1.running_mean f4 [7]
000000 f1 81 aa 3d cf 30 17 3c 08 41 d6 bd bc 62 29 3c
       0.083255656 0.0092279455 -0.104616225 0.0103384815
000010 4d 5c a6 bc 96 06 b5 3c 1f f6 07 bd
       -0.020307684 0.022097867 -0.033193704

tfeb.1.running_var f4 [7]
000000 f9 e4 28 3d fd 96 66 39 bf 69 31 3d 08 47 5d 3a
       0.04123399 0.00021990757 0.043313738 0.00084410654
000010 a2 4e 4f 3d f5 c2 80 3a b2 17 a8 3c
       0.0506121 0.0009823727 0.020519111

tfeb.4.weight f4 [10, 7, 3, 3]
000000 28 fb 31 3c 0b 4f 8b 3c ef d0 20 3a d0 1c a5 3c
       0.010863103 0.017005464 0.0006134649 0.02015534
000010 6e 1d cf 3c 26 48 c7 3b 9a ee 2f bc 66 e0 0e 3b
       0.025282588 0.006081599 -0.010738039 0.0021801232
000020 a6 0d 3c 3a c6 91 dd 3a 25 a6 57 3a 51 3c f5 3a
       0.00071736646 0.0016904406 0.00082263566 0.0018709992
000030 8c 86 9c b9 fa e2 58 ba 96 5d 9f b9 8f f6 83 ba
       -0.00029854884 -0.0008273568 -0.0003039657 -0.0010067987
000040 ed 0f cb 39 87 a5 ff 39 e5 b3 5b bb 4d ea 6a bc
       0.00038731043 0.00048760718 -0.0033523974 -0.014338088
000050 28 be cd bc c8 db d0 bc 1b ae bc bc 28 6a 69 bc
       -0.025115088 -0.025495425 -0.023032239 -0.014246501
000060 16 83 35 bd a3 32 1e bc 85 5a eb bb 61 44 cf 3b
       -0.044314466 -0.009655627 -0.0071824216 0.00632529
000070 13 3f b4 3b 22 3e b6 3b 9e 18 4b 3a fe 5e 47 3a
       0.005500683 0.005561606 0.00077475037 0.00076054025
000080 b3 64 d7 39 18 55 77 39 d4 4a 1a 3b 9f 71 19 3b
       0.00041083022 0.00023587456 0.0023543136 0.002341367
000090 db 9e 57 bd f7 59 3c bd ab 6b 23 bd e7 7c 6e 3c
       -0.05264173 -0.045984235 -0.039897602 0.014556146
0000a0 29 c4 57 3c c5 9a 5b bb 39 c0 86 3d b6 b0 89 3d
       0.013169327 -0.0033508998 0.06579632 0.06723158
0000b0 f4 6d f6 3c e7 3f 3d 3b 2d ae 0a 3b fd ab 5c bc
       0.030081727 0.00288772 0.0021160946 -0.01346874
0000c0 78 4f f0 39 a5 bf a3 b7 56 9d 7f b8 e2 54 0c bb
       0.00045835576 -1.9520356e-05 -6.094327e-05 -0.0021412899
0000d0 0c ef 75 ba 29 82 03 ba 3e 76 c8 bc 64 d0 c5 bc
       -0.0009381629 -0.0005016649 -0.024470445 -0.02414722
0000e0 56 0f 86 bc d9 32 88 bc 47 68 8e bc 93 35 04 bd
       -0.016364735 -0.016625809 -0.017383708 -0.032277655
0000f0 6d 1b 0d bd e7 46 31 bc 3a a6 9d 3c 02 7b 40 ba
       -0.034449983 -0.010820127 0.019244302 -0.00073425483
000100 86 80 71 bb 4a 6f 1a bb fa 3f 5c bc 4f 30 21 ba
       -0.0036850288 -0.0023564869 -0.013442988 -0.0006148861
000110 b1 d9 f8 ba 12 50 03 3b dc 58 b3 3a a5 bc b4 bc
       -0.0018985776 0.002003674 0.0013683098 -0.022062609
000120 16 51 d0 38 00 63 08 39 f7 85 bc 38 02 7e 23 3a
       9.933316e-05 0.00013006851 8.9894915e-05 0.0006236733
000130 01 5d 11 3a 01 a4 cd 39 b2 e5 4f 39 46 a5 d5 38
       0.00055451697 0.0003922284 0.00019826627 0.00010187416
000140 7d 8c 4b 39 2b 37 a4 3a 2b 40 20 3b 9c 8b cf 3a
       0.00019411925 0.0012528648 0.002445231 0.0015834454
000150 e2 d0 b9 3a 1a 73 a3 3a a2 1e 99 3c b7 97 31 3a
       0.0014176632 0.0012470216 0.018691365 0.00067746214
000160 54 81 97 39 8e 66 36 b9 43 d6 a1 39 e2 e6 d2 38
       0.0002889732 -0.00017395077 0.0003086795 0.000100565856
000170 08 cc 22 39 01 3a 84 3a ca 38 52 3a a7 94 12 3a
       0.00015525531 0.0010088087 0.00080193265 0.0005591609
000180 62 3d 57 39 6b 61 d1 38 cb 15 47 39 88 44 8a bb
       0.00020526865 9.984042e-05 0.00018986237 -0.0042195953
000190 26 2f 88 bb 35 4a 85 bb 37 37 3a bb 9b 07 3d 3c
       -0.004156011 -0.004067684 -0.0028414258 0.011537458
0001a0 43 c3 8d bb 98 bb 22 3b 1e 4a 5c 3a 08 ca a3 39
       -0.0043262555 0.0024831053 0.00084033783 0.00031240308
0001b0 af 05 45 39 db d3 fc 38 81 88 37 38 b6 6b 5b 3a
       0.00018789501 0.000120557575 4.375773e-05 0.0008370237
0001c0 05 1e 61 3a ca fa 27 3a c1 ef 00 3a 2a 79 e0 39
       0.0008587542 0.0006407915 0.00049185386 0.00042814884
0001d0 ff 22 a5 39 db 4b 94 ba d2 91 a1 3a 67 54 77 bc
       0.00031497327 -0.0011314111 0.0012326783 -0.015095807
0001e0 94 1e d7 bc ad ee 86 3a 07 94 fd ba 6d a4 a7 ba
       -0.026259698 0.001029452 -0.0019346484 -0.0012790092
0001f0 39 03 85 39 d7 50 2e ba 14 f0 f5 3b 40 ef 99 3c
       0.00025370138 -0.00066496193 0.007505426 0.018790841
000200 44 7a e2 3c f0 23 46 bc b1 92 d8 3c 41 29 91 3c
       0.027646191 -0.012093529 0.026437135 0.017719867
000210 4d ea 19 3c 01 97 9a 3c 97 6a 57 3c 9e 8c b4 3a
       0.009394241 0.018870832 0.013147972 0.0013774817
000220 45 d5 7b 39 87 48 8a bb 12 e7 a6 3a 0b 98 bb b8
       0.00024016674 -0.0042200717 0.0012733659 -8.945175e-05
000230 13 2d a9 bb 45 39 53 3b cc b7 f8 3a 03 7d 67 bb
       -0.005162844 0.003223018 0.0018975674 -0.0035322316
000240 37 94 d0 bc 11 3d d0 bc 48 b4 bb bc c8 36 d4 bc
       -0.0254613 -0.025419744 -0.022913113 -0.025905028
000250 2a 5d d2 bc 51 21 ba bc ba 56 6f bb f3 56 d1 bc
       -0.02567919 -0.022720965 -0.00365202 -0.025554156
000260 a0 1e 7d ba af f9 b8 3a 35 9b 27 ba b1 bf e0 bb
       -0.00096557476 0.0014112497 -0.0006393672 -0.006858789
000270 0a 55 17 3b 7c 6f bc b9 1a 4f f8 bb 2f 5f c3 3b
       0.0023091459 -0.00035941217 -0.007577789 0.0059622745
000280 02 b3 60 3b 77 d3 84 bb 34 a2 3e bc 8e 9b 98 bc
       0.0034286384 -0.004053529 -0.011635352 -0.018628862
000290 3a 34 b6 bc ba 24 2a bc 17 4e 38 bc 92 18 b3 bc
       -0.0222417 -0.010384733 -0.011249087 -0.021862302
0002a0 c3 0e f1 3b 23 e7 d6 b9 71 bf 3b bc 45 d9 af 3a
       0.007356496 -0.0004098947 -0.011459217 0.0013416192
0002b0 96 09 29 3a 8e 14 94 bb 9a 4e 17 3b d6 77 89 3a
       0.0006448267 -0.004519052 0.0023087622 0.0010487984
0002c0 1b 7b a2 bb dc 20 78 3b 94 81 42 3b 2c 37 6e bb
       -0.004958523 0.0037861383 0.0029679285 -0.0036348803
0002d0 d8 de fb 3c d4 32 0d 3d e5 1c b2 3b a5 70 93 3c
       0.030745909 0.0344723 0.0054355734 0.017998049
0002e0 b6 b4 d5 3c 73 4a 00 bb dd 95 82 3c 66 28 0e bb
       0.026087146 -0.0019575625 0.015940601 -0.002169156
0002f0 8e 6b 8a bc 62 9f 3b 3d 33 c5 12 bd 39 02 c5 3a
       -0.01689699 0.045806296 -0.035832595 0.001503057
000300 3b 56 a0 bc 29 11 3c bc 20 e8 8f 3b b5 76 c3 3c
       -0.019572368 -0.011478701 0.004391685 0.023860315
000310 cf 0c 9f bd 88 7b 8c 3b dc e2 00 3b 98 37 7c 3b
       -0.07766115 0.004287187 0.0019666469 0.0038485285
000320 ea a6 8e 3b 63 72 74 3a d9 6c 33 3b 09 56 45 3b
       0.004353394 0.0009324906 0.002737811 0.0030111095
000330 1f 14 91 3a e0 67 11 3b f1 8f 2c 3b 75 15 05 bd
       0.0011068619 0.0022187158 0.0026330913 -0.032491166
000340 87 13 40 bd 09 f4 8d bb 97 49 13 3d 86 0d 26 bc
       -0.046893623 -0.00433207 0.035958853 -0.01013506
000350 36 a4 83 3c 75 8d bc bb b5 99 0e bd 19 7f 77 bb
       0.016069513 -0.0057541677 -0.034814555 -0.0037764965
000360 a9 78 81 3b d9 63 e8 3b e6 c3 03 3c 06 d8 f4 3a
       0.0039511514 0.007091981 0.008042311 0.0018680103
000370 bd 07 9c 3b 2f 99 b2 3b 10 ba 3e 3b c8 b3 94 3b
       0.0047616647 0.00545039 0.00291026 0.004538033
000380 b1 7a ae 3b 7d 55 a3 3c 35 5d 1c 3d 1e f8 fe 3c
       0.0053246845 0.019938225 0.038174827 0.03112417
000390 8d 14 e3 3b de 21 86 bb 6f 61 ce bb 5b be 0f 3c
       0.00692994 -0.0040933928 -0.006298236 0.008773412
0003a0 31 53 af 3c 63 f4 d9 3c 5d 71 e9 3a b3 7e 87 3b
       0.021401973 0.02660579 0.0017810274 0.004134977
0003b0 51 52 a8 3b b7 01 93 3a 86 0d 58 3b 84 7b 73 3b
       0.005136766 0.0011215721 0.0032967045 0.0037152478
0003c0 8f e6 43 3a de 62 f4 3a 27 ab 25 3b bb c0 9f bc
       0.00074730156 0.0018645187 0.0025279017 -0.01950108
0003d0 cb e0 34 bd ac 60 59 bc da d5 1f bd fe 8b ce bb
       -0.04415969 -0.013267677 -0.039022304 -0.0063033095
0003e0 e6 a4 c9 bb c9 f1 2e bc ee 0e 8e bb 15 91 18 3b
       -0.0061536906 -0.010677763 -0.004335276 0.0023279835
0003f0 87 b5 78 3c 07 0b 8e bd 5c a7 9c 39 2b 90 f0 bb
       0.015179998 -0.06935697 0.0002987933 -0.007341405

tfeb.5.weight f4 [10]
000000 23 61 1f 3e 14 33 d9 3d 21 a0 11 3e 9a ec f4 3d
       0.15564398 0.106054455 0.1422124 0.11959191
000010 a5 02 30 3e fc ab f7 3d c8 66 f2 3e 53 12 e0 3d
       0.17188509 0.1209335 0.4734404 0.10940995
000020 86 c5 d5 3d 53 1e 48 3e
       0.10438065 0.19542818

tfeb.5.bias f4 [10]
000000 fd 54 f8 3d b1 0d d2 bd bc 43 6b bd 34 87 81 3c
       0.12125585 -0.10256518 -0.057437643 0.01581154
000010 94 72 20 3d 8d ce a9 3c b3 de 90 be 2d d8 3e 3e
       0.03917177 0.020728374 -0.28294906 0.18637152
000020 15 31 ca bc 8c 0e 83 bd
       -0.024681607 -0.06399259

tfeb.5.running_mean f4 [10]
000000 ba b2 ee bc 87 ad 0b bc 58 67 15 bc c2 61 a7 bc
       -0.029137958 -0.008525259 -0.009118877 -0.020432357
000010 aa d9 c5 bc 94 e6 29 bd c6 d7 b4 bd 8d c5 47 bd
       -0.024151642 -0.041479662 -0.08830218 -0.048772383
000020 36 be 13 bd f1 8f 29 bb
       -0.03607007 -0.002587315

tfeb.5.running_var f4 [10]
000000 c5 06 96 3b 2c c5 3f 39 47 14 47 3a 32 4b e3 3a
       0.0045784437 0.00018288632 0.0007594269 0.0017341136
000010 45 88 4d 3b 94 a4 ba 3a 77 87 c1 3b db 85 44 3b
       0.003136174 0.0014239722 0.0059060412 0.002998701
000020 7b 3c 33 3a 47 73 05 3b
       0.00068373204 0.00203629

tfeb.7.weight f4 [15, 10, 3, 3]
000000 b5 42 41 3d 1d f4 6c 3c 30 82 a2 3c 73 8f d8 3b
       0.047182757 0.014462498 0.019837469 0.0066088974
000010 9f a0 92 ba bc e5 1d 3c 93 6b 8f 3d e7 47 38 3d
       -0.0011186785 0.0096372925 0.0700294 0.044990446
000020 ff 61 54 3d 20 45 59 bb 40 7b 5c bb 05 d9 7c ba
       0.05185127 -0.0033152774 -0.0033642799 -0.00096453755
000030 62 53 91 ba 32 b0 d1 ba 06 5c 7c ba a4 7a 07 ba
       -0.0011087472 -0.0015997945 -0.00096267497 -0.0005168116
000040 6d b9 62 3a cb 83 ef 3a 66 71 1c bd e7 65 84 bc
       0.00086488464 0.001827353 -0.038194083 -0.016161872
000050 fa 0c b7 bc ec 14 8d bc 4a 9b 33 bc ca fd f4 bb
       -0.022345055 -0.01722189 -0.010962317 -0.007476543
000060 8f 10 44 bc 95 62 ea b9 4d 92 4c 3c 22 98 92 3c
       -0.0119668385 -0.00044705407 0.012486053 0.017894808
000070 34 ef 99 3b 07 dd 40 3b dc 3d 2d bc 94 f3 08 bc
       0.0046977047 0.0029428618 -0.01057383 -0.008358855
000080 8e bc a0 3b d8 65 e5 3c 2e f9 2b 3c 60 be be 3c
       0.00490529 0.028002664 0.010496421 0.023284137
000090 5c 6d a8 3a 65 57 85 3b bb ec d4 3a ce 64 a6 bc
       0.0012849974 0.004069256 0.0016244868 -0.02031174
0000a0 71 cf f0 bc 4e d5 e8 bc fd 56 24 bd d8 ff 58 bd
       -0.02939579 -0.028422024 -0.04012202 -0.052978367
0000b0 e6 37 12 bd 37 44 24 bb 6f f5 04 3c 02 d3 61 bc
       -0.03569784 -0.0025065073 0.008115157 -0.013783218
0000c0 86 8f 31 3c 1f d2 c3 3a 88 57 5f 3b da 5c 9a 3c
       0.010837441 0.001493994 0.0034079272 0.018843103
0000d0 a4 95 c8 3c d9 c2 43 3a 66 da 83 ba 24 79 ff bc
       0.024485417 0.0007467694 -0.0010059595 -0.031185694
0000e0 fd 1e b2 bc 2b 04 ec bc a6 d3 3f bd e6 6f 0c bd
       -0.021743292 -0.028810581 -0.046832703 -0.034286402
0000f0 9c e6 9f bb e8 18 ba bc b3 44 b8 bc ea 1c a6 3c
       -0.0048797857 -0.022716954 -0.022493696 0.02027746
000100 9f 84 0e bb 1d 50 d7 bc 78 8e dd bc d5 88 bf bc
       -0.0021746529 -0.026283318 -0.027045473 -0.023380676
000110 8d d5 4d bd 95 af d9 bc 68 db af bc 5e 95 14 bd
       -0.050252486 -0.026572982 -0.021466926 -0.03627526
000120 5c 93 5a 3b ef c8 25 bb 44 c0 bb 39 65 dc c3 3b
       0.0033351993 -0.0025296768 0.00035810668 0.005977201
000130 31 bf 5c 3a d8 11 b9 3a fd 9b 12 3c 41 6d b7 3b
       0.0008420824 0.0014119698 0.008948323 0.005597741
000140 6f 1e 98 3b bf 18 92 bc 0c bc 3f 3c 7e b3 90 3b
       0.0046423 -0.017834065 0.011702549 0.0044159284
000150 a5 74 e6 bc 73 e3 03 bd 8f 76 18 bc 17 0e 26 bd
       -0.028131792 -0.032199334 -0.00930561 -0.04054078
000160 6f a6 04 bd 86 cf 9c bc e2 f9 62 3c b8 86 ee 3c
       -0.032385286 -0.019141924 0.013853522 0.029116973
000170 85 48 0a 3d fb 1b ec bb da 1c d9 3c 91 ab 19 3d
       0.033760566 -0.007205484 0.026503015 0.037517134
000180 64 65 08 bc 53 bb 05 b8 40 3d dd 3b 3a b4 7c ba
       -0.008324955 -3.188413e-05 0.0067516863 -0.0009639893
000190 9b 7e ac 39 67 8f fd 3a 32 8d 45 3a 44 64 d1 39
       0.00032900725 0.0019345105 0.00075359934 0.0003993829
0001a0 40 0e 15 3a 6e f9 96 ba 06 dd 11 39 a6 5d 91 38
       0.00056860223 -0.0011518428 0.00013910615 6.931582e-05
0001b0 7d f2 c7 3c ca 9a 98 3c 75 70 15 3c b7 d3 99 3c
       0.02440762 0.018628497 0.00912105 0.018777711
0001c0 2c 2f 65 3c bd da 9c 3b fc 58 51 3c 13 f4 f6 3b
       0.013988297 0.004786818 0.012777563 0.00753642
0001d0 f6 b7 3a 3b 1d 77 81 bb 54 9e e3 ba 04 e8 c3 bb
       0.0028490997 -0.003950967 -0.0017365911 -0.005978586
0001e0 7f d2 01 3b e6 cf 7b 3b 2a 15 5f 3a e6 d7 14 3b
       0.0019809303 0.0038423478 0.00085099286 0.0022711693
0001f0 e1 52 1a 3c f6 f3 68 3b 15 bf 41 3b 56 62 83 3a
       0.009419174 0.0035545803 0.0029563357 0.0010023813
000200 ae dd 5c bb 49 95 a1 3c 4a bc b6 3c d8 a7 5c bb
       -0.0033701467 0.019724505 0.02230658 -0.0033669379
000210 8b 82 5b bb 53 05 a8 ba 62 16 ec bb d6 5f b5 3a
       -0.0033494558 -0.001281897 -0.0072048167 0.0013837765
000220 d2 b0 9a 3b a6 b5 92 3b 4d 08 d3 3b 55 72 bc 3b
       0.0047207857 0.0044772206 0.0064401985 0.005750934
000230 28 c6 63 3b f3 08 87 ba 17 9e 1f 3b cb 82 1e 3b
       0.0034755562 -0.001030235 0.0024355703 0.0024186845
000240 e0 90 29 3a 49 ef ca 39 1f 51 82 3a 73 d0 18 ba
       0.00064684264 0.00038706724 0.0009942389 -0.0005829401
000250 f8 96 7c b9 94 d1 98 b9 2b 5c 00 ba de be 78 39
       -0.00024088833 -0.00029147847 -0.00048965466 0.00023722227
000260 c1 fe 8b b9 c4 c8 c9 bb 97 19 64 bb 20 64 80 3c
       -0.00026701952 -0.0061579663 -0.0034805292 0.015672743
000270 e7 33 00 bc 66 c5 c5 bb 65 16 54 3c b7 90 80 ba
       -0.0078248745 -0.0060354946 0.012944792 -0.0009808753
000280 fb 65 17 ba 06 04 68 3c d0 ee 13 bc 42 44 84 bb
       -0.0005775389 0.0141611155 -0.009029105 -0.0040364573
000290 35 8a ac b9 8c 14 1c bc 65 df a2 bb a3 57 01 bb
       -0.0003290937 -0.009526383 -0.0049704784 -0.0019736073
0002a0 1c f0 4c bc bc ff fb bb ea f6 d2 bb 8d 51 31 bb
       -0.012508418 -0.007690398 -0.006438126 -0.0027056665
0002b0 9b fb 63 3b 09 47 9d 3b 05 4c 42 bc b9 ea 00 3c
       0.003478742 0.004799728 -0.011858945 0.007868462
0002c0 8e bb 48 3c 0b 30 80 3b 58 53 3b 3c 98 43 a6 3c
       0.012251748 0.003911977 0.011433445 0.020295903
0002d0 05 00 c5 3a c9 20 44 3c 0f d0 32 3c 4a 91 91 bc
       0.0015029913 0.011970707 0.010913863 -0.017769475
0002e0 90 b0 52 3c ae 40 87 bc 2b 28 e2 3b 73 f5 59 3c
       0.012859479 -0.016510334 0.006901761 0.013303149
0002f0 fb d9 3d 3c 06 e8 44 38 ee 7f 32 ba 07 62 47 3a
       0.011587615 4.694613e-05 -0.0006809224 0.0007605855
000300 80 99 c2 ba 6b e8 e7 ba bb 87 ca b7 3e 9e 1e b8
       -0.0014846772 -0.0017693167 -2.4143481e-05 -3.781751e-05
000310 e3 14 84 38 b0 57 38 3b c2 c7 25 ba 96 09 5d bb
       6.298141e-05 0.0028128438 -0.0006324017 -0.0033727637
000320 04 19 04 bb d5 0d 42 3b 0e e4 c8 3a fc 3c e4 3a
       -0.0020156512 0.0029610295 0.0015326755 0.0017413194
000330 ee 5c 9f b9 6e eb ee ba 10 7d bd ba 98 cd f0 bb
       -0.0003039608 -0.0018228122 -0.0014456827 -0.0073487274
000340 dc fc 5d bb 42 d5 77 bb 81 f5 07 3b 41 0e fc 3b
       -0.003387264 -0.003781632 0.0020745697 0.007692129
000350 82 ea c3 3c a7 0e 0e bc 71 2e 59 3c c5 1a ec 3c
       0.023915533 -0.008670486 0.013255701 0.028821358
000360 8d 00 88 bb 46 6c e9 3c 15 03 37 3d da f6 86 3c
       -0.0041504563 0.028494012 0.044680674 0.01647513
000370 c5 5a f7 3c f9 74 6d 3d ea a8 9c 39 6f a2 93 ba
       0.03019465 0.057972882 0.0002988049 -0.0011263619
000380 17 ed 6c 3b 6a 3d dc 3b 7f 78 13 3c a0 64 0f 3c
       0.0036152059 0.0067211883 0.0090008965 0.008752018
000390 2c 95 49 3b f1 83 d0 3b e0 99 f2 3b 5d cc 1c 3c
       0.003075908 0.006363385 0.0074035972 0.009570208
0003a0 82 9c 48 3c 65 d1 28 3c 5e a6 c4 bc fe 24 b6 3a
       0.012244346 0.01030383 -0.024005111 0.0013896523
0003b0 b3 65 a3 b9 51 b4 32 bd 0a b3 ce bc 12 23 c0 bc
       -0.00031165555 -0.043628994 -0.025231857 -0.023454223
0003c0 53 73 ce bc 34 89 77 bc 0d d0 d7 b9 e3 fc 1c bd
       -0.025201475 -0.015108395 -0.00041163006 -0.03832711
0003d0 59 9f 2d bd 8b c3 8b bd 86 47 84 bc d9 06 cd bc
       -0.042388294 -0.06824406 -0.016147386 -0.02502768
0003e0 b6 e9 4d bd f4 19 bb bc 61 53 e2 bc c7 2b 27 bd
       -0.050271712 -0.022839524 -0.027627649 -0.040813234
0003f0 a2 1e 89 3b 14 5b ac 3b 9a c0 ee 3b f5 cf 6f 3b
       0.00418456 0.005259881 0.0072861435 0.0036592458

tfeb.8.weight f4 [15]
000000 99 5b 3c 3e 28 2b 1d 3e 68 76 29 3e c8 eb 1e 3e
       0.18394317 0.15348494 0.16549075 0.15519631
000010 9c b2 fc 3d 8b a0 77 3e a3 e2 49 3e d6 aa 27 3e
       0.123387545 0.24182336 0.19715361 0.16373762
000020 ee bf 64 3e 23 74 89 3e bb 9e f0 3d a3 73 6e 3e
       0.2233884 0.26846418 0.117490254 0.232863
000030 68 52 53 3e 65 47 4c 3e 7a 54 19 3e
       0.20636904 0.1994911 0.14973632

tfeb.8.bias f4 [15]
000000 08 cc 35 3e 38 b7 3a be cb 3b f6 3c a4 76 7e 3c
       0.17753613 -0.18233955 0.030057808 0.015531216
000010 0f 10 82 3d 3f dc 25 be ff f7 97 bd 57 ab aa 3c
       0.06350719 -0.16197298 -0.074203484 0.020833654
000020 00 b8 b1 bd c4 4a 10 be 2d 38 ca 3c 6f 56 ca bd
       -0.08677673 -0.14091021 0.02468499 -0.09879767
000030 4a c9 fe bc 60 3e 07 bd 9c aa 3f 3d
       -0.031101841 -0.03301847 0.046793565

tfeb.8.running_mean f4 [15]
000000 6e dc c6 bc ae 4c e9 3c 1d e2 26 bd dc 8f 29 3c
       -0.024275031 0.028478947 -0.040742982 0.01034924
000010 60 fe 19 bc ef e7 10 bd 43 f6 1e bd 50 21 6d bc
       -0.009399027 -0.03537744 -0.038809072 -0.014473274
000020 43 1d d7 bc 81 de 69 bc e7 01 3b bc a4 9c 61 bc
       -0.02625907 -0.0142742405 -0.011414028 -0.013770256
000030 20 c4 ce 3c b6 14 f2 bc 0d 38 03 bd
       0.025240004 -0.029550891 -0.032035876

tfeb.8.running_var f4 [15]
000000 5f 63 ab 3a 73 c5 02 3a ff aa 0f 3a 04 de 91 39
       0.001307588 0.00049885287 0.00054804975 0.0002782197
000010 0b fe 49 3a 88 13 fc 39 8d 8f 45 3a 4d 6c 39 39
       0.0007705397 0.00048079737 0.00075363443 0.0001768332
000020 51 d4 0e 3a e3 75 bc 39 52 0c 8c 39 f7 f2 9f 39
       0.0005448508 0.00035945987 0.0002671206 0.00030507866
000030 06 7b 07 3a 4b 34 59 3a 45 46 bb 39
       0.0005168173 0.00082856853 0.00035719774

tfeb.11.weight f4 [22, 15, 3, 3]
000000 85 e4 01 bb cb e9 6b ba e6 86 a4 ba 87 dc 69 3a
       -0.0019820046 -0.00089993764 -0.001255241 0.0008921106
000010 e4 a7 ee 3a e1 c3 49 3a 1f 66 1d 3c 19 2d 06 3c
       0.0018207994 0.000769673 0.009606867 0.008189463
000020 1f 85 8c 3b 0a ed b5 3a 53 d5 7c ba 25 53 dc ba
       0.00428833 0.0013879847 -0.0009644825 -0.0016809447
000030 59 44 d7 3b 1e a0 16 3b de 88 de ba e7 38 1f 3c
       0.006569427 0.002298362 -0.0016978045 0.009718156
000040 45 a6 4b 3b d4 01 97 bb 84 41 ba ba da d5 99 bc
       0.0031074446 -0.004608372 -0.0014210199 -0.01877873
000050 f4 1c 12 bd 35 10 63 3b c7 95 3a ba 01 f6 dd bc
       -0.035672143 0.0034647111 -0.00071176555 -0.027094843
000060 92 16 ca 3b 1b ef 50 b9 c7 15 66 bb ff 8f a2 ba
       0.0061672414 -0.000199255 -0.0035108195 -0.0012402533
000070 40 9c 7b b9 21 36 4f 3a 6e 7b cb ba 0f 61 9a ba
       -0.00023995433 0.0007904489 -0.0015524456 -0.0011778193
000080 e6 66 21 3a c4 5d 83 3c 50 17 f4 ba 46 fa ac 37
       0.00061569957 0.016035922 -0.001862267 2.062054e-05
000090 22 59 1a bb 9b 3e d4 bc 20 4b 33 bb a7 64 87 bc
       -0.0023551662 -0.025908759 -0.002735801 -0.016527487
0000a0 b2 c1 f4 bc 8d cc 90 3a f6 40 87 bc df ff 9c 3a
       -0.029877517 0.0011047289 -0.016510468 0.0011978111
0000b0 6c a4 65 ba db 5e 9a 3c 6a 5a ba 3c 2a 93 a4 bb
       -0.00087601575 0.018844059 0.02274819 -0.005022426
0000c0 bc 32 b7 3c 60 51 84 ba 88 3c c7 bc 05 b4 27 3b
       0.02236306 -0.0010095052 -0.024320856 0.0025589478
0000d0 1b f0 dc b9 e2 0a cd ba 23 0c a9 3a 6c e8 c5 3a
       -0.00042140562 -0.0015643502 0.0012897294 0.0015099174
0000e0 d6 22 99 3c 45 eb d3 bc 0d c0 f5 bc b4 f2 0f b9
       0.018693369 -0.025869021 -0.029998804 -0.00013727957
0000f0 28 5c f1 bc 76 50 b5 bc 47 0e a7 38 1a cd 17 3a
       -0.029462889 -0.022133093 7.96584e-05 0.00057907554
000100 9b 9c 31 3a b2 e2 2e ba 7f a2 90 ba e1 32 32 ba
       0.000677535 -0.00066713535 -0.0011034756 -0.00067977427
000110 4b 42 66 ba 81 72 ed ba c5 ac fb ba 17 f2 7a 3c
       -0.0008783682 -0.001811579 -0.001920127 0.015316508
000120 cd 46 60 3b 1a 51 c4 bb 56 33 ba bc ff fe 46 3c
       0.0034221888 -0.0059911134 -0.022729557 0.012145757
000130 7b eb fb 3a 0d 1d 10 bb d2 9f 60 3c 6d 64 d0 3b
       0.0019219959 -0.0021989972 0.013709979 0.006359628
000140 15 ae a9 39 c6 6a c0 3c 74 2d 82 bb d1 93 a4 bc
       0.00032363893 0.023488414 -0.0039727036 -0.020090016
000150 92 ee 25 3d e7 4a 7f b9 bf 49 97 bc 22 44 df 3c
       0.04051072 -0.00024346598 -0.018467782 0.027254168
000160 87 67 a9 39 dc 9c f0 38 74 97 2a bb f0 11 12 bb
       0.00032311326 0.00011473309 -0.0026030215 -0.0022288524
000170 b4 73 49 bb d0 43 05 bb e9 c1 e6 ba 8a db 0c bb
       -0.003073913 -0.002033461 -0.0017605397 -0.002149316
000180 32 06 37 ba 69 a8 4e ba 5f 73 c8 ba 3c b2 0e bb
       -0.0006981819 -0.00078833714 -0.0015293172 -0.0021773716
000190 ae 8c 96 bc 29 20 be bc 18 f3 77 3a 5d dd 91 bc
       -0.018377628 -0.023208695 0.0009458526 -0.01780575
0001a0 87 93 fa bc 33 84 5a 39 55 fb cd ba e5 1b d3 ba
       -0.030587925 0.00020839348 -0.0015715162 -0.0016106336
0001b0 9d dd 6f bb e4 22 0d bb 42 a5 22 ba 74 e9 fb ba
       -0.0036600598 -0.002153569 -0.0006204435 -0.0019219355
0001c0 02 98 89 bc fd f9 97 bc 5e 41 e2 ba d7 ef 83 ba
       -0.016796116 -0.01855182 -0.0017261913 -0.0010065985
0001d0 12 be 1c bb 4b b3 4d bb 56 b2 de bc be 3f ac 3c
       -0.0023917002 -0.0031387385 -0.027184647 0.021026488
0001e0 a8 cc ab bc 25 18 33 bd 9d b0 cb ba e9 df 14 b9
       -0.020971611 -0.043724198 -0.0015540306 -0.00014197793
0001f0 41 bd 07 3a 02 6b ae 37 a5 b3 5e bb 91 f0 21 bb
       0.00051780423 2.0792246e-05 -0.0033981588 -0.002471004
000200 c5 5d 5a 3c b0 6b 4f bb 13 20 4f bb e3 14 6d 3c
       0.01332802 -0.003164988 -0.003160481 0.014470312
000210 5a 7f 99 bb ee 19 7c 3c 81 7b 63 3c 2d 15 02 bb
       -0.004684371 0.0153870415 0.013884426 -0.0019849048
000220 3c 82 07 bc 61 c1 3d bd 4b 76 4f 3d 7c d4 d9 3c
       -0.008270796 -0.046327 0.050649922 0.026590578
000230 4f 18 da bc 44 30 fb 3b a4 f2 80 39 ed fd e3 bc
       -0.02662292 0.007665666 0.00024594844 -0.027831042
000240 7b 4a 71 bc d7 31 a1 bc dd 90 ef 3a a9 ce 97 bc
       -0.01472723 -0.019677086 0.0018277426 -0.01853116
000250 2f d2 e4 bc 6b b3 a2 bc a5 39 93 b9 07 4e 88 bc
       -0.027932255 -0.019860944 -0.00028080973 -0.016638769
000260 d3 61 24 3b f0 df ae bc fc c1 05 bd df 19 05 bd
       0.0025082722 -0.021347016 -0.0326557 -0.032495376
000270 c2 d5 6a bc dc fb f3 bc 11 dc ee bc 4c 49 0f 3b
       -0.01433319 -0.029783182 -0.02915767 0.0021863757
000280 8a f1 8b 3a e4 de 97 bb 02 7c 71 ba f0 f6 ad bb
       0.0010676843 -0.004634725 -0.0009211899 -0.0053089783
000290 fc db 88 bb 5e 1d 0f 3c 48 24 06 3b cb ca 0a 3a
       -0.004176615 0.008735029 0.0020468403 0.0005294501
0002a0 07 70 a1 3b fb 74 69 39 b7 36 4d ba 5a 19 bf 3b
       0.004926685 0.0002226419 -0.00078282825 0.0058318796
0002b0 eb cb 49 bc 58 fb 51 3a cc b7 cc 3c 30 19 a5 3c
       -0.012316684 0.00080101704 0.024989985 0.020153612
0002c0 59 54 5f bb a1 c5 8a 3c cf b0 5b 3c 8f 44 78 bc
       -0.0034077375 0.01693994 0.013408854 -0.015153064
0002d0 19 ac d2 bc 67 21 e5 bc 93 a6 c8 3a e4 79 be bc
       -0.025716828 -0.027970029 0.0015308432 -0.023251481
0002e0 68 27 4f ba d6 d6 3a ba 4c f8 e5 bc e6 2d 88 bc
       -0.00079022953 -0.000712735 -0.028072499 -0.016623449
0002f0 c0 a9 19 3b 16 4e 86 3a 44 5a dd bc a2 94 46 39
       0.0023447126 0.001024666 -0.027020581 0.00018938122
000300 d3 11 b4 ba 86 d7 60 ba 90 2b 77 bc 2e e6 88 3b
       -0.0013738222 -0.00085770374 -0.01508607 0.00417783
000310 e2 d1 30 3b e6 02 37 3b 07 e2 2b 3b 3f 9b 32 3b
       0.0026980569 0.0027925312 0.0026227252 0.0027253178
000320 6f 43 76 3b 55 51 ff ba 69 0e ca ba db 21 0d 39
       0.0037576815 -0.0019479195 -0.0015415672 0.0001345942
000330 a6 a9 42 3b 8e d9 51 3b 17 b7 8d 3b 26 69 69 bc
       0.002970317 0.0032020542 0.0043248045 -0.014246261
000340 eb 6e 39 3b 07 c9 4f 3b f7 66 8e 3c f6 47 3b bb
       0.0028294872 0.0031705515 0.017383082 -0.0028576828
000350 c8 e3 76 bb c8 0d 77 ba b6 c2 ae b7 f9 e8 02 3b
       -0.003767239 -0.0009424356 -2.0833086e-05 0.0019975288
000360 b1 0e 87 bc 84 61 66 3b 48 25 c9 3b ea 60 4c bb
       -0.016486498 0.0035153339 0.0061384775 -0.0031185695
000370 be 1a 7d ba 2d 71 e1 3a c7 e9 56 bb 07 ba 5f ba
       -0.0009655169 0.0017199867 -0.003279315 -0.0008534495
000380 2b 4a b7 bc d5 26 9f 3b e3 aa c3 3b 0c 7c c9 3b
       -0.022374233 0.004856924 0.005971299 0.0061488207
000390 c0 4c 81 bc 5b c4 82 bc 78 f2 a2 bc 97 7b 53 3b
       -0.015783668 -0.01596277 -0.019891009 0.003226971
0003a0 ff 7e 51 bc 98 b2 b1 bc 07 89 44 bb bf 5c 51 bb
       -0.012786626 -0.021691605 -0.0029988901 -0.003194615
0003b0 3c 13 44 bb a7 b7 61 ba 72 16 7c ba 51 66 90 ba
       -0.002991869 -0.0008610435 -0.0009616382 -0.0011016821
0003c0 9e de ae ba 2b 51 41 39 5c 8e 2c 3a 72 9d 15 3d
       -0.0013341492 0.00018436152 0.00065824925 0.036527105
0003d0 dd 3b e2 3c cb 1a a6 3b 14 fb 0f 3c 61 8a 85 bc
       0.027616436 0.005069112 0.008787889 -0.016301336
0003e0 33 a7 8b bc d6 cd 0c 3c d7 66 ab 3b da 85 cb 3b
       -0.0170475 0.008593997 0.0052307653 0.0062110247
0003f0 e3 9f 14 3d 46 2c b3 3c 27 20 a1 3c 52 e3 e4 b9
       0.036285292 0.021871697 0.019668652 -0.00043656916

tfeb.12.weight f4 [22]
000000 a0 35 67 3e 2d 17 30 3e b5 c7 5e 3e 5d f2 50 3e
       0.2257905 0.17196341 0.2175587 0.20404954
000010 36 1a 66 3e cc 62 41 3e 54 19 20 3e 87 5e 8a 3e
       0.22470936 0.18885344 0.15634662 0.27025244
000020 a1 d2 35 3e 57 24 ef 3d 8b d3 3c 3e 71 21 38 3e
       0.1775613 0.11676853 0.18440072 0.17981507
000030 50 b3 15 3e 31 3e 07 3e 72 dd 13 3e bc a0 28 3e
       0.14619184 0.13207318 0.14439943 0.16467565
000040 b4 80 05 3e 72 84 84 3e 14 4f 36 3e 33 a7 49 3e
       0.13037378 0.25882298 0.17803603 0.19692688
000050 7c 1f 2a 3e 8e 6a 1f 3e
       0.16613573 0.15567991

tfeb.12.bias f4 [22]
000000 2c db 1d be ff 1a 6f 3b 1f f6 e4 bc 25 90 22 bd
       -0.15415639 0.0036484597 -0.027949391 -0.03968825
000010 43 47 d9 bd 53 25 0d bd 9f a7 de 3b 6c 44 e0 bd
       -0.10609295 -0.034459423 0.0067948843 -0.109505504
000020 d8 51 12 be 08 35 1f bc 70 2a 5f bd 8f 96 aa bd
       -0.14289033 -0.0097172335 -0.05448383 -0.08329498
000030 1a 68 44 bd 8c 23 93 3d 4c c5 d9 bd eb 13 8e bd
       -0.04795084 0.071845144 -0.106333345 -0.06937393
000040 f6 25 d8 3c 76 8d 81 bd 24 62 0c be 0f 87 46 bd
       0.026385289 -0.0632581 -0.13709313 -0.048468646
000050 cf 4f de bd 75 86 1d bd
       -0.10855066 -0.038458306

tfeb.12.running_mean f4 [22]
000000 e5 0f a2 bc 06 5f e6 bc b3 54 24 bd 53 e2 12 3a
       -0.01978297 -0.028121483 -0.040119838 0.0005603183
000010 98 e5 15 3c f4 e0 ab bc 71 fb 10 bd 67 c5 8b bd
       0.009148978 -0.02098129 -0.035396043 -0.06824761
000020 77 3c 77 bc 71 68 50 3d 9c 96 00 bd 94 20 08 3d
       -0.0150901 0.050880853 -0.031393632 0.033234194
000030 2e f2 9f 3c c4 ec f4 bc 0e 44 24 bc 67 36 6d bc
       0.01952466 -0.029898055 -0.010025991 -0.014478303
000040 ad 5a 78 3d 27 5a f6 bc 11 66 fc bc ae 46 91 bd
       0.06063335 -0.030072285 -0.030810388 -0.07093559
000050 ef fd 80 3b 8f ce 72 3c
       0.0039365212 0.014819755

tfeb.12.running_var f4 [22]
000000 66 fe 0e 3a 58 45 c0 3a 91 d9 df 3a 7f 09 b5 3a
       0.00054547784 0.0014669104 0.001707839 0.0013812034
000010 a4 fd 11 3a bc 53 35 3a a9 c2 05 3b 07 fc 15 3b
       0.00055691064 0.00069170794 0.0020410216 0.0022885816
000020 e2 7d db 39 0d 68 1d 3b 9d 34 72 3a 9d 41 b7 3a
       0.00041864725 0.0024018318 0.00092394074 0.0013981346
000030 56 78 31 3a b0 d0 00 3b 14 43 73 3a aa 2d fa 39
       0.00067699456 0.0019655637 0.000927971 0.00047717738
000040 50 86 1b 3b f3 97 40 3b 63 d1 fc 3a 94 f5 91 3b
       0.002373118 0.0029387444 0.0019288476 0.004454324
000050 19 00 e1 3a e6 6b b8 39
       0.0017166167 0.00035175605
