refine_codes/retrained_models_after_pruned/retrained_model_20240124123209_from97.7_acc_95.45455169677734_795th_epoch.pt (torch, 595798 bytes, 62 tensors)

sfeb.0.weight f4 [5, 1, 1, 9]
00000000: 5a3d 123e 7601 613e cdb3 b83d 1bc8 453f
00000010: 2f50 5ebe 52fe 9cbe a1d6 bbbe 93c0 dfbd
00000020: c947 49bd a9a2 343e 2d18 103d 711c e23b
00000030: 87c0 7dbe 3c36 1cbd 5f4c 69be fdaa 263e
00000040: f627 b03c 900c d5be e0dc fabe 6e13 10bf
00000050: eaec d23c 6b92 133f d09b b73d 3216 923e
00000060: 8916 86be 8bbf 883c f8e9 ae3d 32be ec3d
00000070: d541 f53d 8bff 77be a878 c23e ae96 5cbf
00000080: ee9a 333f 0fbb db3d 357b 78bf a29d 063f
00000090: 3629 18be 0db7 55be fa4e 14bd 0296 633e
000000a0: 9b76 a93d 4db3 923d 484e 8abe 75eb c23d
000000b0: 0470 143f
0.14281216 0.21973214 0.09018669 0.7725846 -0.21710275 -0.3066278 -0.36687186 -0.109254025
-0.049140725 0.17640175 0.035179306 0.006900363 -0.24780475 -0.03813766 -0.2278304 0.16276164
0.02150343 -0.41611147 -0.4899664 -0.5627965 0.025747735 0.5764529 0.08965266 0.2853256
-0.26189068 0.016692897 0.0854072 0.115597144 0.11975447 -0.24218576 0.37982678 -0.8616742
0.7015828 0.10729038 -0.97063 0.5258428 -0.1485947 -0.2087061 -0.03620813 0.22225192
0.08274575 0.07163105 -0.2701285 0.09517566 0.5798342

sfeb.1.weight f4 [5]
00000000: 91f3 433f f60e 023f 52ac 243f 2f0c 103f
00000010: 0093 043f
0.7654353 0.5080408 0.6432544 0.5626859 0.51786804

sfeb.1.bias f4 [5]
00000000: fda9 873d b87c 253d 7fdc 053f fe60 1b3f
00000010: 41a8 a53d
0.066242196 0.040402144 0.52289575 0.60694873 0.080887325

sfeb.1.running_mean f4 [5]
00000000: 11bc 9c39 2d5a 6cba 7cd2 d4b9 6582 61b9
00000010: 9b5e 2e3a
0.0002989476 -0.0009016123 -0.00040592614 -0.00021506248 0.00066516706

sfeb.1.running_var f4 [5]
00000000: f7b2 103d a9b0 253c dc85 413d 2c6c e63b
00000010: c816 853c
0.035326924 0.01011292 0.0472468 0.007031938 0.016246215

sfeb.3.weight f4 [32, 5, 1, 5]
00000000: bbfc bdbd b9c7 e8bc 314c 45bd 5357 29bb
00000010: 1a96 9d3b bf5c ee3c 0d37 933d 55bd da3d
00000020: 8ad4 473e 3412 163e f6b4 1f3d 6385 913d
00000030: e2f5 423d f05f 74bd f934 0f3c 5b0e 52bd
00000040: cb19 cabc 898c 543a fe32 f1b9 8abd 85bc
00000050: 9dcc 31bd 7524 4b3b 4b51 2b3b 513f be3c
00000060: bc91 303d 1ee8 b8bc 50bb ab3a d4eb d53c
00000070: c63c 33bd 2aaf c7bd 2b79 e1be 7f64 a7be
00000080: b89d 59be 24c2 26be fea5 0dbe d1ad 10be
00000090: 16ec 5ebe 94a5 abbd d361 13be 8074 d0bd
000000a0: 3897 10bc e5bb 643a f249 07bc 8f2b 1abc
000000b0: a457 bcbb ae33 3c3e ded4 713e 0a63 4c3e
000000c0: e6b1 803e 56c8 8c3e 7df0 5bba c6d8 f8bc
000000d0: e684 c7bd 11ce 99bd 8576 60bd 715d ea3c
000000e0: 31c7 b03d 9410 8f3d dece ba3d 575f bc3d
000000f0: d193 a3bc f324 52bb 17fd 5dbd e49c cd3a
00000100: 9bea 1ebb 7833 d33c 3fe8 ab3c 8f32 4439
00000110: 2a1b 10bd 7768 013c 8f22 01bb cc24 4dbb
00000120: fd1c 32bd 9a65 8bbc 14b4 51bb f062 76bd
00000130: 9da1 30be 3d63 89be f436 13be cb48 f6bd
00000140: 5850 d7bd aa16 3c3c 3a19 bebd 5f49 dabc
00000150: 6109 c13d bdcd 873e 7307 1c3e 80a9 9e3d
00000160: 4e47 b0bc 68a1 33bd 7226 9cbd f182 69bd
00000170: c6c3 11bc e016 4bbb e2f9 e03c 012c 90bc
00000180: da9d dd3d f074 3c3d fd42 5a3e f70d 8e3e
00000190: 6c4d 8b3d dee7 1a3e 0050 d03d 8710 d23c
000001a0: 5731 30bb 5789 02be cb7e dd3b 5b19 0c3e
000001b0: 0e31 433e 9700 383e 91c3 d4bd 975d 2fbe
000001c0: 5ebc 15be 2670 e4bd 7892 a9bd dc4a 83bc
000001d0: 8347 a7bc 902e 6d3c 22a1 40bc 91c6 92bc
000001e0: 2b8f 4f3b 6985 78bd dd31 c6bd 4165 babd
000001f0: e94a dbbd d8a9 373c 41e5 8cbd b52d 39bd
00000200: 55a1 adbd 8f9d bbbd 7b6b d4bb fc5a ddbb
00000210: 37a7 abbd 20b0 f5bd baec efbd a721 cabd
00000220: f8da b7bd 8483 b23b 31a9 9a3c 6480 e0bb
00000230: dcf1 24bc b065 4abd 43ec fcbc a69c 01bb
00000240: 3448 1a3b c2bc a3bd 4732 a4bd 4654 f0bc
00000250: dabd 353d 936e 183e b75e 45be b143 00be
00000260: ac0a b2bd b2a2 f7bd 989e a63a 85a3 fabd
00000270: 8764 ccbd 9b8c 68bd 2c0e d83c 13cc 573e
00000280: 94ce 893d bcf0 5abc d8fd 34bd aaa9 afbb
00000290: 481f 9c3a 5d7a 133d 7585 0b3c b6cb 343c
000002a0: 3f85 d93c 1d9f a6bd cdeb 74bc 947d 46bd
000002b0: 5960 acbd 383e 00be e1e4 05be 385a b93d
000002c0: 396a 8e3c e9d3 79bd e76c dcbd d6cc a9bc
000002d0: 50b6 85bd 4ea6 ecbc cd13 6a3d b96f 463d
000002e0: 45d2 27bc 5f6f 7d3b b036 8cbb 0413 2dbd
000002f0: a131 b4bd 7fa1 a9bc dcab 5b3e 7ddb 643e
00000300: ef4e 8abd 093b 54be 2717 00be c10e 303b
00000310: ace8 0c3d b523 ffbc ec69 0abc 3c9b 613d
00000320: d8c2 4bbe 6321 64bd a14f 96bd d58d 153e
00000330: 8db0 d23d e597 01bd 14b6 473d 12b5 80bd
00000340: 07ee 91bd efce ccbc 5005 ff3b 1d1c 843d
00000350: d7ab d33d 9759 ed3d 9ded cbbd da04 babe
00000360: 36e9 a6be 2f29 dc3d dcf1 af3e 6223 db3d
00000370: af5c a1bb 1a11 053d 4c87 8a3d dbe9 6abb
00000380: 3ee0 a3bb de52 46bc 60ab 763c b71c f0bd
00000390: bcd0 233d eb78 96bd ab57 63bd 2b31 903d
000003a0: 1425 28be 0836 e33d 7ddf 09bd 1a22 a73d
000003b0: 3098 51be f7ef 0a3e b01c 84bd 8860 7ebd
000003c0: 4c65 8d3e 142e 28bf a9f4 bf3e 5c34 263c
000003d0: dce2 4ebe 9e7f 27bc 57cd f5bd f1f1 283e
000003e0: 6615 0dbe 49cb bf3d 0c07 5dbd 94a0 a3bd
000003f0: c1a8 a53d 1a15 e5bd 0d9e 863d 6728 8abd
-0.0927672 -0.028415548 -0.048168365 -0.0025839403 0.0048091533 0.02909696 0.071882345 0.106806435
0.19514671 0.14655381 0.038990937 0.071055196 0.047597773 -0.059661806 0.008740657 -0.05128322
-0.024670502 0.00081080996 -0.00046005094 -0.01632573 -0.043408025 0.0030997072 0.0026140984 0.023223551
0.043107733 -0.02257162 0.0013102088 0.026113428 -0.04375913 -0.09750207 -0.44037756 -0.3269386
-0.21251571 -0.16284996 -0.13832852 -0.14128806 -0.21769747 -0.08381191 -0.14392786 -0.101784706
-0.008825116 0.0008725508 -0.008257376 -0.009409799 -0.0057477523 0.18379089 0.23616359 0.19959655
0.25135726 0.27496594 -0.00083900226 -0.030376803 -0.09742145 -0.07510007 -0.05480053 0.02860901
0.08631743 0.06985584 0.09121488 0.09197872 -0.019967945 -0.003206548 -0.054196443 0.0015687016
-0.0024248722 0.025781378 0.020984767 0.00018710851 -0.035182156 0.0078984415 -0.0019704436 -0.003130245
-0.043484677 -0.01701622 -0.0031998204 -0.060152948 -0.1724915 -0.26833525 -0.14376432 -0.12025603
-0.10513371 0.011480013 -0.09282155 -0.026646314 0.09425617 0.26524153 0.15237217 0.07747173
-0.021518376 -0.0438551 -0.0762452 -0.05700964 -0.008896774 -0.0030988976 0.027462903 -0.017599108
0.108211234 0.046009958 0.21314617 0.2774503 0.068018764 0.15127513 0.10171509 0.025642646
-0.0026884878 -0.12747703 0.0067594997 0.13681547 0.19061682 0.17968975 -0.10388864 -0.17125545
-0.14622638 -0.11154203 -0.0827989 -0.016026907 -0.020419842 0.014476433 -0.011757167 -0.01791695
0.0031671028 -0.060674105 -0.096774794 -0.09101344 -0.10707647 0.0112099275 -0.06879664 -0.045209605
-0.08478037 -0.09160911 -0.006482539 -0.006755231 -0.08381503 -0.11996484 -0.11715074 -0.098697
-0.08977312 0.005447807 0.018879505 -0.006851243 -0.010067429 -0.049413383 -0.030874377 -0.0019777208
0.0023541572 -0.07994987 -0.08017402 -0.02933706 0.04437051 0.1488593 -0.19274412 -0.12525822
-0.08693442 -0.120915785 0.001271206 -0.1223822 -0.099801116 -0.056774717 0.026373945 0.21073942
0.06728855 -0.01336306 -0.044187397 -0.0053608017 0.0011911178 0.036005367 0.008515705 0.011034897
0.026552795 -0.08135817 -0.014948797 -0.048459604 -0.08416814 -0.12523735 -0.13075592 0.09050411
0.017384635 -0.06099311 -0.10762959 -0.020727556 -0.06528914 -0.028887894 0.05714779 0.04844639
-0.010243003 0.0038671119 -0.00427898 -0.042254463 -0.087985285 -0.02070689 0.21452278 0.22349353
-0.06753337 -0.20725645 -0.12508832 0.0026864263 0.03440158 -0.031144956 -0.008448105 0.055079684
-0.19898546 -0.055695903 -0.07339407 0.14604886 0.10287581 -0.031639 0.048757628 -0.062845364
-0.07125478 -0.025001017 0.0077826157 0.06450675 0.1033551 0.115893535 -0.099574305 -0.36331826
-0.325998 0.10750043 0.34364212 0.10700108 -0.004924379 0.032487012 0.06764087 -0.0035844955
-0.005001097 -0.012104718 0.015055507 -0.11724227 0.039993986 -0.07347282 -0.05550353 0.07040628
-0.16420394 0.1109429 -0.0336604 0.08160801 -0.20468211 0.13568102 -0.06450784 -0.062103778
0.27616346 -0.6569531 0.37491348 0.010144319 -0.20203727 -0.010223297 -0.12002056 0.16498543
-0.13777694 0.093649454 -0.0539618 -0.07989612 0.08088828 -0.111856654 0.065731145 -0.067459874

sfeb.4.weight f4 [32]
00000000: 3ddc 943e 8a62 783f 0bba 2d3e beb0 0e3f
00000010: 072a 1d3f 62a5 6a3e 297a 8d3e 0884 ce3d
00000020: d756 f93e bccf 203f 4dc9 e83e 325d f03e
00000030: 90c0 013f 289c c63e 8baa 903e 947f da3e
00000040: 54c6 1e3f 80ed 643e 4b5c ae3e 6ff8 933e
00000050: 14cd 863e 28d8 023f 0726 be3e db86 e23e
00000060: b134 1f3f 562d 293f 5cf7 703e 72d8 143f
00000070: 678c ab3e 1329 bc3e f01b d93e f7d0 463e
0.29074278 0.9702536 0.16965501 0.5573844 0.61392254 0.22914651 0.27632263 0.10083777
0.48699066 0.6281698 0.4546608 0.46946102 0.5068445 0.38791013 0.28255114 0.4267546
0.62021375 0.22356224 0.3405479 0.28900477 0.26328337 0.5111108 0.37138388 0.44243512
0.62189776 0.660848 0.2353186 0.5814277 0.33505556 0.36750087 0.42404127 0.19415651

sfeb.4.bias f4 [32]
00000000: dff8 8bbd 8cfa 97bd 00fc dd3b 0988 fdbc
00000010: cbfe 79bd fc23 41bd 7525 babd a924 7c3d
00000020: 55ac a7bd f065 58bc b86a 90bc b4a9 d23c
00000030: e224 953c 58ab 88bc c6c8 a53b 27a4 303c
00000040: 2e60 e33a bb81 863c 22d0 55bd 59c6 36bd
00000050: 0ad6 36bd 13b0 95bd 553c 11be fec6 433d
00000060: 9c50 413d 3eab 08bc 47dd 7bbd 4b7b 16bd
00000070: c220 3fbd d487 94bd 07e5 2fbd a9a2 383d
-0.06834578 -0.07420835 0.0067744255 -0.030948656 -0.061034005 -0.047153458 -0.090891756 0.0615584
-0.081871666 -0.013207898 -0.017629012 0.025715686 0.018206064 -0.016683266 0.0050593344 0.0107813245
0.0017347389 0.016419282 -0.052200444 -0.044622753 -0.044637717 -0.07308974 -0.14183171 0.047797196
0.047196016 -0.008341609 -0.061490323 -0.036738675 -0.0466621 -0.0725247 -0.042943027 0.045077

sfeb.4.running_mean f4 [32]
00000000: 7fe8 5a3d afd7 e1be 3414 3cbd b415 cd3d
00000010: 1081 a4be 210b 89be f18d 3fbe 8eba 92bd
00000020: c6ff 663b 62c1 74be 9a2d 09be 6aa5 e3bd
00000030: 5d6b 05be e1c5 71be fb35 84be 684c 1ebe
00000040: b6e3 d4bd 7833 26bd 46c2 b4bd 7932 e2bd
00000050: dd07 66be f1d7 52be ce5c 4ebe c898 2dbd
00000060: ef3b 373e 6948 21be 58e8 1d3c 98fb 573e
00000070: 105a fabd 182b 6bbe 20db a0bc 4a11 34bd
0.05344438 -0.44109866 -0.045917705 0.10013905 -0.32129717 -0.26766303 -0.1870649 -0.07164489
0.0035247668 -0.23901895 -0.13396302 -0.111155346 -0.13029237 -0.23610641 -0.25822434 -0.15458834
-0.10394995 -0.04057643 -0.08826117 -0.11044783 -0.22463937 -0.20590188 -0.2015259 -0.04238203
0.17893957 -0.15750279 0.009637915 0.21092069 -0.12224209 -0.22965658 -0.019635737 -0.0439618

sfeb.4.running_var f4 [32]
00000000: 772b 9e3c 71d2 133e 15d1 263c 375a 873d
00000010: 243a 7d3d 57a0 413d 022b 823d 78af 1d3d
00000020: 5dd2 e13d 879e 153e 21b8 f03d 7642 c73d
00000030: 1d60 b23d aaa7 df3c b841 803c 44f6 9e3c
00000040: 1d56 b13d 8fd6 743c 2ac8 833c d097 b63c
00000050: db77 e13c 6c63 a93d 04a4 3d3d 0018 3d3d
00000060: ed88 983d 3962 ed3d c116 f13c 4dd6 903d
00000070: 5376 883d 2e6a 0e3d d320 073d 321e f33b
0.019307835 0.14435746 0.010181685 0.06609004 0.061823025 0.047272053 0.06355859 0.03849742
0.11026452 0.14611255 0.1175387 0.09729473 0.087097384 0.027301628 0.015656337 0.019404538
0.08659003 0.014943733 0.016086657 0.022289187 0.027522972 0.08270916 0.046298996 0.046165466
0.074479915 0.11591 0.029429795 0.07072125 0.066631936 0.03476923 0.032990288 0.007419371

tfeb.0.weight f4 [9, 1, 3, 3]
00000000: f947 c4ba 7a0e c1ba be00 08bb 4424 63bb
00000010: 5a61 39bb 247e 66bb a4d1 b2ba 429d a03c
00000020: 8333 a4ba 42e4 01bf 3b09 d53d df60 4c3e
00000030: 1d0c 15bf 567b 023e 114e c93e dcaf 6fbe
00000040: 3cf9 8a3d 24cd 233e d3cd d53a e7ca e23a
00000050: e8bc a43a a82f 4bbb ba87 36bb d22b 56bb
00000060: 565b 833c f9d0 033d 482e 993c fdfc 373e
00000070: 92ee d33d a755 903d ca71 4fbd e088 22be
00000080: a2c4 96bd 5c58 51be e7fc 08be 14c5 1bbb
00000090: 9283 a2ba 7d3a 9b3c 1dcb e8ba fe3a 30ba
000000a0: 0f5c 51ba 332f 9aba 55a4 863c ee97 d63c
000000b0: dbae 57b9 8734 1c3d 6222 fe3d 76b1 b83d
000000c0: c7c2 a0bd 8c2a 9c3e 4889 a93c 844c a6bd
000000d0: 5c8e 093e 194c 283c 76b7 c6bd df4a aabd
000000e0: 74db fabd 6554 183d cb24 aabd 237c 243e
000000f0: deed a5bd 9faa e2bd 5a93 7ebd 8486 793e
00000100: 201a a73a b785 c8be 4acc 983e ba22 db3a
00000110: f995 acbe 6285 abbe 27ab 813d 84f5 5e3e
00000120: 77ce d7bc 6736 9ebc 3105 413d a17b d33a
00000130: e4b0 02b9 ba4f dd3a f31a f03a ef38 ba38
00000140: 8592 023b
-0.0014975063 -0.0014729046 -0.0020752396 -0.0034659067 -0.0028286786 -0.00351704 -0.00136428 0.019606236
-0.0012527559 -0.5073892 0.10402151 0.19958828 -0.5822161 0.12742361 0.39317372 -0.23406929
0.06785819 0.15996224 0.0016311951 0.0017302901 0.0012568505 -0.0031003747 -0.0027851895 -0.0032679928
0.016034763 0.032181714 0.018698826 0.17967601 0.10348238 0.07047587 -0.050645627 -0.15872526
-0.073617235 -0.20443863 -0.13377725 -0.002376859 -0.001239883 0.018948788 -0.0017760728 -0.00067226577
-0.0007986435 -0.0011763334 0.016435781 0.026195493 -0.00020569137 0.03813603 0.12408902 0.09018223
-0.07849651 0.3050121 0.020695344 -0.08120063 0.13433212 0.010272049 -0.09702961 -0.08315062
-0.122488886 0.03718986 -0.08307799 0.1606298 -0.0810201 -0.110677 -0.062152244 0.2436772
0.0012748875 -0.39164516 0.2984336 0.0016718723 -0.3370817 -0.335002 0.06331473 0.21773344
-0.026343567 -0.01931305 0.04712409 0.0016134867 -0.00012463663 0.0016884722 0.0018318578 8.879776e-05
0.0019923758

tfeb.1.weight f4 [9]
00000000: 0047 2c3d e631 6b3e 9d1b 923d aafb b53e
00000010: 7de3 5f3d 2f27 603e 4aba 0f3e 19e8 a13e
00000020: 6652 1d3d
0.0420599 0.22968253 0.07134173 0.35543567 0.05466031 0.21889947 0.14035907 0.3162239
0.03840866

tfeb.1.bias f4 [9]
00000000: e39b 69bd 2378 403e 5227 98bd 5b65 0f3c
00000010: 2d91 b4bd d612 2a3e 3499 163e 86d3 14bd
00000020: 6a86 e9bc
-0.05703343 0.18795829 -0.07429375 0.008752192 -0.088167526 0.16608748 0.1470688 -0.036334537
-0.028506476

tfeb.1.running_mean f4 [9]
00000000: 51a8 433a 8497 d3bd d084 c13c 1c50 d6bd
00000010: 80bd ad3c be62 5e3e 6278 2bbe 32f9 b8bd
00000020: 25ad 523b
0.0007463741 -0.10331634 0.0236229 -0.104644984 0.021208525 0.21717355 -0.16745141 -0.09031905
0.003214666

tfeb.1.running_var f4 [9]
00000000: 8b75 b338 b4d1 a83d 509b bf3a f972 a53d
00000010: a896 693a 99a4 b03d 6ef2 6e3d 924b 0d3d
00000020: 62e2 2039
8.557279e-05 0.08243123 0.001461843 0.0807857 0.0008910694 0.086251445 0.058336668 0.034495898
0.00015343123

tfeb.4.weight f4 [16, 9, 3, 3]
00000000: be4b 6eba e04a 61bb d363 0dbb 5037 9fba
00000010: a14d 58bb cd82 01bb 7f0a b4ba c699 30bb
00000020: 5fd9 0ebb 0661 65bc 5d45 9b3c 673c 53bc
00000030: 537f 2fbc d4fc 003d 5b96 5ebd 5bca 5ebd
00000040: 543d 723c 3e96 3fbc 4b6f 65ba d7f6 65bb
00000050: 0d52 65bb a1b1 dcba d93c 69bb dda3 30bb
00000060: 47a0 25bb 23e7 65bb 34a6 3ebb 2d83 463d
00000070: d7fe 2bbc 8cb3 96bd 4b6b 91bd bbe8 c83c
00000080: e51f 7a3d 0f89 ed3c 22ab e43c 8b07 5e3b
00000090: f8d7 2cba 221b 56bb 5f0f 88bb 566c 66ba
000000a0: 7bf1 59bb 00d1 42bb 3272 7eba 92df 10bb
000000b0: 76cf f8ba 9bbd 54bd 8afe a3bc 0077 8bbd
000000c0: 37e5 95bc d727 5f3d 7dbe f23c 2068 5bbb
000000d0: bb2e c13c 7288 8bbb 2978 623c 81f8 afbc
000000e0: e05d 813a 4349 2bbc a62e 13bd f578 f2bb
000000f0: 7d84 553c 89a9 13b9 1a8d aa3c 819f 70bb
00000100: eada 72bc 8a5b 5fbd 55cc 4dbc fbfe e9bc
00000110: 8a0f 2c3c ee62 f4bc ce95 34bc 46ee fcbc
00000120: 5811 60bb 7477 febb a356 3dbb b88b 29bb
00000130: e5c4 17bc f068 c7ba 4776 6eba 8c97 b2bb
00000140: e461 0039 81b0 1c3b da40 1d3b d9f5 fc3a
00000150: bb41 953a dfa6 d53a 58ec 9d3a 2371 7238
00000160: 7280 6539 1880 b539 99a2 ce3a c7db 523a
00000170: 3ff4 7cbc f591 263d 6a69 1a3d 4ddf 8639
00000180: bba1 bf39 b71b bc3a 9734 bcb9 8f3b 993b
00000190: 5931 8a3b 0aea 7a3b 35d0 493b c4e3 443b
000001a0: 8f7e 353b 9d6c 583a d52c 3c3a fb9a 683a
000001b0: 9841 87ba e29d fbba 51b8 83ba 3f6a 5a3b
000001c0: e844 a63c 7b31 593b 3a0e 1a3c 6b11 023c
000001d0: f10e 143c d74d 693b c128 563b 2e18 443b
000001e0: a827 523b 4414 4d3b 6474 363b b553 7b3a
000001f0: 9ac1 793a 4548 873a 7e1a 453c d5e6 383c
00000200: 8e4f 1f3c 8601 203c 9fc1 f53c 6a53 f33b
00000210: e8d7 053c b2c9 0b3c 6279 c73b ea26 ae3c
00000220: 1cfd bb3c 3f14 b73c 2a3f db3c 6bdb 003d
00000230: 413b d33c a725 243a d2ac 213a 28b5 d3b7
00000240: 07f7 7339 879b 183a b7d3 9bbc 7b5a 3b39
00000250: 5a6f 4e3a e3bb ce3a b0a7 21b9 0c5a 833a
00000260: 9305 173b 3b1a e639 e34a 953a 0b15 8439
00000270: 1fb4 443a e136 8f3a 6cb0 ba39 1710 a0b9
00000280: e8e8 7e3a b8af 89b9 866a 0bba 1782 bfb9
00000290: 12cc 3bb9 fa5b b7b9 4ac4 63ba 8e93 1039
000002a0: 4f40 b038 9865 a9b9 1df1 1d3a cabd dbbd
000002b0: b409 a4ba 2c4e 423d 93f7 21bd e134 67bc
000002c0: bcee b4bc 7e8c 663d d9c0 9abd fa36 243d
000002d0: b121 7dba 1131 803c 4e17 48ba 2d14 12ba
000002e0: 6f76 aeba 0311 9837 0af3 7139 61bd 5aba
000002f0: cd01 f039 9170 903d 956f 053c aeda b7bd
00000300: 8907 aebd dd7e 18bd 8dd1 a53d e288 a0bb
00000310: 6047 1cbd a819 27bd 77b9 58ba 679d 19ba
00000320: ca3f 04ba 1a15 1eba 93c2 61ba 54c4 aeb9
00000330: 2eaf 6539 00d7 18ba 6ce8 b539 bbfc 1fbd
00000340: 83e1 5cbd db24 a63b fecb 9dbd 2f48 97bd
00000350: e36e ac3b 68f9 373d 2c23 7ebb 087e cb3b
00000360: 6c2e f13c c47f 573d bc09 01bb 4715 0cb8
00000370: c26e 0a3b 4628 d3bc 3dd0 34bb aa4e 083d
00000380: eb83 083d 03f2 483c c531 aa3c f49e 1dba
00000390: 6ee4 8b3d 5901 7fbd f267 c1bc aaf5 9dbc
000003a0: eb69 903d a394 653b 5345 0a39 d6ab 35b9
000003b0: 4da2 c43a ed7b aab9 4c6e c9b9 0837 863a
000003c0: 9ea3 86ba e033 bbb8 e477 bf3a 4b46 e2b8
000003d0: 5133 2aba 0457 71b9 64a0 c5b9 925f 7fba
000003e0: 502f 12ba e10d 0e3a 29ac 123a 087b 4b3a
000003f0: ce2b 88bc ad6d b53c 96b7 40bb 38e1 a2b9
-0.0009090266 -0.0034376904 -0.0021574392 -0.0012147222 -0.0033005255 -0.0019761801 -0.0013736038 -0.0026947125
-0.0021797044 -0.014000183 0.018953973 -0.012892819 -0.010711509 0.031491116 -0.05434261 -0.0543922
0.01478513 -0.011693535 -0.00087522407 -0.0035089755 -0.0034991533 -0.0016837606 -0.0035589247 -0.002695314
-0.0025272535 -0.0035080395 -0.0029090764 0.048464943 -0.01049777 -0.073584646 -0.07100543 0.024525037
0.061065573 0.028996019 0.027913634 0.0033879008 -0.0006593461 -0.003266998 -0.004152223 -0.0008789947
-0.0033255506 -0.0029726624 -0.00097063475 -0.0022105915 -0.0018982727 -0.051938634 -0.020018835 -0.06809807
-0.018297775 0.054481354 0.029631848 -0.0033478811 0.023581853 -0.004258209 0.013822594 -0.0214808
0.0009869896 -0.010454479 -0.03593316 -0.007399673 0.013032076 -0.00014082169 0.020819236 -0.0036716165
-0.014822701 -0.054530658 -0.012560924 -0.028563967 0.010501752 -0.02983233 -0.011022044 -0.030875336
-0.0034190025 -0.0077657048 -0.002889075 -0.0025870632 -0.009263252 -0.0015213769 -0.0009096604 -0.0054501947
0.00012243498 0.0023908915 0.0023994953 0.0019299343 0.0011387387 0.0016300342 0.0012048585 5.7802663e-05
0.00021886991 0.00034618448 0.0015765011 0.00080436136 -0.015439092 0.04066654 0.037698187 0.00025724844
0.00036550857 0.0014351521 -0.00035897337 0.0046762894 0.0042173085 0.003828647 0.0030794267 0.0030042985
0.0027693843 0.0008255931 0.00071783114 0.00088731915 -0.0010319231 -0.0019196833 -0.0010049437 0.0033327488
0.020296529 0.0033141065 0.009402806 0.007938723 0.009036765 0.0035599375 0.00326781 0.0029921639
0.0032067094 0.0031292597 0.002784037 0.00095873635 0.0009527445 0.0010321221 0.012030242 0.011285503
0.009723557 0.009765988 0.029999552 0.007425715 0.008169152 0.008531975 0.006087468 0.02125879
0.02294784 0.022348521 0.026763517 0.031459253 0.02578509 0.0006261714 0.0006167415 -2.5237518e-05
0.00023266311 0.0005821515 -0.019021852 0.00017867416 0.0007874869 0.0015772547 -0.00015416625 0.0010021343
0.0023044094 0.00043888562 0.0011390116 0.0002519268 0.0007503647 0.0010926389 0.0003560813 -0.00030529566
0.0009724037 -0.00026261597 -0.00053183024 -0.00036527283 -0.00017909732 -0.00034973008 -0.0008688612 0.00013787879
8.4043124e-05 -0.00032309885 0.00060250034 -0.10729559 -0.0012515099 0.04743783 -0.039542746 -0.014111728
-0.022086494 0.056286328 -0.07556314 0.040091492 -0.00096562045 0.015648397 -0.0007632867 -0.00055724644
-0.0013310442 1.8127734e-05 0.0002307409 -0.00083442597 0.0004577771 0.0705272 0.008144279 -0.08977257
-0.08497531 -0.03723036 0.08096609 -0.00489913 -0.038154006 -0.040795952 -0.00082673825 -0.00058599416
-0.00050449057 -0.0006030366 -0.00086120627 -0.00033334142 0.00021904401 -0.00058303773 0.00034696178 -0.039059382
-0.053926002 0.0050703115 -0.07704924 -0.07386815 0.005262242 0.044915587 -0.0038778288 0.0062100925
0.029441081 0.05261208 -0.001968964 -3.3398417e-05 0.0021123146 -0.02577604 -0.002758994 0.033278145
0.03332893 0.012264731 0.020775685 -0.00060127606 0.06830679 -0.062257145 -0.023609135 -0.01928218
0.07051452 0.0035031221 0.00013186531 -0.00017325519 0.0015001983 -0.0003251726 -0.00038419885 0.0010239789
-0.001027215 -8.926517e-05 0.0014607874 -0.00010789613 -0.0006492632 -0.00023015967 -0.00037694268 -0.0009741719
-0.0005576508 0.0005418938 0.0005595112 0.00077621685 -0.01662245 0.022147024 -0.00294063 -0.0003106685

tfeb.5.weight f4 [16]
00000000: 48fe 943e e138 e13d f66f f73e 3685 343e
00000010: 8232 c83e dff1 503e 9f60 693e 0bab eb3d
00000020: 79df 093e 7eb7 d73d 2491 a53e af86 643e
00000030: 7dd0 533e 6a9d d03d c9e9 563e 8747 bc3d
0.2910025 0.10997177 0.48327607 0.17628941 0.39101034 0.20404766 0.22790764 0.11507233
0.13464154 0.10533045 0.32337296 0.22317003 0.20685 0.10186274 0.2098762 0.0919333

tfeb.5.bias f4 [16]
00000000: adde e5bc 9b15 e6bd 7fcf 20be d0b8 99bb
00000010: b6eb 1dbe c711 433d 3812 84bc fde6 303c
00000020: b334 973d 8a3c 483c c045 c4bd a6a5 a13a
00000030: 7cb5 6d3c 6c8b 68be 1863 e5bc 4adf 0bbd
-0.028060282 -0.1123459 -0.15704153 -0.004691221 -0.15421948 0.047624376 -0.016121969 0.010797259
0.073830985 0.012221465 -0.09583616 0.0012332692 0.014508601 -0.22709435 -0.028001353 -0.034148492

tfeb.5.running_mean f4 [16]
00000000: 5873 57bd c58d 9b3d 053e 84bd fb3e 83bd
00000010: 87d4 a5bd 6b54 3dbd d1f8 6bbd c5fc 52bb
00000020: 3b81 31bd 4c5c c2ba bf29 69bd fdd8 0bbd
00000030: c89f b2bd 9cab 393d ef77 8ebd a77c 9cbc
-0.052600235 0.075954 -0.06457142 -0.06408497 -0.08097177 -0.046223085 -0.057610337 -0.003219412
-0.043336134 -0.0014828532 -0.056924578 -0.034142483 -0.08721882 0.045329675 -0.06956469 -0.019102408

tfeb.5.running_var f4 [16]
00000000: 511c 103b dffa 6e3a 487b cb3b d865 6c3b
00000010: a043 ba3b c48c 773b 331b 143b 2734 3a3a
00000020: 99a7 603b 8196 2d3b 02a7 983b 192f 403b
00000030: b10b 0c3b 9a56 f539 0460 fd3a b585 7539
0.0021989534 0.0009116362 0.0062097646 0.0036071446 0.005684331 0.0037773112 0.002259922 0.0007103108
0.0034279583 0.0026487412 0.0046585808 0.0029324947 0.0021369273 0.00046794565 0.0019330983 0.0002341483

tfeb.7.weight f4 [23, 16, 3, 3]
00000000: ed47 643a 4c78 803a 1595 083c 1555 afbc
00000010: 3c68 f93b 2b39 fb3c 7b3d 88bc c54e 473b
00000020: d3c5 373b 54aa 953a 3538 6db8 9762 023b
00000030: 70cc a739 07e3 d83a c0a8 bd3b d428 d1ba
00000040: 7e7e 583a 8f9a 2c3b 6062 823b 65bf 8f3b
00000050: dd35 8b3b 89b2 303b e858 aa3b 7c81 893c
00000060: 9f32 803b 90a7 8bbc 3013 353b af01 07bb
00000070: 7cd9 f6b9 2cf3 fd3a 70d4 0a3a 3355 6dba
00000080: 3c8b 703a aa9e 3839 89a5 d2ba 06c2 853a
00000090: 5b70 733b 7269 2a3b b959 e13a 4bdb 723b
000000a0: ac5d 6c3b 8e32 1f3b f578 f6ba 33e0 d33a
000000b0: bc62 ccb9 1701 393b d2b2 243b c080 073c
000000c0: ac30 deba 0326 cc3a 799e 813b a551 a9ba
000000d0: 5b30 243b e6c3 a93b 0716 083b 1b66 893a
000000e0: 30fe 7c3a 7a49 023b 155f d73a 892c 403a
000000f0: bae3 003b f0d2 053b 344b d03a 5007 5b3a
00000100: 0a14 7c3b 43d4 f63b 02d2 9039 75a5 d73a
00000110: b09a 2f3b 6a33 c53a 3d55 9339 fac9 193b
00000120: 1946 c73c f6f8 bc3c fa17 9b3c fa0b a53c
00000130: ce92 9c3c e950 b63c cde4 c9ba 2b1a 0eba
00000140: d59a 7e3c ecd0 a43a ff2d 923a c0cd 1d3b
00000150: cb81 fb3a d8d9 503a bd7f 573b 9634 0c3b
00000160: 8d21 133b 8f6b a13b 9eed a53a 36ef 883a
00000170: 584e 783b d437 363a b3da e63a 4fd1 833b
00000180: 0195 bb3a fc12 9eba 17f0 133b f040 133a
00000190: 574b 053a bf5a c637 59c7 313b 53ea 4e3b
000001a0: c4b8 a93a 78e5 503a bb3d 4f3b 06c5 853b
000001b0: d60a 80bb add8 5e3b 8c7a a63c d279 9e3c
000001c0: 7cc8 c93c 88ed bc3c 3bc9 98bb 16f7 6bba
000001d0: a6d4 44bb d5fd 6cbb d1a2 deba 1dec c8ba
000001e0: c0d3 26bb 8164 54ba 4866 2bba d0b4 9dba
000001f0: b094 e5b9 5947 23ba c91e fe3c 6bd6 833c
00000200: 05b3 f939 6f26 ef3c 35af 853c b13e a93c
00000210: 2bb0 8c3a e6e3 fd38 21d0 813a 0b6c 43bb
00000220: ce0d 02bb 884e b93a 929d 8abb 584e 9bba
00000230: 03d7 383a 51fe b0bb d9c5 81bb 5194 48bb
00000240: c580 773c d900 993c 7c2c 8d38 0368 1dbb
00000250: 2669 c6bb 6884 8b3b 47fb 863c c905 66bb
00000260: 4ead 82bc dd21 cd3a 5126 f13a 443f e0b9
00000270: db2a bfb8 512e 40ba eaac c239 0628 1f3a
00000280: 4bf4 6bb9 75f1 363a 439c d03c 8f23 b03c
00000290: cb64 073d 1ecf 903b af00 82b9 5bb2 5eba
000002a0: f165 7c3b 3810 a43b 2ebb da3a 63a5 d13c
000002b0: 7150 0ebb bf59 8db9 205f 7bba eb2c 87bb
000002c0: 13e8 b9ba 4322 c33c 934c 91ba 97e0 fe39
000002d0: 31c9 a0bc 3307 333b 3baa 83bc 85a4 ec3a
000002e0: 5099 353b aece adbc 104d 3839 cd11 b338
000002f0: f8fd 96bc 1f31 073c 5060 3a3d 8986 3f3d
00000300: da8e ca3c c5cf 0e3d aa99 b43b 14cf 203d
00000310: a807 ac3c 5e4f 7f3b 65d3 f33c a4e8 5f3b
00000320: 8bc2 c1bc ca4e 9e3b 6965 ad3b 65a4 8ebc
00000330: 8d36 f03b 992d b33b 9466 b2bc d6dd e53a
00000340: 836b f7ba f5cb 9c3a 7076 a7ba 6eae a9ba
00000350: 284f 083b 4982 4d3b 5c6d 9fb9 3ad9 533b
00000360: d48a 16bc 4a5e b8bb f491 8c3a 74a4 04bc
00000370: 5afc c9bb de2f 95ba e8de c8bb d13e bcbb
00000380: f226 de3a 6664 99bc 9f5f 90bc d537 98bc
00000390: a86c 113b ffb4 e0b9 c748 503a 1520 a0bc
000003a0: f803 99bb cc2c 0bbb 350b fc3c 205a adba
000003b0: b434 b3bb 581a 9aba 1934 20bb 4a59 61ba
000003c0: e42b 35bb f437 abb9 9144 38bb 0ec9 8f3c
000003d0: f3ee a53c fec5 eaba a60c d63c 18e2 2539
000003e0: 7a18 eebc ea39 e0ba 9d97 2bbb 3d79 49bb
000003f0: afee 64bb edcb 91bc 113b 1dbd 5a06 f5bb
0.00087082275 0.0009801476 0.008336325 -0.021402875 0.0076113027 0.030666908 -0.016630879 0.003041194
0.0028041496 0.001141856 -5.655755e-05 0.001989519 0.0003200504 0.0016547152 0.005787939 -0.0015957602
0.0008258595 0.0026337241 0.0039790124 0.0043868297 0.0042483644 0.0026961884 0.0051985867 0.016785376
0.0039122845 -0.017047673 0.0027629845 -0.0020600369 -0.00047082815 0.0019374839 0.0005295938 -0.0009053528
0.0009176021 0.00017606714 -0.0016071062 0.0010204918 0.0037145826 0.0026002792 0.0017192877 0.0037056978
0.0036066575 0.0024291608 -0.0018804359 0.0016164839 -0.00038983475 0.002822941 0.0025131 0.0082704425
-0.0016951761 0.0015575293 0.003955659 -0.0012918009 0.0025053236 0.0051808236 0.0020765082 0.00104827
0.0009650914 0.0019880221 0.0016431535 0.0007330855 0.0019666986 0.0020419918 0.0015891553 0.00083552767
0.0038464093 0.007532628 0.00027622288 0.0016452508 0.0026795082 0.001504523 0.00028101532 0.0023466335
0.024325417 0.023067933 0.018932331 0.020147312 0.01911297 0.022255378 -0.0015403271 -0.00054207694
0.0155398445 0.0012574471 0.0011152624 0.0024078935 0.0019188462 0.00079670316 0.0032882534 0.0021393648
0.0022450418 0.004926152 0.0012659316 0.0010447267 0.0037888493 0.0006951068 0.0017612785 0.0040227543
0.0014311374 -0.0012060101 0.0022573525 0.00056172814 0.0005084774 2.3645696e-05 0.0027126877 0.0031572774
0.0012948741 0.0007968764 0.0031622488 0.004082325 -0.0039075417 0.003400366 0.020322107 0.019345198
0.024631731 0.023062482 -0.0046626604 -0.0009001357 -0.0030033975 -0.0036162038 -0.0016985779 -0.0015329156
-0.0025455803 -0.00081021345 -0.00065383734 -0.0012032036 -0.00043789065 -0.0006228588 0.031020539 0.016093453
0.0004762636 0.029193131 0.016318897 0.020659776 0.0010733654 0.000121064295 0.0009903946 -0.0029819037
-0.0019844654 0.0014137784 -0.0042302096 -0.001184891 0.0007051082 -0.0054014106 -0.003960353 -0.0030605982
0.015106385 0.018677162 6.73169e-05 -0.0024018295 -0.006055015 0.0042577274 0.01647724 -0.0035098663
-0.015951779 0.0015650351 0.001839826 -0.00042771746 -9.115572e-05 -0.00073311204 0.00037131394 0.00060713326
-0.00022502353 0.0006978729 0.025465136 0.02150133 0.033055108 0.0044192215 -0.00024796042 -0.0008495205
0.003851291 0.0050068162 0.0016687864 0.025591558 -0.0021715427 -0.00026960482 -0.0009589065 -0.0041252277
-0.0014183543 0.023820048 -0.0011085443 0.00048613988 -0.019627186 0.0027317523 -0.016072383 0.0018054402
0.002770979 -0.021216717 0.00017576315 8.538701e-05 -0.018431649 0.0082514575 0.045502007 0.046759162
0.02472632 0.034866113 0.0055114822 0.039259985 0.020999745 0.0038957219 0.029763887 0.0034165764
-0.023652336 0.0048311697 0.00529163 -0.017412374 0.0073307217 0.005468082 -0.021777429 0.0017537426
-0.0018876645 0.0011962639 -0.0012776386 -0.0012945661 0.0020799134 0.0031358174 -0.00030408322 0.0032325522
-0.009188373 -0.0056264745 0.001072465 -0.008095849 -0.006164116 -0.0011382063 -0.006130088 -0.005744793
0.0016948862 -0.018724632 -0.01762372 -0.01858131 0.0022190008 -0.00042859462 0.0007945415 -0.019546548
-0.0046696626 -0.0021236418 0.030767063 -0.0013225712 -0.005468929 -0.0011757119 -0.0024445115 -0.0008596374
-0.002764457 -0.0003265735 -0.002811704 0.017551925 0.020255541 -0.001791179 0.026129078 0.00015819853
-0.029064406 -0.0017107103 -0.0026182898 -0.003074243 -0.0034932306 -0.017797435 -0.03838641 -0.007477564

tfeb.8.weight f4 [23]
00000000: 23f8 3a3e c204 383e b858 283e c452 863e
00000010: aa4f 853e 2341 2a3e cf6b 0f3e 882e 773e
00000020: 46e3 a73e 6de3 933e fcbc 273e 0f37 4f3e
00000030: 075d 423e 60bd 2a3e f573 803e 704e 553e
00000040: 16e4 3b3e 07c7 7b3e 68ab 2f3e 6413 ae3e
00000050: 4bac 5b3e 8a2e 113e 7515 333e
0.18258719 0.17970565 0.16440094 0.2623502 0.2603734 0.1662641 0.1400597 0.24138844
0.32790583 0.2888445 0.16380686 0.20235847 0.189808 0.16673803 0.25088468 0.20830703
0.18348727 0.24587642 0.1715523 0.3399917 0.21452443 0.1417791 0.17488654

tfeb.8.bias f4 [23]
00000000: 3e54 45be 4f7e d43c ccfe 5ebc eb13 26be
00000010: c88c febd 3891 8f3c 430e a9bd c4de 0cbe
00000020: d715 4abe 3bb1 15be b932 d73d 76ab b23d
00000030: 0409 fc3b 4323 edbd 0571 e2bd 7676 0abd
00000040: e668 6e3b c0e8 1ebe a5c2 1c3e 4b0a 24be
00000050: 05ca 0b3c 123b 433d acef e23c
-0.19270417 0.025939135 -0.013610553 -0.16218536 -0.12429196 0.0175253 -0.08254673 -0.13756853
-0.19734894 -0.1461839 0.105077215 0.0872411 0.0076915044 -0.11578991 -0.11056713 -0.03380438
0.0036378442 -0.15518475 0.15308626 -0.16019551 0.008532052 0.047663756 0.027702175

tfeb.8.running_mean f4 [23]
00000000: b488 f23c 0e5a 673c cf19 6bbc caa6 dfbc
00000010: 43cf aabc 0d27 06bc 2c4a 1bbc a30e 98bc
00000020: 22d2 05bd 0450 09bd 81d1 7f3b ed54 283c
00000030: fc05 5fbb f09e c5bc a86d 4b3b b18e 6cbb
00000040: 0c9e 4abd 7a56 35bc 7224 f1bc 690e 72bb
00000050: 0c4f ccbc 9d31 3c3c ab91 2c3b
0.0296062 0.014120592 -0.014349415 -0.02730121 -0.020850783 -0.008188021 -0.009478133 -0.018561667
-0.0326711 -0.033523574 0.0039034786 0.010274154 -0.0034030667 -0.024123639 0.0031040702 -0.0036095793
-0.04946713 -0.011067981 -0.029436324 -0.0036934859 -0.024940036 0.011486438 0.0026331942

tfeb.8.running_var f4 [23]
00000000: 142e 053a c744 1b3a ad5a b239 8ff4 683a
00000010: b8cc 753a 3c85 fd39 f48b 7039 26e3 3f3a
00000020: 0814 323b 5f6d a53a 9d1d 033a 0485 973a
00000030: 8e56 293a 8a29 7e39 8269 033a 5f14 493a
00000040: cad6 963a 2402 223b 2e52 e43a e35d b33a
00000050: b41d 243a 3210 ac39 8767 2a3a
0.00050804135 0.00059230294 0.00034018364 0.000888654 0.0009376514 0.00048355188 0.0002294032 0.00073199195
0.0027172584 0.0012621096 0.0005001666 0.0011560027 0.0006459736 0.00024238802 0.00050129753 0.0007670577
0.0011508104 0.0024720514 0.0017419511 0.0013684597 0.00062605296 0.00032818463 0.0006500412

tfeb.11.weight f4 [33, 23, 3, 3]
00000000: 27ec 253b d7a1 cb3a b227 ce3a c900 2c3a
00000010: 542c b839 7809 0b3a b24c ea3a b985 563a
00000020: 0be1 893a 7a88 4ebb bac7 87bc a492 10bd
00000030: 3a7c a8bb 8a6b a3ba e8a2 e9bc c6b5 cbbb
00000040: 6a53 30bb 2b6c 37bb 2a16 2539 2486 98bc
00000050: 1823 133a f2e4 d7bc c543 dcbc 7fa6 c33c
00000060: 6606 5d3a d496 183a 1e0b 92b9 a7ca 9f3c
00000070: 8e24 d73c f7f6 69bb ee82 aa3c 1c91 54ba
00000080: dbf5 d5bc 22d3 3bb7 d7cd fd37 54f5 63ba
00000090: 0d24 8d3b f0ea 653b ab83 b6bc 483c ab3c
000000a0: 67e7 1e3b 4290 26bd be8a 243a 01b0 0b39
000000b0: 32ce 24bd 3ff1 0e3b 2930 0a3b b31b f93a
000000c0: 42d7 ec39 0841 433a 2031 94ba 6712 7e3a
000000d0: 1890 62b9 c010 8c3c 67c7 e9b9 6dfb 1739
000000e0: 7466 ae39 2525 5b3a a6fa a039 aff0 02ba
000000f0: f4dd 943a 3b61 163a f65a 8d39 441a 663c
00000100: 4a22 c43a 8fcb d1bc ff51 f4ba 5148 85bc
00000110: 05c5 04bd ecb0 10bb 8480 d8bc e109 6039
00000120: 6c77 0c3d f2e2 c6bc bd12 95ba 40b3 c639
00000130: 7f50 bebc 9a31 19ba da95 89b9 6b71 673b
00000140: ff91 afb9 1e54 d93c f366 d1ba 4256 abbc
00000150: 03e1 223d 0c30 8e3a 4218 9fbc 0be2 e73c
00000160: 9618 303b 6960 fb3a ad03 a53b ee31 a03b
00000170: 8818 3e3b ef6d 36bb 15cf 9a3c 6b50 5cbb
00000180: 85a0 683c 6b3c feba 0357 45bb 4d94 bdbc
00000190: 1572 85bc 8de1 3c3b e223 24bd c824 e4ba
000001a0: 2cd5 023d 3fc1 b0bb 20b2 9bbb e285 a8bb
000001b0: bc77 213a 5a29 4b3b 4bed d73a c98f 82bb
000001c0: cc86 faba b86f 08bb 61d7 943c 9927 b33c
000001d0: e3fa 0bbb 76f6 9eba 5499 ed3a 28e7 40ba
000001e0: 7e0c 87b8 db17 163b 69a5 9d3a 3243 863c
000001f0: 5dea c53a bdc0 a33a af74 48bb 5916 93bc
00000200: 320d b3bc 1b71 c7bb 0df7 b0bc 9a88 12bd
00000210: b2a0 e8bb 7792 71bb 5b30 1fbb 7bd5 a0bb
00000220: 5692 d43a 1d01 963a 739b eabb 468a a0bc
00000230: a83a c2bc 615b f0bb f452 7cb9 993c 1dbb
00000240: 391f 1cb9 782d b43a e849 92b9 2cbe a5b9
00000250: cc1b c438 567e 7dba 09f9 e03a 2d74 bc3c
00000260: cf2a 983a d795 b5b9 fd6b e1bc 7452 a0bc
00000270: f193 00bb 6319 95bc ca75 98ba f35d 90bb
00000280: df35 51ba 1912 c4ba 98bb ad3a 4419 153b
00000290: f53b 8539 f555 28bb 0931 92ba 1b17 7abb
000002a0: f50b ec39 0050 083b 3d0f 8639 9369 573b
000002b0: 3ea9 ae3b 5919 103d 2d00 42bb 27a5 b43c
000002c0: 7576 553d a853 58bb d141 953c e774 83ba
000002d0: 5f20 5fba f520 023b 75c8 66bb b36d fdba
000002e0: bcda ac3c 0b85 40bb bec3 0dbb f163 b03a
000002f0: 5c31 99bc 41cd 74bb c387 5b3a 5f42 903c
00000300: 41c3 c5bb fb10 20bb 4f5e 763c 2309 e1bb
00000310: c4c4 8e3c 759f 453c c24e 3db9 907b 9dbc
00000320: ba4a d2ba 2b66 a2bc 2d0f 8cbc c930 85b9
00000330: b6e4 56bb a2db c0ba b5c3 b9ba 063e aa3a
00000340: 5dc3 423b c409 053b 7b63 bc3a 43d9 783b
00000350: 911b 8d3b 1948 713a 509a db3a fdae a13a
00000360: 4e7a cbb9 00e5 4fbb 0002 463b a0b9 40bb
00000370: 7ef1 7dbb 3651 4c3b cd5b d2ba 8663 5fba
00000380: 078a 363b cb16 2e3b be90 bdbc c9a3 ddbc
00000390: e794 563a 79cb 063b 7eb9 a4ba 979c 91bb
000003a0: 2a0e f63c 45c8 abbb 4001 d9b9 9032 383b
000003b0: e13c bf3a 8c32 90b9 68ca 9b39 31ee dc39
000003c0: e1ad 03bb 2802 bbbc 173b 7bba d0cd 483a
000003d0: e3c9 d53c 792a 163b 6f1b f638 612d 133b
000003e0: 7c5b 4b3a d5c3 e8ba 60be 8eba b30f 07bb
000003f0: 7772 cb37 cafa 2d3a c8bd 5cb9 b2b4 4139
0.002531776 0.0015535903 0.0015728383 0.00065613963 0.00035128242 0.000530384 0.001787564 0.00081833784
0.0010519339 -0.0031514452 -0.01657473 -0.035296097 -0.005141762 -0.0012467962 -0.028520063 -0.0062167374
-0.0026905187 -0.0027988057 0.00015743883 -0.01861865 0.00056128344 -0.026354287 -0.026887784 0.023883102
0.00084314344 0.0005820815 -0.00027855573 0.019505812 0.026262548 -0.003570018 0.020814385 -0.0008108781
-0.02611821 -1.1195227e-05 3.0255802e-05 -0.00086959195 0.004307276 0.003508266 -0.022279581 0.020902768
0.0024246813 -0.04066492 0.0006276778 0.0001332164 -0.040235706 0.0021811274 0.0021085835 0.0019005447
0.00045173807 0.000744835 -0.0011306144 0.0009692073 -0.00021606719 0.01709783 -0.0004458979 0.00014494146
0.000332642 0.0008359722 0.00030704326 -0.0004994971 0.0011357651 0.00057365344 0.00026961387 0.014044348
0.0014963832 -0.02560976 -0.0018640159 -0.016269835 -0.032414455 -0.002207811 -0.026428469 0.00021365985
0.034293577 -0.024278138 -0.0011373382 0.00037899055 -0.023231743 -0.0005843878 -0.00026242324 0.0035315405
-0.00033487377 0.026529368 -0.0015976116 -0.020915154 0.03976537 0.0010848059 -0.019420747 0.028306028
0.0026870123 0.0019178513 0.0050358386 0.0048887646 0.002900632 -0.0027836522 0.018897573 -0.0033617269
0.014198427 -0.0019396668 -0.0030111677 -0.023142004 -0.01628975 0.0028820962 -0.040073283 -0.0017405981
0.031941578 -0.0053941305 -0.0047514588 -0.005142913 0.00061595044 0.003099999 0.0016473917 -0.0039844257
-0.0019113659 -0.0020818543 0.018169107 0.021869468 -0.0021359257 -0.0012127894 0.001812736 -0.0007358664
-6.4396285e-05 0.0022902403 0.0012027445 0.016389463 0.0015099753 0.0012493354 -0.0030587127 -0.017954992
-0.021856878 -0.0060864813 -0.021602178 -0.035774805 -0.0070992345 -0.0036860981 -0.0024290297 -0.0049082614
0.0016217928 0.0011444424 -0.0071596443 -0.019597184 -0.02370961 -0.007335112 -0.00024063495 -0.0023992418
-0.0001488895 0.0013746461 -0.00027902354 -0.00031612942 9.351186e-05 -0.00096700096 0.0017164062 0.023004616
0.0011609438 -0.0003463465 -0.027517313 -0.019570567 -0.001961943 -0.018200582 -0.0011631784 -0.004405731
-0.00079807447 -0.0014959007 0.001325476 0.0022750655 0.00025412408 -0.0025686 -0.001115353 -0.0038160745
0.00045022336 0.0020799637 0.00025569825 0.0032869324 0.005330234 0.035180423 -0.0029602156 0.022051407
0.052114923 -0.0033008847 0.01821986 -0.0010029346 -0.00085115986 0.001985607 -0.0035214697 -0.0019335061
0.021100394 -0.0029376175 -0.0021631564 0.0013457519 -0.018700294 -0.0037353786 0.0008374417 0.017609773
-0.006035239 -0.0024424184 0.015037133 -0.0068675443 0.01742781 0.012061943 -0.00018053784 -0.019223958
-0.0016043999 -0.019824108 -0.01709708 -0.00025404085 -0.003279013 -0.0014713893 -0.0014172705 0.0012988455
0.0029718496 0.002030001 0.0014372909 0.0037971295 0.0043062647 0.0009204164 0.0016754363 0.0012335476
-0.000388103 -0.0031722188 0.0030213594 -0.0029407516 -0.0038748677 0.0031176335 -0.0016049087 -0.0008521605
0.0027853267 0.0026563879 -0.023140308 -0.027055638 0.00081856403 0.0020568056 -0.0012567488 -0.004443716
0.03003605 -0.00524238 -0.00041390397 0.002810631 0.0014590287 -0.0002750348 0.00029714708 0.00042139136
-0.0020092654 -0.022828177 -0.0009583695 0.0007660063 0.026097244 0.00229135 0.00011735304 0.0022457468
0.00077574677 -0.0017758558 -0.0010890476 -0.0020608723 2.4252788e-05 0.0006636797 -0.00021051534 0.00018473229

tfeb.12.weight f4 [33]
00000000: 93b6 743e 7023 3b3e b003 4e3e c6e4 f53d
00000010: 6da0 213e 4623 733e 2e10 7c3e 8d01 633e
00000020: 5050 fa3d e959 173e 5fd2 0c3e 4eb9 243e
00000030: 5424 543e ea17 173e 69e5 423e 7a87 583e
00000040: a9f6 133e 4b26 023e 539a f43d dfdf 4a3e
00000050: 2112 343e a56c 233e 1b8b 033e 6837 413e
00000060: 704b 8e3e 0b01 393e 35f0 303e 9d0f 4a3e
00000070: 6d75 2b3e a526 1f3e 7dfa 253e 7461 0c3e
00000080: ad09 293e
0.23897772 0.18275237 0.20118594 0.12006526 0.15783854 0.23743924 0.24615547 0.2216856
0.1222235 0.14780392 0.13752125 0.16086313 0.20716983 0.14755216 0.19032826 0.2114543
0.14449562 0.1270992 0.119434975 0.19811963 0.1758504 0.15959413 0.12846033 0.18868792
0.2779193 0.18066804 0.17279132 0.19732518 0.16744013 0.15542085 0.16208835 0.1370905
0.16507597

tfeb.12.bias f4 [33]
00000000: f6e1 29be e879 86bd 7de0 c6bc e1f1 cebc
00000010: b3e4 2abd 6b53 15be b47b d7bd 3a4b e4bd
00000020: 9d8b 9dbb 5433 a5bd 7f2c 87bd 057b 12bd
00000030: 84b3 58bd b991 0abe 7514 17be a241 bbbd
00000040: 84ac 90bd 20a1 8f3d 5572 71bc 24c5 b4bd
00000050: 7138 84bb 483b 4cb9 d329 22bd a37e 15be
00000060: 1f38 1ebe ec19 823d f16e 4b3d d518 6fbd
00000070: 0575 fabd da16 1cbd 88e6 ddbb 3f10 a0bc
00000080: fdf7 38bd
-0.16590104 -0.065662205 -0.024276966 -0.025261821 -0.04172201 -0.14582603 -0.105216414 -0.11147161
-0.004807903 -0.08066431 -0.06600284 -0.03576185 -0.052905574 -0.13532151 -0.14753897 -0.09143378
-0.07064155 0.07013154 -0.014736732 -0.08826664 -0.0040350487 -0.0001947704 -0.039590668 -0.1459909
-0.15451096 0.063526005 0.04966635 -0.05837329 -0.12229351 -0.03810773 -0.006771866 -0.019538997
-0.045158375

tfeb.12.running_mean f4 [33]
00000000: 63c2 e1bc e6bc 21bd 49ea c1bd 1048 abb5
00000010: 2e97 123b 18d6 9b3c 2b16 703d cbf7 0fbd
00000020: 1a05 04bd 9e02 bdb9 4af2 a03d fe06 98b9
00000030: d5e8 0e3d b289 9cbc 4123 c23c 2c4d 82bd
00000040: 3541 7cbc 8a8b a9bc 6a8d 05bd a79a a33b
00000050: 3bd6 2dbd 6c75 9ab9 9da4 39bc 005a 0abd
00000060: 48ea 4abc 2f9e 92bc 9a88 8ebd 3aa5 c1bc
00000070: d1b9 843d 7a68 b5bc 5b90 04bd 9cc2 8cbd
00000080: 6501 19ba
-0.027558511 -0.03948679 -0.094685145 -1.2761466e-06 0.0022367942 0.019022986 0.05861489 -0.035148423
-0.032231428 -0.0003605084 0.07858713 -0.0002899691 0.034890015 -0.019108627 0.023698451 -0.063623756
-0.015396406 -0.02069642 -0.032605566 0.004992801 -0.042440634 -0.00029460655 -0.011330751 -0.033777237
-0.012384959 -0.017897693 -0.069596484 -0.023638356 0.06480754 -0.022144545 -0.03236423 -0.06873056
-0.00058366946

tfeb.12.running_var f4 [33]
00000000: b3a3 a23a b4b9 873a 996f 0c3b 7186 c439
00000010: a854 6b3a 58ec ef3a f235 fd3a 4a28 763b
00000020: ee34 123a 7954 a23a 16dc df3a 7916 7f3a
00000030: 4285 5d3b 55df d03a f0c6 8d3a caa6 463b
00000040: c6f6 1d3a f586 c73a da0f f839 ac28 0e3b
00000050: cf59 ec3a df5c 933a ebc2 e139 0f59 483a
00000060: 35c7 6e3b bce0 9f3b 18c0 4a3b 5516 973a
00000070: de9a ac3a 6024 ef39 933b b73a 2356 213b
00000080: 1cf3 0e3a
0.0012408405 0.0010355026 0.0021428822 0.000374842 0.00089771533 0.0018304689 0.0019318445 0.0037560635
0.0005577345 0.0012384794 0.001707914 0.0009730827 0.0033801352 0.0015935699 0.0010816734 0.0030311816
0.0006025847 0.0015222715 0.00047314056 0.0021691723 0.0018032136 0.0011242888 0.0004306057 0.00076426653
0.0036434655 0.0048790853 0.003093725 0.0011527041 0.0013168713 0.00045612734 0.0013979546 0.0024617992
0.0005453096

tfeb.14.weight f4 [29, 33, 3, 3]
00000000: 0b75 4fbb b905 36bb ea67 35bb 931f c3ba
00000010: 5904 0abb 0644 cc3c 2b59 96ba e7d7 16bb
00000020: c401 01bb 83a2 1a3d cc87 6fba 66c1 20bd
00000030: a46a 283b 55c5 13bd 2e45 c0bc aff6 8c3b
00000040: b8d9 f73c dc5c b13b b028 883b e19f 63bc
00000050: fce6 d8bc 8d3a 083b e060 383d c197 ce3c
00000060: e266 a63b 27fb 223d d99e b53c 30fa c8bc
00000070: 0127 e63a aa35 713a 4acf 9a39 1fcd 803b
00000080: 6f68 353b ac1f b938 1248 b23b d8d8 7e3a
00000090: 5402 e43a e41b 083a 4300 913a 3996 473b
000000a0: 8a3f 1d3b ebc9 023b 389e e33b f5d1 0c3c
000000b0: be2f 6ebc dbc3 9dbc aaef bebc 80ae 263a
000000c0: 429d 63bb f0e5 87bb 8ebb 80b9 ae0a b93c
000000d0: e2a1 023a d83c 443b f696 e439 b0fd 25bb
000000e0: cf15 b1bc 6617 97bc 9c25 39bb c2dd 87bb
000000f0: d7eb afbc 1b1c efba 3f0c 02bb 977e 80ba
00000100: 8fd7 2fbb 9796 f2bc b90b abbc c920 4dbb
00000110: db55 63bb e242 a4bc 3a92 f4b9 5479 293d
00000120: c941 d2bc 7386 f9b9 544c 843c 8701 c2bc
00000130: 2051 67bb 62a8 8bbb b670 3bbb ceae 7cbb
00000140: e32b b0bb 35f6 c93b bb63 d93a 10cd b23a
00000150: 04c0 bc3b b5b5 263a 3d98 4839 3b64 263b
00000160: 2dc1 f8ba 1e93 bdba 1db3 413a 1497 6a3a
00000170: 1b54 fe39 4bcc aebc 82bb 44ba fda7 d0ba
00000180: d769 9ebc ef0a d5b9 ad41 edb9 69d6 a2bc
00000190: f438 0cbb 5a83 46bb 6a4a b5bc d5b7 033a
000001a0: 869a c4b8 74cf edbc ba1d 32bb 1ae1 d7ba
000001b0: a036 32bb 5865 ccba d579 17bb 516a c8bc
000001c0: 9a9c 8aba 7706 27bb e188 c1bc a73f 8bbc
000001d0: 4667 123a 0e3e 2cba b97e bcbc 6199 f5ba
000001e0: c517 51ba 8ce9 f4bc 5cb5 c7ba 4b20 9738
000001f0: 28a4 cfbc 2f23 8aba 4ed7 0fbb 2acc f5ba
00000200: adab 47bb c7de 49bb 06ad 54bb 8b7a 0cbb
00000210: 2101 5fbb 1003 76bb 9739 37bb a441 c4bc
00000220: 7aa4 f0bc 9abf ff39 ec86 38ba d77f c9bc
00000230: 8280 883c bcc2 6bba 07bd c0bc 0fbd 2a39
00000240: 2c2a a4bc a76b dbbc fd50 e738 5177 8d3b
00000250: 8e44 913b cf8c 9bbc 5021 a5bc 3e6a 9e3b
00000260: caea c83a 892f 33bb 2d72 6eba 01aa 313d
00000270: fa7e 86bb 5f8c 513c 57a8 0c3d beb2 11b9
00000280: a134 deba b3ee c0b9 a893 b5bc 6d05 c0bc
00000290: 3e7c beba e82d 2d3a e855 d839 a371 b2ba
000002a0: 4c79 fc3a 38d2 d839 34b1 91bb f72b 30bd
000002b0: 548f 043d f4ff 8dbb 2df5 6abb 4ad5 163d
000002c0: 7edd b23c 34bb a43c b30b cabc df5c f0bc
000002d0: 43d6 6d3b 911e db3a 74fc 0e3b 3847 343b
000002e0: 230d b5bc 288c 74bc fa5c f539 583e 843a
000002f0: 8454 98b9 00d1 bfbc a530 27ba 8327 acbc
00000300: d096 b4bc 005c 8ebb eb0b f1b9 81c6 b33a
00000310: 5c05 35bb a4c9 15bb bce3 53bb f594 1abb
00000320: ac97 5c3c 0004 ecba 7d13 e6ba bdcd c1ba
00000330: 2a97 8eb9 69e6 ecba dd8f c5ba fdd3 6cba
00000340: c7a8 00bb 177c a23c 618b 84b9 321b e8b8
00000350: 5af3 263d dacf 9eb9 d3a5 c5b9 27b6 b33c
00000360: 1e56 39bb c9a8 1ebb 32c9 a2bc 085e 18ba
00000370: 69db e5ba 1056 b23a fdcb 92bc 6f91 69ba
00000380: 422a ddb9 6254 1eba 2f96 d03c c40c 153d
00000390: 17a8 9c39 7aad 8cbb 4e5d bfbb c3f7 9f3b
000003a0: 42ce 82bb 1049 ecbc 3bae 8a3b 420e 013c
000003b0: 594e 043c f813 5f3b 4939 f33b af7d b63b
000003c0: 41f3 a63b 64b6 163c fae7 313b fa91 aebc
000003d0: 386a 593b 5f5f 9b3c 5d2c b8bc 2663 f23a
000003e0: d918 8c3c 7f2a 99bc 7e34 0a3a ee62 e4ba
000003f0: 5093 65ba 2d3f 05bb a924 f039 21cf ffba
-0.0031655456 -0.0027774407 -0.0027680346 -0.0014886729 -0.002105972 0.02493478 -0.0011470666 -0.0023016871
-0.001968489 0.03775264 -0.0009137362 -0.03924694 0.0025698328 -0.036076862 -0.023470487 0.004301868
0.030255184 0.005412681 0.004155241 -0.013893099 -0.02647733 0.0020786852 0.045014262 0.025218846
0.0050781826 0.0397903 0.022170471 -0.024533361 0.0017559231 0.0009201417 0.0002952761 0.0039307023
0.0027680655 8.827387e-05 0.0054407204 0.00097216433 0.0017395713 0.00051921443 0.00110627 0.003045453
0.002399417 0.0019956778 0.0069463514 0.0085949795 -0.01453775 -0.01925843 -0.02330764 0.00063584
-0.0034731184 -0.0041472837 -0.00024553802 0.0225881 0.0004983229 0.0029943492 0.00043600023 -0.0025328211
-0.021616844 -0.018443774 -0.0028251177 -0.0041463086 -0.021474762 -0.0018242629 -0.0019843725 -0.0009803352
-0.0026831364 -0.029612822 -0.020879613 -0.003130006 -0.0034688625 -0.020051423 -0.00046648254 0.041375473
-0.025666134 -0.00047593153 0.016149677 -0.023682369 -0.0035296157 -0.004262016 -0.0028601117 -0.003855634
-0.0053763255 0.0061633834 0.0016585508 0.0013641436 0.0057601947 0.0006359474 0.000191302 0.0025389332
-0.0018978469 -0.00144634 0.00073890557 0.0008948904 0.0004850932 -0.021337649 -0.00075047475 -0.0015919205
-0.019337578 -0.00040634672 -0.00045253095 -0.01987763 -0.0021396251 -0.0030290694 -0.02213021 0.00050246465
-9.3747905e-05 -0.029029585 -0.0027178363 -0.0016470284 -0.0027193204 -0.0015594168 -0.002311339 -0.024464758
-0.0010575235 -0.002548603 -0.02362484 -0.016998125 0.0005584847 -0.0006570526 -0.023009645 -0.0018737727
-0.0007976259 -0.02989652 -0.0015236544 7.206256e-05 -0.02534683 -0.001053905 -0.00219484 -0.0018752862
-0.0030467317 -0.0030802952 -0.0032451763 -0.0021435346 -0.0034027772 -0.0037538446 -0.002795791 -0.023957081
-0.029375304 0.00048780144 -0.0007039148 -0.024597092 0.01666284 -0.0008993556 -0.023527635 0.00016282893
-0.02003964 -0.026784731 0.000110300236 0.004317202 0.004433221 -0.018988041 -0.020157486 0.0048344424
0.0015328762 -0.0027341566 -0.0009095993 0.04337502 -0.0041044923 0.012789815 0.03434023 -0.00013894864
-0.001695294 -0.00036798939 -0.022165135 -0.023440087 -0.0014532877 0.0006606267 0.00041262736 -0.0013614189
0.0019262224 0.00041355356 -0.004446173 -0.04301068 0.03236325 -0.0043334905 -0.0035851703 0.036824502
0.021834131 0.020108797 -0.024663782 -0.02934116 0.003629104 0.0016717484 0.0021817954 0.002750827
-0.02210099 -0.014925994 0.00046799314 0.0010089381 -0.00029054668 -0.023415089 -0.0006377793 -0.021014934
-0.02204457 -0.0043444633 -0.00045975982 0.0013715775 -0.0027621603 -0.0022855783 -0.0032331785 -0.002358732
0.013463896 -0.0018006563 -0.0017553415 -0.0014786046 -0.00027196977 -0.0018074039 -0.0015072782 -0.0009034274
-0.001963185 0.019834561 -0.00025280847 -0.000110676876 0.040759422 -0.0003029097 -0.00037698317 0.021937443
-0.002828009 -0.002420949 -0.019871328 -0.00058123516 -0.0017536703 0.0013605971 -0.017919535 -0.0008909916
-0.0004218389 -0.00060397957 0.025462238 0.036389127 0.00029879875 -0.004293141 -0.00583998 0.0048818304
-0.003991873 -0.028843433 0.0042321957 0.0078769345 0.00807532 0.0034039002 0.0074226004 0.005569182
0.005094916 0.009198759 0.0027146325 -0.021309841 0.0033174884 0.018966375 -0.022482092 0.0018492683
0.017101692 -0.018697022 0.0005272104 -0.0017424503 -0.0008757608 -0.0020331845 0.0004580368 -0.0019516685

tfeb.15.weight f4 [29]
00000000: 94b9 453e 6df2 4f3e 24d4 7a3e 7bf4 3a3e
00000010: bc18 553e 7b09 593e da05 913e e743 343e
00000020: ce2d 3f3e 412d 583e 0c5e 223e d527 4c3e
00000030: b42b 2e3e b2e8 753e fd5e 6a3e e061 173e
00000040: ec3f 593e b0e8 6a3e 81dc 4f3e 571d 143e
00000050: 32a8 243e 2a8c 1b3e 6610 713e 242d 213e
00000060: 8b9d 203e 9be4 343e ec24 f73d 2de8 243e
00000070: cabe 6c3e
0.19309074 0.20307322 0.24494988 0.18257324 0.20810217 0.21195023 0.28324777 0.17604028
0.18669817 0.21111013 0.15856189 0.1993707 0.17008859 0.24014547 0.22887798 0.1478343
0.2121579 0.22940326 0.2029896 0.14464317 0.16079786 0.15190187 0.23541412 0.15739876
0.15685098 0.17665331 0.12067589 0.16104193 0.23119655

tfeb.15.bias f4 [29]
00000000: 03c3 1dbe 9f59 1cbe 18bc 0fbe 4f7c 51bd
00000010: 7d3a 45be c9d1 06be 153a 77bd 0420 d9bd
00000020: 74cb e9bd d47f cdbd eb49 31bc adaa 35be
00000030: 8369 9dbb a057 07be 2a8a 9ebd 6627 56bd
00000040: d0b5 58bd c3af 6cbe cab7 27be 6cd2 6bbd
00000050: 4145 09be 4dac 94bc 35d9 3bbe 0a0c a4bd
00000060: d43a 9ebc 9a07 babd 8b99 023b 118b c6bd
00000070: 5dab 35be
-0.15406422 -0.15268563 -0.14036596 -0.05114394 -0.19260593 -0.13165964 -0.060358126 -0.106018096
-0.11415759 -0.10034147 -0.010820846 -0.17740889 -0.0048038377 -0.1321702 -0.077411965 -0.052283667
-0.052907765 -0.23113923 -0.16378704 -0.05757372 -0.13405325 -0.018148566 -0.18344577 -0.08010109
-0.01931516 -0.09083481 0.0019927945 -0.096944936 -0.17741151

tfeb.15.running_mean f4 [29]
00000000: 5340 f4bb e90d aebc 3c98 9fbc 21b6 b0bc
00000010: 02d5 24bc 8ad5 afbc 63dc 083c c33e 1bbc
00000020: 168c 47bc 5e78 bfbc ed9d 80bb a2b5 83bc
00000030: b427 efbc 087b 90bc f6d3 84bb 4e4f 49bb
00000040: 69b6 e93b 68d5 26bd a0ef 89bc 6ddd bfbc
00000050: aa36 38bb 7609 163c 242c a6bc 2817 31bc
00000060: a043 33bc 1bcf 9cbb c146 213b 2d59 6fbc
00000070: 9ce8 98bc
-0.007453957 -0.021246867 -0.01948177 -0.02157122 -0.010060551 -0.021464128 0.008353326 -0.009475413
-0.012179395 -0.023372825 -0.003925076 -0.01607782 -0.029193737 -0.01763679 -0.004053588 -0.0030717435
0.0071323407 -0.040730864 -0.016837895 -0.023421014 -0.0028108754 0.009157529 -0.02028472 -0.010808744
-0.010941416 -0.004785431 0.0024608823 -0.0146086635 -0.018665604
