refine_codes/retrained_models_after_pruned/retrained_model_20240124111242_acc_94.31818389892578_59th_epoch.pt (torch, 595400 bytes, 62 tensors)

sfeb.0.weight f4 [5, 1, 1, 9]
00000000: 4665 e93d f5a9 333e 8004 983d 9214 2f3f
00000010: e49d 28be 1fdb 7ebe bfcd a5be da34 d8bd
00000020: 10c0 f4bc ff87 243e a847 b93c 7483 88bb
00000030: 8e6b 5bbe 6eab fdbc dc0c 38be 2a91 223e
00000040: c46d c53c 9dfa b7be 52bb e1be 730f f7be
00000050: 2416 f03c b496 fb3e 25da 8d3d ac7d 793e
00000060: 5e88 65be f75f 903c 8b26 ae3d a8f0 c93d
00000070: 398b a83d 9d6c 62be 1500 a53e b55b 3ebf
00000080: de16 1c3f 3c2f bd3d 0727 56bf 75b0 ee3e
00000090: 14a7 2dbe b769 4bbe 10f6 15bd 4467 3b3e
000000a0: 770d 4d3d 023f 5e3d 5e76 5bbe 5f99 b73d
000000b0: d70c ff3e
0.113962695 0.17545302 0.07422733 0.6839076 -0.1646648 -0.24888276 -0.32383534 -0.10556956
-0.029876739 0.16067503 0.022617176 -0.004166061 -0.21427748 -0.030965533 -0.17973655 0.15875688
0.024100192 -0.3593339 -0.44088227 -0.48253974 0.029307432 0.49138415 0.069263734 0.24364346
-0.22415301 0.017623885 0.08503445 0.09860355 0.082296796 -0.22111745 0.32226625 -0.74358684
0.6097239 0.09237525 -0.836533 0.46619 -0.16958266 -0.19864546 -0.036611617 0.18301111
0.05006167 0.054259308 -0.21431872 0.089648 0.49814484

sfeb.1.weight f4 [5]
00000000: 37df 2f3f 81a6 db3e 5503 0f3f ddcf ef3e
00000010: d1c4 e23e
0.68699974 0.4290047 0.5586446 0.46838275 0.44290784

sfeb.1.bias f4 [5]
00000000: 579d 6b3d a536 863c a141 e83e a947 053f
00000010: 1482 a53d
0.057523098 0.016383478 0.4536257 0.5206247 0.08081451

sfeb.1.running_mean f4 [5]
00000000: bd7b dc38 24bf 83b9 5db5 05b9 00d0 a1b8
00000010: 3d9f 2139
0.000105134655 -0.00025128678 -0.00012751431 -7.715821e-05 0.00015413477

sfeb.1.running_var f4 [5]
00000000: 517d ca3c 6fb4 0c3c c7dd 0d3d f09b ea3b
00000010: ad50 763c
0.024717959 0.008587941 0.03463533 0.0071597025 0.015033883

sfeb.3.weight f4 [32, 5, 1, 5]
00000000: f53a a2bd f901 cdbc 85b8 19bd 06bd e53a
00000010: 15f7 683b 7a35 b73c cddd 823d 282a bd3d
00000020: ee33 2a3e 0c1b 063e 272c 0c3d fef2 7e3d
00000030: 67f9 3e3d 6a92 52bd b206 a53b 9e0c 38bd
00000040: 69dd a3bc 22dc 48bb 17ea f3ba ba8b 34bc
00000050: 9059 0fbd 50ca 7a3b 877e 833b 41c0 b23c
00000060: 432e 123d fe5a aabc bb96 af3b bc8c 973c
00000070: 29df 1fbd af85 aabd e5a5 c2be 7d9c 91be
00000080: 70c9 3bbe dfee 16be 1266 f0bd f8fd eebd
00000090: 8c14 3cbe 689d 9dbd fe82 eebd 874e acbd
000000a0: fe47 7cbb 0b03 ccbc eb7c 92bb 076f 85bb
000000b0: 3504 5cbc 14e7 1d3e 89d0 573e 2ad6 313e
000000c0: a136 683e 7e8b 6e3e 764f 2abc 27bb 14bd
000000d0: ef91 b4bd 23e8 8ebd c357 5bbd 1dc9 7c3c
000000e0: 8c31 8c3d c709 4c3d 1add 9a3d 17e1 a13d
000000f0: d30f 80bc f677 09bc bcc5 42bd e202 2abb
00000100: 50b5 f8bb 2d11 813c 14c2 713c 5506 1ebb
00000110: 2eed 1bbd 4908 223c 65a3 90b8 69ac e5bb
00000120: 7c90 1cbd ac88 92bc 35c1 52bc a721 a2bd
00000130: 8edf 26be dfe7 73be 6168 0dbe c244 e6bd
00000140: 27b2 c3bd 3651 5bbb 2391 b5bd 3e42 06bd
00000150: 8ff4 8f3d 1bfa 583e 1cc3 0e3e 1520 713d
00000160: 3696 0ebd 8f41 43bd e7a5 85bd 693d 61bd
00000170: a32c 9abc 5357 ea3b b38e f53b f32f 04bd
00000180: c5d6 b53d a69e d03c bbd2 2d3e 1a6d 693e
00000190: e352 443d 976e db3d 5347 8e3d d9ae 243c
000001a0: 9506 5ebc 516a febd ebe4 67bb be68 d23d
000001b0: ea64 153e e605 193e 9314 c9bd 296e 24be
000001c0: cc2d 07be 9b8b cebd 0065 adbd 4f45 8dbc
000001d0: 89e6 07bd 9ae5 12bc c56f eabc 1a20 7c3b
000001e0: 3931 1c3b 5d5e 86bd 1ff6 bdbd 5fb8 acbd
000001f0: 4d2b dbbd 71f5 8a3c bcfa 67bd d988 1abd
00000200: 5904 8dbd e5e7 9fbd 617f d0ba 9e5e 63bb
00000210: 2db3 91bd f3df d0bd 9ff2 cabd e89a afbd
00000220: 8854 a0bd dd53 df3b e85f a03c dec3 b4ba
00000230: 0f7b a4bb 6af0 3fbd 03a4 b4bc cd13 ae39
00000240: 012e 853b afad 8dbd 90a6 8abd 8340 abbc
00000250: 33da 343d 15cb 0a3e ca13 2cbe fcc9 dabd
00000260: 1dfa 95bd def2 cdbd 2b0b 4c3c 9886 d6bd
00000270: 05dd adbd 7266 41bd d33d d93c 9bc5 3e3e
00000280: 5173 8d3d b5ff f0bb 6363 12bd 3819 93bb
00000290: 8d3d 313b 51a0 fe3c 9d7e c63b 1b5b 9b3b
000002a0: 7a4b f83c 949f 84bd ba67 edbb 2494 1ebd
000002b0: bd3d 93bd c54b debd 6e8b e5bd 6124 a03d
000002c0: b2df 953c b555 5ebd e69d c2bd ed2c a0bc
000002d0: 042d 6abd 7372 e6bc 832a 423d d19f 203d
000002e0: 8078 29bc d858 923a 34bf e1ba f76f 24bd
000002f0: c8ff 9dbd f49c 7ebc 14b0 3c3e 3fab 433e
00000300: d489 76bd 8524 37be 235c e1bd a2f9 5c3b
00000310: 40f1 013d 7797 c8bc 2f9a c1bb 0987 483d
00000320: d8ef 25be 8edf 4abd 6499 91bd 9ff2 fa3d
00000330: d5f0 a13d 336a f0bc 92be 533d 2dd6 5fbd
00000340: d0f1 81bd 73c1 71bc 5710 893c c3c8 533d
00000350: 8078 bc3d 69c2 df3d a263 b4bd f699 a2be
00000360: 9e3c 8fbe a36f e63d 15d5 923e da2f e03d
00000370: 25f3 563b 03fe b23c 2f77 793d 406a 123a
00000380: 37d4 2abc 14a7 bc3b 3362 693c 44c3 ccbd
00000390: a2bb f43c b162 88bd 8180 50bd c49e 8c3d
000003a0: a4a6 10be 17d4 c83d 950a 09bd b233 973d
000003b0: 3662 39be ed6c f53d 15b9 41bd d88b 5dbd
000003c0: f4ad 843e 668e 10bf 8779 9f3e cf0a 883c
000003d0: 1275 35be 36e6 96bb 82ba d9bd 3c66 103e
000003e0: f169 e4bd 3043 b23d fa7e 1dbd 2c2b 6dbd
000003f0: 197f 813d 170f e4bd 687b 853d 4e0f 83bd
-0.079214014 -0.025025355 -0.037529487 0.0017527647 0.0035547663 0.022364367 0.063899614 0.09236556
0.16621372 0.13096255 0.034221794 0.062243454 0.046624567 -0.051409163 0.0050361985 -0.044933908
-0.020003038 -0.0030648788 -0.0018609193 -0.0110196415 -0.034997523 0.003826756 0.004012886 0.02182019
0.03568865 -0.020795342 0.0053585446 0.018499725 -0.03903118 -0.08326279 -0.38017192 -0.28439704
-0.18338561 -0.1473956 -0.11738218 -0.116695344 -0.18367213 -0.076960385 -0.116460785 -0.084134154
-0.003849506 -0.024903795 -0.004470458 -0.0040720734 -0.013428737 0.1542018 0.21075644 0.17366853
0.2267709 0.232954 -0.0103949215 -0.036311295 -0.08816897 -0.0697787 -0.053550493 0.0154288085
0.06845388 0.049814012 0.07561703 0.079042606 -0.015632546 -0.008390417 -0.047551855 -0.002594166
-0.0075899735 0.01575526 0.0147557445 -0.002411266 -0.03806799 0.009889671 -6.89689e-05 -0.0070090783
-0.03822373 -0.017887436 -0.012863447 -0.07916575 -0.16296217 -0.2381892 -0.13809349 -0.11243583
-0.09555464 -0.0033465154 -0.08865573 -0.032778017 0.07029068 0.21189158 0.13941616 0.058868486
-0.03481122 -0.047669943 -0.06525784 -0.054990206 -0.018820113 0.007151523 0.0074938177 -0.03227229
0.08878855 0.025466274 0.16974919 0.22795525 0.04793061 0.10714453 0.06947198 0.010051453
-0.013551374 -0.12422622 -0.0035384248 0.10273884 0.14589277 0.14943656 -0.09818377 -0.16057648
-0.13201064 -0.100852214 -0.0846653 -0.017244963 -0.03317884 -0.008965874 -0.028617749 0.0038471282
0.002383305 -0.06560967 -0.092754595 -0.084336035 -0.10701618 0.016962739 -0.056635603 -0.037728164
-0.06885595 -0.07807902 -0.0015907102 -0.0034693847 -0.07114253 -0.10198965 -0.099095576 -0.08574468
-0.07828623 0.006815417 0.019576982 -0.0013791283 -0.0050195525 -0.046860136 -0.022050863 0.0003320262
0.004064322 -0.06917893 -0.067700505 -0.020904785 0.044153403 0.13554032 -0.16804424 -0.10683057
-0.07323096 -0.10056089 0.0124538345 -0.104748905 -0.08489422 -0.04721684 0.026518738 0.18630068
0.069067605 -0.0073547014 -0.035739314 -0.0044890903 0.0027044744 0.031082304 0.006057574 0.004741085
0.030309428 -0.064757496 -0.007245031 -0.038715497 -0.0718951 -0.10854296 -0.11208235 0.07819439
0.018295143 -0.054280955 -0.09502773 -0.019552672 -0.057171836 -0.028130746 0.047403824 0.039214913
-0.010343671 0.0011165394 -0.0017223121 -0.04014584 -0.07714802 -0.01554035 0.18426543 0.19108294
-0.060190037 -0.17885025 -0.11003902 0.0033718129 0.031724215 -0.024486287 -0.0059082727 0.048956905
-0.16204774 -0.049529605 -0.07109335 0.122533076 0.07907263 -0.029347515 0.051695414 -0.054647613
-0.0634495 -0.014755595 0.016731424 0.051705133 0.09202671 0.10925753 -0.08808066 -0.31758088
-0.27975935 0.11251762 0.28678194 0.10946627 0.0032798734 0.021849638 0.060904678 0.00055852905
-0.0104265725 0.005757222 0.014244604 -0.099981815 0.029874627 -0.06659449 -0.0509038 0.0686622
-0.14126068 0.09806078 -0.033457357 0.07382907 -0.18103871 0.119836666 -0.04729565 -0.054088444
0.25913966 -0.5646728 0.31147406 0.016606716 -0.1772044 -0.00460508 -0.10631277 0.141015
-0.11153019 0.08704221 -0.038451172 -0.0579025 0.0632307 -0.11135691 0.065176785 -0.063994035

sfeb.4.weight f4 [32]
00000000: 0d9e 763e 40b8 543f 2aa2 0e3e 1cc7 ef3e
00000010: adb1 003f fc46 553e 235f 6b3e c61c 913d
00000020: c911 d83e 90af 0b3f bf63 b93e 2db3 d53e
00000030: 4698 e23e dfcb a43e 47c9 803e 3df4 cb3e
00000040: 5fb6 143f 9594 5a3e a1ec 9c3e 3a6d 753e
00000050: 87c8 613e 0018 ee3e e3b0 9a3e ae8c c23e
00000060: 557a 073f 9adc 0c3f e2ff 663e 9c94 033f
00000070: e52d 8d3e 00b7 9b3e 07cb bc3e e68f 2c3e
0.24083729 0.83093643 0.13929048 0.46831596 0.5027111 0.2082786 0.2298551 0.07085566
0.4220107 0.5456476 0.36208913 0.41738263 0.442568 0.3218679 0.25153562 0.39834777
0.58090776 0.21345742 0.30649284 0.23967448 0.22049151 0.46502686 0.3021308 0.37997955
0.5292104 0.5502411 0.22558549 0.51398635 0.27574077 0.30413055 0.36873648 0.16851768

sfeb.4.bias f4 [32]
00000000: 83dd 80bd 68d7 a1bd 927c 183c 8222 05bd
00000010: 9861 7bbd 0a2d d0bc f24a c0bd ea3c 3b3d
00000020: 2134 9dbd 5585 edbc c0bd 50bb 8a06 b13c
00000030: e232 8e3c 6f0e a4bc 50af b33c abe8 143d
00000040: 8878 ec3c b0cd 103d 6d8c 56bc 9f85 86bd
00000050: 80cf 60bd efad 73bd 56a8 22be c26b 3e3d
00000060: 869b 8f3d 8dee 9aba 6d4f 8fbd 86a6 5fbd
00000070: 89a9 46bd 8c1e a5bd fa10 25bd 5eaa 1f3d
-0.0629225 -0.079024136 0.009307044 -0.032503612 -0.06137237 -0.025412101 -0.09389295 0.04571239
-0.076759584 -0.028994242 -0.003185138 0.021609563 0.017358247 -0.020026414 0.021934181 0.036354702
0.028866068 0.03535241 -0.013095004 -0.06568455 -0.054885387 -0.059492048 -0.15884528 0.046489485
0.070120856 -0.0011820361 -0.06997571 -0.05460217 -0.048501525 -0.08062467 -0.040299393 0.038980834

sfeb.4.running_mean f4 [32]
00000000: 3167 0a3d 6196 9ebe 16ce 94bd 14a5 573c
00000010: 585e a4be fcb3 39be 6011 01be 437b 71bd
00000020: 51d7 d53c f316 24be 2b5c edbd fd0c 89bd
00000030: e987 e5bd 7ba1 0fbe 5fc6 2bbe 2767 72bd
00000040: 60fa 1abd b6f9 8ebd 652b f9bd cca3 bdbd
00000050: d04c 24be 68f0 f0bd f3a6 28be fab3 9abd
00000060: ed06 2d3e 49d9 2dbe e490 db3b e48a 0f3e
00000070: 174a 1bbe 43dc 1fbe d8f7 15bd 010f 52bd
0.033789817 -0.30974105 -0.0726587 0.013161916 -0.3210323 -0.18135065 -0.12604284 -0.058955442
0.026103647 -0.1602438 -0.11589845 -0.066919304 -0.112075634 -0.14026444 -0.16774891 -0.059180405
-0.037836432 -0.06981222 -0.1216648 -0.092597574 -0.16044927 -0.11764604 -0.16469936 -0.07553859
0.16897173 -0.16977419 0.006700622 0.14017826 -0.15164982 -0.15611367 -0.036613315 -0.05128384

sfeb.4.running_var f4 [32]
00000000: 6d0e 2c3c 5fe8 9f3d ba60 d13b e859 493d
00000010: f75e 263d 0866 ca3c 745e 0a3d 88ac 943c
00000020: 922d 503d 51f8 a63d eb52 903d 78be 953d
00000030: 5352 863d baf3 853c 08c1 1a3c 86f8 673c
00000040: 59fc 3d3d 3a32 013c 34ef 293c 3905 703c
00000050: 85f3 873c c04a 3f3d 4607 023d 70e4 f03c
00000060: d66a 3a3d 2f0f 8e3d ed6a 943c 3ab6 483d
00000070: 6b55 353d bcc5 ac3c f4a2 b73c ebff 9a3b
0.010501486 0.07807993 0.0063897045 0.049158007 0.04061791 0.024706855 0.033781484 0.018148676
0.05082471 0.08152831 0.07047065 0.0731172 0.06558671 0.01635157 0.009445436 0.014158374
0.046383236 0.00788551 0.010371972 0.014649683 0.016595611 0.046702147 0.031745218 0.029405802
0.045512043 0.0693649 0.018117392 0.04900191 0.044270914 0.02109038 0.02241657 0.004730215

tfeb.0.weight f4 [9, 1, 3, 3]
00000000: b8fd 5a3b 645d d63b 5fad 713b ee25 3d3b
00000010: 2d43 973b 53b7 993b 0008 99bb 9b7e 823c
00000020: 535b babb cd22 ddbe 64ab bd3d 7b18 243e
00000030: beb9 02bf 9ff4 053e e321 b23e b34f 47be
00000040: ba74 9d3d a3b0 203e fcd7 9a3b 8e7c de3b
00000050: 431b df3b 6013 f039 a97d f13a 6b98 4f3b
00000060: ead1 4c3c 9525 e53c e3a2 843c eaf4 003e
00000070: e2a6 d53d a13f 963d 06c2 8ebd 744e 13be
00000080: b4a0 95bd 0891 5cbe f62e 19be 103f 21bd
00000090: 6a46 53ba a167 973c 523b aeba e6cf 0b3a
000000a0: afc4 4c3b abc0 3c3b aa53 4a3c f737 c53c
000000b0: c1f7 93ba 85cf 433d e047 f33d f9d0 bf3d
000000c0: 4f71 72bd 25a3 823e 931d f83c 2dbe 8ebd
000000d0: f4fa e93d 7205 a93c 1367 98bd b88d 8abd
000000e0: b6a8 e3bd e59f 013d b319 b3bd dbed eb3d
000000f0: be66 9bbd 1a22 dabd 8413 91bd 07ca 983e
00000100: 8456 cf3c a783 bbbe 48ed ab3e abdc d1bb
00000110: 98a6 b2be b54c 89be 5f38 8d3d ef32 3c3e
00000120: 2f29 d9bc c6ee 95bc b7d3 343d 52da a9ba
00000130: 41d1 a33a 346a 0039 af99 19bb c6b6 acb9
00000140: a9db 3e3b
0.0033415388 0.0065418947 0.003687702 0.002886172 0.0046161623 0.0046910434 -0.004670143 0.01592951
-0.005687156 -0.43190613 0.09261206 0.16024964 -0.5106467 0.13081597 0.3479148 -0.19463997
0.076882794 0.15692382 0.0047254544 0.0067897504 0.00680867 0.00045790803 0.001842429 0.0031676542
0.012501219 0.027972022 0.016190952 0.12593427 0.10432221 0.07336355 -0.06970601 -0.14385396
-0.07306042 -0.215397 -0.1495932 -0.03936678 -0.0008059504 0.018482031 -0.0013292825 0.00053334085
0.0031245162 0.0028801362 0.012349049 0.024074538 -0.0011289046 0.047805328 0.118789434 0.0936603
-0.05919009 0.25515094 0.03028754 -0.06969867 0.11424819 0.02063248 -0.07441535 -0.06765312
-0.111161634 0.031646628 -0.08745136 0.11519977 -0.07587956 -0.106510356 -0.070838004 0.29841635
0.025309809 -0.3662388 0.3357947 -0.0064044795 -0.34892726 -0.26816335 0.068955176 0.18378805
-0.026508896 -0.018302333 0.04414722 -0.0012958741 0.0012498276 0.00012246595 -0.002343755 -0.00032942573
0.0029122627

tfeb.1.weight f4 [9]
00000000: 9ffa b73c 057e 6d3e fa81 0a3d eb14 a03e
00000010: d8b7 e13c 9654 013e f6af 053e 891b 9a3e
00000020: 31c6 db3c
0.022458373 0.23192604 0.03381536 0.3126596 0.027553484 0.12629923 0.13055405 0.30099133
0.026827903

tfeb.1.bias f4 [9]
00000000: d1e5 60bd 9c97 203e d7fd 96bd 6927 223b
00000010: 9f9a abbd 82da 1b3e d94e fc3d aad5 3ebd
00000020: b023 cebc
-0.05490667 0.15682834 -0.07372635 0.0024742729 -0.08379101 0.15220073 0.123197265 -0.046590485
-0.025163502

tfeb.1.running_mean f4 [9]
00000000: 7133 293c 27a1 3fbd 6490 d53c baa5 0cbe
00000010: 8521 9a3c 3b51 3a3e fc67 13be 2d5f f2bc
00000020: a2a9 54ba
0.010327206 -0.046784546 0.026069827 -0.13735095 0.018814811 0.1819505 -0.14395136 -0.029586399
-0.00081124355

tfeb.1.running_var f4 [9]
00000000: 088c 4339 08de 2c3d 2743 a53a f65b 983d
00000010: 497d 263a b07e 763d a84c 203d f5c0 933c
00000020: ff23 cf38
0.00018648815 0.042203933 0.0012608514 0.07439415 0.00063510664 0.060179412 0.039135605 0.018036345
9.877234e-05

tfeb.4.weight f4 [16, 9, 3, 3]
00000000: d050 0a3b 5d6e bebb 436c c2bb 3b36 09ba
00000010: 041c 16bc ec0f 1bbc 13e6 d7b9 0eeb e1bb
00000020: 99a5 debb 3cd4 7dba 659a 243d 251b 20bd
00000030: 4e1b 77bb 8e96 643c a59e ccbd 4bc4 c0bc
00000040: 0fb1 4bbc 96a2 a0bc 8cd6 3c3a 8fb6 eebb
00000050: 584c 0abc dcff 85bb 67a7 55bc 880b 4abc
00000060: 46d5 bc3a 119e d3bb c44c cbbb 3533 1d3d
00000070: 080f c3bc 4574 98bd b664 4fbd ff07 fa3c
00000080: 959c 823d 80cc b03c 4688 0b3d f719 1f3d
00000090: efa2 153b bf9b edbb 3378 30bc a7cf 80ba
000000a0: d80a 23bc b5c2 51bc 88f7 c338 f3e5 fabb
000000b0: cde8 1dbc 3c3a 9abc 31a0 323c bf70 ddbc
000000c0: 48d4 4abc 1bb2 5f3d 174b 1b3d 65c8 64bc
000000d0: c730 953b d089 3dbb 0ffe 793c 5c02 adbc
000000e0: 26d8 44bc 01a8 1bbc 88a3 1dbd a9f4 e1bc
000000f0: 4d19 0f3d ce1a 983c 71d6 073d f813 563d
00000100: 1df5 f8bc 3808 e8bd 266e 34bb 4b1a 6bbd
00000110: 08ff 52bd 9dff 67bd 93c4 c9bc 91bc b6bd
00000120: 0202 bdba e599 c8bb e12d 91bb 6c3d 33bb
00000130: e0eb ccbb d986 b9bb 00d3 32ba 2f44 8ebb
00000140: 8c20 15bb 90a0 833a 4a68 943a 2042 9f3a
00000150: 8718 2637 279a 2f3a 0bf4 833a f49b 01b9
00000160: aab1 31b8 2799 803a eabe 7a3c 743a 613c
00000170: 00c2 26bc fd25 5a3d 3b21 633d 2bbf 8f3a
00000180: 48c6 933c 3e45 b33c 602f fc3b e283 9c3a
00000190: e054 103b b1a4 103b 1eff 96b9 4516 a13a
000001a0: c7c7 233b 1345 07b9 39d6 9639 5779 ed3a
000001b0: c864 243a bde6 9a3a a5d0 11bb 0c48 e5ba
000001c0: 7dbf a43c 1dec 0f38 01cb 46bb 3493 543b
000001d0: fbd0 913b a525 aa3a f1db f23a 996c fd3a
000001e0: 2d0e ae39 b1a4 903a 95d5 ee3a 1004 0fb8
000001f0: 7ef0 f539 afea b83a d762 97ba d00e bb3b
00000200: a7a6 e03b 6b60 39ba 585a e03c 8707 073c
00000210: e510 94bb 6f46 5e3b 7bd3 b53b 1711 9a3c
00000220: 8cb8 8d3c 4520 853c a322 d63c 475c d83c
00000230: 3380 a13c 9219 893b b871 f63a 836f 3d3a
00000240: 6967 24bc c0c0 05b9 153c 4ebc 830b e6bb
00000250: e5a8 143c 5c22 f83b dbf7 4fbb 36ed 2b39
00000260: 7be0 163c ea2a 413a 6a2c a53a 8302 193a
00000270: 378d ce3a 49d9 f83a a481 733a c1d0 c938
00000280: da59 463b c439 d93a 7c9f 6a3a 3186 deba
00000290: 9612 b0ba b981 19bb 868b 91bb 425c bcbb
000002a0: 6464 8e3b e92c 773a 90e1 0cba b20f 08be
000002b0: 591d 9dbc d679 cbbb 4aee 92bd 17a1 ffbc
000002c0: f6a0 51bd 2c44 413d 7a72 79bd c02f 873c
000002d0: 09ed edb9 219b 093c 08ce b2bb 3dd3 08ba
000002e0: 1c44 a1bb 4cae 14bc de72 d83b 6979 20ba
000002f0: c032 3bbb 2716 0f3d 8a66 823b 4c70 c3bd
00000300: f5c8 bcbd cf0b 68bd c7c7 5d3d efe4 d8bc
00000310: af78 53bd 5623 57bd a32f f93a 3cb4 21bb
00000320: c0b8 7fbb 6970 9d39 039e 7dbb 8801 d5bb
00000330: b8ba a43b 879b ebb9 3172 ecba 50dc 2fbd
00000340: fff1 8cbd 2c74 3ebd 019a 89bd 4c19 a2bd
00000350: 4123 fbbc 1bfb a73d 3c11 e83c 144d 833b
00000360: 49f5 513c 3081 153d 8467 58bc 0003 0bbb
00000370: 314c a63b 365c b3bc bdea 26bc 9c41 ee3c
00000380: 28af ef3c e490 ff3c 47c0 f33c 253a 41bc
00000390: cc02 b43d 78d2 71bd 34f1 15bd 041c 103d
000003a0: 50b1 403d 2e95 603d daea 09bb 6ef7 96ba
000003b0: 5332 e1bb e06e 88ba d5df 3039 de70 97bb
000003c0: 4e42 e5ba 5416 4938 a1fe aabb b73a c1b8
000003d0: b782 3338 c848 d639 251f 87b9 f2be 87ba
000003e0: 50d4 82b9 5e43 bd3a a210 ce39 3d72 513a
000003f0: 429d 34bc ba4f c63c 8dea e6ba 6a0c fbb9
0.0021105297 -0.005811496 -0.005933316 -0.0005234216 -0.009161953 -0.009464245 -0.00041179414 -0.006894476
-0.006794643 -0.00096828095 0.040186305 -0.039088387 -0.0037705484 0.013951911 -0.099911965 -0.0235311
-0.012432351 -0.019608777 0.0007203601 -0.0072849463 -0.008441053 -0.0040893387 -0.0130404 -0.012331851
0.0014406822 -0.006458052 -0.0062042195 0.038378913 -0.023810878 -0.07444052 -0.050633155 0.030521391
0.06377522 0.021581888 0.034065507 0.03884312 0.0022832712 -0.0072512324 -0.010770845 -0.000982751
-0.009951316 -0.012802769 9.344431e-05 -0.0076568066 -0.009638024 -0.018826596 0.01090245 -0.0270313
-0.012379713 0.054613214 0.037913408 -0.013963793 0.004552934 -0.0028921254 0.015258326 -0.02111929
-0.012014424 -0.0095005045 -0.038486034 -0.027582483 0.034936238 0.018567469 0.03316349 0.052265137
-0.030390317 -0.113296926 -0.0027531474 -0.05739812 -0.051512748 -0.056640256 -0.024629867 -0.08922685
-0.0014420154 -0.0061218613 -0.004430518 -0.0027349843 -0.0062537044 -0.005661827 -0.00068216026 -0.004341624
-0.0022754995 0.0010042358 0.0011322584 0.0012150444 9.900082e-06 0.00066986907 0.0010067237 -0.00012360496
-4.236555e-05 0.0009811268 0.0153043065 0.0137468465 -0.010178089 0.053258885 0.055451613 0.0010967007
0.018038884 0.021883603 0.007696077 0.001194116 0.0022023246 0.002207082 -0.00028800307 0.0012289962
0.0024990903 -0.00012900335 0.00028769838 0.0018117827 0.0006271121 0.0011818033 -0.0022249606 -0.0017492785
0.02011084 3.4313754e-05 -0.0030333402 0.0032436373 0.0044499612 0.001298119 0.0018528682 0.0019334733
0.00033198428 0.001103541 0.0018221611 -3.409764e-05 0.00046909222 0.0014108027 -0.0011549842 0.005708553
0.006855804 -0.00070715573 0.02738683 0.008241541 -0.0045186155 0.0033916493 0.005548892 0.018806977
0.017299913 0.016250739 0.026139563 0.026411189 0.01971445 0.0041839564 0.0018802201 0.00072263944
-0.0100344205 -0.00012755673 -0.012587567 -0.0070204153 0.009073471 0.0075724553 -0.0031733427 0.00016396199
0.009208794 0.00073687604 0.0012601737 0.0005836861 0.0015758638 0.0018985654 0.00092890323 9.62331e-05
0.0030265958 0.0016573002 0.00089501566 -0.0016977248 -0.0013433273 -0.0023423268 -0.0044416813 -0.0057483027
0.0043454636 0.00094289944 -0.00053741876 -0.13287237 -0.019179033 -0.0062095923 -0.07174356 -0.031204743
-0.051178895 0.047184154 -0.06090019 0.016502261 -0.00045380768 0.008398802 -0.0054566897 -0.0005219465
-0.0049214493 -0.009074759 0.00660549 -0.0006121607 -0.0028564185 0.034933235 0.0039795088 -0.09542903
-0.09218017 -0.056651887 0.0541456 -0.026476352 -0.051628765 -0.052523933 0.0019011389 -0.0024674078
-0.0039020032 0.00030029126 -0.0038698919 -0.0065004267 0.0050271414 -0.0004493857 -0.0018039403 -0.042934716
-0.068820946 -0.04649751 -0.06718827 -0.07914981 -0.030656459 0.082021914 0.02832853 0.004006991
0.012814828 0.036500156 -0.013208274 -0.0021211505 0.0050750007 -0.021894556 -0.010187802 0.02908402
0.029258326 0.031197019 0.02975477 -0.011793648 0.08789596 -0.05903861 -0.036606982 0.035182968
0.0470441 0.05482977 -0.0021044523 -0.0011517832 -0.006872454 -0.001040902 0.00016868052 -0.004621609
-0.0017491074 4.794293e-05 -0.0052183424 -9.213894e-05 4.2798663e-05 0.00040871487 -0.0002577241 -0.0010356589
-0.00024953717 0.0014439633 0.00039303774 0.000798974 -0.011023821 0.024207938 -0.0017617509 -0.000478837

tfeb.5.weight f4 [16]
00000000: bb6e 873e 8ed0 9e3d 4d62 d23e 6d78 223e
00000010: a00d ad3e c535 3c3e 2e2d 523e b4fc c13d
00000020: 7541 8b3d 2c12 ec3d 5a35 8c3e 6443 5b3e
00000030: 2653 473e 8434 ab3d a528 303e fab9 773d
0.26451668 0.077546224 0.41090623 0.15866251 0.33799458 0.18379886 0.20525047 0.094720274
0.06799594 0.115269035 0.27384454 0.21412426 0.19465312 0.08359626 0.17203005 0.060480095

tfeb.5.bias f4 [16]
00000000: f30e 22bc 62e4 cbbd 1f55 fabd 7201 74bb
00000010: f1e0 20be ab24 633d 6424 58ba eb1c da3b
00000020: bf46 753d 76c6 e33c 8547 bfbd 70f0 423c
00000030: 1ab0 fd3c 55cd 4cbe a6ee 0fbd 67f1 0ebd
-0.0098912595 -0.0995567 -0.12223267 -0.0037232307 -0.15710808 0.05545489 -0.0008245169 0.0066562793
0.05988192 0.027804594 -0.09339813 0.011898145 0.03096776 -0.20000203 -0.035139702 -0.034898188

tfeb.5.running_mean f4 [16]
00000000: bab9 46bd f5ab 983d 5e21 02be 02ae 77bd
00000010: 55eb c0bd 2f0e 98bb bce1 b3bd 7c01 f23b
00000020: 4af4 98bc fada d4bc c218 8bbd 042e bd3c
00000030: 100c a3bd e7f2 373d ecdc 8fbd 7ff8 063c
-0.048516966 0.07454673 -0.12708041 -0.06046868 -0.09419886 -0.0046403627 -0.0878329 0.007385431
-0.018671174 -0.025983322 -0.067918316 0.023093231 -0.07961285 0.044909384 -0.070245594 0.008237957

tfeb.5.running_var f4 [16]
00000000: 93b5 993b 4a54 693a bbd7 c93b 740e 013b
00000010: 8a9d 6d3b 851e 573b cc19 ae3b 4c5d 433a
00000020: 49ad d73a 677a db3a 4bd4 f83a 04c0 513b
00000030: 9ed9 db3a 4c21 ea39 ee98 153b a55a 9239
0.004690835 0.00089008047 0.0061597503 0.0019692453 0.003625723 0.0032824588 0.005313134 0.0007452562
0.0016454841 0.0016744853 0.0018984167 0.003200532 0.0016773229 0.00044656766 0.002282675 0.00027914825

tfeb.7.weight f4 [23, 16, 3, 3]
00000000: 320a aa3c f9ae c4bb e7f4 6fbc 2460 d7bc
00000010: 9864 69bc 0824 7bba 6924 aa3b 69a2 523b
00000020: bcd2 bfba 8d1d a43c e4a2 5c3c 5e5d 8c3b
00000030: 7778 073c fddb 093c 80c4 413b 4964 5b3b
00000040: 993a 153c 7f81 903b 041e 68bc 01d4 41bc
00000050: a50d e0ba 87f4 6ebc 9718 bdbb 98fd e73c
00000060: b642 43bc 6d46 f2bc e51e 113c 0891 c6b9
00000070: 0899 84bb 8032 89ba f0a7 da3b b86c 80ba
00000080: ad39 b43b 1a2f 923b 2125 4639 ea75 86b8
00000090: 46a9 3c3a 772e 923a f325 c63a a94f eb3a
000000a0: 1dd5 a83a 4e3e 7a39 d975 6c3a 1835 3c3b
000000b0: 62ad 6a3b 4bee aa3c 75cb a3ba f0f9 69bc
000000c0: 18f4 e93c 5ab7 3cbb 9a36 2cbc a100 843c
000000d0: caf2 b1bb 1a2b 80bc e0bb de3b 3934 e13a
000000e0: 113a 73bb c7a5 2a3c 417c 5b3b b7a2 7dba
000000f0: b031 063c ca9e 993b 8c20 743b c3de 2cbc
00000100: 66e8 e2bb e8d7 d539 702b aeba e4d5 813b
00000110: f751 773c d4ef 33bb a641 95ba fd26 d53a
00000120: 376b 6c3c 5056 ce3c f182 a13c fd65 1c3c
00000130: 27d4 b73c e23f bc3c 2ff5 14bc 9efa a93b
00000140: f6cf a63c 1f18 9cbb 21a3 ebba a0a9 213c
00000150: f55c dcbb d92f 8ebb 53b0 5a3b 24d6 59bb
00000160: 1a4a 073b eb65 293c 2084 df38 c9a9 edba
00000170: 2328 103b ca28 84ba f4cf c03a bc7e 1e3a
00000180: 7e34 f2b9 5a0f 81bb af03 dab9 5086 84bb
00000190: e076 d4b8 e8ca c33a ccdb 73bb 8eaa beba
000001a0: 796d 973b 01db 19bb 6587 7339 4299 a23b
000001b0: 56db 93bb d775 9cba 0abc 6c3c 45d5 9f3c
000001c0: 0978 9e3c c0c1 ae3c 11a9 28bb 9b5a 633b
000001d0: 6e79 3f3b e8eb 5638 70fc ff3b 9d9d 003c
000001e0: f84b 89ba 9fcf ad3b 94e6 7b3b cbfd 7abb
000001f0: b5e0 223a 28d8 363b bcc6 dc3c 1768 8d3c
00000200: 0d60 4b3b 0f47 ec3c bdbe a83c ff2d b63c
00000210: a581 9ab8 80c6 7f3a 50c4 603a dac9 2a3c
00000220: 724d 023c e840 9e3b d6a5 353c 1317 e33b
00000230: 4fe6 773b 64f8 873b 377b 1f3b 1ec8 70ba
00000240: 890d 6b3c be4f 1ebc 5e4c f7bb cf45 f8bb
00000250: 687e 9fbc d881 59bc d001 a13c 54d3 26bc
00000260: 683d bbbc 3b78 5a3b 9017 fdba 4889 48ba
00000270: 988d 113c d162 813b f38c 1139 ca61 463b
00000280: 40a3 043b 5a56 f239 1a40 c13c 124e f93b
00000290: d1a0 243c 3a0b 043b f6ea 843b 84cc 743b
000002a0: c9c8 763b a890 99bb aeed 573b 4e72 d43c
000002b0: c339 ca3a 0ecf 9e3b e427 34bb a3bb d9bb
000002c0: 463b 81ba 2510 a13c 4361 5eb8 4bd9 e4ba
000002d0: e87f 87bc 6458 c9b7 0033 52bc 2c3b 163b
000002e0: 6c70 12ba efa7 9dbc c112 5f3b 38b8 22ba
000002f0: 4e92 88bc 7266 90ba ec31 123d 007b 343d
00000300: 3a03 aa3c b5b6 033d 9499 803b 076b 603d
00000310: 6acd ba3c cb20 683c 5cce b23c 9249 d6bb
00000320: e0d9 efbc ed40 ca3a a648 80bb 6de7 99bc
00000330: 457b e839 5fc3 16ba 845b b4bc 7b83 81bb
00000340: 7b5e 46bc 9ba9 0cbb cdae d7b9 6bf8 c9bb
00000350: 5877 ecba 7711 77bb 32e5 83bb c88e 5e3b
00000360: f60f 7abb b27c e3bb 262c 983b fc4a 3abb
00000370: a79d 33bb a60c 103c a23f 8fb9 4e8b 273b
00000380: f6b2 1a3c 9948 dfbc 984f d3bc 674e d4bc
00000390: ddfc 18bc 9825 6bbc dbf8 4fbc 17f1 b6bc
000003a0: b4ad 3abc d988 c5bb ecf5 b53c cb7d 93bb
000003b0: 371c 19bc 9ec6 cbba 90fd a5bb 82c0 c8bb
000003c0: dc86 7ebb 2cfb efbb a40e c4bb 0877 083b
000003d0: 9b7d cb3a d27b 43bc acb3 503c 13d3 96bc
000003e0: 3a3c 2cbd 85cb b3bc 0411 78bc 3ca7 70bc
000003f0: 5ccf caba 60a2 62bc 09a9 0fbd 9ebe d2bb
0.020756815 -0.0060023037 -0.014645792 -0.02629096 -0.014245175 -0.0009580259 0.0051923287 0.003214026
-0.0014634947 0.020033622 0.0134665705 0.004283591 0.008268467 0.008414266 0.0029566586 0.0033476523
0.009108209 0.0044099684 -0.0141673125 -0.011830331 -0.001709391 -0.014584667 -0.0057707536 0.028319165
-0.011917761 -0.029574597 0.0088574635 -0.0003787356 -0.004046563 -0.0010467321 0.0066728517 -0.0009798026
0.0055000396 0.0044611814 0.00018896583 -6.411581e-05 0.00071968546 0.0011152764 0.0015117511 0.0017952818
0.0012880896 0.00023865068 0.0009020246 0.002871817 0.003580891 0.02086558 -0.0012496548 -0.014280781
0.028558776 -0.002879581 -0.010511065 0.016113581 -0.005430554 -0.015645552 0.006797299 0.0017181701
-0.0037113468 0.010415501 0.003349081 -0.00096754305 0.008190557 0.0046881186 0.0037250845 -0.010551157
-0.0069246767 0.0004078739 -0.0013288092 0.0039622653 0.015095226 -0.002745618 -0.0011387363 0.001626223
0.014429859 0.025187641 0.019715758 0.0095458 0.02244003 0.02297968 -0.009091659 0.0051873466
0.020362835 -0.0047636176 -0.0017977693 0.009867102 -0.0067249485 -0.0043392 0.0033369258 -0.003323921
0.0020643533 0.010339241 0.00010658079 -0.0018132265 0.002199658 -0.0010082957 0.0014710412 0.00060461066
-0.00046196947 -0.0039385976 -0.00041582945 -0.0040443316 -0.0001013109 0.001493779 -0.0037209867 -0.0014546679
0.0046212045 -0.0023476484 0.00023224724 0.0049621174 -0.004512231 -0.0011936974 0.014449129 0.019510875
0.019344347 0.021332622 -0.0025735537 0.0034691456 0.0029216665 5.124128e-05 0.0078120753 0.007850078
-0.0010474911 0.0053042914 0.0038436996 -0.0038298245 0.00062132935 0.0027899835 0.026950233 0.017261548
0.0031032593 0.028842477 0.020598764 0.02223873 -7.3674404e-05 0.0009757057 0.0008574175 0.010424102
0.007953035 0.004829515 0.011086902 0.006930241 0.0037826484 0.0041494835 0.0024334916 -0.0009185093
0.014346489 -0.009662567 -0.0075469455 -0.007576681 -0.019469455 -0.013275586 0.019654185 -0.0101822205
-0.02285643 0.0033335823 -0.001930939 -0.0007649851 0.008883856 0.0039485474 0.00013880785 0.003027069
0.0020238906 0.00046222174 0.023590136 0.0076081837 0.010048107 0.0020148293 0.00405633 0.0037353346
0.0037656298 -0.004686434 0.0032948065 0.025933411 0.0015428591 0.00484646 -0.0027489597 -0.0066446825
-0.0009859584 0.019661019 -5.3019507e-05 -0.0017459778 -0.016540483 -2.4002227e-05 -0.012829542 0.0022923453
-0.000558621 -0.019245116 0.0034038278 -0.00062072603 -0.016671326 -0.0011016859 0.03569214 0.044062614
0.020753492 0.032156665 0.003924558 0.05478957 0.022803027 0.014167975 0.021826915 -0.006539532
-0.029278696 0.0015430726 -0.0039149104 -0.01878711 0.0004434233 -0.00057511585 -0.022016294 -0.0039524413
-0.012107487 -0.0021463397 -0.00041138232 -0.006163647 -0.0018040938 -0.003769962 -0.004025125 0.0033959616
-0.0038156486 -0.006942355 0.004643935 -0.0028426042 -0.00274072 0.008792078 -0.00027322496 0.002556521
0.009442082 -0.027256297 -0.02579479 -0.025916291 -0.009337631 -0.014352225 -0.012693609 -0.022331757
-0.011393953 -0.0060282764 0.022211991 -0.0045010797 -0.009345106 -0.0015546863 -0.0050656274 -0.0061264643
-0.0038837707 -0.007323643 -0.0059831906 0.0020822901 0.0015525104 -0.0119313765 0.01273815 -0.018411195
-0.042049624 -0.021947632 -0.015140776 -0.014688309 -0.0015473175 -0.0138326585 -0.035073314 -0.0064314147

tfeb.8.weight f4 [23]
00000000: 28e5 053e ab30 1d3e 4ad8 0e3e 8d41 6d3e
00000010: 53dd 7b3e 7236 0d3e c343 fc3d 1cea 5b3e
00000020: da5d 8f3e 9ae4 773e 63cf 193e e38d 383e
00000030: 33c3 2f3e e6ea 103e 6773 603e 77b6 473e
00000040: b4a8 173e 2e1a 643e 7e02 263e 2a79 923e
00000050: 7878 403e 07a7 f43d f417 1f3e
0.13075697 0.15350597 0.13949695 0.23169537 0.24596147 0.137903 0.12317612 0.21476024
0.2800129 0.24208298 0.15020518 0.18022875 0.17164306 0.14152107 0.21919023 0.19503199
0.14810449 0.22275612 0.16211888 0.28608066 0.18795955 0.119459204 0.15536481

tfeb.8.bias f4 [23]
00000000: ad90 35be 63d5 a13c f8f7 4fbc b1cd 07be
00000010: 7dd6 b7bd 7032 0b3c 9f72 96bd eabd e2bd
00000020: 76b1 38be 7a6f 0dbe 5117 b53d 6927 a23d
00000030: 658e 0f3c 394a d0bd b6e4 87bd f17b 74bc
00000040: 347a 7d3b 67ef f3bd e09c fd3d 2f1e 1abe
00000050: 01b9 5a38 ec89 1b3d ac77 5c3c
-0.1773097 0.019755071 -0.012693398 -0.13262059 -0.08976457 0.008495912 -0.07346081 -0.110713795
-0.18036446 -0.13812056 0.08842338 0.07917673 0.008761977 -0.10170407 -0.0663542 -0.014922128
0.0038677575 -0.11910897 0.12383437 -0.15050577 5.214755e-05 0.03797333 0.013456266

tfeb.8.running_mean f4 [23]
00000000: 06e9 7a3c ed72 32bc 0ad6 5abc fcf6 15bd
00000010: 9ad5 c6bc fc37 e9bb d668 81bc e279 a1bc
00000020: 0280 2dbd 942a f2bc 862b ec3b 839a 0f3c
00000030: df72 47bc 0a90 abbc 8fd1 a9bb 2599 e3bb
00000040: 8b84 38bd 92b8 b8bc 297a acbc 0e32 ffba
00000050: dacc 32bd 0bc9 c23c ca0a c03c
0.015314346 -0.010891658 -0.013356695 -0.036612496 -0.024271775 -0.0071172696 -0.01579706 -0.019711439
-0.042358406 -0.029561318 0.007207337 0.008764866 -0.0121733835 -0.020942707 -0.005182452 -0.0069457465
-0.045048278 -0.022548947 -0.021054344 -0.0019469874 -0.043652393 0.023777505 0.023442645

tfeb.8.running_var f4 [23]
00000000: df03 b939 5100 563a acd2 2c3a cbb6 303a
00000010: 4242 483a b1b3 033a 65da 9339 4476 823a
00000020: 65c5 bd3a 95b2 913a 45d9 0b3a 397c 593a
00000030: 35fa 413a e920 4239 f15b 463a 9a2c 773a
00000040: 6847 5b3a 7a52 b73a 923f 733a d790 903a
00000050: d597 2e3a 9bb1 d639 fa39 9b3a
0.00035288834 0.00081634993 0.0006592672 0.00067411055 0.0007639268 0.00050240295 0.00028200742 0.0009953459
0.0014478384 0.0011115844 0.0005334805 0.00082964037 0.00073996495 0.00018513542 0.0007566801 0.00094289484
0.00083648274 0.0013986372 0.0009279187 0.0011029494 0.0006660198 0.00040949587 0.001184284

tfeb.11.weight f4 [33, 23, 3, 3]
00000000: 4f98 08bb 0ffa 6eba 6918 90ba c735 1dbb
00000010: 6a06 81ba 070a 41b9 d58e abba e900 b7ba
00000020: 5c6c 2f3a 1c44 f7ba d128 75bc 2e87 f8bc
00000030: 42ae 45bb 1d34 13bb 902b cabc eb9c 7dbb
00000040: 55f5 2abb 3533 10bb 3849 d13b 2069 18bc
00000050: 6881 9b3b b88b a0bc c12a 9fbc 0645 b73c
00000060: 5315 d13a 7af3 a23a 1a6a b6b9 dfa6 8d3c
00000070: 002c ce3c a30d 84b9 3314 793c 5857 08bb
00000080: 39ed c3bc de1a 0cba da42 503a 78f5 c1ba
00000090: 6c33 b8bb 577d 9cbb 82ec c5bc c841 173c
000000a0: e63d 95bb 18ca 1dbd 3c52 0bbb a69f ebb9
000000b0: 4d8e 0dbd bed0 ffba 63b5 5fba aad4 f0ba
000000c0: 2c6b 35bb 97b5 f4b9 2fad 1abb 270e 7fbb
000000d0: 6c75 12bb fa55 6c3c 5d0b 94b9 2d6b 553a
000000e0: f4d5 b43a b624 49ba b43d b5b8 a4ac 313a
000000f0: 5962 9739 f695 9fb9 41af 71ba 8b47 683c
00000100: d62a d539 2747 9abc 3bfe 00bb 7732 86bc
00000110: ce72 cebc 73e9 3f3a 649d b7bc de38 3c3b
00000120: f0b3 d63c 945a bfbc 6705 5cbb f2a1 a9ba
00000130: 4b6b aebc bf35 f3ba 68f2 e6b9 14b5 093b
00000140: 09a7 9eba df1c 043d 03b4 173c 09b6 99bb
00000150: 12b6 273d 2aba 913b 0263 3cbc 81c0 ee3c
00000160: aa10 7d3b 2018 733b ee39 98bb f20f a8bb
00000170: 8949 b7bb 694e b1ba fb38 863c 90dc 1ebb
00000180: d888 8b3c 93d5 033a de7f 473a 4b4d c4bc
00000190: bc48 97bc 09bd 9dbb 81b9 05bd 5d3f 9dba
000001a0: b33b da3c a20e 13bb d769 dcba 6bae d8b9
000001b0: 8b63 89bb b8de 74bb 5825 99bb 4fac 50ba
000001c0: ac62 bbba f6d3 823a 141b b33c 650e bc3c
000001d0: 1504 d43a c342 9e3a 5c97 4b3b 0d93 cc3a
000001e0: fccb cb39 2cf7 b13a e72a fa39 1e0f 683c
000001f0: c93c 6d3a 49e9 373a 8edf ffbb 1131 aabc
00000200: d8bb b7bc 1099 49bb cdb6 acbc 653e edbc
00000210: 1106 9a3a 8c3b 80ba 03e5 3c3b 63cf b6bb
00000220: 23b9 b2ba 8a76 8bba 7cb8 e1bb f62c 9abc
00000230: 931b 9bbc 700f 79bb f09b c43a defc 0b3b
00000240: f424 673b 49dd 593b 74d8 4d3b b24b 293a
00000250: 84c3 73b8 bd24 96ba b5cb 6d3a 8451 a93c
00000260: 49ea 733a fb0f 84bb f1be cbbc 81df 8fbc
00000270: 9763 8fba 02f5 6ebc 66a3 ab39 c5f4 4eb9
00000280: e074 833a 0de2 2f3a 0dfc 723b 0e1a 993b
00000290: 2ab2 0b3b 92d2 fc3a b42d 233b a182 9dba
000002a0: 6ab4 6c3b 94cd be3b d203 4a3b 3828 72bb
000002b0: 551a cebb a5cc bc3c 4f85 163b 94a6 553c
000002c0: f8f2 2c3d e134 ba3b 67e3 8e3c da4e 6b3b
000002d0: bd1d c53a 15c0 933b 7aef 503b 332d 73bb
000002e0: 717d 8e3c b1d1 6abb 4786 0fbb 0ab6 a739
000002f0: c545 92bc f3ab c4bb 221d 87bb 4428 2c3c
00000300: 6195 98bb 35c5 82bb aaea 543c 1883 a1ba
00000310: e7c7 883c 497f 713c 5db6 51bb 42e5 8bbc
00000320: 5170 46bb 1d91 92bc 9436 6ebc 8a1e 35bb
00000330: 5732 553a 4c95 f13a 5651 083b bd5f 42bb
00000340: a85a 7b3b dec9 973a 886f 763a 44c2 5f3b
00000350: 90d3 003b 693d b4b9 8703 8c3a 384e 033b
00000360: b34f 2d3c 421e 2f3c 0036 0a3c 5471 b43b
00000370: 9257 2f3c c9cb 2b3c 9cec 273a ba20 1e3b
00000380: a85a e03a 701b d8ba dd52 bbbc 032e c2bc
00000390: 4fea 2b3a d6f8 4fbb 6505 34bb e603 ff3a
000003a0: 0d0b 083d a6a4 9a3a 5817 faba 7434 053c
000003b0: ccda 483b 9f85 273b 2481 213b 875a 1c3a
000003c0: 83dc ea38 28c2 b1bc 07be 3ebb 2116 6abb
000003d0: 8aba 9e3c 0ee0 df3b ac02 c1ba 8c98 c83b
000003e0: eb92 fa3b b211 50bc e2ea 78bc f541 38bb
000003f0: cd35 253b be2e 803a d114 383a edeb f8ba
-0.0020842736 -0.0009116241 -0.0010993603 -0.0023988353 -0.000984383 -0.0001840965 -0.0013088832 -0.0013962063
0.0006691867 -0.0018864903 -0.014963345 -0.030337896 -0.003016368 -0.0022461482 -0.024678975 -0.0038698267
-0.002608617 -0.0022003178 0.006386902 -0.0093024075 0.004745651 -0.019597873 -0.019429566 0.02237178
0.001595179 0.0012432181 -0.00034792797 0.017291484 0.025167465 -0.00025187162 0.01520257 -0.0020804014
-0.023916828 -0.00053445797 0.0007944532 -0.0014797887 -0.0056213643 -0.004775684 -0.024160627 0.009231992
-0.004554498 -0.03852281 -0.0021258732 -0.0004494164 -0.034559537 -0.0019517166 -0.00085338036 -0.0018373926
-0.0027682288 -0.00046674602 -0.002360176 -0.0038918348 -0.002234782 0.014424795 -0.00028237226 0.00081412756
0.0013796673 -0.0007673012 -8.642246e-05 0.00067777396 0.0002887424 -0.00030438573 -0.0009219535 0.014177213
0.0004065844 -0.018832756 -0.0019682783 -0.016381485 -0.025201228 0.00073208584 -0.022413917 0.002872042
0.026208848 -0.02335862 -0.0033572556 -0.001294194 -0.021291396 -0.0018555446 -0.00044049625 0.0021012472
-0.0012104224 0.032254096 0.009259227 -0.0046908897 0.04094512 0.0044472413 -0.011498215 0.029144527
0.003861467 0.0037093237 -0.0046455776 -0.005128854 -0.005593483 -0.0013527396 0.016384592 -0.0024240352
0.017033026 0.00050290785 0.0007610301 -0.023962637 -0.0184673 -0.0048137945 -0.032647613 -0.0011997033
0.026639795 -0.0022439142 -0.0016816211 -0.00041328682 -0.0041927746 -0.0037364196 -0.004673641 -0.00079602463
-0.0014296374 0.0009981382 0.021863498 0.022956083 0.0016175533 0.001207434 0.003106556 0.0015607789
0.00038871157 0.0013577691 0.0004771568 0.0141637605 0.000904989 0.0007015658 -0.007808632 -0.02077535
-0.022428438 -0.0030761398 -0.02108326 -0.028960416 0.0011751076 -0.0009783371 0.0028823025 -0.0055789216
-0.0013635497 -0.0010640186 -0.0068884473 -0.018820267 -0.018934047 -0.0038003586 0.0015000086 0.0021360437
0.0035269829 0.0033243468 0.0031409534 0.0006458118 -5.8117803e-05 -0.0011455041 0.0009071187 0.020668752
0.00093046256 -0.0040302253 -0.024871321 -0.01756263 -0.0010939714 -0.014584782 0.00032737403 -0.00019736875
0.0010029338 0.00067094044 0.0037076504 0.0046722954 0.002131591 0.0019288829 0.0024899067 -0.001201708
0.0036118277 0.0058228467 0.003082503 -0.0036950242 -0.00628976 0.0230468 0.0022967642 0.013040204
0.0422239 0.005682573 0.017442418 0.0035905153 0.001503877 0.004508982 0.003188102 -0.0037105798
0.0173938 -0.0035830552 -0.0021900104 0.00031988352 -0.017855534 -0.0060019433 -0.004123346 0.010507647
-0.004656479 -0.003990794 0.012995401 -0.0012322394 0.016696883 0.01473982 -0.0031999566 -0.017077092
-0.0030279348 -0.017891461 -0.01453938 -0.002763661 0.00081328064 0.0018431335 0.0020800433 -0.0029659115
0.0038353596 0.0011580547 0.0009400775 0.003414289 0.001965735 -0.0003437803 0.0010682204 0.0020035636
0.010578084 0.010688366 0.008435726 0.005506674 0.010702031 0.010485598 0.0006405802 0.0024128393
0.0017116861 -0.0016487669 -0.02286666 -0.02370358 0.0006558047 -0.003173401 -0.0027469036 0.0019456118
0.033213664 0.0011798337 -0.0019080443 0.008130182 0.0030647991 0.0025561822 0.0024643624 0.00059644174
0.00011199063 -0.021699026 -0.0029104964 -0.0035718756 0.019376058 0.0068321293 -0.0014725528 0.0061217006
0.0076469085 -0.012699531 -0.015192719 -0.0028115485 0.002520907 0.0009779555 0.0007022145 -0.001899121

tfeb.12.weight f4 [33]
00000000: b2ea 573e 608d 1f3e 401a 303e a62c e23d
00000010: df5e f93d bcdc 4c3e a894 493e b3ef 523e
00000020: 24b3 ce3d 0401 053e 6a11 c03d 3bc6 113e
00000030: bcd5 373e 2ad9 173e 0ae2 3f3e 902e 2f3e
00000040: 5ef2 f83d 1af7 043e e43e d03d 4bd2 1e3e
00000050: b739 233e f2b9 103e 5a99 ff3d 574c 273e
00000060: 46a3 793e 5dfe 263e e40e 1d3e a089 333e
00000070: 8724 0a3e 3056 0b3e 17f0 193e bfc1 053e
00000080: 0624 153e
0.21085623 0.15581274 0.17197514 0.11043672 0.12176298 0.20006078 0.19685614 0.2059925
0.10092762 0.12988669 0.093783215 0.14235775 0.17952627 0.14828935 0.18738571 0.17107606
0.12155603 0.12984887 0.101682454 0.15509908 0.15939985 0.14133433 0.12480421 0.16337715
0.2437869 0.1630797 0.15337712 0.17532969 0.13490497 0.13607097 0.15032993 0.1306219
0.14564523

tfeb.12.bias f4 [33]
00000000: 1abc 0ebe e0cb 5dbd 5866 a5bc 7a88 ccbb
00000010: 9089 36bd 03e4 febd 1024 cfbd 6ab2 9bbd
00000020: a0f4 64bb beda 85bd d9e4 93bd 60cb 19bd
00000030: 3b9d 33bd 0322 cebd ddde dbbd 7a6f 46bd
00000040: 73f2 63bd 48df a73d ad9c 9ebc 603a a7bd
00000050: 4623 8c3b bb7c dd3b 9c4e cbbc 03bc fbbd
00000060: 8891 05be 2f3b 713d e7db 833d dc8f 39bd
00000070: 74c8 e3bd b7be 09bd 6974 a23c e12a f8bb
00000080: 5218 50bd
-0.13938943 -0.05414951 -0.020190403 -0.006241855 -0.044564784 -0.124458335 -0.101143 -0.07602389
-0.0034935847 -0.065358624 -0.072213836 -0.03754747 -0.04385112 -0.10065081 -0.10735867 -0.048446156
-0.05565114 0.081968844 -0.019361818 -0.08165431 0.004276666 0.006759254 -0.024817757 -0.1229172
-0.13043797 0.058894332 0.064384274 -0.04530321 -0.11122218 -0.033629145 0.0198309 -0.007573471
-0.050804444

tfeb.12.running_mean f4 [33]
00000000: caa7 01bd 99ad 17bd 6c62 a0bd f5df cbba
00000010: d34f e03c 72f5 00bd a9d1 bf3c ccd7 e7bc
00000020: dd52 f3bc 5c5e 653b 5c06 8b3d 2067 26bd
00000030: c1e2 713d 1f81 f7bc 47a9 f5bc 16b0 4b3c
00000040: 4d56 293d 6014 12bd 18b5 07bd 5882 593d
00000050: c68d 22bd dfbb 5ebc e1af 8abc c3a4 4abd
00000060: af95 1dbd a713 033c 6aaa 4dbd 07a0 27bd
00000070: e199 71bb 2d17 f0bc a0a1 58bd ba84 67bd
00000080: c500 cb3c
-0.031654157 -0.03703079 -0.078312725 -0.0015554415 0.027381813 -0.031484075 0.023415403 -0.028301142
-0.029702598 0.003499887 0.06788322 -0.04062569 0.05905414 -0.030212937 -0.029987944 0.012432119
0.04134207 -0.035663962 -0.03313169 0.05310282 -0.039685987 -0.013594597 -0.016929569 -0.049473535
-0.038472828 0.008000291 -0.050211348 -0.0409241 -0.00368654 -0.029307926 -0.052888513 -0.056523062
0.02478064

tfeb.12.running_var f4 [33]
00000000: ed69 e13a 178f 933a eba7 9b3b b2a3 963a
00000010: 22ca 353b 7ad0 703b 07ac 163b a9e6 823b
00000020: 75ed 7f3a 2286 843a 083b ce3a a64b 023b
00000030: 5dca 353b c2ea c33a 148f 053b a60b a03b
00000040: 3c07 873a 99cf 333b b29d 203a 5201 2a3b
00000050: aefd 5e3b 5377 003b c20f 743a dee5 043b
00000060: f222 3f3b f0c7 b03b 129e 8e3b 4fcb e33a
00000070: a18d 113b 5cf0 3d3a 612f 143b 072c 253b
00000080: d761 c43a
0.0017197706 0.0011257854 0.004750242 0.0011492877 0.0027738889 0.0036745355 0.002299072 0.003994782
0.0009762862 0.0010110775 0.0015734145 0.0019881516 0.0027739026 0.0014947283 0.002037947 0.004884201
0.0010301839 0.002743697 0.0006127014 0.0025940728 0.0034025717 0.0019602373 0.00093102094 0.0020278613
0.0029165116 0.005394928 0.0043523395 0.0017379316 0.0022209662 0.0007245594 0.0022611248 0.0025203244
0.0014982772

tfeb.14.weight f4 [29, 33, 3, 3]
00000000: a255 49ba 5ea0 033b 5cd0 c3ba e714 73bb
00000010: af69 51bb f318 a73c 47a0 2abb c02c 00bb
00000020: 1a24 d2ba e371 0f3d daa8 e439 37b4 03bd
00000030: 768d 1a3a ada3 0ebd b17e bebc 0796 9b3b
00000040: 03e8 b73c f0c0 583b 084d 6a3a ae20 47bc
00000050: 1f68 96bc 259c 9c3b 6e5a 273d a210 013d
00000060: 5962 453a 5fd2 003d d3ec f33c 7d74 abbc
00000070: 0b0c 1dbc 1179 d4ba b36c 723b c85a 58b8
00000080: db94 6dba ba7f 243a 6c8a cc3b ec31 8f38
00000090: f9ad 943a 5585 82bb 1ae3 5abb 7416 88ba
000000a0: a95e 10bc 4520 06bc b38e 0a3b 6a64 c4ba
000000b0: dd22 9fbc a289 ddbb 7ccf 8bbc 1593 a739
000000c0: 9ac8 b53b e3ab e4bb 96fa c0ba fb2d df3c
000000d0: 9f36 ac3b 1bdb 403b 162b 61ba 804c 26bc
000000e0: cdbb b8bc 8204 81bc d00b 1bbc 4ebc 73bc
000000f0: 34fe d0bc d56b 9abb fdb6 96bb 4137 0a3c
00000100: 469c d33b fa36 bbbc 5a02 24bc 7e90 01bc
00000110: a023 e0bb 35af 443b 9721 023c c72f 1e3d
00000120: 4d50 b8bc 2915 c5ba 03bf 733c f17e a3bc
00000130: ef1e 44bb 04b1 01ba cfb7 28bb df5b c9bb
00000140: 6f72 96bb 0f93 493c ce35 ae3b 731c 0ebb
00000150: 0e65 eb3a b968 f5bb 9cd0 59bb b125 5bbb
00000160: 2d7c d1bb 0d03 b4bb 05b5 403b 0932 583b
00000170: 1eb5 8b3b 8565 95bc 254a 8e3a 2e3d 793a
00000180: 4cda 83bc 7892 1739 55a3 d6ba 9bd1 99bc
00000190: 573d b5b7 88b8 df3a 66ee 7ebc c174 a53a
000001a0: d01e 993b 620f a8bc 51ec 1bbb ef08 0f3a
000001b0: 74d5 3cbc 7d6d 9fbc 38ed adbc 7db4 95bc
000001c0: e2b9 dd3b 07db c1bb 4a92 d7bc d422 a1bc
000001d0: 1467 c5bb 082b 85bb 32f4 6dbc 6703 f839
000001e0: 5576 b13a b947 aabc c2a3 26ba 6e33 a739
000001f0: 54a1 a7bc 25d3 a3b7 1e5e 0b3b adfd 10bc
00000200: 141e 02bb 03ef 543a 7a6c 06bc 5941 3dbb
00000210: c273 92bb c733 f8bb 3ea4 9cbb 164b 77bc
00000220: ece1 a9bc 9ad0 723b 0d69 0e3a cf73 dabc
00000230: 962d 483c bed4 8d3b 4099 a2bc 017b e23b
00000240: 1bac 96bc ff95 03bd 472e 643a 58f3 f93b
00000250: 5dcb e3ba 7e57 bfbc c872 a3bc d7ab 933a
00000260: 18a3 20bb 5a9c e0b9 05de b03b e718 353d
00000270: 8880 e3bb 25cb 883c 3860 113d b6ee 20bc
00000280: aefa 34bb 3b73 71bb 8b19 b8bc 427c b7bc
00000290: d045 94ba 64b4 953b abb3 af3b 0a99 913b
000002a0: 5950 a93b 28ed a13b 423f 583b 44e2 18bd
000002b0: c08b 2e3c 8525 03bc eb3a ed3b 4ef3 033d
000002c0: aa2f ae3c 66f3 8d3c c17c 09bd 3ecb 00bd
000002d0: c2ad cc3b bef4 2cba 6bf7 8239 452c 543b
000002e0: d8b9 d2bc 5320 95bc c32b 89ba b246 b7bb
000002f0: 087b f8bb cc00 d1bc c422 c83b 7305 a6bc
00000300: 36eb 00bd fa2e 4bbb ae80 ccb9 2bd1 1ebc
00000310: 47e7 6539 e30e 993b fb7d 98ba 56c6 8f3b
00000320: 03d0 623c 1355 a6bb 8aeb 27bb 2906 87ba
00000330: 2420 52bb 577f 73bb aed8 28bb 224e dc3a
00000340: 7560 4d3b a5d4 9a3c 7e9d 663a 0ade d5ba
00000350: e687 113d 6793 a33b d7b9 0e3b d170 a13c
00000360: ba05 0e3c c780 bc3b d221 4bbc f742 023a
00000370: d83e ec39 bbd5 e9ba 4f1e 92bc e476 1bbb
00000380: 4a47 bcba 583f 6fbb a121 063d 2350 de3c
00000390: 917a d8bb 5b3d 2f3a 01ef 53bc d0d3 84bb
000003a0: 3d57 0fbc c5ea 0cbd 99a2 043c e2d6 65ba
000003b0: d704 e53b 6d07 443c 301c d23b 0389 5e3b
000003c0: e290 8f3c 1cf5 823c c8ee bd3b e70a aebc
000003d0: 0f4d cfba ddac 833c ed01 aebc fec0 f6ba
000003e0: dc45 913c 3e6b bdbc ae1f 09bc d3fc 93bb
000003f0: 9ad4 bc3b 646f 883b c8ed 8a3b 2839 903a
-0.0007680302 0.00200846 -0.0014939415 -0.0037091316 -0.0031953861 0.020397639 -0.0026035474 -0.0019557923
-0.0016032488 0.03502072 0.00043613353 -0.03215429 0.0005895713 -0.034824062 -0.02325377 0.0047481093
0.022449499 0.0033073984 0.000893787 -0.012153788 -0.018360196 0.004779356 0.040857725 0.031510003
0.00075296086 0.031450626 0.029776013 -0.02092957 -0.009585391 -0.0016210397 0.003699106 -5.158296e-05
-0.0009063014 0.0006275136 0.006242087 6.82807e-05 0.0011343352 -0.0039831796 -0.0033399523 -0.0010382668
-0.008811631 -0.008186405 0.0021142184 -0.0014983539 -0.019425804 -0.006760792 -0.01706671 0.00031962307
0.005547595 -0.0069784983 -0.0014723118 0.027243605 0.005255535 0.0029427472 -0.0008589489 -0.010150075
-0.022550488 -0.01574922 -0.009463266 -0.014876438 -0.025511838 -0.0047125616 -0.0045994506 0.008436025
0.006457838 -0.022853363 -0.010010326 -0.007907985 -0.0068401843 0.0030011658 0.007942579 0.038619783
-0.022499228 -0.0015036213 0.014877084 -0.019957991 -0.0029925664 -0.0004947337 -0.0025744324 -0.006144985
-0.0045912783 0.012303128 0.0053164726 -0.0021684438 0.0017959194 -0.0074892906 -0.0033235913 -0.0033439214
-0.0063929767 -0.0054935277 0.002940477 0.0032988808 0.004263534 -0.018236885 0.0010855837 0.00095077127
-0.016095303 0.00014455046 -0.0016375581 -0.018776705 -2.1605445e-05 0.0017068544 -0.015559768 0.0012623296
0.0046728626 -0.020515148 -0.0023791979 0.00054563483 -0.011525501 -0.019461388 -0.021231279 -0.01827454
0.0067665437 -0.0059160027 -0.026314873 -0.019669928 -0.0060242508 -0.0040639676 -0.014523553 0.0004730478
0.0013539294 -0.020786153 -0.0006356799 0.0003189104 -0.02046267 -1.9529436e-05 0.0021265815 -0.0088495435
-0.0019854354 0.0008122774 -0.008204574 -0.0028878062 -0.004469366 -0.0075745317 -0.0047803214 -0.0150935855
-0.02073761 0.0037050606 0.0005432524 -0.02666655 0.0122179 0.0043283394 -0.019848466 0.006911636
-0.018392613 -0.03212547 0.00087044056 0.007627886 -0.0017379333 -0.02335715 -0.019952193 0.0011266422
-0.0024511274 -0.000428411 0.0053975605 0.0442132 -0.0069428124 0.01669843 0.035492152 -0.009822538
-0.0027615237 -0.0036842364 -0.022473117 -0.022398118 -0.001131231 0.0045686234 0.0053619943 0.0044432925
0.005167049 0.0049416013 0.003299669 -0.03732516 0.010653436 -0.008004551 0.0072396896 0.032214455
0.021262962 0.017327975 -0.03356624 -0.031443827 0.0062462995 -0.0006597749 0.00024979873 0.003237502
-0.025723383 -0.01820389 -0.0010465313 -0.0055931443 -0.007583026 -0.025513075 0.00610766 -0.02026627
-0.031474315 -0.0031003342 -0.00039005786 -0.009693424 0.000219253 0.004670964 -0.0011634225 0.004387657
0.013843539 -0.0050760596 -0.002562257 -0.0010301518 -0.0032062614 -0.0037154758 -0.0025763917 0.0016807953
0.003133801 0.018900225 0.0008797272 -0.0016316783 0.035529993 0.004991937 0.002177825 0.019707115
0.0086683575 0.005752656 -0.0123982 0.0004969085 0.0004506025 -0.0017840186 -0.017836718 -0.0023721987
-0.0014364508 -0.0036506262 0.032746915 0.027137822 -0.006606408 0.0006684863 -0.012935401 -0.0040535703
-0.008748827 -0.03440358 0.008095407 -0.0008767677 0.0069891023 0.011964661 0.0064120516 0.0033956177
0.01752514 0.015986018 0.005796287 -0.021245433 -0.0015815812 0.016073639 -0.021241153 -0.0018825827
0.017733507 -0.023122426 -0.008369369 -0.004516223 0.005762649 0.0041636694 0.0042397715 0.0011003362

tfeb.15.weight f4 [29]
00000000: 63fc 383e 4bda 303e bb17 6c3e 2ca9 193e
00000010: a787 443e ea3f 263e 636c 803e 9178 263e
00000020: 7089 1e3e 2015 3e3e b38e 033e 64e7 293e
00000030: acd2 243e 5df6 523e dc13 563e cead 0d3e
00000040: 37f5 403e 07b0 543e 88a1 2d3e a0e9 ff3d
00000050: 64f6 093e a598 1a3e f85d 4f3e 1ec4 023e
00000060: 9812 0c3e cf58 163e 0df9 ce3d 6d30 0f3e
00000070: 5de3 473e
0.18065028 0.17270772 0.23055927 0.1500594 0.19192372 0.16235319 0.25082693 0.1625693
0.15482116 0.18562746 0.12847404 0.16592175 0.1609599 0.20601793 0.20906013 0.13835832
0.18843542 0.20770274 0.1695615 0.12495732 0.13472897 0.15097292 0.2025069 0.12770125
0.13678968 0.14682315 0.101060964 0.13983317 0.19520326

tfeb.15.bias f4 [29]
00000000: ee1b ffbd 54a8 08be 0915 ebbd 1be3 55bd
00000010: 94ff 28be 5284 edbd dafb 57bb 98f1 b0bd
00000020: f71f cdbd f63c abbd a6ef 69bc 6f11 1ebe
00000030: bc4c 533b 3909 ecbd 6fb6 61bd e29b 1dbd
00000040: 5152 c4bc e3fd 45be af0e 0ebe 69a6 51bd
00000050: d2a8 f3bd 8fbe 1ebc a75c 1ebe 4688 90bd
00000060: 339d 9dbc f94e 8fbd e2a7 9aba d448 a8bd
00000070: b2c7 1ebe
-0.12456499 -0.13345462 -0.114786215 -0.052218538 -0.16503745 -0.11597504 -0.0032956512 -0.0863983
-0.100158624 -0.08361237 -0.014278328 -0.15436338 0.0032241782 -0.115251966 -0.055105623 -0.03847874
-0.023965033 -0.19335131 -0.13872789 -0.05118409 -0.11897434 -0.009688987 -0.15465032 -0.07057242
-0.019239997 -0.06997485 -0.00117993 -0.08217016 -0.15505865

tfeb.15.running_mean f4 [29]
00000000: 5918 c3ba f984 97bc b964 bebc ae92 a1bc
00000010: 1079 f7bb 2bdd af39 dde2 8d3c b9bc e03a
00000020: 7d51 44bc 8377 b6bc 29d0 28bb bab7 7dbb
00000030: d1e0 d6bc fee8 c3bc 4c5a b4bc fbbd 5fbb
00000040: 146d 583c 1808 14bd ac32 bdbb aa53 b7bc
00000050: 4097 323b 5d11 8d3c 8b61 9bbc 6fc2 09bc
00000060: f895 42bc f3b3 ca3b fc64 2d3b 3b41 36bc
00000070: 4b90 c2bb
-0.0014884576 -0.018496023 -0.023241388 -0.019723263 -0.0075522736 0.00033543384 0.01732009 0.0017146087
-0.011982319 -0.022273785 -0.0025758839 -0.0038714246 -0.026230248 -0.02391481 -0.022015713 -0.0034140337
0.0132096 -0.03614053 -0.005773863 -0.022378761 0.0027250797 0.017220194 -0.01896741 -0.008408173
-0.011876576 0.0061860024 0.0026457896 -0.011123951 -0.005937611
