refine_codes/retrained_models_after_pruned/retrained_acdnet_after_tylor_pruning_model_from_acc_97.7_0.85compress_20240207095132_acc_93.18181610107422_641th_epoch.pt (torch, 335626 bytes, 62 tensors)

sfeb.0.weight f4 [7, 1, 1, 9]
-0.038671315 0.064551756 0.18573405 -0.27684718 0.122089565 -0.8385703 -0.3544611 0.4223011
0.6808637 0.16324392 0.026025116 0.0075985356 -0.24596556 -0.04084463 -0.22220817 0.1649587
0.0253118 -0.41465345 0.6355971 -0.087846234 -0.033407833 -0.25532994 0.06496557 -0.14906234
0.13090375 0.54369503 -0.349298 -0.48935112 -0.54914033 0.028314428 0.5701677 0.0891029
0.29016277 -0.25226393 0.01649907 0.07745344 -0.003734699 0.081782304 -0.17223638 0.086733215
0.018704733 0.28191996 0.74762547 -0.54266214 -0.4632301 0.12343741 0.11569962 -0.2493717
0.37377664 -0.8371817 0.7157294 0.13034263 -0.95507336 0.5059379 -0.14883669 -0.20506638
-0.035996724 0.2141532 0.074979275 0.06278884 -0.2682088 0.09436923 0.5758361
00000000: d065 1ebd b633 843d 1131 3e3e eabe 8dbe
00000010: 180a fa3d 8bac 56bf ed7b b5be da37 d83e
00000020: 154d 2e3f 6a29 273e a032 d53c 23fd f83b
00000030: 65de 7bbe b34c 27bd 8a8a 63be efea 283e
00000040: b15a cf3c 754d d4be 7eb6 223f bae8 b3bd
00000050: a7d6 08bd 9bba 82be ab0c 853d cca3 18be
00000060: a20b 063e 992f 0b3f 30d7 b2be 3b8c fabe
00000070: 7694 0cbf a9f3 e73c 83f6 113f 957b b63d
00000080: 3790 943e bd28 81be 0f29 873c e99f 9e3d
00000090: dac1 74bb 7b7d a73d bc5e 30be 2fa1 b13d
000000a0: ab3a 993c d057 903e 6264 3f3f e8eb 0abf
000000b0: 7f2c edbe c1cc fc3d ecf3 ec3d 4c5b 7fbe
000000c0: a75f bf3e 8a51 56bf 0b3a 373f 8a78 053e
000000d0: b07f 74bf 2585 013f a568 18be ecfc 51be
000000e0: 4d71 13bd fa4a 5b3e bc8e 993d 6f97 803d
000000f0: aa52 89be a844 c13d ff69 133f

sfeb.1.weight f4 [7]
0.88505846 0.5058941 0.4891146 0.6442816 0.6572318 0.545027 0.4977613
00000000: 3193 623f 4782 013f 3b6d fa3e a4ef 243f
00000010: 5840 283f e486 0b3f 92da fe3e

sfeb.1.bias f4 [7]
0.098160654 0.038244907 0.5352377 0.5217198 0.17554085 0.60100293 0.08036202
00000000: 7408 c93d b1a6 1c3d 5705 093f 6e8f 053f
00000010: fbc0 333e 54db 193f d894 a43d

sfeb.1.running_mean f4 [7]
-7.9330675e-05 -0.0011656897 0.0010833826 -0.00047056386 7.594585e-05 -0.00016378914 0.0007884581
00000000: 555e a6b8 0eca 98ba 4a00 8e3a 03b6 f6b9
00000010: 1e45 9f38 d0be 2bb9 87b0 4e3a

sfeb.1.running_var f4 [7]
0.053550962 0.008979105 0.021587435 0.040173877 0.029605899 0.006562712 0.01368483
00000000: 4158 5b3d 191d 133c 22d8 b03c 5d8d 243d
00000010: 1288 f23c 050c d73b 5636 603c

sfeb.3.weight f4 [32, 7, 1, 5]
-0.023388356 -0.030193973 -0.01450198 -0.042181443 0.007988298 0.029048348 0.06916341 0.10472502
0.19140953 0.14393465 -0.06572236 -0.04405507 -0.04783825 0.004651912 -0.005057272 0.0381375
0.072855175 0.0450243 -0.05974965 0.008022248 0.010404129 -0.007250209 -0.0011709951 0.03843189
-0.025729252 -0.051406723 -0.025522249 0.002308136 -0.0014157108 -0.018308543 -0.042863958 0.0043193772
0.0003152664 0.022694752 0.04301309 0.006187194 -0.02862665 0.00024492928 -0.0009061108 0.03466255
0.16018468 0.21036777 0.17453898 0.22899494 0.20561379 -0.14106764 -0.084997885 -0.045589156
-0.101805806 -0.08333852 0.10405268 0.16953166 0.14375961 0.14720851 0.13817802 -0.027774367
0.01738506 0.044245772 0.026288778 -0.028338186 0.006207086 0.0061716763 -0.0051485407 -0.00519927
0.007214705 -0.1824314 -0.20575199 -0.116484866 -0.08063349 -0.14133672 -0.15866499 -0.07580819
-0.06150602 -0.081225015 -0.07533208 -0.43395224 -0.31939626 -0.21046296 -0.16005644 -0.13553716
0.2559961 0.1870484 0.1488759 0.10039579 0.07417483 -0.13769507 -0.21772656 -0.082101226
-0.14343676 -0.097687595 0.028127128 -1.0131874e-05 0.0031851605 -0.03403275 -0.030485217 -0.012208617
0.007910596 -0.0069941697 -0.013153614 -0.0119505115 0.18289159 0.2296958 0.19918892 0.24998036
0.27143246 -0.048941806 -0.003423262 -0.038516246 -0.13462298 -0.057006925 0.025082754 0.083056405
0.06296973 0.086088195 0.088585034 0.16684884 0.12941499 0.038153715 -0.006498674 -0.0041739536
-0.022793261 -0.0027745874 -0.05166574 -0.0019894342 -0.0035971527 -0.037997182 -0.001384627 7.6412754e-05
-0.0039447024 -0.04313272 0.021053832 0.018169487 -0.0025882553 -0.038361304 0.0077764136 -0.003271072
-0.0038695033 -0.044827733 -0.018762931 -0.0034227415 -0.14729434 -0.14958926 -0.048485737 -0.08085545
-0.21048161 -0.12082622 -0.084267944 -0.10190768 0.024029177 0.11381365 0.23161636 0.10667846
0.08515564 0.04901685 0.0024879705 -0.15511264 -0.10535852 -0.11311693 -0.019344393 -0.09561361
0.021541428 0.038867693 0.045766998 0.11099077 0.15393867 0.01034552 0.015717808 -0.004327194
-0.07278687 -0.06697434 -0.056813646 -0.15847616 -0.24024647 -0.15926531 -0.099256925 0.037064213
-0.067786105 0.0027366516 0.082318395 0.00790766 -0.1048125 0.0012268004 -0.0910989 -0.03249619
0.088912964 -0.20845036 -0.04014553 -0.11729272 -0.048482675 0.005900182 0.25937092 0.15249032
0.06601157 -0.027690526 -0.041165043 0.0025574698 -0.123543456 -0.10261337 -0.10534727 -0.1517788
-0.070552595 -0.062250677 -0.0074271285 -0.012973706 0.024572197 -0.029875455 0.11029364 0.03231255
0.2086187 0.26817003 -0.12330286 -0.14085005 -0.12288857 -0.118658476 -0.11066763 -0.121483594
0.013401715 0.13730846 0.19424476 0.18697217 0.11214141 0.06757671 0.1078964 -0.02939891
-0.08534672 -0.10744738 -0.17583355 -0.1347518 -0.102850415 -0.08727488 0.060477242 0.10046644
0.06848934 0.04977285 -0.0851407 -0.014966754 -0.018865483 0.005559894 -0.010179985 -0.014383406
0.007929564 -0.060987793 -0.087827064 -0.089781396 -0.10818854 0.065186426 0.053180322 0.041026432
0.037028324 -0.046402123 0.029097456 -0.03453405 -0.122938074 -0.104676 -0.091097906 -0.10228858
00000000: f098 bfbc 5a59 f7bc b699 6dbc 73c6 2cbd
00000010: 5ae1 023c cdf6 ed3c 8ca5 8d3d 127a d63d
00000020: dc00 443e 9b63 133e 7299 86bd 1773 34bd
00000030: 0af2 43bd 116f 983b 79b7 a5bb 1136 1c3d
00000040: 1835 953d 676b 383d 0dbc 74bd bf6f 033c
00000050: 1476 2a3c 2993 edbb 137c 99ba c26a 1d3d
00000060: 27c6 d2bc db8f 52bd 0914 d1bc 1944 173b
00000070: 5f8f b9ba ccfb 95bc 1e92 2fbd 9089 8d3b
00000080: 574a a539 58ea b93c 7e2e 303d f2bd ca3b
00000090: 7082 eabc da69 8039 1188 6dba 51fa 0d3d
000000a0: 7407 243e a66a 573e 59ba 323e a67d 6a3e
000000b0: 6c8c 523e 0974 10be 5f13 aebd b2bb 3abd
000000c0: 907f d0bd 63ad aabd 9219 d53d b599 2d3e
000000d0: b835 133e d4bd 163e 8a7e 0d3e 1287 e3bc
000000e0: 1d6b 8e3c 0e3b 353d 905b d73c 7c25 e8bc
000000f0: d064 cb3b c63b ca3b 17b5 a8bb a35e aabb
00000100: 5569 ec3b 4ccf 3abe a6b0 52be 9e8f eebd
00000110: 2c23 a5bd 93ba 10be 1379 22be 5341 9bbd
00000120: bded 7bbd 4d59 a6bd b547 9abd fd2e debe
00000130: e887 a3be 9a83 57be d6e5 23be 41ca 0abe
00000140: ec11 833e 9e89 3f3e ed72 183e 4f9c cd3d
00000150: f9e8 973d f0ff 0cbe b6f3 5ebe b024 a8bd
00000160: 16e1 12be 6f10 c8bd dd6a e63c 11fc 29b7
00000170: 20be 503b ed65 0bbd 22bc f9bc a706 48bc
00000180: 729b 013c 592f e5bb 4182 57bc 14cc 43bc
00000190: ef47 3b3e 6035 6b3e 2ef8 4b3e dafa 7f3e
000001a0: 32f9 8a3e 3477 48bd ce58 60bb 36c3 1dbd
000001b0: 9bda 09be 1880 69bd 597a cd3c 7a19 aa3d
000001c0: 46f6 803d 024f b03d 126c b53d 6cda 2a3e
000001d0: 5d85 043e 1247 1c3d d4f2 d4bb a9c5 88bb
000001e0: efb8 babc dad5 35bb 749f 53bd 2b61 02bb
000001f0: 35be 6bbb efa2 1bbd 5f7c b5ba c93f a038
00000200: 9042 81bb efab 30bd 1679 ac3c 2dd8 943c
00000210: b89f 29bb be20 1dbd 49d1 fe3b 7b5f 56bb
00000220: 7e97 7dbb 499d 37bd b8b4 99bc 1350 60bb
00000230: 54d4 16be ed2d 19be fb98 46bd 8b97 a5bd
00000240: 7e88 57be bd73 f7bd ac94 acbd f9b4 d0bd
00000250: d6d8 c43c 2217 e93d d72c 6d3e 3d7a da3d
00000260: 1566 ae3d e4c5 483d 380d 233b d9d5 1ebe
00000270: 35c6 d7bd d9a9 e7bd 2278 9ebc 12d1 c3bd
00000280: a677 b03c bb33 1f3d 2d76 3b3d 214f e33d
00000290: 19a2 1d3e 4280 293c a2c2 803c 22cb 8dbb
000002a0: 4811 95bd d829 89bd 6db5 68bd 9347 22be
000002b0: 2c03 76be 7216 23be 3747 cbbd a5d0 173d
000002c0: 71d3 8abd 6559 333b 8c96 a83d 218f 013c
000002d0: f0a7 d6bd 97cc a03a 0f92 babd ba1a 05bd
000002e0: 0018 b63d 0374 55be a46f 24bd 2a37 f0bd
000002f0: c595 46bd 5056 c13b 44cc 843e 6c26 1c3e
00000300: 1331 873d 3ed7 e2bc ad9c 28bd 399b 273b
00000310: 5a04 fdbd f526 d2bd 4fc0 d7bd e76b 1bbe
00000320: e17d 90bd 91fa 7ebd 455f f3bb ab8f 54bc
00000330: a24b c93c 5fbd f4bc a2e1 e13d 2a5a 043d
00000340: 24a0 553e 954d 893e 3686 fcbd ff3a 10be
00000350: 01ad fbbd 3703 f3bd b6a5 e2bd 64cc f8bd
00000360: de92 5b3c 979a 0c3e 19e8 463e a275 3f3e
00000370: 65aa e53d a865 8a3d caf8 dc3d fcd5 f0bc
00000380: 43ca aebd 5f0d dcbd b60d 34be 60fc 09be
00000390: 3da3 d2bd 2cbd b2bd fcb6 773d 59c1 cd3d
000003a0: 2444 8c3d 9ede 4b3d 3f5e aebd 1e37 75bc
000003b0: c98b 9abc c52f b63b f4c9 26bc 61a8 6bbc
000003c0: 01eb 013c 56ce 79bd adde b3bd 4fdf b7bd
000003d0: f491 ddbd 7680 853d 9cd3 593d 550b 283d
000003e0: 03ab 173d 2710 3ebd ca5d ee3c 9373 0dbd
000003f0: f5c6 fbbd 5f60 d6bd 8a91 babd ad7c d1bd

sfeb.4.weight f4 [32]
0.2836792 0.45849106 0.9599813 0.16598825 0.4884994 0.5334036 0.6002965 0.580892
0.27446562 0.097110085 0.43746892 0.4827528 0.6537685 0.45654723 0.46502447 0.5032922
0.23869522 0.5835466 0.21729927 0.32788232 0.5613828 0.28475022 0.51396936 0.3706863
0.43078262 0.59745383 0.6563794 0.23243904 0.56152487 0.35988206 0.411687 0.1903073
00000000: 663e 913e 57bf ea3e 56c1 753f d3f8 293e
00000010: 981c fa3e 238d 083f 08ad 193f 57b5 143f
00000020: c286 8c3e a7e1 c63d edfb df3e 602b f73e
00000030: 5f5d 273f 8fc0 e93e b017 ee3e c2d7 003f
00000040: 856c 743e 4f63 153f b383 5e3e 31e0 a73e
00000050: c8b6 0f3f c8ca 913e 7f93 033f 98ca bd3e
00000060: 8a8f dc3e bcf2 183f 7b08 283f 8004 6e3e
00000070: 18c0 0f3f 7642 b83e a3c8 d23e ebdf 423e

sfeb.4.bias f4 [32]
-0.06616329 0.012234289 -0.07060057 0.011249669 -0.08499179 -0.033104815 -0.0754513 -0.024583597
-0.0868255 0.050100654 -0.07440607 -0.0841118 -0.023682332 -0.017830504 0.025870457 0.030593568
0.07825397 -0.03203979 -0.00018256807 -0.0750526 0.004440759 -0.057213694 -0.09484225 -0.12759408
0.047424257 0.039860886 0.013814655 -0.049866494 -0.03388007 -0.07558023 -0.049649324 0.0446003
00000000: 9e80 87bd 5472 483c 0897 90bd 8850 383c
00000010: 2d10 aebd ea98 07bd 3686 9abd 8a63 c9bc
00000020: 91d1 b1bd 5836 4d3d 3662 98bd cf42 acbd
00000030: 7301 c2bc 4711 92bc 48ee d33c 5d9f fa3c
00000040: 9e43 a03d 283c 03bd be6f 3fb9 2db5 99bd
00000050: c983 913b e858 6abd a73c c2bd 06a8 02be
00000060: f03f 423d 2b45 233d dd56 623c cf40 4cbd
00000070: d4c5 0abd cfc9 9abd 175d 4bbd ceae 363d

sfeb.4.running_mean f4 [32]
-0.028611777 0.18477827 -0.09601299 0.08314217 -0.29551116 -0.113500714 -0.39037338 -0.012611372
-0.18450066 -0.017831262 -0.44185406 -0.21044642 -0.078538634 -0.17963655 -0.13761257 -0.27769005
0.10744898 -0.1507077 -0.23591593 -0.19960767 -0.037880894 -0.24068901 -0.33235207 -0.3724318
0.014276106 0.13456948 -0.0082563935 -0.0011804703 0.047786586 -0.07917717 -0.05539548 -0.04014096
00000000: 3f63 eabc 8436 3d3e 75a2 c4bd 7146 aa3d
00000010: 3d4d 97be 1073 e8bd 05df c7be ee9f 4ebc
00000020: beed 3cbe de12 92bc b23a e2be 447f 57be
00000030: ddd8 a0bd a5f2 37be 4fea 0cbe 642d 8ebe
00000040: 360e dc3d 1f53 1abe f293 71be f465 4cbe
00000050: ff28 1bbd 2e77 76be 0d2a aabe 62af bebe
00000060: 54e6 693c 95cc 093e d345 07bc 03ba 9aba
00000070: debb 433d a427 a2bd 5fe6 62bd d96a 24bd

sfeb.4.running_var f4 [32]
0.02217572 0.10425619 0.21531337 0.018027367 0.18899192 0.061005514 0.14868958 0.057156112
0.047113843 0.025490744 0.09964221 0.15340193 0.17441049 0.17277923 0.26114115 0.31746832
0.104587816 0.47191635 0.059291232 0.062315784 0.18760043 0.0748022 0.1957219 0.08456939
0.05518665 0.10672286 0.13147 0.019058486 0.0842579 0.02196774 0.020729462 0.0052611623
00000000: dba9 b53c 4584 d53d 1c7b 5c3e 21ae 933c
00000010: 1987 413e ebe0 793d 1542 183e 871c 6a3d
00000020: 72fa 403d f7d1 d03c 3711 cc3d 6515 1d3e
00000030: aa98 323e 0aed 303e 4bb4 853e 358b a23e
00000040: 2332 d63d 059f f13e 5ddb 723d d63e 7f3d
00000050: 541a 403e e531 993d 526b 483e b732 ad3d
00000060: 660b 623d 8491 da3d 12a0 063e 8b20 9c3c
00000070: 688f ac3d b1f5 b33c d5d0 a93c d465 ac3b

tfeb.0.weight f4 [7, 1, 3, 3]
0.7892105 -0.5178617 -0.31284404 -0.098082975 0.011386003 0.058014866 -0.060836017 -0.011809901
0.012662974 0.004045003 0.0049922992 0.0075636352 -0.0023675393 -0.0013633611 -0.00078805065 -0.005064064
0.01852879 -0.00014343366 0.08182931 -0.40508276 0.11375553 0.23189236 -0.4709674 0.13173023
0.152648 -0.30001253 0.07615909 -0.002550042 -0.0013640191 0.0004215073 -0.000675339 -8.76609e-05
0.00036654144 0.013405415 0.032094408 0.020659361 0.200838 0.13085932 0.09886907 -0.033947892
-0.14483333 -0.061012015 -0.1809595 -0.11041515 0.017174153 -0.00045185533 0.021723298 0.003194134
-0.00085621513 -3.1007625e-05 0.0006810176 0.014509904 0.024750564 0.00081518455 0.04762276 0.03932741
-0.10410187 0.08345958 0.05184608 -0.17545566 -0.25719905 -0.4580474 0.6471136
00000000: b309 4a3f 9692 04bf 182d a0be badf c8bd
00000010: 5c8c 3a3c ffa0 6d3d 302f 79bd 517e 41bc
00000020: 5d78 4f3c f28b 843b 7196 a33b 5fd8 f73b
00000030: b828 1bbb cfb2 b2ba 2f95 4eba 73f0 a5bb
00000040: b0c9 973c ae66 16b9 2096 a73d 0267 cfbe
00000050: a9f8 e83d 3175 6d3e a422 f1be 4ae4 063e
00000060: c24f 1c3e 3e9b 99be 4cf9 9b3d 9b1e 27bb
00000070: e3c8 b2ba c1fd dc39 3c09 31ba 96d6 b7b8
00000080: 5c2c c039 63a2 5b3c 6d75 033d d23d a93c
00000090: 7aa8 4d3e fcff 053e de7b ca3d f20c 0bbd
000000a0: 304f 14be bce7 79bd 724d 39be 5721 e2bd
000000b0: cfb0 8c3c ffe6 ecb9 0ff5 b13c ad54 513b
000000c0: a073 60ba 2f0e 02b8 5186 323a f3ba 6d3c
000000d0: b2c1 ca3c 1cb2 553a 1510 433d c715 213d
000000e0: 5c33 d5bd dbec aa3d 8e5c 543d a6aa 33be
000000f0: 98af 83be 3085 eabe 3da9 253f

tfeb.1.weight f4 [7]
0.24223165 0.03720916 0.29246467 0.06164087 0.3593205 0.0498417 0.21503887
00000000: 930b 783e a268 183d eebd 953e 237b 7c3d
00000010: dbf8 b73e cf26 4c3d 2633 5c3e

tfeb.1.bias f4 [7]
0.05775055 -0.05777243 0.037843253 -0.07643011 -0.013373464 -0.08852841 0.029967304
00000000: d78b 6c3d c9a2 6cbd 8701 1b3d 6487 9cbd
00000010: 601c 5bbc 624e b5bd fe7d f53c

tfeb.1.running_mean f4 [7]
-0.052194845 0.009926094 -0.15532362 0.024330711 -0.03468065 0.025208807 -0.050204694
00000000: 43ca 55bd 0ea1 223c 280d 1fbe 3351 c73c
00000010: 4c0d 0ebd b382 ce3c 70a3 4dbd

tfeb.1.running_var f4 [7]
0.04389308 0.00022761326 0.076093495 0.0015973616 0.060122713 0.0012817406 0.028723564
00000000: 3bc9 333d 78ab 6e39 e8d6 9b3d 905e d13a
00000010: 3c43 763d 1400 a83a ae4d eb3c

tfeb.4.weight f4 [10, 7, 3, 3]
0.05947896 0.027418576 -0.00048318677 0.077711135 0.04124597 0.0035679946 0.048352953 0.024059653
-0.01077181 0.0003571677 -0.000706327 -0.0015657758 -0.0010707115 -0.001992188 -0.0032919804 0.0008339288
0.0004736258 -0.0013454778 0.011773483 -0.017054198 -0.015934821 -0.008962407 -0.021117052 -0.003994309
-0.04405272 -0.020868327 -0.0024365764 0.0068520955 0.0019499507 -0.0023584485 0.0047227563 0.00018023375
-0.005194299 0.0042522387 0.0012199259 -0.0038939891 -0.053908385 -0.06514028 -0.06472665 0.017126888
-0.004380668 -0.030668776 0.033962965 0.027178112 -0.0142675415 0.003350665 0.0006275481 -0.018941874
0.0020547796 -0.0005133139 -0.0038535458 0.0019974106 -0.0006703892 -0.0041641146 0.007829572 -0.015580273
-0.013963949 -0.0041155675 -0.026065527 -0.04040831 -0.024435796 -0.005615792 0.012949914 0.01114565
0.016243951 0.0068013826 0.0011664869 0.014593595 0.008296971 0.00893187 0.005322328 -0.019827154
0.0024726263 0.0023694234 0.0016785602 0.0011055873 0.0008169759 0.00018506947 0.00041962968 3.6185487e-05
-0.00019284112 0.0050814766 0.004699427 0.002864665 0.006784883 0.0042330283 0.021189857 0.0015557376
-0.0018574698 -0.00063473237 0.0030227317 0.0029790206 0.0030742716 0.0026496109 0.0026210852 0.0019970327
0.0003260051 0.00031145674 0.00031541893 -0.00061399397 -0.0010805661 -0.0026061758 0.01727247 0.0330348
0.015711742 0.0039149444 0.003058848 0.00054801995 0.0026904396 0.002258478 0.0022352254 0.0012555335
0.0015460466 0.0011102346 0.0013285661 0.0011214685 0.0009298654 0.016975554 0.005251252 -0.015820129
-0.018306224 -0.00010381384 -0.00016095505 0.0004891174 -0.0015470521 -0.00047743076 -0.007124374 0.0012241496
0.01529775 -0.025050968 0.0029107824 -0.010346934 -0.0037244426 0.0017413424 -0.0053904587 0.0009948071
8.511258e-05 0.00080859417 0.00041938652 0.00010174024 0.00083844544 0.0007716484 0.00012491779 0.00025370804
-0.005060921 0.0055193026 -0.005048669 -0.0028222506 0.008528141 -0.0047674864 0.018518126 0.009307742
0.019957142 0.002118176 0.00094763335 0.001495044 0.0010880503 0.00035330397 0.0012677825 0.0010281078
-0.0005005841 -0.00027930812 -0.0039018423 -0.0023688972 -0.0039652963 0.002188629 0.0012431704 -0.0009149987
1.7037479e-05 0.0012418062 0.002936363 0.0012700857 0.00064795563 0.0008716024 0.00094387634 0.00029646346
0.0007169359 0.0012231434 0.000464341 0.00051753275 -0.0048460234 0.024338717 -0.0064509106 -0.003438721
0.034358837 -0.005464299 -0.0039851596 0.007960367 -0.0046984563 0.09628216 -0.03400048 0.014587234
0.015883958 -0.0059534167 0.007864196 0.053093035 -0.07417466 0.0001822746 -0.000978864 -0.00079745764
-0.00034559795 -0.0005927055 -0.0010336536 -7.936167e-05 -0.00034568604 -0.0011854819 -0.00094694353 -0.016637253
-0.041218 -0.0023198256 0.048003986 -0.00661782 0.014995595 0.0062350193 -0.028990159 -0.0018450413
0.0018258756 0.0006933212 -0.00021945986 0.00075626763 0.00021498659 0.00019222686 0.0015049609 -0.0003048751
-0.0011495894 0.014875922 0.021212436 0.009492793 0.0074988664 -0.018701559 -0.030534854 -0.014943538
-0.014843267 -0.010188353 -0.001168441 -0.0020507881 -0.0018310996 -0.00053675985 -0.0009002905 -0.0008110591
0.00020698285 -0.0009015256 -0.0014393926 -0.006818162 -0.022841478 -0.01618011 -0.025765415 0.008046084
-0.002902214 -0.0024409948 0.0031742225 0.0063289134 0.015143046 -0.06568483 0.007945807 -0.025466299
00000000: 36a0 733d ec9c e03c 3b54 fdb9 0427 9f3d
00000010: 89f1 283d 04d5 693b bf0d 463d c018 c53c
00000020: 3f7c 30bc 3d42 bb39 cd28 39ba b83a cdba
00000030: 1e57 8cba 5e8f 02bb 44be 57bb 049c 5a3a
00000040: fb50 f839 be5a b0ba 91e5 403c 3fb5 8bbc
00000050: be89 82bc 0fd7 12bc abfd acbc b1e2 82bb
00000060: a070 34bd 0ef4 aabc f8ae 1fbb 8b87 e03b
00000070: 7d95 ff3a 3390 1abb 5ac1 9a3b 21fd 3c39
00000080: f034 aabb 5d56 8b3b ece5 9f3a 4c32 7fbb
00000090: 0acf 5cbd 4468 85bd 688f 84bd b04d 8c3c
000000a0: b58b 8fbb 163d fbbc c01c 0b3d a2a4 de3c
000000b0: 68c2 69bc d596 5b3b 0a82 243a fd2b 9bbc
000000c0: 7ba9 063b ea8f 06ba c58b 7cbb fde6 023b
000000d0: 0fbd 2fba 2073 88bb 9b47 003c 6744 7fbc
000000e0: 0cc9 64bc e2db 86bb 5f87 d5bc 2f83 25bd
000000f0: 942d c8bc ad04 b8bb e02b 543c 3f9c 363c
00000100: 0912 853c 22de de3b cee4 983a f919 6f3c
00000110: 05f0 073c fa56 123c ec66 ae3b 8e6c a2bc
00000120: c90b 223b 5448 1b3b 2203 dc3a 5be9 903a
00000130: 532a 563a 350f 4239 be01 dc39 dfc5 1738
00000140: 6535 4ab9 8482 a63b a7fd 993b 1abd 3b3b
00000150: b953 de3b 37b5 8a3b 5a96 ad3c e4e9 cb3a
00000160: 5876 f3ba 2b64 26ba 0619 463b ac3b 433b
00000170: b879 493b 18a5 2d3b 83c6 2b3b a6e0 023b
00000180: aaeb aa39 044b a339 d05e a539 70f4 20ba
00000190: c8a1 8dba 60cc 2abb ff7e 8d3c 804f 073d
000001a0: e9b5 803c ef48 803b f476 483b ffa8 0f3a
000001b0: 1652 303b f902 143b dc7c 123b b790 a43a
000001c0: b7a4 ca3a 4b85 913a 4823 ae3a 3dfe 923a
000001d0: 36c2 733a 5110 8b3c b212 ac3b 3799 81bc
000001e0: eff6 95bc a2b6 d9b8 0bc6 28b9 1d38 003a
000001f0: 74c6 caba ac4f fab9 9573 e9bb a573 a03a
00000200: 6aa3 7a3c b037 cdbc d3c2 3e3b 3086 29bc
00000210: c715 74bb c13d e43a 72a2 b0bb 3064 823a
00000220: 787e b238 d6f7 533a 1be1 db39 605d d538
00000230: 1fcb 5b3a 7348 4a3a 5dfc 0239 1e04 8539
00000240: 15d6 a5bb 44db b43b 4e6f a5bb 82f5 38bb
00000250: 9eb9 0b3c 9338 9cbb 53b3 973c 807f 183c
00000260: 297d a33c 19d1 0a3b 996a 783a 5af5 c33a
00000270: e99c 8e3a a83b b939 b92b a63a 93c1 863a
00000280: a139 03ba 1a70 92b9 0db6 7fbb 803f 1bbb
00000290: 51ef 81bb 1a6f 0f3b e0f1 a23a 86dc 6fba
000002a0: b5eb 8e37 1ac4 a23a ff6f 403b 0179 a63a
000002b0: 91db 293a 3f7c 643a 786e 773a a76e 9b39
000002c0: c1f0 3b3a e251 a03a cb72 f339 09ab 073a
000002d0: 64cb 9ebb fd61 c73c 2962 d3bb 2a5c 61bb
000002e0: dabb 0c3d dd0d b3bb f195 82bb 336c 023c
000002f0: 82f5 99bb 952f c53d 1644 0bbd 4bff 6e3c
00000300: 131f 823c e114 c3bb d4d8 003c 1578 593d
00000310: e2e8 97bd f720 3f39 3a4d 80ba 7a0c 51ba
00000320: 5f31 b5b9 cb5f 1bba a97b 87ba f96e a6b8
00000330: 323d b5b9 2c62 9bba 4e3c 78ba d94a 88bc
00000340: 35d4 28bd 3708 18bb d49f 443d 4cda d8bb
00000350: 16b0 753c 224f cc3b c57c edbc 50d5 f1ba
00000360: 3852 ef3a 00c0 353a cf1e 66b9 4340 463a
00000370: 066e 6139 8190 4939 1c42 c53a a5d7 9fb9
00000380: d2ad 96ba 24ba 733c b4c5 ad3c a987 1b3c
00000390: 0db9 f53b 0334 99bc 3b24 fabc bed5 74bc
000003a0: 2d31 73bc 0ded 26bc 6026 99ba 8466 06bb
000003b0: 8201 f0ba 58b5 0cba 7901 6cba 419d 54ba
000003c0: 8909 5939 5c54 6cba 00aa bcba e36a dfbb
000003d0: 0d1e bbbc 268c 84bc fe11 d3bc b9d3 033c
000003e0: 1233 3ebb 19f9 1fbb 9e06 503b c662 cf3b
000003f0: 8a1a 783c c585 86bd 212f 023c b39e d0bc

tfeb.5.weight f4 [10]
0.12853651 0.12320863 0.14443277 0.12664065 0.18121709 0.13502903 0.5360055 0.10635028
0.100765474 0.20116988
00000000: 139f 033e ce54 fc3d 2fe6 133e 16ae 013e
00000010: f990 393e 0d45 0a3e a837 093f 2dce d93d
00000020: 215e ce3d 7aff 4d3e

tfeb.5.bias f4 [10]
0.14028673 -0.10155477 -0.07134463 0.0037262684 0.06875861 0.037207525 -0.23142247 0.1879767
-0.017534018 -0.08391231
00000000: 53a7 0f3e f2fb cfbd 221d 92bd 6934 743b
00000010: 50d1 8c3d eb66 183d 03fa 6cbe f77c 403e
00000020: 80a3 8fbc 38da abbd

tfeb.5.running_mean f4 [10]
-0.010322667 0.025509171 0.005965152 -0.006361382 -0.009195426 0.010149833 -0.09390389 -0.07498439
0.01975781 -0.045047395
00000000: 6720 29bc 9cf8 d03c 5277 c33b 2473 d0bb
00000010: 69a8 16bc 7c4b 263c af50 c0bd 6a91 99bd
00000020: 21db a13c 9e83 38bd

tfeb.5.running_var f4 [10]
0.0037225215 0.00064543646 0.00015247802 0.0018678968 0.004366785 0.0012017111 0.0049961316 0.002466945
0.00069635507 0.003498222
00000000: 8cf5 733b 8232 293a 82e2 1f39 37d4 f43a
00000010: 3f17 8f3b bc82 9d3a 97b6 a33b 78ac 213b
00000020: 998b 363a 6d42 653b

tfeb.7.weight f4 [15, 10, 3, 3]
0.060022753 0.02186416 0.006779422 0.017533438 0.0028515377 -0.0051425276 0.057982236 0.022229685
0.0091646435 -0.008153435 -0.014700349 -0.009889754 -0.011138063 -0.013842996 0.0022433414 -0.008795656
-0.0034560517 0.0017759543 -0.022759086 9.02185e-06 -0.023394102 -0.003758699 0.0012122019 -0.015298283
-0.00450261 0.00075948774 0.0018140153 0.024511885 -0.006067752 -0.014358448 0.011848223 -0.0020035624
0.0086433105 0.02456626 0.0022068217 0.012421726 -0.024401726 -0.014087874 -0.015254339 -0.037674695
-0.051239915 -0.03593192 -0.04835657 -0.06337303 -0.034501094 -0.01567919 -0.008104652 -0.035328075
0.017111875 -0.0054894667 -0.016786646 0.0028408112 0.00924248 -0.015660772 -0.013910809 -0.042379543
-0.03429401 -0.03870156 -0.058351897 -0.038564105 -0.012590054 -0.033558093 -0.028964914 -0.00082646735
-0.014901781 -0.03692333 -0.03606318 -0.02263862 -0.04103073 -0.02737158 -0.014905556 -0.02531283
0.0017851793 -0.014186989 -0.013367057 0.0075612613 -0.0056399093 -0.0061306944 0.004886002 -0.00032040998
-0.0018810346 -0.0024487618 0.019289063 -0.0016030866 0.0027240631 -0.003951608 0.0006563981 -0.01188196
-0.0025742168 0.0008473178 -0.0012789558 -0.0072853025 0.0073030065 -0.02616047 -0.012498712 0.0019076512
-0.016854733 -0.014763891 0.0011695521 -0.006990427 -0.0037130232 0.00055343047 -0.005306967 -0.00335624
-0.0013366417 -0.0070324815 -0.0036758338 -0.0032504026 0.0013129169 0.0050991233 0.0036888088 -0.0015871862
0.004599078 0.0027350418 -0.00094020384 0.0042788005 0.003099477 -0.003929665 -0.0052042697 -0.009814197
-0.0018729469 -0.0023633651 -0.0125127705 -0.0035626213 -0.0012658092 -0.0063511566 -0.00018531349 0.002430513
0.0021809833 0.019448316 0.020046458 -0.0047767344 -0.00233873 -0.001584689 -0.0062717674 -0.0010568067
-0.0031350264 0.009854363 -0.007507349 -0.019129774 -0.0041380213 -0.012800347 -0.016599385 -0.0035921503
0.0011022888 0.0014807602 0.0026976764 0.0023439117 0.00352062 0.0028773793 -0.0012166713 -0.0010769634
-0.0007423081 -0.0038799557 0.0051718657 0.021410542 0.0022773447 0.01400827 0.027846478 0.0017732094
0.009589083 0.02501068 -0.007622298 -0.0044085956 0.001713367 -0.015306112 -0.010494158 -0.00418684
-0.0139668165 -0.011369526 -0.0047062426 0.0014230239 -0.0007834329 0.004073126 -0.012653222 0.006159668
0.002384408 0.0010450096 0.0008200873 0.0025546106 0.023680808 0.0039278353 -0.00016274168 0.0019657726
0.0018539208 -0.030082839 0.018797258 -0.0040087677 -0.010988193 -0.0020567088 -0.0026417878 -0.0016898431
0.006383317 0.004188124 0.0032473376 0.00040106228 0.001232664 0.007541963 -0.0028333676 0.0019693854
-9.9074394e-05 -0.0014627631 0.0022833054 0.00029202274 -0.00205146 0.0022093556 0.0006905691 0.012294851
-0.0030017365 -0.004146286 0.0075295437 -0.0023565653 0.021730598 0.014248201 0.021809733 0.03201787
-0.0074534216 0.031958777 0.053188927 0.015011626 0.03935923 0.064326875 -0.0041201785 0.005710183
0.008389878 0.004728816 -0.005469883 -0.0029998804 0.0088898735 0.0022305315 0.0024145085 0.024007697
0.009947571 0.011034395 -0.023837173 0.0060530193 0.0034425152 -0.044999868 -0.027394362 -0.024889648
-0.027883967 -0.016668357 -0.003228404 -0.032574248 -0.035266627 -0.061228067 -0.015841566 -0.025640657
-0.05115408 -0.021639384 -0.024215896 -0.036785748 0.0056063514 -0.0023145264 0.0024491139 0.010605899
00000000: 6bda 753d 781c b33c ea25 de3b 49a2 8f3c
00000010: dde0 3a3b a682 a8bb c87e 6d3d 071b b63c
00000020: 4d27 163c fc95 05bc bcd9 70bc a208 22bc
00000030: 6c7c 36bc bccd 62bc 0605 133b a81b 10bc
00000040: ed7e 62bb 23c7 e83a 4371 babc 8d5c 1737
00000050: fda4 bfbc 8154 76bb bfe2 9e3a a6a5 7abc
00000060: a18a 93bb 5c18 473a 41c4 ed3a 26cd c83c
00000070: fed3 c6bb b23f 6bbc 0d1f 423c 334e 03bb
00000080: ac9c 0d3c 2e3f c93c 53a0 103b 7f84 4b3c
00000090: 21e6 c7bc d4d0 66bc 56ed 79bc c850 1abd
000000a0: f2e0 51bd 592d 13bd 8a11 46bd b8c9 81bd
000000b0: 0551 0dbd a571 80bc 60c9 04bc 2cb4 10bd
000000c0: 342e 8c3c fce0 b3bb 2684 89bc e72c 3a3b
000000d0: c56d 173c 054b 80bc 29ea 63bc 2c96 2dbd
000000e0: e077 0cbd 8785 1ebd 6602 6fbd 65f5 1dbd
000000f0: 8446 4ebc 3674 09bd d447 edbc 49a7 58ba
00000100: 9a26 74bc eb3c 17bd fcb6 13bd a174 b9bc
00000110: d70f 28bd 5d3a e0bc 6f36 74bc da5c cfbc
00000120: adfc e93a 8b70 68bc 8001 5bbc 75c4 f73b
00000130: fdce b8bb fee3 c8bb c11a a03b b3fc a7b9
00000140: 0c8d f6ba 687b 20bb 1904 9e3c a91e d2ba
00000150: 3286 323b 7e7c 81bb 2112 2c3a 8dac 42bc
00000160: 31b4 28bb 891e 5e3a a3a2 a7ba 8cb9 eebb
00000170: 0f4e ef3b 7b4e d6bc 66c7 4cbc 270a fa3a
00000180: f012 8abc 3fe4 71bc a84b 993a f40f e5bb
00000190: 3156 73bb 1714 113a 11e6 adbb 5df4 5bbb
000001a0: 4132 afba bb70 e6bb 42e6 70bb b504 55bb
000001b0: 2e16 ac3a 8c16 a73b f1bf 713b 2209 d0ba
000001c0: ddb3 963b 633e 333b 0378 76ba 2e35 8c3b
000001d0: 9820 4b3b 6bc4 80bb 9488 aabb bacb 20bc
000001e0: ab7d f5ba b0e2 1abb 5d02 4dbc de7a 69bb
000001f0: 82e9 a5ba 5d1d d0bb b650 42b9 3e49 1f3b
00000200: d4ee 0e3b 1352 9f3c 7838 a43c 2786 9cbb
00000210: 6145 19bb 57b5 cfba 6683 cdbb 8c84 8aba
00000220: 0475 4dbb 3274 213c 3500 f6bb 0bb6 9cbc
00000230: 3d98 87bb 8cb8 51bc 6ffb 87bc 486a 6bbb
00000240: ad7a 903a 1116 c23a 80cb 303b 509c 193b
00000250: 34ba 663b 6a92 3c3b b778 9fba e528 8dba
00000260: 7497 42ba db46 7ebb c178 a93b 2965 af3c
00000270: 813f 153b f182 653c 4c1e e43c 096b e83a
00000280: 871b 1d3c 33e3 cc3c 78c4 f9bb fb75 90bb
00000290: 0e93 e03a 7dc6 7abc b0ef 2bbc c231 89bb
000002a0: 13d5 64bc 4047 3abc d336 9abb c284 ba3a
000002b0: 4b5f 4dba db77 853b 764f 4fbc 0ad7 c93b
000002c0: ba43 1c3b b4f8 883a 21fb 563a 416b 273b
000002d0: 41fe c13c 12b5 803b a3a5 2ab9 31d4 003b
000002e0: 42ff f23a 4970 f6bc b5fc 993c fb5b 83bb
000002f0: d207 34bc d9c9 06bb d821 2dbb ba7d ddba
00000300: 252b d13b 883c 893b 49d1 543b ab45 d239
00000310: 5791 a13a 9222 f73b 05b0 39bb ce10 013b
00000320: 29c6 cfb8 2fba bfba 82a3 153b a11a 9939
00000330: ca71 06bb d6ca 103b 4f07 353a 5870 493c
00000340: c8b8 44bb 91dd 87bb 64ba f63b 9b70 1abb
00000350: 5e04 b23c 4971 693c 53aa b23c 2c25 033d
00000360: d53b f4bb 35e7 023d a2dc 593d 53f3 753c
00000370: 2537 213d cfbd 833d 9002 87bb 7d1c bb3b
00000380: b375 093c 2ff4 9a3b b43c b3bb a499 44bb
00000390: d5a6 113c 1c2e 123b bb3c 1e3b caab c43c
000003a0: 23fb 223c 9bc9 343c 2d46 c3bc 6858 c63b
000003b0: d29b 613b c851 38bd 246a e0bc 60e5 cbbc
000003c0: eb6c e4bc 148c 88bc a293 53bb 936c 05bd
000003d0: bd73 10bd 48ca 7abd 2cc6 81bc 5b0c d2bc
000003e0: f186 51bd 1445 b1bc 6a60 c6bc a7ac 16bd
000003f0: 7cb5 b73b 4faf 17bb 5081 203b 5dc4 2d3c

tfeb.8.weight f4 [15]
0.17373532 0.16137514 0.18010081 0.17277394 0.12786148 0.26175097 0.20895289 0.17049775
0.2362736 0.28753567 0.12986588 0.24297696 0.19580603 0.19791996 0.14214925
00000000: ace7 313e 863f 253e 596c 383e a7eb 303e
00000010: 1fee 023e 3904 863e bff7 553e f696 2e3e
00000020: b5f1 713e e037 933e 90fb 043e f4ce 783e
00000030: 6081 483e 88ab 4a3e 938f 113e

tfeb.8.bias f4 [15]
0.21730317 -0.19642234 0.038865246 0.02598144 0.057988215 -0.15986164 -0.056158785 0.023470527
-0.09245312 -0.13995606 0.038595755 -0.11117247 -0.03621548 -0.054326653 0.051786963
00000000: b984 5e3e f022 49be 2a31 1f3d 07d7 d43c
00000010: 0d85 6d3d c5b2 23be c106 66bd 4345 c03c
00000020: 1058 bdbd a450 0fbe 9516 1e3d 64ae e3bd
00000030: af56 14bd a085 5ebd 911e 543d

tfeb.8.running_mean f4 [15]
-0.054970726 0.0055148867 -0.03547719 0.010135299 0.0017792525 -0.04703917 -0.055272724 -0.021012446
-0.038821146 0.000937487 -0.0031687315 -0.019508235 0.006501728 -0.03156549 -0.016126335
00000000: fc28 61bd 39b6 b43b 8850 11bd 860e 263c
00000010: cf35 e93a 25ac 40bd a765 62bd 4b22 acbc
00000020: ec02 1fbd b0c1 753a 7eaa 4fbb bccf 9fbc
00000030: 730c d53b d14a 01bd 601b 84bc

tfeb.8.running_var f4 [15]
0.0034487506 0.00029427244 0.0028080877 0.000674594 0.00077177415 0.0004690543 0.0021922626 0.0003868767
0.0008372305 0.0017220248 0.00047530714 0.0005424461 0.0023303956 0.001304878 0.0008376182
00000000: 6f04 623b 9448 9a39 e507 383b 3dd7 303a
00000010: e350 4a3a 67eb f539 10ac 0f3b b6d5 ca39
00000020: 9679 5b3a 90b5 e13a a532 f939 f132 0e3a
00000030: 8db9 183b 7108 ab3a 9b93 5b3a

tfeb.11.weight f4 [22, 15, 3, 3]
-0.0018616543 -0.0022573709 -0.0049706013 -0.00095034327 0.0011460957 -0.002411296 -0.0031731587 -0.004883542
-0.008002645 0.0009229095 0.0008824748 0.00377264 -0.0016374829 0.00064270705 0.0011834841 -0.0017645592
-0.0033403772 -0.0035744393 -0.0019353343 -0.012235888 -0.030691793 -0.0013763844 0.004481884 -0.019787196
-0.0048833364 0.0025374168 0.0045534787 -0.0013482713 -0.0018592041 -0.005256777 -0.0018522384 -0.0023548417
-0.0059513147 0.017103648 -0.0018785431 -0.0074525713 -0.0002764307 -0.028576842 -0.002818949 -0.020437386
-0.033570893 0.0015001973 -0.020155929 -0.0027613821 -0.0024538895 0.025905458 0.021486264 -0.0051628286
0.032170087 -0.002150643 -0.026334964 0.009499381 -0.0008765241 -0.0018001844 -0.00011095879 -1.5597303e-05
0.021378921 -0.028544644 -0.031144533 0.0007185408 -0.033133205 -0.023932353 0.0021567813 0.0021087136
0.00050928723 -0.0011089259 -0.00038587512 -0.00028528585 -0.004494269 0.001968633 0.0039419485 0.018274428
0.0047045746 -0.008260314 -0.024225496 0.011499778 -0.0035499672 -0.0032384358 0.009415356 0.0015139524
-0.0010075895 0.023802632 -0.009955977 -0.02601991 0.04483628 -0.002884984 -0.02485994 0.031136274
-0.00069872604 -0.0064469646 0.001143832 0.0014310322 0.003005463 -0.001537727 0.0008979307 0.0003520098
0.0019835457 0.004164199 0.0043528923 -0.00071666535 -0.017904302 -0.02372309 0.0019902643 -0.01781199
-0.031902615 0.0023264536 0.002172109 -0.0019336352 -0.00303814 -0.0013987367 -0.0067234994 -0.0023469962
-0.016936557 -0.026054738 0.00081036333 0.0007190543 -0.009497047 1.8597796e-06 -0.02796872 0.02068532
-0.014750071 -0.043982532 -0.0031654944 0.0017406427 -0.001864918 -0.007144846 -0.001772826 0.0031070798
0.020236839 -0.006049825 -0.0004979007 0.01648377 -0.008676735 0.01871509 0.016334452 -0.0031151318
-0.005189083 -0.042651832 0.043343265 0.019153137 -0.031730488 0.0031404607 -0.0050031836 -0.030186297
-0.015134079 -0.022853829 0.0011129146 -0.022885662 -0.03642235 -0.025229078 0.0010206251 -0.02188453
-0.00087294786 -0.025572915 -0.035005376 -0.030435015 -0.018185543 -0.034239937 -0.028929604 -0.0016611478
-0.0038519828 -0.0055501647 0.0023950723 0.002162178 -0.0012595365 0.00065557245 0.00087097206 -0.0024229
0.00216681 0.000627462 -0.0025662337 -0.0034174724 -0.01917957 -0.0009812793 0.02257966 0.019163916
-0.0020272494 0.0010153332 -0.0020561707 -0.025187306 -0.028265083 -0.030478526 0.00072711305 -0.023552036
6.7352485e-05 -2.9876193e-05 -0.028847823 -0.01784813 0.0016247185 -0.0059305867 -0.0333845 -0.0050995955
-0.00266601 -0.0013101613 -0.017742952 -0.0021406452 -0.005037713 -0.0040810173 -0.0022090757 -0.0027958779
-0.0034935365 0.0004084629 -0.00038493288 -0.0023561772 -0.0020378234 -0.0010431573 -0.0022744082 -0.017784392
-0.00079196604 -0.0036366978 0.020580916 0.00025987206 -0.003120556 0.0025573056 0.0016771839 -0.0006150823
-0.019620694 0.00080585596 -0.0017342712 0.0009653202 0.0021908155 -0.00025852607 -0.0036046146 -0.00031478
-0.026168859 -0.0040812017 -0.0028094274 -0.0023604992 -0.014551015 -0.014990607 -0.021064024 0.00059937435
-0.016347557 -0.028041095 -0.0018932981 0.00031342675 -0.0015254295 0.0002636571 0.0015386959 -0.0002525972
0.0008164104 0.0025285978 0.00086506223 0.024826344 0.01806037 -0.0012756863 0.009105898 -0.017955512
-0.01800645 0.005697882 0.0009985799 -0.00013213063 0.03986566 0.026133103 0.019452663 -1.1299198e-05
00000000: c102 f4ba 66f0 13bb 6de0 a2bb 7520 79ba
00000010: 9738 963a d506 1ebb c5f4 4fbb 1f06 a0bb
00000020: 871d 03bc 68ef 713a e255 673a 653e 773b
00000030: cfa0 d6ba 577b 283a 231f 9b3a c848 e7ba
00000040: 3bea 5abb 2441 6abb 0bab fdba 0979 48bc
00000050: 5b6d fbbc cc67 b4ba c5dc 923b c218 a2bc
00000060: 6504 a0bb ca4a 263b 5935 953b 7ab8 b0ba
00000070: 8ab0 f3ba 0b41 acbb cfc6 f2ba b053 1abb
00000080: 3f03 c3bb f31c 8c3c 7239 f6ba b334 f4bb
00000090: e7ed 90b9 fb19 eabc 1ebe 38bb 4e6c a7bc
000000a0: a281 09bd 45a2 c43a 0c1e a5bc 4ef8 34bb
000000b0: 6fd1 20bb af37 d43c f603 b03c f22c a9bb
000000c0: c8c4 033d cdf1 0cbb 6cbc d7bc 4ba3 1b3c
000000d0: 89c6 65ba 2af4 ebba 8cb2 e8b8 f4d6 82b7
000000e0: d922 af3c 75d6 e9bc d222 ffbc 755c 3c3a
000000f0: afb6 07bd c80d c4bc c958 0d3b 5832 0a3b
00000100: b081 053a 6159 91ba 484f cab9 6b92 95b9
00000110: a944 93bb 2e04 013b 762b 813b 41b4 953c
00000120: d528 9a3b 4556 07bc 8c74 c6bc 9169 3c3c
00000130: 91a6 68bb f03b 54bb de42 1a3c d06f c63a
00000140: 1811 84ba bdfd c23c 651e 23bc b527 d5bc
00000150: 3fa6 373d 0012 3dbb 13a7 cbbc 8011 ff3c
00000160: b62a 37ba 0f41 d3bb a2ec 953a 7991 bb3a
00000170: 4df7 443b 8e8d c9ba 1c63 6b3a f58d b839
00000180: 60fe 013b d573 883b b5a2 8e3b 99de 3bba
00000190: 0bac 92bc ed56 c2bc 186f 023b 73ea 91bc
000001a0: 51ac 02bd 6a77 183b f159 0e3b 0872 fdba
000001b0: 881b 47bb d155 b7ba cd50 dcbb 10d0 19bb
000001c0: 89be 8abc bf70 d5bc 906e 543a eb7e 3c3a
000001d0: 8199 1bbc 8a9d f935 a81e e5bc 4374 a93c
000001e0: 48aa 71bc 0727 34bd 2f74 4fbb 4726 e43a
000001f0: 4470 f4ba 501f eabb 2b5e e8ba 26a0 4b3b
00000200: bac7 a53c 9c3d c6bb 8d85 02ba f908 873c
00000210: dd28 0ebc 6350 993c d4cf 853c 3d27 4cbb
00000220: 2f09 aabb b0b3 2ebd b588 313d 0ae7 9c3c
00000230: d4f7 01bd 30d0 4d3b bff1 a3bb 4149 f7bc
00000240: eef4 77bc f437 bbbc 38df 913a b67a bbbc
00000250: 9a2f 15bd 36ad cebc 7fc6 853a 3047 b3bc
00000260: 8ad6 64ba 4a7e d1bc cc61 0fbd da52 f9bc
00000270: d9f9 94bc 2d3f 0cbd c7fd ecbc dfba d9ba
00000280: 8c71 7cbb 28de b5bb a5f6 1c3b 54b3 0d3b
00000290: 0817 a5ba b9da 2b3a f251 643a 84c9 1ebb
000002a0: 0a01 0e3b 437c 243a 422e 28bb acf7 5fbb
000002b0: 791e 9dbc 459e 80ba fbf8 b83c a5fd 9c3c
000002c0: 9adb 04bb ee14 853a d2c0 06bb 9c55 cebc
000002d0: 2d8c e7bc 1aae f9bc bb9b 3e3a 33f0 c0bc
000002e0: 973f 8d38 a39e fab7 4552 ecbc 3e36 92bc
000002f0: 82f4 d43a 5e55 c2bb 2fbe 08bd 821a a7bb
00000300: 3ab8 2ebb b8b9 abba ab59 91bc 114a 0cbb
00000310: 6613 a5bb 0eba 85bb 24c6 10bb 0c3b 37bb
00000320: d1f3 64bb f626 d639 d1d0 c9b9 186a 1abb
00000330: 018d 05bb 8dba 88ba 3d0e 15bb 93b0 91bc
00000340: f19b 4fba aa55 6ebb 4f99 a83c 703f 8839
00000350: 3e82 4cbb 7898 273b f4d4 db3a 793d 21ba
00000360: 94bb a0bc 1440 533a 7c50 e3ba 8b0d 7d3a
00000370: c993 0f3b c88a 87b9 663b 6cbb 0e09 a5b9
00000380: 1360 d6bc 9abb 85bb 5f1e 38bb 9bb2 1abb
00000390: 6167 6ebc 2a9b 75bc 768e acbc 551f 1d3a
000003a0: 50eb 85bc 70b6 e5bc 8b28 f8ba 6d53 a439
000003b0: ecf0 c7ba 753b 8a39 11ae c93a 066f 84b9
000003c0: 6004 563a d5b6 253b 58c5 623a 9e60 cb3c
000003d0: 57f3 933c ee34 a7ba e830 153c 7017 93bc
000003e0: 4382 93bc 4cb5 ba3b c8e2 823a 8c8c 0ab9
000003f0: 2d4a 233d 1715 d63c 315b 9f3c b091 3db7

tfeb.12.weight f4 [22]
0.2335357 0.18243724 0.23321564 0.22116907 0.23679726 0.2012595 0.1678183 0.27605182
0.18878141 0.119026855 0.1887006 0.20190138 0.14046174 0.1434903 0.155781 0.17659639
0.14794725 0.26195747 0.17294633 0.20157602 0.1671177 0.16202804
00000000: fc23 6f3e d4d0 3a3e 15d0 6e3e 257a 623e
00000010: fb7a 723e f816 4e3e 8fd8 2b3e aa56 8d3e
00000020: ea4f 413e 5ac4 f33d bb3a 413e 3cbf 4e3e
00000030: 34d5 0f3e 1fef 123e 0e85 1f3e afd5 343e
00000040: 7c7f 173e 4a1f 863e d818 313e f269 4e3e
00000050: e720 2b3e aeea 253e

tfeb.12.bias f4 [22]
-0.16591445 -0.004803564 -0.017606407 -0.045613855 -0.106080174 -0.039540786 0.0136253815 -0.12470557
-0.1457876 -0.026127798 -0.05559014 -0.0869188 -0.065072715 0.07292017 -0.11569551 -0.06569112
0.013260396 -0.08453191 -0.14664476 -0.04963844 -0.11922501 -0.042780936
00000000: 7ae5 29be 3767 9dbb 503b 90bc 98d5 3abd
00000010: 9040 d9bd 85f5 21bd fe3c 5f3c a265 ffbd
00000020: 5849 15be f709 d6bc 7db2 63bd 7c02 b2bd
00000030: d844 85bd 2c57 953d c4f1 ecbd 1189 86bd
00000040: 2242 593c 111f adbd 0b2a 16be ad51 4bbd
00000050: 3e2c f4bd 103b 2fbd

tfeb.12.running_mean f4 [22]
-0.030385181 -0.053912155 0.05438775 -0.05227468 0.028781544 -0.032984376 -0.0023712416 -0.061781015
0.02201042 0.0034742737 -0.037463695 -0.08299114 0.02445665 -0.005414624 -0.0013172053 0.017522229
-0.0063650482 -0.047336806 0.030408228 -0.09037985 0.01858776 0.0037622454
00000000: 58ea f8bc fed2 5cbd b0c5 5e3d fa1d 56bd
00000010: 46c7 eb3c a01a 07bd d566 1bbb 170e 7dbd
00000020: 324f b43c a4b0 633b 8873 19bd 42f7 a9bd
00000030: 5059 c83c 296d b1bb 13a6 acba c78a 8f3c
00000040: e591 d0bb 3de4 41bd ad1a f93c 1219 b9bd
00000050: 5c45 983c 0190 763b

tfeb.12.running_var f4 [22]
0.00033607116 0.003115132 0.0022666727 0.001568777 0.0011994079 0.0016215978 0.0016098792 0.0031063426
0.00057329907 0.00070803595 0.0013052067 0.004788136 0.0005439244 0.0012513023 0.0037497727 0.00037000698
0.0006993143 0.0047701756 0.0010166243 0.0017122697 0.00037321384 0.0006084009
00000000: b532 b039 3e27 4c3b 758c 143b 6c9f cd3a
00000010: 7335 9d3a cb8b d43a 9502 d33a c893 4b3b
00000020: 7349 163a 7d9b 393a 7813 ab3a cce5 9c3b
00000030: 2696 0e3a bd02 a43a bfbe 753b 7ffd c139
00000040: 3052 373a 224f 9c3b 4040 853a 3d6e e03a
00000050: eaab c339 187d 1f3a

tfeb.14.weight f4 [27, 22, 3, 3]
0.0024506033 -0.0023147496 -0.0012201489 0.0008041369 -0.0028636921 -0.0010253681 0.0006668455 -0.0020842757
0.00029824066 -0.0029029364 -0.003329641 -0.019155242 -0.0023836333 -0.0021340428 -0.018338444 -0.0017090873
-0.0025212674 -0.0012398885 0.0015010545 0.0007830805 0.009644734 0.02671594 0.030164236 -0.006719467
0.0066508204 0.0038768235 0.0006286919 -0.0010571785 -0.0062297415 -0.017930299 0.019475868 0.0201248
0.021150433 0.0011327654 -0.0016130306 0.0014011151 0.015250737 0.011953085 -0.0062881038 0.018749949
-0.0031071664 -0.003333393 0.000264388 0.00012424238 -0.0010835502 -0.00251935 0.0020698514 -0.00021254212
0.00047441648 0.0041020643 0.0006662532 0.0045500286 0.0034889372 0.0011065276 -0.0075502913 -0.0060976953
-0.0057454677 -0.0021134675 -0.0010335969 -0.0033296675 -0.0014549722 -0.0032857333 -0.0032945739 0.0015354913
0.0056439135 0.0027384658 0.007941961 -0.013027761 -0.015777707 0.008506524 0.005402818 0.0056729354
0.002978875 0.024636192 0.0017046031 0.0019224415 0.0033375467 0.0001587963 0.0061302655 0.007695266
0.003650496 0.016543025 0.021177778 -0.004282412 0.0010506279 0.0004713506 -0.0012371464 -0.0003840201
0.0005941739 -0.0008780486 -0.002302022 0.0006270886 4.0573894e-05 0.00080181536 0.0021912588 -0.00023354137
0.0039821034 0.0034078802 -0.0018527579 0.004077501 0.010112764 0.0019230202 0.004362087 0.0070705474
0.00205326 0.0024493972 -0.023485124 0.005911326 0.025596041 0.03136453 0.003939978 0.0014348868
0.0056355055 0.0015390741 -0.013283617 0.0043806485 -0.018309163 0.0029270414 -0.015426061 -0.02781917
-9.055627e-05 -0.021198133 -0.017117541 0.0033487072 0.0006091219 0.000709998 0.037023436 0.01602585
0.027079374 0.0016848895 -0.0017505795 0.00013233403 -0.0011197362 -0.0019730432 -0.0011208559 0.004481167
0.02018173 0.015126173 0.00407431 0.0031011177 0.0008385723 0.0048916293 0.0022711658 5.050038e-05
0.00064695004 0.0022568905 0.0004881391 0.0014970145 0.0014985648 0.0022555757 -0.009770954 -0.01663819
0.004814149 -0.0052460884 0.0015961116 -0.020416483 0.002598762 0.040140413 0.005151704 0.004083498
0.005141957 0.0038660106 0.0043934183 0.0025958298 0.0008359871 -0.0011273291 -0.0017160736 -0.0040209857
0.028983498 0.0246056 -0.0020493036 0.0036336498 0.0032282681 0.0033869944 0.0018307527 0.0017467054
0.003359126 0.0042854343 0.0038054732 0.0058122776 0.0024949464 -0.002771097 -0.0028924933 0.0032395332
0.001102612 -0.0028747374 0.0071925204 0.007720789 0.0035786356 -0.00015837963 0.0006811799 0.00025149775
-0.0005964704 -0.0011930342 -0.0027225246 0.0026626782 4.613561e-05 -0.0010637967 0.0035873596 0.019915476
0.026042946 0.002996606 -9.212897e-05 -0.0010972951 0.022499453 0.02741712 4.7790654e-05 0.01928957
0.027599128 0.029311066 -0.03179571 -0.022796433 -0.01649973 -0.0016969449 -0.00017032781 0.0015027183
-0.034730405 0.0026208463 0.0024240916 0.00031296432 0.028608432 0.002131775 0.022267843 0.030109692
-0.019646032 0.0032253477 -0.0007243796 0.010504268 0.0019455825 -0.000326987 0.011184719 -0.00014716023
0.015551911 0.034126792 0.0001370925 -0.0032807617 -0.0005433641 -0.0016742409 -0.002422784 -0.00014278892
-0.023413925 -0.0036714484 -0.0018459994 -0.0002295061 0.00462855 -0.0009876499 -0.0006191233 0.005413304
-0.0015268278 -0.006012096 0.00042372878 -0.00539842 -0.0042326055 -0.0044323266 0.009265213 -0.02652232
00000000: 4d9a 203b 0eb3 17bb 67ed 9fba b7cc 523a
00000010: c8ac 3bbb a565 86ba 3ecf 2e3a 5898 08bb
00000020: 2f5d 9c39 313f 3ebb 1b36 5abb 74eb 9cbc
00000030: bb36 1cbb 4cdb 0bbb 813a 96bc 7403 e0ba
00000040: d93b 25bb c183 a2ba 08bf c43a a547 4d3a
00000050: f204 1e3c 63db da3c fd1a f73c fa2e dcbb
00000060: 20ef d93b 4e12 7e3b cdce 243a 0691 8aba
00000070: dc22 ccbb 90e2 92bc db8b 9f3c c4dc a43c
00000080: ac43 ad3c 4d79 943a 536c d3ba 9fa5 b73a
00000090: 3ade 793c dfd6 433c 700c cebb 7e99 993c
000000a0: 9aa1 4bbb 0e75 5abb 8f9d 8a39 0f47 0239
000000b0: e905 8eba ae1b 25bb 58a6 073b d7dd 5eb9
000000c0: 1abb f839 9c6a 863b 7fa7 2e3a 6818 953b
000000d0: a7a6 643b e808 913a 6f68 f7bb 2dcf c7bb
000000e0: 7a44 bcbb 1a82 0abb c279 87ba 8d36 5abb
000000f0: c4b4 beba 7555 57bb c7e9 57bb 8a42 c93a
00000100: 94f0 b83b d577 333b 001f 023c 6472 55bc
00000110: 4040 81bc f35e 0b3c 1f0a b13b 08e4 b93b
00000120: 3b39 433b d7d1 c93c fd6c df3a 6ffa fb3a
00000130: beba 5a3b 8f82 2639 65e0 c83b 9228 fc3b
00000140: 293d 6f3b 3d85 873c 057d ad3c 7a53 8cbb
00000150: 39b5 893a 9b1f f739 bf27 a2ba 4e56 c9b9
00000160: 56c2 1b3a d82c 66ba 85dd 16bb 3463 243a
00000170: e32d 2a38 eb30 523a 399b 0f3b c9e2 74b9
00000180: 4e7c 823b be56 5f3b 3dd8 f2ba 8f9c 853b
00000190: 02b0 253c da0d fc3a d7ef 8e3b 0db0 e73b
000001a0: fd8f 063b 1186 203b e063 c0bc ccb3 c13b
000001b0: caae d13c 1878 003d ee1a 813b d012 bc3a
000001c0: 0caa b83b c2ba c93a 87a3 59bc 8b8b 8f3b
000001d0: 19fd 95bc 9bd3 3f3b 97bd 7cbc 07e5 e3bc
000001e0: 07e9 bdb8 b5a7 adbc 163a 8cbc fc75 5b3b
000001f0: 7bad 1f3a 291f 3a3a e3a5 173d a548 833c
00000200: 90d5 dd3c 83d7 dc3a b373 e5ba 25c3 0a39
00000210: 1dc4 92ba 2c4e 01bb afe9 92ba c1d6 923b
00000220: 2854 a53c c5d3 773c ca81 853b 1f3c 4b3b
00000230: a2d3 5b3a f649 a03b d7d7 143b 5fd0 5338
00000240: 1598 293a 57e8 133b ecec ff39 7937 c43a
00000250: 7e6b c43a 48d2 133b 5a16 20bc d04c 88bc
00000260: 02c0 9d3b 61e7 abbb 9e34 d13a 7840 a7bc
00000270: fe4f 2a3b 466a 243d a0cf a83b ddce 853b
00000280: dd7d a83b e55c 7d3b aaf6 8f3b cc1e 2a3b
00000290: 2526 5b3a e3c2 93ba e0ed e0ba 79c2 83bb
000002a0: cd6e ed3c af91 c93c 9c4d 06bb 8722 6e3b
000002b0: 5a91 533b 56f8 5d3b def5 ef3a b5f1 e43a
000002c0: c824 5c3b d46c 8c3b 3f65 793b eb74 be3b
000002d0: 4182 233b 4b9b 35bb fc8f 3dbb 594e 543b
000002e0: 8585 903a 1766 3cbb 3caf eb3b acfe fc3b
000002f0: 8b87 6a3b b512 26b9 3691 323a 75db 8339
00000300: 735c 1cba 965f 9cba 626c 32bb 5480 2e3b
00000310: bc81 4138 186f 8bba e819 6b3b c825 a33c
00000320: 0458 d53c b562 443b 5d35 c1b8 1dd3 8fba
00000330: c650 b83c de99 e03c d372 4838 2905 9e3c
00000340: 9117 e23c c31d f03c 383c 02bd 96bf babc
00000350: 712a 87bc 066c deba 069a 32b9 dcf6 c43a
00000360: 7841 0ebd 81c2 2b3b 82dd 1e3b 5c15 a439
00000370: 3b5c ea3c 40b5 0b3b 0d6b b63c 9aa8 f63c
00000380: b7f0 a0bc 5b60 533b 4be4 3dba 181a 2c3c
00000390: ea02 ff3a 746f abb9 1d40 373c 064f 1ab9
000003a0: 71cd 7e3c 89c8 0b3d 7dc0 0f39 0c02 57bb
000003b0: 8c70 0eba 3472 dbba 92c7 1ebb 9cb9 15b9
000003c0: 8fce bfbc af9c 70bb 76f5 f1ba 93a7 70b9
000003d0: 17ab 973b 0874 81ba a94c 22ba 1662 b13b
000003e0: d71f c8ba 1e01 c5bb ea27 de39 3be5 b0bb
000003f0: abb1 8abb 0d3d 91bb 1fcd 173c 5645 d9bc

tfeb.15.weight f4 [27]
0.16567586 0.1656166 0.19582453 0.19843088 0.18719117 0.25167745 0.15036666 0.19528563
0.19292298 0.1515518 0.15854314 0.16740991 0.230631 0.24503838 0.17928402 0.15612032
0.19317612 0.19605574 0.15881412 0.2227052 0.16574815 0.16091602 0.16991031 0.18122517
0.23578803 0.18155006 0.19186786
00000000: efa6 293e 6697 293e 3a86 483e 7731 4b3e
00000010: 0baf 3f3e dedb 803e b8f9 193e f5f8 473e
00000020: 9a8d 453e 6530 1b3e 2259 223e 816d 2b3e
00000030: 882a 6c3e 57eb 7a3e 3b96 373e 01de 1f3e
00000040: f6cf 453e d6c2 483e 2ba0 223e d50c 643e
00000050: e2b9 293e 2bc7 243e f8fc 2d3e 1793 393e
00000060: 6b72 713e 42e8 393e 0279 443e

tfeb.15.bias f4 [27]
-0.09416083 -0.11135549 -0.15050355 -0.08989297 -0.04403835 -0.07548969 -0.134105 -0.10142721
-0.09785976 0.013705609 -0.10773538 -0.0004360753 -0.13023858 -0.05661857 -0.11610072 -0.044868942
-0.059846405 -0.16707478 -0.04293963 -0.08878994 -0.13482152 -0.13079579 -0.060503736 -0.07866067
-0.18177746 -0.19545656 -0.19139099
00000000: 65d7 c0bd 590e e4bd 9a1d 1abe ce19 b8bd
00000010: 8f61 34bd 579a 9abd d252 09be 12b9 cfbd
00000020: b36a c8bd 7e8d 603c 5ea4 dcbd 09a1 e4b9
00000030: 435d 05be e0e8 67bd 37c6 edbd 7fc8 37bd
00000040: 8121 75bd a715 2bbe 77e1 2fbd 80d7 b5bd
00000050: a70e 0abe 55ef 05be c4d2 77bd d818 a1bd
00000060: df23 3abe c425 48be 00fc 43be

tfeb.15.running_mean f4 [27]
0.0071789185 0.015723063 -0.003516545 -0.009294351 -0.010552081 -0.03108458 -0.016035212 0.011008444
0.0005903799 -0.0046748025 0.005698685 0.0063696937 -0.011997983 0.0097788805 -0.009090994 0.0006308217
0.0059193475 -0.026830614 0.0075982995 -0.019808989 -0.021228412 -0.014638478 -0.0005002442 -0.030612275
-0.0063122855 0.02367289 -0.010574885
00000000: 223d eb3b a7cd 803c d675 66bb 5547 18bc
00000010: a3e2 2cbc 17a5 febc 475c 83bc c35c 343c
00000020: b9c3 1a3a 162f 99bb 09bc ba3b ddb8 d03b
00000030: 3093 44bc 9937 203c 64f2 14bc ba5d 253a
00000040: 16f7 c13b e0cb dbbc 28fb f83b 7646 a2bc
00000050: 35e7 adbc 3ad6 6fbc d222 03ba 98c6 fabc
00000060: 4ad7 cebb a6ed c13c 4842 2dbc

tfeb.15.running_var f4 [27]
0.00056990643 0.00024951043 0.00054743217 0.00025317966 0.00022171355 0.0017404237 0.00028034442 0.00046693874
0.0005428825 0.00041865534 0.00033686706 0.00067078153 0.0005074847 0.00071788125 0.00034540167 0.00041593096
0.000330864 0.00024367395 0.00088392495 0.0010658589 0.00029123778 0.0002671461 0.00051146763 0.0010731241
0.00043832703 0.00044842035 0.0003685313
00000000: c665 153a b9d0 8239 8d81 0f3a 33bd 8439
00000010: c77b 6839 ee1e e43a 31fb 9239 75cf f439
00000020: 3a50 0e3a f87e db39 889d b039 63d7 2f3a
00000030: b908 053a 3230 3c3a 0717 b539 4f11 da39
00000040: d077 ad39 ba82 7f39 33b7 673a 4ab4 8b3a
00000050: 46b1 9839 be0f 8c39 0314 063a 12a8 8c3a
00000060: 42cf e539 f619 eb39 6f37 c139
