th/pruned_models/second_stage_pruned_models/pruning_time_2024021910_prunratio82.0/model_second_stage_prun_20240219101501.pt (torch, 474922 bytes, 61 tensors)

sfeb.1.weight f4 [5]
00000000: 0fd3 4d3f 07ad 6e3f 7873 2a3f 940e 183f
00000010: b5db 113f
0.80400175 0.9323277 0.6658244 0.59397244 0.5697587

sfeb.1.bias f4 [5]
00000000: 7440 6c3d 243e 883d e079 0d3f 8581 1c3f
00000010: 934a d03d
0.057678655 0.066524774 0.5526409 0.6113513 0.10170474

sfeb.1.running_mean f4 [5]
00000000: f5b1 e038 00cd f337 0758 14b9 0ccb 45b8
00000010: ab22 8039
0.000107142994 2.9063318e-05 -0.00014147173 -4.7157562e-05 0.00024439892

sfeb.1.running_var f4 [5]
00000000: c977 153d 598a 853d 0de4 433d 376a 3e3c
00000010: 7d57 873c
0.03649119 0.06520528 0.047824908 0.011622003 0.01652121

sfeb.3.weight f4 [32, 5, 1, 5]
00000000: a91f bcbd 4ec6 15bd 3469 19bd 3af2 25bc
00000010: 0007 35bb a77b b0bc 428e 0ebd 6cde 28bb
00000020: f530 f0bc fe72 1e3b f20d f73c 770d 9b3d
00000030: 83e7 773d 609c 80bd e3fb 5e3c 044d 61bd
00000040: 5850 aebc f7b1 bb3b 15dc b53a e620 cebc
00000050: 7992 45bd 2601 4f3c 3bc3 233c bdcf d23c
00000060: a2d7 4a3d e9be f3bd 36f1 06be cb57 7ebd
00000070: cc70 aabd 7cee 06bd 48dc 3fbd 965d 64bd
00000080: 00a9 833b 5a43 363d ac39 81bd 2e91 1a3d
00000090: ca73 d43d da5e ff3d aa83 113e c7b5 203e
000000a0: 2be9 4fbd 9c4a c53a 2790 c53c 4aa6 02bd
000000b0: 4734 2dbc 09d8 57be 5b79 2dbe 93e4 3ebe
000000c0: dd19 11be 3d7d 46be 218e 4cbe 224f 20be
000000d0: 0088 c4bd 7d2c 07be da64 40bd cd53 f53c
000000e0: 9795 3ebd 2828 96bd 9b70 28be 976f 96be
000000f0: a2da 5f3e d73d d83d 2f93 a63d c6ef ef3d
00000100: 2274 e13c 8179 3dbc a1a8 163a ca7d 733b
00000110: 793a 68bd e1eb 11bd 6bfc ddbe ee9d 9abe
00000120: b500 11be 37c8 1dbd 03c5 3f3d b04a 54bc
00000130: 42db c0bb 8d6a 873c ca0a 2ebd 69b7 d0bd
00000140: 7f71 1cbe a2ed abbd a304 a2bd 16f0 d1bd
00000150: 71e9 a8bd 9bb6 1dbe 89dd 62be 061b a5bd
00000160: 42ae 11be 0259 dcbd c73a debb 2230 f33a
00000170: 9d3f 0ebd 6b11 2cbd 0821 093c 5d4e 453e
00000180: 3525 7b3e 68db 523e bf1f 833e b56d 923e
00000190: 0f21 96bc c1f1 11bd a118 cdbd 2eda 9dbd
000001a0: 66cb 8dbd bc81 74bd 24bb babc 2543 2fbd
000001b0: 9a3c 0dbe ffad 75bd 3788 c0bc b7a5 a3ba
000001c0: 008f 67bd f77c 12bc dbda 993b a4aa b33c
000001d0: ce4a ad3c 1617 343c 7471 15bd bf12 553c
000001e0: cb29 6cbc 68f9 acbb 41a7 4cbd aa02 98bc
000001f0: 00b6 77bb 63c4 95bd 97d6 37be b87e 8dbe
00000200: de0e 1ebe 935c 01be 3cc2 6b3d bc59 98bd
00000210: 973d b13c 4b5a ad3d 599c 013c 760d 863e
00000220: 02ab 2f3e 3504 a53d 2a7c e7bc d3f1 1fbd
00000230: da49 99bd 0e8e 5dbd 6eae 4c3b 073a bd3b
00000240: a4f9 1c3d 3c63 b8bc a29a ff3d 4ba0 693d
00000250: 2937 653e b717 923e 4187 b43d 860b 9cba
00000260: c2d7 abbc d940 82bd 3323 1bbe df63 43be
00000270: 1dce c1bc b526 f6ba e74b 313d 4901 b83d
00000280: 56e0 a2bd a8f1 43be 3ad9 71bd 96ae 1d3d
00000290: b536 ca3d b855 4abc 2e3b 1ebc eb53 0b3c
000002a0: e855 d7bc 4501 e73b 8eab a5bc 6d01 f1bd
000002b0: ad7f a8bd 948b 0a3d bda3 5b3e 835d 9a3d
000002c0: f76b 103e b59f b33d 1d6e dd3c 0f99 20bc
000002d0: 62ac 07be fc7c 1ebe 8e32 0ebe 6b79 07be
000002e0: bcbd efbd a76e e5bd b4be 3fbe 99c5 0cbe
000002f0: b4fc d5bd 256a c4bd efe5 07bd a743 d1bc
00000300: 0c6d bcbb f04b 51bc 6248 c7bb 695c 2dbc
00000310: d282 89bd d5ac c5bd 3be6 c6bd 8c81 f4bd
00000320: 7e82 ad3c e3bf 79bd c014 49bd b75b afbd
00000330: fecc c1bd fe54 b6bd 52a0 11bd 4bd8 acbd
00000340: 68d8 b23c bfae 0dbc 0eba c1bd fea3 c2bd
00000350: 2675 1cbb 6d95 0b3d f25e 5ebc bdb6 5cbc
00000360: fa16 4fbd d088 c5bc eb35 19bc 6538 3e3c
00000370: 3414 a6bd 768d abbd 805d febc 6e12 773d
00000380: 5fc8 203e ec15 4abe 08dd 06be 7491 b3bd
00000390: 6307 fcbd 8d21 273b 740f 7a3c 346f e63c
000003a0: 07bd 233d 5ba4 c4bd 0e1c 00be 3d1b ab3d
000003b0: 4438 6e3b d96b 3bbd 4b5e 84bb dd0f 2b3a
000003c0: 989f ef3c 2fcc a03b 2084 de3b 075e c83c
000003d0: c2cf a5bd e35c d0bc 08b2 45bd 5b30 b4bd
000003e0: eb49 02be 91c1 0abe 450d b43d b843 dc3c
000003f0: 8891 5abd cbbd dcbd f148 c7bc d9ba 223d
-0.09185726 -0.03656607 -0.037453845 -0.010128552 -0.002762258 -0.021543337 -0.034803636 -0.002576734
-0.02932022 0.0024177427 0.030158017 0.075709276 0.06052352 -0.06279826 0.013609859 -0.05500509
-0.021278545 0.005728002 0.0013874794 -0.025162172 -0.04823539 0.012634551 0.009995277 0.025733823
0.04952205 -0.119016476 -0.13177952 -0.062095445 -0.083222955 -0.03294228 -0.046840936 -0.055753313
0.004017949 0.044497825 -0.06309828 0.03773611 0.103736475 0.124692634 0.14210382 0.15694343
-0.050759476 0.0015052143 0.024116589 -0.031896867 -0.010571546 -0.21078505 -0.16940825 -0.18641882
-0.14170022 -0.19383712 -0.19976093 -0.15655187 -0.095962524 -0.13200565 -0.04697118 0.029947186
-0.04652938 -0.07331878 -0.16449206 -0.2938201 0.21860746 0.1055867 0.08133542 0.11715655
0.027521197 -0.011564613 0.00057471736 0.0037153834 -0.05669639 -0.035625342 -0.43356642 -0.30198616
-0.14160426 -0.038521018 0.046818744 -0.01295726 -0.0058855126 0.0165303 -0.042490758 -0.10191233
-0.1527767 -0.08394934 -0.07911041 -0.10250871 -0.082476504 -0.1540169 -0.22154821 -0.08061795
-0.1422663 -0.107591644 -0.006781909 0.0018553773 -0.034728635 -0.0420088 0.008369692 0.19268174
0.24525912 0.2059151 0.25610158 0.28599325 -0.01832631 -0.035630945 -0.10014463 -0.0770763
-0.06923561 -0.059694037 -0.022794314 -0.042788643 -0.13792649 -0.05998039 -0.023502452 -0.00124853
-0.05653286 -0.008940927 0.004695279 0.021931954 0.021153834 0.010991832 -0.03648515 0.013004958
-0.014414261 -0.005278755 -0.049964193 -0.018555958 -0.003779769 -0.073128484 -0.17952953 -0.2763574
-0.15435359 -0.1263297 0.057558283 -0.074389905 0.021635814 0.08464488 0.007910811 0.26182145
0.17155078 0.08057443 -0.028257448 -0.03904898 -0.07484789 -0.054090552 0.0031231898 0.0057747397
0.038324013 -0.022508256 0.12480666 0.057037633 0.22384323 0.28533718 0.0881486 -0.001190529
-0.020976905 -0.06360025 -0.15150146 -0.19081067 -0.023657853 -0.0018779846 0.043285277 0.0898462
-0.07952945 -0.19135153 -0.059045054 0.038496576 0.09873716 -0.0123495385 -0.009657664 0.008503894
-0.02628608 0.007049712 -0.020223405 -0.1176785 -0.08227477 0.03382452 0.2144918 0.07537367
0.14103685 0.08770696 0.027030045 -0.009802117 -0.13249353 -0.15477365 -0.13886473 -0.13229911
-0.11706111 -0.11202746 -0.18725091 -0.13747253 -0.1044859 -0.09590558 -0.033178266 -0.025544954
-0.005750304 -0.012774453 -0.0060816268 -0.010581114 -0.06714405 -0.09652106 -0.09711882 -0.119387716
0.021180388 -0.060974013 -0.049092054 -0.08562415 -0.09462927 -0.0890293 -0.035553284 -0.08439692
0.021831706 -0.00864762 -0.09459315 -0.09503935 -0.0023873537 0.03407805 -0.013572441 -0.013471303
-0.05055902 -0.024113089 -0.009351234 0.011610125 -0.08109322 -0.08376591 -0.031050444 0.06032031
0.15701436 -0.19734925 -0.13170254 -0.08767977 -0.123060964 0.0025502176 0.015262473 0.028129198
0.039975192 -0.09601661 -0.12510702 0.08354805 0.0036349455 -0.04575715 -0.004039561 0.0006525496
0.029250905 0.004907153 0.006790653 0.024458898 -0.08096267 -0.025434917 -0.048265487 -0.087982856
-0.1272351 -0.13550402 0.087915935 0.02688776 -0.053361446 -0.10778388 -0.024326773 0.039728973

sfeb.4.weight f4 [32]
00000000: 43fd 993e 8816 433f 7040 5e3f 19d9 7c3f
00000010: 8fe8 293e 9131 133f 43c0 ce3e 3461 203f
00000020: f940 7c3e 47cc 8d3e 696e e53d a208 f93e
00000030: d9b3 273f 0b5d f13e d155 ef3e 7e75 613e
00000040: 465d 203f 4add 913e e553 123f b566 c13e
00000050: 7742 2e3f a625 7f3e 646e c13e 07d4 123f
00000060: fee1 8f3e a53d 943e bd6a 0d3f e0ea 0f3f
00000070: 0800 e13e 7640 cd3e a604 db3e 369a 4e3e
0.30076036 0.76206255 0.86817074 0.98768765 0.1659262 0.5749751 0.4038106 0.6264832
0.2463416 0.27694914 0.112027 0.486394 0.655088 0.471413 0.4674516 0.22017476
0.62642324 0.28489143 0.5715926 0.37773672 0.6807017 0.24916705 0.37779534 0.5735478
0.28102106 0.2895328 0.55240995 0.56217766 0.43945336 0.40088242 0.42776984 0.20176014

sfeb.4.bias f4 [32]
00000000: ff34 8cbd 955e 3f3c 9f64 27be 9fd5 9dbd
00000010: 898a ddbb fc50 dcbc a96e ba3c 4615 7fbd
00000020: ac94 1fbd a0c8 ccbd 20ed 973d 37cf 50bd
00000030: e78d d6bb 7645 1b3b 382e 5c3d 51f7 003d
00000040: db10 433d ddc1 303c 2394 4abd b61b 02bd
00000050: 77b0 be3b 4263 13bc 8628 bdbb 8870 903b
00000060: fa22 c9bd 8e2b f4bc 3d5f 79bd d6b6 84bd
00000070: 98a9 8a3c 5bca c1bd a4e3 59bd d94d 2f3d
-0.06846046 0.011680265 -0.16346978 -0.077067606 -0.0067608994 -0.026894085 0.022757845 -0.062276147
-0.038960144 -0.09999204 0.07418275 -0.050978865 -0.006547678 0.0023692525 0.053755015 0.03148586
0.047623497 0.010788408 -0.04945768 -0.03176471 0.005819376 -0.008995833 -0.005772653 0.004407946
-0.098211244 -0.029805925 -0.060881842 -0.06480186 0.016926572 -0.09462424 -0.05319561 0.04279885

sfeb.4.running_mean f4 [32]
00000000: 22c3 23bd 2e3e f9ba f5a2 32be 6f9c cabe
00000010: e7d3 47be 848b 4d3e f700 3fbe 72ee 1dbf
00000020: 81d2 86be 297a 64be b1c9 8dbd 7024 cfbe
00000030: 1d6d ddbd 2c13 5dbe 86cb ffbd 7d5a 07be
00000040: ebbc 5fbd ea10 bcbe 3fd1 92be 1e4d 9abe
00000050: 96e9 25bd c4bd b0bd 4517 5bbe e418 0cbd
00000060: 86bb 68be d963 99be 361c 8dbe dac7 94be
00000070: 458c bbbd 151b e7be 3f48 3f3d 6a6c cbbb
-0.039981015 -0.0019015723 -0.17444976 -0.39572474 -0.19514428 0.20072752 -0.18652712 -0.61691964
-0.26332477 -0.22312225 -0.06923235 -0.40457487 -0.10811827 -0.21589345 -0.12489991 -0.13218112
-0.054623526 -0.36731654 -0.28675267 -0.3013696 -0.040505968 -0.08629945 -0.21395595 -0.034203425
-0.22727785 -0.2995899 -0.27560586 -0.29058725 -0.09157614 -0.4513785 0.04669976 -0.0062079923

sfeb.4.running_var f4 [32]
00000000: e7a2 813c 18fb ad3d a8a0 783e bc5d 7c3d
00000010: 2c66 7b3d 88bf a63d 4cf2 8c3d 43b1 2e3e
00000020: 5c8a 443d 1be5 ca3d 6a49 293d 2748 3b3e
00000030: 922b 843e a085 5a3e 3fd6 523e 24b2 2b3d
00000040: d4bb c63e 469c 823d 0343 b93e 6eff 9b3d
00000050: ecc9 b23e b17c 443d a21b 9a3d 88f9 6c3e
00000060: 27d7 e53d 76b1 903d 19e2 263e d03f 733e
00000070: a8c4 4b3d acfe f23d 41d3 b03c 6c13 5f3b
0.015824748 0.08495158 0.24280035 0.06161283 0.061376736 0.081420004 0.06882152 0.17059807
0.047983512 0.0990698 0.04132978 0.18289243 0.25814492 0.21340036 0.20589541 0.041917935
0.38815176 0.06377463 0.36183938 0.07617079 0.3491968 0.047970477 0.07524802 0.23142064
0.11222678 0.07065098 0.16297187 0.23754811 0.049748093 0.11864981 0.021585109 0.0034038676

tfeb.0.weight f4 [11, 1, 3, 3]
00000000: dbc7 88ba 73a2 3f3c 2a22 75ba d787 f637
00000010: adcd 09b9 27a5 a638 8dff 333c 46dd aa3c
00000020: 00f2 3d3a ff8d 353e 88bb 3d3e 5458 dabe
00000030: 08e7 7a3e 0e5d 773e 944a c3be 58ae fa3d
00000040: e48b d23d bb9f fbbd 2d71 db3a 2870 c83a
00000050: d24a c43a c213 d5bb 6eab 343b 9721 373b
00000060: 432a 903c 206b 073d 8206 a83c b34c 2e3c
00000070: 10b0 a33c 9631 2cba 42cd 40ba 379f 7a3c
00000080: 2c26 0c3c 2d78 8f3c 61ca df3c 2c93 163a
00000090: 7b0d 733e 2ea8 0bbe a020 97be 6338 b93e
000000a0: ebe7 ecbd 2b1b 96be 0276 2f3e c322 b4bd
000000b0: 22a1 51be 0471 49ba e072 66ba 411e 39ba
000000c0: 2850 9739 3377 fa38 f3cc 3639 c85b 7f3c
000000d0: 99ef 6a3c 3b17 2f39 85fd 433c 370d ac3c
000000e0: afd3 b4ba ef42 1bbb ba53 573c 9b5d e03b
000000f0: 33b4 9c3c 24b3 093d 57e9 993a c3f2 153d
00000100: f4de b43c 95a7 f9bd be1c a93d e7c0 2c3d
00000110: 7e6c 4dbe 57a7 83be d1d8 f3be b14a 2d3f
00000120: 34d6 7c3e 3bb3 c9bb b001 cdbe 5dc0 9a3e
00000130: 1968 483c 1160 b6be 0f74 b1be e53f 7f3d
00000140: 2c2f 683e 065a eb3d 14a6 dfbe 818a 773e
00000150: 46d1 c03d 9ae3 02be 5051 7abb 4d2d c0bd
00000160: bb99 36bd 4baf 1fbd e18f 04bd 852b b2bc
00000170: 9bac 323d 29ab a2b5 4357 f2b8 ee5f 8ab8
00000180: 7910 c8b8 ee7b 5438 a3fe af39
-0.0010435538 0.011696446 -0.0009351099 2.938874e-05 -0.00013141958 7.946259e-05 0.010986221 0.020857465
0.00072458386 0.17729948 0.18528569 -0.42645514 0.24502194 0.24156591 -0.38142836 0.12240285
0.10280588 -0.122863255 0.0016742103 0.0015292214 0.0014975911 -0.0065025995 0.0027568 0.0027943605
0.017598277 0.033061147 0.020510916 0.010638404 0.019981414 -0.0006568668 -0.00073548045 0.015296749
0.008554023 0.017513359 0.027318181 0.0005743976 0.23735611 -0.13638374 -0.29517078 0.36175832
-0.11567672 -0.29317603 0.1713486 -0.08795693 -0.20471624 -0.0007684382 -0.00087909214 -0.0007061698
0.00028860685 0.000119431315 0.00017433222 0.015585847 0.014339351 0.00016697955 0.011962299 0.021002395
-0.0013795997 -0.0023691019 0.013142521 0.006847096 0.019128894 0.033618107 0.0011742514 0.03660847
0.022078969 -0.12190167 0.08257435 0.042176154 -0.20060918 -0.25713608 -0.47626355 0.67692095
0.24691087 -0.006155399 -0.4004035 0.30224887 0.01223185 -0.35620168 -0.34658858 0.062316794
0.22674245 0.1149178 -0.43681395 0.24173929 0.09414916 -0.12782136 -0.0038195439 -0.093836404
-0.044580203 -0.03898553 -0.032363776 -0.021749267 0.04362164 -1.2119755e-06 -0.00011555713 -6.598221e-05
-9.5398114e-05 5.0660157e-05 0.0003356832

tfeb.1.weight f4 [11]
00000000: 55e2 333d ad38 213e f124 9c3d 90d6 823d
00000010: ae6f 2b3e c9b2 1a3d 4640 9e3d d465 803e
00000020: 18a7 a73e 2e38 9c3e b28b 043d
0.04391702 0.15744276 0.076242335 0.06388581 0.16741821 0.03776816 0.07727103 0.2507769
0.3274467 0.30511612 0.032359786

tfeb.1.bias f4 [11]
00000000: dbfa 72bd 1553 0b3e 9e6f 9fbd 757c b8bd
00000010: f7ea 773e ee9a 42bd d62e c8bd c875 263d
00000020: 2116 29bd 2d0b 55bd e19a fabc
-0.059321266 0.13605912 -0.07784961 -0.09008113 0.24210726 -0.047511034 -0.09774558 0.04063967
-0.04128087 -0.05201261 -0.03059143

tfeb.1.running_mean f4 [11]
00000000: fb38 753c e4e6 573d cf2d d93c bd2a 0f3d
00000010: c482 03be 377c 243c fdc8 153d a702 90bd
00000020: b365 babd a2e1 d7bd 54cd 71bb
0.0149671985 0.05271043 0.026511101 0.034952868 -0.12842852 0.010039381 0.03656863 -0.07031756
-0.09101429 -0.10541083 -0.0036896067

tfeb.1.running_var f4 [11]
00000000: d1ab d139 dcd2 ee3c 578a be3a 9f37 d33a
00000010: 33b0 383d b137 7939 7a25 f33a fd83 c83c
00000020: e616 e33c 0aca b83c d97a 0b39
0.000399916 0.02915328 0.0014537078 0.0016114599 0.04508991 0.00023767237 0.0018550598 0.024477
0.02772088 0.022557277 0.00013301837

tfeb.4.weight f4 [19, 11, 3, 3]
00000000: 9352 ebba a0a1 b0ba 28ae 56bc 518d 103c
00000010: 11ed 52ba 1403 59ba 3757 7dba 5a02 14ba
00000020: 50f1 27ba 8406 ad3c e413 833d 5af4 a2bc
00000030: fa3f 633d 2979 b23d 1a51 003d 0908 9f3c
00000040: abc0 0f3d 2531 473b f964 14bb 8a83 e0ba
00000050: d0b0 87bc 68c6 193c 41fc 33ba fa59 8eba
00000060: a0ce 27ba bcad 3bb9 43fe 23ba d441 31bb
00000070: 808e 0dbb 0665 9cbc 254d 4b3c b72e b1ba
00000080: 8c24 a1ba 1d9f 13bb aeea e5ba da49 d8ba
00000090: e599 93bc d44d 8b3c 397e 0a3d 9ff2 0cbd
000000a0: 430f fcba ec9d 823c 9a30 debc 3488 83ba
000000b0: b149 973c aecc c3ba bbcf 98ba 024d 96ba
000000c0: bf8f 59ba f127 ffb9 9e35 18ba 5a29 03ba
000000d0: aa0a 74b9 1488 b4b9 9c6b 4fbb f10d 23bb
000000e0: c6ec acbc 52de 643c 36a2 c1ba 45a3 33bc
000000f0: f7a5 22bb 60e5 f2ba a920 eeba 10a7 b03c
00000100: 7320 f7bb 7ff3 45bb 0308 7e3c fec5 0ebc
00000110: 4ec8 08bd ecee 8cbc ed7b 0cbb 7612 b03c
00000120: 2802 c23c dd33 143d 6727 653c 7826 74bb
00000130: a733 39bb d2e5 c8bc f6a2 8c3c 2a68 403c
00000140: 2197 efb9 1685 c0bb 17b6 98bc 350c d9bb
00000150: 8bc3 a4bc 2aba b4bb 86f8 ac3b 3433 07bb
00000160: 3428 683c 06ab 663c 58ff 3639 0f25 a437
00000170: 49ac 1f39 c57c 2d38 dbd6 b6b8 7bf5 4f39
00000180: c07f b538 2d84 65b9 454e 4138 8be2 3739
00000190: 6e54 5c39 cbae b737 4c17 5e39 634c 13b8
000001a0: 41b3 1d38 ab8f a8b9 401f 0fba e286 0eba
000001b0: ff06 1c3b a2aa 833d 6aa6 9d3d 6c67 e7bc
000001c0: fc9d 1a3b aa00 3e3c 6e83 15bd 7589 adbd
000001d0: 7b43 91bc 8c95 e539 88d1 2e3a e14d 5739
000001e0: 68cf 2e3a 78f8 063a 149b 113a 810a f1b9
000001f0: ae25 32ba 2e11 5dba 9ed5 bd39 bb60 fa39
00000200: c691 9839 2d86 65b9 55b8 05ba 5a9c b7b9
00000210: 31f0 1aba 53e7 64ba 7dfa 41ba c14a 9abc
00000220: c361 3e3c 156b fb3c 0051 f5ba 6ab1 613a
00000230: afd4 84ba 3b6f 453d c27e 3a3b 9b65 d43c
00000240: 3952 0839 77cf 6639 caf0 0039 0fa9 c739
00000250: ade0 4039 2b36 7b39 3dc2 57b9 96c9 d0b9
00000260: ccb6 f0b9 7075 143a fb10 363a 9d5b d639
00000270: 62bd b3b8 0476 eab9 2189 a1b9 102e 23ba
00000280: afeb 82ba f93d 64ba d00c 96bd 2848 70bd
00000290: 3511 c6bc d955 adbd b219 b83d 4a1c 6d3c
000002a0: 0540 493b 4aa7 5cbd d0b5 01ba 199b a3bc
000002b0: 7d65 93bd b775 cbbc 5eac 25bd 04d6 993d
000002c0: e385 fd3c 3200 253d a2f3 a5bd 9582 0e3d
000002d0: cfcc 1fbd 7af7 36bd cace 3abd 98f2 2f3b
000002e0: ad12 413c 5f95 343c f1d8 d03a 7f47 fd3c
000002f0: 1ee0 af3a cae6 b039 98d8 1a38 625e e4b8
00000300: f43a b739 7da5 2238 0325 eab9 bb1f 6fb9
00000310: 8ed2 3fba 18d3 35b9 4c3f 95ba 49a5 9fba
00000320: 1ae9 b5ba b2af e4b9 4104 d8b9 ab93 1aba
00000330: d0af 0a3a afa1 ff39 21c4 b639 e213 85bb
00000340: fb08 85ba 8d8b 0a3c f57e 5ebd 98d9 d6bc
00000350: 9fbf 143d b123 333c db41 553b 61c0 823c
00000360: 8669 15bb c21f 19bb 2d9d 2bbb 7cb1 46ba
00000370: 2c9b 24ba cacd 82ba d748 0cbc 5311 4b3a
00000380: 4439 013a 1207 b7ba 3f9e d0ba a9a2 f1ba
00000390: 6a7a 22ba 3d25 2cba 2fa2 64ba 0484 24bc
000003a0: 81fe 0fbc 90e5 16bc 2bee 6c3b 344c cf3b
000003b0: fe26 fc3b b26f adbc 39dd 32bd cebb 3bbc
000003c0: c3ac 7a3b 145f b33b 434f 0b3c c449 66ba
000003d0: e136 7fba 2539 8fba 969d 8ab9 8235 5db9
000003e0: e893 b2b9 928d da39 9431 ae39 cae4 6739
000003f0: a9c0 f5ba c658 06bb 044a 1bbb 0077 50ba
-0.0017953686 -0.0013475902 -0.0131030455 0.008822755 -0.000804619 -0.0008278352 -0.000966418 -0.00056461024
-0.0006406503 0.021121271 0.06400278 -0.019891907 0.055480935 0.08714516 0.031327344 0.019413011
0.035095852 0.0030394283 -0.0022643192 -0.0017129045 -0.016563803 0.009385683 -0.0006865897 -0.0010860555
-0.0006401334 -0.00017898431 -0.00062558445 -0.0027047293 -0.002159983 -0.01909114 0.012408529 -0.001351795
-0.0012294217 -0.0022525259 -0.0017541253 -0.0016501502 -0.018017719 0.017004885 0.03381178 -0.03441107
-0.0019230623 0.015944444 -0.027122784 -0.0010035099 0.018467756 -0.0014938319 -0.0011658588 -0.0011467042
-0.0008299313 -0.0004866715 -0.00058063294 -0.0005003415 -0.00023273626 -0.00034433661 -0.0031649834 -0.0024880136
-0.021108996 0.013969021 -0.0014773074 -0.010964219 -0.002481816 -0.0018531494 -0.0018167692 0.021564037
-0.00754171 -0.003020495 0.01550484 -0.008714197 -0.03339415 -0.01720377 -0.002143617 0.021493178
0.023682669 0.036182273 0.013986445 -0.0037254374 -0.0028259547 -0.02452365 0.01716755 0.011743585
-0.00045698232 -0.00587524 -0.018641515 -0.0066237696 -0.020112773 -0.0055153565 0.0052786497 -0.0020629885
0.014169741 0.014078861 0.00017451996 1.956758e-05 0.00015227603 4.1362615e-05 -8.718456e-05 0.00019832507
8.654548e-05 -0.00021888381 4.608768e-05 0.00017536634 0.00021012287 2.1896694e-05 0.00021180249 -3.511867e-05
3.759866e-05 -0.00032150498 -0.00054596737 -0.0005436969 0.002380788 0.0642903 0.076977566 -0.028247558
0.0023592701 0.011596838 -0.036502294 -0.084734835 -0.017732373 0.00043789705 0.0006668796 0.0002053301
0.0006668479 0.0005148719 0.00055544195 -0.00045974928 -0.0006795776 -0.0008433041 0.00036208046 0.00047755786
0.0002910031 -0.00021889126 -0.0005101015 -0.0003502097 -0.0005910425 -0.000873198 -0.00073996914 -0.018834474
0.011619988 0.03069071 -0.0018716156 0.00086095056 -0.0010134185 0.04820178 0.0028456901 0.025927356
0.00013000601 0.00022011796 0.00012296732 0.00038082196 0.00018394245 0.00023957404 -0.00020576357 -0.00039823045
-0.00045912561 0.00056632515 0.00069452793 0.00040885518 -8.5706604e-05 -0.00044719887 -0.00030810482 -0.00062248204
-0.0009988452 -0.00087067444 -0.073266625 -0.058662564 -0.024178127 -0.0846364 0.08989276 0.014472077
0.0030708325 -0.053870477 -0.00049480516 -0.019971417 -0.07197092 -0.024836404 -0.040447585 0.07511523
0.030947631 0.04028339 -0.0810311 0.0347925 -0.03901368 -0.044669606 -0.045607366 0.0026847478
0.011784238 0.011021941 0.0015933794 0.030917881 0.0013418233 0.00033741287 3.691818e-05 -0.000108894674
0.00034948403 3.8777933e-05 -0.00044659534 -0.00022804637 -0.0007317447 -0.00017340144 -0.0011386662 -0.0012179996
-0.0013878674 -0.00043618452 -0.000412019 -0.0005896638 0.00052904803 0.00048757854 0.00034859873 -0.004061208
-0.0010149771 0.008456123 -0.054320294 -0.026226804 0.036315557 0.010933802 0.0032540474 0.015960874
-0.0022798493 -0.0023364876 -0.0026186213 -0.0007579548 -0.0006279226 -0.0009979543 -0.008562288 0.0007746417
0.0004929493 -0.0013963899 -0.0015916302 -0.0018435317 -0.00061980507 -0.0006566828 -0.0008721677 -0.010041241
-0.008788706 -0.009210005 0.0036152701 0.006326223 0.007695078 -0.021171425 -0.043668006 -0.01145835
0.0038249947 0.0054739807 0.008502784 -0.00087847956 -0.00097356556 -0.0010927065 -0.00026438822 -0.00021096136
-0.00034061004 0.00041685678 0.00033224805 0.00022115107 -0.0018749434 -0.002049969 -0.002369524 -0.00079523027

tfeb.5.weight f4 [19]
00000000: 4375 013e 1d54 9c3e a1ee 9c3e 8c79 1e3e
00000010: e649 a63e 83ca 633e 319a 153e 428f 0a3e
00000020: f599 303e c524 da3e 7ea0 ff3d 624e ac3e
00000030: 62f8 2d3e 00a8 af3e 286e ad3e 1f58 b33d
00000040: cbd7 be3d c4d4 193e bdcb 1f3e
0.12642388 0.30532923 0.3065081 0.15476054 0.32478255 0.22245221 0.146096 0.13531211
0.1724623 0.42606178 0.12481783 0.3365355 0.16989282 0.3430786 0.33873105 0.08757042
0.09318503 0.1502257 0.15605064

tfeb.5.bias f4 [19]
00000000: 47cd 0e3e 8e95 babd 308d e6bc ed1a aebb
00000010: 1b7d 19be 57bc b33c 7d1f 8fbd c090 37bd
00000020: f2a8 68bc f648 0dbe 6154 343e 1578 63be
00000030: ecc5 853d 9a2e 03be 1741 bebd e94b 75be
00000040: 1db6 18bd 0d7e 073d 4182 ed3c
0.13945495 -0.091105565 -0.028143495 -0.0053132684 -0.1498913 0.021940393 -0.06988428 -0.04481578
-0.014200436 -0.13797364 0.17610313 -0.22213776 0.06531891 -0.12810746 -0.09289759 -0.23954739
-0.03728305 0.033079196 0.028992774

tfeb.5.running_mean f4 [19]
00000000: f67f 723d 9ecd 6ebc ce37 8abd 6644 1ebb
00000010: 6be5 debc 6a83 dfbd 99d8 283c b6ab b7bd
00000020: 62ac 053c ca4a b0bd 2c5c bebd 8538 8cbd
00000030: 5542 e93c d350 84bd 8348 2cbd bb47 373d
00000040: f2b8 83bc 2d17 733c 8578 26be
0.059204064 -0.01457539 -0.06748925 -0.0024149655 -0.027209004 -0.10913737 0.010305547 -0.08968298
0.008158775 -0.08608015 -0.09294924 -0.06846718 0.028474012 -0.064607285 -0.04206134 0.044746142
-0.0160794 0.0148370685 -0.16256912

tfeb.5.running_var f4 [19]
00000000: 9697 113b 6690 543b 69d3 323b 1353 c43a
00000010: 656a da3a 7973 653b 805e 2e3a 9391 943a
00000020: dd65 cb3a e0c6 733b caa0 583b d854 173b
00000030: ac24 033b a29d 813b 62bd 163b 1979 013a
00000040: 5d86 a538 77ad 393a f190 563b
0.0022215596 0.00324347 0.0027286655 0.0014978371 0.0016663788 0.0035011454 0.0006651655 0.0011334888
0.0015518029 0.0037197396 0.0033054822 0.0023091342 0.0020010872 0.003955559 0.0023001065 0.00049390044
7.89284e-05 0.0007083038 0.00327402

tfeb.7.weight f4 [22, 19, 3, 3]
00000000: d28e cc3c 3324 49bc 24b5 5fbd 52b3 7c3d
00000010: 5cc9 36bc b464 8ebd 42f8 6c3c 17d4 8eba
00000020: fad0 85bc 43b9 80bd 289d 19b8 4a83 3f3d
00000030: ff1a edba 720f 06bb 6897 363c 218e acbc
00000040: 7c15 54bc 3719 bc39 a993 083b f014 403b
00000050: c4f9 de3c 6e73 92bd 8e61 00bd 23ce 8ebc
00000060: 1640 b4ba 7127 9539 ec18 983c c045 30bd
00000070: f9b5 bcbc 9ed9 94bc de8a 99b9 f9df 59bc
00000080: 4fb5 5dbc bf40 99bc 2bac ec3a a44f fa39
00000090: c5ab 0c3b f742 6a3c 7ec8 3e3d 02c4 e4bc
000000a0: ee89 13ba 2c16 f33c 2e70 c538 51e2 c6ba
000000b0: 3aee 44bc 74d3 febc 74f6 6fbd fce8 f4ba
000000c0: 5b6d acbd 7702 ddbd 7eed 16bd ad85 383d
000000d0: df82 bf3c df90 3a3a 035a bcbc ea14 653a
000000e0: fcde 073a 626d 86bc c926 a23a 5323 163a
000000f0: d48e 9bbc fc40 acb9 9fe9 51ba 2a75 62bc
00000100: 4125 44bc c61d 08bd 554d ccbc 897f 14bd
00000110: 4655 29bd 093f e23c 4899 2cba 5594 eebc
00000120: a710 bfbc 4a99 e0bb d00d c339 2d68 09bd
00000130: a550 18bd fd09 c2bc 77bd 113d 1ab6 e039
00000140: b1d4 0bbd 2708 a2bc 370c 803c 740e 153b
00000150: 1bc2 0ebb 2772 be3c 8366 06bb c251 193c
00000160: a41c 323c 025b afbc 5b0a 91bd 9578 adbd
00000170: b4e5 6cbd a871 8dbd e339 7abd 0ef7 4abc
00000180: 442f d6bc d653 c6bc cc69 493c afaa 663a
00000190: b86c bc3c df28 3b3c 719e 54bd c907 44bc
000001a0: fb03 463c 66e1 433c 783f e13c e34b 7bba
000001b0: f4c3 d73c f87f 963c dd37 433c d9c6 8e3d
000001c0: 8f38 2a3d 5db2 8cbc 620c b0ba 0dc1 adbc
000001d0: 1c5e 0dbd fcf4 f7bb 2625 2bbc a68c 4c3d
000001e0: 2b93 d23c 6702 443a 3eef 253c 1882 8c3a
000001f0: d417 543c 1ec7 443c 9519 193c a7d6 17bb
00000200: 7bf7 2cbb a3eb 0abd 2c10 f6bc 5778 b33c
00000210: 14fe a039 0ada 593c 5ab8 d939 f047 30bd
00000220: f1fc 2eba dc06 3938 005b 47bd 1925 acbc
00000230: d0df 7bbc de1b 07bd acda 5ebc b794 71b8
00000240: 319e 103c 80b3 abba 5b32 bbba 05a0 31bb
00000250: f0d1 e5ba 0f2f f7ba 906a bdba e412 bbba
00000260: 9402 feba 333b 543d 3c13 b139 3423 5ab9
00000270: a422 4bbd 9d8c 17bd 6830 a8bc 2239 6c3c
00000280: b578 3cb9 d0d1 3b3c 633b b9bc 2c1b 0dbd
00000290: d807 923a 84b0 b2bc 85d0 02bd 078b 03ba
000002a0: 41a5 413c b5ef f538 52e9 ab3a eaa4 3d3d
000002b0: 8b48 993c 20b5 623c 4392 50bb 9f38 85bc
000002c0: e1c5 81bc 7976 3e3d 1165 af3c cae7 af3c
000002d0: f356 1dbd e2fa 8dbd 92d3 d5bc 720c 633c
000002e0: 6107 6b3b 6cc3 593a 8fe4 fabc 2c25 3bbd
000002f0: 76ee ac39 33bf d3bc 6b65 71bd 1d25 16bd
00000300: 4018 8bbc 0a98 02bd f1c3 a03c 32b2 57bb
00000310: 30ad b4bb 358f a8bb ff73 3b3d 0240 443d
00000320: 2c98 ca3c 6a67 213d 04a0 843c 104f 5e3c
00000330: 8c90 b23b 9091 083c f8c4 9a3b fcab 613b
00000340: f186 9fbc 4f4c febb d908 32bc a387 0fbd
00000350: 5d16 b2bc 8ee0 053b 4183 07bd 19f1 7f39
00000360: bd8e 2fbc 9ea3 9f3b 63ec 293d 8929 a1bc
00000370: 5e3a ddbc cb31 e03b 1dca 803c 6009 803b
00000380: d6dd 973c 2a51 92bc 0a3e 1abc ee4a c2bc
00000390: 3bb7 593a 46f4 26bc 01cf 86bc 336a aa3a
000003a0: a170 823b 2f1d 11bc 3643 813c d442 613c
000003b0: f747 2f3c 94b6 663c 9b78 9b3a 2a8f af3c
000003c0: 047a 943c 26c9 4d3c 2269 ad3c e07c 3cbc
000003d0: 08df e7bc 44e5 5cbc e516 8b3a 8204 5abc
000003e0: 3db7 c839 ef46 793d c491 5e3d ffd8 4c3d
000003f0: 9e03 c7bc 7ef9 23bd 41a5 40bb 3c26 76bd
0.024970446 -0.012276697 -0.05461611 0.06169445 -0.011156406 -0.06952801 0.014463486 -0.0010896948
-0.016335 -0.06285336 -3.6624406e-05 0.046756066 -0.001808971 -0.0020455983 0.0111444965 -0.021063866
-0.012944575 0.0003587694 0.0020839965 0.0029309355 0.027218707 -0.07150923 -0.031343035 -0.017432278
-0.0013752009 0.0002844888 0.018566571 -0.04303527 -0.02303599 -0.018170174 -0.00029285898 -0.013298028
-0.013531997 -0.018707631 0.0018056681 0.00047743053 0.0021464687 0.014298192 0.046577923 -0.027925495
-0.0005628158 0.029673658 9.414587e-05 -0.0015173649 -0.012019688 -0.031106688 -0.058584645 -0.0018685157
-0.084192954 -0.10791486 -0.036847584 0.04504936 0.023377834 0.00071169244 -0.02299214 0.0008738773
0.00051830686 -0.01640958 0.0012371178 0.00057273096 -0.018989004 -0.00032854814 -0.00080075295 -0.013821879
-0.011971773 -0.03323152 -0.024939219 -0.03625444 -0.04134109 0.027617948 -0.000658412 -0.029123465
-0.02332337 -0.006854211 0.0003720359 -0.033546615 -0.037186284 -0.023686403 0.03558108 0.00042860286
-0.034138385 -0.019779278 0.015630824 0.002274421 -0.0021783176 0.023247791 -0.002050788 0.0093578715
0.010871086 -0.0214057 -0.07082053 -0.08470265 -0.05783625 -0.06906444 -0.06109036 -0.012388004
-0.026145585 -0.024209898 0.01229329 0.00087992375 0.02300106 0.011423319 -0.051908914 -0.011964747
0.01208591 0.011955595 0.027496085 -0.0009586198 0.026338555 0.018371567 0.011915174 0.06971521
0.041557845 -0.017174894 -0.0013431425 -0.021210218 -0.034513578 -0.007567046 -0.010445869 0.04993882
0.02570494 0.00074771646 0.010127841 0.0010719923 0.012945134 0.012010364 0.009344478 -0.0023168714
-0.0026392627 -0.033916127 -0.030037008 0.021907968 0.0003070688 0.0132966135 0.00041526818 -0.043037355
-0.00066752644 4.4113825e-05 -0.04867077 -0.021013783 -0.015373185 -0.03298556 -0.01360194 -5.759738e-05
0.008826778 -0.001309976 -0.0014281975 -0.0027103436 -0.001753388 -0.0018858629 -0.0014451314 -0.0014272598
-0.001937943 0.05181427 0.00033774402 -0.00020803214 -0.049593583 -0.036999334 -0.020530894 0.014417918
-0.00017974044 0.011463597 -0.022611326 -0.03444974 0.0011141254 -0.021812685 -0.03193714 -0.000501797
0.011819185 0.00011727159 0.00131158 0.046299852 0.018711349 0.013837129 -0.003182546 -0.01626235
-0.015841426 0.046499703 0.021410497 0.02147283 -0.038413 -0.06932618 -0.026101861 0.013857948
0.0035862552 0.0008307013 -0.030626563 -0.045689747 0.00032984064 -0.025848007 -0.05893461 -0.036656488
-0.016979337 -0.031883277 0.019624682 -0.003291261 -0.0055138096 -0.0051440247 0.04576492 0.047912605
0.024730764 0.039405264 0.016189583 0.013568655 0.0054493602 0.008335486 0.0047231875 0.0034434786
-0.019473525 -0.0077605615 -0.010866367 -0.035041463 -0.02173918 0.0020428034 -0.033084158 0.00024408511
-0.010715184 0.0048717996 0.0414852 -0.019673126 -0.02700537 0.0068418733 0.015721375 0.0039073676
0.018538397 -0.017860968 -0.009414205 -0.02371737 0.00083051965 -0.010190075 -0.016456129 0.001300162
0.0039807116 -0.008857056 0.015779119 0.013748843 0.01069831 0.014081616 0.0011861505 0.02143057
0.018124588 0.012560165 0.021168295 -0.011504382 -0.028304592 -0.013482396 0.0010611682 -0.013306739
0.00038283496 0.060858663 0.05433823 0.05001163 -0.024293717 -0.040032856 -0.0029395374 -0.060095057

tfeb.8.weight f4 [22]
00000000: 581e 8a3e 342d 323e 6462 243e 3309 793e
00000010: 5608 7e3e 324a 453e 8a1a 2c3e 8d84 003e
00000020: eb11 923e 77a4 643e ee6a 663e 6ff4 233e
00000030: f85e 883e 91f7 1d3e 21e3 ed3d 0b76 993e
00000040: 61b4 683e 1918 1d3e 2a74 193e 9305 833e
00000050: 04f8 693e 499a 123e
0.26976275 0.17400056 0.16053158 0.24319915 0.24807867 0.19266585 0.16806999 0.12550564
0.28529295 0.22328363 0.22501728 0.16011213 0.26634955 0.1542647 0.11615587 0.29972872
0.22725059 0.15341224 0.1498572 0.2559019 0.22848517 0.14316668

tfeb.8.bias f4 [22]
00000000: a781 8bbd a9a1 493e 61e0 53be 8283 c53c
00000010: a39a b8bd bf5c 033d b7be d23c 7a02 443d
00000020: f7b8 27be 6e21 9bbd e551 a0bd a4d4 2bbb
00000030: 1a18 b0bd 286e 403c 6266 ed3c 1204 f9bd
00000040: d8a0 e5bc 3dcf 423c ec87 0b3d 8668 a8bd
00000050: cb2d 8ebd e5f4 a63c
-0.068118386 0.19690575 -0.20691063 0.02411056 -0.090138696 0.03207087 0.025725706 0.047853924
-0.16379152 -0.075747356 -0.0782812 -0.0026219273 -0.08598347 0.011745013 0.028979484 -0.121589795
-0.028030798 0.01189023 0.034065172 -0.08223061 -0.06942328 0.020380447

tfeb.8.running_mean f4 [22]
00000000: 11f4 e0bd ca4e 8d3b 1f3d 6d3d 496a 36bd
00000010: 88af bebd cd5a 813d e6f2 dcbc 0963 4b3c
00000020: 1b81 8dbd 70b9 84bd 3b6a 2ebb 62a7 c2bc
00000030: c0f4 05bd 26d7 403d eb2b 7f3c dee3 3ebd
00000040: 80f3 afbd 73bd b4bc 29bf bfbc a0a2 f5bc
00000050: 12fc 1cbd b417 d93c
-0.10984052 0.004312371 0.057919618 -0.044534955 -0.09310824 0.06316147 -0.026971292 0.012413749
-0.069093905 -0.06480682 -0.0026613611 -0.023761455 -0.032704115 0.04708018 0.015574436 -0.04660403
-0.08591366 -0.022062993 -0.023406582 -0.029984772 -0.03832633 0.02650056

tfeb.8.running_var f4 [22]
00000000: b871 5d3b 9b81 213b b691 9d3a 3f7e 8a3b
00000010: fce0 803b a27e 113b e8f8 fc3a 999f d03a
00000020: 6cb5 0b3b 2164 303b 1e6b a13a 6291 4a3a
00000030: 9986 443b 89cd a23a 5a3f 6a3a c848 0c3b
00000040: fdfa 033b 436d 373b a9ce 083b d99b 7f3a
00000050: 48b5 363b c892 a53a
0.0033789705 0.0024643901 0.0012021575 0.0042264755 0.00393307 0.0022200723 0.0019300254 0.0015916704
0.0021317853 0.002691515 0.0012315249 0.0007727352 0.0029987453 0.0012420873 0.0008935832 0.0021405686
0.0020138614 0.002798871 0.0020875132 0.0009750701 0.0027879048 0.0012632245

tfeb.11.weight f4 [22, 22, 3, 3]
00000000: 475e 07bd eed4 4dba c227 8ab8 98bd a4bc
00000010: 8287 0fbd d6b7 63bd 9305 18bd 034e 85bc
00000020: 19fd baba 4562 08b9 7a99 71bc d831 55bc
00000030: d235 d539 e73d 1fbc 1321 57b8 90a9 043c
00000040: b6ce 6f3c 4868 66b9 129e 683c e770 6a3c
00000050: 68fb 3b3c d1cc 463c 9e96 8737 ef76 233c
00000060: 4657 1e3c 73d1 d0b9 ccad 82b9 6390 8bbc
00000070: e508 51bc 537f c9ba 5677 91bc 974c 8e3b
00000080: 7650 203d 54ac c03a 117c a73a 154a 323c
00000090: 1192 b13c b664 f93a 1fe8 333a 7999 513c
000000a0: 9b2b 023b c1bb a13c 1ac2 a3ba a485 de3c
000000b0: 9100 4d39 d8dd 803c 3b27 82bc 0292 0fbd
000000c0: 1949 0d3b 07c9 2cbc fa02 d6bc e8a5 44ba
000000d0: a99f adba 09d8 43bc 8de3 46bc 1070 3dbc
000000e0: ba76 cbb9 ef46 7ebc ddb2 81bc 0394 b938
000000f0: 3681 8d3c 7d14 703c d7b9 5eba b6bc 39bc
00000100: 137d ddbc 2e1b 7dbc 78cb 97bc 52f0 0dbd
00000110: f0c9 86bc 3bb3 9fbc de1a 2539 3d03 143c
00000120: 8f74 b53c 14a5 f13c 8421 24bc d507 be3c
00000130: d8fe 553c 98d4 d2bc 4eae 433a d244 403c
00000140: f81b 27ba a501 27bc 9eff 74bc a30d a03c
00000150: 28fb d0bc ca1e f5bc 1117 8e3b c8d5 fcbc
00000160: 9bfa b8bc 6995 b53a b53b 36bc aac6 8ebc
00000170: a31a a838 8aec 94bc fc0f 8ebc 236a faba
00000180: 543e 51ba 6a8d 173c 7bbe 34ba e6dc 793c
00000190: 2910 a1b9 1827 b0ba f517 823a c23c babc
000001a0: 92f9 98bc 13f1 26bc 192e b1bc acf2 8b3a
000001b0: a23f a03a a433 803a 84fa bebc 5ac1 543b
000001c0: 9f16 a33a fff9 8dbc 5654 873a fdda bcb9
000001d0: b66e 32bc 1a2f 52bc c6cc bcba b1d3 f7ba
000001e0: 3cdf f4ba 287e 37ba b89e adbc 95f0 64bb
000001f0: a529 21bb 201e 1dbd 16e5 98ba 493b f8ba
00000200: f1d3 bcba 702d 6aba 4d18 42bc 58f2 16ba
00000210: b468 32bc 770e 6ebc fbf6 54b9 b2e9 d5bc
00000220: ace7 3ebd 57e5 2e3c 2129 eebc 9736 a3bd
00000230: c034 aabc a850 bebc e950 9fbc 6d0b 5bba
00000240: 373f 9c3a a509 29bc 9a12 01bc 0969 0f3b
00000250: b96a 52bc 9611 443c d0be 3c3b 0508 413b
00000260: fbc9 733c dca3 7e3c 1f92 ee3a 7a7a 91b9
00000270: 50f4 b73a 7d11 183b edf2 1e3c 2f60 8eb9
00000280: 0063 423c 9799 573a 6b8b 5f39 74d3 1b3a
00000290: e023 843c 2709 22bc 21f9 bc3a 1ff5 9a3c
000002a0: 9701 453c b6aa aa3c 3623 863c e056 fa3a
000002b0: 400c 8abc 71b0 debc 37ac 023b 3140 1dbc
000002c0: 7a8d 03bd 1737 1dbc b7f9 e83a 1b69 1b3a
000002d0: c91f 44ba decc f1bc 287a 513c b968 aebc
000002e0: b2cd 59bd 2bb3 84bc d06c abbc 15ac 87bc
000002f0: cd7e c9b9 7df7 66bc 3c4e abbc 55ba 3abc
00000300: 723b a0bc eb99 8fbc a94e 503a 5143 f33b
00000310: 2eae 623c 79f0 423c d7e8 4dbd 9c0d 43bd
00000320: 7806 02bd 9b47 16bd 03ce 10bb 9896 d93c
00000330: e34f b03c ccbf f5b9 73a9 cb3c 3f43 0a3b
00000340: 1686 8a3c 27f9 d93c 1e0e 0c3b 6d1d 3e3c
00000350: de6b 86bc d423 47bc 9375 7abc 5fce 23bd
00000360: d576 24bc 6be9 e7bc e523 3ebc 7682 0539
00000370: d776 9fbc 50e6 0bbb 0df2 fa3a ec67 823a
00000380: 8610 1338 a04a 00bd f16c ec3c fcbc 3a3d
00000390: a0b8 e4ba b94d 323a d12e 66bc 38e0 253c
000003a0: dff8 02bd 52f6 9bbd d574 a6bc c2c5 a33a
000003b0: e518 063d b022 86ba 3090 a2ba 0337 7bba
000003c0: 59f5 f2ba 0d04 d63c 6dcd f5bc 8016 3e3b
000003d0: f2eb 9e3b 90ce 5d3b 40c3 36ba a954 8a3c
000003e0: cf5b 28bc cc99 bbbc 56df 10bd 8777 92bd
000003f0: 6e43 943c 512a c7ba 8125 073c 05a2 ec3c
-0.033048894 -0.00078518584 -6.587758e-05 -0.020109937 -0.03504134 -0.05559524 -0.03711469 -0.01627255
-0.0014266103 -0.00013006579 -0.014746064 -0.013012372 0.00040666625 -0.0097193485 -5.1290797e-05 0.0080970675
0.014636686 -0.00021973357 0.014197843 0.014309145 0.011473514 0.012133793 1.616339e-05 0.009977086
0.009664362 -0.00039828903 -0.0002492502 -0.017036622 -0.012758468 -0.0015373029 -0.0177571 0.0043426263
0.039139234 0.0014699795 0.0012778064 0.01088192 0.021676095 0.0019027207 0.0006862897 0.012792938
0.0019862417 0.019742848 -0.001249376 0.027163334 0.00019550534 0.015730783 -0.015887847 -0.035051353
0.0021558462 -0.0105459755 -0.026124466 -0.00075015286 -0.0013246435 -0.011953362 -0.012139213 -0.011562362
-0.00038807635 -0.015519842 -0.015832359 8.849057e-05 0.017273527 0.014653322 -0.000849632 -0.011336496
-0.02703718 -0.015448375 -0.018529639 -0.034653015 -0.016453713 -0.019494643 0.00015745635 0.009033975
0.022150306 0.02949766 -0.010017756 0.023197094 0.013061248 -0.025736138 0.0007464633 0.011735158
-0.0006374712 -0.010193263 -0.014953522 0.019537752 -0.025510386 -0.029921908 0.004336246 -0.030863658
-0.022580435 0.0013853732 -0.011122634 -0.017428715 8.015826e-05 -0.018179197 -0.017341606 -0.0019105118
-0.0007982005 0.009250024 -0.0006894839 0.01525042 -0.00030720353 -0.0013439385 0.0009925353 -0.02273405
-0.018673692 -0.0101893125 -0.021628426 0.001067718 0.0012225995 0.0009781015 -0.023312815 0.003246388
0.0012442655 -0.017331121 0.0010324817 -0.00036021313 -0.010890653 -0.012828613 -0.0014404289 -0.0018907693
-0.0018682252 -0.0006999695 -0.021193847 -0.0034933437 -0.0024591472 -0.038358808 -0.0011664953 -0.0018938567
-0.0014406425 -0.00089331623 -0.011846614 -0.0005758158 -0.010889221 -0.014529816 -0.00020309903 -0.026112411
-0.04660766 0.010674796 -0.029072346 -0.079693966 -0.020777106 -0.02323182 -0.01944776 -0.00083558896
0.0011920695 -0.010317241 -0.00787797 0.0021882674 -0.0128428275 0.011967083 0.0028800257 0.0029454243
0.014879699 0.015541997 0.0018201506 -0.00027747807 0.0014034603 0.0023203783 0.009701473 -0.00027156013
0.011864424 0.0008224486 0.00021318874 0.000594429 0.016130388 -0.009889877 0.0014417508 0.018915711
0.012024305 0.020833354 0.016374212 0.0019099377 -0.016851544 -0.027183743 0.0019939074 -0.009597824
-0.032117344 -0.009595654 0.0017774616 0.00059284427 -0.0007481543 -0.029516634 0.012785472 -0.02129017
-0.053174682 -0.016198715 -0.02092591 -0.016561547 -0.00038432181 -0.014097092 -0.020911328 -0.011396964
-0.019559596 -0.017529448 0.00079462916 0.007423796 0.013835473 0.011898153 -0.05027088 -0.0476204
-0.03174445 -0.036689382 -0.0022095449 0.026561067 0.021522468 -0.0004687294 0.024861073 0.002109721
0.01690964 0.026608063 0.002137072 0.011603695 -0.016408857 -0.012154538 -0.015286821 -0.039991733
-0.010038097 -0.028309545 -0.011605238 0.00012732469 -0.019465847 -0.0021346994 0.0019145623 0.0009949184
3.506292e-05 -0.031321168 0.028860541 0.045590386 -0.0017450042 0.0006801743 -0.014049248 0.010124259
-0.031975623 -0.07615341 -0.020319382 0.001249485 0.032738585 -0.0010233726 -0.001240259 -0.00095830875
-0.0018536254 0.026124978 -0.030005181 0.002900511 0.004849904 0.0033845045 -0.00069718435 0.016886072
-0.010275795 -0.022900485 -0.03536924 -0.07151704 0.01809856 -0.0015195106 0.008248688 0.02888585

tfeb.12.weight f4 [22]
00000000: 3c04 713e 0ceb 553e 18a9 5b3e 2e76 873e
00000010: 5252 473e df7e 493e 5ed9 473e d72f 693e
00000020: 0c9b 303e adac 233e afb8 1a3e d8b3 6d3e
00000030: f261 fd3d 4373 123e 60ef 393e c234 033e
00000040: 8843 553e 2c7f 1b3e cda4 123e 8611 593e
00000050: f771 253e 5774 3e3e
0.23536772 0.20890445 0.21451223 0.2645735 0.19464996 0.19677304 0.19516513 0.22772156
0.17246646 0.1598384 0.15109514 0.23213136 0.12372197 0.14301781 0.1815772 0.12813094
0.20826542 0.15185231 0.14320679 0.21198091 0.16156755 0.18599068

tfeb.12.bias f4 [22]
00000000: 75e6 39be 3988 ccbc 782f 99bd 5c2e cdbd
00000010: 5ade 94bc fce7 57bd 3750 0abe 467a 93bd
00000020: c979 08bd 819a a2bd 587b adbd 6f25 e8bd
00000030: 19b8 93bb a69f 703d 7c5a 97bd 3929 33bd
00000040: 3bae cabd 9368 3e3c 9d2e 1ebd 5c9b cbbc
00000050: e815 3a3d 92eb bebd
-0.18154319 -0.0249673 -0.07479757 -0.10018608 -0.018172432 -0.052711472 -0.13507162 -0.07201056
-0.03331927 -0.079396255 -0.084707916 -0.11335265 -0.00450803 0.058746003 -0.073903054 -0.043740485
-0.09896513 0.011621612 -0.038618673 -0.024854355 0.045431048 -0.09322275

tfeb.12.running_mean f4 [22]
00000000: f670 bebd 51cf 70bd 3108 09bd 0c72 823d
00000010: ecbc a4bd 19a7 57bd 4616 cebc a5dc 1cbd
00000020: 2282 8abd 1769 52bd 50ac 94bc 96d0 8cbc
00000030: eb8f 1dbc 53d8 22bd 45dd f2bb 476a 0a3d
00000040: edf0 8fbd bcad 86bd e4f3 9bbc 344c 333b
00000050: 1f9a 54bd 825d cebc
-0.09298889 -0.058791462 -0.033455078 0.06369409 -0.080438465 -0.05264959 -0.025157105 -0.03829636
-0.06763102 -0.051369753 -0.018148571 -0.017189305 -0.009616832 -0.039757084 -0.0074116313 0.03379276
-0.07028375 -0.06576106 -0.019037195 0.0027358653 -0.051904794 -0.025191072

tfeb.12.running_var f4 [22]
00000000: 70ca c93b 2701 783b 9fcf fe3b 87e4 af3a
00000010: e29e 8e3b be25 db3a 6c07 713b b399 103b
00000020: 40eb 063c 7c48 483b 3ce6 443b a08f 323b
00000030: 939c 673a 3003 233c c463 be3a 0d06 d23a
00000040: e4ef af3b d3f3 923b 58a4 053b 47b9 0a3c
00000050: 2b7d 873b f1f3 863a
0.0061581656 0.0037842484 0.007776215 0.0013419547 0.0043524364 0.0016719622 0.0036778105 0.0022064268
0.008234799 0.0030560782 0.0030044457 0.0027246252 0.0008835282 0.00994949 0.0014525582 0.0016023532
0.0053691734 0.0044846325 0.0020392146 0.008467025 0.004134794 0.0010296089

tfeb.14.weight f4 [31, 22, 3, 3]
00000000: bf9d 86bc 3859 823c 9b75 963c e6c9 143d
00000010: 8476 273d ce12 c43c ae07 383d f85f 353d
00000020: 1d25 6f3c 6fa5 d9bc 93d0 13bd f655 20bd
00000030: bd65 2dbd f137 a9bc 1a9c 65bc 1b2c bc3c
00000040: 4822 023d 731e 913c fe26 253b 4db4 c03a
00000050: e676 96bc ae87 d73c d44d f63a ff4f 5abc
00000060: cb24 973c e5ff df38 26f8 57ba 2989 76bc
00000070: 3997 4abb fe8b 1e3c 3f63 a1bc 64ed 853c
00000080: 2735 feba 58bd 493b 27bd deb8 c631 f53b
00000090: 886f 1ebc 8b7a 03bc 9ba9 013b 1808 9639
000000a0: 204c b3bc 9610 1dbc f58d 3bbc db97 aebc
000000b0: 2a8c 0dba b1ca c0bc 8c5a 9fbc c749 5f39
000000c0: d957 f0bc 1cb8 cdbc 1b4f a6b9 dfbf c8bc
000000d0: 28f7 043a 2508 c03c 916f 04bd ad7b 1fba
000000e0: 58b6 0d39 d1ae ebb9 a4fb b93c 26f8 d63c
000000f0: fb94 48bc 5fa1 343c bcd6 473c c576 9bbc
00000100: 1cae cebc 1045 9ebc 7057 6fbd d9d8 0bbd
00000110: 8ec1 debc 018c c53c d67c 3bba a6b0 33ba
00000120: 41bb 23bc fa2b 0ebd d4a2 223b fa61 2f3a
00000130: d876 8cbc 4b2a 96ba 1ca6 3eba 73dc b0ba
00000140: 3a73 7d3c 25f6 863a 1352 ca3c 4670 b93a
00000150: eb1b 2cb9 3015 6f3c efaa 80ba cf3e f139
00000160: 4177 843c ccbc 9539 daf3 03b9 3151 17ba
00000170: aad1 7abc 6c02 363b 6482 c63a 17ce cebc
00000180: baf1 d93c 8c23 873c 1b14 5fbc f513 8d3c
00000190: 33be 6a3c 47fa f53b 7e49 5abc 2933 953a
000001a0: dd36 373b 71ca f0bc 87cc 1c3a 743a 1c3a
000001b0: eefa 5e3c 56aa 12bc ef0e 393b c82d 5e3b
000001c0: 0d80 bb3b f828 a53b 0e48 203c c026 a83a
000001d0: d517 6e3c 22d4 63bc 0e93 c3bc eaac d1bc
000001e0: 91fc 2e3c e11e 2f3c c48e 5fbc bb4e c13c
000001f0: 6ef1 4d3c e7af 213c b78a 3d3c c48a 323c
00000200: f9f0 863c bbeb a83a b726 5bba 027f afbc
00000210: add2 b939 4bcb 823c 2ba6 6c3a 92e7 af3c
00000220: b957 d43c 68ff 7e3c c36a c6b8 a25e 22bc
00000230: 9fda b6bc 51f0 af3c c0c5 d5b9 492a cfbc
00000240: 97ee 913c e3f2 c53c 00cf 3e3c 715b 0b3d
00000250: d8cb 1f3d 5a49 d73c b786 253d 9e53 023d
00000260: 04a3 893c e51a 0f3b c16d 4fbc cc53 43bc
00000270: 0f9b 2fbc b220 413b d1cf 5bbc 0fc8 8bbc
00000280: 52fc 0b3b f707 523c b21b 493c aab9 813c
00000290: e202 803c 068a 983c 8815 a33c 8756 833c
000002a0: 2787 453c f023 873c 0856 ef3c 9775 70bc
000002b0: 6b59 603c 7744 56bc bce7 2239 5501 ed3c
000002c0: d960 903c a686 30ba 5a35 3abb 2824 1239
000002d0: 347e e23c f048 1a3b 1da5 0d3b 6304 4abc
000002e0: 92be 31bc 23dd ddbc 9d7a 3c3a d7ef 853c
000002f0: 550e ff3c 1c73 173c 8293 3cba b365 343c
00000300: 58b0 ac3c 0eec 5cbb 1041 debc 4093 acba
00000310: e017 74ba 39b5 eebc 7dcb 6ebc f868 103a
00000320: 86da b53c 9eb7 9fbc ba8d fc38 ba99 b83c
00000330: 9cd1 c7bc f2e9 a2b8 28fc ba3c 01b1 923c
00000340: 15a5 ec3a 9f51 6db9 b0ef d73c 4aaa 283c
00000350: b397 1dbd a670 88b8 59df 6dbc 40a6 babc
00000360: 8a3e 53bb 6d1c 59bb 3a33 3fbb 0418 c2ba
00000370: 61b8 a1ba 7785 7abc 4875 853c 2473 a03c
00000380: cc9b 0bbb 4b28 933c 1d5e 01bc 50a8 bc3c
00000390: 1259 b43c 7c8e c2bb f7f9 8f3c ddae 2c3c
000003a0: 5a8a 49bb a79c 273c 92d8 93bb 09cc 5dbb
000003b0: ad3e 59bc ce72 693c e657 a23a afd0 8c3a
000003c0: dd62 833c 397d 31bb ee64 20bb 868e 753d
000003d0: 4637 c63b 975d 5cbc 98fc 283d b0b6 e83a
000003e0: 579b bfbc c78a fb3b 65a0 b43a 988b 61bc
000003f0: eff8 673a ac84 5ebc c39d 96ba 8420 40b9
-0.016432641 0.015911683 0.018366626 0.036325358 0.04088451 0.023934748 0.0449292 0.044280976
0.014596251 -0.026568143 -0.036087584 -0.03914448 -0.042333353 -0.020656558 -0.014014268 0.02297025
0.031770974 0.017714715 0.0025200243 0.0014702171 -0.018367242 0.026309814 0.0018791505 -0.013324737
0.018450161 0.00010681133 -0.0008238576 -0.01504735 -0.003091289 0.009676931 -0.019700645 0.016348548
-0.0019394503 0.0030783024 -0.00010621017 0.00748274 -0.009670146 -0.008024822 0.001978493 0.0002861626
-0.021886885 -0.009586474 -0.011447419 -0.021312645 -0.0005399609 -0.02353415 -0.019452356 0.00021294421
-0.029338764 -0.025112204 -0.00031720925 -0.024505554 0.00050722295 0.023441384 -0.03233296 -0.0006083798
0.00013514736 -0.0004495294 0.022703 0.026241373 -0.012242551 0.011024802 0.012197193 -0.018977532
-0.025229506 -0.019320041 -0.058432996 -0.03414235 -0.027191903 0.02411461 -0.0007152086 -0.0006854631
-0.009993375 -0.034709908 0.0024816291 0.000669032 -0.017146513 -0.0011456696 -0.0007272677 -0.0013493433
0.015469367 0.0010296745 0.02469734 0.001414784 -0.00016413598 0.014592454 -0.0009816567 0.00046013898
0.016170146 0.0002856016 -0.00012583975 -0.00057722913 -0.015308777 0.002777244 0.0015145061 -0.025244756
0.026604522 0.016496442 -0.013615633 0.01722143 0.014327574 0.007506642 -0.013323186 0.0011383045
0.0027956285 -0.029393407 0.00059814047 0.0005959638 0.013609631 -0.008951744 0.002823766 0.00339018
0.005722052 0.0050402842 0.009782804 0.0012828931 0.014532049 -0.013905557 -0.023873832 -0.025595147
0.010680334 0.010688514 -0.013644878 0.023597112 0.012569768 0.009868599 0.011568717 0.010897342
0.016472327 0.0012887636 -0.0008359956 -0.021422867 0.00035442915 0.015966078 0.00090274465 0.021472726
0.025920736 0.015563823 -9.461262e-05 -0.0099102575 -0.022321044 0.021476896 -0.0004077386 -0.025288718
0.017813964 0.024163669 0.011646032 0.034022752 0.03901276 0.026280094 0.040411677 0.031818025
0.016801365 0.0021836099 -0.012660445 -0.011921834 -0.010718121 0.002946895 -0.0134162465 -0.017063169
0.0021360111 0.012819282 0.0122746695 0.015835602 0.015626375 0.018620502 0.019907728 0.01603247
0.012056149 0.016496629 0.029215828 -0.014676473 0.013693194 -0.013077847 0.00015535852 0.0289313
0.017624306 -0.00067339314 -0.0028413148 0.00013937114 0.027648069 0.002354201 0.0021613308 -0.012330147
-0.010848658 -0.027082985 0.00071899017 0.016349716 0.031134764 0.009243753 -0.0007193611 0.011010575
0.021080181 -0.0033710035 -0.027130634 -0.0013166443 -0.0009311419 -0.029139148 -0.014574883 0.00055088056
0.022198927 -0.019496735 0.00012042695 0.02253424 -0.024391942 -7.768338e-05 0.022825316 0.017906668
0.0018054569 -0.00022632488 0.02635941 0.010294506 -0.03847475 -6.505968e-05 -0.014518582 -0.022784352
-0.003223332 -0.0033128515 -0.002917482 -0.0014808183 -0.0012338274 -0.01529061 0.016291276 0.019586153
-0.002130258 0.01796355 -0.0078959735 0.023029476 0.022015128 -0.0059373956 0.017575247 0.0105397375
-0.003075263 0.01023022 -0.004511901 -0.0033843538 -0.013259572 0.014248563 0.0012385815 0.0010743345
0.016038353 -0.0027082695 -0.0024474221 0.059950374 0.0060490696 -0.013450048 0.041256517 0.001775464
-0.023389501 0.0076764557 0.0013780711 -0.013766192 0.00088490447 -0.013581436 -0.0011491108 -0.0001832266

tfeb.15.weight f4 [31]
00000000: d892 6d3e b322 513e 7f16 473e 7db0 2a3e
00000010: 99f8 493e 59e6 663e 5d50 3d3e 72b6 2f3e
00000020: 93b5 783e 186a 493e aa43 833e 74fc 0d3e
00000030: 7e11 543e a3a7 603e 8047 483e db25 303e
00000040: 7591 633e cf41 353e da47 823e 074c 463e
00000050: e9ef 673e f72b 3a3e b9de 403e 45db 3b3e
00000060: 55a4 823e f2e5 3a3e 2dc7 743e 60fd 2c3e
00000070: b42d 223e e6de 5a3e 6b04 613e
0.23200548 0.20423393 0.19442175 0.16668887 0.19723739 0.22548808 0.18487687 0.17159441
0.24288015 0.19669378 0.2563756 0.13865834 0.20709798 0.21938948 0.19558525 0.1720194
0.22223456 0.17700885 0.25445443 0.1936494 0.22650112 0.18180834 0.18834962 0.18345363
0.25516 0.1825178 0.23904105 0.1689353 0.15837747 0.21374092 0.21974342

tfeb.15.bias f4 [31]
00000000: 1267 13be e97b 02be 24ff 92bd 93b1 bebd
00000010: 904f eebd f447 4bbe 9476 13be 43c2 3bbd
00000020: c7ee 46be 6c17 01be 6d5d 5cbe a8a4 03be
00000030: 8862 e8bd 38a6 23be 51e3 3dbe 235b ffbd
00000040: aed5 80bd c2ee d7bd 3bf6 6bbe 4104 32be
00000050: a20b 32bd f152 0bbe 5304 30be 20ef a7bd
00000060: 3684 f9bd 0ed9 06be 2075 1abe 1d3c c5bd
00000070: aba9 d8bd 9c6b 51be 0ae7 29be
-0.14394787 -0.1274258 -0.071775705 -0.09311213 -0.11636269 -0.19851667 -0.14400703 -0.04583956
-0.19427024 -0.12606591 -0.21520014 -0.1285578 -0.11346918 -0.15981376 -0.18543746 -0.12468555
-0.06290756 -0.10543586 -0.23043148 -0.17384435 -0.043468125 -0.13605858 -0.1718915 -0.08199906
-0.1218342 -0.13168737 -0.15083742 -0.09630606 -0.105792366 -0.20451206 -0.1659204

tfeb.15.running_mean f4 [31]
00000000: 52b2 38bb 32ca af3b 0014 96bc 5350 7bbc
00000010: a789 81bc 87c4 b23a ca30 cd3a 3648 92bb
00000020: 817f 3bbc 6808 523c fd32 11bc db85 90ba
00000030: 66ef 8fbc c098 8ebb ad7a 523d 3879 aebb
00000040: 9282 a53b c5ad ae3a 54e6 9ebc ab51 8ebc
00000050: b0f6 3bbc 34a6 12bb f80e 2bbc 2928 973a
00000060: 62fe 3bbc c532 5bbc e0e7 c3bb 7934 b1bc
00000070: d3cf 18bc c44d 4aba 8a3c b0bc
-0.002818246 0.0053646797 -0.018320084 -0.015338975 -0.015812708 0.0013638892 0.0015654799 -0.0044641746
-0.0114439735 0.012819387 -0.008862254 -0.001102622 -0.017570209 -0.0043517053 0.051386524 -0.005324509
0.0050509656 0.0013326934 -0.019396938 -0.017372927 -0.011472389 -0.0022376897 -0.010440581 0.0011532354
-0.011474224 -0.013378804 -0.0059785694 -0.021631466 -0.009326893 -0.00077172765 -0.021513242

tfeb.15.running_var f4 [31]
00000000: e3a1 373a bb25 db39 966d be39 4272 163a
00000010: 8448 9939 6fce 9839 191e 9939 d181 a239
00000020: 14f6 223a 776f e339 815e b439 bc7e 7e39
00000030: 7c37 b839 d1df 6839 219e 233a 674a b339
00000040: 6940 183a 5d59 9f39 3998 5f3a a077 ac39
00000050: 0807 6c3a 549e ee39 0603 fb39 5dd3 f539
00000060: 5e21 493a 59fa 5a39 01b6 033a d88f de39
00000070: 0a4d d339 24af e139 e602 fb39
0.0007005019 0.00041799046 0.00036321272 0.00057390716 0.00029236462 0.00029145504 0.0002920486 0.0003099577
0.0006216478 0.00043379862 0.00034402686 0.0002427054 0.00035136554 0.00022208622 0.00062415196 0.00034196975
0.00058079377 0.00030393424 0.0008529458 0.00032895524 0.0009003733 0.0004551286 0.00047876703 0.0004688752
0.00076725136 0.00020883362 0.0005024374 0.00042450312 0.00040302455 0.00043045834 0.0004787661
