mcu_codes/ACDNET_MSCore2/bak/acdnet_80.tflite (tflite, 133984 bytes, 13 tensors)

fuse_attr_3 u1 [8, 1, 9, 1] scale=0.0759848 zero_point=128
0	0x8d	0.9878024
1	0x93	1.4437112
2	0x86	0.45590878
3	0xbd	4.6350727
4	0x6e	-1.3677263
5	0x67	-1.8996199
6	0x60	-2.4315135
7	0x74	-0.91181755
8	0x79	-0.5318936
9	0x7d	-0.22795439
10	0x84	0.3039392
11	0x8d	0.9878024
12	0x6b	-1.5956807
13	0x89	0.68386316
14	0x41	-4.787042
15	0x66	-1.9756048
16	0xa1	2.5074983
17	0xb5	4.0271945
18	0x94	1.519696
19	0x86	0.45590878
20	0x87	0.5318936
21	0x66	-1.9756048
22	0x80	0.0
23	0x5f	-2.5074983
24	0x92	1.3677263
25	0x7f	-0.0759848
26	0x47	-4.3311334
27	0xb4	3.9512095
28	0x79	-0.5318936
29	0x7d	-0.22795439
30	0x6b	-1.5956807
31	0x86	0.45590878
32	0x73	-0.9878024
33	0x87	0.5318936
34	0xa7	2.963407
35	0x62	-2.2795439
36	0x5f	-2.5074983
37	0x5b	-2.8114376
38	0x81	0.0759848
39	0xa4	2.7354527
40	0x84	0.3039392
41	0x92	1.3677263
42	0x6f	-1.2917416
43	0x81	0.0759848
44	0x85	0.379924
45	0x80	0.0
46	0x87	0.5318936
47	0x72	-1.0637872
48	0x86	0.45590878
49	0x80	0.0
50	0x94	1.519696
51	0xba	4.4071183
52	0x55	-3.2673464
53	0x5a	-2.8874223
54	0x85	0.379924
55	0x8c	0.91181755
56	0x5e	-2.5834832
57	0xb7	4.179164
58	0x01	-9.650069
59	0xe4	7.5984797
60	0x94	1.519696
61	0x00	-9.726054
62	0xda	6.8386316
63	0x74	-0.91181755
64	0x6d	-1.4437112
65	0x7c	-0.3039392
66	0x94	1.519696
67	0x87	0.5318936
68	0x88	0.6078784
69	0x68	-1.8236351
70	0x8b	0.8358328
71	0xb7	4.179164

fuse_attr_11 u1 [44, 3, 3, 51] scale=0.006492573 zero_point=128
0	0x80	0.0
1	0x80	0.0
2	0x80	0.0
3	0x80	0.0
4	0x64	-0.18179204
5	0x80	0.0
6	0x65	-0.17529947
7	0x9b	0.17529947
8	0x80	0.0
9	0x81	0.006492573
10	0x80	0.0
11	0x9b	0.17529947
12	0x80	0.0
13	0x80	0.0
14	0x5a	-0.24671777
15	0x80	0.0
16	0x80	0.0
17	0x7f	-0.006492573
18	0x80	0.0
19	0x80	0.0
20	0x80	0.0
21	0x80	0.0
22	0x81	0.006492573
23	0x80	0.0
24	0x61	-0.20126976
25	0x80	0.0
26	0x5d	-0.22724006
27	0x80	0.0
28	0x65	-0.17529947
29	0x80	0.0
30	0x80	0.0
31	0x80	0.0
32	0x80	0.0
33	0x80	0.0
34	0x80	0.0
35	0x80	0.0
36	0x68	-0.15582174
37	0x80	0.0
38	0x80	0.0
39	0x80	0.0
40	0x80	0.0
41	0x60	-0.20776233
42	0x80	0.0
43	0x7f	-0.006492573
44	0x80	0.0
45	0x80	0.0
46	0x80	0.0
47	0x80	0.0
48	0x80	0.0
49	0x80	0.0
50	0x80	0.0
51	0x80	0.0
52	0x80	0.0
53	0x80	0.0
54	0x61	-0.20126976
55	0x80	0.0
56	0x80	0.0
57	0x80	0.0
58	0x80	0.0
59	0x80	0.0
60	0x80	0.0
61	0x66	-0.1688069
62	0x80	0.0
63	0x80	0.0
64	0x80	0.0
65	0x80	0.0
66	0x81	0.006492573
67	0x80	0.0
68	0x80	0.0
69	0x80	0.0
70	0xbf	0.40903208
71	0x67	-0.16231433
72	0x80	0.0
73	0x81	0.006492573
74	0x80	0.0
75	0x80	0.0
76	0x80	0.0
77	0x81	0.006492573
78	0x80	0.0
79	0x62	-0.19477719
80	0x80	0.0
81	0xab	0.27918065
82	0x55	-0.27918065
83	0x80	0.0
84	0x65	-0.17529947
85	0x80	0.0
86	0x81	0.006492573
87	0x80	0.0
88	0x80	0.0
89	0x80	0.0
90	0x80	0.0
91	0x80	0.0
92	0x81	0.006492573
93	0x80	0.0
94	0x7f	-0.006492573
95	0x80	0.0
96	0x80	0.0
97	0x7f	-0.006492573
98	0x80	0.0
99	0x80	0.0
100	0x80	0.0
101	0x80	0.0
102	0x80	0.0
103	0x80	0.0
104	0x80	0.0
105	0x80	0.0
106	0xc9	0.4739578
107	0x62	-0.19477719
108	0x80	0.0
109	0x80	0.0
110	0x80	0.0
111	0x81	0.006492573
112	0x80	0.0
113	0x5c	-0.23373263
114	0x80	0.0
115	0x81	0.006492573
116	0x81	0.006492573
117	0x80	0.0
118	0x80	0.0
119	0x80	0.0
120	0xa1	0.2142549
121	0xc7	0.46097267
122	0xa3	0.22724006
123	0x80	0.0
124	0x81	0.006492573
125	0x80	0.0
126	0x9f	0.20126976
127	0x80	0.0
128	0xa6	0.24671777
129	0x80	0.0
130	0x67	-0.16231433
131	0x80	0.0
132	0x80	0.0
133	0x61	-0.20126976
134	0x80	0.0
135	0x5e	-0.22074747
136	0x66	-0.1688069
137	0x80	0.0
138	0x80	0.0
139	0x62	-0.19477719
140	0x80	0.0
141	0x80	0.0
142	0x80	0.0
143	0x81	0.006492573
144	0x80	0.0
145	0x60	-0.20776233
146	0x80	0.0
147	0x80	0.0
148	0x80	0.0
149	0x80	0.0
150	0x80	0.0
151	0x80	0.0
152	0x80	0.0
153	0xac	0.2856732
154	0x80	0.0
155	0x80	0.0
156	0x80	0.0
157	0x80	0.0
158	0x65	-0.17529947
159	0x80	0.0
160	0x80	0.0
161	0xa5	0.2402252
162	0x81	0.006492573
163	0x80	0.0
164	0x80	0.0
165	0x80	0.0
166	0x80	0.0
167	0x5e	-0.22074747
168	0x80	0.0
169	0x80	0.0
170	0x7f	-0.006492573
171	0x80	0.0
172	0x80	0.0
173	0x80	0.0
174	0x80	0.0
175	0x99	0.16231433
176	0x80	0.0
177	0x80	0.0
178	0x80	0.0
179	0xa5	0.2402252
180	0x9a	0.1688069
181	0xa5	0.2402252
182	0x80	0.0
183	0x80	0.0
184	0x80	0.0
185	0x80	0.0
186	0x7f	-0.006492573
187	0x80	0.0
188	0x80	0.0
189	0x80	0.0
190	0x80	0.0
191	0x80	0.0
192	0x80	0.0
193	0x80	0.0
194	0x4a	-0.35059893
195	0x80	0.0
196	0x80	0.0
197	0x80	0.0
198	0x80	0.0
199	0x42	-0.40253952
200	0x5d	-0.22724006
201	0x7f	-0.006492573
202	0x7f	-0.006492573
203	0xa6	0.24671777
204	0x80	0.0
205	0x80	0.0
206	0x80	0.0
207	0x64	-0.18179204
208	0x5d	-0.22724006
209	0x80	0.0
210	0x80	0.0
211	0x80	0.0
212	0x80	0.0
213	0x80	0.0
214	0x56	-0.27268806
215	0x7f	-0.006492573
216	0x80	0.0
217	0x99	0.16231433
218	0x80	0.0
219	0x80	0.0
220	0x80	0.0
221	0xa0	0.20776233
222	0x80	0.0
223	0x7f	-0.006492573
224	0xa7	0.25321034
225	0x98	0.15582174
226	0x80	0.0
227	0x80	0.0
228	0x80	0.0
229	0x80	0.0
230	0x80	0.0
231	0x64	-0.18179204
232	0x80	0.0
233	0x80	0.0
234	0x80	0.0
235	0x80	0.0
236	0x7f	-0.006492573
237	0x7f	-0.006492573
238	0x80	0.0
239	0x80	0.0
240	0x80	0.0
241	0x63	-0.1882846
242	0x7f	-0.006492573
243	0x80	0.0
244	0x80	0.0
245	0x55	-0.27918065
246	0x80	0.0
247	0x80	0.0
248	0x7f	-0.006492573
249	0x80	0.0
250	0x62	-0.19477719
251	0x5c	-0.23373263
252	0x7f	-0.006492573
253	0x7f	-0.006492573
254	0xa3	0.22724006
255	0x5a	-0.24671777

Xq.1_attr u1 [6, 6] scale=0.0046817125 zero_point=128
0	0x72	-0.06554397
1	0x2c	-0.39326385
2	0x9f	0.1451331
3	0x30	-0.374537
4	0xad	0.21067706
5	0x43	-0.28558445
6	0x34	-0.35581014
7	0x68	-0.1123611
8	0x25	-0.42603582
9	0xf6	0.5524421
10	0xff	0.5945775
11	0x59	-0.18258679
12	0x68	-0.1123611
13	0x55	-0.20131363
14	0x72	-0.06554397
15	0x4c	-0.24344905
16	0x7d	-0.014045138
17	0xac	0.20599535
18	0x97	0.10767939
19	0x35	-0.35112843
20	0x80	0.0
21	0x32	-0.36517358
22	0x93	0.088952534
23	0x79	-0.032771986
24	0x2d	-0.38858214
25	0x65	-0.12640624
26	0x35	-0.35112843
27	0x80	0.0
28	0x54	-0.20599535
29	0xb0	0.2247222
30	0xdb	0.42603582
31	0xbf	0.2949479
32	0xca	0.34644672
33	0x7f	-0.0046817125
34	0x41	-0.2949479
35	0x22	-0.44008097

fuse_attr_7 u1 [40, 3, 3, 32] scale=0.0038915246 zero_point=128
0	0xae	0.17901014
1	0x80	0.0
2	0x93	0.073938966
3	0x81	0.0038915246
4	0x67	-0.09728812
5	0x81	0.0038915246
6	0x80	0.0
7	0x80	0.0
8	0xaa	0.16344403
9	0x63	-0.11285421
10	0x6a	-0.08561354
11	0x6c	-0.07783049
12	0x80	0.0
13	0x80	0.0
14	0x9a	0.10117964
15	0x96	0.08561354
16	0x81	0.0038915246
17	0x80	0.0
18	0x80	0.0
19	0x6f	-0.06615592
20	0x81	0.0038915246
21	0x93	0.073938966
22	0x92	0.070047446
23	0x5b	-0.1439864
24	0x80	0.0
25	0x80	0.0
26	0x80	0.0
27	0x80	0.0
28	0x81	0.0038915246
29	0x6b	-0.08172201
30	0x80	0.0
31	0x6d	-0.073938966
32	0x80	0.0
33	0x6c	-0.07783049
34	0x81	0.0038915246
35	0x81	0.0038915246
36	0x80	0.0
37	0x6e	-0.070047446
38	0x80	0.0
39	0x68	-0.09339659
40	0x97	0.08950507
41	0x6f	-0.06615592
42	0x80	0.0
43	0x81	0.0038915246
44	0x80	0.0
45	0x80	0.0
46	0x80	0.0
47	0x80	0.0
48	0x99	0.09728812
49	0x6b	-0.08172201
50	0x98	0.09339659
51	0x81	0.0038915246
52	0x81	0.0038915246
53	0x6b	-0.08172201
54	0x80	0.0
55	0x70	-0.062264394
56	0x94	0.07783049
57	0x6e	-0.070047446
58	0x80	0.0
59	0x80	0.0
60	0x81	0.0038915246
61	0x81	0.0038915246
62	0x80	0.0
63	0x5a	-0.14787793
64	0x6d	-0.073938966
65	0x80	0.0
66	0x81	0.0038915246
67	0x81	0.0038915246
68	0x80	0.0
69	0x80	0.0
70	0x80	0.0
71	0x80	0.0
72	0x81	0.0038915246
73	0x81	0.0038915246
74	0x80	0.0
75	0x81	0.0038915246
76	0x80	0.0
77	0x80	0.0
78	0x80	0.0
79	0x80	0.0
80	0x81	0.0038915246
81	0x6f	-0.06615592
82	0xb4	0.20235927
83	0x81	0.0038915246
84	0x81	0.0038915246
85	0x5e	-0.13231184
86	0x80	0.0
87	0x80	0.0
88	0x80	0.0
89	0x80	0.0
90	0x80	0.0
91	0x80	0.0
92	0x9c	0.10896269
93	0xa0	0.12452879
94	0x80	0.0
95	0x80	0.0
96	0xb0	0.18679318
97	0x95	0.08172201
98	0x70	-0.062264394
99	0x81	0.0038915246
100	0x66	-0.10117964
101	0x64	-0.10896269
102	0x81	0.0038915246
103	0x80	0.0
104	0x6b	-0.08172201
105	0x81	0.0038915246
106	0x81	0.0038915246
107	0x80	0.0
108	0x80	0.0
109	0x80	0.0
110	0x80	0.0
111	0x80	0.0
112	0x81	0.0038915246
113	0xb5	0.2062508
114	0x63	-0.11285421
115	0x80	0.0
116	0x81	0.0038915246
117	0x80	0.0
118	0xb1	0.1906847
119	0xa4	0.14009489
120	0x6e	-0.070047446
121	0xa1	0.12842031
122	0xa9	0.15955251
123	0x80	0.0
124	0x40	-0.24905758
125	0x49	-0.21403386
126	0x93	0.073938966
127	0xbc	0.23349148
128	0x80	0.0
129	0x80	0.0
130	0x58	-0.15566099
131	0x6c	-0.07783049
132	0x61	-0.12063726
133	0x65	-0.105071165
134	0x81	0.0038915246
135	0x55	-0.16733555
136	0x67	-0.09728812
137	0x81	0.0038915246
138	0x80	0.0
139	0x5e	-0.13231184
140	0x63	-0.11285421
141	0x80	0.0
142	0x5f	-0.12842031
143	0x64	-0.10896269
144	0x81	0.0038915246
145	0x80	0.0
146	0x80	0.0
147	0x69	-0.08950507
148	0x81	0.0038915246
149	0x64	-0.10896269
150	0x80	0.0
151	0x80	0.0
152	0x5b	-0.1439864
153	0x93	0.073938966
154	0x80	0.0
155	0x80	0.0
156	0x6e	-0.070047446
157	0x66	-0.10117964
158	0x80	0.0
159	0xb7	0.21403386
160	0x81	0.0038915246
161	0x80	0.0
162	0x5e	-0.13231184
163	0x6b	-0.08172201
164	0x81	0.0038915246
165	0x80	0.0
166	0x81	0.0038915246
167	0x50	-0.18679318
168	0x80	0.0
169	0x81	0.0038915246
170	0x94	0.07783049
171	0x63	-0.11285421
172	0x5c	-0.14009489
173	0x80	0.0
174	0x55	-0.16733555
175	0x70	-0.062264394
176	0x81	0.0038915246
177	0x6f	-0.06615592
178	0xa4	0.14009489
179	0x80	0.0
180	0x81	0.0038915246
181	0x80	0.0
182	0x80	0.0
183	0x80	0.0
184	0x80	0.0
185	0x81	0.0038915246
186	0x81	0.0038915246
187	0xa3	0.13620336
188	0x80	0.0
189	0x43	-0.23738301
190	0x81	0.0038915246
191	0x92	0.070047446
192	0x60	-0.12452879
193	0x7f	-0.0038915246
194	0x80	0.0
195	0x9e	0.11674574
196	0x80	0.0
197	0x9d	0.11285421
198	0x6f	-0.06615592
199	0x9f	0.12063726
200	0xc1	0.2529491
201	0x80	0.0
202	0x68	-0.09339659
203	0xad	0.17511861
204	0x9d	0.11285421
205	0x99	0.09728812
206	0x98	0.09339659
207	0x80	0.0
208	0x66	-0.10117964
209	0x67	-0.09728812
210	0x59	-0.15176946
211	0x81	0.0038915246
212	0x9c	0.10896269
213	0x80	0.0
214	0x5e	-0.13231184
215	0x68	-0.09339659
216	0x80	0.0
217	0x5c	-0.14009489
218	0x4a	-0.21014233
219	0x63	-0.11285421
220	0x99	0.09728812
221	0xb0	0.18679318
222	0x6f	-0.06615592
223	0x5c	-0.14009489
224	0x5c	-0.14009489
225	0x80	0.0
226	0x90	0.062264394
227	0x80	0.0
228	0x80	0.0
229	0x7f	-0.0038915246
230	0x80	0.0
231	0x9d	0.11285421
232	0x9c	0.10896269
233	0x80	0.0
234	0x68	-0.09339659
235	0xa7	0.15176946
236	0x92	0.070047446
237	0x80	0.0
238	0x80	0.0
239	0x80	0.0
240	0x80	0.0
241	0x62	-0.11674574
242	0x62	-0.11674574
243	0x81	0.0038915246
244	0x81	0.0038915246
245	0x81	0.0038915246
246	0x53	-0.17511861
247	0x70	-0.062264394
248	0x92	0.070047446
249	0x80	0.0
250	0x67	-0.09728812
251	0x5d	-0.13620336
252	0x80	0.0
253	0x9d	0.11285421
254	0x6d	-0.073938966
255	0x3e	-0.25684062

fuse_attr_4 u1 [33, 1, 5, 8] scale=0.010371601 zero_point=128
0	0x62	-0.31114805
1	0x75	-0.11408761
2	0xc1	0.6741541
3	0x54	-0.45635045
4	0x8c	0.124459215
5	0x80	0.0
6	0x75	-0.11408761
7	0x49	-0.5704381
8	0x5f	-0.34226283
9	0x72	-0.14520241
10	0xcc	0.7882417
11	0x63	-0.30077642
12	0x9e	0.31114805
13	0x97	0.23854683
14	0x7f	-0.010371601
15	0x54	-0.45635045
16	0x6f	-0.17631721
17	0x7f	-0.010371601
18	0xbe	0.6430393
19	0x59	-0.40449244
20	0xa1	0.34226283
21	0x80	0.0
22	0x80	0.0
23	0x4c	-0.5393233
24	0x6d	-0.19706042
25	0x8e	0.14520241
26	0xcd	0.7986133
27	0x4e	-0.5185801
28	0xa8	0.41486406
29	0x80	0.0
30	0x80	0.0
31	0x5a	-0.39412084
32	0x80	0.0
33	0x75	-0.11408761
34	0xbc	0.6222961
35	0x66	-0.26966164
36	0xab	0.44597885
37	0x6f	-0.17631721
38	0x80	0.0
39	0x4c	-0.5393233
40	0x56	-0.43560725
41	0x88	0.08297281
42	0x6e	-0.18668883
43	0x60	-0.33189124
44	0xb0	0.49783686
45	0x79	-0.07260121
46	0x80	0.0
47	0x26	-0.9334441
48	0x5e	-0.35263443
49	0x78	-0.08297281
50	0x8e	0.14520241
51	0x74	-0.124459215
52	0x97	0.23854683
53	0x80	0.0
54	0x80	0.0
55	0x41	-0.65341085
56	0x6e	-0.18668883
57	0x70	-0.16594562
58	0x95	0.21780363
59	0x75	-0.11408761
60	0x93	0.19706042
61	0x89	0.09334441
62	0x80	0.0
63	0x63	-0.30077642
64	0x69	-0.23854683
65	0x5e	-0.35263443
66	0xa8	0.41486406
67	0x6f	-0.17631721
68	0x9a	0.26966164
69	0x8d	0.13483082
70	0x73	-0.13483082
71	0x79	-0.07260121
72	0x7a	-0.062229607
73	0x41	-0.65341085
74	0xba	0.60155284
75	0x79	-0.07260121
76	0x80	0.0
77	0x93	0.19706042
78	0x7a	-0.062229607
79	0x8a	0.103716016
80	0x69	-0.23854683
81	0x80	0.0
82	0xa3	0.36300606
83	0x60	-0.33189124
84	0x95	0.21780363
85	0x7a	-0.062229607
86	0x80	0.0
87	0x57	-0.42523566
88	0x68	-0.24891843
89	0x78	-0.08297281
90	0xaf	0.48746526
91	0x6e	-0.18668883
92	0xa5	0.38374925
93	0x85	0.051858008
94	0x80	0.0
95	0x52	-0.47709367
96	0x60	-0.33189124
97	0x80	0.0
98	0xa6	0.39412084
99	0x75	-0.11408761
100	0xa0	0.33189124
101	0x89	0.09334441
102	0x80	0.0
103	0x67	-0.25929004
104	0x6c	-0.20743203
105	0x80	0.0
106	0xb3	0.52895164
107	0x6b	-0.21780363
108	0x9f	0.32151964
109	0x80	0.0
110	0x80	0.0
111	0x6d	-0.19706042
112	0x6b	-0.21780363
113	0x7f	-0.010371601
114	0xaf	0.48746526
115	0x6f	-0.17631721
116	0x9e	0.31114805
117	0x80	0.0
118	0x7f	-0.010371601
119	0x60	-0.33189124
120	0x7f	-0.010371601
121	0x54	-0.45635045
122	0x00	-1.327565
123	0xcc	0.7882417
124	0x58	-0.41486406
125	0x8a	0.103716016
126	0x7f	-0.010371601
127	0xb9	0.5911813
128	0x7f	-0.010371601
129	0x6e	-0.18668883
130	0x24	-0.95418733
131	0xbc	0.6222961
132	0x3e	-0.68452567
133	0x80	0.0
134	0x7f	-0.010371601
135	0xc7	0.7363837
136	0x89	0.09334441
137	0x6e	-0.18668883
138	0x46	-0.60155284
139	0xb1	0.50820845
140	0x66	-0.26966164
141	0x87	0.07260121
142	0x7f	-0.010371601
143	0xbb	0.61192447
144	0x78	-0.08297281
145	0x69	-0.23854683
146	0x55	-0.44597885
147	0x9e	0.31114805
148	0x58	-0.41486406
149	0x80	0.0
150	0x80	0.0
151	0xcd	0.7986133
152	0x66	-0.26966164
153	0x72	-0.14520241
154	0x59	-0.40449244
155	0x95	0.21780363
156	0x62	-0.31114805
157	0x73	-0.13483082
158	0x7f	-0.010371601
159	0xd6	0.8919577
160	0x92	0.18668883
161	0x6c	-0.20743203
162	0x70	-0.16594562
163	0xa1	0.34226283
164	0x6a	-0.22817522
165	0x84	0.041486405
166	0x80	0.0
167	0x78	-0.08297281
168	0x8c	0.124459215
169	0x6c	-0.20743203
170	0x74	-0.124459215
171	0x8e	0.14520241
172	0x72	-0.14520241
173	0x85	0.051858008
174	0x80	0.0
175	0x6b	-0.21780363
176	0x78	-0.08297281
177	0x7b	-0.051858008
178	0x71	-0.15557402
179	0x8b	0.11408761
180	0x71	-0.15557402
181	0x85	0.051858008
182	0x80	0.0
183	0x60	-0.33189124
184	0x80	0.0
185	0x75	-0.11408761
186	0x80	0.0
187	0x88	0.08297281
188	0x7d	-0.031114804
189	0x8f	0.15557402
190	0x77	-0.09334441
191	0x6a	-0.22817522
192	0x8d	0.13483082
193	0x63	-0.30077642
194	0x8f	0.15557402
195	0x80	0.0
196	0x74	-0.124459215
197	0x97	0.23854683
198	0x77	-0.09334441
199	0x72	-0.14520241
200	0x73	-0.13483082
201	0x84	0.041486405
202	0x70	-0.16594562
203	0x62	-0.31114805
204	0xa5	0.38374925
205	0x80	0.0
206	0x75	-0.11408761
207	0x7b	-0.051858008
208	0x66	-0.26966164
209	0x73	-0.13483082
210	0x80	0.0
211	0x7c	-0.041486405
212	0x96	0.22817522
213	0x6f	-0.17631721
214	0x79	-0.07260121
215	0x90	0.16594562
216	0x57	-0.42523566
217	0x80	0.0
218	0x72	-0.14520241
219	0x6f	-0.17631721
220	0x89	0.09334441
221	0x6f	-0.17631721
222	0x80	0.0
223	0x86	0.062229607
224	0x69	-0.23854683
225	0x8a	0.103716016
226	0x80	0.0
227	0x7a	-0.062229607
228	0x7a	-0.062229607
229	0x70	-0.16594562
230	0x80	0.0
231	0x9f	0.32151964
232	0x6c	-0.20743203
233	0x80	0.0
234	0x8c	0.124459215
235	0x80	0.0
236	0x79	-0.07260121
237	0x68	-0.24891843
238	0x89	0.09334441
239	0xab	0.44597885
240	0x8f	0.15557402
241	0x6c	-0.20743203
242	0x6c	-0.20743203
243	0x9b	0.28003323
244	0x65	-0.28003323
245	0x8a	0.103716016
246	0x80	0.0
247	0x80	0.0
248	0x96	0.22817522
249	0x68	-0.24891843
250	0x80	0.0
251	0x8e	0.14520241
252	0x61	-0.32151964
253	0x94	0.20743203
254	0x7c	-0.041486405
255	0x75	-0.11408761

fuse_attr_5 u1 [20, 3, 3, 1] scale=0.0063220006 zero_point=128
0	0xef	0.70174205
1	0x32	-0.49311605
2	0x53	-0.28449002
3	0x6e	-0.11379601
4	0x80	0.0
5	0x88	0.050576005
6	0x78	-0.050576005
7	0x81	0.0063220006
8	0x80	0.0
9	0x8b	0.069542006
10	0x40	-0.40460804
11	0x91	0.107474014
12	0xa4	0.22759202
13	0x37	-0.46150604
14	0x95	0.13276201
15	0x9d	0.18333802
16	0x56	-0.26552403
17	0x91	0.107474014
18	0x6d	-0.120118015
19	0x70	-0.10115201
20	0x6e	-0.11379601
21	0x87	0.044254005
22	0x80	0.0
23	0x84	0.025288003
24	0x86	0.037932005
25	0x87	0.044254005
26	0x85	0.031610005
27	0x90	0.10115201
28	0x91	0.107474014
29	0x5d	-0.22127002
30	0x94	0.12644002
31	0x94	0.12644002
32	0x5f	-0.20862602
33	0x8a	0.06322001
34	0x88	0.050576005
35	0x75	-0.069542006
36	0x4f	-0.30977803
37	0x89	0.056898005
38	0x93	0.120118015
39	0x4a	-0.34138805
40	0x8e	0.08850801
41	0xa8	0.25288004
42	0x6b	-0.13276201
43	0x88	0.050576005
44	0x90	0.10115201
45	0x42	-0.39196405
46	0xff	0.80289406
47	0x2b	-0.53737
48	0x80	0.0
49	0x80	0.0
50	0x73	-0.082186006
51	0x81	0.0063220006
52	0x81	0.0063220006
53	0x7c	-0.025288003
54	0x76	-0.06322001
55	0x87	0.044254005
56	0x93	0.120118015
57	0x73	-0.082186006
58	0x80	0.0
59	0x91	0.107474014
60	0x74	-0.07586401
61	0x66	-0.16437201
62	0x69	-0.14540601
63	0x96	0.13908401
64	0x8a	0.06322001
65	0x87	0.044254005
66	0x74	-0.07586401
67	0x64	-0.17701602
68	0x71	-0.09483001
69	0x61	-0.19598202
70	0x6b	-0.13276201
71	0x80	0.0
72	0x97	0.14540601
73	0x60	-0.20230402
74	0x56	-0.26552403
75	0xab	0.27184603
76	0x62	-0.18966001
77	0x59	-0.24655803
78	0xa6	0.24023603
79	0x72	-0.08850801
80	0x6a	-0.13908401
81	0x63	-0.18333802
82	0x50	-0.30345604
83	0x61	-0.19598202
84	0x6f	-0.107474014
85	0x67	-0.15805002
86	0x76	-0.06322001
87	0x85	0.031610005
88	0x85	0.031610005
89	0x88	0.050576005
90	0x92	0.11379601
91	0x75	-0.069542006
92	0x69	-0.14540601
93	0x9c	0.17701602
94	0x77	-0.056898005
95	0x69	-0.14540601
96	0x8e	0.08850801
97	0x7a	-0.037932005
98	0x71	-0.09483001
99	0x7c	-0.025288003
100	0x73	-0.082186006
101	0x70	-0.10115201
102	0x7a	-0.037932005
103	0x7a	-0.037932005
104	0x78	-0.050576005
105	0x8f	0.09483001
106	0x90	0.10115201
107	0x92	0.11379601
108	0x91	0.107474014
109	0x94	0.12644002
110	0x8d	0.082186006
111	0x8a	0.06322001
112	0x85	0.031610005
113	0x84	0.025288003
114	0x6a	-0.13908401
115	0x6d	-0.120118015
116	0x6f	-0.107474014
117	0x70	-0.10115201
118	0x6b	-0.13276201
119	0x7b	-0.031610005
120	0x6c	-0.12644002
121	0x6f	-0.107474014
122	0x8a	0.06322001
123	0x83	0.018966002
124	0x80	0.0
125	0x71	-0.09483001
126	0x86	0.037932005
127	0x84	0.025288003
128	0x6c	-0.12644002
129	0x8f	0.09483001
130	0x88	0.050576005
131	0x5e	-0.21494803
132	0x56	-0.26552403
133	0x31	-0.49943805
134	0xf7	0.7523181
135	0xa8	0.25288004
136	0x80	0.0
137	0x35	-0.47415006
138	0xb4	0.32874402
139	0x80	0.0
140	0x40	-0.40460804
141	0x42	-0.39196405
142	0x8b	0.069542006
143	0xa7	0.24655803
144	0x92	0.11379601
145	0x34	-0.48047206
146	0xa6	0.24023603
147	0x8e	0.08850801
148	0x6a	-0.13908401
149	0x80	0.0
150	0x6f	-0.107474014
151	0x77	-0.056898005
152	0x77	-0.056898005
153	0x78	-0.050576005
154	0x8f	0.09483001
155	0x8e	0.08850801
156	0x7a	-0.037932005
157	0x65	-0.17069402
158	0x62	-0.18966001
159	0x79	-0.044254005
160	0x64	-0.17701602
161	0x62	-0.18966001
162	0x71	-0.09483001
163	0x66	-0.16437201
164	0x6a	-0.13908401
165	0x73	-0.082186006
166	0x6f	-0.107474014
167	0x73	-0.082186006
168	0x8e	0.08850801
169	0x8b	0.069542006
170	0x88	0.050576005
171	0x5c	-0.22759202
172	0x54	-0.27816802
173	0xb1	0.30977803
174	0x60	-0.20230402
175	0x57	-0.25920203
176	0xbf	0.39828604
177	0x7d	-0.018966002
178	0x64	-0.17701602
179	0x9a	0.16437201

fuse_attr_13 u1 [46, 3, 3, 48] scale=0.011177141 zero_point=128
0	0x80	0.0
1	0x80	0.0
2	0x80	0.0
3	0x80	0.0
4	0x80	0.0
5	0x80	0.0
6	0x80	0.0
7	0x80	0.0
8	0x80	0.0
9	0x80	0.0
10	0x80	0.0
11	0x80	0.0
12	0x80	0.0
13	0x80	0.0
14	0x9b	0.30178282
15	0x80	0.0
16	0x80	0.0
17	0x80	0.0
18	0x80	0.0
19	0x80	0.0
20	0x80	0.0
21	0x80	0.0
22	0x80	0.0
23	0x80	0.0
24	0x80	0.0
25	0x80	0.0
26	0x80	0.0
27	0x80	0.0
28	0x80	0.0
29	0x80	0.0
30	0x80	0.0
31	0x80	0.0
32	0x80	0.0
33	0x80	0.0
34	0x80	0.0
35	0x80	0.0
36	0x80	0.0
37	0x80	0.0
38	0x80	0.0
39	0x80	0.0
40	0x80	0.0
41	0x80	0.0
42	0x80	0.0
43	0x80	0.0
44	0x80	0.0
45	0x80	0.0
46	0x80	0.0
47	0x80	0.0
48	0x80	0.0
49	0x80	0.0
50	0x80	0.0
51	0x80	0.0
52	0x80	0.0
53	0x80	0.0
54	0x80	0.0
55	0x80	0.0
56	0x80	0.0
57	0x80	0.0
58	0x80	0.0
59	0x80	0.0
60	0x80	0.0
61	0x80	0.0
62	0x80	0.0
63	0x80	0.0
64	0x80	0.0
65	0x80	0.0
66	0x80	0.0
67	0x80	0.0
68	0x80	0.0
69	0x80	0.0
70	0x80	0.0
71	0x80	0.0
72	0x80	0.0
73	0x80	0.0
74	0x80	0.0
75	0x80	0.0
76	0x80	0.0
77	0x80	0.0
78	0x80	0.0
79	0x80	0.0
80	0x80	0.0
81	0x80	0.0
82	0x80	0.0
83	0x80	0.0
84	0x80	0.0
85	0x80	0.0
86	0x80	0.0
87	0x80	0.0
88	0x80	0.0
89	0x80	0.0
90	0x80	0.0
91	0x80	0.0
92	0x80	0.0
93	0x80	0.0
94	0x80	0.0
95	0x80	0.0
96	0x80	0.0
97	0x61	-0.34649137
98	0x80	0.0
99	0x80	0.0
100	0x80	0.0
101	0x80	0.0
102	0x80	0.0
103	0x80	0.0
104	0x80	0.0
105	0x80	0.0
106	0x80	0.0
107	0x80	0.0
108	0x80	0.0
109	0x80	0.0
110	0x80	0.0
111	0x80	0.0
112	0x80	0.0
113	0x80	0.0
114	0x80	0.0
115	0x80	0.0
116	0x66	-0.29060566
117	0xa0	0.35766852
118	0x80	0.0
119	0x80	0.0
120	0xa3	0.39119995
121	0x80	0.0
122	0x80	0.0
123	0x80	0.0
124	0x80	0.0
125	0x80	0.0
126	0x80	0.0
127	0x80	0.0
128	0x80	0.0
129	0x80	0.0
130	0x80	0.0
131	0x80	0.0
132	0x80	0.0
133	0x80	0.0
134	0xa0	0.35766852
135	0x80	0.0
136	0x80	0.0
137	0x80	0.0
138	0x80	0.0
139	0x80	0.0
140	0x80	0.0
141	0x80	0.0
142	0x80	0.0
143	0x80	0.0
144	0x9e	0.33531424
145	0x80	0.0
146	0x80	0.0
147	0x80	0.0
148	0x80	0.0
149	0x80	0.0
150	0x66	-0.29060566
151	0x80	0.0
152	0x80	0.0
153	0x80	0.0
154	0x80	0.0
155	0x80	0.0
156	0x80	0.0
157	0x80	0.0
158	0x80	0.0
159	0x80	0.0
160	0x80	0.0
161	0x80	0.0
162	0x80	0.0
163	0x80	0.0
164	0x80	0.0
165	0x80	0.0
166	0x80	0.0
167	0x80	0.0
168	0x66	-0.29060566
169	0x5c	-0.40237707
170	0x80	0.0
171	0x80	0.0
172	0x80	0.0
173	0x80	0.0
174	0x80	0.0
175	0x80	0.0
176	0x80	0.0
177	0x80	0.0
178	0x80	0.0
179	0x80	0.0
180	0x80	0.0
181	0x80	0.0
182	0x66	-0.29060566
183	0x56	-0.46943992
184	0x80	0.0
185	0x80	0.0
186	0x9c	0.31295997
187	0x80	0.0
188	0x80	0.0
189	0x80	0.0
190	0x80	0.0
191	0x80	0.0
192	0xbb	0.6594513
193	0x80	0.0
194	0x80	0.0
195	0x80	0.0
196	0x80	0.0
197	0x80	0.0
198	0x80	0.0
199	0x80	0.0
200	0x80	0.0
201	0x80	0.0
202	0x80	0.0
203	0x80	0.0
204	0x80	0.0
205	0x80	0.0
206	0x80	0.0
207	0x66	-0.29060566
208	0x80	0.0
209	0x80	0.0
210	0x80	0.0
211	0x80	0.0
212	0x80	0.0
213	0x80	0.0
214	0x80	0.0
215	0x80	0.0
216	0x80	0.0
217	0x66	-0.29060566
218	0x80	0.0
219	0x80	0.0
220	0x80	0.0
221	0x80	0.0
222	0x80	0.0
223	0x80	0.0
224	0x80	0.0
225	0x80	0.0
226	0x80	0.0
227	0x80	0.0
228	0x80	0.0
229	0x9f	0.34649137
230	0x80	0.0
231	0x5d	-0.39119995
232	0x80	0.0
233	0x80	0.0
234	0x80	0.0
235	0x80	0.0
236	0x80	0.0
237	0x80	0.0
238	0x80	0.0
239	0x80	0.0
240	0x9c	0.31295997
241	0x80	0.0
242	0x80	0.0
243	0x80	0.0
244	0x80	0.0
245	0x80	0.0
246	0x80	0.0
247	0x80	0.0
248	0x80	0.0
249	0x80	0.0
250	0x80	0.0
251	0x80	0.0
252	0x80	0.0
253	0x80	0.0
254	0x80	0.0
255	0x67	-0.27942854

fuse_attr_10 u1 [51, 3, 3, 38] scale=0.0029448664 zero_point=128
0	0x6b	-0.061842196
1	0x80	0.0
2	0x80	0.0
3	0x9c	0.08245626
4	0x80	0.0
5	0x80	0.0
6	0x80	0.0
7	0x65	-0.0795114
8	0x80	0.0
9	0x80	0.0
10	0x80	0.0
11	0x97	0.067731924
12	0x80	0.0
13	0x80	0.0
14	0x80	0.0
15	0x80	0.0
16	0x80	0.0
17	0x80	0.0
18	0x80	0.0
19	0x81	0.0029448664
20	0x9b	0.0795114
21	0x63	-0.085401125
22	0x80	0.0
23	0x80	0.0
24	0x80	0.0
25	0x4f	-0.14429845
26	0x80	0.0
27	0x80	0.0
28	0x80	0.0
29	0x80	0.0
30	0x80	0.0
31	0x80	0.0
32	0x80	0.0
33	0x80	0.0
34	0x80	0.0
35	0x80	0.0
36	0xa0	0.094235726
37	0x80	0.0
38	0x55	-0.12662926
39	0x80	0.0
40	0x80	0.0
41	0x9b	0.0795114
42	0x80	0.0
43	0x80	0.0
44	0x80	0.0
45	0x80	0.0
46	0x80	0.0
47	0x80	0.0
48	0x64	-0.08245626
49	0x81	0.0029448664
50	0x80	0.0
51	0x81	0.0029448664
52	0x80	0.0
53	0x80	0.0
54	0x80	0.0
55	0x80	0.0
56	0x59	-0.11484979
57	0x80	0.0
58	0x80	0.0
59	0x48	-0.16491252
60	0x80	0.0
61	0x96	0.06478706
62	0x81	0.0029448664
63	0x2f	-0.23853418
64	0x81	0.0029448664
65	0x80	0.0
66	0x96	0.06478706
67	0xa2	0.10012546
68	0x80	0.0
69	0x80	0.0
70	0x59	-0.11484979
71	0x80	0.0
72	0x80	0.0
73	0x80	0.0
74	0x9c	0.08245626
75	0x80	0.0
76	0x61	-0.09129086
77	0x80	0.0
78	0x80	0.0
79	0xa4	0.10601519
80	0x80	0.0
81	0x80	0.0
82	0x80	0.0
83	0x80	0.0
84	0x80	0.0
85	0x80	0.0
86	0x80	0.0
87	0x80	0.0
88	0x80	0.0
89	0x80	0.0
90	0x80	0.0
91	0x80	0.0
92	0x5e	-0.10012546
93	0x80	0.0
94	0x80	0.0
95	0x80	0.0
96	0x61	-0.09129086
97	0x5c	-0.10601519
98	0x80	0.0
99	0x80	0.0
100	0x81	0.0029448664
101	0x81	0.0029448664
102	0x80	0.0
103	0x80	0.0
104	0x80	0.0
105	0x80	0.0
106	0x80	0.0
107	0x80	0.0
108	0x61	-0.09129086
109	0x80	0.0
110	0x80	0.0
111	0x80	0.0
112	0x6a	-0.06478706
113	0x80	0.0
114	0x80	0.0
115	0x66	-0.076566525
116	0x80	0.0
117	0x80	0.0
118	0x80	0.0
119	0x67	-0.07362166
120	0x80	0.0
121	0x69	-0.067731924
122	0x80	0.0
123	0x80	0.0
124	0x80	0.0
125	0x80	0.0
126	0x63	-0.085401125
127	0x80	0.0
128	0x80	0.0
129	0x80	0.0
130	0x80	0.0
131	0x80	0.0
132	0x65	-0.0795114
133	0x80	0.0
134	0xb1	0.14429845
135	0x80	0.0
136	0x80	0.0
137	0x80	0.0
138	0x80	0.0
139	0x64	-0.08245626
140	0x80	0.0
141	0x80	0.0
142	0x80	0.0
143	0x80	0.0
144	0x80	0.0
145	0x80	0.0
146	0x80	0.0
147	0xa2	0.10012546
148	0x80	0.0
149	0x9a	0.076566525
150	0x80	0.0
151	0x80	0.0
152	0x80	0.0
153	0x80	0.0
154	0x80	0.0
155	0x80	0.0
156	0x67	-0.07362166
157	0x68	-0.070676796
158	0x80	0.0
159	0x80	0.0
160	0x80	0.0
161	0x80	0.0
162	0x80	0.0
163	0x80	0.0
164	0x80	0.0
165	0x80	0.0
166	0x80	0.0
167	0x80	0.0
168	0x96	0.06478706
169	0x80	0.0
170	0x55	-0.12662926
171	0x80	0.0
172	0xa7	0.11484979
173	0x5d	-0.103070326
174	0x80	0.0
175	0x9d	0.085401125
176	0x80	0.0
177	0x80	0.0
178	0x80	0.0
179	0x80	0.0
180	0x97	0.067731924
181	0x80	0.0
182	0x65	-0.0795114
183	0x81	0.0029448664
184	0x5e	-0.10012546
185	0x80	0.0
186	0x80	0.0
187	0x80	0.0
188	0x80	0.0
189	0x80	0.0
190	0x80	0.0
191	0x80	0.0
192	0x80	0.0
193	0x98	0.070676796
194	0x80	0.0
195	0x80	0.0
196	0x80	0.0
197	0x80	0.0
198	0x80	0.0
199	0x80	0.0
200	0x80	0.0
201	0x61	-0.09129086
202	0x80	0.0
203	0x9c	0.08245626
204	0x80	0.0
205	0x61	-0.09129086
206	0x80	0.0
207	0x80	0.0
208	0x80	0.0
209	0x63	-0.085401125
210	0x5f	-0.09718059
211	0x68	-0.070676796
212	0x80	0.0
213	0x80	0.0
214	0x80	0.0
215	0x80	0.0
216	0x80	0.0
217	0x80	0.0
218	0x80	0.0
219	0x80	0.0
220	0x80	0.0
221	0x80	0.0
222	0x5f	-0.09718059
223	0x80	0.0
224	0x80	0.0
225	0x80	0.0
226	0x80	0.0
227	0x68	-0.070676796
228	0x80	0.0
229	0x80	0.0
230	0x80	0.0
231	0x80	0.0
232	0x80	0.0
233	0x9a	0.076566525
234	0x9a	0.076566525
235	0x80	0.0
236	0x60	-0.094235726
237	0x80	0.0
238	0x7f	-0.0029448664
239	0x80	0.0
240	0x80	0.0
241	0x80	0.0
242	0x80	0.0
243	0x80	0.0
244	0x80	0.0
245	0x80	0.0
246	0x80	0.0
247	0x80	0.0
248	0x80	0.0
249	0x80	0.0
250	0x80	0.0
251	0x80	0.0
252	0x5d	-0.103070326
253	0x80	0.0
254	0x80	0.0
255	0x80	0.0

fuse_attr_14 u1 [6, 1, 1, 46] scale=0.043416236 zero_point=128
0	0x80	0.0
1	0x6b	-0.91174096
2	0x55	-1.8668982
3	0xb6	2.3444767
4	0x80	0.0
5	0x80	0.0
6	0x97	0.9985734
7	0x80	0.0
8	0x7e	-0.08683247
9	0x9d	1.2590709
10	0x80	0.0
11	0xc6	3.0391364
12	0x80	0.0
13	0xa3	1.5195682
14	0xd1	3.516715
15	0x82	0.08683247
16	0x80	0.0
17	0x5e	-1.4761521
18	0x80	0.0
19	0x68	-1.0419897
20	0x65	-1.1722383
21	0x5b	-1.6064007
22	0x80	0.0
23	0x66	-1.1288221
24	0xcc	3.299634
25	0xaf	2.040563
26	0x80	0.0
27	0x6c	-0.8683247
28	0x80	0.0
29	0xa0	1.3893195
30	0x7f	-0.043416236
31	0xb5	2.3010604
32	0x67	-1.085406
33	0x81	0.043416236
34	0x81	0.043416236
35	0xb0	2.0839794
36	0x65	-1.1722383
37	0xb9	2.4747255
38	0x7f	-0.043416236
39	0x9c	1.2156546
40	0x70	-0.69465977
41	0xa8	1.7366494
42	0x67	-1.085406
43	0x80	0.0
44	0x80	0.0
45	0x58	-1.7366494
46	0x7f	-0.043416236
47	0x80	0.0
48	0x80	0.0
49	0xb7	2.387893
50	0x5e	-1.4761521
51	0x64	-1.2156546
52	0x7f	-0.043416236
53	0xff	5.513862
54	0xb5	2.3010604
55	0x63	-1.2590709
56	0x4e	-2.170812
57	0x80	0.0
58	0x38	-3.125969
59	0x33	-3.3430502
60	0x9e	1.302487
61	0xc6	3.0391364
62	0x80	0.0
63	0xc8	3.125969
64	0x94	0.8683247
65	0x81	0.043416236
66	0x9e	1.302487
67	0x80	0.0
68	0x97	0.9985734
69	0xa4	1.5629845
70	0xa4	1.5629845
71	0x5a	-1.649817
72	0x80	0.0
73	0x5c	-1.5629845
74	0x3c	-2.9523041
75	0x80	0.0
76	0xbe	2.6918066
77	0x83	0.13024871
78	0xb5	2.3010604
79	0x81	0.043416236
80	0x6b	-0.91174096
81	0x43	-2.6483903
82	0xa0	1.3893195
83	0x48	-2.4313092
84	0xa7	1.6932331
85	0x6a	-0.95515716
86	0x57	-1.7800657
87	0x81	0.043416236
88	0x35	-3.2562177
89	0xa4	1.5629845
90	0x80	0.0
91	0x80	0.0
92	0x4a	-2.3444767
93	0xa5	1.6064007
94	0x2e	-3.5601313
95	0xc5	2.9957201
96	0x80	0.0
97	0x95	0.91174096
98	0x6a	-0.95515716
99	0x73	-0.56441104
100	0x5e	-1.4761521
101	0x80	0.0
102	0xb0	2.0839794
103	0x80	0.0
104	0x9d	1.2590709
105	0x66	-1.1288221
106	0x56	-1.8234819
107	0x81	0.043416236
108	0x64	-1.2156546
109	0x81	0.043416236
110	0x9b	1.1722383
111	0x80	0.0
112	0x80	0.0
113	0x50	-2.0839794
114	0x80	0.0
115	0x5a	-1.649817
116	0x72	-0.6078273
117	0xa2	1.4761521
118	0xa0	1.3893195
119	0xa2	1.4761521
120	0xb4	2.2576442
121	0x7f	-0.043416236
122	0x9f	1.3459033
123	0xc1	2.8220553
124	0x71	-0.6512435
125	0x80	0.0
126	0x80	0.0
127	0x80	0.0
128	0x91	0.73807603
129	0x6f	-0.73807603
130	0x6b	-0.91174096
131	0x5a	-1.649817
132	0xbf	2.7352228
133	0x72	-0.6078273
134	0x92	0.78149223
135	0x5a	-1.649817
136	0x7f	-0.043416236
137	0x9e	1.302487
138	0x81	0.043416236
139	0xcf	3.4298825
140	0x95	0.91174096
141	0xae	1.9971468
142	0xa8	1.7366494
143	0xbf	2.7352228
144	0x52	-1.9971468
145	0x81	0.043416236
146	0x81	0.043416236
147	0xbf	2.7352228
148	0x83	0.13024871
149	0xa2	1.4761521
150	0x62	-1.302487
151	0x80	0.0
152	0x81	0.043416236
153	0x95	0.91174096
154	0x3b	-2.9957201
155	0x80	0.0
156	0xd4	3.6469638
157	0x80	0.0
158	0x67	-1.085406
159	0x6c	-0.8683247
160	0xdf	4.124542
161	0xa3	1.5195682
162	0xaf	2.040563
163	0x5b	-1.6064007
164	0xb5	2.3010604
165	0x82	0.08683247
166	0x9c	1.2156546
167	0x3c	-2.9523041
168	0x83	0.13024871
169	0xb0	2.0839794
170	0x80	0.0
171	0x9b	1.1722383
172	0x43	-2.6483903
173	0x81	0.043416236
174	0x7f	-0.043416236
175	0x80	0.0
176	0xa2	1.4761521
177	0xc1	2.8220553
178	0x80	0.0
179	0x68	-1.0419897
180	0x81	0.043416236
181	0x2f	-3.516715
182	0x81	0.043416236
183	0x44	-2.604974
184	0x81	0.043416236
185	0x80	0.0
186	0x80	0.0
187	0xaa	1.8234819
188	0x93	0.8249085
189	0x4a	-2.3444767
190	0x5c	-1.5629845
191	0x48	-2.4313092
192	0x57	-1.7800657
193	0x3d	-2.9088879
194	0xb6	2.3444767
195	0x81	0.043416236
196	0x80	0.0
197	0x92	0.78149223
198	0x96	0.95515716
199	0x7f	-0.043416236
200	0x93	0.8249085
201	0x6f	-0.73807603
202	0xc8	3.125969
203	0xc0	2.778639
204	0x67	-1.085406
205	0x92	0.78149223
206	0x6d	-0.8249085
207	0xcc	3.299634
208	0x7f	-0.043416236
209	0x90	0.69465977
210	0xa5	1.6064007
211	0x82	0.08683247
212	0x9d	1.2590709
213	0x65	-1.1722383
214	0x81	0.043416236
215	0x57	-1.7800657
216	0x7f	-0.043416236
217	0x33	-3.3430502
218	0x46	-2.5181417
219	0x80	0.0
220	0x8f	0.6512435
221	0x9a	1.1288221
222	0xd8	3.8206286
223	0x9d	1.2590709
224	0x9c	1.2156546
225	0x62	-1.302487
226	0x80	0.0
227	0x7f	-0.043416236
228	0x5f	-1.4327358
229	0x80	0.0
230	0x74	-0.52099484
231	0x55	-1.8668982
232	0x8c	0.52099484
233	0x70	-0.69465977
234	0x95	0.91174096
235	0x9e	1.302487
236	0xc6	3.0391364
237	0x80	0.0
238	0xd7	3.7772124
239	0x6a	-0.95515716
240	0x3a	-3.0391364
241	0x80	0.0
242	0x3d	-2.9088879
243	0x69	-0.9985734
244	0x80	0.0
245	0x71	-0.6512435
246	0x81	0.043416236
247	0xac	1.9103143
248	0x7f	-0.043416236
249	0x45	-2.561558
250	0x80	0.0
251	0x55	-1.8668982
252	0x94	0.8683247
253	0xae	1.9971468
254	0x9c	1.2156546
255	0xc0	2.778639

fuse_attr_8 u1 [41, 3, 3, 40] scale=0.0025550986 zero_point=128
0	0x6d	-0.048546873
1	0x6b	-0.05365707
2	0x64	-0.07154276
3	0x59	-0.09964885
4	0x80	0.0
5	0x71	-0.03832648
6	0x80	0.0
7	0x80	0.0
8	0x69	-0.058767267
9	0x80	0.0
10	0x75	-0.028106084
11	0x80	0.0
12	0x80	0.0
13	0x80	0.0
14	0x80	0.0
15	0x80	0.0
16	0x80	0.0
17	0x80	0.0
18	0x80	0.0
19	0x6e	-0.045991775
20	0x80	0.0
21	0x80	0.0
22	0x80	0.0
23	0x8e	0.03577138
24	0x80	0.0
25	0x75	-0.028106084
26	0x80	0.0
27	0x72	-0.03577138
28	0x80	0.0
29	0x80	0.0
30	0x80	0.0
31	0x80	0.0
32	0x80	0.0
33	0x74	-0.030661184
34	0x80	0.0
35	0x8f	0.03832648
36	0x80	0.0
37	0x80	0.0
38	0x80	0.0
39	0x76	-0.025550986
40	0x80	0.0
41	0x72	-0.03577138
42	0x80	0.0
43	0x75	-0.028106084
44	0x80	0.0
45	0x73	-0.033216283
46	0x80	0.0
47	0x80	0.0
48	0x80	0.0
49	0x80	0.0
50	0x80	0.0
51	0x80	0.0
52	0x80	0.0
53	0x8a	0.025550986
54	0x80	0.0
55	0x80	0.0
56	0x80	0.0
57	0x80	0.0
58	0x73	-0.033216283
59	0x63	-0.07409786
60	0x80	0.0
61	0x80	0.0
62	0x80	0.0
63	0x80	0.0
64	0x80	0.0
65	0x80	0.0
66	0x80	0.0
67	0x80	0.0
68	0x80	0.0
69	0x80	0.0
70	0x80	0.0
71	0x80	0.0
72	0x76	-0.025550986
73	0x66	-0.066432565
74	0x80	0.0
75	0x80	0.0
76	0x76	-0.025550986
77	0x80	0.0
78	0x71	-0.03832648
79	0x80	0.0
80	0x8e	0.03577138
81	0x80	0.0
82	0xa5	0.09453865
83	0x9c	0.07154276
84	0x98	0.06132237
85	0x80	0.0
86	0x91	0.043436676
87	0x8c	0.030661184
88	0x9d	0.07409786
89	0x80	0.0
90	0x80	0.0
91	0x8d	0.033216283
92	0x75	-0.028106084
93	0x8a	0.025550986
94	0x92	0.045991775
95	0x80	0.0
96	0x92	0.045991775
97	0x80	0.0
98	0x80	0.0
99	0x91	0.043436676
100	0x80	0.0
101	0x80	0.0
102	0x80	0.0
103	0x80	0.0
104	0x80	0.0
105	0x9a	0.066432565
106	0x8f	0.03832648
107	0x8d	0.033216283
108	0x8a	0.025550986
109	0x76	-0.025550986
110	0x80	0.0
111	0x8b	0.028106084
112	0x80	0.0
113	0x8e	0.03577138
114	0x80	0.0
115	0x80	0.0
116	0x8a	0.025550986
117	0x80	0.0
118	0x80	0.0
119	0x9b	0.06898766
120	0x6d	-0.048546873
121	0x68	-0.06132237
122	0x67	-0.06387746
123	0x5d	-0.089428455
124	0x80	0.0
125	0x75	-0.028106084
126	0x80	0.0
127	0x80	0.0
128	0x67	-0.06387746
129	0x80	0.0
130	0x74	-0.030661184
131	0x80	0.0
132	0x8d	0.033216283
133	0x80	0.0
134	0x80	0.0
135	0x80	0.0
136	0x80	0.0
137	0x80	0.0
138	0x80	0.0
139	0x73	-0.033216283
140	0x80	0.0
141	0x80	0.0
142	0x80	0.0
143	0x80	0.0
144	0x80	0.0
145	0x6e	-0.045991775
146	0x80	0.0
147	0x80	0.0
148	0x80	0.0
149	0x80	0.0
150	0x80	0.0
151	0x80	0.0
152	0x80	0.0
153	0x75	-0.028106084
154	0x8a	0.025550986
155	0x8a	0.025550986
156	0x80	0.0
157	0x73	-0.033216283
158	0x80	0.0
159	0x76	-0.025550986
160	0x80	0.0
161	0x70	-0.040881578
162	0x80	0.0
163	0x74	-0.030661184
164	0x80	0.0
165	0x80	0.0
166	0x80	0.0
167	0x80	0.0
168	0x80	0.0
169	0x80	0.0
170	0x80	0.0
171	0x74	-0.030661184
172	0x80	0.0
173	0x80	0.0
174	0x80	0.0
175	0x80	0.0
176	0x80	0.0
177	0x80	0.0
178	0x80	0.0
179	0x6a	-0.05621217
180	0x80	0.0
181	0x80	0.0
182	0x80	0.0
183	0x80	0.0
184	0x75	-0.028106084
185	0x80	0.0
186	0x80	0.0
187	0x80	0.0
188	0x81	0.0025550986
189	0x80	0.0
190	0x80	0.0
191	0x80	0.0
192	0x80	0.0
193	0x72	-0.03577138
194	0x80	0.0
195	0x80	0.0
196	0x80	0.0
197	0x80	0.0
198	0x6f	-0.043436676
199	0x80	0.0
200	0x80	0.0
201	0x70	-0.040881578
202	0xac	0.11242434
203	0x9c	0.07154276
204	0x96	0.05621217
205	0x80	0.0
206	0x8e	0.03577138
207	0x96	0.05621217
208	0xa2	0.08687335
209	0x80	0.0
210	0x8e	0.03577138
211	0x8d	0.033216283
212	0x73	-0.033216283
213	0x80	0.0
214	0x8d	0.033216283
215	0x72	-0.03577138
216	0x8d	0.033216283
217	0x80	0.0
218	0x8e	0.03577138
219	0x8b	0.028106084
220	0x80	0.0
221	0x80	0.0
222	0x80	0.0
223	0x80	0.0
224	0x80	0.0
225	0x9c	0.07154276
226	0x8a	0.025550986
227	0x8e	0.03577138
228	0x90	0.040881578
229	0x80	0.0
230	0x80	0.0
231	0x80	0.0
232	0x91	0.043436676
233	0x8e	0.03577138
234	0x80	0.0
235	0x80	0.0
236	0x80	0.0
237	0x80	0.0
238	0x80	0.0
239	0x99	0.06387746
240	0x80	0.0
241	0x80	0.0
242	0x67	-0.06387746
243	0x6e	-0.045991775
244	0x80	0.0
245	0x80	0.0
246	0x80	0.0
247	0x80	0.0
248	0x71	-0.03832648
249	0x80	0.0
250	0x75	-0.028106084
251	0x80	0.0
252	0x8c	0.030661184
253	0x80	0.0
254	0x80	0.0
255	0x80	0.0

fuse_attr_9 u1 [38, 3, 3, 41] scale=0.0032338093 zero_point=128
0	0x80	0.0
1	0x80	0.0
2	0x80	0.0
3	0x80	0.0
4	0x80	0.0
5	0x80	0.0
6	0x7f	-0.0032338093
7	0x63	-0.093780465
8	0x80	0.0
9	0x7f	-0.0032338093
10	0x80	0.0
11	0x56	-0.13581999
12	0x80	0.0
13	0x50	-0.15522285
14	0x7f	-0.0032338093
15	0x80	0.0
16	0x80	0.0
17	0x80	0.0
18	0x80	0.0
19	0x80	0.0
20	0x80	0.0
21	0x80	0.0
22	0x5c	-0.11641713
23	0x80	0.0
24	0x80	0.0
25	0x80	0.0
26	0x7f	-0.0032338093
27	0x80	0.0
28	0x80	0.0
29	0x80	0.0
30	0x51	-0.15198903
31	0x9b	0.08731285
32	0x80	0.0
33	0x80	0.0
34	0x80	0.0
35	0x53	-0.14552142
36	0x80	0.0
37	0x80	0.0
38	0x80	0.0
39	0x7f	-0.0032338093
40	0xa0	0.103481896
41	0x80	0.0
42	0x80	0.0
43	0x57	-0.13258618
44	0x65	-0.08731285
45	0x80	0.0
46	0x80	0.0
47	0x80	0.0
48	0x80	0.0
49	0x80	0.0
50	0x80	0.0
51	0x80	0.0
52	0x50	-0.15522285
53	0x64	-0.09054666
54	0x7f	-0.0032338093
55	0x80	0.0
56	0x80	0.0
57	0x80	0.0
58	0x80	0.0
59	0x63	-0.093780465
60	0x80	0.0
61	0xa1	0.10671571
62	0x80	0.0
63	0x80	0.0
64	0x80	0.0
65	0x80	0.0
66	0x65	-0.08731285
67	0x41	-0.20372999
68	0x80	0.0
69	0x80	0.0
70	0x80	0.0
71	0x80	0.0
72	0x80	0.0
73	0x80	0.0
74	0x80	0.0
75	0x80	0.0
76	0x80	0.0
77	0x80	0.0
78	0x80	0.0
79	0x80	0.0
80	0x80	0.0
81	0x80	0.0
82	0x80	0.0
83	0x80	0.0
84	0x80	0.0
85	0x63	-0.093780465
86	0x80	0.0
87	0x80	0.0
88	0x80	0.0
89	0x80	0.0
90	0x80	0.0
91	0x80	0.0
92	0x80	0.0
93	0x81	0.0032338093
94	0x80	0.0
95	0x80	0.0
96	0xb4	0.16815808
97	0x7f	-0.0032338093
98	0x80	0.0
99	0x80	0.0
100	0x81	0.0032338093
101	0x9b	0.08731285
102	0x80	0.0
103	0x80	0.0
104	0x80	0.0
105	0x80	0.0
106	0x80	0.0
107	0x9d	0.093780465
108	0x80	0.0
109	0x49	-0.17785951
110	0x80	0.0
111	0x58	-0.12935238
112	0x80	0.0
113	0x80	0.0
114	0x80	0.0
115	0x80	0.0
116	0x80	0.0
117	0x80	0.0
118	0x80	0.0
119	0x63	-0.093780465
120	0x80	0.0
121	0x80	0.0
122	0xa6	0.12288475
123	0x7f	-0.0032338093
124	0xa1	0.10671571
125	0x59	-0.12611856
126	0x80	0.0
127	0x80	0.0
128	0x80	0.0
129	0xac	0.14228761
130	0x80	0.0
131	0x80	0.0
132	0x7f	-0.0032338093
133	0x80	0.0
134	0x61	-0.10024808
135	0x80	0.0
136	0x7f	-0.0032338093
137	0x7f	-0.0032338093
138	0x9b	0.08731285
139	0x80	0.0
140	0x80	0.0
141	0x80	0.0
142	0xa3	0.11318333
143	0x7f	-0.0032338093
144	0x62	-0.09701428
145	0x80	0.0
146	0x58	-0.12935238
147	0x80	0.0
148	0x80	0.0
149	0xb0	0.15522285
150	0x80	0.0
151	0x80	0.0
152	0x9a	0.08407904
153	0x5e	-0.109949514
154	0x80	0.0
155	0x80	0.0
156	0x7f	-0.0032338093
157	0x80	0.0
158	0x80	0.0
159	0x60	-0.103481896
160	0x7e	-0.0064676185
161	0x61	-0.10024808
162	0x7f	-0.0032338093
163	0xa3	0.11318333
164	0x7f	-0.0032338093
165	0x80	0.0
166	0x80	0.0
167	0x80	0.0
168	0xb9	0.18432713
169	0x80	0.0
170	0x7f	-0.0032338093
171	0x60	-0.103481896
172	0x80	0.0
173	0x80	0.0
174	0x80	0.0
175	0x80	0.0
176	0x80	0.0
177	0x7f	-0.0032338093
178	0x58	-0.12935238
179	0x7f	-0.0032338093
180	0xa8	0.12935238
181	0x99	0.08084523
182	0x80	0.0
183	0x65	-0.08731285
184	0x7f	-0.0032338093
185	0x80	0.0
186	0x80	0.0
187	0x80	0.0
188	0x5f	-0.10671571
189	0x4b	-0.17139189
190	0x80	0.0
191	0x80	0.0
192	0x80	0.0
193	0x5b	-0.119650945
194	0xae	0.14875522
195	0x63	-0.093780465
196	0x66	-0.08407904
197	0x56	-0.13581999
198	0x80	0.0
199	0x80	0.0
200	0x5e	-0.109949514
201	0x55	-0.13905379
202	0x80	0.0
203	0x5f	-0.10671571
204	0x80	0.0
205	0x5f	-0.10671571
206	0x80	0.0
207	0x9f	0.10024808
208	0x80	0.0
209	0x80	0.0
210	0x80	0.0
211	0x7f	-0.0032338093
212	0x80	0.0
213	0x80	0.0
214	0x80	0.0
215	0x64	-0.09054666
216	0x80	0.0
217	0x80	0.0
218	0x7f	-0.0032338093
219	0x63	-0.093780465
220	0x7f	-0.0032338093
221	0x80	0.0
222	0x65	-0.08731285
223	0xa7	0.12611856
224	0x7f	-0.0032338093
225	0x80	0.0
226	0x64	-0.09054666
227	0x80	0.0
228	0x80	0.0
229	0x60	-0.103481896
230	0x80	0.0
231	0x80	0.0
232	0x80	0.0
233	0x80	0.0
234	0x80	0.0
235	0x80	0.0
236	0x80	0.0
237	0x66	-0.08407904
238	0x7f	-0.0032338093
239	0x80	0.0
240	0x80	0.0
241	0x80	0.0
242	0x80	0.0
243	0x7f	-0.0032338093
244	0x80	0.0
245	0x58	-0.12935238
246	0x99	0.08084523
247	0x80	0.0
248	0x80	0.0
249	0x80	0.0
250	0x3e	-0.21343142
251	0x80	0.0
252	0x7f	-0.0032338093
253	0x80	0.0
254	0x80	0.0
255	0x80	0.0

fuse_attr_6 u1 [32, 3, 3, 20] scale=0.005457425 zero_point=128
0	0x86	0.03274455
1	0x80	0.0
2	0x80	0.0
3	0x83	0.016372275
4	0x80	0.0
5	0x85	0.027287126
6	0x7d	-0.016372275
7	0x7a	-0.03274455
8	0x83	0.016372275
9	0x7b	-0.027287126
10	0x80	0.0
11	0x85	0.027287126
12	0x80	0.0
13	0x77	-0.049116824
14	0x83	0.016372275
15	0x84	0.0218297
16	0x80	0.0
17	0x77	-0.049116824
18	0x80	0.0
19	0x80	0.0
20	0x86	0.03274455
21	0x80	0.0
22	0x80	0.0
23	0x88	0.0436594
24	0x80	0.0
25	0x86	0.03274455
26	0x7c	-0.0218297
27	0x7b	-0.027287126
28	0x80	0.0
29	0x7c	-0.0218297
30	0x80	0.0
31	0x87	0.038201977
32	0x7c	-0.0218297
33	0x79	-0.038201977
34	0x80	0.0
35	0x86	0.03274455
36	0x80	0.0
37	0x79	-0.038201977
38	0x80	0.0
39	0x76	-0.05457425
40	0x80	0.0
41	0x80	0.0
42	0x80	0.0
43	0x80	0.0
44	0x75	-0.060031675
45	0x76	-0.05457425
46	0x7c	-0.0218297
47	0x7c	-0.0218297
48	0x80	0.0
49	0x80	0.0
50	0x84	0.0218297
51	0x80	0.0
52	0x75	-0.060031675
53	0x83	0.016372275
54	0x80	0.0
55	0x80	0.0
56	0x80	0.0
57	0x7c	-0.0218297
58	0x80	0.0
59	0x76	-0.05457425
60	0x87	0.038201977
61	0x80	0.0
62	0x7c	-0.0218297
63	0x87	0.038201977
64	0x76	-0.05457425
65	0x80	0.0
66	0x80	0.0
67	0x80	0.0
68	0x80	0.0
69	0x77	-0.049116824
70	0x7c	-0.0218297
71	0x7b	-0.027287126
72	0x87	0.038201977
73	0x74	-0.0654891
74	0x80	0.0
75	0x80	0.0
76	0x80	0.0
77	0x80	0.0
78	0x78	-0.0436594
79	0x7c	-0.0218297
80	0x86	0.03274455
81	0x80	0.0
82	0x80	0.0
83	0x8b	0.060031675
84	0x7a	-0.03274455
85	0x87	0.038201977
86	0x80	0.0
87	0x80	0.0
88	0x80	0.0
89	0x7a	-0.03274455
90	0x80	0.0
91	0x7d	-0.016372275
92	0x85	0.027287126
93	0x77	-0.049116824
94	0x80	0.0
95	0x80	0.0
96	0x80	0.0
97	0x80	0.0
98	0x7a	-0.03274455
99	0x76	-0.05457425
100	0x80	0.0
101	0x80	0.0
102	0x80	0.0
103	0x83	0.016372275
104	0x76	-0.05457425
105	0x80	0.0
106	0x80	0.0
107	0x80	0.0
108	0x80	0.0
109	0x80	0.0
110	0x80	0.0
111	0x80	0.0
112	0x7a	-0.03274455
113	0x80	0.0
114	0x7c	-0.0218297
115	0x7d	-0.016372275
116	0x80	0.0
117	0x80	0.0
118	0x80	0.0
119	0x78	-0.0436594
120	0x84	0.0218297
121	0x7b	-0.027287126
122	0x80	0.0
123	0x80	0.0
124	0x7b	-0.027287126
125	0x80	0.0
126	0x80	0.0
127	0x83	0.016372275
128	0x80	0.0
129	0x7c	-0.0218297
130	0x7c	-0.0218297
131	0x7a	-0.03274455
132	0x87	0.038201977
133	0x7c	-0.0218297
134	0x80	0.0
135	0x80	0.0
136	0x80	0.0
137	0x80	0.0
138	0x79	-0.038201977
139	0x80	0.0
140	0x84	0.0218297
141	0x80	0.0
142	0x80	0.0
143	0x84	0.0218297
144	0x80	0.0
145	0x84	0.0218297
146	0x80	0.0
147	0x84	0.0218297
148	0x80	0.0
149	0x80	0.0
150	0x80	0.0
151	0x80	0.0
152	0x85	0.027287126
153	0x80	0.0
154	0x80	0.0
155	0x80	0.0
156	0x80	0.0
157	0x80	0.0
158	0x7b	-0.027287126
159	0x7b	-0.027287126
160	0x80	0.0
161	0x80	0.0
162	0x84	0.0218297
163	0x80	0.0
164	0x7b	-0.027287126
165	0x80	0.0
166	0x80	0.0
167	0x80	0.0
168	0x80	0.0
169	0x84	0.0218297
170	0x80	0.0
171	0x80	0.0
172	0x7c	-0.0218297
173	0x84	0.0218297
174	0x80	0.0
175	0x80	0.0
176	0x80	0.0
177	0x80	0.0
178	0x80	0.0
179	0x7b	-0.027287126
180	0x80	0.0
181	0x91	0.092776224
182	0x76	-0.05457425
183	0x80	0.0
184	0x9f	0.16918017
185	0x76	-0.05457425
186	0x80	0.0
187	0x80	0.0
188	0x80	0.0
189	0x93	0.10369108
190	0x80	0.0
191	0x70	-0.0873188
192	0x80	0.0
193	0x80	0.0
194	0x64	-0.1528079
195	0x80	0.0
196	0x71	-0.08186138
197	0x70	-0.0873188
198	0x89	0.049116824
199	0x7f	-0.005457425
200	0x80	0.0
201	0x92	0.09823365
202	0x76	-0.05457425
203	0x93	0.10369108
204	0x7f	-0.005457425
205	0x77	-0.049116824
206	0x74	-0.0654891
207	0x75	-0.060031675
208	0x7f	-0.005457425
209	0x94	0.1091485
210	0x7f	-0.005457425
211	0x77	-0.049116824
212	0x80	0.0
213	0x80	0.0
214	0x6c	-0.1091485
215	0x65	-0.14735048
216	0x70	-0.0873188
217	0x71	-0.08186138
218	0x8c	0.0654891
219	0x8b	0.060031675
220	0x7f	-0.005457425
221	0x89	0.049116824
222	0x72	-0.07640395
223	0x98	0.1309782
224	0x80	0.0
225	0x7f	-0.005457425
226	0x80	0.0
227	0x80	0.0
228	0x7f	-0.005457425
229	0x80	0.0
230	0x8a	0.05457425
231	0x70	-0.0873188
232	0x8a	0.05457425
233	0x80	0.0
234	0x80	0.0
235	0x74	-0.0654891
236	0x6f	-0.092776224
237	0x75	-0.060031675
238	0x80	0.0
239	0x77	-0.049116824
240	0x80	0.0
241	0x80	0.0
242	0x6a	-0.12006335
243	0x75	-0.060031675
244	0x8b	0.060031675
245	0x80	0.0
246	0x80	0.0
247	0x80	0.0
248	0x75	-0.060031675
249	0x71	-0.08186138
250	0x80	0.0
251	0x6c	-0.1091485
252	0x77	-0.049116824
253	0x80	0.0
254	0x63	-0.15826532
255	0x71	-0.08186138

fuse_attr_12 u1 [48, 3, 3, 44] scale=0.011480895 zero_point=128
0	0x80	0.0
1	0x80	0.0
2	0x80	0.0
3	0x80	0.0
4	0x80	0.0
5	0x80	0.0
6	0x80	0.0
7	0x80	0.0
8	0x81	0.011480895
9	0x80	0.0
10	0x80	0.0
11	0x80	0.0
12	0x80	0.0
13	0x80	0.0
14	0x80	0.0
15	0x80	0.0
16	0x67	-0.28702238
17	0x80	0.0
18	0x80	0.0
19	0x80	0.0
20	0x80	0.0
21	0x80	0.0
22	0x80	0.0
23	0x80	0.0
24	0x80	0.0
25	0x80	0.0
26	0x80	0.0
27	0x80	0.0
28	0x80	0.0
29	0x80	0.0
30	0x80	0.0
31	0x80	0.0
32	0x80	0.0
33	0x80	0.0
34	0x80	0.0
35	0x80	0.0
36	0x80	0.0
37	0x94	0.2296179
38	0x80	0.0
39	0x80	0.0
40	0x80	0.0
41	0x80	0.0
42	0x80	0.0
43	0x80	0.0
44	0x80	0.0
45	0x80	0.0
46	0x80	0.0
47	0x80	0.0
48	0x71	-0.17221342
49	0x80	0.0
50	0x80	0.0
51	0x80	0.0
52	0x81	0.011480895
53	0x80	0.0
54	0x80	0.0
55	0x80	0.0
56	0x80	0.0
57	0x80	0.0
58	0x80	0.0
59	0x80	0.0
60	0x80	0.0
61	0x80	0.0
62	0x80	0.0
63	0x80	0.0
64	0x80	0.0
65	0x80	0.0
66	0x6c	-0.2296179
67	0x80	0.0
68	0x80	0.0
69	0x80	0.0
70	0x80	0.0
71	0x99	0.28702238
72	0x80	0.0
73	0x80	0.0
74	0x80	0.0
75	0x80	0.0
76	0x80	0.0
77	0x71	-0.17221342
78	0x80	0.0
79	0x80	0.0
80	0x80	0.0
81	0x96	0.2525797
82	0x80	0.0
83	0x80	0.0
84	0x80	0.0
85	0x80	0.0
86	0x80	0.0
87	0x80	0.0
88	0x80	0.0
89	0x80	0.0
90	0x80	0.0
91	0x80	0.0
92	0x80	0.0
93	0x80	0.0
94	0x80	0.0
95	0x80	0.0
96	0x80	0.0
97	0x80	0.0
98	0x80	0.0
99	0x80	0.0
100	0x80	0.0
101	0x80	0.0
102	0x80	0.0
103	0x71	-0.17221342
104	0x80	0.0
105	0x80	0.0
106	0x80	0.0
107	0x80	0.0
108	0x8f	0.17221342
109	0x80	0.0
110	0x80	0.0
111	0x80	0.0
112	0x80	0.0
113	0x80	0.0
114	0x80	0.0
115	0x80	0.0
116	0x80	0.0
117	0x80	0.0
118	0x80	0.0
119	0x80	0.0
120	0x71	-0.17221342
121	0x6b	-0.24109879
122	0x80	0.0
123	0x80	0.0
124	0x80	0.0
125	0x80	0.0
126	0x80	0.0
127	0x80	0.0
128	0x80	0.0
129	0x80	0.0
130	0x80	0.0
131	0x80	0.0
132	0x80	0.0
133	0x70	-0.18369432
134	0x92	0.20665611
135	0x72	-0.16073252
136	0x80	0.0
137	0x80	0.0
138	0x80	0.0
139	0x6d	-0.218137
140	0x80	0.0
141	0x68	-0.27554148
142	0x80	0.0
143	0x80	0.0
144	0x80	0.0
145	0x80	0.0
146	0x80	0.0
147	0x80	0.0
148	0x80	0.0
149	0x80	0.0
150	0x80	0.0
151	0x80	0.0
152	0x80	0.0
153	0x91	0.19517522
154	0x80	0.0
155	0x80	0.0
156	0x80	0.0
157	0x6e	-0.20665611
158	0x80	0.0
159	0x80	0.0
160	0x80	0.0
161	0x80	0.0
162	0x80	0.0
163	0x71	-0.17221342
164	0x80	0.0
165	0x80	0.0
166	0x80	0.0
167	0x80	0.0
168	0x80	0.0
169	0x80	0.0
170	0x80	0.0
171	0x80	0.0
172	0x80	0.0
173	0x80	0.0
174	0x69	-0.2640606
175	0x80	0.0
176	0x94	0.2296179
177	0x80	0.0
178	0x8f	0.17221342
179	0x6e	-0.20665611
180	0x80	0.0
181	0x80	0.0
182	0x80	0.0
183	0x80	0.0
184	0x80	0.0
185	0x71	-0.17221342
186	0x80	0.0
187	0x80	0.0
188	0x80	0.0
189	0x80	0.0
190	0x80	0.0
191	0x80	0.0
192	0x80	0.0
193	0x80	0.0
194	0x80	0.0
195	0x80	0.0
196	0x80	0.0
197	0x80	0.0
198	0x80	0.0
199	0x80	0.0
200	0x80	0.0
201	0x80	0.0
202	0x80	0.0
203	0x80	0.0
204	0x80	0.0
205	0x8e	0.16073252
206	0x6d	-0.218137
207	0x80	0.0
208	0x80	0.0
209	0x80	0.0
210	0x80	0.0
211	0x80	0.0
212	0x80	0.0
213	0x90	0.18369432
214	0x80	0.0
215	0x90	0.18369432
216	0x80	0.0
217	0x80	0.0
218	0x80	0.0
219	0x80	0.0
220	0xaf	0.53960204
221	0x9d	0.33294594
222	0x80	0.0
223	0x80	0.0
224	0x8f	0.17221342
225	0x80	0.0
226	0x8e	0.16073252
227	0x80	0.0
228	0x80	0.0
229	0x90	0.18369432
230	0x80	0.0
231	0x91	0.19517522
232	0x80	0.0
233	0x80	0.0
234	0x80	0.0
235	0x6c	-0.2296179
236	0xad	0.51664025
237	0x80	0.0
238	0x8f	0.17221342
239	0x80	0.0
240	0x80	0.0
241	0x6e	-0.20665611
242	0x80	0.0
243	0x80	0.0
244	0x80	0.0
245	0x80	0.0
246	0x96	0.2525797
247	0x80	0.0
248	0x80	0.0
249	0x80	0.0
250	0x80	0.0
251	0x8e	0.16073252
252	0x80	0.0
253	0x80	0.0
254	0x8f	0.17221342
255	0x80	0.0
