refine_codes/retrained_models_after_second_stage_pruning/after_second_pruning_time_2024022013_prunratio0.85/retrained_model_after_second_pruning_0.83ratio_acc95.45454406738281_374th_epoch_20240220134909.pt (torch, 409914 bytes, 62 tensors)

sfeb.0.weight f4 [6, 1, 1, 9]
000000 6f ff 71 3d e1 e4 83 3d 9f d7 96 3d b9 be 3a 3e
       0.05908149 0.064401396 0.07365345 0.18236817
000010 d4 13 c6 bc e3 1e dc bd e7 c2 1b 3d 60 da 5a bc
       -0.024179377 -0.10748079 0.03802767 -0.013357729
000020 b5 15 a8 bd 84 79 89 bd c9 b3 a1 bc d5 22 64 bd
       -0.08207265 -0.067126304 -0.019739049 -0.05569728
000030 17 62 0b be 87 14 23 bc c9 29 1e bd 40 5a 93 bc
       -0.13611637 -0.009953625 -0.03861407 -0.01798737
000040 14 6c 54 3e ac cd 2a 3e 6c 02 f8 3d c9 4e a3 bc
       0.20744354 0.1668002 0.12109837 -0.019935029
000050 25 75 3c bb 36 94 5f 3d 64 a5 03 3d 0d 23 fe bd
       -0.0028756347 0.054584704 0.03214015 -0.12409029
000060 41 65 cf bd a0 37 a9 bc 50 6e d3 bd 99 b2 99 3d
       -0.101267345 -0.020656407 -0.10323775 0.07504768
000070 83 b2 7d 3c 60 95 1b 3b 8e d8 83 bd 26 6f 58 3c
       0.015484455 0.0023740157 -0.06437789 0.013210094
000080 51 6c f0 3c be 9a ea 3c be 05 81 3c bd d1 ac bc
       0.029348524 0.02863824 0.015749808 -0.021096105
000090 29 85 0c be 53 05 a7 bc 68 c2 86 3c 1d 86 41 3d
       -0.13722672 -0.020388281 0.016450122 0.04724704
0000a0 88 6a a1 b7 70 66 d0 3c 11 e2 3f 3c 31 f6 e6 3b
       -1.9242303e-05 0.025439471 0.011711613 0.0070483913
0000b0 fb 8f 94 3b c7 28 08 3d a3 c3 bd 3c e6 97 37 3a
       0.0045337654 0.033242013 0.023164576 0.00070035306
0000c0 71 8e 74 3c 43 20 41 bc ea a2 5a 3d c1 29 c9 3b
       0.014926539 -0.011787477 0.053378023 0.0061390107
0000d0 f2 65 9f bd c8 aa 0a bd
       -0.077831164 -0.033854276

sfeb.1.weight f4 [6]
000000 49 14 7f 3e 42 c1 96 3e 85 89 53 3e 88 f6 eb 3d
       0.24910082 0.2944432 0.20657928 0.115216315
000010 26 be 06 3e fe 71 9f 3d
       0.13158473 0.07785414

sfeb.1.bias f4 [6]
000000 94 63 a3 3a 3d 08 82 3c 63 ac 92 bb ae f6 bf 3c
       0.001246559 0.015873069 -0.0044761165 0.023433056
000010 90 10 69 bd 54 9a 10 3d
       -0.05690056 0.03530343

sfeb.1.running_mean f4 [6]
000000 63 2d ae 39 60 97 4e 38 a9 8f 97 b9 1e 7b 2b 39
       0.00033221682 4.9255206e-05 -0.00028908 0.00016353696
000010 bc 56 a6 b8 ec 6d 60 37
       -7.931652e-05 1.3377034e-05

sfeb.1.running_var f4 [6]
000000 22 19 07 3b e6 5b 75 3b 2f bd d7 3a 85 47 0f 3a
       0.0020614346 0.003743881 0.0016459579 0.00054656743
000010 98 4a 38 3a a0 d8 bb 39
       0.00070301583 0.00035828818

sfeb.3.weight f4 [32, 6, 1, 5]
000000 e8 c7 3e bd c1 6a 76 bc df d2 40 3c da 07 48 3d
       -0.046577364 -0.015040101 0.011769026 0.048835613
000010 59 61 68 3b 16 b2 7d 3c e7 1a 85 3c 60 c5 5d bb
       0.0035458414 0.0154843535 0.01624818 -0.0033839568
000020 35 95 eb ba 86 04 1e 3b 39 29 fd 3b 11 31 90 3b
       -0.0017973544 0.0024111583 0.0077258614 0.0044003804
000030 fc 9e 4b bc be 2f 23 3d f0 68 c2 bc d5 71 bd bb
       -0.012428042 0.039840452 -0.023731679 -0.005781392
000040 b8 af 59 bc 62 43 83 bc 4b 0e 83 bc dc 25 82 3c
       -0.0132865235 -0.016023342 -0.015998026 0.015887193
000050 d9 a8 50 bc b5 15 8b bb 2b cf 46 bc 10 4d 9c bb
       -0.012735569 -0.004244531 -0.012134354 -0.0047699288
000060 7a a8 ca bb 38 49 19 bb b5 65 6a bc 39 10 83 3c
       -0.0061846348 -0.002338959 -0.014306475 0.015998947
000070 fa d9 16 bc 23 44 93 3a 34 d0 a1 bd e3 d6 30 3a
       -0.009207243 0.0011235516 -0.0790104 0.0006745888
000080 f8 28 4d 3c 43 e3 00 3e 02 88 96 3d cd 39 9c ba
       0.012521975 0.12586693 0.0735016 -0.0011919081
000090 39 23 49 bc c2 40 e0 3c 31 5e 97 bc 63 a1 92 3c
       -0.012276464 0.027374629 -0.018477531 0.01789922
0000a0 fc db 80 bb d7 40 3c 3c 07 ea 9d 3c 56 d4 fd 3c
       -0.003932474 0.011490068 0.019276632 0.030985039
0000b0 51 e5 c1 3d e9 21 33 bd 5f 9c e3 3c 38 c3 c1 bb
       0.09467567 -0.04373351 0.027784524 -0.0059131645
0000c0 a6 78 12 bd 3e 93 e4 bb 06 85 32 bd fd 55 60 bd
       -0.03575959 -0.0069755604 -0.043583892 -0.054769505
0000d0 5b bc 83 bd d2 59 f4 bb ca e1 2b bc 3c 50 2b bd
       -0.0643241 -0.0074569965 -0.010490844 -0.041824564
0000e0 04 ef 03 3c b6 dd a5 3c a6 df cf 3c 0a 56 05 bc
       0.008052591 0.020247322 0.025375199 -0.008138189
0000f0 72 66 1f bc fd b5 2c bc 55 87 00 bc c5 09 2c bc
       -0.009729015 -0.010541436 -0.007844766 -0.010500376
000100 34 ab fb bb e0 42 e3 bb 57 38 0e bb 2e 5b 81 bb
       -0.007680321 -0.0069354624 -0.0021701062 -0.003947637
000110 29 6d 3b bc a4 c8 80 bc 6f f9 df bb c7 d5 d4 ba
       -0.0114396 -0.015720673 -0.0068351547 -0.0016238027
000120 3d 93 9f ba f6 be a3 3a 3b da 90 3a f9 d2 f7 bb
       -0.0012174618 0.0012492824 0.0011051366 -0.0075629917
000130 e1 ef 0d bb 51 e2 ea ba 02 80 bc bb c5 2d d2 bb
       -0.0021657872 -0.0017920231 -0.0057525644 -0.0064141476
000140 76 d3 13 3b 51 bd 89 ba 02 0d a6 ba e0 2c 32 3b
       0.002255646 -0.0010508691 -0.0012668672 0.0027187392
000150 cb 7b cc 3a bb dd aa ba 4e 24 df ba 61 53 91 ba
       0.0015600858 -0.0013036052 -0.001702437 -0.0011087471
000160 b6 b2 90 bb 75 36 86 bb d5 64 88 bc 3f ba 95 bd
       -0.0044158353 -0.0040958473 -0.016649643 -0.07310914
000170 2b ab 77 bc e1 e2 de bc c4 6a 83 3d 7b 99 e5 bc
       -0.015116493 -0.027207794 0.06416848 -0.028027287
000180 de 42 97 bd 1b 24 a5 3d e4 0c 8e bd 77 0a 95 3c
       -0.07385801 0.08063527 -0.069360524 0.018193467
000190 b8 95 85 bd 17 3f 93 bd f1 ff 5d bb 1b a4 07 bc
       -0.06522697 -0.07189768 -0.0033874477 -0.008278872
0001a0 10 8a 73 bc f6 b6 ec bc 6d ee f4 3c 1c f2 0b bd
       -0.01486446 -0.028895836 0.029898847 -0.03416644
0001b0 97 54 fa 3c d8 51 19 bc 71 3d 6f 3c ba 4e 1d bd
       0.030557914 -0.009357892 0.014602051 -0.038405158
0001c0 eb 59 81 bc a3 ab 26 bc 58 89 a7 bc 34 bb 43 bd
       -0.015789947 -0.010172757 -0.020451233 -0.047785953
0001d0 a7 86 f8 3c 87 f8 3a bc ba 5e 54 3c 2e 5c 5c bc
       0.030337645 -0.011411793 0.012962038 -0.013449712
0001e0 59 f2 fe bb ac 84 fd bb c3 4b 61 bc b2 97 46 bc
       -0.007780355 -0.007736763 -0.013750973 -0.012121128
0001f0 95 9b 23 bc f6 1b 1a bc 37 ac 1e bc 57 03 5b bb
       -0.009985824 -0.0094060805 -0.009684614 -0.0033418739
000200 8c 31 e7 bb e6 42 57 bc 10 cc e6 bb 32 12 9b bb
       -0.007055467 -0.013138508 -0.007043369 -0.0047323937
000210 c0 7f b8 bb 07 22 ac 39 aa c4 2e 3b c7 17 2c 3c
       -0.0056304634 0.0003283175 0.0026667514 0.010503716
000220 dd 20 87 3b 8c 5c 55 3b 4a 4e 3f 3b ef 51 0e 3a
       0.0041237907 0.0032556383 0.002919095 0.0005429079
000230 34 7c 7d bb 65 67 f6 ba 26 09 3a bb c7 27 08 3a
       -0.0038678767 -0.0018799125 -0.00283868 0.00051939156
000240 26 f1 b1 ba 72 b4 09 bb 45 69 f8 ba 46 52 13 bb
       -0.0013575896 -0.0021012095 -0.0018952271 -0.0022479459
000250 11 93 9a bb 53 8f ae bb 9e 7e 4c bb 61 a1 0d bb
       -0.0047172387 -0.005327144 -0.00312034 -0.0021611082
000260 f2 6e 9b bb 15 c0 de bb cb 40 c5 bb e9 54 10 bc
       -0.0047434503 -0.0067978003 -0.006019687 -0.008809307
000270 18 88 3f bc 61 43 23 bc bf 5c 16 bc b8 da 08 bc
       -0.011690162 -0.009964795 -0.009177386 -0.008352928
000280 57 78 fd bb b6 b1 5c bb 6f 08 59 b9 97 24 5f 3b
       -0.007735293 -0.003367526 -0.00020697874 0.003404891
000290 8f 75 7f 3b 74 cc d2 3b ce 4a 56 3b a4 37 71 3b
       0.0038979982 0.006433064 0.0032698396 0.0036806846
0002a0 23 0d 60 ba 8c 13 90 bb 2c a5 bf bb 62 d5 c6 bb
       -0.00085468794 -0.0043968614 -0.0058485474 -0.0060679177
0002b0 36 c0 c9 bb af dd cf bb 99 22 a6 bb 6e e7 74 ba
       -0.0061569465 -0.0063435654 -0.0050700423 -0.0009342347
0002c0 cf 40 95 ba 92 9e 87 ba 7a 5b 4a bb 70 43 9b ba
       -0.0011387112 -0.001034694 -0.0030877278 -0.001184566
0002d0 1a 8a 26 3a 9f 41 74 bb 8e 4d c4 bb db f4 06 bc
       0.0006352976 -0.0037270559 -0.0059906906 -0.008237089
0002e0 85 f3 96 bb c6 13 0d bc 06 c3 2c bc 47 ae 52 bc
       -0.0046066665 -0.008610671 -0.010544544 -0.012858934
0002f0 b0 b1 27 bc 21 7e b6 bb 93 eb 2c ba 19 20 08 ba
       -0.010235235 -0.005569235 -0.00065963826 -0.0005192771
000300 54 3b da bb e4 de ca bb 71 e9 9c bb b8 2e 82 3b
       -0.0066599045 -0.0061911214 -0.0047885706 0.0039728545
000310 b1 55 81 3b bb ba 2f 3b de 19 85 ba 63 ac ec 37
       0.003946983 0.002681418 -0.0010154804 2.8213666e-05
000320 c2 b9 c0 bb 06 a3 f0 bb 57 07 28 bb 79 32 fc b9
       -0.005881519 -0.0073436527 -0.002563914 -0.0004810279
000330 f5 72 ce bb a8 25 85 ba 72 ee 6a b9 16 a6 98 ba
       -0.006300325 -0.0010158317 -0.00022404807 -0.0011646177
000340 12 50 c7 3a 00 99 31 3b 11 73 5a bd 5d 3a 80 bd
       0.0015206358 0.0027099252 -0.053332392 -0.06261132
000350 cb f7 25 bd 58 2f 2c bd f9 1e 29 bd ba 60 a7 bc
       -0.040519517 -0.042037338 -0.041289303 -0.020431865
000360 30 a8 4b 3b 11 cd 85 bc 03 12 82 bc 97 5d 26 3d
       0.003107559 -0.016333135 -0.01587773 0.040616598
000370 4f a9 df 3c bc 0a 99 bc 5a c4 21 bd 85 d5 79 bd
       0.027302412 -0.018681876 -0.039493896 -0.060994644
000380 81 ea 20 bb 13 f2 11 bd 05 5b be bb 1e 15 f6 b9
       -0.0024553838 -0.03563125 -0.00580919 -0.0004693651
000390 88 c7 2f 3b 49 f6 71 bc 58 1a 51 ba 40 0e 29 3c
       0.002682181 -0.014768192 -0.0007976643 0.010318339
0003a0 f9 b6 5e bc 1b 9e b1 3c 9b f2 48 bc 89 4a 8d bb
       -0.013593429 0.021681836 -0.012264873 -0.004311864
0003b0 c0 c8 ac bb 34 e7 9a bb a8 76 3b bc b9 e9 91 3b
       -0.0052729547 -0.0047272686 -0.011441864 0.0044529107
0003c0 de 16 84 3b 14 e9 bd 3b 25 66 0d 3a b2 5a 3a 3c
       0.0040310463 0.0057956073 0.0005393944 0.0113741625
0003d0 16 aa aa 3b 84 d6 38 3d df 52 19 3d 1b 7d 5d 3d
       0.005208264 0.045126453 0.037432548 0.054074388
0003e0 f6 7d 13 3d dc c8 de 3c 3f 78 6a 3c ba aa d1 3c
       0.036008798 0.027195387 0.014310895 0.025594104
0003f0 bc 49 0a 3d af 21 8e 3c 65 94 22 bb e2 0d a0 bc
       0.033761725 0.017350046 -0.0024807688 -0.01953787

sfeb.4.weight f4 [32]
000000 9c 5f ae 3d c2 d3 4e 3e e2 43 b0 3c d6 9c 35 3e
       0.0851433 0.20197967 0.021516744 0.1773561
000010 41 8c 68 3b 2f d8 69 3c 39 e0 00 3c f0 ed b9 3d
       0.0035483988 0.014272734 0.007865959 0.09078586
000020 d4 29 c6 bd fc b0 72 3d dc 10 ab bd 58 5f 8f 3d
       -0.09675947 0.059250817 -0.08352825 0.07000607
000030 3d ca 8c 3b c4 dc a4 bb 62 9f 44 3d 4c df 1b 3e
       0.0042965696 -0.0050312 0.04800356 0.152219
000040 ce 96 98 3a c0 4b 1d 3e b0 19 5e 3e 13 7a de 3d
       0.0011641623 0.15360928 0.21689487 0.108631276
000050 34 72 03 3e e6 22 8e bb e7 9a 12 3e fb 05 f9 3b
       0.12836534 -0.0043376563 0.14316903 0.00759959
000060 bc de e3 3c d9 30 a3 3d 61 73 08 3e ff 02 68 3e
       0.027816169 0.07968301 0.13325264 0.22657393
000070 6d e0 2c 3c dd 82 d8 3c be 17 7c 3e af b7 84 3a
       0.010551554 0.026429588 0.24618432 0.0010125543

sfeb.4.bias f4 [32]
000000 bc c8 36 3c 07 f9 8f 3d 75 03 ec bc 35 e4 5c 3d
       0.011156257 0.0702992 -0.028810242 0.053928573
000010 5a 88 e9 bc 10 31 b5 bc 30 74 2f bc c6 ae d0 3c
       -0.0285074 -0.022118121 -0.010708854 0.025473963
000020 2a fa 54 3d c4 c2 28 3d e6 8c 8a 3c 5d f0 38 bb
       0.051996388 0.041201368 0.016912889 -0.002821944
000030 62 03 8b bc 66 59 85 bc 77 2a 55 3d 87 46 e6 3a
       -0.016969386 -0.01627798 0.05204245 0.0017568626
000040 12 e2 33 bd 0e 71 06 bc 2d b3 a0 3c a0 fd ca 3c
       -0.04391677 -0.008205665 0.019616688 0.024779141
000050 b2 43 ba 3d 47 d3 cb bc ac 3b 41 3e c5 21 6a bc
       0.09094943 -0.024881018 0.1887042 -0.014290278
000060 65 28 ce bc bb c2 f5 bd 54 6a 28 3c 8f 0c 0a bd
       -0.025165746 -0.120000325 0.010279257 -0.033703383
000070 bf cb cf bc ff 5a 28 bd 5a 0a 93 3d ce b0 8c bb
       -0.025365708 -0.041102406 0.07179709 -0.0042935377

sfeb.4.running_mean f4 [32]
000000 db c7 24 3a 80 b9 31 3c d3 b0 00 bc 3f d0 ab bc
       0.00062858843 0.010847449 -0.007854658 -0.020973323
000010 36 0c ea bb 37 a5 be bb 17 11 c0 bb 54 52 be bc
       -0.007142569 -0.005818035 -0.0058614123 -0.023232616
000020 1c bb b5 3c 39 de 83 bc 15 40 86 3c 06 50 76 bc
       0.022183947 -0.016097175 0.016387979 -0.0150337275
000030 88 d5 91 bb 50 55 a9 3b 53 8d 89 bc bb 4b 6f bb
       -0.0044505037 0.0051676407 -0.016791021 -0.0036513645
000040 cb a8 c5 3b c0 ee 46 bc a2 04 96 bc e0 b9 96 3a
       0.0060320846 -0.012141883 -0.018312756 0.0011499487
000050 20 0a 12 bc 09 73 ba 3b 24 32 89 bc 68 f1 c1 bb
       -0.008913547 0.005689983 -0.016747542 -0.0059186704
000060 c7 e4 97 bc 5b 36 91 bc c2 a3 30 bd f4 3e 29 bd
       -0.018541707 -0.017726114 -0.04312492 -0.041319802
000070 40 0d 8e bb 29 2f 8a bc 49 b4 7a bd 6c d2 bb ba
       -0.0043350756 -0.01686819 -0.06120709 -0.0014329678

sfeb.4.running_var f4 [32]
000000 c6 ee 77 39 0e 1f aa 3a 31 e4 e9 38 8b dd b7 3a
       0.00023644706 0.0012979226 0.0001115281 0.0014027817
000010 43 1b ef 38 93 dd b4 38 0c 16 b5 38 d8 0c ce 3a
       0.00011401486 8.62434e-05 8.634859e-05 0.001572038
000020 da 62 99 3a 02 cc 8d 3a 53 cb 41 3a 83 b0 fa 39
       0.0011702434 0.0010818245 0.00073926634 0.00047815227
000030 d4 df 35 38 e5 7f a5 38 5f 1c 6f 3a ff 2c a9 3a
       4.336222e-05 7.891635e-05 0.0009121354 0.0012907087
000040 ed 18 11 39 80 8e 85 3a bd 28 ee 3a 5d 37 ea 39
       0.00013837563 0.0010189563 0.00181701 0.00044673207
000050 ff d4 45 3a cf df 0c 39 d9 78 11 3b e0 b7 94 38
       0.00075466925 0.00013434816 0.0022197275 7.091439e-05
000060 9a b8 66 3a 86 70 3b 3b 3a a0 c4 3b 70 d7 83 3b
       0.00088013115 0.0028601005 0.006000546 0.004023485
000070 0d d1 36 38 1d 2d 0b 3a a7 9a 05 3c d2 29 ef 36
       4.3586875e-05 0.00053091516 0.008154548 7.1276236e-06

tfeb.0.weight f4 [11, 1, 3, 3]
000000 6b 4b d0 3c a9 53 c7 bd 7c 2c bb bd 77 dc 83 bd
       0.025426587 -0.09732754 -0.09139344 -0.06438535
000010 3e b9 6d bd cd bf 36 bd 4e 92 56 bd 0f d6 6b bd
       -0.05803799 -0.04461651 -0.05238562 -0.05757719
000020 9e 0f 5c bd 87 cb 9b 3b cb 73 be 3b 35 1a 81 3b
       -0.05372583 0.004754487 0.0058121434 0.0039398917
000030 da 85 77 ba 15 78 05 bb d1 c4 8c ba 18 9e c2 3b
       -0.00094422477 -0.0020365764 -0.0010739808 0.0059392564
000040 0d 48 d7 3b 9a c2 ac 3b 9d 81 5c 3b f6 6c ba bc
       0.0065698684 0.0052722218 0.0033646591 -0.022757035
000050 36 dc b1 3b f0 4e 13 3c 4b 91 cd bc 83 a3 8b 3b
       0.0054278625 0.008990988 -0.025093695 0.0042614355
000060 f1 4e fd 3b 9e d8 80 bc 21 e4 8b 3b f8 42 12 bd
       0.007730358 -0.015728291 0.0042691384 -0.035708398
000070 06 5e 1d bd 1a e2 a6 bd a5 72 86 3c 49 97 5b 3b
       -0.038419746 -0.08148594 0.016412089 0.003350692
000080 bf d9 37 bd 23 89 f9 bb 88 8d 3f bc 63 b3 98 bc
       -0.044885393 -0.007615225 -0.0116914585 -0.018640226
000090 6d 1a e0 bd d6 75 44 3c a3 1a cc bc 24 0f b0 bd
       -0.1094254 0.011990985 -0.024915045 -0.08596638
0000a0 c7 66 b7 bb b9 74 ca bb 18 a1 de bd 45 8d 00 3c
       -0.005596969 -0.006178465 -0.1087057 0.007846181
0000b0 f6 ff 30 bd 33 5e 52 3c 01 d2 60 3c 5e bd 87 3c
       -0.043212853 0.012839842 0.013721944 0.01656979
0000c0 cb 26 31 bc 50 b8 df ba ee ab 18 bc e8 27 10 3d
       -0.010812472 -0.0017068479 -0.009318335 0.035194308
0000d0 1d 9d 10 3d 04 c7 12 3d 85 69 7a 3e a8 14 86 bd
       0.035306085 0.035834327 0.24454315 -0.065469086
0000e0 f5 7e 4b be 32 44 5f 3e 0b 43 45 bd c2 94 45 be
       -0.19872649 0.21803358 -0.04815964 -0.19295028
0000f0 a3 74 f3 bd d4 2c 04 3a c6 e1 e4 3d ed 7f e3 39
       -0.11887481 0.00050420803 0.11175875 0.00043392126
000100 1a d0 21 3a e8 3f 9c 3a ef 90 41 bb c7 eb 1c bb
       0.0006172672 0.0011920901 -0.002953585 -0.0023944245
000110 be 0a 20 bb ab 61 5d 3b 5d 32 63 3b 5d 46 67 3b
       -0.0024420465 0.0033780138 0.003466747 0.0035289743
000120 d3 2f ea bc 7a 61 fe bc 32 53 05 bd 4d 56 58 3d
       -0.028587257 -0.03105234 -0.032550044 0.052816678
000130 b0 9f 7c 3d 34 65 21 3d 13 03 05 3c 39 7e 3a 3c
       0.061675727 0.039403155 0.008118409 0.011382633
000140 ff 0d 01 3c 88 55 64 bc 63 7f 66 bc 54 ad aa bc
       0.007876872 -0.013936408 -0.014068457 -0.020834602
000150 09 fd 39 3d 44 d9 5d 3d 59 29 83 3c ba 19 b4 3b
       0.04540733 0.05416228 0.016010927 0.005496231
000160 e4 e8 18 3c d4 d6 b5 3c a4 26 ed bc 5e de b5 bc
       0.009332869 0.022197165 -0.02894909 -0.02220076
000170 be 2d d7 3d 63 65 71 bd 55 e8 d2 bc 25 e3 f5 3d
       0.105067715 -0.05893458 -0.02574555 0.12006215
000180 2a 7e c5 3d 26 55 f1 3d b0 17 61 3d
       0.096432045 0.11783819 0.05495423

tfeb.1.weight f4 [11]
000000 ef 4e 0b bd ba 31 04 3c 8f 8b 57 3b c1 81 42 3c
       -0.034010824 0.008068496 0.003288958 0.011871756
000010 b6 b5 07 3e d2 51 b1 bc 83 10 30 3e e2 b4 9d bb
       0.13252911 -0.02164546 0.17193799 -0.0048128227
000020 16 83 9e 3d 64 cb 6d 3d a3 fc 98 3d
       0.077398464 0.058055297 0.07470062

tfeb.1.bias f4 [11]
000000 66 66 44 3d 2d 78 01 3c f5 ea e9 bb 97 68 8e 3b
       0.047949217 0.007902187 -0.0071386048 0.004345964
000010 6b c6 e3 3d 81 a1 bd 3c c2 b9 8a ba 01 9e 87 3b
       0.111218296 0.0231483 -0.0010583925 0.0041387086
000020 e3 38 08 3d 91 f1 1d 3d 22 7d 9e 3d
       0.033257376 0.038560454 0.07738711

tfeb.1.running_mean f4 [11]
000000 93 42 21 bd e8 f6 10 3b 89 69 1d bb 67 8e 8f bc
       -0.03937013 0.0022119824 -0.0024019203 -0.017523957
000010 26 ba ec bc 06 fc 22 3c 09 4c 54 bb fd 2c b9 39
       -0.028897356 0.009947782 -0.0032393953 0.0003531947
000020 6e e3 e7 3b 32 93 06 3c 71 ef e4 3c
       0.0070766723 0.008213805 0.027946206

tfeb.1.running_var f4 [11]
000000 16 d7 12 3b 67 df 4e 37 91 17 49 37 f6 6c 25 3a
       0.0022406033 1.2330572e-05 1.1986021e-05 0.0006310487
000010 18 5b a5 3a 67 fb 99 39 68 8a fb 39 25 dc 52 36
       0.0012615649 0.00029369743 0.0004797757 3.142058e-06
000020 a3 c2 22 3a 2f c7 b3 39 3d 6b ed 3a
       0.00062088127 0.00034289944 0.0018113625

tfeb.4.weight f4 [21, 11, 3, 3]
000000 69 54 e8 3b 0e 6c 6e bb 92 81 3f bc 36 10 5d bb
       0.0070901406 -0.0036380324 -0.011688607 -0.0033731586
000010 e0 5a 37 bb ff 55 51 bc 00 9a e4 bc 67 24 bb bc
       -0.002797775 -0.012776851 -0.027905464 -0.022844506
000020 99 6f 05 bd c8 fe 7a 3b 86 ec 10 3b 96 29 e0 38
       -0.03257713 0.0038298834 0.0022113635 0.00010688898
000030 5f 11 82 ba 36 24 9a ba 53 bd 4f bb 3f 87 d0 bb
       -0.000992339 -0.0011760059 -0.003169854 -0.006363779
000040 b5 c2 b1 bb 7e 74 b9 bb 8f 7f bc 39 78 9e 88 38
       -0.005424822 -0.005659639 0.00035953193 6.5145025e-05
000050 e6 be 5d b7 eb 8b 8a ba f3 77 6a ba f1 94 b9 ba
       -1.32170735e-05 -0.0010570263 -0.00089442654 -0.0014158768
000060 34 07 5c ba 5b 9e d1 ba 1c bc c2 ba c9 1c 22 bc
       -0.00083934073 -0.0015992628 -0.0014857086 -0.009894558
000070 11 33 12 bc 61 45 9e bb 3d e4 f8 39 35 f8 d7 3a
       -0.008923308 -0.004830048 0.00047472297 0.001647717
000080 2b 3c 93 3b d9 a9 b5 ba 4d a8 f5 ba 76 4c 04 3a
       0.0044932566 -0.0013859823 -0.0018742174 0.0005046794
000090 ff 94 3f bd 18 72 c3 bc bf 36 c2 bc 5c 90 83 3c
       -0.046772953 -0.023858115 -0.023707746 0.016060047
0000a0 be e3 9c 3c 3c c0 ba 3c 75 d3 7e 3d 4e b9 80 3d
       0.019151565 0.022796743 0.06221338 0.06285344
0000b0 09 13 7f 3d df 48 11 3c 55 51 6d 3c e9 6b 7f 3c
       0.062274013 0.0088674715 0.014484723 0.015589693
0000c0 ba 1e 23 3b 56 4e d4 3b 0e 1a d4 3b 6a cb e0 bb
       0.002489014 0.006479065 0.0064728325 -0.0068601863
0000d0 55 85 9b bb d3 8e 82 bb 88 6e bc 3b f1 fa 97 bc
       -0.004746119 -0.003984311 0.005750481 -0.018552275
0000e0 32 f1 aa bd c4 5a 41 bd 13 da 6c bd 0d 99 b9 bd
       -0.083467856 -0.0472057 -0.05782516 -0.09062395
0000f0 f0 85 9e bc af 5d 09 bc c1 5d a5 bb 08 af fa 3a
       -0.019350976 -0.008384152 -0.0050465767 0.001912565
000100 e1 04 08 3b 2c 47 00 3b 76 f7 e2 39 69 48 5f 3a
       0.0020754861 0.0019573672 0.00043290452 0.0008517565
000110 c7 e6 2d 3a 91 b4 44 bb 04 b1 25 bb ff 6c 26 bb
       0.0006633815 -0.0030014853 -0.0025282511 -0.0025394557
000120 f4 ef 0d 3d dc 22 b3 3c 3d ca 30 3c 3f e8 95 bc
       0.034652665 0.021867208 0.010790405 -0.01829922
000130 a6 f7 81 bc ad 62 e9 bc 8b ad 63 bd 4a 8c 53 bd
       -0.015865158 -0.028489435 -0.055585425 -0.051647462
000140 38 54 6d bd 0c 6b d4 3c fe 21 87 3c 19 80 b4 3b
       -0.057941645 0.02592995 0.0164957 0.0055084345
000150 a5 95 80 bc 80 3a 81 bc d0 37 bc bc 61 86 29 bd
       -0.015696356 -0.015774965 -0.022975832 -0.04138792
000160 ad b6 10 bd de d4 22 bd 95 98 71 3c 5c 5e 71 bb
       -0.035330463 -0.039753787 0.014745851 -0.0036829924
000170 b9 e6 8e bc 72 db 1a bd 1e 02 2f bd a0 f3 80 bd
       -0.017444002 -0.037806936 -0.04272663 -0.06296468
000180 f4 0e 65 bd a9 b9 6a bd cb ec 87 bd 71 ab ef bb
       -0.055922464 -0.057305966 -0.066369615 -0.0073141386
000190 a9 83 83 bb 48 0f fd bb f3 2b 4d bb 57 d6 20 bc
       -0.004013498 -0.007722769 -0.0031306713 -0.009816728
0001a0 d3 83 d5 bb 13 7d 55 bb 5d f4 3a bb a1 8d 8c bb
       -0.006515959 -0.003257577 -0.0028527 -0.0042893444
0001b0 70 9b 28 bb 67 a2 2a bb 2a fb 2d bb 0f bc 35 ba
       -0.0025727414 -0.002603674 -0.002654741 -0.0006932625
0001c0 43 e9 70 ba 2a 06 97 ba e3 03 ec 39 68 df 1a 39
       -0.0009190032 -0.0011522223 0.00045016324 0.0001476981
0001d0 a3 9c 9f b6 7a a9 a9 3a de 30 c8 bb 40 75 33 ba
       -4.756804e-06 0.0012944185 -0.006109341 -0.000684578
0001e0 64 5b 8d 3b b4 11 b6 bb 7f 2d c9 3a 90 cf 0f 3b
       0.004313873 -0.0055563096 0.0015348642 0.0021943785
0001f0 da a2 3e bb 83 49 1c 3b f5 b5 23 bb 0d 01 b9 ba
       -0.0029088766 0.0023847527 -0.002498028 -0.0014114693
000200 cb 31 58 ba 75 c8 55 bb ac 68 ef ba 48 a6 ac 3a
       -0.0008247166 -0.0032620702 -0.0018265448 0.0013172114
000210 b8 62 48 bb aa 08 5f bb dc 6e 37 bb 66 e9 ce 3c
       -0.003057642 -0.0034032264 -0.0027989661 0.025257777
000220 78 e5 fd 3c 70 17 e5 3c 43 ad 62 3c 51 e9 ae 3c
       0.030993208 0.027965277 0.013835254 0.021351488
000230 2d e9 81 3c db 89 eb bb e1 4d 90 b9 0c 7b db b9
       0.015858257 -0.0071880645 -0.00027523845 -0.00041862612
000240 0a 55 94 bb 61 93 cf ba 1e b8 9b bb 03 29 56 bb
       -0.004526739 -0.0015836769 -0.004752173 -0.0032678253
000250 e9 22 8a 3a 77 1a 37 ba 7b ce bd 3a 60 af 14 3b
       0.0010538968 -0.00069848396 0.0014481092 0.002268754
000260 da f8 44 3a 08 b5 bd 3b fa 63 25 bb ef ca 12 bc
       0.00075138884 0.005789403 -0.0025236593 -0.008959516
000270 46 f1 0f bc 11 48 9a bb c9 e1 09 3c 5e 36 f0 3b
       -0.008785551 -0.004708298 0.008415648 0.0073307
000280 f8 c4 43 3b 03 5f 26 3c 34 dd 05 ba 65 2f c5 b9
       0.0029872041 0.0101544885 -0.0005106509 -0.0003761008
000290 0a 8f 04 ba 34 d6 05 ba a2 ac f1 b9 00 39 15 ba
       -0.0005056715 -0.0005105466 -0.00046095724 -0.00056923926
0002a0 d8 be 3d 39 40 97 a3 38 0f 51 c5 b7 41 0b 2f bc
       0.0001809554 7.800618e-05 -2.3521976e-05 -0.0106838355
0002b0 b3 cd 4a bc e4 f6 6a bc ba 92 d8 bb e3 e1 ec bb
       -0.012378144 -0.01434109 -0.006609288 -0.007229076
0002c0 d8 9c f9 bb 16 aa 1a 3b 9e 9c a5 3a 66 11 32 ba
       -0.007617574 0.0023599914 0.0012635177 -0.00067927537
0002d0 ba 11 35 bc 88 24 86 bc 79 74 5c bc 51 06 13 bc
       -0.01105159 -0.016374841 -0.013455504 -0.008973674
0002e0 c2 39 13 bc 01 43 da bb 12 0c 4d 3b 7d 2c 4c 3a
       -0.0089859385 -0.0066608195 0.0031287712 0.00077886117
0002f0 0f a2 80 ba 5f 9f 1b bc da 09 86 bc 44 e7 6a bc
       -0.0009813922 -0.009498446 -0.01636212 -0.014337365
000300 a2 0b 6d 3a 7d cb d4 bb 78 84 90 bb 9b 19 7d bb
       0.0009042566 -0.0064939843 -0.0044103228 -0.0038619998
000310 5f af 71 bb fa 72 55 bb db 1b 5d 3c 58 85 c7 3b
       -0.003687821 -0.0032569752 0.013495411 0.006088894
000320 8d 45 c2 38 e5 8c 80 3b fd 88 11 3b 81 9d 94 bb
       9.263596e-05 0.003923046 0.0022206896 -0.0045353775
000330 18 60 3d bc 06 cb 0f bc 37 16 50 bc 0f 09 2c 3b
       -0.011558555 -0.008776432 -0.012700609 0.0026250517
000340 1e 80 06 3b c7 85 ca 3a 49 85 01 39 0d 90 89 39
       0.002052314 0.0015451246 0.00012352051 0.00026238002
000350 11 63 36 b9 21 dc 4d bb 2e b1 3d bb d8 86 40 bb
       -0.00017393778 -0.0031411725 -0.0028944719 -0.0029377248
000360 ca dd 74 bb 9c 0b 99 bb 1d a5 50 bb 95 d8 5e bb
       -0.0037363642 -0.0046705734 -0.0031836696 -0.0034003605
000370 70 12 85 bb 94 eb 23 bb 36 5d 65 ba 61 32 10 bb
       -0.004061036 -0.0025012242 -0.0008749546 -0.0022002684
000380 00 5d 1e bb 79 a3 f4 bb 92 e0 09 bc 15 fc 2a bc
       -0.002416432 -0.0074657765 -0.008415358 -0.010436078
000390 45 63 08 bc dd 84 1f bc d8 ab 35 bc b6 2e 76 bb
       -0.008324449 -0.009736267 -0.011088334 -0.0037564463
0003a0 2e e4 a9 bb ae 55 d4 bb c1 61 20 bd 22 bb ab bc
       -0.005184672 -0.0064799404 -0.039155725 -0.020963255
0003b0 88 b2 c2 bc e9 9c 22 bc 32 0d 2c bb df f2 e6 ba
       -0.023766771 -0.009925106 -0.0026252982 -0.0017619989
0003c0 2b 34 4f bb b5 e8 47 3b ef 5e 0a bb e4 b5 bc 3b
       -0.0031616788 0.0030503694 -0.0021113714 0.0057589877
0003d0 78 33 13 3c 8e f6 1a 3c 48 35 1a bc dd 38 01 bc
       0.008984439 0.009458197 -0.009412117 -0.007887092
0003e0 42 fa ca bb ed 43 af bb 1c 37 4f bb 60 62 1d bb
       -0.006194384 -0.0053486736 -0.003161854 -0.0024014935
0003f0 15 93 74 bc 13 89 46 bd 9e a4 65 bd 14 86 9c bc
       -0.014927645 -0.048470568 -0.056065194 -0.019106902

tfeb.5.weight f4 [21]
000000 a6 3f 3a 3e f1 5b 4a 3d b7 75 d0 3d 4d ca b2 b9
       0.18188342 0.04940409 0.10178702 -0.00034101531
000010 5b e1 bb 3d ea 76 1e 3e cc 17 b9 3c 27 89 ef bb
       0.091738425 0.1547505 0.022594355 -0.007310051
000020 18 c0 d6 39 b3 7b 43 3c 1f 03 74 3d 2e 1b 78 3c
       0.00040960382 0.011931348 0.05957329 0.015143199
000030 51 64 2c 3d 98 ca f3 bb 1f e1 a7 3d f1 3e 35 3a
       0.042087857 -0.0074399225 0.08197235 0.0006913981
000040 7f 39 a2 3c 34 d2 ee 3d 27 03 20 3b b6 f3 0d bc
       0.019802807 0.11661187 0.0024415941 -0.008664062
000050 8f 0d 08 3a
       0.00051900087

tfeb.5.bias f4 [21]
000000 81 33 09 bd 92 ef 09 3d 9e 67 93 bc 97 8d 83 bb
       -0.033496384 0.033675738 -0.017993744 -0.0040146816
000010 ac 90 89 3c 88 b0 f4 bc 8a 4b 21 3d 8e 77 05 bb
       0.016792618 -0.029869333 0.03937868 -0.002036545
000020 4e 4d 6a bc c1 f4 1d bc f1 66 a2 bc 40 f7 eb bb
       -0.014300657 -0.009640873 -0.019824477 -0.0072011054
000030 d7 f7 18 3d 59 79 4b 3c ac 0a ba 3d e4 37 97 bc
       0.037345733 0.012419068 0.09084067 -0.018459268
000040 8e e2 d8 3a 21 ed 53 bb 42 15 83 bb 31 63 81 3c
       0.0016547011 -0.0032337385 -0.004000337 0.015794368
000050 08 3d 8a ba
       -0.0010546753

tfeb.5.running_mean f4 [21]
000000 43 3c 51 bd 37 29 0c 3b 3c ce 23 bd c7 1d 43 ba
       -0.05108286 0.002138687 -0.039991602 -0.0007443097
000010 46 85 53 bb c1 e3 fe 3b bb 59 bf bc 8f 08 cd ba
       -0.0032275482 0.007778615 -0.023358217 -0.001564281
000020 01 5f fc 3b 08 83 0a bb 24 2d 93 3c 48 d0 36 bc
       0.007701755 -0.002113523 0.01796586 -0.011158057
000030 22 ff ec bb 92 07 7b 3a c7 36 b0 3b 7a 75 c4 3b
       -0.0072325626 0.0009576018 0.0053776237 0.0059954496
000040 7e 03 2a bc cb 11 1e bc 5e ec 86 ba 4e b6 d8 bb
       -0.010376809 -0.009647797 -0.0010293832 -0.0066135293
000050 64 01 8c bb
       -0.0042726267

tfeb.5.running_var f4 [21]
000000 af e9 9f 3b 62 5d 9e 39 b4 4f 59 3a 91 36 cf 35
       0.004880152 0.00030205684 0.000828977 1.5438583e-06
000010 fd 3c 10 3a 06 f9 cf 3a 46 16 59 39 27 02 d2 37
       0.0005502252 0.0015867061 0.0002070303 2.5034953e-05
000020 dc 0a 2f 38 01 13 1d 35 ed da 89 3a a5 78 d5 37
       4.1733365e-05 5.851471e-07 0.0010517515 2.5447758e-05
000030 2a d4 23 3a 66 f6 44 37 c1 2c 86 3a 25 e4 37 37
       0.00062495715 1.17398795e-05 0.0010236726 1.0960769e-05
000040 36 12 13 38 e9 96 85 3a 57 37 b2 34 65 37 81 38
       3.506449e-05 0.001019207 3.319535e-07 6.1615174e-05
000050 c4 a3 09 37
       8.203966e-06

tfeb.7.weight f4 [16, 21, 3, 3]
000000 f9 49 dc bb c9 5b 27 bc 71 e2 5c bc b2 52 0a bc
       -0.0067226854 -0.010214754 -0.013481722 -0.008442568
000010 6b 05 1d bc ef 07 45 bc af 23 ac bb 5b 73 c8 bb
       -0.009583811 -0.012025817 -0.0052532773 -0.006117267
000020 9a a0 df bb 58 34 01 bb 20 8a 13 bb 14 d8 81 ba
       -0.006824565 -0.0019715037 -0.002251275 -0.0009906315
000030 f8 ef 1a bc de 8a 0c bc db a5 06 bc ec 65 2f bb
       -0.009456627 -0.00857803 -0.008218254 -0.002676363
000040 f0 07 18 bb 2e 63 16 bb dc 6a 8a ba 86 3a 37 ba
       -0.002319809 -0.00229473 -0.0010560411 -0.00069896167
000050 ba 25 54 38 ae 01 0e bb 6c d6 c0 b9 d1 3a 8b 3a
       5.0579874e-05 -0.0021668482 -0.0003678085 0.0010622387
000060 be ea 63 39 14 2c 60 b9 45 68 6c ba c9 2d 10 ba
       0.00021735855 -0.00021378725 -0.0009018223 -0.00054999866
000070 cf 3b fb b9 16 0e 50 ba 33 14 c4 ba d1 99 32 bb
       -0.00047919012 -0.0007936669 -0.0014959633 -0.0027252326
000080 60 e7 e3 ba 88 3b c6 3a 6d 29 3a 38 ac 27 51 ba
       -0.0017387681 0.0015123943 4.4384436e-05 -0.0007978629
000090 a2 a7 d7 bb 87 c2 d7 bb 5e 3c 7d bb 3c 4e 31 bc
       -0.0065812627 -0.0065844688 -0.0038640718 -0.010821875
0000a0 4c b9 1d bc f7 bd c1 bb 83 05 a7 bb b5 6c 04 bb
       -0.009626698 -0.005912538 -0.0050970926 -0.0020206396
0000b0 0a 59 03 3b f5 29 fc bb 69 71 df bb 95 f3 c0 bb
       0.0020042085 -0.0076954314 -0.0068189395 -0.0058884122
0000c0 d7 a5 3e bc 9a 33 83 bc 2b 3a 8e bc d5 0f 61 3b
       -0.011636219 -0.016015816 -0.017361721 0.0034341712
0000d0 d7 dd f8 39 6f 37 17 bb c3 03 11 3c ea 29 f9 3b
       0.0004746753 -0.0023073812 0.0088509945 0.0076038735
0000e0 a6 83 a6 3b 15 49 3c 3b 9c 56 14 3b f8 fd 4f 3a
       0.0050816117 0.0028730084 0.002263463 0.00079342676
0000f0 4e fd 41 bb 1c 30 8c bb 22 8f c3 bb ca ed ac ba
       -0.0029600444 -0.004278196 -0.0059679905 -0.0013193425
000100 c8 4c b9 b9 9e 22 24 39 83 3f 53 bb 8a a6 a6 b9
       -0.00035343156 0.00015653155 -0.00322339 -0.0003178607
000110 96 22 75 ba 36 b6 75 b7 eb 0b a4 3a d7 d7 9b b9
       -0.0009351162 -1.4645562e-05 0.0012515759 -0.00029724717
000120 05 bb d8 bb 65 79 01 bc a8 0e fc bb cf 4b 1c bc
       -0.0066140913 -0.007902478 -0.007692177 -0.009539559
000130 52 1f 1e bc 93 55 f2 bb 0c f9 91 bb 84 07 8c bb
       -0.009651022 -0.007395455 -0.0044547375 -0.004273357
000140 c7 2e 79 bb 42 08 83 ba 3e 8e 86 b9 f4 e1 24 3a
       -0.0038022266 -0.0009996968 -0.0002566445 0.0006289773
000150 ca ca 47 bb 4e 54 a6 ba bd ec b0 39 58 be 01 bb
       -0.0030485862 -0.001268992 0.0003374572 -0.0019797292
000160 d5 fb b1 b9 8a 0e 18 3b eb b1 c2 ba f3 3d 60 bb
       -0.000339477 0.0023202025 -0.0014854049 -0.0034216612
000170 be b4 98 bb 89 42 95 3a 82 27 01 bb 7d 04 46 bb
       -0.004660218 0.0011387627 -0.0019707386 -0.0030215078
000180 7b bc d0 3a aa 6b 89 ba e2 48 11 bb 76 a7 a8 bb
       0.0015925312 -0.0010484357 -0.0022168686 -0.005146916
000190 07 19 c8 bb 9c 01 72 bb 66 31 b1 bb 9a 0f a3 bb
       -0.006106499 -0.0036927229 -0.0054075 -0.004976225
0001a0 30 d8 02 bb a8 8e e3 ba 8e 57 09 bb 86 cf 5c 3a
       -0.0019965284 -0.001736124 -0.0020956728 0.00084232574
0001b0 6a df b0 3b 0a a1 15 3b c5 7c 7b ba ea ee 13 3b
       0.005397727 0.0022831582 -0.0009593482 0.0022572824
0001c0 f5 ef 11 bb 81 e8 a0 bb a4 bc 13 3a 77 df 05 bb
       -0.002226827 -0.004910529 0.00056357146 -0.0020427385
0001d0 63 3e 69 bb 62 bf 9f 3a 6b 07 92 39 70 eb 4d 39
       -0.0035590164 0.0012187774 0.00027852817 0.00019638031
0001e0 83 71 81 ba 7d e7 b6 ba e3 63 69 ba 32 82 b5 39
       -0.0009875748 -0.0013954487 -0.0008903129 0.00034620013
0001f0 b9 d3 89 ba c8 f4 ca ba 65 3d ad 3a 09 29 b9 ba
       -0.0010515369 -0.0015484327 0.001321715 -0.0014126609
000200 0d b2 9e 39 ef 2e 31 bc fb 6b 42 bc b5 c5 10 bc
       0.00030268767 -0.0108144125 -0.011866565 -0.0088361995
000210 33 9d a0 bb 88 9d a7 bb 0a 5b a4 bb b7 47 1b bb
       -0.004901552 -0.0051152147 -0.0050157355 -0.0023693868
000220 23 67 d5 b9 10 02 80 ba 8e 31 2f bb 0a 2a b6 ba
       -0.0004070337 -0.000976624 -0.0026732418 -0.0013898027
000230 cf 82 cb ba 5e f3 11 bb ae d1 6d ba bf 65 de b9
       -0.0015526655 -0.0022270302 -0.0009072077 -0.00042418946
000240 fb 66 b8 3a 95 c7 2d 3b da 13 09 3b aa 87 89 b9
       0.0014068777 0.0026516665 0.0020916373 -0.00026231754
000250 4c ab 43 b9 6b 92 1f 3a 73 97 f9 3a 84 54 50 b9
       -0.00018660462 0.00060871866 0.0019042328 -0.0001986791
000260 f7 df c8 b9 60 a9 ae bb ed c0 cf bb b8 09 38 bb
       -0.0003831384 -0.0053302497 -0.006340137 -0.0028081965
000270 c5 14 ad bb ce e3 02 bc db 57 02 bc a3 0e c2 3a
       -0.005282017 -0.007988883 -0.007955517 0.0014805387
000280 54 86 0a 3b c4 a4 13 3b ad 5f 5b 3a f8 80 52 38
       0.0021137195 0.0022528628 0.0008368444 5.0188013e-05
000290 19 d0 84 39 7a 9f db b9 f7 e8 be b9 5f ec 98 38
       0.00025332047 -0.00041889754 -0.00036413196 7.291952e-05
0002a0 ca f3 b0 b9 ae aa 5d 39 0b 22 e6 39 ec 44 3c 3b
       -0.00033750973 0.00021139786 0.00043894383 0.0028727604
0002b0 79 e9 2c ba e5 a0 9b ba bd ef 59 bb 82 e2 65 bb
       -0.00065960694 -0.0011873512 -0.0033254467 -0.0035077636
0002c0 e1 27 45 bb 11 44 1f 3b 22 6e ae 3a e0 c3 d0 3a
       -0.0030083584 0.0024302045 0.0013307969 0.0015927516
0002d0 4b 2a dd b7 2c 64 69 ba 3f a4 76 3a 88 88 17 ba
       -2.6364947e-05 -0.00089031714 0.000940863 -0.00057805376
0002e0 15 30 b4 ba 02 47 50 b9 53 da b9 3a d0 f2 d4 38
       -0.001374724 -0.00019862878 0.0014179446 0.00010154175
0002f0 9c 57 9c b9 d0 2d f3 3b b3 ee 42 3c 5e 66 80 3c
       -0.00029819913 0.0074212328 0.011897731 0.015673812
000300 5b d6 73 bb 43 61 8a 3b 33 91 9a 3c 68 09 5a 3c
       -0.0037206623 0.0042230203 0.018868065 0.013307907
000310 9b 61 c3 3c b5 be f5 3c 69 f7 5c bc 79 42 64 bc
       0.023850253 0.029998163 -0.013486722 -0.013931864
000320 e8 f6 39 bc 79 20 8b bb 17 4c d0 ba 8d b5 41 39
       -0.011350371 -0.0042458144 -0.0015891817 0.00018473547
000330 45 e1 24 b9 10 92 a0 ba 5e 95 20 3b 6b b7 14 3d
       -0.00015724178 -0.0012250561 0.0024503092 0.036307734
000340 06 ec 16 3d 81 fb 03 3d f2 fe df ba 3c ab 59 bb
       0.036846183 0.032222275 -0.001708953 -0.0033213636
000350 58 81 aa bb 43 45 34 3c 82 ec 83 3c 13 83 90 3c
       -0.0052034073 0.011002841 0.016103987 0.017640626
000360 40 ab 07 ba 3c d8 94 3a 07 0b 41 b7 46 59 5d ba
       -0.00051753595 0.0011355947 -1.1506264e-05 -0.0008443784
000370 d3 01 b0 ba 30 bc e7 ba b6 9f e7 ba 0b f0 95 3a
       -0.0013428278 -0.0017679986 -0.0017671499 0.0011439336
000380 ae 7e c6 3a 37 da 91 bc 78 f3 99 bc 7d b9 a1 bc
       0.0015143955 -0.017804248 -0.018792853 -0.019741768
000390 bb 87 c1 bb 18 33 ec bb 66 e5 b4 bb 7b c5 76 3b
       -0.005906073 -0.0072082393 -0.0055205105 0.0037654329
0003a0 f0 ee 02 3b 38 90 9c 3b 03 6b 92 bc dc d8 92 bc
       0.0019978844 0.0047779344 -0.017873293 -0.017925672
0003b0 4e 5c 8b bc 38 c3 29 bc b8 5d 52 bb 57 9f f8 b9
       -0.017011788 -0.010361485 -0.0032099318 -0.00047420964
0003c0 f1 e5 ae 3c ca a9 b0 3c 11 b8 f4 3c a2 3f d1 3b
       0.021349879 0.021565337 0.029872926 0.0063857595
0003d0 a7 ca bd 3b 8e 60 ef 3b f3 2a 19 ba 56 ab 91 b9
       0.0057919803 0.0073052114 -0.0005842887 -0.0002778421
0003e0 f9 22 84 3a d8 e3 e3 3b 64 1b 04 3c 10 a3 2c 3c
       0.0010081223 0.0069546513 0.008063171 0.010536924
0003f0 cb 12 71 3b 27 4a b5 3b c4 64 a7 3b ad 3f 64 3a
       0.0036784883 0.0055325213 0.0051084477 0.0008706998

tfeb.8.weight f4 [16]
000000 67 d1 5c bd f5 18 94 3d e6 c6 09 3c cd 24 f4 3c
       -0.05391064 0.07231323 0.0084092375 0.029802704
000010 a7 c7 a7 39 81 51 fa 3d 93 8f 64 3d 42 09 4e 3d
       0.00032001475 0.12222577 0.055800986 0.050301798
000020 1e 52 d6 3c 81 a1 25 3b aa b0 bd ba 84 f3 ac 3b
       0.026162203 0.0025273266 -0.0014472206 0.0052780528
000030 18 9f aa 3d ff d2 99 3c d0 71 13 3e e7 13 a9 bc
       0.08331126 0.018777369 0.14398885 -0.020639373

tfeb.8.bias f4 [16]
000000 4b fb 74 3c 58 87 80 3c fc e8 62 bc e4 3d 40 bc
       0.014952491 0.015689537 -0.013849493 -0.011733506
000010 a2 00 36 bc 66 10 1a 3d 34 25 22 3d 20 5d 0c bd
       -0.011108549 0.037613295 0.03958626 -0.0342685
000020 e6 03 3f 3b 9f ae 82 bc 25 40 80 bb b9 a8 1f bc
       0.002914661 -0.015952406 -0.0039138966 -0.009744816
000030 e7 ed 42 3d 01 67 89 bc b8 0c 4e 3d 66 28 03 bc
       0.047590163 -0.016772749 0.0503051 -0.008005237

tfeb.8.running_mean f4 [16]
000000 84 74 5d bc f6 e2 5f bb 09 0d 2b ba 0d 8f 5c bb
       -0.013516549 -0.003416238 -0.0006525075 -0.00336546
000010 64 68 df 3a 10 46 4c bd b8 86 04 3c 98 a5 7c bc
       0.0017044661 -0.049871504 0.00808876 -0.01542034
000020 3f c3 d9 bb 68 c7 ca 3b 64 f7 1c 3a 14 a7 0e bb
       -0.0066455896 0.006188322 0.0005987792 -0.0021767067
000030 3f 79 87 3c 07 bf 73 bb 0c 85 5e bd 57 ef 98 bb
       0.016537307 -0.0037192719 -0.054326102 -0.0046672034

tfeb.8.running_var f4 [16]
000000 e6 35 65 38 45 19 4d 39 18 60 9d 35 28 7e 7d 37
       5.464805e-05 0.00019559737 1.1725378e-06 1.5109348e-05
000010 65 02 ff 35 ef 86 7c 3a 66 1f 0b 39 d0 4c 6c 39
       1.8999677e-06 0.0009633144 0.0001326777 0.00022535329
000020 0a 4b 44 38 49 a5 73 37 45 a0 50 34 6b c0 31 36
       4.6799927e-05 1.4522412e-05 1.9429815e-07 2.6487057e-06
000030 47 ba 9f 39 f0 53 b9 36 ec 12 d5 3a 10 f6 10 37
       0.0003046563 5.5232013e-06 0.001625625 8.64036e-06

tfeb.11.weight f4 [26, 16, 3, 3]
000000 e8 c4 d3 37 39 8e 30 ba be 8b dc b9 41 ae 6f ba
       2.5244852e-05 -0.000673506 -0.00042065786 -0.00091430923
000010 5d ec 5f ba 7a 4f 15 bb 50 72 23 ba 57 e1 ac b8
       -0.0008541996 -0.0022782967 -0.00062349904 -8.243572e-05
000020 09 f5 d7 b9 de 61 c8 b9 8d 9c 68 3a b5 42 ce b9
       -0.0004119056 -0.0003821989 0.00088734255 -0.00039341082
000030 8a f7 4c 3a 6d 9b 0d 3b de 95 fe 3a ba 65 b7 ba
       0.00078188686 0.0021607534 0.0019423326 -0.0013992109
000040 d8 d0 8a ba 15 a4 14 bb 84 e8 1f 39 7c 76 7a b9
       -0.0010590805 -0.0022680808 0.0001525004 -0.00023885997
000050 b8 84 c8 b9 a7 49 ff b9 ce c3 15 ba 64 2d 4f 38
       -0.00038245856 -0.00048692265 -0.0005713076 4.939492e-05
000060 c3 91 a9 37 fd eb 50 b9 1a 41 0a ba 87 c9 c8 37
       2.0214246e-05 -0.00019924338 -0.0005273983 2.3935701e-05
000070 5e 07 c6 39 39 a0 9e 37 2f f6 e1 37 2b 65 97 b9
       0.00037770992 1.8909677e-05 2.6936728e-05 -0.0002887634
000080 c8 5b ea b9 9d dc af b8 6a dc 0a 3a 2b 90 bd 39
       -0.0004470034 -8.385743e-05 0.00052971265 0.00036156303
000090 5e 5d 1b ba 2b 5e b3 38 6d ba 8c ba 07 7d 17 ba
       -0.00059266936 8.552925e-05 -0.0010736712 -0.00057788234
0000a0 ef dc 82 39 1a 3b 47 b9 73 67 d1 ba 45 ae 5d ba
       0.0002496014 -0.00019000136 -0.0015976265 -0.0008456449
0000b0 3e c3 df ba 21 9b 16 bb 54 14 21 bb 91 ec 1c bb
       -0.0017071737 -0.0022980648 -0.0024578767 -0.0023944716
0000c0 fb 28 fe ba 7d 32 82 ba ec 60 f0 ba 6e 16 85 3a
       -0.0019390875 -0.000993326 -0.0018339432 0.0010153779
0000d0 2b 71 9f 3a 78 8c 69 3a 32 e9 09 3a 31 de ba ba
       0.0012164464 0.0008909176 0.0005260884 -0.0014256892
0000e0 2e 27 27 ba ee 56 03 3b 81 9c 0c 3a d2 da c8 3a
       -0.00063763827 0.0020040828 0.0005363897 0.0015324003
0000f0 23 64 da 39 f1 4f 05 3a 7e e0 86 3a fd a0 8c ba
       0.00041654808 0.00050854596 0.0010290293 -0.0010729131
000100 ac e1 a7 ba 58 a4 9c ba 26 fc 85 39 91 0e b2 b9
       -0.0012808344 -0.0011950834 0.00025555602 -0.00033961658
000110 05 3b 03 3a b7 bf d1 3a 61 60 91 ba 18 9d 18 3a
       0.0005006048 0.001600257 -0.0011091345 0.00058217486
000120 49 c6 23 39 6d d5 69 39 1e 3b ca b9 4c 8d cf b8
       0.00015618758 0.00022300119 -0.00038572488 -9.896848e-05
000130 ba 9a 3e b9 20 05 50 ba ad 77 5a b9 17 e5 49 ba
       -0.00018177452 -0.0007935334 -0.00020834683 -0.00077016786
000140 49 81 a2 ba 04 2e 7c ba 33 5c 6f 3a 2e 6d 41 b8
       -0.0012398149 -0.0009619894 0.0009130865 -4.6116467e-05
000150 c4 a0 60 3a 2a 1d ed 3a 7a dd 9f 3a 1c 49 0e 3b
       0.0008568878 0.0018090357 0.0012196742 0.0021711057
000160 34 b3 6e 3b 5e f8 d8 39 8a 61 a0 ba e8 38 9f ba
       0.0036422731 0.00041383778 -0.00122361 -0.0012147697
000170 39 cc 98 ba 62 3e 77 b9 cb 80 31 ba e4 94 88 ba
       -0.0011657543 -0.00023578995 -0.0006771206 -0.001042035
000180 cf d3 5a 3a e2 5e 6a 39 ea 3b 07 ba f7 83 fa b9
       0.0008347602 0.00022351326 -0.0005158769 -0.00047782037
000190 70 81 95 b9 05 8d 17 ba 69 ca df b7 35 c6 fd 39
       -0.00028515933 -0.00057812064 -2.6677926e-05 0.00048403596
0001a0 56 72 15 ba 0a 62 5c b9 8d a7 95 b9 51 ae a7 ba
       -0.00057009363 -0.00021017357 -0.0002854433 -0.0012793039
0001b0 1a b8 5e ba 75 d1 e8 39 5f cb 25 bb cd a4 b8 3a
       -0.0008496061 0.00044406546 -0.002529822 0.00140872
0001c0 2d 59 08 3b fd d7 78 ba 7f d1 9e 3b b5 ea 1e 3b
       0.0020805106 -0.0009492634 0.004846751 0.0024248783
0001d0 1e e3 03 ba c1 cc 35 ba 6c 1d 9c ba f7 cf b3 ba
       -0.00050310965 -0.0006935113 -0.0011910624 -0.0013718595
0001e0 35 d1 d3 39 20 ea be 39 9d 03 a6 3a c5 89 60 b9
       0.00040400928 0.0003641406 0.0012665872 -0.00021413628
0001f0 9e 72 29 3a 85 da 9e 3a 72 bc 30 bb d3 d0 d6 ba
       0.00064639177 0.0012119567 -0.002696779 -0.0016389139
000200 2f 82 53 bb 2a d7 70 bb bf a1 5b bb 93 16 8c bb
       -0.003227364 -0.0036749342 -0.0033513156 -0.004275152
000210 98 89 c3 b8 e9 01 1a bb 49 aa 12 bb dd 0c ca 39
       -9.3239534e-05 -0.0023499674 -0.002237933 0.00038538026
000220 e6 02 93 3a 3a ee cd b8 a9 c4 d2 3a 88 9d fb 3a
       0.0011216074 -9.819535e-05 0.0016080338 0.0019196728
000230 e8 27 60 3a e9 57 bc 3a 5f 95 ba 39 a1 d7 95 39
       0.00085508684 0.0014369461 0.00035587975 0.0002858015
000240 a9 dd d2 ba 4e 86 c5 3a d0 68 a2 3b 34 fc 17 3c
       -0.0016087788 0.0015069933 0.0049563423 0.0092764385
000250 9d 73 4e 3c 9a 30 7e 3c 1a 0b 16 bb 16 0d 81 3a
       0.012600807 0.015514517 -0.00228948 0.0009845819
000260 1c 2c aa 3b c0 a0 d2 3b 7b de 76 3c f0 47 71 3c
       0.0051932465 0.0064278543 0.015067692 0.014726624
000270 d6 df f8 3a 77 5b fe 3b 61 bc fd 3b ba 4f ff bb
       0.0018987607 0.0077623683 0.007743404 -0.0077914866
000280 ef 66 1b bc c5 56 0b bc da 8a 8a ba 7e ba 4f 39
       -0.0094849905 -0.008504574 -0.0010569945 0.00019810532
000290 90 ba 64 ba c0 35 b7 39 d2 43 ee 3a 78 7c cb 39
       -0.000872531 0.00034944527 0.0018178171 0.00038811914
0002a0 f1 2a df b9 11 f5 3c 3a 35 4e 0e b9 09 20 88 3a
       -0.00042565868 0.00072081486 -0.0001357131 0.0010385524
0002b0 45 64 06 3b 1c 98 d6 3a 0d e7 44 3b 21 5b 54 3b
       0.0020506543 0.0016372236 0.0030044944 0.003240295
0002c0 44 5b 18 3b d1 e2 01 3b 1e 45 8b 3b 16 5e a2 3b
       0.0023247758 0.001981903 0.004250183 0.0049550636
0002d0 95 fd 04 ba 8f 5b 9d ba 81 4c e6 ba cc c8 de ba
       -0.0005073187 -0.0012005436 -0.0017570407 -0.0016997098
0002e0 1e fb c7 ba 4c 9a 14 bb fe 50 9d b8 a5 3b 63 3a
       -0.0015257334 -0.0022674976 -7.501429e-05 0.00086682505
0002f0 c0 c9 a9 39 9a 8b 0a bd 1d 2f de bc 30 f7 08 bd
       0.00032384507 -0.03382454 -0.027122075 -0.03343886
000300 af bc 1f bc 81 8b 91 bb 7d 0a dd bb 8a 5d ac bb
       -0.0097495755 -0.004441679 -0.006745635 -0.005260174
000310 38 28 e7 ba 2a 88 6a ba 83 02 df 3b ef c4 3e 3c
       -0.0017635887 -0.00089466816 0.0068057193 0.011643632
000320 38 fc 7d 3c ed aa 38 3b 59 42 d9 3b 3a 62 0a 3c
       0.015502028 0.0028178052 0.0066302237 0.008446271
000330 dc 9c 37 ba 20 e8 9e ba 0e 73 1f 3b 0b 00 4d 3c
       -0.000700427 -0.0012123622 0.0024330053 0.012512217
000340 cc 98 54 3c 57 08 57 3c 7e e9 e9 3b cf 77 03 3c
       0.012975883 0.013124547 0.00713843 0.00802417
000350 ea d4 0a 3c 18 02 0c 3a c4 f1 43 3a 57 7a a3 3a
       0.008473614 0.0005340888 0.00074746856 0.0012472373
000360 c3 04 ae ba 13 37 d6 ba 54 c9 0f bb 2f dd ca 39
       -0.0013276566 -0.0016343318 -0.002194007 0.00038693237
000370 af 3a 7d ba 26 e0 de 39 b0 32 bc 39 e9 cb d5 b9
       -0.00096599286 0.00042510143 0.0003589592 -0.0004077845
000380 8c ef 0e b8 48 86 46 3b a5 a7 c6 3a 95 e0 1d 3b
       -3.4078534e-05 0.003029244 0.0015156163 0.002409016
000390 e9 12 b0 ba 8f 23 b9 ba 34 41 dd ba 2b 43 34 bb
       -0.001343337 -0.0014124977 -0.0016880394 -0.0027505856
0003a0 30 ef a8 b8 ca 3a 39 bb 5f e4 21 bb dc f9 72 ba
       -8.0554164e-05 -0.00282638 -0.002470277 -0.00092687993
0003b0 63 0f 43 b9 fe bd 06 bb a3 8a 85 b9 83 49 d5 39
       -0.00018602381 -0.0020560022 -0.0002547103 0.00040681296
0003c0 63 01 4b ba e7 95 9b b9 43 47 de b9 c1 de a3 3a
       -0.0007744042 -0.0002967559 -0.00042396234 0.0012502299
0003d0 89 30 1d b9 f0 41 44 ba a5 12 c2 3a 08 bb c5 b9
       -0.00014990768 -0.0007486632 0.0014806582 -0.00037714117
0003e0 a8 98 50 38 95 47 2a 3a 1f cc 2a b9 5c dd 7e 39
       4.9733237e-05 0.0006495652 -0.00016288504 0.0002430579
0003f0 92 fc 24 3c 03 75 92 3c 67 0f ab 3c 90 b4 15 3b
       0.010069983 0.017878061 0.020881368 0.002284322

tfeb.12.weight f4 [26]
000000 e0 aa 52 3b 38 55 ae 3d 8e c8 3d 3d 64 09 04 3d
       0.0032145306 0.08512348 0.046333842 0.032235518
000010 fa 22 96 3c 36 76 39 3c b2 b0 de 3b 7c a3 57 3c
       0.018327225 0.011319688 0.006795966 0.013161536
000020 9d 04 c2 3c 1b df 1e 3d 12 e6 f7 3c c4 ff b3 3d
       0.02368384 0.03878699 0.030261073 0.08789018
000030 d3 26 fa 3a d2 93 09 3c 7f e0 95 3d 9d 56 3a 3b
       0.0019085057 0.0083970595 0.0731821 0.0028432973
000040 6a 07 44 3d b4 05 90 3b aa e1 eb 3c b8 12 d1 3c
       0.047858633 0.004395211 0.028794128 0.025521621
000050 a7 dc 9a 3d 97 a6 a3 3d 30 0b 80 3d 2e 3f a8 3d
       0.07561617 0.07990759 0.06252134 0.082151756
000060 13 28 65 3c 31 87 06 3d
       0.013986605 0.032843772

tfeb.12.bias f4 [26]
000000 7a 80 98 bb e3 13 21 bd 72 e9 d2 3c 2f f9 8c 3c
       -0.0046539875 -0.039325606 0.025746081 0.017208664
000010 42 51 a5 bb 4d bd 0d bc f4 2b 46 bd 37 01 d7 bb
       -0.005045087 -0.00865109 -0.04838176 -0.006561424
000020 87 f4 cc 3b 6b db d1 3b 94 32 bf 3c 25 b8 77 bc
       0.006254736 0.0064043305 0.023339547 -0.015119587
000030 42 4b 7a bb a8 02 0c bb ea 77 ae 3c 3d 6b b2 bc
       -0.003819183 -0.0021363888 0.021297414 -0.02177965
000040 d2 2d 9b bc 92 d9 e0 bb a3 51 d7 3b f1 fd c2 3c
       -0.018942747 -0.006861874 0.006571011 0.02380273
000050 a6 b4 00 3d ce 56 bc bc ac 63 3f 3c 06 44 2e 3d
       0.03142228 -0.02299061 0.0116814785 0.04254534
000060 9b 26 10 3a a1 40 e8 bb
       0.0005498917 -0.0070877825

tfeb.12.running_mean f4 [26]
000000 94 57 2f bb b2 e7 11 bc d4 c7 89 3a ce b6 86 bb
       -0.0026755081 -0.008905338 0.0010511824 -0.0041111475
000010 88 4a 2d ba 68 76 a0 bb 31 53 4a bc fb 25 0a bc
       -0.00066105323 -0.0048969276 -0.012348936 -0.008431907
000020 f1 a5 bb bb c8 c3 3a bb 18 a1 0b 3c 95 78 2e bd
       -0.005726569 -0.0028498042 0.008522294 -0.042595465
000030 9c c9 6e bb 10 f2 24 bb d2 69 83 3c 02 90 c8 3b
       -0.0036436087 -0.0025168695 0.01604167 0.0061206827
000040 a0 8b e4 bb bc 05 f8 ba 80 44 49 3b 60 8a e2 3b
       -0.0069746524 -0.0018922607 0.0030710995 0.0069134682
000050 92 ed 80 bb f9 54 8c 3a b4 72 da bb e7 55 a9 b9
       -0.0039345706 0.0010706476 -0.0066665057 -0.00032298194
000060 24 0a 2f bc 5d 37 19 b9
       -0.01068357 -0.00014611841

tfeb.12.running_var f4 [26]
000000 b1 87 07 37 16 4b 17 3a e5 8a 2e 3a 0b 92 a0 39
       8.07822e-06 0.00057713815 0.000665827 0.0003062639
000010 a8 59 da 37 f8 e0 54 38 fe 50 53 39 1c 03 77 38
       2.6029375e-05 5.0754257e-05 0.000201527 5.8892285e-05
000020 2b 9f 0e 39 ff 49 b9 39 9a 24 15 39 b7 5a a6 39
       0.0001360147 0.0003534108 0.00014223382 0.00031729575
000030 97 c7 6d 37 57 7e 97 36 d2 5e 8b 3a ab 96 33 39
       1.4172771e-05 4.5148586e-06 0.0010633117 0.00017126898
000040 41 eb 8a 39 36 40 61 36 2c 0b 4d 39 75 54 1e 39
       0.0002649669 3.3564988e-06 0.00019554485 0.00015099517
000050 42 36 ad 3a 1a e7 23 3a b1 57 93 3a 02 70 08 3b
       0.0013215023 0.00062523934 0.0011241344 0.0020818715
000060 d8 6b 6a 38 1e a3 c5 38
       5.5890385e-05 9.424075e-05
