refine_codes/has_qat_models/qat_model_0.6_0.85_ratio_acc_96.5_20240221180921_total_epochs_120.tflite (tflite, 80904 bytes, 12 tensors)

fuse_attr_3 i1 [4, 1, 9, 1] scale=0.038197633 zero_point=0
000000 fe 03 0a f1 05 d4 ed 17 26 18 0b 07 f7 02 f3 0b
       -0.076395266 0.114592895 0.38197634 -0.5729645 0.19098817 -1.6806959 -0.72575504 0.8785456 1.4515101 0.91674316 0.42017397 0.26738343 -0.3437787 0.076395266 -0.49656922 0.42017397
000010 ff e2 03 07 f8 04 00 0d 25 e3 e6 11 10 f3 1e bd
       -0.038197633 -1.145929 0.114592895 0.26738343 -0.30558106 0.15279053 0.0 0.49656922 1.4133124 -1.1077313 -0.99313843 0.64935976 0.6111621 -0.49656922 1.145929 -2.5592413
000020 33 05 b5 2b
       1.9480792 0.19098817 -2.8648224 1.6424983

fuse_attr_7 i1 [15, 3, 3, 14] scale=0.005602522 zero_point=0
000000 f0 eb ff f4 17 03 ec 10 0a ff f8 14 0c 18 f4 ef
       -0.08964035 -0.11765296 -0.005602522 -0.06723026 0.128858 0.016807565 -0.11205044 0.08964035 0.05602522 -0.005602522 -0.044820175 0.11205044 0.06723026 0.13446052 -0.06723026 -0.09524287
000010 f2 00 03 ff fd f8 14 fe ff 17 04 05 02 f9 f8 ff
       -0.0784353 0.0 0.016807565 -0.005602522 -0.016807565 -0.044820175 0.11205044 -0.011205044 -0.005602522 0.128858 0.022410087 0.02801261 0.011205044 -0.03921765 -0.044820175 -0.005602522
000020 f7 02 03 e9 09 fe 07 0b 01 ed 09 14 f5 f5 f9 03
       -0.0504227 0.011205044 0.016807565 -0.128858 0.0504227 -0.011205044 0.03921765 0.06162774 0.005602522 -0.10644791 0.0504227 0.11205044 -0.06162774 -0.06162774 -0.03921765 0.016807565
000030 0c 1c f3 00 df ea 03 1b 03 09 e7 00 fa 00 fb 04
       0.06723026 0.1568706 -0.072832786 0.0 -0.18488322 -0.12325548 0.016807565 0.1512681 0.016807565 0.0504227 -0.14006305 0.0 -0.03361513 0.0 -0.02801261 0.022410087
000040 f0 ff e9 f0 01 0f 00 02 e0 00 fc fa f9 ef fc ff
       -0.08964035 -0.005602522 -0.128858 -0.08964035 0.005602522 0.084037825 0.0 0.011205044 -0.1792807 0.0 -0.022410087 -0.03361513 -0.03921765 -0.09524287 -0.022410087 -0.005602522
000050 e1 f5 f9 f6 f3 f7 11 f8 17 f8 f2 00 06 ff 28 0f
       -0.17367817 -0.06162774 -0.03921765 -0.05602522 -0.072832786 -0.0504227 0.09524287 -0.044820175 0.128858 -0.044820175 -0.0784353 0.0 0.03361513 -0.005602522 0.22410087 0.084037825
000060 00 00 f9 f8 0c ff 01 f7 f9 f9 07 fe 20 01 01 ff
       0.0 0.0 -0.03921765 -0.044820175 0.06723026 -0.005602522 0.005602522 -0.0504227 -0.03921765 -0.03921765 0.03921765 -0.011205044 0.1792807 0.005602522 0.005602522 -0.005602522
000070 03 03 13 00 f0 fc 0a f6 fb fe 18 ff fb f4 05 fb
       0.016807565 0.016807565 0.10644791 0.0 -0.08964035 -0.022410087 0.05602522 -0.05602522 -0.02801261 -0.011205044 0.13446052 -0.005602522 -0.02801261 -0.06723026 0.02801261 -0.02801261
000080 05 00 fe ff 05 01 00 01 0e f9 fe 09 03 fe 11 01
       0.02801261 0.0 -0.011205044 -0.005602522 0.02801261 0.005602522 0.0 0.005602522 0.0784353 -0.03921765 -0.011205044 0.0504227 0.016807565 -0.011205044 0.09524287 0.005602522
000090 ff ff 0c 01 fa fa 11 fc fa 0a 00 05 03 02 02 fe
       -0.005602522 -0.005602522 0.06723026 0.005602522 -0.03361513 -0.03361513 0.09524287 -0.022410087 -0.03361513 0.05602522 0.0 0.02801261 0.016807565 0.011205044 0.011205044 -0.011205044
0000a0 02 04 fe 02 07 fc fb 02 fe fc 0a 01 ff ff 03 00
       0.011205044 0.022410087 -0.011205044 0.011205044 0.03921765 -0.022410087 -0.02801261 0.011205044 -0.011205044 -0.022410087 0.05602522 0.005602522 -0.005602522 -0.005602522 0.016807565 0.0
0000b0 01 01 0a 03 fc 0b 04 fd 1a 00 00 ff 09 02 05 03
       0.005602522 0.005602522 0.05602522 0.016807565 -0.022410087 0.06162774 0.022410087 -0.016807565 0.14566557 0.0 0.0 -0.005602522 0.0504227 0.011205044 0.02801261 0.016807565
0000c0 15 00 fa 07 fe 05 0f 01 02 02 00 03 01 04 1c f9
       0.11765296 0.0 -0.03361513 0.03921765 -0.011205044 0.02801261 0.084037825 0.005602522 0.011205044 0.011205044 0.0 0.016807565 0.005602522 0.022410087 0.1568706 -0.03921765
0000d0 fa 06 f6 fb 03 ff fd fe 03 02 00 00 ff f6 fb 0a
       -0.03361513 0.03361513 -0.05602522 -0.02801261 0.016807565 -0.005602522 -0.016807565 -0.011205044 0.016807565 0.011205044 0.0 0.0 -0.005602522 -0.05602522 -0.02801261 0.05602522
0000e0 ff fc 06 01 01 fb fc 02 01 01 04 fd fa 09 fe 04
       -0.005602522 -0.022410087 0.03361513 0.005602522 0.005602522 -0.02801261 -0.022410087 0.011205044 0.005602522 0.005602522 0.022410087 -0.016807565 -0.03361513 0.0504227 -0.011205044 0.022410087
0000f0 08 02 03 fe f9 05 02 01 fa 01 fa 04 f7 fd 09 00
       0.044820175 0.011205044 0.016807565 -0.011205044 -0.03921765 0.02801261 0.011205044 0.005602522 -0.03361513 0.005602522 -0.03361513 0.022410087 -0.0504227 -0.016807565 0.0504227 0.0

fuse_attr_6 i1 [14, 3, 3, 12] scale=0.004082569 zero_point=0
000000 01 02 f6 03 fd 01 ff f9 14 0e 00 08 02 fc f5 07
       0.004082569 0.008165138 -0.040825687 0.012247707 -0.012247707 0.004082569 -0.004082569 -0.028577983 0.081651375 0.057155967 0.0 0.03266055 0.008165138 -0.016330276 -0.04490826 0.028577983
000010 ff fe 00 fa 1c 08 ff 0d 09 f0 fa 0c fe 01 00 fa
       -0.004082569 -0.008165138 0.0 -0.024495414 0.11431193 0.03266055 -0.004082569 0.053073395 0.03674312 -0.0653211 -0.024495414 0.048990827 -0.008165138 0.004082569 0.0 -0.024495414
000020 13 fc 00 0a 19 07 fd 1e 08 01 ff 08 f9 02 00 03
       0.07756881 -0.016330276 0.0 0.040825687 0.10206422 0.028577983 -0.012247707 0.12247707 0.03266055 0.004082569 -0.004082569 0.03266055 -0.028577983 0.008165138 0.0 0.012247707
000030 14 fd ff 15 0b 01 00 0a 1a 09 ff 0b 0f f8 05 15
       0.081651375 -0.012247707 -0.004082569 0.08573395 0.04490826 0.004082569 0.0 0.040825687 0.10614679 0.03674312 -0.004082569 0.04490826 0.061238535 -0.03266055 0.020412844 0.08573395
000040 0a 01 00 08 04 f7 ff fc 0c 0b 04 f9 ec fd fe ee
       0.040825687 0.004082569 0.0 0.03266055 0.016330276 -0.03674312 -0.004082569 -0.016330276 0.048990827 0.04490826 0.016330276 -0.028577983 -0.081651375 -0.012247707 -0.008165138 -0.07348624
000050 16 18 00 0a ef 01 07 f9 f1 f9 fb ef 0f 00 00 1c
       0.08981652 0.097981654 0.0 0.040825687 -0.06940367 0.004082569 0.028577983 -0.028577983 -0.061238535 -0.028577983 -0.020412844 -0.06940367 0.061238535 0.0 0.0 0.11431193
000060 02 00 0c fd ee f9 fa f5 04 fe 00 0a 1c 20 1e 16
       0.008165138 0.0 0.048990827 -0.012247707 -0.07348624 -0.028577983 -0.024495414 -0.04490826 0.016330276 -0.008165138 0.0 0.040825687 0.11431193 0.1306422 0.12247707 0.08981652
000070 f1 05 03 02 f3 05 00 f2 1c 18 02 08 f3 02 02 f5
       -0.061238535 0.020412844 0.012247707 0.008165138 -0.053073395 0.020412844 0.0 -0.057155967 0.11431193 0.097981654 0.008165138 0.03266055 -0.053073395 0.008165138 0.008165138 -0.04490826
000080 fc 0e 00 f9 0a 01 e7 00 f7 ff fe ec fb 05 00 f9
       -0.016330276 0.057155967 0.0 -0.028577983 0.040825687 0.004082569 -0.10206422 0.0 -0.03674312 -0.004082569 -0.008165138 -0.081651375 -0.020412844 0.020412844 0.0 -0.028577983
000090 1f 1e 20 02 f8 02 03 10 ff 11 00 e9 1e 12 04 0a
       0.12655963 0.12247707 0.1306422 0.008165138 -0.03266055 0.008165138 0.012247707 0.0653211 -0.004082569 0.06940367 0.0 -0.093899086 0.12247707 0.07348624 0.016330276 0.040825687
0000a0 f7 00 02 fe f6 11 00 f1 08 fc f2 01 f3 ff 01 e9
       -0.03674312 0.0 0.008165138 -0.008165138 -0.040825687 0.06940367 0.0 -0.061238535 0.03266055 -0.016330276 -0.057155967 0.004082569 -0.053073395 -0.004082569 0.004082569 -0.093899086
0000b0 ff 04 00 f7 14 13 15 06 f4 00 02 ff f9 06 00 f1
       -0.004082569 0.016330276 0.0 -0.03674312 0.081651375 0.07756881 0.08573395 0.024495414 -0.048990827 0.0 0.008165138 -0.004082569 -0.028577983 0.024495414 0.0 -0.061238535
0000c0 15 09 04 06 f5 ff 02 f5 05 0e 00 fb fc fe f9 fd
       0.08573395 0.03674312 0.016330276 0.024495414 -0.04490826 -0.004082569 0.008165138 -0.04490826 0.020412844 0.057155967 0.0 -0.020412844 -0.016330276 -0.008165138 -0.028577983 -0.012247707
0000d0 fd fe 02 f1 f9 03 00 07 fb f4 d3 f0 2a fe fd 22
       -0.012247707 -0.008165138 0.008165138 -0.061238535 -0.028577983 0.012247707 0.0 0.028577983 -0.020412844 -0.048990827 -0.1837156 -0.0653211 0.1714679 -0.008165138 -0.012247707 0.13880734
0000e0 10 0b ff ec ee 01 fb f0 04 01 fe 05 14 f3 ff f6
       0.0653211 0.04490826 -0.004082569 -0.081651375 -0.07348624 0.004082569 -0.020412844 -0.0653211 0.016330276 0.004082569 -0.008165138 0.020412844 0.081651375 -0.053073395 -0.004082569 -0.040825687
0000f0 fe 14 32 f9 ce 06 ff e2 2d 1a ff 05 e6 df bb 1a
       -0.008165138 0.081651375 0.20412844 -0.028577983 -0.20412844 0.024495414 -0.004082569 -0.12247707 0.1837156 0.10614679 -0.004082569 0.020412844 -0.10614679 -0.13472478 -0.28169724 0.10614679

fuse_attr_11 i1 [40, 3, 3, 33] scale=0.0036569855 zero_point=0
000000 f9 fb ff 10 f1 fe 09 00 02 fb f9 00 00 fc 01 f4
       -0.025598899 -0.018284928 -0.0036569855 0.058511768 -0.05485478 -0.007313971 0.03291287 0.0 0.007313971 -0.018284928 -0.025598899 0.0 0.0 -0.014627942 0.0036569855 -0.043883827
000010 02 01 00 fd ff fe 05 fd 00 00 08 01 fa 03 f7 f8
       0.007313971 0.0036569855 0.0 -0.010970957 -0.0036569855 -0.007313971 0.018284928 -0.010970957 0.0 0.0 0.029255884 0.0036569855 -0.021941913 0.010970957 -0.03291287 -0.029255884
000020 02 03 f8 fe ff f7 f2 fe f1 00 f5 f3 ff f9 ff 04
       0.007313971 0.010970957 -0.029255884 -0.007313971 -0.0036569855 -0.03291287 -0.051197797 -0.007313971 -0.05485478 0.0 -0.04022684 -0.04754081 -0.0036569855 -0.025598899 -0.0036569855 0.014627942
000030 fe fc f9 f6 f6 00 fa 06 fb 01 00 fb 01 f9 ff 03
       -0.007313971 -0.014627942 -0.025598899 -0.036569856 -0.036569856 0.0 -0.021941913 0.021941913 -0.018284928 0.0036569855 0.0 -0.018284928 0.0036569855 -0.025598899 -0.0036569855 0.010970957
000040 f3 fe f9 fa 09 06 08 f7 fc f7 05 f9 ef 00 03 ff
       -0.04754081 -0.007313971 -0.025598899 -0.021941913 0.03291287 0.021941913 0.029255884 -0.03291287 -0.014627942 -0.03291287 0.018284928 -0.025598899 -0.062168755 0.0 0.010970957 -0.0036569855
000050 03 fc fd fa f6 ef ed fe f6 f4 f0 03 02 f3 fe fc
       0.010970957 -0.014627942 -0.010970957 -0.021941913 -0.036569856 -0.062168755 -0.06948272 -0.007313971 -0.036569856 -0.043883827 -0.058511768 0.010970957 0.007313971 -0.04754081 -0.007313971 -0.014627942
000060 f7 03 fd e7 ec ff fe 06 fe 04 0d 1c 0d 0d ff 04
       -0.03291287 0.010970957 -0.010970957 -0.09142464 -0.07313971 -0.0036569855 -0.007313971 0.021941913 -0.007313971 0.014627942 0.04754081 0.102395594 0.04754081 0.04754081 -0.0036569855 0.014627942
000070 fb ff ea fd fd f9 f5 f8 ec fa f4 01 11 0b 02 fa
       -0.018284928 -0.0036569855 -0.08045368 -0.010970957 -0.010970957 -0.025598899 -0.04022684 -0.029255884 -0.07313971 -0.021941913 -0.043883827 0.0036569855 0.062168755 0.04022684 0.007313971 -0.021941913
000080 ec f1 ff f9 fa f6 fe fd 0b 06 0a 02 0c 09 f8 ff
       -0.07313971 -0.05485478 -0.0036569855 -0.025598899 -0.021941913 -0.036569856 -0.007313971 -0.010970957 0.04022684 0.021941913 0.036569856 0.007313971 0.043883827 0.03291287 -0.029255884 -0.0036569855
000090 fd 0a 05 01 fb fe f7 fb f7 f1 f2 0c 00 11 07 01
       -0.010970957 0.036569856 0.018284928 0.0036569855 -0.018284928 -0.007313971 -0.03291287 -0.018284928 -0.03291287 -0.05485478 -0.051197797 0.043883827 0.0 0.062168755 0.025598899 0.0036569855
0000a0 fb f1 fb fc f6 01 f7 01 f9 1d f6 f6 04 07 07 f4
       -0.018284928 -0.05485478 -0.018284928 -0.014627942 -0.036569856 0.0036569855 -0.03291287 0.0036569855 -0.025598899 0.10605258 -0.036569856 -0.036569856 0.014627942 0.025598899 0.025598899 -0.043883827
0000b0 f5 fe f6 f8 f8 00 f8 e9 ed ea f4 f2 0f 08 ff 0f
       -0.04022684 -0.007313971 -0.036569856 -0.029255884 -0.029255884 0.0 -0.029255884 -0.08411066 -0.06948272 -0.08045368 -0.043883827 -0.051197797 0.05485478 0.029255884 -0.0036569855 0.05485478
0000c0 e9 36 f0 f7 03 e2 e6 ff f6 f8 fa 09 03 0b 09 07
       -0.08411066 0.19747722 -0.058511768 -0.03291287 0.010970957 -0.10970956 -0.09508162 -0.0036569855 -0.036569856 -0.029255884 -0.021941913 0.03291287 0.010970957 0.04022684 0.03291287 0.025598899
0000d0 14 f6 08 01 fe ed 11 03 12 f5 13 05 1d 03 f9 fc
       0.07313971 -0.036569856 0.029255884 0.0036569855 -0.007313971 -0.06948272 0.062168755 0.010970957 0.06582574 -0.04022684 0.06948272 0.018284928 0.10605258 0.010970957 -0.025598899 -0.014627942
0000e0 0c ff 28 e1 0a f9 05 f8 03 f8 01 f3 04 01 ff f0
       0.043883827 -0.0036569855 0.14627942 -0.11336655 0.036569856 -0.025598899 0.018284928 -0.029255884 0.010970957 -0.029255884 0.0036569855 -0.04754081 0.014627942 0.0036569855 -0.0036569855 -0.058511768
0000f0 0a 0d fe 0c 0b fd fd 16 f9 0d f4 0f 07 1f fa ee
       0.036569856 0.04754081 -0.007313971 0.043883827 0.04022684 -0.010970957 -0.010970957 0.08045368 -0.025598899 0.04754081 -0.043883827 0.05485478 0.025598899 0.11336655 -0.021941913 -0.06582574

fuse_attr_4 i1 [32, 1, 5, 4] scale=0.008052264 zero_point=0
000000 fc 04 03 f8 fb 0d 01 f8 fa 14 01 05 fa 22 04 ff
       -0.032209057 0.032209057 0.024156794 -0.064418115 -0.04026132 0.104679435 0.008052264 -0.064418115 -0.048313588 0.16104528 0.008052264 0.04026132 -0.048313588 0.27377698 0.032209057 -0.008052264
000010 00 1c fc fb f4 2a 0a f9 f6 38 16 08 02 32 04 14
       0.0 0.2254634 -0.032209057 -0.04026132 -0.096627176 0.33819512 0.08052264 -0.05636585 -0.08052264 0.4509268 0.17714982 0.064418115 0.016104529 0.40261322 0.032209057 0.16104528
000020 08 38 fd 08 fe 29 f5 02 fa 1e fe 02 fa 27 03 06
       0.064418115 0.4509268 -0.024156794 0.064418115 -0.016104529 0.33014283 -0.08857491 0.016104529 -0.048313588 0.24156792 -0.016104529 0.016104529 -0.048313588 0.3140383 0.024156794 0.048313588
000030 fc 23 09 04 f9 29 09 03 02 25 fe 03 fa 0a 01 04
       -0.032209057 0.28182924 0.07247038 0.032209057 -0.05636585 0.33014283 0.07247038 0.024156794 0.016104529 0.2979338 -0.016104529 0.024156794 -0.048313588 0.08052264 0.008052264 0.032209057
000040 f7 17 02 08 f5 13 01 07 f0 10 fa fd f7 10 fa fe
       -0.07247038 0.18520208 0.016104529 0.064418115 -0.08857491 0.15299302 0.008052264 0.05636585 -0.12883623 0.12883623 -0.048313588 -0.024156794 -0.07247038 0.12883623 -0.048313588 -0.016104529
000050 ec ee ff ff ef f4 02 ff f3 f1 02 fc f4 fe 0c f3
       -0.16104528 -0.14494076 -0.008052264 -0.008052264 -0.13688849 -0.096627176 0.016104529 -0.008052264 -0.104679435 -0.12078396 0.016104529 -0.032209057 -0.096627176 -0.016104529 0.096627176 -0.104679435
000060 e5 0a 12 f5 17 ea fe ea ec fd ed f4 02 e8 e3 fc
       -0.21741113 0.08052264 0.14494076 -0.08857491 0.18520208 -0.17714982 -0.016104529 -0.17714982 -0.16104528 -0.024156794 -0.15299302 -0.096627176 0.016104529 -0.19325435 -0.23351566 -0.032209057
000070 0b f8 df ff 18 08 d7 12 e6 0c 07 06 fa 10 0f 03
       0.08857491 -0.064418115 -0.26572472 -0.008052264 0.19325435 0.064418115 -0.33014283 0.14494076 -0.20935887 0.096627176 0.05636585 0.048313588 -0.048313588 0.12883623 0.12078396 0.024156794
000080 04 03 f7 fb 0b ef ea 03 16 eb f5 03 ea ec 06 fb
       0.032209057 0.024156794 -0.07247038 -0.04026132 0.08857491 -0.13688849 -0.17714982 0.024156794 0.17714982 -0.16909756 -0.08857491 0.024156794 -0.17714982 -0.16104528 0.048313588 -0.04026132
000090 e8 00 0c fe e0 10 09 ff e2 19 08 fe e2 1a fb 01
       -0.19325435 0.0 0.096627176 -0.016104529 -0.25767246 0.12883623 0.07247038 -0.008052264 -0.24156792 0.20130661 0.064418115 -0.016104529 -0.24156792 0.20935887 -0.04026132 0.008052264
0000a0 f4 f9 01 fb fa f6 fe fb fb ee fb fe ff ee 03 01
       -0.096627176 -0.05636585 0.008052264 -0.04026132 -0.048313588 -0.08052264 -0.016104529 -0.04026132 -0.04026132 -0.14494076 -0.04026132 -0.016104529 -0.008052264 -0.14494076 0.024156794 0.008052264
0000b0 05 f0 f8 02 05 f1 fa ff fe f0 fd fb 01 f7 fa ff
       0.04026132 -0.12883623 -0.064418115 0.016104529 0.04026132 -0.12078396 -0.048313588 -0.008052264 -0.016104529 -0.12883623 -0.024156794 -0.04026132 0.008052264 -0.07247038 -0.048313588 -0.008052264
0000c0 f2 04 fe 06 f1 19 00 f7 05 fd fe 06 ff 01 03 0a
       -0.1127317 0.032209057 -0.016104529 0.048313588 -0.12078396 0.20130661 0.0 -0.07247038 0.04026132 -0.024156794 -0.016104529 0.048313588 -0.008052264 0.008052264 0.024156794 0.08052264
0000d0 01 03 04 fb 06 02 fe f7 05 03 05 fb f7 f8 f8 ee
       0.008052264 0.024156794 0.032209057 -0.04026132 0.048313588 0.016104529 -0.016104529 -0.07247038 0.04026132 0.024156794 0.04026132 -0.04026132 -0.07247038 -0.064418115 -0.064418115 -0.14494076
0000e0 00 f6 f1 21 fc f4 13 28 f9 11 14 db 04 06 e9 d7
       0.0 -0.08052264 -0.12078396 0.26572472 -0.032209057 -0.096627176 0.15299302 0.32209057 -0.05636585 0.13688849 0.16104528 -0.2979338 0.032209057 0.048313588 -0.18520208 -0.33014283
0000f0 f8 fe ff e0 f8 03 f1 e6 f7 fb ee ff f0 fb 07 16
       -0.064418115 -0.016104529 -0.008052264 -0.25767246 -0.064418115 0.024156794 -0.12078396 -0.20935887 -0.07247038 -0.04026132 -0.14494076 -0.008052264 -0.12883623 -0.04026132 0.05636585 0.17714982

fuse_attr_13 i1 [55, 3, 3, 44] scale=0.0032416915 zero_point=0
000000 ff ff ff 02 ff 00 00 00 00 00 ff 00 09 ff 00 ff
       -0.0032416915 -0.0032416915 -0.0032416915 0.006483383 -0.0032416915 0.0 0.0 0.0 0.0 0.0 -0.0032416915 0.0 0.029175224 -0.0032416915 0.0 -0.0032416915
000010 01 00 00 03 ff 05 ff 01 00 ff 07 ff 02 00 01 01
       0.0032416915 0.0 0.0 0.009725074 -0.0032416915 0.016208457 -0.0032416915 0.0032416915 0.0 -0.0032416915 0.02269184 -0.0032416915 0.006483383 0.0 0.0032416915 0.0032416915
000020 ff 02 01 00 f7 01 fe 00 00 03 01 00 00 ff 00 03
       -0.0032416915 0.006483383 0.0032416915 0.0 -0.029175224 0.0032416915 -0.006483383 0.0 0.0 0.009725074 0.0032416915 0.0 0.0 -0.0032416915 0.0 0.009725074
000030 12 ff 00 02 00 01 02 00 00 00 f8 01 00 04 00 03
       0.058350448 -0.0032416915 0.0 0.006483383 0.0 0.0032416915 0.006483383 0.0 0.0 0.0 -0.025933532 0.0032416915 0.0 0.012966766 0.0 0.009725074
000040 01 09 ff 05 00 00 09 ff 04 00 01 05 ff 02 f8 ff
       0.0032416915 0.029175224 -0.0032416915 0.016208457 0.0 0.0 0.029175224 -0.0032416915 0.012966766 0.0 0.0032416915 0.016208457 -0.0032416915 0.006483383 -0.025933532 -0.0032416915
000050 f6 02 fe 00 00 04 07 fe 01 ff 00 00 05 00 00 01
       -0.032416914 0.006483383 -0.006483383 0.0 0.0 0.012966766 0.02269184 -0.006483383 0.0032416915 -0.0032416915 0.0 0.0 0.016208457 0.0 0.0 0.0032416915
000060 00 01 00 00 00 00 f7 03 f5 04 0b 00 02 04 f5 0a
       0.0 0.0032416915 0.0 0.0 0.0 0.0 -0.029175224 0.009725074 -0.035658605 0.012966766 0.035658605 0.0 0.006483383 0.012966766 -0.035658605 0.032416914
000070 01 01 0a 08 07 00 00 08 00 fd 01 ff 00 02 ff 00
       0.0032416915 0.0032416915 0.032416914 0.025933532 0.02269184 0.0 0.0 0.025933532 0.0 -0.009725074 0.0032416915 -0.0032416915 0.0 0.006483383 -0.0032416915 0.0
000080 00 05 0b 00 01 02 fe 01 05 ff 02 03 ff 05 fc fe
       0.0 0.016208457 0.035658605 0.0 0.0032416915 0.006483383 -0.006483383 0.0032416915 0.016208457 -0.0032416915 0.006483383 0.009725074 -0.0032416915 0.016208457 -0.012966766 -0.006483383
000090 00 fd fe 03 fd ff 05 05 04 02 ff 04 f9 ff 02 fc
       0.0 -0.009725074 -0.006483383 0.009725074 -0.009725074 -0.0032416915 0.016208457 0.016208457 0.012966766 0.006483383 -0.0032416915 0.012966766 -0.02269184 -0.0032416915 0.006483383 -0.012966766
0000a0 04 02 00 0a fe fa fb 01 02 ff fb 01 ff 06 06 08
       0.012966766 0.006483383 0.0 0.032416914 -0.006483383 -0.019450149 -0.016208457 0.0032416915 0.006483383 -0.0032416915 -0.016208457 0.0032416915 -0.0032416915 0.019450149 0.019450149 0.025933532
0000b0 ff 02 00 fd 04 08 04 fd ff 02 00 00 01 07 00 01
       -0.0032416915 0.006483383 0.0 -0.009725074 0.012966766 0.025933532 0.012966766 -0.009725074 -0.0032416915 0.006483383 0.0 0.0 0.0032416915 0.02269184 0.0 0.0032416915
0000c0 fd ff ff 02 07 03 00 00 f3 00 f9 05 f2 02 01 01
       -0.009725074 -0.0032416915 -0.0032416915 0.006483383 0.02269184 0.009725074 0.0 0.0 -0.04214199 0.0 -0.02269184 0.016208457 -0.04538368 0.006483383 0.0032416915 0.0032416915
0000d0 ff 05 fd 08 05 ff 03 00 ff 11 03 04 fe ff 02 04
       -0.0032416915 0.016208457 -0.009725074 0.025933532 0.016208457 -0.0032416915 0.009725074 0.0 -0.0032416915 0.055108756 0.009725074 0.012966766 -0.006483383 -0.0032416915 0.006483383 0.012966766
0000e0 02 fe f1 03 00 ff 08 f9 02 04 02 09 01 00 0f 00
       0.006483383 -0.006483383 -0.048625372 0.009725074 0.0 -0.0032416915 0.025933532 -0.02269184 0.006483383 0.012966766 0.006483383 0.029175224 0.0032416915 0.0 0.048625372 0.0
0000f0 08 06 ff fe f4 02 0a 08 fc 00 00 00 fd fb 00 06
       0.025933532 0.019450149 -0.0032416915 -0.006483383 -0.038900297 0.006483383 0.032416914 0.025933532 -0.012966766 0.0 0.0 0.0 -0.009725074 -0.016208457 0.0 0.019450149

fuse_attr_10 i1 [33, 3, 3, 27] scale=0.0024574874 zero_point=0
000000 01 07 fb 00 06 00 15 fe 1d ff 13 fd fb fe 0f 03
       0.0024574874 0.01720241 -0.012287437 0.0 0.014744924 0.0 0.051607236 -0.004914975 0.071267135 -0.0024574874 0.04669226 -0.007372462 -0.012287437 -0.004914975 0.03686231 0.007372462
000010 2a ff fc f5 fb 17 06 03 08 00 ff 01 0a f9 fd f9
       0.10321447 -0.0024574874 -0.00982995 -0.02703236 -0.012287437 0.05652221 0.014744924 0.007372462 0.0196599 0.0 -0.0024574874 0.0024574874 0.024574874 -0.01720241 -0.007372462 -0.01720241
000020 ec fe fc 04 ff 07 04 fc fd 0a 09 f3 ff 06 02 fb
       -0.049149748 -0.004914975 -0.00982995 0.00982995 -0.0024574874 0.01720241 0.00982995 -0.00982995 -0.007372462 0.024574874 0.022117388 -0.031947337 -0.0024574874 0.014744924 0.004914975 -0.012287437
000030 00 10 07 19 f5 00 12 03 fb fe 08 02 00 e3 f9 01
       0.0 0.0393198 0.01720241 0.061437186 -0.02703236 0.0 0.044234775 0.007372462 -0.012287437 -0.004914975 0.0196599 0.004914975 0.0 -0.071267135 -0.01720241 0.0024574874
000040 ec 12 02 fc 0c fb 02 f6 f7 02 f5 00 fa 05 01 00
       -0.049149748 0.044234775 0.004914975 -0.00982995 0.029489849 -0.012287437 0.004914975 -0.024574874 -0.022117388 0.004914975 -0.02703236 0.0 -0.014744924 0.012287437 0.0024574874 0.0
000050 ed fe 13 fd 1e 00 04 22 20 15 01 14 ff fd 00 2c
       -0.04669226 -0.004914975 0.04669226 -0.007372462 0.07372462 0.0 0.00982995 0.08355457 0.0786396 0.051607236 0.0024574874 0.049149748 -0.0024574874 -0.007372462 0.0 0.10812944
000060 03 12 01 fa 01 0a 26 fe 0a 15 12 f7 01 0c ff 14
       0.007372462 0.044234775 0.0024574874 -0.014744924 0.0024574874 0.024574874 0.09338452 -0.004914975 0.024574874 0.051607236 0.044234775 -0.022117388 0.0024574874 0.029489849 -0.0024574874 0.049149748
000070 07 fa 06 01 0e f8 0b fe ff 07 18 0f fb fe 02 04
       0.01720241 -0.014744924 0.014744924 0.0024574874 0.03440482 -0.0196599 0.02703236 -0.004914975 -0.0024574874 0.01720241 0.058979698 0.03686231 -0.012287437 -0.004914975 0.004914975 0.00982995
000080 f8 0c f9 09 26 e9 ef 00 f2 fc 1a fe fe 03 ed 04
       -0.0196599 0.029489849 -0.01720241 0.022117388 0.09338452 -0.05652221 -0.041777287 0.0 -0.03440482 -0.00982995 0.063894674 -0.004914975 -0.004914975 0.007372462 -0.04669226 0.00982995
000090 f5 f2 12 03 f7 18 f8 fe 00 f5 08 ff 02 fb 07 06
       -0.02703236 -0.03440482 0.044234775 0.007372462 -0.022117388 0.058979698 -0.0196599 -0.004914975 0.0 -0.02703236 0.0196599 -0.0024574874 0.004914975 -0.012287437 0.01720241 0.014744924
0000a0 f7 01 01 0c 01 10 09 fa 14 0b 0e 06 01 0d 12 f1
       -0.022117388 0.0024574874 0.0024574874 0.029489849 0.0024574874 0.0393198 0.022117388 -0.014744924 0.049149748 0.02703236 0.03440482 0.014744924 0.0024574874 0.031947337 0.044234775 -0.03686231
0000b0 1a 0f f6 fd 08 05 fc 06 01 0e 0e 08 fb 02 fd 00
       0.063894674 0.03686231 -0.024574874 -0.007372462 0.0196599 0.012287437 -0.00982995 0.014744924 0.0024574874 0.03440482 0.03440482 0.0196599 -0.012287437 0.004914975 -0.007372462 0.0
0000c0 0d 09 06 07 00 0a f7 0e 14 07 0b 12 ff fb 07 02
       0.031947337 0.022117388 0.014744924 0.01720241 0.0 0.024574874 -0.022117388 0.03440482 0.049149748 0.01720241 0.02703236 0.044234775 -0.0024574874 -0.012287437 0.01720241 0.004914975
0000d0 0a fc f9 ff 04 07 01 fc 03 fe 01 1e 0d 01 fb fd
       0.024574874 -0.00982995 -0.01720241 -0.0024574874 0.00982995 0.01720241 0.0024574874 -0.00982995 0.007372462 -0.004914975 0.0024574874 0.07372462 0.031947337 0.0024574874 -0.012287437 -0.007372462
0000e0 ff fa 02 19 0c 0b 11 f1 fa f8 fe 13 02 fe 04 f4
       -0.0024574874 -0.014744924 0.004914975 0.061437186 0.029489849 0.02703236 0.041777287 -0.03686231 -0.014744924 -0.0196599 -0.004914975 0.04669226 0.004914975 -0.004914975 0.00982995 -0.029489849
0000f0 02 02 16 fe f4 00 00 0c f9 fa 03 01 f5 03 fb fd
       0.004914975 0.004914975 0.05406472 -0.004914975 -0.029489849 0.0 0.0 0.029489849 -0.01720241 -0.014744924 0.007372462 0.0024574874 -0.02703236 0.007372462 -0.012287437 -0.007372462

fuse_attr_12 i1 [44, 3, 3, 40] scale=0.0021542204 zero_point=0
000000 f3 fd ff 01 fd ff fd 00 ea ff 00 0a 00 01 1f 00
       -0.028004864 -0.006462661 -0.0021542204 0.0021542204 -0.006462661 -0.0021542204 -0.006462661 0.0 -0.04739285 -0.0021542204 0.0 0.021542203 0.0 0.0021542204 0.06678083 0.0
000010 ed ff 01 fe 10 fd 02 f2 ff ff f3 00 fe ea fe fe
       -0.040930185 -0.0021542204 0.0021542204 -0.0043084407 0.034467526 -0.006462661 0.0043084407 -0.030159086 -0.0021542204 -0.0021542204 -0.028004864 0.0 -0.0043084407 -0.04739285 -0.0043084407 -0.0043084407
000020 01 13 ff 00 ff ff ee 00 00 fd ff ff fe ff fe ee
       0.0021542204 0.040930185 -0.0021542204 0.0 -0.0021542204 -0.0021542204 -0.038775966 0.0 0.0 -0.006462661 -0.0021542204 -0.0021542204 -0.0043084407 -0.0021542204 -0.0043084407 -0.038775966
000030 ff 00 00 fb 00 01 10 ff f1 00 00 ff 01 fc 01 00
       -0.0021542204 0.0 0.0 -0.010771101 0.0 0.0021542204 0.034467526 -0.0021542204 -0.032313306 0.0 0.0 -0.0021542204 0.0021542204 -0.008616881 0.0021542204 0.0
000040 ff fe f0 01 fe e6 ff ff 00 11 ff 00 fe fe ff 01
       -0.0021542204 -0.0043084407 -0.034467526 0.0021542204 -0.0043084407 -0.05600973 -0.0021542204 -0.0021542204 0.0 0.036621746 -0.0021542204 0.0 -0.0043084407 -0.0043084407 -0.0021542204 0.0021542204
000050 f1 fd ff ff fe ff fe ed ff ff ef ee 00 ff 0f 00
       -0.032313306 -0.006462661 -0.0021542204 -0.0021542204 -0.0043084407 -0.0021542204 -0.0043084407 -0.040930185 -0.0021542204 -0.0021542204 -0.036621746 -0.038775966 0.0 -0.0021542204 0.032313306 0.0
000060 ff 00 ff f0 13 fd 01 00 00 fe 00 00 fe e4 ff ef
       -0.0021542204 0.0 -0.0021542204 -0.034467526 0.040930185 -0.006462661 0.0021542204 0.0 0.0 -0.0043084407 0.0 0.0 -0.0043084407 -0.060318172 -0.0021542204 -0.036621746
000070 00 00 ff 01 ff fe f3 ee f7 00 01 f9 07 fb 05 f7
       0.0 0.0 -0.0021542204 0.0021542204 -0.0021542204 -0.0043084407 -0.028004864 -0.038775966 -0.019387983 0.0 0.0021542204 -0.015079543 0.015079543 -0.010771101 0.010771101 -0.019387983
000080 05 01 01 ff 02 0a 00 03 00 01 11 11 0e ff 00 04
       0.010771101 0.0021542204 0.0021542204 -0.0021542204 0.0043084407 0.021542203 0.0 0.006462661 0.0 0.0021542204 0.036621746 0.036621746 0.030159086 -0.0021542204 0.0 0.008616881
000090 f0 0d 03 fe e0 07 01 f4 01 12 01 03 fa 06 f4 01
       -0.034467526 0.028004864 0.006462661 -0.0043084407 -0.06893505 0.015079543 0.0021542204 -0.025850644 0.0021542204 0.038775966 0.0021542204 0.006462661 -0.012925322 0.012925322 -0.025850644 0.0021542204
0000a0 f9 01 01 00 09 f7 04 f3 01 03 f3 01 01 08 01 05
       -0.015079543 0.0021542204 0.0021542204 0.0 0.019387983 -0.019387983 0.008616881 -0.028004864 0.0021542204 0.006462661 -0.028004864 0.0021542204 0.0021542204 0.017233763 0.0021542204 0.010771101
0000b0 ec ee 11 01 fe fc 0f 02 fb ff ff fc d9 03 fd f4
       -0.043084405 -0.038775966 0.036621746 0.0021542204 -0.0043084407 -0.008616881 0.032313306 0.0043084407 -0.010771101 -0.0021542204 -0.0021542204 -0.008616881 -0.084014595 0.006462661 -0.006462661 -0.025850644
0000c0 02 0c f4 02 f5 03 f7 04 01 f0 fc 01 fb f6 08 f2
       0.0043084407 0.025850644 -0.025850644 0.0043084407 -0.023696424 0.006462661 -0.019387983 0.008616881 0.0021542204 -0.034467526 -0.008616881 0.0021542204 -0.010771101 -0.021542203 0.017233763 -0.030159086
0000d0 fc f5 ed f0 fd 04 ee 17 ff e1 ff 02 fc fb 0f ff
       -0.008616881 -0.023696424 -0.040930185 -0.034467526 -0.006462661 0.008616881 -0.038775966 0.04954707 -0.0021542204 -0.06678083 -0.0021542204 0.0043084407 -0.008616881 -0.010771101 0.032313306 -0.0021542204
0000e0 fe fd ff fa e3 04 ff fb 01 15 fe 02 f8 04 f8 04
       -0.0043084407 -0.006462661 -0.0021542204 -0.012925322 -0.062472392 0.008616881 -0.0021542204 -0.010771101 0.0021542204 0.04523863 -0.0043084407 0.0043084407 -0.017233763 0.008616881 -0.017233763 0.008616881
0000f0 f7 03 05 f8 fa 00 04 fb 03 03 fe fa 08 02 03 fc
       -0.019387983 0.006462661 0.010771101 -0.017233763 -0.012925322 0.0 0.008616881 -0.010771101 0.006462661 0.006462661 -0.0043084407 -0.012925322 0.017233763 0.0043084407 0.006462661 -0.008616881

fuse_attr_9 i1 [27, 3, 3, 27] scale=0.0050449404 zero_point=0
000000 01 ff 03 f6 01 fa fd 09 0a f7 04 0b 21 f3 11 ff
       0.0050449404 -0.0050449404 0.015134821 -0.050449405 0.0050449404 -0.030269641 -0.015134821 0.045404464 0.050449405 -0.045404464 0.020179762 0.055494346 0.16648303 -0.06558423 0.08576398 -0.0050449404
000010 fd 02 02 04 00 00 09 fe ff f9 fc 00 04 09 f6 03
       -0.015134821 0.010089881 0.010089881 0.020179762 0.0 0.0 0.045404464 -0.010089881 -0.0050449404 -0.035314582 -0.020179762 0.0 0.020179762 0.045404464 -0.050449405 0.015134821
000020 00 ff 0c 19 fa 0b 12 10 f8 14 f7 07 0c ff 0c fe
       0.0 -0.0050449404 0.060539283 0.1261235 -0.030269641 0.055494346 0.09080893 0.08071905 -0.040359523 0.10089881 -0.045404464 0.035314582 0.060539283 -0.0050449404 0.060539283 -0.010089881
000030 00 0c ff ff fd 01 00 07 05 f2 01 07 01 00 11 fc
       0.0 0.060539283 -0.0050449404 -0.0050449404 -0.015134821 0.0050449404 0.0 0.035314582 0.025224702 -0.070629165 0.0050449404 0.035314582 0.0050449404 0.0 0.08576398 -0.020179762
000040 03 10 04 08 08 02 ff 00 01 0a fd 01 ff ff f6 fe
       0.015134821 0.08071905 0.020179762 0.040359523 0.040359523 0.010089881 -0.0050449404 0.0 0.0050449404 0.050449405 -0.015134821 0.0050449404 -0.0050449404 -0.0050449404 -0.050449405 -0.010089881
000050 01 f9 fc 11 fd f0 06 fd 11 0c 03 08 ff fd ed 08
       0.0050449404 -0.035314582 -0.020179762 0.08576398 -0.015134821 -0.08071905 0.030269641 -0.015134821 0.08576398 0.060539283 0.015134821 0.040359523 -0.0050449404 -0.015134821 -0.095853865 0.040359523
000060 fd fe f4 00 04 07 f7 fa fd 00 f6 f9 fa 05 14 00
       -0.015134821 -0.010089881 -0.060539283 0.0 0.020179762 0.035314582 -0.045404464 -0.030269641 -0.015134821 0.0 -0.050449405 -0.035314582 -0.030269641 0.025224702 0.10089881 0.0
000070 f9 07 fe 0d 10 06 0e 00 fc fc 07 fe fd f2 fe fe
       -0.035314582 0.035314582 -0.010089881 0.06558423 0.08071905 0.030269641 0.070629165 0.0 -0.020179762 -0.020179762 0.035314582 -0.010089881 -0.015134821 -0.070629165 -0.010089881 -0.010089881
000080 05 ff f1 fe 00 f6 f2 f9 05 04 ff fa fb 01 01 0e
       0.025224702 -0.0050449404 -0.07567411 -0.010089881 0.0 -0.050449405 -0.070629165 -0.035314582 0.025224702 0.020179762 -0.0050449404 -0.030269641 -0.025224702 0.0050449404 0.0050449404 0.070629165
000090 fd 00 00 01 ff 02 00 ff f2 01 05 01 ff fc fe 08
       -0.015134821 0.0 0.0 0.0050449404 -0.0050449404 0.010089881 0.0 -0.0050449404 -0.070629165 0.0050449404 0.025224702 0.0050449404 -0.0050449404 -0.020179762 -0.010089881 0.040359523
0000a0 f7 fa ff 0b 03 f7 01 0b fd 06 05 11 ff 01 fc f6
       -0.045404464 -0.030269641 -0.0050449404 0.055494346 0.015134821 -0.045404464 0.0050449404 0.055494346 -0.015134821 0.030269641 0.025224702 0.08576398 -0.0050449404 0.0050449404 -0.020179762 -0.050449405
0000b0 fb ff ff ff f6 fb ff fc fd fd 03 f3 ff ff 12 08
       -0.025224702 -0.0050449404 -0.0050449404 -0.0050449404 -0.050449405 -0.025224702 -0.0050449404 -0.020179762 -0.015134821 -0.015134821 0.015134821 -0.06558423 -0.0050449404 -0.0050449404 0.09080893 0.040359523
0000c0 f9 10 0e 07 05 06 05 07 01 fa f9 02 fe 07 f8 ec
       -0.035314582 0.08071905 0.070629165 0.035314582 0.025224702 0.030269641 0.025224702 0.035314582 0.0050449404 -0.030269641 -0.035314582 0.010089881 -0.010089881 0.035314582 -0.040359523 -0.10089881
0000d0 07 02 fb ef fe 03 f5 0f 00 12 f7 02 16 09 0c fd
       0.035314582 0.010089881 -0.025224702 -0.08576398 -0.010089881 0.015134821 -0.055494346 0.07567411 0.0 0.09080893 -0.045404464 0.010089881 0.11098869 0.045404464 0.060539283 -0.015134821
0000e0 09 06 00 02 fc fb 04 01 02 01 fb 09 01 fd f4 fe
       0.045404464 0.030269641 0.0 0.010089881 -0.020179762 -0.025224702 0.020179762 0.0050449404 0.010089881 0.0050449404 -0.025224702 0.045404464 0.0050449404 -0.015134821 -0.060539283 -0.010089881
0000f0 05 f2 10 fa 01 00 f8 ff ec 0c 03 0c 0d 01 10 0e
       0.025224702 -0.070629165 0.08071905 -0.030269641 0.0050449404 0.0 -0.040359523 -0.0050449404 -0.10089881 0.060539283 0.015134821 0.060539283 0.06558423 0.0050449404 0.08071905 0.070629165

fuse_attr_8 i1 [27, 3, 3, 15] scale=0.0024206254 zero_point=0
000000 f6 ff 00 fd 04 dc f5 f2 01 ef 08 00 08 f7 e0 f5
       -0.024206255 -0.0024206254 0.0 -0.007261876 0.009682502 -0.08714251 -0.02662688 -0.033888757 0.0024206254 -0.041150633 0.019365003 0.0 0.019365003 -0.021785628 -0.07746001 -0.02662688
000010 09 fc fd f6 d9 fa 02 08 f4 10 05 fe ea eb ef 01
       0.021785628 -0.009682502 -0.007261876 -0.024206255 -0.09440439 -0.014523752 0.004841251 0.019365003 -0.029047504 0.038730007 0.012103127 -0.004841251 -0.05325376 -0.050833132 -0.041150633 0.0024206254
000020 f5 f5 f3 e4 00 05 05 fe ff 0c f2 e2 eb f3 01 fe
       -0.02662688 -0.02662688 -0.03146813 -0.067777514 0.0 0.012103127 0.012103127 -0.004841251 -0.0024206254 0.029047504 -0.033888757 -0.07261876 -0.050833132 -0.03146813 0.0024206254 -0.004841251
000030 fb f4 d6 f9 f8 f7 f3 09 fb fa eb ed f9 0f f2 f7
       -0.012103127 -0.029047504 -0.101666264 -0.016944379 -0.019365003 -0.021785628 -0.03146813 0.021785628 -0.012103127 -0.014523752 -0.050833132 -0.045991883 -0.016944379 0.03630938 -0.033888757 -0.021785628
000040 f7 d6 05 0c f8 f1 03 f7 02 ea eb f7 00 f1 fa ea
       -0.021785628 -0.101666264 0.012103127 0.029047504 -0.019365003 -0.03630938 0.007261876 -0.021785628 0.004841251 -0.05325376 -0.050833132 -0.021785628 0.0 -0.03630938 -0.014523752 -0.05325376
000050 e0 04 16 f4 f9 fe f4 fa e7 f2 ee 05 fa 08 f3 03
       -0.07746001 0.009682502 0.05325376 -0.029047504 -0.016944379 -0.004841251 -0.029047504 -0.014523752 -0.060515635 -0.033888757 -0.043571256 0.012103127 -0.014523752 0.019365003 -0.03146813 0.007261876
000060 fa fa fe ef 0d 02 f6 f8 f2 ed 03 f3 fe f6 f4 04
       -0.014523752 -0.014523752 -0.004841251 -0.041150633 0.03146813 0.004841251 -0.024206255 -0.019365003 -0.033888757 -0.045991883 0.007261876 -0.03146813 -0.004841251 -0.024206255 -0.029047504 0.009682502
000070 fb f6 ee 09 f4 f2 01 0c e8 fc e1 05 f6 f9 03 03
       -0.012103127 -0.024206255 -0.043571256 0.021785628 -0.029047504 -0.033888757 0.0024206254 0.029047504 -0.058095008 -0.009682502 -0.07503939 0.012103127 -0.024206255 -0.016944379 0.007261876 0.007261876
000080 e3 f8 00 ec ee 02 06 2f 00 0d ea fb 00 f0 0e 0c
       -0.07019813 -0.019365003 0.0 -0.04841251 -0.043571256 0.004841251 0.014523752 0.1137694 0.0 0.03146813 -0.05325376 -0.012103127 0.0 -0.038730007 0.033888757 0.029047504
000090 fc 07 f8 ff f6 f3 2f 06 0b ea 02 05 f1 0e 17 16
       -0.009682502 0.016944379 -0.019365003 -0.0024206254 -0.024206255 -0.03146813 0.1137694 0.014523752 0.02662688 -0.05325376 0.004841251 0.012103127 -0.03630938 0.033888757 0.055674385 0.05325376
0000a0 04 ee 00 f4 fa 05 ff 05 e3 e9 f2 f4 10 20 0a 03
       0.009682502 -0.043571256 0.0 -0.029047504 -0.014523752 0.012103127 -0.0024206254 0.012103127 -0.07019813 -0.055674385 -0.033888757 -0.029047504 0.038730007 0.07746001 0.024206255 0.007261876
0000b0 06 f1 d3 f9 00 04 17 fc 07 ee f0 f9 fb 14 0a 23
       0.014523752 -0.03630938 -0.108928144 -0.016944379 0.0 0.009682502 0.055674385 -0.009682502 0.016944379 -0.043571256 -0.038730007 -0.016944379 -0.012103127 0.04841251 0.024206255 0.08472189
0000c0 fa ee f1 14 08 09 00 11 e5 02 ea 02 27 0d 0d f7
       -0.014523752 -0.043571256 -0.03630938 0.04841251 0.019365003 0.021785628 0.0 0.041150633 -0.06535689 0.004841251 -0.05325376 0.004841251 0.09440439 0.03146813 0.03146813 -0.021785628
0000d0 05 fc 03 00 10 f5 f7 f6 fa f5 07 24 02 13 ef f1
       0.012103127 -0.009682502 0.007261876 0.0 0.038730007 -0.02662688 -0.021785628 -0.024206255 -0.014523752 -0.02662688 0.016944379 0.08714251 0.004841251 0.045991883 -0.041150633 -0.03630938
0000e0 f9 db f9 fa 1d 0f f8 f0 fb ef f6 f4 ff f8 f9 f3
       -0.016944379 -0.08956314 -0.016944379 -0.014523752 0.07019813 0.03630938 -0.019365003 -0.038730007 -0.012103127 -0.041150633 -0.024206255 -0.029047504 -0.0024206254 -0.019365003 -0.016944379 -0.03146813
0000f0 f7 f4 ee 21 1d f3 fb eb f2 e6 f2 f5 fa 23 07 05
       -0.021785628 -0.029047504 -0.043571256 0.07988064 0.07019813 -0.03146813 -0.012103127 -0.050833132 -0.033888757 -0.06293626 -0.033888757 -0.02662688 -0.014523752 0.08472189 0.016944379 0.012103127

fuse_attr_5 i1 [12, 3, 3, 1] scale=0.0091081085 zero_point=0
000000 4f d1 dc fb ff 03 00 ff fb 14 0e e4 11 0e e2 08
       0.7195406 -0.4280811 -0.32789192 -0.04554054 -0.0091081085 0.027324326 0.0 -0.0091081085 -0.04554054 0.18216217 0.12751351 -0.25502703 0.15483785 0.12751351 -0.27324325 0.07286487
000010 04 f2 06 0a 11 0b 0e 15 01 03 0e dd 55 c9 04 00
       0.036432434 -0.12751351 0.054648653 0.09108108 0.15483785 0.100189194 0.12751351 0.19127028 0.0091081085 0.027324326 0.12751351 -0.3187838 0.77418923 -0.500946 0.036432434 0.0
000020 fa 03 ff fa fb 07 11 f9 00 08 eb e5 e5 01 01 01
       -0.054648653 0.027324326 -0.0091081085 -0.054648653 -0.04554054 0.06375676 0.15483785 -0.06375676 0.0 0.07286487 -0.19127028 -0.24591893 -0.24591893 0.0091081085 0.0091081085 0.0091081085
000030 fe fe fe 07 09 07 00 01 ff 00 01 ff 00 01 ff 11
       -0.018216217 -0.018216217 -0.018216217 0.06375676 0.08197298 0.06375676 0.0 0.0091081085 -0.0091081085 0.0 0.0091081085 -0.0091081085 0.0 0.0091081085 -0.0091081085 0.15483785
000040 14 0f 05 06 06 e6 e7 e9 ff ff ec 06 05 f0 d9 cb
       0.18216217 0.13662162 0.04554054 0.054648653 0.054648653 -0.23681082 -0.2277027 -0.2094865 -0.0091081085 -0.0091081085 -0.18216217 0.054648653 0.04554054 -0.14572974 -0.35521623 -0.48272976
000050 57 19 fd d0 23 00 d3 d6 07 18 fc fd 04 00 00 ff
       0.7924054 0.2277027 -0.027324326 -0.43718922 0.3187838 0.0 -0.40986487 -0.38254055 0.06375676 0.21859461 -0.036432434 -0.027324326 0.036432434 0.0 0.0 -0.0091081085
000060 00 00 00 e1 e0 2e e3 e1 2f f7 e9 0d
       0.0 0.0 0.0 -0.28235137 -0.29145947 0.418973 -0.26413515 -0.28235137 0.4280811 -0.08197298 -0.2094865 0.11840541

fuse_attr_14 i1 [2, 1, 1, 55] scale=0.0064405194 zero_point=0
000000 16 2f 0a 50 f2 1c 06 30 2d 37 42 33 2e fd f8 2f
       0.14169143 0.30270442 0.064405195 0.51524156 -0.09016727 0.18033454 0.038643114 0.3091449 0.28982338 0.35422856 0.42507428 0.32846648 0.2962639 -0.019321557 -0.051524155 0.30270442
000010 ee e4 f9 0d 32 17 01 0f 36 fd 22 18 36 17 20 1a
       -0.11592935 -0.18033454 -0.045083635 0.08372675 0.32202595 0.14813195 0.0064405194 0.09660779 0.34778804 -0.019321557 0.21897766 0.15457246 0.34778804 0.14813195 0.20609662 0.1674535
000020 24 12 1b 07 f1 46 03 e4 0f 1e f5 e5 17 0a 42 de
       0.2318587 0.11592935 0.17389402 0.045083635 -0.09660779 0.45083636 0.019321557 -0.18033454 0.09660779 0.19321558 -0.070845716 -0.17389402 0.14813195 0.064405195 0.42507428 -0.21897766
000030 16 f4 08 dc 17 de e3 1e 41 0e e5 16 cd 0d df 0d
       0.14169143 -0.07728623 0.051524155 -0.2318587 0.14813195 -0.21897766 -0.18677506 0.19321558 0.41863376 0.09016727 -0.17389402 0.14169143 -0.32846648 0.08372675 -0.21253714 0.08372675
000040 38 42 ee 34 09 fd cf 1b 21 0c 03 26 f2 13 29 3a
       0.36066908 0.42507428 -0.11592935 0.334907 0.057964675 -0.019321557 -0.31558543 0.17389402 0.21253714 0.07728623 0.019321557 0.24473974 -0.09016727 0.12236987 0.2640613 0.37355012
000050 1a 29 00 41 ee eb e7 1e f2 d9 16 06 44 d8 10 e8
       0.1674535 0.2640613 0.0 0.41863376 -0.11592935 -0.13525091 -0.16101298 0.19321558 -0.09016727 -0.25118026 0.14169143 0.038643114 0.43795532 -0.25762078 0.10304831 -0.15457246
000060 2d 13 1b ec f7 3d 28 1a 21 e9 13 b6 30 2b
       0.28982338 0.12236987 0.17389402 -0.12881039 -0.057964675 0.39287168 0.25762078 0.1674535 0.21253714 -0.14813195 0.12236987 -0.47659844 0.3091449 0.27694234
