ACDNet_Test/ipynb_files/models/tflite/acdnet_model_acc96_55_prunned20240110135513.tflite (tflite, 138456 bytes, 12 tensors)

fuse_attr_4 u1 [32, 1, 5, 8] scale=0.009604918 zero_point=128
000000 69 75 ac 5f 8a 7f 7b 59 66 73 b5 6c 93 90 7d 5f
       -0.22091311 -0.1056541 0.4226164 -0.3169623 0.096049175 -0.009604918 -0.048024587 -0.3745918 -0.24972786 -0.12486393 0.5090606 -0.19209835 0.18249343 0.15367869 -0.028814754 -0.3169623
000010 71 7c ab 64 97 80 7f 5a 71 85 b6 5b 9c 7d 7a 64
       -0.14407377 -0.03841967 0.41301146 -0.2689377 0.22091311 0.0 -0.009604918 -0.36498687 -0.14407377 0.048024587 0.51866555 -0.35538197 0.2689377 -0.028814754 -0.057629507 -0.2689377
000020 78 78 aa 6e 9c 73 80 5a 5a 86 6f 66 a6 76 7f 31
       -0.07683934 -0.07683934 0.40340656 -0.17288852 0.2689377 -0.12486393 0.0 -0.36498687 -0.36498687 0.057629507 -0.1632836 -0.24972786 0.36498687 -0.096049175 -0.009604918 -0.7587885
000030 5e 75 8b 75 96 85 7e 48 6f 6f 90 73 93 87 7f 67
       -0.3265672 -0.1056541 0.1056541 -0.1056541 0.2113082 0.048024587 -0.019209836 -0.5378754 -0.1632836 -0.1632836 0.15367869 -0.12486393 0.18249343 0.06723443 -0.009604918 -0.24012294
000040 6a 62 a2 71 95 88 72 79 77 48 af 7b 7e 8c 7e 89
       -0.2113082 -0.28814754 0.3265672 -0.14407377 0.20170328 0.07683934 -0.13446885 -0.06723443 -0.08644426 -0.5378754 0.45143113 -0.048024587 -0.019209836 0.115259014 -0.019209836 0.08644426
000050 6f 80 98 69 91 7b 7e 65 6f 7a a0 71 9b 82 7f 61
       -0.1632836 0.0 0.23051803 -0.22091311 0.1632836 -0.048024587 -0.019209836 -0.25933278 -0.1632836 -0.057629507 0.30735737 -0.14407377 0.25933278 0.019209836 -0.009604918 -0.29775244
000060 68 7f 9a 78 97 86 7e 6d 73 7c a3 71 96 83 7d 72
       -0.23051803 -0.009604918 0.24972786 -0.07683934 0.22091311 0.057629507 -0.019209836 -0.18249343 -0.12486393 -0.03841967 0.33617213 -0.14407377 0.2113082 0.028814754 -0.028814754 -0.13446885
000070 73 81 a1 75 94 7b 7d 69 80 63 1f b8 5f 85 80 ae
       -0.12486393 0.009604918 0.3169623 -0.1056541 0.19209835 -0.048024587 -0.028814754 -0.22091311 0.0 -0.2785426 -0.93167704 0.5378754 -0.3169623 0.048024587 0.0 0.44182622
000080 83 73 3b b1 4c 80 7c b7 85 6f 52 a2 70 86 7a ad
       0.028814754 -0.12486393 -0.66273934 0.470641 -0.49945572 0.0 -0.03841967 0.5282705 0.048024587 -0.1632836 -0.44182622 0.3265672 -0.15367869 0.057629507 -0.057629507 0.4322213
000090 7e 76 5b 92 62 78 7f c0 6b 75 62 95 64 78 80 c0
       -0.019209836 -0.096049175 -0.35538197 0.17288852 -0.28814754 -0.07683934 -0.009604918 0.61471474 -0.20170328 -0.1056541 -0.28814754 0.20170328 -0.2689377 -0.07683934 0.0 0.61471474
0000a0 8f 6f 74 9b 6e 83 81 79 8b 6f 77 8b 75 84 82 6f
       0.14407377 -0.1632836 -0.115259014 0.25933278 -0.17288852 0.028814754 0.009604918 -0.06723443 0.1056541 -0.1632836 -0.08644426 0.1056541 -0.1056541 0.03841967 0.019209836 -0.1632836
0000b0 7a 7c 75 8a 73 84 80 66 80 77 83 87 7d 8b 79 6e
       -0.057629507 -0.03841967 -0.1056541 0.096049175 -0.12486393 0.03841967 0.0 -0.24972786 0.0 -0.08644426 0.028814754 0.06723443 -0.028814754 0.1056541 -0.06723443 -0.17288852
0000c0 8a 68 8c 80 76 92 79 75 75 84 72 65 a2 80 77 7c
       0.096049175 -0.23051803 0.115259014 0.0 -0.096049175 0.17288852 -0.06723443 -0.1056541 -0.1056541 0.03841967 -0.13446885 -0.25933278 0.3265672 0.0 -0.08644426 -0.03841967
0000d0 6a 75 80 7b 94 72 7a 8d 5e 80 74 71 87 72 7f 84
       -0.2113082 -0.1056541 0.0 -0.048024587 0.19209835 -0.13446885 -0.057629507 0.12486393 -0.3265672 0.0 -0.115259014 -0.14407377 0.06723443 -0.13446885 -0.009604918 0.03841967
0000e0 6c 89 7d 7b 7b 72 80 9a 70 82 8b 80 79 6c 88 a3
       -0.19209835 0.08644426 -0.028814754 -0.048024587 -0.048024587 -0.13446885 0.0 0.24972786 -0.15367869 0.019209836 0.1056541 0.0 -0.06723443 -0.19209835 0.07683934 0.33617213
0000f0 8c 73 73 91 6e 86 81 7e 90 71 83 8b 69 8d 7d 78
       0.115259014 -0.12486393 -0.12486393 0.1632836 -0.17288852 0.057629507 0.009604918 -0.019209836 0.15367869 -0.14407377 0.028814754 0.1056541 -0.22091311 0.12486393 -0.028814754 -0.07683934

fuse_attr_8 u1 [39, 3, 3, 38] scale=0.002298973 zero_point=128
000000 6d 6c 63 59 7f 72 80 80 69 78 75 80 89 86 88 86
       -0.04368049 -0.045979463 -0.06667022 -0.08965995 -0.002298973 -0.03218562 0.0 0.0 -0.05287638 -0.018391784 -0.025288703 0.0 0.020690758 0.013793838 0.018391784 0.013793838
000010 80 77 6e 78 80 80 8e 77 75 80 71 80 80 79 81 74
       0.0 -0.020690758 -0.041381516 -0.018391784 0.0 0.0 0.03218562 -0.020690758 -0.025288703 0.0 -0.034484595 0.0 0.0 -0.01609281 0.002298973 -0.027587676
000020 88 90 80 81 7a 76 80 73 80 75 7f 72 86 7f 81 80
       0.018391784 0.03678357 0.0 0.002298973 -0.013793838 -0.022989731 0.0 -0.02988665 0.0 -0.025288703 -0.002298973 -0.03218562 0.013793838 -0.002298973 0.002298973 0.0
000030 80 79 80 8a 80 7f 80 73 63 7b 80 80 87 7a 80 80
       0.0 -0.01609281 0.0 0.022989731 0.0 -0.002298973 0.0 -0.02988665 -0.06667022 -0.011494866 0.0 0.0 0.01609281 -0.013793838 0.0 0.0
000040 80 88 81 7f 76 65 80 86 76 80 72 81 8e 77 a5 9d
       0.0 0.018391784 0.002298973 -0.002298973 -0.022989731 -0.062072273 0.0 0.013793838 -0.022989731 0.0 -0.03218562 0.002298973 0.03218562 -0.020690758 0.085062005 0.06667022
000050 98 80 91 8c 9d 80 89 8d 75 8a 93 92 80 80 91 81
       0.055175353 0.0 0.039082542 0.027587676 0.06667022 0.0 0.020690758 0.02988665 -0.025288703 0.022989731 0.04368049 0.041381516 0.0 0.0 0.039082542 0.002298973
000060 81 79 7f 81 9b 90 8e 8b 77 8a 80 8e 80 81 8b 81
       0.002298973 -0.01609281 -0.002298973 0.002298973 0.062072273 0.03678357 0.03218562 0.025288703 -0.020690758 0.022989731 0.0 0.03218562 0.0 0.002298973 0.025288703 0.002298973
000070 81 9c 6d 68 66 5d 79 75 86 79 67 80 73 80 8d 7f
       0.002298973 0.06437124 -0.04368049 -0.055175353 -0.0597733 -0.08046406 -0.01609281 -0.025288703 0.013793838 -0.01609281 -0.057474326 0.0 -0.02988665 0.0 0.02988665 -0.002298973
000080 89 80 80 80 74 7b 78 80 85 78 6d 81 77 78 81 80
       0.020690758 0.0 0.0 0.0 -0.027587676 -0.011494866 -0.018391784 0.0 0.011494866 -0.018391784 -0.04368049 0.002298973 -0.020690758 -0.018391784 0.002298973 0.0
000090 87 75 8b 8b 81 74 79 76 80 71 80 75 7f 80 80 80
       0.01609281 -0.025288703 0.025288703 0.025288703 0.002298973 -0.027587676 -0.01609281 -0.022989731 0.0 -0.034484595 0.0 -0.025288703 -0.002298973 0.0 0.0 0.0
0000a0 80 80 80 74 7f 7f 80 7f 80 77 6a 81 81 7f 86 76
       0.0 0.0 0.0 -0.027587676 -0.002298973 -0.002298973 0.0 -0.002298973 0.0 -0.020690758 -0.050577406 0.002298973 0.002298973 -0.002298973 0.013793838 -0.022989731
0000b0 80 81 80 80 82 80 80 73 80 80 77 80 6f 80 89 71
       0.0 0.002298973 0.0 0.0 0.004597946 0.0 0.0 -0.02988665 0.0 0.0 -0.020690758 0.0 -0.039082542 0.0 0.020690758 -0.034484595
0000c0 ad 9d 95 87 8e 96 a2 80 8f 8d 72 7f 8e 8d 80 8e
       0.103453785 0.06667022 0.048278432 0.01609281 0.03218562 0.050577406 0.078165084 0.0 0.034484595 0.02988665 -0.03218562 -0.002298973 0.03218562 0.02988665 0.0 0.03218562
0000d0 8c 81 81 7f 88 88 9c 8c 8f 8f 81 80 92 8e 80 80
       0.027587676 0.002298973 0.002298973 -0.002298973 0.018391784 0.018391784 0.06437124 0.027587676 0.034484595 0.034484595 0.002298973 0.0 0.041381516 0.03218562 0.0 0.0
0000e0 89 80 89 99 77 80 67 6d 80 80 80 81 71 81 75 80
       0.020690758 0.0 0.020690758 0.057474326 -0.020690758 0.0 -0.057474326 -0.04368049 0.0 0.0 0.0 0.002298973 -0.034484595 0.002298973 -0.025288703 0.0
0000f0 8c 7f 87 87 80 80 81 7c 81 80 7f 81 74 81 81 75
       0.027587676 -0.002298973 0.01609281 0.01609281 0.0 0.0 0.002298973 -0.009195892 0.002298973 0.0 -0.002298973 0.002298973 -0.027587676 0.002298973 0.002298973 -0.025288703

fuse_attr_9 u1 [40, 3, 3, 39] scale=0.0030770854 zero_point=128
000000 83 82 82 73 82 80 63 6b 68 82 56 80 4d 7f 7f 82
       0.009231256 0.0061541707 0.0061541707 -0.04000211 0.0061541707 0.0 -0.08923548 -0.064618796 -0.07385005 0.0061541707 -0.12923759 0.0 -0.15693136 -0.0030770854 -0.0030770854 0.0061541707
000010 7f 82 81 67 83 59 83 98 96 94 96 7f 62 4b 9d 81
       -0.0030770854 0.0061541707 0.0030770854 -0.07692713 0.009231256 -0.12000633 0.009231256 0.07385005 0.06769588 0.061541706 0.06769588 -0.0030770854 -0.09231256 -0.16308552 0.08923548 0.0030770854
000020 82 50 68 81 80 7f a5 7f 80 56 65 75 69 80 69 82
       0.0061541707 -0.1477001 -0.07385005 0.0030770854 0.0 -0.0030770854 0.11385216 -0.0030770854 0.0 -0.12923759 -0.083081305 -0.03384794 -0.07077296 0.0 -0.07077296 0.0061541707
000030 81 50 63 98 80 90 67 7e 61 80 a7 97 82 83 68 62
       0.0030770854 -0.1477001 -0.08923548 0.07385005 0.0 0.049233366 -0.07692713 -0.0061541707 -0.09538965 0.0 0.12000633 0.07077296 0.0061541707 0.009231256 -0.07385005 -0.09231256
000040 3a 94 81 7f 68 7f 80 81 6a 7f 80 6b 80 6b 6d 83
       -0.21539597 0.061541706 0.0030770854 -0.0030770854 -0.07385005 -0.0030770854 0.0 0.0030770854 -0.06769588 -0.0030770854 0.0 -0.064618796 0.0 -0.064618796 -0.05846462 0.009231256
000050 66 64 81 7f 81 80 9b 82 70 90 83 bc 6b 80 68 7f
       -0.08000422 -0.08615839 0.0030770854 -0.0030770854 0.0030770854 0.0 0.083081305 0.0061541707 -0.049233366 0.049233366 0.009231256 0.18462512 -0.064618796 0.0 -0.07385005 -0.0030770854
000060 9e 81 80 99 7e 81 a0 70 45 7d 54 92 83 84 82 6a
       0.09231256 0.0030770854 0.0 0.07692713 -0.0061541707 0.0030770854 0.09846673 -0.049233366 -0.18154803 -0.009231256 -0.13539176 0.055387538 0.009231256 0.012308341 0.0061541707 -0.06769588
000070 7f 64 82 80 a7 80 a8 58 82 67 7d b0 82 81 81 5f
       -0.0030770854 -0.08615839 0.0061541707 0.0 0.12000633 0.0 0.12308341 -0.12308341 0.0061541707 -0.07692713 -0.009231256 0.1477001 0.0061541707 0.0030770854 0.0030770854 -0.101543814
000080 80 80 7f 9f 80 7f 80 a6 7f 60 80 59 91 7f b7 7f
       0.0 0.0 -0.0030770854 0.09538965 0.0 -0.0030770854 0.0 0.11692924 -0.0030770854 -0.09846673 0.0 -0.12000633 0.052310452 -0.0030770854 0.1692397 -0.0030770854
000090 80 9d 5a 7f 81 7f 6b 5b 99 5c 7e a8 7f 80 69 82
       0.0 0.08923548 -0.11692924 -0.0030770854 0.0030770854 -0.0030770854 -0.064618796 -0.11385216 0.07692713 -0.110775076 -0.0061541707 0.12308341 -0.0030770854 0.0 -0.07077296 0.0061541707
0000a0 c4 65 81 6a 7f 80 81 80 6e 54 80 ae 98 65 62 7f
       0.20924181 -0.083081305 0.0030770854 -0.06769588 -0.0030770854 0.0 0.0030770854 0.0 -0.055387538 -0.13539176 0.0 0.14154592 0.07385005 -0.083081305 -0.09231256 -0.0030770854
0000b0 7f 95 83 5b 44 80 66 7d 57 b6 5f 64 52 80 59 50
       -0.0030770854 0.064618796 0.009231256 -0.11385216 -0.18462512 0.0 -0.08000422 -0.009231256 -0.1261605 0.16616261 -0.101543814 -0.08615839 -0.14154592 0.0 -0.12000633 -0.1477001
0000c0 67 5b 80 5c 82 a2 83 6c 7d 83 99 82 62 80 7f 97
       -0.07692713 -0.11385216 0.0 -0.110775076 0.0061541707 0.104620904 0.009231256 -0.061541706 -0.009231256 0.009231256 0.07692713 0.0061541707 -0.09231256 0.0 -0.0030770854 0.07077296
0000d0 60 81 82 63 a9 7e 6e 5f 97 7f 5b 90 69 7f 7e 6b
       -0.09846673 0.0030770854 0.0061541707 -0.08923548 0.1261605 -0.0061541707 -0.055387538 -0.101543814 0.07077296 -0.0030770854 -0.11385216 0.049233366 -0.07077296 -0.0030770854 -0.0061541707 -0.064618796
0000e0 7f 7f 67 7f 7f 7e 6e 7f 7e 53 9d 80 83 7f 37 94
       -0.0030770854 -0.0030770854 -0.07692713 -0.0030770854 -0.0030770854 -0.0061541707 -0.055387538 -0.0030770854 -0.0061541707 -0.13846885 0.08923548 0.0 0.009231256 -0.0030770854 -0.22462723 0.061541706
0000f0 6e 80 7f 93 83 a2 65 80 81 81 db 81 7f 80 82 6a
       -0.055387538 0.0 -0.0030770854 0.05846462 0.009231256 0.104620904 -0.083081305 0.0 0.0030770854 0.0030770854 0.28001475 0.0030770854 -0.0030770854 0.0 0.0061541707 -0.06769588

fuse_attr_12 u1 [49, 3, 3, 50] scale=0.010316339 zero_point=128
000000 90 7f 80 81 80 80 80 74 7d 8e 7f 80 71 80 80 7e
       0.16506143 -0.010316339 0.0 0.010316339 0.0 0.0 0.0 -0.123796076 -0.030949019 0.14442874 -0.010316339 0.0 -0.15474509 0.0 0.0 -0.020632679
000010 80 80 81 80 87 97 5f 81 7f 80 92 80 81 7f 80 7f
       0.0 0.0 0.010316339 0.0 0.07221437 0.23727581 -0.3404392 0.010316339 -0.010316339 0.0 0.18569411 0.0 0.010316339 -0.010316339 0.0 -0.010316339
000020 82 91 80 80 80 80 80 8b 80 80 82 81 92 7f 80 7f
       0.020632679 0.17537777 0.0 0.0 0.0 0.0 0.0 0.11347973 0.0 0.0 0.020632679 0.010316339 0.18569411 -0.010316339 0.0 -0.010316339
000030 8b 89 75 6f 7f 90 6e 6c 80 80 7e 82 7f 8a 71 80
       0.11347973 0.09284706 -0.11347973 -0.17537777 -0.010316339 0.16506143 -0.18569411 -0.20632678 0.0 0.0 -0.020632679 0.020632679 -0.010316339 0.10316339 -0.15474509 0.0
000040 80 9d 81 73 82 74 86 90 80 80 72 7f 67 7f 93 7e
       0.0 0.29917383 0.010316339 -0.13411242 0.020632679 -0.123796076 0.061898038 0.16506143 0.0 0.0 -0.14442874 -0.010316339 -0.2579085 -0.010316339 0.19601044 -0.020632679
000050 80 a1 81 8f 70 7f 6c 7f 8b 7f 6e 76 81 82 8b 7f
       0.0 0.3404392 0.010316339 0.15474509 -0.16506143 -0.010316339 -0.20632678 -0.010316339 0.11347973 -0.010316339 -0.18569411 -0.10316339 0.010316339 0.020632679 0.11347973 -0.010316339
000060 80 80 81 96 6c 80 80 6f 80 80 80 81 7c 83 7f 8b
       0.0 0.0 0.010316339 0.22695947 -0.20632678 0.0 0.0 -0.17537777 0.0 0.0 0.0 0.010316339 -0.041265357 0.030949019 -0.010316339 0.11347973
000070 7f 80 80 80 74 74 81 80 73 81 80 81 74 93 70 74
       -0.010316339 0.0 0.0 0.0 -0.123796076 -0.123796076 0.010316339 0.0 -0.13411242 0.010316339 0.0 0.010316339 -0.123796076 0.19601044 -0.16506143 -0.123796076
000080 83 7f 80 72 71 6f 81 6c 63 8e 80 7f 80 76 8f 6f
       0.030949019 -0.010316339 0.0 -0.14442874 -0.15474509 -0.17537777 0.010316339 -0.20632678 -0.29917383 0.14442874 0.0 -0.010316339 0.0 -0.10316339 0.15474509 -0.17537777
000090 7f 7f 7f 80 81 89 82 71 6b 97 6d 80 80 82 67 80
       -0.010316339 -0.010316339 -0.010316339 0.0 0.010316339 0.09284706 0.020632679 -0.15474509 -0.21664312 0.23727581 -0.19601044 0.0 0.0 0.020632679 -0.2579085 0.0
0000a0 61 6e 80 81 80 6f 7f 82 8c 80 7e 8c 83 71 74 7f
       -0.31980652 -0.18569411 0.0 0.010316339 0.0 -0.17537777 -0.010316339 0.020632679 0.123796076 0.0 -0.020632679 0.123796076 0.030949019 -0.15474509 -0.123796076 -0.010316339
0000b0 80 80 80 69 71 81 80 80 6d 89 80 7f 80 82 81 7f
       0.0 0.0 0.0 -0.23727581 -0.15474509 0.010316339 0.0 0.0 -0.19601044 0.09284706 0.0 -0.010316339 0.0 0.020632679 0.010316339 -0.010316339
0000c0 81 80 90 80 80 61 80 74 81 9a 71 93 67 80 72 82
       0.010316339 0.0 0.16506143 0.0 0.0 -0.31980652 0.0 -0.123796076 0.010316339 0.26822484 -0.15474509 0.19601044 -0.2579085 0.0 -0.14442874 0.020632679
0000d0 80 8e 6d 7f 8d 80 80 84 92 83 90 74 7e 82 82 70
       0.0 0.14442874 -0.19601044 -0.010316339 0.13411242 0.0 0.0 0.041265357 0.18569411 0.030949019 0.16506143 -0.123796076 -0.020632679 0.020632679 0.020632679 -0.16506143
0000e0 72 7f 80 80 80 80 80 74 80 93 65 7d 80 7f 8c 7f
       -0.14442874 -0.010316339 0.0 0.0 0.0 0.0 0.0 -0.123796076 0.0 0.19601044 -0.27854115 -0.030949019 0.0 -0.010316339 0.123796076 -0.010316339
0000f0 6e 6c 80 95 7f 7f 80 71 7f 6c 82 be a5 6d 7f 95
       -0.18569411 -0.20632678 0.0 0.21664312 -0.010316339 -0.010316339 0.0 -0.15474509 -0.010316339 -0.20632678 0.020632679 0.63961303 0.38170457 -0.19601044 -0.010316339 0.21664312

fuse_attr_5 u1 [18, 3, 3, 1] scale=0.007057608 zero_point=128
000000 fa 2d 51 6d 7f 88 7a 81 85 89 46 8f 9e 3d 91 98
       0.8610282 -0.58578146 -0.33170757 -0.13409455 -0.007057608 0.056460865 -0.04234565 0.007057608 0.03528804 0.06351847 -0.40934128 0.10586412 0.21172825 -0.47285974 0.11997934 0.1693826
000010 58 8e 91 92 58 94 95 59 8b 89 73 4c 8a 95 47 90
       -0.28230432 0.098806515 0.11997934 0.12703694 -0.28230432 0.14115216 0.14820977 -0.2752467 0.07763369 0.06351847 -0.09174891 -0.36699563 0.07057608 0.14820977 -0.40228367 0.11292173
000020 aa 68 87 91 42 ff 2b 80 7e 73 83 80 7e 91 89 85
       0.29641953 -0.1693826 0.049403258 0.11997934 -0.4375717 0.89631623 -0.59989667 0.0 -0.014115216 -0.09174891 0.021172825 0.0 -0.014115216 0.11997934 0.06351847 0.03528804
000030 74 67 72 66 70 81 99 5f 55 b0 62 59 a9 72 6b 64
       -0.0846913 -0.17644021 -0.098806515 -0.18349782 -0.11292173 0.007057608 0.17644021 -0.23290107 -0.30347714 0.3387652 -0.21172825 -0.2752467 0.28936192 -0.098806515 -0.14820977 -0.19761303
000040 52 63 71 6a 78 86 87 8b 95 75 68 9e 77 69 8f 79
       -0.32464996 -0.20467064 -0.10586412 -0.15526737 -0.056460865 0.04234565 0.049403258 0.07763369 0.14820977 -0.07763369 -0.1693826 0.21172825 -0.06351847 -0.16232498 0.10586412 -0.049403258
000050 6f 7d 78 76 7c 7c 7b 88 88 89 92 96 8e 8b 86 86
       -0.11997934 -0.021172825 -0.056460865 -0.07057608 -0.028230432 -0.028230432 -0.03528804 0.056460865 0.056460865 0.06351847 0.12703694 0.15526737 0.098806515 0.07763369 0.04234565 0.04234565
000060 69 6c 6e 72 6e 7c 6f 72 89 83 7f 74 82 80 6b 8d
       -0.16232498 -0.14115216 -0.12703694 -0.098806515 -0.12703694 -0.028230432 -0.11997934 -0.098806515 0.06351847 0.021172825 -0.007057608 -0.0846913 0.014115216 0.0 -0.14820977 0.09174891
000070 88 63 5b 3b e6 a3 7b 3a b0 81 46 49 8b a4 91 34
       0.056460865 -0.20467064 -0.2611315 -0.48697495 0.71987605 0.24701628 -0.03528804 -0.49403256 0.3387652 0.007057608 -0.40934128 -0.38816845 0.07763369 0.2540739 0.11997934 -0.5363782
000080 a6 8f 69 80 71 79 79 79 8e 8d 7b 67 65 7a 66 64
       0.2681891 0.10586412 -0.16232498 0.0 -0.10586412 -0.049403258 -0.049403258 -0.049403258 0.098806515 0.09174891 -0.03528804 -0.17644021 -0.19055542 -0.04234565 -0.18349782 -0.19761303
000090 73 69 6c 75 71 75 8d 8b 88 59 4f b8 5d 52 c8 7c
       -0.09174891 -0.16232498 -0.14115216 -0.07763369 -0.10586412 -0.07763369 0.09174891 0.07763369 0.056460865 -0.2752467 -0.3458228 0.39522606 -0.24701628 -0.32464996 0.5081478 -0.028230432
0000a0 61 9e
       -0.21878585 0.21172825

fuse_attr_6 u1 [32, 3, 3, 18] scale=0.0055557415 zero_point=128
000000 87 83 84 80 85 7a 84 7a 7d 86 81 76 83 85 80 77
       0.03889019 0.016667224 0.022222966 0.0 0.027778707 -0.03333445 0.022222966 -0.03333445 -0.016667224 0.03333445 0.0055557415 -0.055557415 0.016667224 0.027778707 0.0 -0.050001673
000010 80 83 87 80 8a 80 86 7b 80 7b 83 88 7d 79 80 87
       0.0 0.016667224 0.03889019 0.0 0.055557415 0.0 0.03333445 -0.027778707 0.0 -0.027778707 0.016667224 0.044445932 -0.016667224 -0.03889019 0.0 0.03889019
000020 80 79 80 75 80 7d 7d 74 75 7c 7d 80 85 83 76 84
       0.0 -0.03889019 0.0 -0.061113156 0.0 -0.016667224 -0.016667224 -0.0666689 -0.061113156 -0.022222966 -0.016667224 0.0 0.027778707 0.016667224 -0.055557415 0.022222966
000030 80 83 80 7c 82 75 88 7e 88 75 82 80 80 76 7b 7b
       0.0 0.016667224 0.0 -0.022222966 0.011111483 -0.061113156 0.044445932 -0.011111483 0.044445932 -0.061113156 0.011111483 0.0 0.0 -0.055557415 -0.027778707 -0.027778707
000040 89 73 83 80 7e 7d 77 7b 87 80 8d 79 86 80 80 79
       0.050001673 -0.07222464 0.016667224 0.0 -0.011111483 -0.016667224 -0.050001673 -0.027778707 0.03889019 0.0 0.07222464 -0.03889019 0.03333445 0.0 0.0 -0.03889019
000050 80 7d 87 77 80 80 80 7d 7a 75 80 80 84 75 7d 7d
       0.0 -0.016667224 0.03889019 -0.050001673 0.0 0.0 0.0 -0.016667224 -0.03333445 -0.061113156 0.0 0.0 0.022222966 -0.061113156 -0.016667224 -0.016667224
000060 7e 80 82 80 7a 80 7c 7c 80 80 80 78 84 7a 83 7a
       -0.011111483 0.0 0.011111483 0.0 -0.03333445 0.0 -0.022222966 -0.022222966 0.0 0.0 0.0 -0.044445932 0.022222966 -0.03333445 0.016667224 -0.03333445
000070 7f 84 7e 7b 7c 7a 8a 7c 7d 83 80 80 79 7f 84 7e
       -0.0055557415 0.022222966 -0.011111483 -0.027778707 -0.022222966 -0.03333445 0.055557415 -0.022222966 -0.016667224 0.016667224 0.0 0.0 -0.03889019 -0.0055557415 0.022222966 -0.011111483
000080 85 7f 83 85 80 80 80 7e 87 7e 80 80 83 82 7b 79
       0.027778707 -0.0055557415 0.016667224 0.027778707 0.0 0.0 0.0 -0.011111483 0.03889019 -0.011111483 0.0 0.0 0.016667224 0.011111483 -0.027778707 -0.03889019
000090 80 80 80 7a 7d 80 7d 84 82 83 7c 84 83 80 83 80
       0.0 0.0 0.0 -0.03333445 -0.016667224 0.0 -0.016667224 0.022222966 0.011111483 0.016667224 -0.022222966 0.022222966 0.016667224 0.0 0.016667224 0.0
0000a0 80 7a 80 93 7f a2 76 80 80 95 7b 6f 88 81 63 78
       0.0 -0.03333445 0.0 0.10555909 -0.0055557415 0.18889521 -0.055557415 0.0 0.0 0.11667057 -0.027778707 -0.094447605 0.044445932 0.0055557415 -0.16111651 -0.044445932
0000b0 71 6f 8a 87 78 95 94 81 78 75 80 95 80 76 86 81
       -0.08333612 -0.094447605 0.055557415 0.03889019 -0.044445932 0.11667057 0.11111483 0.0055557415 -0.044445932 -0.061113156 0.0 0.11667057 0.0 -0.055557415 0.03333445 0.0055557415
0000c0 6d 64 71 71 8d 90 81 8a 9b 80 7f 80 80 80 8c 6f
       -0.10555909 -0.15556076 -0.08333612 -0.08333612 0.07222464 0.088891864 0.0055557415 0.055557415 0.15000501 0.0 -0.0055557415 0.0 0.0 0.0 0.0666689 -0.094447605
0000d0 8b 81 78 75 6f 74 80 77 80 81 74 8c 7f 7f 75 71
       0.061113156 0.0055557415 -0.044445932 -0.061113156 -0.094447605 -0.0666689 0.0 -0.050001673 0.0 0.0055557415 -0.0666689 0.0666689 -0.0055557415 -0.0055557415 -0.061113156 -0.08333612
0000e0 80 6b 76 81 61 71 81 9b 75 7f 6b 7c 7f 74 75 8e
       0.0 -0.11667057 -0.055557415 0.0055557415 -0.17222798 -0.08333612 0.0055557415 0.15000501 -0.061113156 -0.0055557415 -0.11667057 -0.022222966 -0.0055557415 -0.0666689 -0.061113156 0.07778038
0000f0 77 6f 7f 65 80 7a a2 98 81 97 6d 82 6f 80 80 8d
       -0.050001673 -0.094447605 -0.0055557415 -0.15000501 0.0 -0.03333445 0.18889521 0.1333378 0.0055557415 0.12778205 -0.10555909 0.011111483 -0.094447605 0.0 0.0 0.07222464

fuse_attr_14 u1 [2, 1, 1, 50] scale=0.038487982 zero_point=128
000000 6f b0 8d 30 a8 a3 ff ae d3 4d 49 66 74 c9 c2 ad
       -0.6542957 1.8474231 0.50034374 -3.0790386 1.5395193 1.3470794 4.887974 1.7704471 3.1945026 -1.962887 -2.116839 -1.0006875 -0.46185577 2.8096228 2.540207 1.7319592
000010 95 49 65 f5 8a 66 87 d5 85 d9 9e 94 9c 7e 53 60
       0.8082476 -2.116839 -1.0391755 4.5030937 0.38487983 -1.0006875 0.2694159 3.2714784 0.19243991 3.4254303 1.1546395 0.76975965 1.0776635 -0.076975964 -1.7319592 -1.2316154
000020 7e 84 80 da 73 b0 59 9c 58 d0 4e b2 57 76 41 73
       -0.076975964 0.15395193 0.0 3.4639184 -0.50034374 1.8474231 -1.5010313 1.0776635 -1.5395193 3.0790386 -1.9243991 1.9243991 -1.5780072 -0.38487983 -2.424743 -0.50034374
000030 eb 8c 73 a1 9c 54 9d 90 c8 b6 95 64 6b 7c 79 9a
       4.118214 0.46185577 -0.50034374 1.2701035 1.0776635 -1.6934712 1.1161515 0.6158077 2.7711346 2.078351 0.8082476 -1.0776635 -0.8082476 -0.15395193 -0.2694159 1.0006875
000040 ab a2 83 61 5b c7 9c 7a a5 b4 80 c4 a4 8e 86 7f
       1.6549833 1.3085914 0.11546394 -1.1931274 -1.4240553 2.7326467 1.0776635 -0.23092788 1.4240553 2.001375 0.0 2.6171827 1.3855673 0.5388318 0.23092788 -0.038487982
000050 5e 6a 81 84 91 bb 75 a6 69 90 72 a5 65 8c 66 80
       -1.3085914 -0.8467356 0.038487982 0.15395193 0.6542957 2.270791 -0.4233678 1.4625434 -0.88522357 0.6158077 -0.5388318 1.4240553 -1.0391755 0.46185577 -1.0006875 0.0
000060 62 80 cd 92
       -1.1546395 0.0 2.9635746 0.69278365

fuse_attr_11 u1 [50, 3, 3, 49] scale=0.0051176073 zero_point=128
000000 80 7f 7f 80 72 7f 80 80 80 7f 7e 74 7f 83 81 7e
       0.0 -0.0051176073 -0.0051176073 0.0 -0.071646504 -0.0051176073 0.0 0.0 0.0 -0.0051176073 -0.010235215 -0.061411288 -0.0051176073 0.015352822 0.0051176073 -0.010235215
000010 76 81 80 7f 7f 81 80 8a 81 80 82 7f 82 80 81 80
       -0.05117607 0.0051176073 0.0 -0.0051176073 -0.0051176073 0.0051176073 0.0 0.05117607 0.0051176073 0.0 0.010235215 -0.0051176073 0.010235215 0.0 0.0051176073 0.0
000020 8a 82 8b 81 8e 92 80 80 80 81 80 80 8d 81 86 6f
       0.05117607 0.010235215 0.05629368 0.0051176073 0.071646504 0.09211693 0.0 0.0 0.0 0.0051176073 0.0 0.0 0.066528894 0.0051176073 0.030705644 -0.08699933
000030 7f 80 7f 7f 76 6b 76 75 80 7f 7f 80 80 70 83 80
       -0.0051176073 0.0 -0.0051176073 -0.0051176073 -0.05117607 -0.10746975 -0.05117607 -0.05629368 0.0 -0.0051176073 -0.0051176073 0.0 0.0 -0.08188172 0.015352822 0.0
000040 70 81 80 80 80 70 82 80 75 81 65 82 7f 75 80 80
       -0.08188172 0.0051176073 0.0 0.0 0.0 -0.08188172 0.010235215 0.0 -0.05629368 0.0051176073 -0.1381754 0.010235215 -0.0051176073 -0.05629368 0.0 0.0
000050 80 81 82 7f 80 80 80 80 80 80 80 8d 80 80 83 70
       0.0 0.0051176073 0.010235215 -0.0051176073 0.0 0.0 0.0 0.0 0.0 0.0 0.0 0.066528894 0.0 0.0 0.015352822 -0.08188172
000060 73 6c 73 70 8a 69 80 80 75 80 80 7f 81 80 80 84
       -0.066528894 -0.10235214 -0.066528894 -0.08188172 0.05117607 -0.117704965 0.0 0.0 -0.05629368 0.0 0.0 -0.0051176073 0.0051176073 0.0 0.0 0.02047043
000070 6c 63 80 81 80 81 6d 70 80 89 81 7f 82 81 82 65
       -0.10235214 -0.14841062 0.0 0.0051176073 0.0 0.0051176073 -0.09723454 -0.08188172 0.0 0.046058465 0.0051176073 -0.0051176073 0.010235215 0.0051176073 0.010235215 -0.1381754
000080 81 70 80 81 95 80 6b 7f 80 8d 6d 73 8f 7f 8a 83
       0.0051176073 -0.08188172 0.0 0.0051176073 0.10746975 0.0 -0.10746975 -0.0051176073 0.0 0.066528894 -0.09723454 -0.066528894 0.07676411 -0.0051176073 0.05117607 0.015352822
000090 5c 81 7c 6e 7e 7e 8c 80 80 81 80 7f 7f 8a 82 80
       -0.18423386 0.0051176073 -0.02047043 -0.09211693 -0.010235215 -0.010235215 0.061411288 0.0 0.0 0.0051176073 0.0 -0.0051176073 -0.0051176073 0.05117607 0.010235215 0.0
0000a0 85 80 7f 8a 80 81 80 8e 8c 7f 78 7f 7f 8d 80 80
       0.025588036 0.0 -0.0051176073 0.05117607 0.0 0.0051176073 0.0 0.071646504 0.061411288 -0.0051176073 -0.04094086 -0.0051176073 -0.0051176073 0.066528894 0.0 0.0
0000b0 81 80 8c 82 81 7e 81 7f 7f 80 7f 70 79 7f 7f 8a
       0.0051176073 0.0 0.061411288 0.010235215 0.0051176073 -0.010235215 0.0051176073 -0.0051176073 -0.0051176073 0.0 -0.0051176073 -0.08188172 -0.035823252 -0.0051176073 -0.0051176073 0.05117607
0000c0 81 7b 7f 7f 81 7f 7e 80 80 72 7f 73 8b 7f 7e 8d
       0.0051176073 -0.025588036 -0.0051176073 -0.0051176073 0.0051176073 -0.0051176073 -0.010235215 0.0 0.0 -0.071646504 -0.0051176073 -0.066528894 0.05629368 -0.0051176073 -0.010235215 0.066528894
0000d0 76 ab 7f 75 81 6f 81 81 74 81 80 75 80 7f 82 80
       -0.05117607 0.22005711 -0.0051176073 -0.05629368 0.0051176073 -0.08699933 0.0051176073 0.0051176073 -0.061411288 0.0051176073 0.0 -0.05629368 0.0 -0.0051176073 0.010235215 0.0
0000e0 81 8d 7f 8b 81 82 7f 80 74 80 72 7f 6f 81 7f 89
       0.0051176073 0.066528894 -0.0051176073 0.05629368 0.0051176073 0.010235215 -0.0051176073 0.0 -0.061411288 0.0 -0.071646504 -0.0051176073 -0.08699933 0.0051176073 -0.0051176073 0.046058465
0000f0 80 82 70 90 71 82 61 81 5f 81 80 80 66 7e 8d 64
       0.0 0.010235215 -0.08188172 0.08188172 -0.07676411 0.010235215 -0.15864582 0.0051176073 -0.16888104 0.0051176073 0.0 0.0 -0.13305779 -0.010235215 0.066528894 -0.14329301

fuse_attr_10 u1 [49, 3, 3, 40] scale=0.002913805 zero_point=128
000000 72 80 80 94 81 7f 80 6d 81 7f 75 8f 80 7f 80 8a
       -0.04079327 0.0 0.0 0.0582761 0.002913805 -0.002913805 0.0 -0.055362295 0.002913805 -0.002913805 -0.032051854 0.043707073 0.0 -0.002913805 0.0 0.02913805
000010 80 81 80 8e 96 6b 80 81 81 80 5c 80 89 80 8c 7f
       0.0 0.002913805 0.0 0.04079327 0.06410371 -0.061189905 0.0 0.002913805 0.002913805 0.0 -0.10489698 0.0 0.026224244 0.0 0.03496566 -0.002913805
000020 80 81 76 82 76 80 95 80 61 80 81 93 8d 72 80 81
       0.0 0.002913805 -0.02913805 0.00582761 -0.02913805 0.0 0.061189905 0.0 -0.090327956 0.0 0.002913805 0.055362295 0.037879463 -0.04079327 0.0 0.002913805
000030 81 8d 6c 80 7f 80 81 80 80 74 63 80 81 57 80 81
       0.002913805 0.037879463 -0.0582761 0.0 -0.002913805 0.0 0.002913805 0.0 0.0 -0.03496566 -0.08450034 0.0 0.002913805 -0.11946601 0.0 0.002913805
000040 91 88 46 7f 80 8e 97 8b 80 75 64 81 81 80 93 80
       0.049534686 0.02331044 -0.16900069 -0.002913805 0.0 0.04079327 0.06701751 0.032051854 0.0 -0.032051854 -0.08158654 0.002913805 0.002913805 0.0 0.055362295 0.0
000050 6a 72 81 9b 76 8b 81 77 81 80 80 80 80 7f 80 7f
       -0.06410371 -0.04079327 0.002913805 0.07867274 -0.02913805 0.032051854 0.002913805 -0.026224244 0.002913805 0.0 0.0 0.0 0.0 -0.002913805 0.0 -0.002913805
000060 80 68 80 7f 6a 66 75 81 7f 7f 76 7f 8c 80 80 80
       0.0 -0.06993132 0.0 -0.002913805 -0.06410371 -0.07575893 -0.032051854 0.002913805 -0.002913805 -0.002913805 -0.02913805 -0.002913805 0.03496566 0.0 0.0 0.0
000070 80 81 6a 81 81 80 70 80 80 6d 80 75 81 6e 80 70
       0.0 0.002913805 -0.06410371 0.002913805 0.002913805 0.0 -0.04662088 0.0 0.0 -0.055362295 0.0 -0.032051854 0.002913805 -0.05244849 0.0 -0.04662088
000080 81 80 81 72 6b 80 80 81 72 82 6d 81 a6 77 80 81
       0.002913805 0.0 0.002913805 -0.04079327 -0.061189905 0.0 0.0 0.002913805 -0.04079327 0.00582761 -0.055362295 0.002913805 0.11072459 -0.026224244 0.0 0.002913805
000090 8b 75 6c 8c 80 80 81 6d 80 83 82 9b 81 80 71 80
       0.032051854 -0.032051854 -0.0582761 0.03496566 0.0 0.0 0.002913805 -0.055362295 0.0 0.008741415 0.00582761 0.07867274 0.002913805 0.0 -0.043707073 0.0
0000a0 80 72 80 78 6f 6f 80 75 76 80 74 73 80 80 81 81
       0.0 -0.04079327 0.0 -0.02331044 -0.049534686 -0.049534686 0.0 -0.032051854 -0.02913805 0.0 -0.03496566 -0.037879463 0.0 0.0 0.002913805 0.002913805
0000b0 80 91 63 81 9d 67 80 79 97 80 80 81 81 90 80 70
       0.0 0.049534686 -0.08450034 0.002913805 0.08450034 -0.07284512 0.0 -0.020396635 0.06701751 0.0 0.0 0.002913805 0.002913805 0.04662088 0.0 -0.04662088
0000c0 6c 83 68 81 80 73 75 81 75 74 80 92 80 8f 81 80
       -0.0582761 0.008741415 -0.06993132 0.002913805 0.0 -0.037879463 -0.032051854 0.002913805 -0.032051854 -0.03496566 0.0 0.05244849 0.0 0.043707073 0.002913805 0.0
0000d0 74 80 81 6a 80 93 80 6a 80 76 81 6a 68 6e 81 82
       -0.03496566 0.0 0.002913805 -0.06410371 0.0 0.055362295 0.0 -0.06410371 0.0 -0.02913805 0.002913805 -0.06410371 -0.06993132 -0.05244849 0.002913805 0.00582761
0000e0 71 81 7f 81 8e 80 80 80 80 74 69 75 81 80 74 6f
       -0.043707073 0.002913805 -0.002913805 0.002913805 0.04079327 0.0 0.0 0.0 0.0 -0.03496566 -0.06701751 -0.032051854 0.002913805 0.0 -0.03496566 -0.049534686
0000f0 72 80 81 81 80 92 93 80 6a 76 79 7f 80 80 81 80
       -0.04079327 0.0 0.002913805 0.002913805 0.0 0.05244849 0.055362295 0.0 -0.06410371 -0.02913805 -0.020396635 -0.002913805 0.0 0.0 0.002913805 0.0

fuse_attr_7 u1 [38, 3, 3, 32] scale=0.003126878 zero_point=128
000000 ad 75 93 86 67 76 7e 7f a8 64 6b 6e 8a 80 97 95
       0.14070952 -0.034395657 0.059410684 0.018761268 -0.07817195 -0.03126878 -0.006253756 -0.003126878 0.12507512 -0.087552585 -0.06566444 -0.056283806 0.03126878 0.0 0.0719182 0.06566444
000010 81 82 8d 6f 80 8d 9a 5d 72 80 7f 7e 7e 6b 82 73
       0.003126878 0.006253756 0.040649414 -0.053156927 0.0 0.040649414 0.08129883 -0.10944073 -0.043776292 0.0 -0.003126878 -0.006253756 -0.006253756 -0.06566444 0.006253756 -0.040649414
000020 80 6c 81 92 7f 6f 7e 69 96 6f 76 82 74 76 80 8a
       0.0 -0.06253756 0.003126878 0.056283806 -0.003126878 -0.053156927 -0.006253756 -0.0719182 0.068791315 -0.053156927 -0.03126878 0.006253756 -0.037522536 -0.03126878 0.0 0.03126878
000030 97 6d 94 7f 7f 6a 85 6f 8f 6f 80 7f 7e 8f 82 61
       0.0719182 -0.059410684 0.06253756 -0.003126878 -0.003126878 -0.068791315 0.01563439 -0.053156927 0.04690317 -0.053156927 0.0 -0.003126878 -0.006253756 0.04690317 0.006253756 -0.09693322
000040 6d 8d 80 83 8d 8d 7e 74 74 72 72 74 80 8b 80 81
       -0.059410684 0.040649414 0.0 0.009380634 0.040649414 0.040649414 -0.006253756 -0.037522536 -0.037522536 -0.043776292 -0.043776292 -0.037522536 0.0 0.034395657 0.0 0.003126878
000050 80 6f af 8d 7f 5f 79 7e 7e 80 80 80 97 9e 82 75
       0.0 -0.053156927 0.14696327 0.040649414 -0.003126878 -0.10318697 -0.021888146 -0.006253756 -0.006253756 0.0 0.0 0.0 0.0719182 0.09380634 0.006253756 -0.034395657
000060 af 92 71 74 68 65 80 72 6c 82 8b 80 7e 81 80 80
       0.14696327 0.056283806 -0.04690317 -0.037522536 -0.07504507 -0.08442571 0.0 -0.043776292 -0.06253756 0.006253756 0.034395657 0.0 -0.006253756 0.003126878 0.0 0.0
000070 82 b4 65 7f 7f 73 b7 a4 6d a1 a7 7e 41 4a 93 bc
       0.006253756 0.16259766 -0.08442571 -0.003126878 -0.003126878 -0.040649414 0.1719783 0.11256761 -0.059410684 0.10318697 0.12194824 -0.006253756 -0.19699332 -0.16885142 0.059410684 0.18761268
000080 8b 8c 5b 6e 64 65 75 57 67 81 8d 60 64 81 63 66
       0.034395657 0.037522536 -0.115694486 -0.056283806 -0.087552585 -0.08442571 -0.034395657 -0.128202 -0.07817195 0.003126878 0.040649414 -0.1000601 -0.087552585 0.003126878 -0.09067947 -0.08129883
000090 80 80 70 6b 73 64 83 7f 5c 93 7f 89 6d 67 8f b3
       0.0 0.0 -0.05003005 -0.06566444 -0.040649414 -0.087552585 0.009380634 -0.003126878 -0.11256761 0.059410684 -0.003126878 0.028141903 -0.059410684 -0.07817195 0.04690317 0.15947078
0000a0 74 7e 61 6d 80 7f 7f 53 70 80 92 64 5e 81 5a 71
       -0.037522536 -0.006253756 -0.09693322 -0.059410684 0.0 -0.003126878 -0.003126878 -0.14070952 -0.05003005 0.0 0.056283806 -0.087552585 -0.106313854 0.003126878 -0.11882137 -0.04690317
0000b0 7f 6f a0 75 80 72 82 7f 80 80 8e 9f 8c 48 8e 8f
       -0.003126878 -0.053156927 0.1000601 -0.034395657 0.0 -0.043776292 0.006253756 -0.003126878 0.0 0.0 0.043776292 0.09693322 0.037522536 -0.17510517 0.043776292 0.04690317
0000c0 62 7f 8e 9e 80 9c 70 9b bc 80 69 ab 9b 99 94 73
       -0.09380634 -0.003126878 0.043776292 0.09380634 0.0 0.087552585 -0.05003005 0.08442571 0.18761268 0.0 -0.0719182 0.13445576 0.08442571 0.07817195 0.06253756 -0.040649414
0000d0 65 69 5b 80 9b 7c 64 6a 7e 5f 4c 62 96 ab 6f 61
       -0.08442571 -0.0719182 -0.115694486 0.0 0.08442571 -0.012507512 -0.087552585 -0.068791315 -0.006253756 -0.10318697 -0.16259766 -0.09380634 0.068791315 0.13445576 -0.053156927 -0.09693322
0000e0 5d 80 8f 80 80 7f 70 99 9a 81 68 a5 8f 80 7f 80
       -0.10944073 0.0 0.04690317 0.0 0.0 -0.003126878 -0.05003005 0.07817195 0.08129883 0.003126878 -0.07504507 0.115694486 0.04690317 0.0 -0.003126878 0.0
0000f0 80 63 62 75 80 7f 57 6f 91 72 67 5e 8b 9a 6e 44
       0.0 -0.09067947 -0.09380634 -0.034395657 0.0 -0.003126878 -0.128202 -0.053156927 0.053156927 -0.043776292 -0.07817195 -0.106313854 0.034395657 0.08129883 -0.056283806 -0.18761268

fuse_attr_3 u1 [8, 1, 9, 1] scale=0.05273584 zero_point=128
000000 8e 95 87 cc 69 60 59 72 79 7d 86 92 60 8e 23 59
       0.73830175 1.1074526 0.36915088 4.0079236 -1.2129242 -1.6875468 -2.0566976 -0.73830175 -0.36915088 -0.15820752 0.31641504 0.9492451 -1.6875468 0.73830175 -4.9044333 -2.0566976
000010 b0 cd 8f 82 85 6a 7d 66 8d 7d 53 c4 76 7b 62 84
       2.5313203 4.0606594 0.79103756 0.10547168 0.2636792 -1.1601884 -0.15820752 -1.3711318 0.6855659 -0.15820752 -2.3731127 3.5860372 -0.5273584 -0.2636792 -1.5820751 0.21094336
000020 6b 86 b4 56 57 51 80 ad 85 97 6c 82 87 7e 89 6e
       -1.1074526 0.31641504 2.7422636 -2.2149053 -2.1621695 -2.4785845 0.0 2.3731127 0.2636792 1.2129242 -1.0547168 0.10547168 0.36915088 -0.10547168 0.47462255 -0.9492451
000030 88 81 9e d1 48 50 7e 88 59 b0 00 e0 94 05 db 74
       0.4218867 0.05273584 1.5820751 4.271603 -2.953207 -2.5313203 -0.10547168 0.4218867 -2.0566976 2.5313203 -6.7501874 5.0626407 1.0547168 -6.4865084 4.798961 -0.6328301
000040 6d 7c 93 86 89 69 8c ba
       -1.0019809 -0.21094336 1.0019809 0.31641504 0.47462255 -1.2129242 0.6328301 3.0586786

fuse_attr_13 u1 [50, 3, 3, 49] scale=0.009978892 zero_point=128
000000 80 80 7f 80 46 80 80 80 b9 80 80 a6 80 80 d4 80
       0.0 0.0 -0.009978892 0.0 -0.57877576 0.0 0.0 0.0 0.5687969 0.0 0.0 0.3791979 0.0 0.0 0.838227 0.0
000010 80 80 7f 80 81 65 7f 80 80 80 7f c5 80 80 80 80
       0.0 0.0 -0.009978892 0.0 0.009978892 -0.2694301 -0.009978892 0.0 0.0 0.0 -0.009978892 0.68854356 0.0 0.0 0.0 0.0
000020 81 80 64 81 81 80 81 80 80 80 55 7f 80 80 80 80
       0.009978892 0.0 -0.279409 0.009978892 0.009978892 0.0 0.009978892 0.0 0.0 0.0 -0.42909238 -0.009978892 0.0 0.0 0.0 0.0
000030 81 80 4c 7f a3 80 ca 80 80 aa 53 80 80 b8 80 ab
       0.009978892 0.0 -0.5189024 -0.009978892 0.34926122 0.0 0.738438 0.0 0.0 0.4191135 -0.44905016 0.0 0.0 0.558818 0.0 0.42909238
000040 80 80 80 80 80 81 80 a2 80 80 80 80 a0 7f 80 60
       0.0 0.0 0.0 0.0 0.0 0.009978892 0.0 0.33928233 0.0 0.0 0.0 0.0 0.31932455 -0.009978892 0.0 -0.31932455
000050 80 81 80 80 80 81 80 80 80 80 4f 80 7f 81 a5 80
       0.0 0.009978892 0.0 0.0 0.0 0.009978892 0.0 0.0 0.0 0.0 -0.48896572 0.0 -0.009978892 0.009978892 0.369219 0.0
000060 80 5c 80 81 7f 81 80 80 a3 80 9d 80 80 80 4b 80
       0.0 -0.3592401 0.0 0.009978892 -0.009978892 0.009978892 0.0 0.0 0.34926122 0.0 0.28938788 0.0 0.0 0.0 -0.5288813 0.0
000070 a4 80 80 80 80 80 81 80 7f 58 7f 80 80 9d 80 81
       0.3592401 0.0 0.0 0.0 0.0 0.0 0.009978892 0.0 -0.009978892 -0.39915568 -0.009978892 0.0 0.0 0.28938788 0.0 0.009978892
000080 80 80 80 54 80 80 59 80 80 80 80 62 9d 80 81 80
       0.0 0.0 0.0 -0.43907127 0.0 0.0 -0.3891768 0.0 0.0 0.0 0.0 -0.29936677 0.28938788 0.0 0.009978892 0.0
000090 80 80 81 80 a1 61 80 80 80 80 81 a3 62 80 80 80
       0.0 0.0 0.009978892 0.0 0.32930344 -0.30934566 0.0 0.0 0.0 0.0 0.009978892 0.34926122 -0.29936677 0.0 0.0 0.0
0000a0 80 62 80 7f 7f b0 80 80 80 81 80 aa 80 80 ac aa
       0.0 -0.29936677 0.0 -0.009978892 -0.009978892 0.47898683 0.0 0.0 0.0 0.009978892 0.0 0.4191135 0.0 0.0 0.43907127 0.4191135
0000b0 81 80 a1 80 4e 81 80 a5 59 80 7f 80 7f 46 5f d9
       0.009978892 0.0 0.32930344 0.0 -0.4989446 0.009978892 0.0 0.369219 -0.3891768 0.0 -0.009978892 0.0 -0.009978892 -0.57877576 -0.32930344 0.8881214
0000c0 ce 81 80 80 82 80 4f 7f 81 a1 64 a2 81 81 80 80
       0.7783536 0.009978892 0.0 0.0 0.019957785 0.0 -0.48896572 -0.009978892 0.009978892 0.32930344 -0.279409 0.33928233 0.009978892 0.009978892 0.0 0.0
0000d0 81 80 81 9f 80 9e 81 80 80 80 61 7f 80 80 80 80
       0.009978892 0.0 0.009978892 0.30934566 0.0 0.29936677 0.009978892 0.0 0.0 0.0 -0.30934566 -0.009978892 0.0 0.0 0.0 0.0
0000e0 80 9e 81 80 80 81 81 80 80 80 80 80 80 7f 80 80
       0.0 0.29936677 0.009978892 0.0 0.0 0.009978892 0.009978892 0.0 0.0 0.0 0.0 0.0 0.0 -0.009978892 0.0 0.0
0000f0 bb 81 c0 80 80 81 80 80 9f 80 80 9f 82 a6 80 81
       0.58875465 0.009978892 0.6386491 0.0 0.0 0.009978892 0.0 0.0 0.30934566 0.0 0.0 0.30934566 0.019957785 0.3791979 0.0 0.009978892
