ACDNet_Test/ipynb_files/models/tflite/quant_retrained_model_95.4_20240130033631.tflite (tflite, 149232 bytes, 12 tensors)

fuse_attr_9 i1 [29, 3, 3, 33] scale=0.0071673435 zero_point=0
00000000: fc2f 05e2 02e8 01ff e008 01e8 fdff fde2
00000010: e7fd e5cb 04e3 fcff fdff 05e6 ffec 30ff
00000020: 04fd ffef 0201 e3fd fdff 0201 fdfe e4fe
00000030: dcdf ffe3 2802 fffd fefd 1f0a 04fd 0103
00000040: fb05 fdd0 df01 0101 e5dc 1402 01fc fdfe
00000050: fc01 0035 fefb 03e6 1118 e82d 0a17 01ff
00000060: 03fe 02fe 0303 0004 fce9 e6e3 07e6 e5e2
00000070: fffc ff05 fb01 fc03 e5fe 00ff 0004 e4fe
00000080: ecff fdff fdd4 3705 03fb fdfc fc01 ff01
00000090: ffdb fce2 0510 012d e5fb fe00 fefb 0902
000000a0: fc00 20f9 171f e31f 0302 00fb fcfb 00fe
000000b0: 00fd fefd 15e9 2afe 1bee fffe 3202 f907
000000c0: 15fe feff fc02 ff05 0600 091c e6e7 fc03
000000d0: e8dc e300 fcff e700 0219 0102 0000 ea06
000000e0: 06e9 02fe fe02 02fd 2531 070b 01fe fffb
000000f0: feff fdeb e1fb e306 fe01 e201 fdfe 00ff
-0.028669374 0.33686516 0.03583672 -0.2150203 0.014334687 -0.17201625 0.0071673435 -0.0071673435
-0.22935499 0.057338748 0.0071673435 -0.17201625 -0.021502031 -0.0071673435 -0.021502031 -0.2150203
-0.17918359 -0.021502031 -0.19351828 -0.3798692 0.028669374 -0.20785296 -0.028669374 -0.0071673435
-0.021502031 -0.0071673435 0.03583672 -0.18635093 -0.0071673435 -0.14334688 0.3440325 -0.0071673435
0.028669374 -0.021502031 -0.0071673435 -0.12184484 0.014334687 0.0071673435 -0.20785296 -0.021502031
-0.021502031 -0.0071673435 0.014334687 0.0071673435 -0.021502031 -0.014334687 -0.20068562 -0.014334687
-0.25802436 -0.23652233 -0.0071673435 -0.20785296 0.28669375 0.014334687 -0.0071673435 -0.021502031
-0.014334687 -0.021502031 0.22218765 0.07167344 0.028669374 -0.021502031 0.0071673435 0.021502031
-0.03583672 0.03583672 -0.021502031 -0.3440325 -0.23652233 0.0071673435 0.0071673435 0.0071673435
-0.19351828 -0.25802436 0.14334688 0.014334687 0.0071673435 -0.028669374 -0.021502031 -0.014334687
-0.028669374 0.0071673435 0.0 0.3798692 -0.014334687 -0.03583672 0.021502031 -0.18635093
0.12184484 0.17201625 -0.17201625 0.32253045 0.07167344 0.1648489 0.0071673435 -0.0071673435
0.021502031 -0.014334687 0.014334687 -0.014334687 0.021502031 0.021502031 0.0 0.028669374
-0.028669374 -0.1648489 -0.18635093 -0.20785296 0.050171405 -0.18635093 -0.19351828 -0.2150203
-0.0071673435 -0.028669374 -0.0071673435 0.03583672 -0.03583672 0.0071673435 -0.028669374 0.021502031
-0.19351828 -0.014334687 0.0 -0.0071673435 0.0 0.028669374 -0.20068562 -0.014334687
-0.14334688 -0.0071673435 -0.021502031 -0.0071673435 -0.021502031 -0.3153631 0.3942039 0.03583672
0.021502031 -0.03583672 -0.021502031 -0.028669374 -0.028669374 0.0071673435 -0.0071673435 0.0071673435
-0.0071673435 -0.2651917 -0.028669374 -0.2150203 0.03583672 0.114677496 0.0071673435 0.32253045
-0.19351828 -0.03583672 -0.014334687 0.0 -0.014334687 -0.03583672 0.06450609 0.014334687
-0.028669374 0.0 0.22935499 -0.050171405 0.1648489 0.22218765 -0.20785296 0.22218765
0.021502031 0.014334687 0.0 -0.03583672 -0.028669374 -0.03583672 0.0 -0.014334687
0.0 -0.021502031 -0.014334687 -0.021502031 0.15051422 -0.1648489 0.30102843 -0.014334687
0.19351828 -0.12901218 -0.0071673435 -0.014334687 0.35836717 0.014334687 -0.050171405 0.050171405
0.15051422 -0.014334687 -0.014334687 -0.0071673435 -0.028669374 0.014334687 -0.0071673435 0.03583672
0.043004062 0.0 0.06450609 0.20068562 -0.18635093 -0.17918359 -0.028669374 0.021502031
-0.17201625 -0.25802436 -0.20785296 0.0 -0.028669374 -0.0071673435 -0.17918359 0.0
0.014334687 0.17918359 0.0071673435 0.014334687 0.0 0.0 -0.15768155 0.043004062
0.043004062 -0.1648489 0.014334687 -0.014334687 -0.014334687 0.014334687 0.014334687 -0.021502031
0.2651917 0.35119984 0.050171405 0.07884078 0.0071673435 -0.014334687 -0.0071673435 -0.03583672
-0.014334687 -0.0071673435 -0.021502031 -0.15051422 -0.22218765 -0.03583672 -0.20785296 0.043004062
-0.014334687 0.0071673435 -0.2150203 0.0071673435 -0.021502031 -0.014334687 0.0 -0.0071673435

fuse_attr_4 i1 [32, 1, 5, 5] scale=0.0088199405 zero_point=0
00000000: ea07 09f4 f6f9 1111 fa01 f519 0b00 01ff
00000010: 2ef2 0006 0123 02fc 0af9 81d7 fd35 00a1
00000020: c100 4408 c2e8 fe3a f3d1 d6fd 49e4 d8e3
00000030: fe50 0005 fc05 00fa 10ff 04ff ed0d f600
00000040: f8f2 1100 f9fd f612 0002 fff1 e641 edfc
00000050: d603 25f2 1bbe e913 fe0b ddf9 fbff 34e2
00000060: 17f5 0744 13dc e3fc 012a 02d0 faef 1c26
00000070: d704 e507 35e1 fde7 ff32 e9fb e201 fff4
00000080: fff6 f8ff f5fa f6fb f601 fcfc f6f2 0200
00000090: 05f5 f2ff 0012 e8f1 0804 fef0 f4fe 01fa
000000a0: f5f9 fb01 f6f1 03ff 03f0 001a 00f6 f005
000000b0: fc00 0c00 01fe 000d 02fc 03fe fcfe fa03
000000c0: fbf4 00ff ffff f903 dffb 01c4 fff7 080b
000000d0: ca05 f4f6 1112 0b18 f413 39ff 11fc ef12
000000e0: fffe f60f 33fe 030d da86 eaea e119 461f
000000f0: 0715 f402 e6f2 faf4 da11 f8f6 ffdd 05f4
-0.19403869 0.061739583 0.07937946 -0.10583928 -0.08819941 -0.061739583 0.14993899 0.14993899
-0.05291964 0.0088199405 -0.097019345 0.22049852 0.097019345 0.0 0.0088199405 -0.0088199405
0.40571725 -0.123479165 0.0 0.05291964 0.0088199405 0.3086979 0.017639881 -0.035279762
0.08819941 -0.061739583 -1.1201324 -0.36161757 -0.02645982 0.46745685 0.0 -0.8378943
-0.55565625 0.0 0.59975594 0.070559524 -0.5468363 -0.21167856 -0.017639881 0.51155657
-0.11465923 -0.4145372 -0.3704375 -0.02645982 0.64385563 -0.24695833 -0.35279763 -0.25577828
-0.017639881 0.70559525 0.0 0.044099703 -0.035279762 0.044099703 0.0 -0.05291964
0.14111905 -0.0088199405 0.035279762 -0.0088199405 -0.16757888 0.11465923 -0.08819941 0.0
-0.070559524 -0.123479165 0.14993899 0.0 -0.061739583 -0.02645982 -0.08819941 0.15875892
0.0 0.017639881 -0.0088199405 -0.13229911 -0.22931845 0.5732961 -0.16757888 -0.035279762
-0.3704375 0.02645982 0.32633778 -0.123479165 0.2381384 -0.58211607 -0.20285863 0.16757888
-0.017639881 0.097019345 -0.3086979 -0.061739583 -0.044099703 -0.0088199405 0.4586369 -0.26459822
0.20285863 -0.097019345 0.061739583 0.59975594 0.16757888 -0.31751785 -0.25577828 -0.035279762
0.0088199405 0.3704375 0.017639881 -0.42335713 -0.05291964 -0.14993899 0.24695833 0.33515775
-0.36161757 0.035279762 -0.2381384 0.061739583 0.46745685 -0.27341816 -0.02645982 -0.22049852
-0.0088199405 0.44099703 -0.20285863 -0.044099703 -0.26459822 0.0088199405 -0.0088199405 -0.10583928
-0.0088199405 -0.08819941 -0.070559524 -0.0088199405 -0.097019345 -0.05291964 -0.08819941 -0.044099703
-0.08819941 0.0088199405 -0.035279762 -0.035279762 -0.08819941 -0.123479165 0.017639881 0.0
0.044099703 -0.097019345 -0.123479165 -0.0088199405 0.0 0.15875892 -0.21167856 -0.13229911
0.070559524 0.035279762 -0.017639881 -0.14111905 -0.10583928 -0.017639881 0.0088199405 -0.05291964
-0.097019345 -0.061739583 -0.044099703 0.0088199405 -0.08819941 -0.13229911 0.02645982 -0.0088199405
0.02645982 -0.14111905 0.0 0.22931845 0.0 -0.08819941 -0.14111905 0.044099703
-0.035279762 0.0 0.10583928 0.0 0.0088199405 -0.017639881 0.0 0.11465923
0.017639881 -0.035279762 0.02645982 -0.017639881 -0.035279762 -0.017639881 -0.05291964 0.02645982
-0.044099703 -0.10583928 0.0 -0.0088199405 -0.0088199405 -0.0088199405 -0.061739583 0.02645982
-0.29105803 -0.044099703 0.0088199405 -0.52919644 -0.0088199405 -0.07937946 0.070559524 0.097019345
-0.4762768 0.044099703 -0.10583928 -0.08819941 0.14993899 0.15875892 0.097019345 0.21167856
-0.10583928 0.16757888 0.5027366 -0.0088199405 0.14993899 -0.035279762 -0.14993899 0.15875892
-0.0088199405 -0.017639881 -0.08819941 0.13229911 0.44981697 -0.017639881 0.02645982 0.11465923
-0.33515775 -1.0760328 -0.19403869 -0.19403869 -0.27341816 0.22049852 0.6173958 0.27341816
0.061739583 0.18521875 -0.10583928 0.017639881 -0.22931845 -0.123479165 -0.05291964 -0.10583928
-0.33515775 0.14993899 -0.070559524 -0.08819941 -0.0088199405 -0.3086979 0.044099703 -0.10583928

fuse_attr_11 i1 [47, 3, 3, 56] scale=0.0064399387 zero_point=0
00000000: 0001 0500 ff03 ff02 00ff e305 2201 03fd
00000010: d801 2103 0203 ff07 0205 ff00 0002 0604
00000020: 0206 fe00 0102 fc03 03ff e3fd ff03 0602
00000030: fd02 0001 fe36 00e2 0003 fd01 fe03 fd03
00000040: 00fd e226 00e3 0117 0301 0201 fd1b 0009
00000050: ffff ff00 0102 0602 01fd feff ff02 fe2a
00000060: fffe fbff fee6 0100 fd03 0002 ff2e feff
00000070: e704 fc01 0003 fc01 e0fe 0027 02ff 04fe
00000080: 031d 0201 1fff fe08 01fb e100 0001 0201
00000090: 00fc fe00 ff04 fe02 ff00 fa00 fe00 fd02
000000a0: 0003 ff01 0039 fcff 02fe fe00 0003 fefe
000000b0: fffe 00fe feff ff00 e202 0400 fdff e024
000000c0: 0302 0300 01ff ff00 ff06 03fd 0003 01fe
000000d0: 0703 02fc feff fe00 fffe 00ff 01ff 02db
000000e0: 0216 fd01 0003 00fe fe00 0000 ff00 00ff
000000f0: e103 0200 fe00 e504 01ff 0202 fd00 fffc
0.0 0.0064399387 0.032199692 0.0 -0.0064399387 0.019319816 -0.0064399387 0.012879877
0.0 -0.0064399387 -0.18675822 0.032199692 0.21895792 0.0064399387 0.019319816 -0.019319816
-0.25759754 0.0064399387 0.21251798 0.019319816 0.012879877 0.019319816 -0.0064399387 0.04507957
0.012879877 0.032199692 -0.0064399387 0.0 0.0 0.012879877 0.03863963 0.025759755
0.012879877 0.03863963 -0.012879877 0.0 0.0064399387 0.012879877 -0.025759755 0.019319816
0.019319816 -0.0064399387 -0.18675822 -0.019319816 -0.0064399387 0.019319816 0.03863963 0.012879877
-0.019319816 0.012879877 0.0 0.0064399387 -0.012879877 0.34775668 0.0 -0.19319816
0.0 0.019319816 -0.019319816 0.0064399387 -0.012879877 0.019319816 -0.019319816 0.019319816
0.0 -0.019319816 -0.19319816 0.24471767 0.0 -0.18675822 0.0064399387 0.14811859
0.019319816 0.0064399387 0.012879877 0.0064399387 -0.019319816 0.17387834 0.0 0.05795945
-0.0064399387 -0.0064399387 -0.0064399387 0.0 0.0064399387 0.012879877 0.03863963 0.012879877
0.0064399387 -0.019319816 -0.012879877 -0.0064399387 -0.0064399387 0.012879877 -0.012879877 0.2704774
-0.0064399387 -0.012879877 -0.032199692 -0.0064399387 -0.012879877 -0.1674384 0.0064399387 0.0
-0.019319816 0.019319816 0.0 0.012879877 -0.0064399387 0.29623717 -0.012879877 -0.0064399387
-0.16099846 0.025759755 -0.025759755 0.0064399387 0.0 0.019319816 -0.025759755 0.0064399387
-0.20607804 -0.012879877 0.0 0.2511576 0.012879877 -0.0064399387 0.025759755 -0.012879877
0.019319816 0.18675822 0.012879877 0.0064399387 0.1996381 -0.0064399387 -0.012879877 0.05151951
0.0064399387 -0.032199692 -0.1996381 0.0 0.0 0.0064399387 0.012879877 0.0064399387
0.0 -0.025759755 -0.012879877 0.0 -0.0064399387 0.025759755 -0.012879877 0.012879877
-0.0064399387 0.0 -0.03863963 0.0 -0.012879877 0.0 -0.019319816 0.012879877
0.0 0.019319816 -0.0064399387 0.0064399387 0.0 0.36707652 -0.025759755 -0.0064399387
0.012879877 -0.012879877 -0.012879877 0.0 0.0 0.019319816 -0.012879877 -0.012879877
-0.0064399387 -0.012879877 0.0 -0.012879877 -0.012879877 -0.0064399387 -0.0064399387 0.0
-0.19319816 0.012879877 0.025759755 0.0 -0.019319816 -0.0064399387 -0.20607804 0.2318378
0.019319816 0.012879877 0.019319816 0.0 0.0064399387 -0.0064399387 -0.0064399387 0.0
-0.0064399387 0.03863963 0.019319816 -0.019319816 0.0 0.019319816 0.0064399387 -0.012879877
0.04507957 0.019319816 0.012879877 -0.025759755 -0.012879877 -0.0064399387 -0.012879877 0.0
-0.0064399387 -0.012879877 0.0 -0.0064399387 0.0064399387 -0.0064399387 0.012879877 -0.23827773
0.012879877 0.14167865 -0.019319816 0.0064399387 0.0 0.019319816 0.0 -0.012879877
-0.012879877 0.0 0.0 0.0 -0.0064399387 0.0 0.0 -0.0064399387
-0.1996381 0.019319816 0.012879877 0.0 -0.012879877 0.0 -0.17387834 0.025759755
0.0064399387 -0.0064399387 0.012879877 0.012879877 -0.019319816 0.0 -0.0064399387 -0.025759755

fuse_attr_12 i1 [65, 3, 3, 47] scale=0.003298083 zero_point=0
00000000: fd00 ef01 1700 2806 00ff ffff 001d 01ff
00000010: 0003 ffff 1300 00fe 0102 0002 13ff ffff
00000020: 0702 02eb ff00 0201 0004 ff04 0001 ff00
00000030: 02ed ffff ffff 15fc ff00 0300 0001 ff00
00000040: 02ff ff01 0001 0202 ffff 0202 03ff ff03
00000050: 01ff 0100 0000 01ff 0400 0200 02fe ef1d
00000060: 01ff 01ff 1913 0200 0204 0001 ffff ff19
00000070: 0002 0101 0304 0015 031a 0018 1314 0102
00000080: 0002 0000 e801 0101 01ff 0002 1800 01ff
00000090: 0202 1419 0603 ff02 ff12 0002 0214 0100
000000a0: fdff 0001 fe00 03ff 071e fffd 0205 02d8
000000b0: 03fe fe01 1aff 0418 0501 ffea 0100 ffff
000000c0: 03ff 0006 feff 01fd 00ff 0301 0100 12fc
000000d0: 0200 0100 0001 fb02 0201 fe00 fdfb fe02
000000e0: 02fd 0001 0000 13ff 00ff 0103 fdff fd01
000000f0: 0001 1811 0000 ff00 ff01 0014 0100 fdff
-0.009894249 0.0 -0.05606741 0.003298083 0.07585591 0.0 0.13192332 0.019788498
0.0 -0.003298083 -0.003298083 -0.003298083 0.0 0.09564441 0.003298083 -0.003298083
0.0 0.009894249 -0.003298083 -0.003298083 0.06266358 0.0 0.0 -0.006596166
0.003298083 0.006596166 0.0 0.006596166 0.06266358 -0.003298083 -0.003298083 -0.003298083
0.023086581 0.006596166 0.006596166 -0.06925975 -0.003298083 0.0 0.006596166 0.003298083
0.0 0.013192332 -0.003298083 0.013192332 0.0 0.003298083 -0.003298083 0.0
0.006596166 -0.06266358 -0.003298083 -0.003298083 -0.003298083 -0.003298083 0.06925975 -0.013192332
-0.003298083 0.0 0.009894249 0.0 0.0 0.003298083 -0.003298083 0.0
0.006596166 -0.003298083 -0.003298083 0.003298083 0.0 0.003298083 0.006596166 0.006596166
-0.003298083 -0.003298083 0.006596166 0.006596166 0.009894249 -0.003298083 -0.003298083 0.009894249
0.003298083 -0.003298083 0.003298083 0.0 0.0 0.0 0.003298083 -0.003298083
0.013192332 0.0 0.006596166 0.0 0.006596166 -0.006596166 -0.05606741 0.09564441
0.003298083 -0.003298083 0.003298083 -0.003298083 0.08245207 0.06266358 0.006596166 0.0
0.006596166 0.013192332 0.0 0.003298083 -0.003298083 -0.003298083 -0.003298083 0.08245207
0.0 0.006596166 0.003298083 0.003298083 0.009894249 0.013192332 0.0 0.06925975
0.009894249 0.08575016 0.0 0.07915399 0.06266358 0.06596166 0.003298083 0.006596166
0.0 0.006596166 0.0 0.0 -0.07915399 0.003298083 0.003298083 0.003298083
0.003298083 -0.003298083 0.0 0.006596166 0.07915399 0.0 0.003298083 -0.003298083
0.006596166 0.006596166 0.06596166 0.08245207 0.019788498 0.009894249 -0.003298083 0.006596166
-0.003298083 0.059365496 0.0 0.006596166 0.006596166 0.06596166 0.003298083 0.0
-0.009894249 -0.003298083 0.0 0.003298083 -0.006596166 0.0 0.009894249 -0.003298083
0.023086581 0.098942496 -0.003298083 -0.009894249 0.006596166 0.016490415 0.006596166 -0.13192332
0.009894249 -0.006596166 -0.006596166 0.003298083 0.08575016 -0.003298083 0.013192332 0.07915399
0.016490415 0.003298083 -0.003298083 -0.07255783 0.003298083 0.0 -0.003298083 -0.003298083
0.009894249 -0.003298083 0.0 0.019788498 -0.006596166 -0.003298083 0.003298083 -0.009894249
0.0 -0.003298083 0.009894249 0.003298083 0.003298083 0.0 0.059365496 -0.013192332
0.006596166 0.0 0.003298083 0.0 0.0 0.003298083 -0.016490415 0.006596166
0.006596166 0.003298083 -0.006596166 0.0 -0.009894249 -0.016490415 -0.006596166 0.006596166
0.006596166 -0.009894249 0.0 0.003298083 0.0 0.0 0.06266358 -0.003298083
0.0 -0.003298083 0.003298083 0.009894249 -0.009894249 -0.003298083 -0.009894249 0.003298083
0.0 0.003298083 0.07915399 0.05606741 0.0 0.0 -0.003298083 0.0
-0.003298083 0.003298083 0.0 0.06596166 0.003298083 0.0 -0.009894249 -0.003298083

fuse_attr_6 i1 [16, 3, 3, 9] scale=0.005156796 zero_point=0
00000000: ffef ff3a ffc2 11fc fcfc 17fc f3fc e8e6
00000010: eef7 fdf1 fca8 fbae 01bf fdff f3fe abff
00000020: eaf3 f1fd fc26 fc1d fc41 d5de f5fe bffd
00000030: 49fc 24f7 0dfe febf fd23 fffc 10dc fffd
00000040: 12fc 22fd 1c00 f3f9 fdf2 fd04 fefb 19db
00000050: 0002 0103 ff03 080f 0000 0201 03ff 0208
00000060: 1000 0101 f503 ff02 0710 f300 011d 0202
00000070: 0207 1300 0101 1a02 0e02 1516 0101 0100
00000080: 0202 0205 1201 0000 0001 0701 0600 0000
00000090: 0001 0106 0106 0001 0100 0001 0601 0400
000000a0: 0200 ff80 ff54 ffd2 230f 0000 ff13 0aff
000000b0: c03f 1900 0038 ff95 ff06 feff 0200 d1ff
000000c0: 9bff a400 5100 ffef fed4 ffa8 03b6 0000
000000d0: e600 6000 06e1 e401 0043 00fa 0035 fde9
000000e0: ff00 a6ff d3ff fb28 5400 0130 01d0 0007
000000f0: 2804 0200 f700 fd00 e400 f600 000d 00fd
-0.005156796 -0.08766553 -0.005156796 0.29909417 -0.005156796 -0.31972134 0.08766553 -0.020627184
-0.020627184 -0.020627184 0.11860631 -0.020627184 -0.06703835 -0.020627184 -0.1237631 -0.1340767
-0.09282233 -0.046411164 -0.015470387 -0.07735194 -0.020627184 -0.45379806 -0.02578398 -0.42285725
0.005156796 -0.33519173 -0.015470387 -0.005156796 -0.06703835 -0.010313592 -0.43832767 -0.005156796
-0.113449514 -0.06703835 -0.07735194 -0.015470387 -0.020627184 0.19595824 -0.020627184 0.14954709
-0.020627184 0.33519173 -0.22174223 -0.17533106 -0.056724757 -0.010313592 -0.33519173 -0.015470387
0.3764461 -0.020627184 0.18564466 -0.046411164 0.06703835 -0.010313592 -0.010313592 -0.33519173
-0.015470387 0.18048786 -0.005156796 -0.020627184 0.082508735 -0.18564466 -0.005156796 -0.015470387
0.09282233 -0.020627184 0.17533106 -0.015470387 0.14439029 0.0 -0.06703835 -0.03609757
-0.015470387 -0.07219514 -0.015470387 0.020627184 -0.010313592 -0.02578398 0.1289199 -0.19080146
0.0 0.010313592 0.005156796 0.015470387 -0.005156796 0.015470387 0.041254368 0.07735194
0.0 0.0 0.010313592 0.005156796 0.015470387 -0.005156796 0.010313592 0.041254368
0.082508735 0.0 0.005156796 0.005156796 -0.056724757 0.015470387 -0.005156796 0.010313592
0.03609757 0.082508735 -0.06703835 0.0 0.005156796 0.14954709 0.010313592 0.010313592
0.010313592 0.03609757 0.09797912 0.0 0.005156796 0.005156796 0.1340767 0.010313592
0.07219514 0.010313592 0.108292714 0.113449514 0.005156796 0.005156796 0.005156796 0.0
0.010313592 0.010313592 0.010313592 0.02578398 0.09282233 0.005156796 0.0 0.0
0.0 0.005156796 0.03609757 0.005156796 0.030940775 0.0 0.0 0.0
0.0 0.005156796 0.005156796 0.030940775 0.005156796 0.030940775 0.0 0.005156796
0.005156796 0.0 0.0 0.005156796 0.030940775 0.005156796 0.020627184 0.0
0.010313592 0.0 -0.005156796 -0.6600699 -0.005156796 0.43317086 -0.005156796 -0.23721261
0.18048786 0.07735194 0.0 0.0 -0.005156796 0.09797912 0.05156796 -0.005156796
-0.33003494 0.32487816 0.1289199 0.0 0.0 0.28878057 -0.005156796 -0.5517772
-0.005156796 0.030940775 -0.010313592 -0.005156796 0.010313592 0.0 -0.24236941 -0.005156796
-0.5208364 -0.005156796 -0.47442523 0.0 0.41770047 0.0 -0.005156796 -0.08766553
-0.010313592 -0.22689903 -0.005156796 -0.45379806 0.015470387 -0.3816029 0.0 0.0
-0.1340767 0.0 0.4950524 0.0 0.030940775 -0.15986067 -0.14439029 0.005156796
0.0 0.34550533 0.0 -0.030940775 0.0 0.27331018 -0.015470387 -0.11860631
-0.005156796 0.0 -0.46411163 -0.005156796 -0.23205581 -0.005156796 -0.02578398 0.20627184
0.43317086 0.0 0.005156796 0.2475262 0.005156796 -0.2475262 0.0 0.03609757
0.20627184 0.020627184 0.010313592 0.0 -0.046411164 0.0 -0.015470387 0.0
-0.14439029 0.0 -0.05156796 0.0 0.0 0.06703835 0.0 -0.015470387

fuse_attr_5 i1 [9, 3, 3, 1] scale=0.005229144 zero_point=0
00000000: ffff fefd fefd ff10 ffb2 101f a713 3cdc
00000010: 0a18 0101 00ff ffff 060b 072b 1911 f4da
00000020: eecf e0ff 0007 ff00 0000 0609 0005 120d
00000030: f52b 03f4 1301 f5f7 f204 f712 f7f4 f94f
00000040: 0080 6101 9293 1547 f1f5 1b01 0001 0100
00000050: 01
-0.005229144 -0.005229144 -0.010458288 -0.015687432 -0.010458288 -0.015687432 -0.005229144 0.0836663
-0.005229144 -0.4078732 0.0836663 0.16210346 -0.4653938 0.09935373 0.31374863 -0.18824919
0.052291438 0.12549946 0.005229144 0.005229144 0.0 -0.005229144 -0.005229144 -0.005229144
0.031374864 0.057520583 0.036604006 0.22485319 0.1307286 0.08889545 -0.06274973 -0.19870746
-0.09412459 -0.25622806 -0.1673326 -0.005229144 0.0 0.036604006 -0.005229144 0.0
0.0 0.0 0.031374864 0.047062296 0.0 0.026145719 0.09412459 0.067978874
-0.057520583 0.22485319 0.015687432 -0.06274973 0.09935373 0.005229144 -0.057520583 -0.047062296
-0.07320801 0.020916576 -0.047062296 0.09412459 -0.047062296 -0.06274973 -0.036604006 0.41310236
0.0 -0.6693304 0.50722694 0.005229144 -0.5752058 -0.5699767 0.10981202 0.37126923
-0.07843716 -0.057520583 0.14118688 0.005229144 0.0 0.005229144 0.005229144 0.0
0.005229144

fuse_attr_10 i1 [56, 3, 3, 29] scale=0.0036576742 zero_point=0
00000000: 00e7 d6ef 01fe ecff 0002 ffff 17e1 f200
00000010: 03e4 00ff ff01 001e 0119 ff01 01df e1df
00000020: 0101 fedf 0000 01ff 01fd e6e6 eb02 e1ff
00000030: fe00 0200 1902 0100 01d9 ede8 e302 01fe
00000040: e301 0001 0102 fcd2 e9ec 0100 fefe ff02
00000050: 01fe 0300 0101 ca00 ffd0 feff fed0 ffe9
00000060: 02fd fd32 fe00 0100 d4ff 31fe feff fb0f
00000070: fefd 00ff f0dd cdfd 00fd ddfe ea00 fefd
00000080: fffb 0000 00df fe16 00fe fefa 00ff feff
00000090: 19d8 e5bf 1201 0000 ebe6 0000 fe00 dbea
000000a0: e7ff e4eb 0100 13ff fb00 ffff 11e5 ff00
000000b0: d3fb fffe 02fc fefe fafd fdff fd11 ffff
000000c0: ebfe fefe fcfd 1216 faea 0000 dce3 fbff
000000d0: fedb fdfd fffa fdfd 0ffe 16fd 01fe ff00
000000e0: eafb fdfc fffb 0011 ff00 e4fd 00fe 1ae4
000000f0: fffe fdfd e8ea fdfd fc00 ffff ffe8 fdfd
0.0 -0.091441855 -0.15362231 -0.06218046 0.0036576742 -0.0073153484 -0.07315348 -0.0036576742
0.0 0.0073153484 -0.0036576742 -0.0036576742 0.08412651 -0.1133879 -0.051207438 0.0
0.010973022 -0.102414876 0.0 -0.0036576742 -0.0036576742 0.0036576742 0.0 0.10973023
0.0036576742 0.091441855 -0.0036576742 0.0036576742 0.0036576742 -0.12070325 -0.1133879 -0.12070325
0.0036576742 0.0036576742 -0.0073153484 -0.12070325 0.0 0.0 0.0036576742 -0.0036576742
0.0036576742 -0.010973022 -0.09509953 -0.09509953 -0.07681116 0.0073153484 -0.1133879 -0.0036576742
-0.0073153484 0.0 0.0073153484 0.0 0.091441855 0.0073153484 0.0036576742 0.0
0.0036576742 -0.1426493 -0.06949581 -0.08778418 -0.10607255 0.0073153484 0.0036576742 -0.0073153484
-0.10607255 0.0036576742 0.0 0.0036576742 0.0036576742 0.0073153484 -0.014630697 -0.16825302
-0.08412651 -0.07315348 0.0036576742 0.0 -0.0073153484 -0.0073153484 -0.0036576742 0.0073153484
0.0036576742 -0.0073153484 0.010973022 0.0 0.0036576742 0.0036576742 -0.1975144 0.0
-0.0036576742 -0.17556836 -0.0073153484 -0.0036576742 -0.0073153484 -0.17556836 -0.0036576742 -0.08412651
0.0073153484 -0.010973022 -0.010973022 0.18288371 -0.0073153484 0.0 0.0036576742 0.0
-0.16093767 -0.0036576742 0.17922604 -0.0073153484 -0.0073153484 -0.0036576742 -0.01828837 0.054865114
-0.0073153484 -0.010973022 0.0 -0.0036576742 -0.058522787 -0.1280186 -0.18654138 -0.010973022
0.0 -0.010973022 -0.1280186 -0.0073153484 -0.08046883 0.0 -0.0073153484 -0.010973022
-0.0036576742 -0.01828837 0.0 0.0 0.0 -0.12070325 -0.0073153484 0.08046883
0.0 -0.0073153484 -0.0073153484 -0.021946045 0.0 -0.0036576742 -0.0073153484 -0.0036576742
0.091441855 -0.14630696 -0.0987572 -0.23774882 0.065838136 0.0036576742 0.0 0.0
-0.07681116 -0.09509953 0.0 0.0 -0.0073153484 0.0 -0.13533394 -0.08046883
-0.091441855 -0.0036576742 -0.102414876 -0.07681116 0.0036576742 0.0 0.06949581 -0.0036576742
-0.01828837 0.0 -0.0036576742 -0.0036576742 0.06218046 -0.0987572 -0.0036576742 0.0
-0.16459534 -0.01828837 -0.0036576742 -0.0073153484 0.0073153484 -0.014630697 -0.0073153484 -0.0073153484
-0.021946045 -0.010973022 -0.010973022 -0.0036576742 -0.010973022 0.06218046 -0.0036576742 -0.0036576742
-0.07681116 -0.0073153484 -0.0073153484 -0.0073153484 -0.014630697 -0.010973022 0.065838136 0.08046883
-0.021946045 -0.08046883 0.0 0.0 -0.13167627 -0.10607255 -0.01828837 -0.0036576742
-0.0073153484 -0.13533394 -0.010973022 -0.010973022 -0.0036576742 -0.021946045 -0.010973022 -0.010973022
0.054865114 -0.0073153484 0.08046883 -0.010973022 0.0036576742 -0.0073153484 -0.0036576742 0.0
-0.08046883 -0.01828837 -0.010973022 -0.014630697 -0.0036576742 -0.01828837 0.0 0.06218046
-0.0036576742 0.0 -0.102414876 -0.010973022 0.0 -0.0073153484 0.09509953 -0.102414876
-0.0036576742 -0.0073153484 -0.010973022 -0.010973022 -0.08778418 -0.08046883 -0.010973022 -0.010973022
-0.014630697 0.0 -0.0036576742 -0.0036576742 -0.0036576742 -0.08778418 -0.010973022 -0.010973022

fuse_attr_14 i1 [2, 1, 1, 90] scale=0.008174257 zero_point=0
00000000: aa1a c617 0422 023f 0519 3021 1f28 35d5
00000010: ceca 0de7 d169 2407 1702 fa1d 4842 d0fe
00000020: c5f8 e7c9 5309 17fc 243d aeee 36fe 07f0
00000030: 3639 2133 5425 1643 0934 3e3c 2335 fa28
00000040: 06d7 be7f 2a0b ea2d 16cd e5c5 27fc df24
00000050: 3db6 313f 0320 2ee8 500f 5be6 21d8 052c
00000060: dc32 4e04 3cd4 e402 e536 2e67 cb2f 42be
00000070: f8e7 3444 2e29 edf5 3318 2842 051e d0f8
00000080: da1c 51c9 3e44 3a22 291d 3e03 27f1 e6e4
00000090: ed41 f406 ec4d 30ff 3d0d 4231 3894 dff2
000000a0: 202f fe42 2b13 2e2a 2df1 434d ccd3 2efc
000000b0: b222 0e10
-0.7029861 0.21253069 -0.47410694 0.18800792 0.03269703 0.27792475 0.016348515 0.51497823
0.040871285 0.20435643 0.39236435 0.2697505 0.25340196 0.32697028 0.43323565 -0.35149306
-0.40871286 -0.4414099 0.106265344 -0.20435643 -0.38419008 0.85829705 0.29427326 0.057219803
0.18800792 0.016348515 -0.049045544 0.23705347 0.5885465 0.539501 -0.39236435 -0.016348515
-0.48228118 -0.06539406 -0.20435643 -0.44958416 0.67846334 0.073568314 0.18800792 -0.03269703
0.29427326 0.4986297 -0.6702891 -0.14713663 0.4414099 -0.016348515 0.057219803 -0.13078812
0.4414099 0.46593267 0.2697505 0.41688713 0.68663764 0.30244753 0.17983367 0.54767525
0.073568314 0.42506137 0.50680393 0.49045545 0.28609902 0.43323565 -0.049045544 0.32697028
0.049045544 -0.33514455 -0.539501 1.0381306 0.34331882 0.08991683 -0.17983367 0.36784157
0.17983367 -0.41688713 -0.22070494 -0.48228118 0.31879604 -0.03269703 -0.2697505 0.29427326
0.4986297 -0.60489506 0.40053862 0.51497823 0.024522772 0.26157624 0.37601584 -0.19618218
0.65394056 0.12261386 0.74385744 -0.21253069 0.2697505 -0.32697028 0.040871285 0.35966733
-0.29427326 0.40871286 0.6375921 0.03269703 0.49045545 -0.35966733 -0.22887921 0.016348515
-0.22070494 0.4414099 0.37601584 0.8419485 -0.43323565 0.38419008 0.539501 -0.539501
-0.06539406 -0.20435643 0.42506137 0.5558495 0.37601584 0.33514455 -0.15531088 -0.08991683
0.41688713 0.19618218 0.32697028 0.539501 0.040871285 0.24522772 -0.39236435 -0.06539406
-0.31062177 0.22887921 0.66211486 -0.44958416 0.50680393 0.5558495 0.47410694 0.27792475
0.33514455 0.23705347 0.50680393 0.024522772 0.31879604 -0.12261386 -0.21253069 -0.22887921
-0.15531088 0.5313267 -0.09809109 0.049045544 -0.16348514 0.62941784 0.39236435 -0.008174257
0.4986297 0.106265344 0.539501 0.40053862 0.45775843 -0.8828198 -0.2697505 -0.11443961
0.26157624 0.38419008 -0.016348515 0.539501 0.35149306 0.15531088 0.37601584 0.34331882
0.36784157 -0.12261386 0.54767525 0.62941784 -0.42506137 -0.36784157 0.37601584 -0.03269703
-0.6375921 0.27792475 0.11443961 0.13078812

fuse_attr_8 i1 [33, 3, 3, 23] scale=0.0043324362 zero_point=0
00000000: 04fb 001e 0703 ff16 3529 08dc 01fe fbf8
00000010: 00ff 0205 fffa 0002 e6e3 2905 0300 02da
00000020: fe08 e705 03e4 0302 d504 0803 01e2 02c9
00000030: 01fa dd03 01d8 fedf 0504 03ff de02 00e1
00000040: 0037 fb1b fd01 f8d7 2021 0101 fd01 3efc
00000050: c2fa 00f7 f500 fdfc fbfd f7e1 01fe d6ff
00000060: 0401 00e7 dc02 1dfd fd04 dee1 00e4 fe22
00000070: 21fc e501 d425 d7c1 feff cdff e2fb 32fd
00000080: 02c8 dbfe fefa 51fb 1700 03f6 0100 0102
00000090: 02fd 002c 16f8 1c1a f5f5 03f9 01fb fdf5
000000a0: fb01 fc01 0000 0001 d706 04fd f922 02fa
000000b0: 0024 ff03 1c02 1bfe 02fc 00ff c11b 0000
000000c0: ff03 fbf8 fd02 fcfc 02fe 00fe e313 fe02
000000d0: ff03 ff01 0001 0202 0300 0400 01fd 11eb
000000e0: 04ff ff00 00fe 04fc e204 2201 0200 d2ea
000000f0: 0106 fe00 1e0f 0301 ffd2 00fe 0003 04dd
0.017329745 -0.021662181 0.0 0.12997308 0.030327054 0.012997309 -0.0043324362 0.095313594
0.22961912 0.17762989 0.03465949 -0.15596771 0.0043324362 -0.0086648725 -0.021662181 -0.03465949
0.0 -0.0043324362 0.0086648725 0.021662181 -0.0043324362 -0.025994617 0.0 0.0086648725
-0.112643346 -0.12564065 0.17762989 0.021662181 0.012997309 0.0 0.0086648725 -0.16463257
-0.0086648725 0.03465949 -0.10831091 0.021662181 0.012997309 -0.121308215 0.012997309 0.0086648725
-0.18629476 0.017329745 0.03465949 0.012997309 0.0043324362 -0.12997308 0.0086648725 -0.23828399
0.0043324362 -0.025994617 -0.15163527 0.012997309 0.0043324362 -0.17329745 -0.0086648725 -0.1429704
0.021662181 0.017329745 0.012997309 -0.0043324362 -0.14730284 0.0086648725 0.0 -0.13430552
0.0 0.23828399 -0.021662181 0.11697578 -0.012997309 0.0043324362 -0.03465949 -0.17762989
0.13863796 0.1429704 0.0043324362 0.0043324362 -0.012997309 0.0043324362 0.26861104 -0.017329745
-0.26861104 -0.025994617 0.0 -0.038991928 -0.047656797 0.0 -0.012997309 -0.017329745
-0.021662181 -0.012997309 -0.038991928 -0.13430552 0.0043324362 -0.0086648725 -0.18196233 -0.0043324362
0.017329745 0.0043324362 0.0 -0.10831091 -0.15596771 0.0086648725 0.12564065 -0.012997309
-0.012997309 0.017329745 -0.14730284 -0.13430552 0.0 -0.121308215 -0.0086648725 0.14730284
0.1429704 -0.017329745 -0.11697578 0.0043324362 -0.19062719 0.16030014 -0.17762989 -0.2729435
-0.0086648725 -0.0043324362 -0.22095425 -0.0043324362 -0.12997308 -0.021662181 0.21662182 -0.012997309
0.0086648725 -0.24261643 -0.16030014 -0.0086648725 -0.0086648725 -0.025994617 0.35092732 -0.021662181
0.09964603 0.0 0.012997309 -0.043324362 0.0043324362 0.0 0.0043324362 0.0086648725
0.0086648725 -0.012997309 0.0 0.19062719 0.095313594 -0.03465949 0.121308215 0.112643346
-0.047656797 -0.047656797 0.012997309 -0.030327054 0.0043324362 -0.021662181 -0.012997309 -0.047656797
-0.021662181 0.0043324362 -0.017329745 0.0043324362 0.0 0.0 0.0 0.0043324362
-0.17762989 0.025994617 0.017329745 -0.012997309 -0.030327054 0.14730284 0.0086648725 -0.025994617
0.0 0.15596771 -0.0043324362 0.012997309 0.121308215 0.0086648725 0.11697578 -0.0086648725
0.0086648725 -0.017329745 0.0 -0.0043324362 -0.2729435 0.11697578 0.0 0.0
-0.0043324362 0.012997309 -0.021662181 -0.03465949 -0.012997309 0.0086648725 -0.017329745 -0.017329745
0.0086648725 -0.0086648725 0.0 -0.0086648725 -0.12564065 0.08231629 -0.0086648725 0.0086648725
-0.0043324362 0.012997309 -0.0043324362 0.0043324362 0.0 0.0043324362 0.0086648725 0.0086648725
0.012997309 0.0 0.017329745 0.0 0.0043324362 -0.012997309 0.07365142 -0.09098116
0.017329745 -0.0043324362 -0.0043324362 0.0 0.0 -0.0086648725 0.017329745 -0.017329745
-0.12997308 0.017329745 0.14730284 0.0043324362 0.0086648725 0.0 -0.19929206 -0.095313594
0.0043324362 0.025994617 -0.0086648725 0.0 0.12997308 0.06498654 0.012997309 0.0043324362
-0.0043324362 -0.19929206 0.0 -0.0086648725 0.0 0.012997309 0.017329745 -0.15163527

fuse_attr_3 i1 [5, 1, 9, 1] scale=0.051046204 zero_point=0
00000000: 0b12 073e efe8 e3f7 fc11 0301 e7fc e910
00000010: 02d7 e4df 0121 0511 f101 050f 10e0 328f
00000020: 5c0e 8045 f4ef fd12 0706 eb08 2e
0.56150824 0.91883165 0.35732344 3.1648645 -0.86778545 -1.2251089 -1.4803399 -0.45941582
-0.20418482 0.86778545 0.15313861 0.051046204 -1.2761551 -0.20418482 -1.1740627 0.81673926
0.10209241 -2.0928943 -1.4292938 -1.6845248 0.051046204 1.6845248 0.25523102 0.86778545
-0.76569307 0.051046204 0.25523102 0.76569307 0.81673926 -1.6334785 2.5523102 -5.768221
4.696251 0.7146469 -6.533914 3.522188 -0.61255443 -0.86778545 -0.15313861 0.91883165
0.35732344 0.30627722 -1.0719702 0.40836963 2.3481255

fuse_attr_7 i1 [23, 3, 3, 16] scale=0.0066500297 zero_point=0
00000000: 0101 05fe 0403 0301 1d02 0201 fbfc 25fc
00000010: 0100 05ff 0303 0105 1c01 0101 04fe 13fe
00000020: 0a02 0502 020a 0109 1703 0500 19fe 0102
00000030: e600 0301 04fe 0200 1802 0103 17fd 23fb
00000040: 0902 06ff 0402 0202 1701 0204 1eff 14ff
00000050: 2507 1401 0305 0103 1b04 0502 1cff 1901
00000060: ecfe 0500 fefe 0202 fe03 0201 faff 01f9
00000070: 0401 ebfe 0203 0200 ff03 ff04 ffff 00fb
00000080: 0303 0301 0006 0203 1306 0305 fcff 01fc
00000090: 1102 1c1c ea09 2102 f6eb 2213 fcff fcff
000000a0: 1502 18fe 0332 04fe faed ff16 ec00 fd00
000000b0: 0000 2400 ee33 e601 01ec fafe d601 fe04
000000c0: fd00 05ff 021b 05ff f702 ff1d f8fe 14fd
000000d0: f9ff 00fb 0326 06ff f900 fd00 faff fefe
000000e0: 0500 fffe e906 ed02 ff01 ffe0 dcff ff01
000000f0: 1201 041a 002b 0803 f9ea fdfe fc01 01fe
0.0066500297 0.0066500297 0.03325015 -0.013300059 0.026600119 0.019950088 0.019950088 0.0066500297
0.19285086 0.013300059 0.013300059 0.0066500297 -0.03325015 -0.026600119 0.2460511 -0.026600119
0.0066500297 0.0 0.03325015 -0.0066500297 0.019950088 0.019950088 0.0066500297 0.03325015
0.18620083 0.0066500297 0.0066500297 0.0066500297 0.026600119 -0.013300059 0.12635057 -0.013300059
0.0665003 0.013300059 0.03325015 0.013300059 0.013300059 0.0665003 0.0066500297 0.059850268
0.15295069 0.019950088 0.03325015 0.0 0.16625074 -0.013300059 0.0066500297 0.013300059
-0.17290077 0.0 0.019950088 0.0066500297 0.026600119 -0.013300059 0.013300059 0.0
0.1596007 0.013300059 0.0066500297 0.019950088 0.15295069 -0.019950088 0.23275104 -0.03325015
0.059850268 0.013300059 0.039900176 -0.0066500297 0.026600119 0.013300059 0.013300059 0.013300059
0.15295069 0.0066500297 0.013300059 0.026600119 0.19950089 -0.0066500297 0.1330006 -0.0066500297
0.2460511 0.046550207 0.1330006 0.0066500297 0.019950088 0.03325015 0.0066500297 0.019950088
0.1795508 0.026600119 0.03325015 0.013300059 0.18620083 -0.0066500297 0.16625074 0.0066500297
-0.1330006 -0.013300059 0.03325015 0.0 -0.013300059 -0.013300059 0.013300059 0.013300059
-0.013300059 0.019950088 0.013300059 0.0066500297 -0.039900176 -0.0066500297 0.0066500297 -0.046550207
0.026600119 0.0066500297 -0.13965063 -0.013300059 0.013300059 0.019950088 0.013300059 0.0
-0.0066500297 0.019950088 -0.0066500297 0.026600119 -0.0066500297 -0.0066500297 0.0 -0.03325015
0.019950088 0.019950088 0.019950088 0.0066500297 0.0 0.039900176 0.013300059 0.019950088
0.12635057 0.039900176 0.019950088 0.03325015 -0.026600119 -0.0066500297 0.0066500297 -0.026600119
0.113050506 0.013300059 0.18620083 0.18620083 -0.14630066 0.059850268 0.21945098 0.013300059
-0.0665003 -0.13965063 0.22610101 0.12635057 -0.026600119 -0.0066500297 -0.026600119 -0.0066500297
0.13965063 0.013300059 0.1596007 -0.013300059 0.019950088 0.33250147 0.026600119 -0.013300059
-0.039900176 -0.12635057 -0.0066500297 0.14630066 -0.1330006 0.0 -0.019950088 0.0
0.0 0.0 0.23940107 0.0 -0.119700536 0.3391515 -0.17290077 0.0066500297
0.0066500297 -0.1330006 -0.039900176 -0.013300059 -0.27930126 0.0066500297 -0.013300059 0.026600119
-0.019950088 0.0 0.03325015 -0.0066500297 0.013300059 0.1795508 0.03325015 -0.0066500297
-0.059850268 0.013300059 -0.0066500297 0.19285086 -0.053200237 -0.013300059 0.1330006 -0.019950088
-0.046550207 -0.0066500297 0.0 -0.03325015 0.019950088 0.25270113 0.039900176 -0.0066500297
-0.046550207 0.0 -0.019950088 0.0 -0.039900176 -0.0066500297 -0.013300059 -0.013300059
0.03325015 0.0 -0.0066500297 -0.013300059 -0.15295069 0.039900176 -0.12635057 0.013300059
-0.0066500297 0.0066500297 -0.0066500297 -0.21280095 -0.23940107 -0.0066500297 -0.0066500297 0.0066500297
0.119700536 0.0066500297 0.026600119 0.17290077 0.0 0.2859513 0.053200237 0.019950088
-0.046550207 -0.14630066 -0.019950088 -0.013300059 -0.026600119 0.0066500297 0.0066500297 -0.013300059

fuse_attr_13 i1 [90, 3, 3, 65] scale=0.0038318783 zero_point=0
00000000: ff00 f700 0000 0000 00ff 0000 0000 00ff
00000010: 0000 0002 0001 0000 ff00 0000 0000 00ff
00000020: ff00 0002 00ff ff00 0001 0000 0000 0000
00000030: 00ff ff00 0000 0000 0000 0000 0000 0000
00000040: 0000 0000 ff00 00ff 0000 ff00 0000 0000
00000050: 0000 00ff 0100 f700 0000 f600 0000 00ff
00000060: ffff 0000 0100 0000 0000 0100 00f5 0000
00000070: 0000 0000 0000 ff00 0000 0001 0000 0001
00000080: 0000 0001 0000 0000 0001 0000 0000 0000
00000090: 0000 ff00 0000 ff03 ff01 0000 0000 00ff
000000a0: ffff 01ff 00ff 0000 0000 ff00 0a00 0001
000000b0: 0001 0100 ff00 0000 0000 0000 0000 0000
000000c0: 0300 0000 fdfe fc00 01fe 00ff ffff ffff
000000d0: 00ff ff01 01fc 00ff fef6 fd02 fd00 fcff
000000e0: fe0f fefb feff 0cfe fefd ff00 0200 00fc
000000f0: 00fe fbfd fdfe ff00 02fe feff 0000 0000
-0.0038318783 0.0 -0.034486905 0.0 0.0 0.0 0.0 0.0
0.0 -0.0038318783 0.0 0.0 0.0 0.0 0.0 -0.0038318783
0.0 0.0 0.0 0.0076637566 0.0 0.0038318783 0.0 0.0
-0.0038318783 0.0 0.0 0.0 0.0 0.0 0.0 -0.0038318783
-0.0038318783 0.0 0.0 0.0076637566 0.0 -0.0038318783 -0.0038318783 0.0
0.0 0.0038318783 0.0 0.0 0.0 0.0 0.0 0.0
0.0 -0.0038318783 -0.0038318783 0.0 0.0 0.0 0.0 0.0
0.0 0.0 0.0 0.0 0.0 0.0 0.0 0.0
0.0 0.0 0.0 0.0 -0.0038318783 0.0 0.0 -0.0038318783
0.0 0.0 -0.0038318783 0.0 0.0 0.0 0.0 0.0
0.0 0.0 0.0 -0.0038318783 0.0038318783 0.0 -0.034486905 0.0
0.0 0.0 -0.038318783 0.0 0.0 0.0 0.0 -0.0038318783
-0.0038318783 -0.0038318783 0.0 0.0 0.0038318783 0.0 0.0 0.0
0.0 0.0 0.0038318783 0.0 0.0 -0.04215066 0.0 0.0
0.0 0.0 0.0 0.0 0.0 0.0 -0.0038318783 0.0
0.0 0.0 0.0 0.0038318783 0.0 0.0 0.0 0.0038318783
0.0 0.0 0.0 0.0038318783 0.0 0.0 0.0 0.0
0.0 0.0038318783 0.0 0.0 0.0 0.0 0.0 0.0
0.0 0.0 -0.0038318783 0.0 0.0 0.0 -0.0038318783 0.011495635
-0.0038318783 0.0038318783 0.0 0.0 0.0 0.0 0.0 -0.0038318783
-0.0038318783 -0.0038318783 0.0038318783 -0.0038318783 0.0 -0.0038318783 0.0 0.0
0.0 0.0 -0.0038318783 0.0 0.038318783 0.0 0.0 0.0038318783
0.0 0.0038318783 0.0038318783 0.0 -0.0038318783 0.0 0.0 0.0
0.0 0.0 0.0 0.0 0.0 0.0 0.0 0.0
0.011495635 0.0 0.0 0.0 -0.011495635 -0.0076637566 -0.015327513 0.0
0.0038318783 -0.0076637566 0.0 -0.0038318783 -0.0038318783 -0.0038318783 -0.0038318783 -0.0038318783
0.0 -0.0038318783 -0.0038318783 0.0038318783 0.0038318783 -0.015327513 0.0 -0.0038318783
-0.0076637566 -0.038318783 -0.011495635 0.0076637566 -0.011495635 0.0 -0.015327513 -0.0038318783
-0.0076637566 0.057478175 -0.0076637566 -0.019159392 -0.0076637566 -0.0038318783 0.04598254 -0.0076637566
-0.0076637566 -0.011495635 -0.0038318783 0.0 0.0076637566 0.0 0.0 -0.015327513
0.0 -0.0076637566 -0.019159392 -0.011495635 -0.011495635 -0.0076637566 -0.0038318783 0.0
0.0076637566 -0.0076637566 -0.0076637566 -0.0038318783 0.0 0.0 0.0 0.0
