th/quantized_models/old/quant_retrained_model_89.7_20240124110237.tflite (tflite, 149120 bytes, 12 tensors)

fuse_attr_7 u1 [23, 3, 3, 16] scale=0.0041864407 zero_point=128
0	0x80	0.0
1	0x80	0.0
2	0x80	0.0
3	0x80	0.0
4	0x80	0.0
5	0x80	0.0
6	0x80	0.0
7	0x80	0.0
8	0x80	0.0
9	0x80	0.0
10	0x80	0.0
11	0x80	0.0
12	0x80	0.0
13	0x80	0.0
14	0x80	0.0
15	0x80	0.0
16	0x80	0.0
17	0x80	0.0
18	0x80	0.0
19	0x80	0.0
20	0x80	0.0
21	0x80	0.0
22	0x80	0.0
23	0x80	0.0
24	0x80	0.0
25	0x80	0.0
26	0x80	0.0
27	0x80	0.0
28	0x80	0.0
29	0x80	0.0
30	0x80	0.0
31	0x80	0.0
32	0x80	0.0
33	0x80	0.0
34	0x80	0.0
35	0x80	0.0
36	0x80	0.0
37	0x80	0.0
38	0x80	0.0
39	0x80	0.0
40	0x80	0.0
41	0x80	0.0
42	0x80	0.0
43	0x80	0.0
44	0x80	0.0
45	0x80	0.0
46	0x80	0.0
47	0x80	0.0
48	0x80	0.0
49	0x80	0.0
50	0x80	0.0
51	0x80	0.0
52	0x80	0.0
53	0x80	0.0
54	0x80	0.0
55	0x80	0.0
56	0x80	0.0
57	0x80	0.0
58	0x80	0.0
59	0x80	0.0
60	0x80	0.0
61	0x80	0.0
62	0x80	0.0
63	0x80	0.0
64	0x80	0.0
65	0x80	0.0
66	0x80	0.0
67	0x80	0.0
68	0x80	0.0
69	0x80	0.0
70	0x80	0.0
71	0x80	0.0
72	0x80	0.0
73	0x80	0.0
74	0x80	0.0
75	0x80	0.0
76	0x80	0.0
77	0x80	0.0
78	0x80	0.0
79	0x80	0.0
80	0x80	0.0
81	0x80	0.0
82	0x80	0.0
83	0x80	0.0
84	0x80	0.0
85	0x80	0.0
86	0x80	0.0
87	0x80	0.0
88	0x80	0.0
89	0x80	0.0
90	0x80	0.0
91	0x80	0.0
92	0x80	0.0
93	0x80	0.0
94	0x80	0.0
95	0x80	0.0
96	0x80	0.0
97	0x80	0.0
98	0x80	0.0
99	0x80	0.0
100	0x80	0.0
101	0x80	0.0
102	0x80	0.0
103	0x80	0.0
104	0x80	0.0
105	0x80	0.0
106	0x80	0.0
107	0x80	0.0
108	0x80	0.0
109	0x80	0.0
110	0x80	0.0
111	0x80	0.0
112	0x80	0.0
113	0x80	0.0
114	0x80	0.0
115	0x80	0.0
116	0x80	0.0
117	0x80	0.0
118	0x80	0.0
119	0x80	0.0
120	0x80	0.0
121	0x80	0.0
122	0x80	0.0
123	0x80	0.0
124	0x80	0.0
125	0x80	0.0
126	0x80	0.0
127	0x80	0.0
128	0x80	0.0
129	0x80	0.0
130	0x80	0.0
131	0x80	0.0
132	0x80	0.0
133	0x80	0.0
134	0x80	0.0
135	0x80	0.0
136	0x80	0.0
137	0x80	0.0
138	0x80	0.0
139	0x80	0.0
140	0x80	0.0
141	0x80	0.0
142	0x80	0.0
143	0x80	0.0
144	0x80	0.0
145	0x80	0.0
146	0x80	0.0
147	0x80	0.0
148	0x80	0.0
149	0x80	0.0
150	0x80	0.0
151	0x80	0.0
152	0x80	0.0
153	0x80	0.0
154	0x80	0.0
155	0x80	0.0
156	0x80	0.0
157	0x80	0.0
158	0x80	0.0
159	0x80	0.0
160	0x80	0.0
161	0x80	0.0
162	0x80	0.0
163	0x80	0.0
164	0x80	0.0
165	0x80	0.0
166	0x80	0.0
167	0x80	0.0
168	0x80	0.0
169	0x80	0.0
170	0x80	0.0
171	0x80	0.0
172	0x80	0.0
173	0x80	0.0
174	0x80	0.0
175	0x80	0.0
176	0x80	0.0
177	0x80	0.0
178	0x80	0.0
179	0x80	0.0
180	0x80	0.0
181	0x80	0.0
182	0x80	0.0
183	0x80	0.0
184	0x80	0.0
185	0x80	0.0
186	0x80	0.0
187	0x80	0.0
188	0x80	0.0
189	0x80	0.0
190	0x80	0.0
191	0x80	0.0
192	0x80	0.0
193	0x80	0.0
194	0x80	0.0
195	0x80	0.0
196	0x80	0.0
197	0x80	0.0
198	0x80	0.0
199	0x80	0.0
200	0x80	0.0
201	0x80	0.0
202	0x80	0.0
203	0x80	0.0
204	0x80	0.0
205	0x80	0.0
206	0x80	0.0
207	0x80	0.0
208	0x80	0.0
209	0x80	0.0
210	0x80	0.0
211	0x80	0.0
212	0x80	0.0
213	0x80	0.0
214	0x80	0.0
215	0x80	0.0
216	0x80	0.0
217	0x80	0.0
218	0x80	0.0
219	0x80	0.0
220	0x80	0.0
221	0x80	0.0
222	0x80	0.0
223	0x80	0.0
224	0x80	0.0
225	0x80	0.0
226	0x80	0.0
227	0x80	0.0
228	0x80	0.0
229	0x80	0.0
230	0x80	0.0
231	0x80	0.0
232	0x80	0.0
233	0x80	0.0
234	0x80	0.0
235	0x80	0.0
236	0x80	0.0
237	0x80	0.0
238	0x80	0.0
239	0x80	0.0
240	0x80	0.0
241	0x80	0.0
242	0x80	0.0
243	0x80	0.0
244	0x80	0.0
245	0x80	0.0
246	0x80	0.0
247	0x80	0.0
248	0x80	0.0
249	0x80	0.0
250	0x80	0.0
251	0x80	0.0
252	0x80	0.0
253	0x80	0.0
254	0x80	0.0
255	0x80	0.0

fuse_attr_10 u1 [56, 3, 3, 29] scale=0.006710889 zero_point=128
0	0x80	0.0
1	0x80	0.0
2	0x80	0.0
3	0x80	0.0
4	0x80	0.0
5	0x80	0.0
6	0x80	0.0
7	0x80	0.0
8	0x80	0.0
9	0x80	0.0
10	0x80	0.0
11	0x80	0.0
12	0x80	0.0
13	0x80	0.0
14	0x80	0.0
15	0x80	0.0
16	0x80	0.0
17	0x80	0.0
18	0x80	0.0
19	0x80	0.0
20	0x80	0.0
21	0x80	0.0
22	0x80	0.0
23	0x80	0.0
24	0x80	0.0
25	0x80	0.0
26	0x80	0.0
27	0x80	0.0
28	0x80	0.0
29	0x80	0.0
30	0x80	0.0
31	0x80	0.0
32	0x80	0.0
33	0x80	0.0
34	0x80	0.0
35	0x80	0.0
36	0x80	0.0
37	0x80	0.0
38	0x80	0.0
39	0x80	0.0
40	0x80	0.0
41	0x80	0.0
42	0x80	0.0
43	0x80	0.0
44	0x80	0.0
45	0x80	0.0
46	0x80	0.0
47	0x80	0.0
48	0x80	0.0
49	0x80	0.0
50	0x80	0.0
51	0x80	0.0
52	0x80	0.0
53	0x80	0.0
54	0x80	0.0
55	0x80	0.0
56	0x80	0.0
57	0x80	0.0
58	0x80	0.0
59	0x80	0.0
60	0x80	0.0
61	0x80	0.0
62	0x80	0.0
63	0x80	0.0
64	0x80	0.0
65	0x80	0.0
66	0x80	0.0
67	0x80	0.0
68	0x80	0.0
69	0x80	0.0
70	0x80	0.0
71	0x80	0.0
72	0x80	0.0
73	0x80	0.0
74	0x80	0.0
75	0x80	0.0
76	0x80	0.0
77	0x80	0.0
78	0x80	0.0
79	0x80	0.0
80	0x80	0.0
81	0x80	0.0
82	0x80	0.0
83	0x80	0.0
84	0x80	0.0
85	0x80	0.0
86	0x80	0.0
87	0x80	0.0
88	0x80	0.0
89	0x80	0.0
90	0x80	0.0
91	0x80	0.0
92	0x80	0.0
93	0x80	0.0
94	0x80	0.0
95	0x80	0.0
96	0x80	0.0
97	0x80	0.0
98	0x80	0.0
99	0x80	0.0
100	0x80	0.0
101	0x80	0.0
102	0x80	0.0
103	0x80	0.0
104	0x80	0.0
105	0x80	0.0
106	0x80	0.0
107	0x80	0.0
108	0x80	0.0
109	0x80	0.0
110	0x80	0.0
111	0x80	0.0
112	0x80	0.0
113	0x80	0.0
114	0x80	0.0
115	0x80	0.0
116	0x80	0.0
117	0x80	0.0
118	0x80	0.0
119	0x80	0.0
120	0x80	0.0
121	0x80	0.0
122	0x80	0.0
123	0x80	0.0
124	0x80	0.0
125	0x80	0.0
126	0x80	0.0
127	0x80	0.0
128	0x80	0.0
129	0x80	0.0
130	0x80	0.0
131	0x80	0.0
132	0x80	0.0
133	0x80	0.0
134	0x80	0.0
135	0x80	0.0
136	0x80	0.0
137	0x80	0.0
138	0x80	0.0
139	0x80	0.0
140	0x80	0.0
141	0x80	0.0
142	0x80	0.0
143	0x80	0.0
144	0x80	0.0
145	0x80	0.0
146	0x80	0.0
147	0x80	0.0
148	0x80	0.0
149	0x80	0.0
150	0x80	0.0
151	0x80	0.0
152	0x80	0.0
153	0x80	0.0
154	0x80	0.0
155	0x80	0.0
156	0x80	0.0
157	0x80	0.0
158	0x80	0.0
159	0x80	0.0
160	0x80	0.0
161	0x80	0.0
162	0x80	0.0
163	0x80	0.0
164	0x80	0.0
165	0x80	0.0
166	0x80	0.0
167	0x80	0.0
168	0x80	0.0
169	0x80	0.0
170	0x80	0.0
171	0x80	0.0
172	0x80	0.0
173	0x80	0.0
174	0x80	0.0
175	0x80	0.0
176	0x80	0.0
177	0x80	0.0
178	0x80	0.0
179	0x80	0.0
180	0x80	0.0
181	0x80	0.0
182	0x80	0.0
183	0x80	0.0
184	0x80	0.0
185	0x80	0.0
186	0x80	0.0
187	0x80	0.0
188	0x80	0.0
189	0x80	0.0
190	0x80	0.0
191	0x80	0.0
192	0x80	0.0
193	0x80	0.0
194	0x80	0.0
195	0x80	0.0
196	0x80	0.0
197	0x80	0.0
198	0x80	0.0
199	0x80	0.0
200	0x80	0.0
201	0x80	0.0
202	0x80	0.0
203	0x80	0.0
204	0x80	0.0
205	0x80	0.0
206	0x80	0.0
207	0x80	0.0
208	0x80	0.0
209	0x80	0.0
210	0x80	0.0
211	0x80	0.0
212	0x80	0.0
213	0x80	0.0
214	0x80	0.0
215	0x80	0.0
216	0x80	0.0
217	0x80	0.0
218	0x80	0.0
219	0x80	0.0
220	0x80	0.0
221	0x80	0.0
222	0x80	0.0
223	0x80	0.0
224	0x80	0.0
225	0x80	0.0
226	0x80	0.0
227	0x80	0.0
228	0x80	0.0
229	0x80	0.0
230	0x80	0.0
231	0x80	0.0
232	0x80	0.0
233	0x80	0.0
234	0x80	0.0
235	0x80	0.0
236	0x80	0.0
237	0x80	0.0
238	0x80	0.0
239	0x80	0.0
240	0x80	0.0
241	0x80	0.0
242	0x80	0.0
243	0x80	0.0
244	0x80	0.0
245	0x80	0.0
246	0x80	0.0
247	0x80	0.0
248	0x80	0.0
249	0x80	0.0
250	0x80	0.0
251	0x80	0.0
252	0x80	0.0
253	0x80	0.0
254	0x80	0.0
255	0x80	0.0

fuse_attr_11 u1 [47, 3, 3, 56] scale=0.009391525 zero_point=128
0	0x80	0.0
1	0x80	0.0
2	0x80	0.0
3	0x80	0.0
4	0x80	0.0
5	0x80	0.0
6	0x80	0.0
7	0x80	0.0
8	0x80	0.0
9	0x80	0.0
10	0x80	0.0
11	0x80	0.0
12	0x80	0.0
13	0x80	0.0
14	0x80	0.0
15	0x80	0.0
16	0x80	0.0
17	0x80	0.0
18	0x80	0.0
19	0x80	0.0
20	0x80	0.0
21	0x80	0.0
22	0x80	0.0
23	0x80	0.0
24	0x80	0.0
25	0x80	0.0
26	0x80	0.0
27	0x80	0.0
28	0x80	0.0
29	0x80	0.0
30	0x80	0.0
31	0x80	0.0
32	0x80	0.0
33	0x80	0.0
34	0x80	0.0
35	0x80	0.0
36	0x80	0.0
37	0x80	0.0
38	0x80	0.0
39	0x80	0.0
40	0x80	0.0
41	0x80	0.0
42	0x80	0.0
43	0x80	0.0
44	0x80	0.0
45	0x80	0.0
46	0x80	0.0
47	0x80	0.0
48	0x80	0.0
49	0x80	0.0
50	0x80	0.0
51	0x80	0.0
52	0x80	0.0
53	0x80	0.0
54	0x80	0.0
55	0x80	0.0
56	0x80	0.0
57	0x80	0.0
58	0x80	0.0
59	0x80	0.0
60	0x80	0.0
61	0x80	0.0
62	0x80	0.0
63	0x80	0.0
64	0x80	0.0
65	0x80	0.0
66	0x80	0.0
67	0x80	0.0
68	0x80	0.0
69	0x80	0.0
70	0x80	0.0
71	0x80	0.0
72	0x80	0.0
73	0x80	0.0
74	0x80	0.0
75	0x80	0.0
76	0x80	0.0
77	0x80	0.0
78	0x80	0.0
79	0x80	0.0
80	0x80	0.0
81	0x80	0.0
82	0x80	0.0
83	0x80	0.0
84	0x80	0.0
85	0x80	0.0
86	0x80	0.0
87	0x80	0.0
88	0x80	0.0
89	0x80	0.0
90	0x80	0.0
91	0x80	0.0
92	0x80	0.0
93	0x80	0.0
94	0x80	0.0
95	0x80	0.0
96	0x80	0.0
97	0x80	0.0
98	0x80	0.0
99	0x80	0.0
100	0x80	0.0
101	0x80	0.0
102	0x80	0.0
103	0x80	0.0
104	0x80	0.0
105	0x80	0.0
106	0x80	0.0
107	0x80	0.0
108	0x80	0.0
109	0x80	0.0
110	0x80	0.0
111	0x80	0.0
112	0x80	0.0
113	0x80	0.0
114	0x80	0.0
115	0x80	0.0
116	0x80	0.0
117	0x80	0.0
118	0x80	0.0
119	0x80	0.0
120	0x80	0.0
121	0x80	0.0
122	0x80	0.0
123	0x80	0.0
124	0x80	0.0
125	0x80	0.0
126	0x80	0.0
127	0x80	0.0
128	0x80	0.0
129	0x80	0.0
130	0x80	0.0
131	0x80	0.0
132	0x80	0.0
133	0x80	0.0
134	0x80	0.0
135	0x80	0.0
136	0x80	0.0
137	0x80	0.0
138	0x80	0.0
139	0x80	0.0
140	0x80	0.0
141	0x80	0.0
142	0x80	0.0
143	0x80	0.0
144	0x80	0.0
145	0x80	0.0
146	0x80	0.0
147	0x80	0.0
148	0x80	0.0
149	0x80	0.0
150	0x80	0.0
151	0x80	0.0
152	0x80	0.0
153	0x80	0.0
154	0x80	0.0
155	0x80	0.0
156	0x80	0.0
157	0x80	0.0
158	0x80	0.0
159	0x80	0.0
160	0x80	0.0
161	0x80	0.0
162	0x80	0.0
163	0x80	0.0
164	0x80	0.0
165	0x80	0.0
166	0x80	0.0
167	0x80	0.0
168	0x80	0.0
169	0x80	0.0
170	0x80	0.0
171	0x80	0.0
172	0x80	0.0
173	0x80	0.0
174	0x80	0.0
175	0x80	0.0
176	0x80	0.0
177	0x80	0.0
178	0x80	0.0
179	0x80	0.0
180	0x80	0.0
181	0x80	0.0
182	0x80	0.0
183	0x80	0.0
184	0x80	0.0
185	0x80	0.0
186	0x80	0.0
187	0x80	0.0
188	0x80	0.0
189	0x80	0.0
190	0x80	0.0
191	0x80	0.0
192	0x80	0.0
193	0x80	0.0
194	0x80	0.0
195	0x80	0.0
196	0x80	0.0
197	0x80	0.0
198	0x80	0.0
199	0x80	0.0
200	0x80	0.0
201	0x80	0.0
202	0x80	0.0
203	0x80	0.0
204	0x80	0.0
205	0x80	0.0
206	0x80	0.0
207	0x80	0.0
208	0x80	0.0
209	0x80	0.0
210	0x80	0.0
211	0x80	0.0
212	0x80	0.0
213	0x80	0.0
214	0x80	0.0
215	0x80	0.0
216	0x80	0.0
217	0x80	0.0
218	0x80	0.0
219	0x80	0.0
220	0x80	0.0
221	0x80	0.0
222	0x80	0.0
223	0x80	0.0
224	0x80	0.0
225	0x80	0.0
226	0x80	0.0
227	0x80	0.0
228	0x80	0.0
229	0x80	0.0
230	0x80	0.0
231	0x80	0.0
232	0x80	0.0
233	0x80	0.0
234	0x80	0.0
235	0x80	0.0
236	0x80	0.0
237	0x80	0.0
238	0x80	0.0
239	0x80	0.0
240	0x80	0.0
241	0x80	0.0
242	0x80	0.0
243	0x80	0.0
244	0x80	0.0
245	0x80	0.0
246	0x80	0.0
247	0x80	0.0
248	0x80	0.0
249	0x80	0.0
250	0x80	0.0
251	0x80	0.0
252	0x80	0.0
253	0x80	0.0
254	0x80	0.0
255	0x80	0.0

fuse_attr_14 u1 [2, 1, 1, 90] scale=0.013103842 zero_point=128
0	0x80	0.0
1	0x80	0.0
2	0x80	0.0
3	0x80	0.0
4	0x80	0.0
5	0x80	0.0
6	0x80	0.0
7	0x80	0.0
8	0x80	0.0
9	0x80	0.0
10	0xfd	1.6379802
11	0x80	0.0
12	0x80	0.0
13	0x80	0.0
14	0xfd	1.6379802
15	0x80	0.0
16	0x80	0.0
17	0x80	0.0
18	0x80	0.0
19	0x80	0.0
20	0x80	0.0
21	0x80	0.0
22	0x80	0.0
23	0x80	0.0
24	0x80	0.0
25	0x80	0.0
26	0x80	0.0
27	0x80	0.0
28	0xf2	1.493838
29	0x80	0.0
30	0x80	0.0
31	0x80	0.0
32	0x80	0.0
33	0x80	0.0
34	0x80	0.0
35	0x80	0.0
36	0x80	0.0
37	0x80	0.0
38	0x80	0.0
39	0x80	0.0
40	0x80	0.0
41	0xf5	1.5331495
42	0x80	0.0
43	0x80	0.0
44	0x80	0.0
45	0x80	0.0
46	0x80	0.0
47	0x80	0.0
48	0x80	0.0
49	0x80	0.0
50	0x80	0.0
51	0xf4	1.5200456
52	0x80	0.0
53	0x80	0.0
54	0xe4	1.3103842
55	0x80	0.0
56	0x80	0.0
57	0x80	0.0
58	0x80	0.0
59	0xed	1.4283187
60	0x80	0.0
61	0x81	0.013103842
62	0x80	0.0
63	0x80	0.0
64	0x80	0.0
65	0x80	0.0
66	0x80	0.0
67	0xef	1.4545264
68	0xff	1.6641879
69	0x80	0.0
70	0x80	0.0
71	0x80	0.0
72	0x84	0.052415367
73	0x80	0.0
74	0x80	0.0
75	0x80	0.0
76	0x80	0.0
77	0x80	0.0
78	0x80	0.0
79	0xe0	1.2579688
80	0x80	0.0
81	0x80	0.0
82	0x80	0.0
83	0x80	0.0
84	0x80	0.0
85	0x80	0.0
86	0x80	0.0
87	0x80	0.0
88	0xd4	1.1007227
89	0x80	0.0
90	0x80	0.0
91	0x80	0.0
92	0x80	0.0
93	0x80	0.0
94	0x80	0.0
95	0x80	0.0
96	0x80	0.0
97	0x80	0.0
98	0x80	0.0
99	0x80	0.0
100	0x80	0.0
101	0x80	0.0
102	0x80	0.0
103	0x80	0.0
104	0x80	0.0
105	0x80	0.0
106	0x80	0.0
107	0x80	0.0
108	0x80	0.0
109	0x80	0.0
110	0x80	0.0
111	0x80	0.0
112	0x80	0.0
113	0x80	0.0
114	0x80	0.0
115	0x80	0.0
116	0x80	0.0
117	0x80	0.0
118	0x80	0.0
119	0x80	0.0
120	0x80	0.0
121	0x80	0.0
122	0x80	0.0
123	0x80	0.0
124	0x80	0.0
125	0x80	0.0
126	0x80	0.0
127	0x80	0.0
128	0x80	0.0
129	0x80	0.0
130	0x80	0.0
131	0x80	0.0
132	0x80	0.0
133	0x80	0.0
134	0x80	0.0
135	0x80	0.0
136	0x80	0.0
137	0x80	0.0
138	0x80	0.0
139	0x80	0.0
140	0x80	0.0
141	0x80	0.0
142	0x80	0.0
143	0x80	0.0
144	0x80	0.0
145	0x80	0.0
146	0x80	0.0
147	0x80	0.0
148	0x80	0.0
149	0x80	0.0
150	0x80	0.0
151	0x80	0.0
152	0x80	0.0
153	0x80	0.0
154	0x80	0.0
155	0x80	0.0
156	0x80	0.0
157	0x80	0.0
158	0x80	0.0
159	0x80	0.0
160	0x80	0.0
161	0x80	0.0
162	0x80	0.0
163	0x80	0.0
164	0x80	0.0
165	0x80	0.0
166	0x80	0.0
167	0x80	0.0
168	0x80	0.0
169	0x80	0.0
170	0x80	0.0
171	0x80	0.0
172	0x80	0.0
173	0x80	0.0
174	0x80	0.0
175	0x80	0.0
176	0x80	0.0
177	0x80	0.0
178	0x80	0.0
179	0x80	0.0

fuse_attr_6 u1 [16, 3, 3, 9] scale=0.0051124017 zero_point=128
0	0x80	0.0
1	0x80	0.0
2	0x80	0.0
3	0x80	0.0
4	0x80	0.0
5	0x80	0.0
6	0x80	0.0
7	0x80	0.0
8	0x80	0.0
9	0x80	0.0
10	0x80	0.0
11	0x80	0.0
12	0x80	0.0
13	0x80	0.0
14	0x80	0.0
15	0x80	0.0
16	0x80	0.0
17	0x80	0.0
18	0x80	0.0
19	0x80	0.0
20	0x80	0.0
21	0x80	0.0
22	0x80	0.0
23	0x80	0.0
24	0x80	0.0
25	0x80	0.0
26	0x80	0.0
27	0x80	0.0
28	0x80	0.0
29	0x80	0.0
30	0x80	0.0
31	0x80	0.0
32	0x80	0.0
33	0x80	0.0
34	0x80	0.0
35	0x80	0.0
36	0x80	0.0
37	0x80	0.0
38	0x80	0.0
39	0x80	0.0
40	0x80	0.0
41	0x80	0.0
42	0x80	0.0
43	0x80	0.0
44	0x80	0.0
45	0x80	0.0
46	0x80	0.0
47	0x80	0.0
48	0x80	0.0
49	0x80	0.0
50	0x80	0.0
51	0x80	0.0
52	0x80	0.0
53	0x80	0.0
54	0x80	0.0
55	0x80	0.0
56	0x80	0.0
57	0x80	0.0
58	0x80	0.0
59	0x80	0.0
60	0x80	0.0
61	0x80	0.0
62	0x80	0.0
63	0x80	0.0
64	0x80	0.0
65	0x80	0.0
66	0x80	0.0
67	0x80	0.0
68	0x80	0.0
69	0x80	0.0
70	0x80	0.0
71	0x80	0.0
72	0x80	0.0
73	0x80	0.0
74	0x80	0.0
75	0x80	0.0
76	0x80	0.0
77	0x80	0.0
78	0x80	0.0
79	0x80	0.0
80	0x80	0.0
81	0x80	0.0
82	0x80	0.0
83	0x80	0.0
84	0x80	0.0
85	0x80	0.0
86	0x80	0.0
87	0x80	0.0
88	0x80	0.0
89	0x80	0.0
90	0x80	0.0
91	0x80	0.0
92	0x80	0.0
93	0x80	0.0
94	0x80	0.0
95	0x80	0.0
96	0x80	0.0
97	0x80	0.0
98	0x80	0.0
99	0x80	0.0
100	0x80	0.0
101	0x80	0.0
102	0x80	0.0
103	0x80	0.0
104	0x80	0.0
105	0x80	0.0
106	0x80	0.0
107	0x80	0.0
108	0x80	0.0
109	0x80	0.0
110	0x80	0.0
111	0x80	0.0
112	0x80	0.0
113	0x80	0.0
114	0x80	0.0
115	0x80	0.0
116	0x80	0.0
117	0x80	0.0
118	0x80	0.0
119	0x80	0.0
120	0x80	0.0
121	0x80	0.0
122	0x80	0.0
123	0x80	0.0
124	0x80	0.0
125	0x80	0.0
126	0x80	0.0
127	0x80	0.0
128	0x80	0.0
129	0x80	0.0
130	0x80	0.0
131	0x80	0.0
132	0x80	0.0
133	0x80	0.0
134	0x80	0.0
135	0x80	0.0
136	0x80	0.0
137	0x80	0.0
138	0x80	0.0
139	0x80	0.0
140	0x80	0.0
141	0x80	0.0
142	0x80	0.0
143	0x80	0.0
144	0x80	0.0
145	0x80	0.0
146	0x80	0.0
147	0x80	0.0
148	0x80	0.0
149	0x80	0.0
150	0x80	0.0
151	0x80	0.0
152	0x80	0.0
153	0x80	0.0
154	0x80	0.0
155	0x80	0.0
156	0x80	0.0
157	0x80	0.0
158	0x80	0.0
159	0x80	0.0
160	0x80	0.0
161	0x80	0.0
162	0x80	0.0
163	0xcc	0.38854253
164	0x80	0.0
165	0x80	0.0
166	0x80	0.0
167	0x80	0.0
168	0x80	0.0
169	0x80	0.0
170	0x80	0.0
171	0x80	0.0
172	0xe0	0.49079055
173	0x80	0.0
174	0x80	0.0
175	0x80	0.0
176	0x80	0.0
177	0x80	0.0
178	0x80	0.0
179	0x80	0.0
180	0x80	0.0
181	0xff	0.649275
182	0x80	0.0
183	0x80	0.0
184	0x80	0.0
185	0x80	0.0
186	0x80	0.0
187	0x80	0.0
188	0x80	0.0
189	0x80	0.0
190	0x79	-0.03578681
191	0x80	0.0
192	0x80	0.0
193	0x80	0.0
194	0x80	0.0
195	0x80	0.0
196	0x80	0.0
197	0x80	0.0
198	0x80	0.0
199	0x7a	-0.03067441
200	0x80	0.0
201	0x80	0.0
202	0x80	0.0
203	0x80	0.0
204	0x80	0.0
205	0x80	0.0
206	0x80	0.0
207	0x80	0.0
208	0x7b	-0.025562009
209	0x80	0.0
210	0x80	0.0
211	0x80	0.0
212	0x80	0.0
213	0x80	0.0
214	0x80	0.0
215	0x80	0.0
216	0x80	0.0
217	0x6b	-0.10736044
218	0x80	0.0
219	0x80	0.0
220	0x80	0.0
221	0x80	0.0
222	0x80	0.0
223	0x80	0.0
224	0x80	0.0
225	0x80	0.0
226	0x8d	0.06646122
227	0x80	0.0
228	0x80	0.0
229	0x80	0.0
230	0x80	0.0
231	0x80	0.0
232	0x80	0.0
233	0x80	0.0
234	0x80	0.0
235	0xb6	0.2760697
236	0x80	0.0
237	0x80	0.0
238	0x80	0.0
239	0x80	0.0
240	0x80	0.0
241	0x80	0.0
242	0x80	0.0
243	0x80	0.0
244	0x80	0.0
245	0x80	0.0
246	0x80	0.0
247	0x80	0.0
248	0x80	0.0
249	0x80	0.0
250	0x80	0.0
251	0x80	0.0
252	0x80	0.0
253	0x80	0.0
254	0x80	0.0
255	0x80	0.0

fuse_attr_8 u1 [33, 3, 3, 23] scale=0.004363661 zero_point=128
0	0x80	0.0
1	0x80	0.0
2	0x80	0.0
3	0x80	0.0
4	0x80	0.0
5	0x80	0.0
6	0x80	0.0
7	0x80	0.0
8	0x80	0.0
9	0x80	0.0
10	0x80	0.0
11	0x80	0.0
12	0x80	0.0
13	0x80	0.0
14	0x80	0.0
15	0x80	0.0
16	0x80	0.0
17	0x80	0.0
18	0x80	0.0
19	0x80	0.0
20	0x80	0.0
21	0x80	0.0
22	0x80	0.0
23	0x80	0.0
24	0x80	0.0
25	0x80	0.0
26	0x80	0.0
27	0x80	0.0
28	0x80	0.0
29	0x80	0.0
30	0x80	0.0
31	0x80	0.0
32	0x80	0.0
33	0x80	0.0
34	0x80	0.0
35	0x80	0.0
36	0x80	0.0
37	0x80	0.0
38	0x80	0.0
39	0x80	0.0
40	0x80	0.0
41	0x80	0.0
42	0x80	0.0
43	0x80	0.0
44	0x80	0.0
45	0x80	0.0
46	0x80	0.0
47	0x80	0.0
48	0x80	0.0
49	0x80	0.0
50	0x80	0.0
51	0x80	0.0
52	0x80	0.0
53	0x80	0.0
54	0x80	0.0
55	0x80	0.0
56	0x80	0.0
57	0x80	0.0
58	0x80	0.0
59	0x80	0.0
60	0x80	0.0
61	0x80	0.0
62	0x80	0.0
63	0x80	0.0
64	0x80	0.0
65	0x80	0.0
66	0x80	0.0
67	0x80	0.0
68	0x80	0.0
69	0x80	0.0
70	0x80	0.0
71	0x80	0.0
72	0x80	0.0
73	0x80	0.0
74	0x80	0.0
75	0x80	0.0
76	0x80	0.0
77	0x80	0.0
78	0x80	0.0
79	0x80	0.0
80	0x80	0.0
81	0x80	0.0
82	0x80	0.0
83	0x80	0.0
84	0x80	0.0
85	0x80	0.0
86	0x80	0.0
87	0x80	0.0
88	0x80	0.0
89	0x80	0.0
90	0x80	0.0
91	0x80	0.0
92	0x80	0.0
93	0x80	0.0
94	0x80	0.0
95	0x80	0.0
96	0x80	0.0
97	0x80	0.0
98	0x80	0.0
99	0x80	0.0
100	0x80	0.0
101	0x80	0.0
102	0x80	0.0
103	0x80	0.0
104	0x80	0.0
105	0x80	0.0
106	0x80	0.0
107	0x80	0.0
108	0x80	0.0
109	0x80	0.0
110	0x80	0.0
111	0x80	0.0
112	0x80	0.0
113	0x80	0.0
114	0x80	0.0
115	0x80	0.0
116	0x80	0.0
117	0x80	0.0
118	0x80	0.0
119	0x80	0.0
120	0x80	0.0
121	0x80	0.0
122	0x80	0.0
123	0x80	0.0
124	0x80	0.0
125	0x80	0.0
126	0x80	0.0
127	0x80	0.0
128	0x80	0.0
129	0x80	0.0
130	0x80	0.0
131	0x80	0.0
132	0x80	0.0
133	0x80	0.0
134	0x80	0.0
135	0x80	0.0
136	0x80	0.0
137	0x80	0.0
138	0x80	0.0
139	0x80	0.0
140	0x80	0.0
141	0x80	0.0
142	0x80	0.0
143	0x80	0.0
144	0x80	0.0
145	0x80	0.0
146	0x80	0.0
147	0x80	0.0
148	0x80	0.0
149	0x80	0.0
150	0x80	0.0
151	0x80	0.0
152	0x80	0.0
153	0x80	0.0
154	0x80	0.0
155	0x80	0.0
156	0x80	0.0
157	0x80	0.0
158	0x80	0.0
159	0x80	0.0
160	0x80	0.0
161	0x80	0.0
162	0x80	0.0
163	0x80	0.0
164	0x80	0.0
165	0x80	0.0
166	0x80	0.0
167	0x80	0.0
168	0x80	0.0
169	0x80	0.0
170	0x80	0.0
171	0x80	0.0
172	0x80	0.0
173	0x80	0.0
174	0x80	0.0
175	0x80	0.0
176	0x80	0.0
177	0x80	0.0
178	0x80	0.0
179	0x80	0.0
180	0x80	0.0
181	0x80	0.0
182	0x80	0.0
183	0x80	0.0
184	0x80	0.0
185	0x80	0.0
186	0x80	0.0
187	0x80	0.0
188	0x80	0.0
189	0x80	0.0
190	0x80	0.0
191	0x80	0.0
192	0x80	0.0
193	0x80	0.0
194	0x80	0.0
195	0x80	0.0
196	0x80	0.0
197	0x80	0.0
198	0x80	0.0
199	0x80	0.0
200	0x80	0.0
201	0x80	0.0
202	0x80	0.0
203	0x80	0.0
204	0x80	0.0
205	0x80	0.0
206	0x80	0.0
207	0x80	0.0
208	0x80	0.0
209	0x80	0.0
210	0x80	0.0
211	0x80	0.0
212	0x80	0.0
213	0x80	0.0
214	0x80	0.0
215	0x80	0.0
216	0x80	0.0
217	0x80	0.0
218	0x80	0.0
219	0x80	0.0
220	0x80	0.0
221	0x80	0.0
222	0x80	0.0
223	0x80	0.0
224	0x80	0.0
225	0x80	0.0
226	0x80	0.0
227	0x80	0.0
228	0x80	0.0
229	0x80	0.0
230	0x80	0.0
231	0x80	0.0
232	0x80	0.0
233	0x80	0.0
234	0x80	0.0
235	0x80	0.0
236	0x80	0.0
237	0x80	0.0
238	0x80	0.0
239	0x80	0.0
240	0x80	0.0
241	0x80	0.0
242	0x80	0.0
243	0x80	0.0
244	0x80	0.0
245	0x80	0.0
246	0x80	0.0
247	0x80	0.0
248	0x80	0.0
249	0x80	0.0
250	0x80	0.0
251	0x80	0.0
252	0x80	0.0
253	0x80	0.0
254	0x80	0.0
255	0x80	0.0

fuse_attr_12 u1 [65, 3, 3, 47] scale=0.01084657 zero_point=128
0	0x80	0.0
1	0x80	0.0
2	0x80	0.0
3	0x80	0.0
4	0x80	0.0
5	0x80	0.0
6	0x80	0.0
7	0x80	0.0
8	0x80	0.0
9	0x80	0.0
10	0x80	0.0
11	0x80	0.0
12	0x80	0.0
13	0x80	0.0
14	0x80	0.0
15	0x80	0.0
16	0x80	0.0
17	0x80	0.0
18	0x80	0.0
19	0x80	0.0
20	0x80	0.0
21	0x80	0.0
22	0x80	0.0
23	0x80	0.0
24	0x80	0.0
25	0x80	0.0
26	0x80	0.0
27	0x80	0.0
28	0x80	0.0
29	0x80	0.0
30	0x80	0.0
31	0x80	0.0
32	0x80	0.0
33	0x80	0.0
34	0x80	0.0
35	0x80	0.0
36	0x80	0.0
37	0x80	0.0
38	0x80	0.0
39	0x80	0.0
40	0x80	0.0
41	0x80	0.0
42	0x80	0.0
43	0x80	0.0
44	0x80	0.0
45	0x80	0.0
46	0x80	0.0
47	0x80	0.0
48	0x80	0.0
49	0x80	0.0
50	0x80	0.0
51	0x80	0.0
52	0x80	0.0
53	0x80	0.0
54	0x80	0.0
55	0x80	0.0
56	0x80	0.0
57	0x80	0.0
58	0x80	0.0
59	0x80	0.0
60	0x80	0.0
61	0x80	0.0
62	0x80	0.0
63	0x80	0.0
64	0x80	0.0
65	0x80	0.0
66	0x80	0.0
67	0x80	0.0
68	0x80	0.0
69	0x80	0.0
70	0x80	0.0
71	0x80	0.0
72	0x80	0.0
73	0x80	0.0
74	0x80	0.0
75	0x80	0.0
76	0x80	0.0
77	0x80	0.0
78	0x80	0.0
79	0x80	0.0
80	0x80	0.0
81	0x80	0.0
82	0x80	0.0
83	0x80	0.0
84	0x80	0.0
85	0x80	0.0
86	0x80	0.0
87	0x80	0.0
88	0x80	0.0
89	0x80	0.0
90	0x80	0.0
91	0x80	0.0
92	0x80	0.0
93	0x80	0.0
94	0x80	0.0
95	0x80	0.0
96	0x80	0.0
97	0x80	0.0
98	0x80	0.0
99	0x80	0.0
100	0x80	0.0
101	0x80	0.0
102	0x80	0.0
103	0x80	0.0
104	0x80	0.0
105	0x80	0.0
106	0x80	0.0
107	0x80	0.0
108	0x80	0.0
109	0x80	0.0
110	0x80	0.0
111	0x80	0.0
112	0x80	0.0
113	0x80	0.0
114	0x80	0.0
115	0x80	0.0
116	0x80	0.0
117	0x80	0.0
118	0x80	0.0
119	0x80	0.0
120	0x80	0.0
121	0x80	0.0
122	0x80	0.0
123	0x80	0.0
124	0x80	0.0
125	0x80	0.0
126	0x80	0.0
127	0x80	0.0
128	0x80	0.0
129	0x80	0.0
130	0x80	0.0
131	0x80	0.0
132	0x80	0.0
133	0x80	0.0
134	0x80	0.0
135	0x80	0.0
136	0x80	0.0
137	0x80	0.0
138	0x80	0.0
139	0x80	0.0
140	0x80	0.0
141	0x80	0.0
142	0x80	0.0
143	0x80	0.0
144	0x80	0.0
145	0x80	0.0
146	0x80	0.0
147	0x80	0.0
148	0x80	0.0
149	0x80	0.0
150	0x80	0.0
151	0x80	0.0
152	0x80	0.0
153	0x80	0.0
154	0x80	0.0
155	0x80	0.0
156	0x80	0.0
157	0x80	0.0
158	0x80	0.0
159	0x80	0.0
160	0x80	0.0
161	0x80	0.0
162	0x80	0.0
163	0x80	0.0
164	0x80	0.0
165	0x80	0.0
166	0x80	0.0
167	0x80	0.0
168	0x80	0.0
169	0x80	0.0
170	0x80	0.0
171	0x80	0.0
172	0x80	0.0
173	0x80	0.0
174	0x80	0.0
175	0x80	0.0
176	0x80	0.0
177	0x80	0.0
178	0x80	0.0
179	0x80	0.0
180	0x80	0.0
181	0x80	0.0
182	0x80	0.0
183	0x80	0.0
184	0x80	0.0
185	0x80	0.0
186	0x80	0.0
187	0x80	0.0
188	0x80	0.0
189	0x80	0.0
190	0x80	0.0
191	0x80	0.0
192	0x80	0.0
193	0x80	0.0
194	0x80	0.0
195	0x80	0.0
196	0x80	0.0
197	0x80	0.0
198	0x80	0.0
199	0x80	0.0
200	0x80	0.0
201	0x80	0.0
202	0x80	0.0
203	0x80	0.0
204	0x80	0.0
205	0x80	0.0
206	0x80	0.0
207	0x80	0.0
208	0x80	0.0
209	0x80	0.0
210	0x80	0.0
211	0x80	0.0
212	0x80	0.0
213	0x80	0.0
214	0x80	0.0
215	0x80	0.0
216	0x80	0.0
217	0x80	0.0
218	0x80	0.0
219	0x80	0.0
220	0x80	0.0
221	0x80	0.0
222	0x80	0.0
223	0x80	0.0
224	0x80	0.0
225	0x80	0.0
226	0x80	0.0
227	0x80	0.0
228	0x80	0.0
229	0x80	0.0
230	0x80	0.0
231	0x80	0.0
232	0x80	0.0
233	0x80	0.0
234	0x80	0.0
235	0x80	0.0
236	0x80	0.0
237	0x80	0.0
238	0x80	0.0
239	0x80	0.0
240	0x80	0.0
241	0x80	0.0
242	0x80	0.0
243	0x80	0.0
244	0x80	0.0
245	0x80	0.0
246	0x80	0.0
247	0x80	0.0
248	0x80	0.0
249	0x80	0.0
250	0x80	0.0
251	0x80	0.0
252	0x80	0.0
253	0x80	0.0
254	0x80	0.0
255	0x80	0.0

fuse_attr_13 u1 [90, 3, 3, 65] scale=0.0019847443 zero_point=128
0	0x80	0.0
1	0x80	0.0
2	0x80	0.0
3	0x80	0.0
4	0x80	0.0
5	0x80	0.0
6	0x80	0.0
7	0x80	0.0
8	0x80	0.0
9	0x80	0.0
10	0x80	0.0
11	0x80	0.0
12	0x80	0.0
13	0x80	0.0
14	0x80	0.0
15	0x80	0.0
16	0x80	0.0
17	0x80	0.0
18	0x80	0.0
19	0x80	0.0
20	0x80	0.0
21	0x80	0.0
22	0x80	0.0
23	0x80	0.0
24	0x80	0.0
25	0x80	0.0
26	0x80	0.0
27	0x80	0.0
28	0x80	0.0
29	0x80	0.0
30	0x80	0.0
31	0x80	0.0
32	0x80	0.0
33	0x80	0.0
34	0x80	0.0
35	0x80	0.0
36	0x80	0.0
37	0x80	0.0
38	0x80	0.0
39	0x80	0.0
40	0x80	0.0
41	0x80	0.0
42	0x80	0.0
43	0x80	0.0
44	0x80	0.0
45	0x80	0.0
46	0x80	0.0
47	0x80	0.0
48	0x80	0.0
49	0x80	0.0
50	0x80	0.0
51	0x80	0.0
52	0x80	0.0
53	0x80	0.0
54	0x80	0.0
55	0x80	0.0
56	0x80	0.0
57	0x80	0.0
58	0x80	0.0
59	0x80	0.0
60	0x80	0.0
61	0x80	0.0
62	0x80	0.0
63	0x80	0.0
64	0x80	0.0
65	0x80	0.0
66	0x80	0.0
67	0x80	0.0
68	0x80	0.0
69	0x80	0.0
70	0x80	0.0
71	0x80	0.0
72	0x80	0.0
73	0x80	0.0
74	0x80	0.0
75	0x80	0.0
76	0x80	0.0
77	0x80	0.0
78	0x80	0.0
79	0x80	0.0
80	0x80	0.0
81	0x80	0.0
82	0x80	0.0
83	0x80	0.0
84	0x80	0.0
85	0x80	0.0
86	0x80	0.0
87	0x80	0.0
88	0x80	0.0
89	0x80	0.0
90	0x80	0.0
91	0x80	0.0
92	0x80	0.0
93	0x80	0.0
94	0x80	0.0
95	0x80	0.0
96	0x80	0.0
97	0x80	0.0
98	0x80	0.0
99	0x80	0.0
100	0x80	0.0
101	0x80	0.0
102	0x80	0.0
103	0x80	0.0
104	0x80	0.0
105	0x80	0.0
106	0x80	0.0
107	0x80	0.0
108	0x80	0.0
109	0x80	0.0
110	0x80	0.0
111	0x80	0.0
112	0x80	0.0
113	0x80	0.0
114	0x80	0.0
115	0x80	0.0
116	0x80	0.0
117	0x80	0.0
118	0x80	0.0
119	0x80	0.0
120	0x80	0.0
121	0x80	0.0
122	0x80	0.0
123	0x80	0.0
124	0x80	0.0
125	0x80	0.0
126	0x80	0.0
127	0x80	0.0
128	0x80	0.0
129	0x80	0.0
130	0x80	0.0
131	0x80	0.0
132	0x80	0.0
133	0x80	0.0
134	0x80	0.0
135	0x80	0.0
136	0x80	0.0
137	0x80	0.0
138	0x80	0.0
139	0x80	0.0
140	0x80	0.0
141	0x80	0.0
142	0x80	0.0
143	0x80	0.0
144	0x80	0.0
145	0x80	0.0
146	0x80	0.0
147	0x80	0.0
148	0x80	0.0
149	0x80	0.0
150	0x80	0.0
151	0x80	0.0
152	0x80	0.0
153	0x80	0.0
154	0x80	0.0
155	0x80	0.0
156	0x80	0.0
157	0x80	0.0
158	0x80	0.0
159	0x80	0.0
160	0x80	0.0
161	0x80	0.0
162	0x80	0.0
163	0x80	0.0
164	0x80	0.0
165	0x80	0.0
166	0x80	0.0
167	0x80	0.0
168	0x80	0.0
169	0x80	0.0
170	0x80	0.0
171	0x80	0.0
172	0x80	0.0
173	0x80	0.0
174	0x80	0.0
175	0x80	0.0
176	0x80	0.0
177	0x80	0.0
178	0x80	0.0
179	0x80	0.0
180	0x80	0.0
181	0x80	0.0
182	0x80	0.0
183	0x80	0.0
184	0x80	0.0
185	0x80	0.0
186	0x80	0.0
187	0x80	0.0
188	0x80	0.0
189	0x80	0.0
190	0x80	0.0
191	0x80	0.0
192	0x80	0.0
193	0x80	0.0
194	0x80	0.0
195	0x80	0.0
196	0x80	0.0
197	0x80	0.0
198	0x80	0.0
199	0x80	0.0
200	0x80	0.0
201	0x80	0.0
202	0x80	0.0
203	0x80	0.0
204	0x80	0.0
205	0x80	0.0
206	0x80	0.0
207	0x80	0.0
208	0x80	0.0
209	0x80	0.0
210	0x80	0.0
211	0x80	0.0
212	0x80	0.0
213	0x80	0.0
214	0x80	0.0
215	0x80	0.0
216	0x80	0.0
217	0x80	0.0
218	0x80	0.0
219	0x80	0.0
220	0x80	0.0
221	0x80	0.0
222	0x80	0.0
223	0x80	0.0
224	0x80	0.0
225	0x80	0.0
226	0x80	0.0
227	0x80	0.0
228	0x80	0.0
229	0x80	0.0
230	0x80	0.0
231	0x80	0.0
232	0x80	0.0
233	0x80	0.0
234	0x80	0.0
235	0x80	0.0
236	0x80	0.0
237	0x80	0.0
238	0x80	0.0
239	0x80	0.0
240	0x80	0.0
241	0x80	0.0
242	0x80	0.0
243	0x80	0.0
244	0x80	0.0
245	0x80	0.0
246	0x80	0.0
247	0x80	0.0
248	0x80	0.0
249	0x80	0.0
250	0x80	0.0
251	0x80	0.0
252	0x80	0.0
253	0x80	0.0
254	0x80	0.0
255	0x80	0.0

fuse_attr_9 u1 [29, 3, 3, 33] scale=0.0051285443 zero_point=128
0	0x80	0.0
1	0x80	0.0
2	0x80	0.0
3	0x80	0.0
4	0x80	0.0
5	0x80	0.0
6	0x80	0.0
7	0x80	0.0
8	0x80	0.0
9	0x80	0.0
10	0x80	0.0
11	0x80	0.0
12	0x80	0.0
13	0x80	0.0
14	0x80	0.0
15	0x80	0.0
16	0x80	0.0
17	0x80	0.0
18	0x80	0.0
19	0x80	0.0
20	0x80	0.0
21	0x80	0.0
22	0x80	0.0
23	0x80	0.0
24	0x80	0.0
25	0x80	0.0
26	0x80	0.0
27	0x80	0.0
28	0x80	0.0
29	0x80	0.0
30	0x80	0.0
31	0x80	0.0
32	0x80	0.0
33	0x80	0.0
34	0x80	0.0
35	0x80	0.0
36	0x80	0.0
37	0x80	0.0
38	0x80	0.0
39	0x80	0.0
40	0x80	0.0
41	0x80	0.0
42	0x80	0.0
43	0x80	0.0
44	0x80	0.0
45	0x80	0.0
46	0x80	0.0
47	0x80	0.0
48	0x80	0.0
49	0x80	0.0
50	0x80	0.0
51	0x80	0.0
52	0x80	0.0
53	0x80	0.0
54	0x80	0.0
55	0x80	0.0
56	0x80	0.0
57	0x80	0.0
58	0x80	0.0
59	0x80	0.0
60	0x80	0.0
61	0x80	0.0
62	0x80	0.0
63	0x80	0.0
64	0x80	0.0
65	0x80	0.0
66	0x80	0.0
67	0x80	0.0
68	0x80	0.0
69	0x80	0.0
70	0x80	0.0
71	0x80	0.0
72	0x80	0.0
73	0x80	0.0
74	0x80	0.0
75	0x80	0.0
76	0x80	0.0
77	0x80	0.0
78	0x80	0.0
79	0x80	0.0
80	0x80	0.0
81	0x80	0.0
82	0x80	0.0
83	0x80	0.0
84	0x80	0.0
85	0x80	0.0
86	0x80	0.0
87	0x80	0.0
88	0x80	0.0
89	0x80	0.0
90	0x80	0.0
91	0x80	0.0
92	0x80	0.0
93	0x80	0.0
94	0x80	0.0
95	0x80	0.0
96	0x80	0.0
97	0x80	0.0
98	0x80	0.0
99	0x80	0.0
100	0x80	0.0
101	0x80	0.0
102	0x80	0.0
103	0x80	0.0
104	0x80	0.0
105	0x80	0.0
106	0x80	0.0
107	0x80	0.0
108	0x80	0.0
109	0x80	0.0
110	0x80	0.0
111	0x80	0.0
112	0x80	0.0
113	0x80	0.0
114	0x80	0.0
115	0x80	0.0
116	0x80	0.0
117	0x80	0.0
118	0x80	0.0
119	0x80	0.0
120	0x80	0.0
121	0x80	0.0
122	0x80	0.0
123	0x80	0.0
124	0x80	0.0
125	0x80	0.0
126	0x80	0.0
127	0x80	0.0
128	0x80	0.0
129	0x80	0.0
130	0x80	0.0
131	0x80	0.0
132	0x80	0.0
133	0x80	0.0
134	0x80	0.0
135	0x80	0.0
136	0x80	0.0
137	0x80	0.0
138	0x80	0.0
139	0x80	0.0
140	0x80	0.0
141	0x80	0.0
142	0x80	0.0
143	0x80	0.0
144	0x80	0.0
145	0x80	0.0
146	0x80	0.0
147	0x80	0.0
148	0x80	0.0
149	0x80	0.0
150	0x80	0.0
151	0x80	0.0
152	0x80	0.0
153	0x80	0.0
154	0x80	0.0
155	0x80	0.0
156	0x80	0.0
157	0x80	0.0
158	0x80	0.0
159	0x80	0.0
160	0x80	0.0
161	0x80	0.0
162	0x80	0.0
163	0x80	0.0
164	0x80	0.0
165	0x80	0.0
166	0x80	0.0
167	0x80	0.0
168	0x80	0.0
169	0x80	0.0
170	0x80	0.0
171	0x80	0.0
172	0x80	0.0
173	0x80	0.0
174	0x80	0.0
175	0x80	0.0
176	0x80	0.0
177	0x80	0.0
178	0x80	0.0
179	0x80	0.0
180	0x80	0.0
181	0x80	0.0
182	0x80	0.0
183	0x80	0.0
184	0x80	0.0
185	0x80	0.0
186	0x80	0.0
187	0x80	0.0
188	0x80	0.0
189	0x80	0.0
190	0x80	0.0
191	0x80	0.0
192	0x80	0.0
193	0x80	0.0
194	0x80	0.0
195	0x80	0.0
196	0x80	0.0
197	0x80	0.0
198	0x80	0.0
199	0x80	0.0
200	0x80	0.0
201	0x80	0.0
202	0x80	0.0
203	0x80	0.0
204	0x80	0.0
205	0x80	0.0
206	0x80	0.0
207	0x80	0.0
208	0x80	0.0
209	0x80	0.0
210	0x80	0.0
211	0x80	0.0
212	0x80	0.0
213	0x80	0.0
214	0x80	0.0
215	0x80	0.0
216	0x80	0.0
217	0x80	0.0
218	0x80	0.0
219	0x80	0.0
220	0x80	0.0
221	0x80	0.0
222	0x80	0.0
223	0x80	0.0
224	0x80	0.0
225	0x80	0.0
226	0x80	0.0
227	0x80	0.0
228	0x80	0.0
229	0x80	0.0
230	0x80	0.0
231	0x80	0.0
232	0x80	0.0
233	0x80	0.0
234	0x80	0.0
235	0x80	0.0
236	0x80	0.0
237	0x80	0.0
238	0x80	0.0
239	0x80	0.0
240	0x80	0.0
241	0x80	0.0
242	0x80	0.0
243	0x80	0.0
244	0x80	0.0
245	0x80	0.0
246	0x80	0.0
247	0x80	0.0
248	0x80	0.0
249	0x80	0.0
250	0x80	0.0
251	0x80	0.0
252	0x80	0.0
253	0x80	0.0
254	0x80	0.0
255	0x80	0.0

fuse_attr_5 u1 [9, 3, 3, 1] scale=0.0049059084 zero_point=128
0	0x80	0.0
1	0x80	0.0
2	0x80	0.0
3	0x80	0.0
4	0x80	0.0
5	0x80	0.0
6	0x80	0.0
7	0x80	0.0
8	0x80	0.0
9	0xd8	0.43171993
10	0xff	0.6230504
11	0xd9	0.43662584
12	0x7b	-0.024529543
13	0x7e	-0.009811817
14	0x7e	-0.009811817
15	0x7e	-0.009811817
16	0x7e	-0.009811817
17	0x7c	-0.019623633
18	0x80	0.0
19	0x80	0.0
20	0x80	0.0
21	0x80	0.0
22	0x80	0.0
23	0x80	0.0
24	0x80	0.0
25	0x80	0.0
26	0x80	0.0
27	0x80	0.0
28	0x80	0.0
29	0x80	0.0
30	0x80	0.0
31	0x80	0.0
32	0x80	0.0
33	0x80	0.0
34	0x80	0.0
35	0x80	0.0
36	0x80	0.0
37	0x80	0.0
38	0x80	0.0
39	0x80	0.0
40	0x80	0.0
41	0x80	0.0
42	0x80	0.0
43	0x80	0.0
44	0x80	0.0
45	0x80	0.0
46	0x80	0.0
47	0x80	0.0
48	0x80	0.0
49	0x80	0.0
50	0x80	0.0
51	0x80	0.0
52	0x80	0.0
53	0x80	0.0
54	0x80	0.0
55	0x80	0.0
56	0x80	0.0
57	0x80	0.0
58	0x80	0.0
59	0x80	0.0
60	0x80	0.0
61	0x80	0.0
62	0x80	0.0
63	0x80	0.0
64	0x80	0.0
65	0x80	0.0
66	0x80	0.0
67	0x80	0.0
68	0x80	0.0
69	0x80	0.0
70	0x80	0.0
71	0x80	0.0
72	0x80	0.0
73	0x80	0.0
74	0x80	0.0
75	0x80	0.0
76	0x80	0.0
77	0x80	0.0
78	0x80	0.0
79	0x80	0.0
80	0x80	0.0

fuse_attr_4 u1 [32, 1, 5, 5] scale=0.006034105 zero_point=128
0	0x80	0.0
1	0x80	0.0
2	0x80	0.0
3	0x80	0.0
4	0x80	0.0
5	0x80	0.0
6	0x80	0.0
7	0x80	0.0
8	0x80	0.0
9	0x80	0.0
10	0x80	0.0
11	0x80	0.0
12	0x80	0.0
13	0x80	0.0
14	0x80	0.0
15	0x80	0.0
16	0x80	0.0
17	0x80	0.0
18	0x80	0.0
19	0x80	0.0
20	0x80	0.0
21	0x80	0.0
22	0x80	0.0
23	0x80	0.0
24	0x80	0.0
25	0x80	0.0
26	0x80	0.0
27	0x80	0.0
28	0x80	0.0
29	0x80	0.0
30	0x80	0.0
31	0x80	0.0
32	0x80	0.0
33	0x80	0.0
34	0x80	0.0
35	0x80	0.0
36	0x80	0.0
37	0x80	0.0
38	0x80	0.0
39	0x80	0.0
40	0x80	0.0
41	0x80	0.0
42	0x80	0.0
43	0x80	0.0
44	0x80	0.0
45	0x80	0.0
46	0x80	0.0
47	0x80	0.0
48	0x80	0.0
49	0x80	0.0
50	0x80	0.0
51	0x80	0.0
52	0x80	0.0
53	0x80	0.0
54	0x80	0.0
55	0x80	0.0
56	0x80	0.0
57	0x80	0.0
58	0x80	0.0
59	0x80	0.0
60	0x80	0.0
61	0x80	0.0
62	0x80	0.0
63	0x80	0.0
64	0x80	0.0
65	0x80	0.0
66	0x80	0.0
67	0x80	0.0
68	0x80	0.0
69	0x80	0.0
70	0x80	0.0
71	0x80	0.0
72	0x80	0.0
73	0x80	0.0
74	0x80	0.0
75	0x7e	-0.01206821
76	0x77	-0.054306947
77	0x80	0.0
78	0x01	-0.7663314
79	0x80	0.0
80	0x81	0.006034105
81	0x26	-0.5430695
82	0x80	0.0
83	0x84	0.02413642
84	0x80	0.0
85	0x33	-0.4646261
86	0x0b	-0.7059903
87	0x80	0.0
88	0x63	-0.17498904
89	0x80	0.0
90	0x47	-0.34394398
91	0x90	0.09654568
92	0x80	0.0
93	0x67	-0.15085262
94	0x80	0.0
95	0xb3	0.30773935
96	0x8c	0.07240926
97	0x80	0.0
98	0x51	-0.28360295
99	0x80	0.0
100	0x80	0.0
101	0x80	0.0
102	0x80	0.0
103	0x80	0.0
104	0x80	0.0
105	0x80	0.0
106	0x80	0.0
107	0x80	0.0
108	0x80	0.0
109	0x80	0.0
110	0x80	0.0
111	0x80	0.0
112	0x80	0.0
113	0x80	0.0
114	0x80	0.0
115	0x80	0.0
116	0x80	0.0
117	0x80	0.0
118	0x80	0.0
119	0x80	0.0
120	0x80	0.0
121	0x80	0.0
122	0x80	0.0
123	0x80	0.0
124	0x80	0.0
125	0x80	0.0
126	0x80	0.0
127	0x80	0.0
128	0x80	0.0
129	0x80	0.0
130	0x80	0.0
131	0x80	0.0
132	0x80	0.0
133	0x80	0.0
134	0x80	0.0
135	0x80	0.0
136	0x80	0.0
137	0x80	0.0
138	0x80	0.0
139	0x80	0.0
140	0x80	0.0
141	0x80	0.0
142	0x80	0.0
143	0x80	0.0
144	0x80	0.0
145	0x80	0.0
146	0x80	0.0
147	0x80	0.0
148	0x80	0.0
149	0x80	0.0
150	0x80	0.0
151	0x80	0.0
152	0x80	0.0
153	0x80	0.0
154	0x80	0.0
155	0x80	0.0
156	0x80	0.0
157	0x80	0.0
158	0x80	0.0
159	0x80	0.0
160	0x80	0.0
161	0x80	0.0
162	0x80	0.0
163	0x80	0.0
164	0x80	0.0
165	0x80	0.0
166	0x80	0.0
167	0x80	0.0
168	0x80	0.0
169	0x80	0.0
170	0x80	0.0
171	0x80	0.0
172	0x80	0.0
173	0x80	0.0
174	0x80	0.0
175	0x80	0.0
176	0x80	0.0
177	0x80	0.0
178	0x80	0.0
179	0x80	0.0
180	0x80	0.0
181	0x80	0.0
182	0x80	0.0
183	0x80	0.0
184	0x80	0.0
185	0x80	0.0
186	0x80	0.0
187	0x80	0.0
188	0x80	0.0
189	0x80	0.0
190	0x80	0.0
191	0x80	0.0
192	0x80	0.0
193	0x80	0.0
194	0x80	0.0
195	0x80	0.0
196	0x80	0.0
197	0x80	0.0
198	0x80	0.0
199	0x80	0.0
200	0x80	0.0
201	0x80	0.0
202	0x80	0.0
203	0x80	0.0
204	0x80	0.0
205	0x80	0.0
206	0x80	0.0
207	0x80	0.0
208	0x80	0.0
209	0x80	0.0
210	0x80	0.0
211	0x80	0.0
212	0x80	0.0
213	0x80	0.0
214	0x80	0.0
215	0x80	0.0
216	0x80	0.0
217	0x80	0.0
218	0x80	0.0
219	0x80	0.0
220	0x80	0.0
221	0x80	0.0
222	0x80	0.0
223	0x80	0.0
224	0x80	0.0
225	0x80	0.0
226	0x80	0.0
227	0x80	0.0
228	0x80	0.0
229	0x80	0.0
230	0x80	0.0
231	0x80	0.0
232	0x80	0.0
233	0x80	0.0
234	0x80	0.0
235	0x80	0.0
236	0x80	0.0
237	0x80	0.0
238	0x80	0.0
239	0x80	0.0
240	0x80	0.0
241	0x80	0.0
242	0x80	0.0
243	0x80	0.0
244	0x80	0.0
245	0x80	0.0
246	0x80	0.0
247	0x80	0.0
248	0x80	0.0
249	0x80	0.0
250	0x80	0.0
251	0x80	0.0
252	0x80	0.0
253	0x80	0.0
254	0x80	0.0
255	0x80	0.0

fuse_attr_3 u1 [5, 1, 9, 1] scale=0.0012506348 zero_point=128
0	0x5b	-0.04627349
1	0x5b	-0.04627349
2	0x70	-0.020010157
3	0x9f	0.038769677
4	0x45	-0.07378745
5	0x55	-0.053777296
6	0x57	-0.051276024
7	0x61	-0.038769677
8	0x6b	-0.02626333
9	0xa3	0.043772217
10	0x98	0.030015234
11	0x87	0.008754443
12	0x6a	-0.027513966
13	0xbf	0.078789994
14	0xff	0.15883061
15	0x63	-0.03626841
16	0x5d	-0.043772217
17	0x81	0.0012506348
18	0x80	0.0
19	0x80	0.0
20	0x80	0.0
21	0x80	0.0
22	0x80	0.0
23	0x80	0.0
24	0x80	0.0
25	0x80	0.0
26	0x80	0.0
27	0x6a	-0.027513966
28	0x5a	-0.04752412
29	0x4b	-0.06628364
30	0x42	-0.077539355
31	0x26	-0.11255713
32	0x2d	-0.10380269
33	0x40	-0.080040626
34	0x55	-0.053777296
35	0x58	-0.050025392
36	0x80	0.0
37	0x80	0.0
38	0x80	0.0
39	0x80	0.0
40	0x80	0.0
41	0x80	0.0
42	0x80	0.0
43	0x80	0.0
44	0x80	0.0
