refine_codes/retrained_models_after_second_stage_pruning/after_second_pruning_time_2024021510_prunratio0.85/retrained_model_after_second_pruning_0.85ratio_acc95.45454406738281_65th_epoch_20240215102238.pt (torch, 327788 bytes, 62 tensors)

sfeb.0.weight f4 [4, 1, 1, 9]
00000000: 10e5 02bd dcfc 533d 8f1e 2a3e 18ee 6cbe
00000010: c3f9 d53d 81c2 35bf ce83 98be 5a0b bb3e
00000020: eb76 173f 001d 733e 9ed5 b33d 3845 603d
00000030: 5133 1abe c344 8a3c 54c2 12be 1a8e 2c3e
00000040: 2ce2 0f3d 0b5b abbe 6329 043d 8a41 d23d
00000050: e81f 0fbe 1818 873d 419f 113c b9f4 663e
00000060: 4812 233f f1f1 ecbe 0c18 d0be 66fe 353e
00000070: f3bc 323e 5b98 18be 3cbf a33e 34af 3dbf
00000080: 269c 0c3f 3db7 5c3d 8180 51bf 3588 eb3e
-0.031956732 0.051754817 0.1661322 -0.231377 0.10448029 -0.70999914 -0.2978806 0.36532098
0.5916583 0.23741531 0.087809786 0.054753512 -0.15058638 0.016878491 -0.14331943 0.16851082
0.035127804 -0.33467898 0.032266032 0.10266407 -0.13977015 0.065963924 0.008888067 0.22554292
0.6369977 -0.46278337 -0.40643346 0.17772827 0.17454891 -0.14901869 0.31981838 -0.74095464
0.54925764 0.053885687 -0.81836706 0.46002355

sfeb.1.weight f4 [4]
00000000: a579 483f 9412 cb3e e97e 0d3f 4037 f13e
0.78310615 0.3966261 0.55271775 0.47112465

sfeb.1.bias f4 [4]
00000000: b993 b23d 6c32 773d 0ed5 613e 1515 023f
0.08719582 0.06035082 0.2205393 0.5081342

sfeb.1.running_mean f4 [4]
00000000: 402e 3637 127b cbb7 bc0f b838 4db7 3038
1.0858814e-05 -2.4256795e-05 8.7767345e-05 4.2132382e-05

sfeb.1.running_var f4 [4]
00000000: a773 163d e3e6 be3b 3202 a73c 066a da3b
0.03673139 0.0058258637 0.020386789 0.006665471

sfeb.3.weight f4 [32, 4, 1, 5]
00000000: acc3 a4bc f6d2 d4bc 349e afbc 399b 12bd
00000010: 4e03 433b 1033 a43c 6cb4 773d 4d81 bb3d
00000020: 88a2 233e d33e 023e d7da 443c 4ba1 c33b
00000030: ca48 353b 60a6 c83c 5037 96bc 2921 14bd
00000040: 9d03 ecbc 059c 283c 3428 0e37 7d0d b3bc
00000050: 9e19 4fbd 9586 49bd a2c6 993b 6d78 473d
00000060: 7fac bebc a284 3d3e 472e 5c3e 1917 413e
00000070: 4d87 633e 1a83 2b3e 2735 9d3c 8759 973d
00000080: 70f9 10bc 872a a5bc b004 6cbd c178 4abd
00000090: a20d 413c ff5d e23c cd68 eaba 1241 4fbc
000000a0: ff72 7e3c f44f e5bc e667 93bb cf86 90bc
000000b0: 8cc1 0a3d 4f10 0f3e 1433 373e c493 103e
000000c0: 998f 403e a352 333e d994 f2bc faeb 653c
000000d0: 6652 1f3d 02a4 ce3c 0a42 aebc 6602 d4bb
000000e0: 012c 0dbb 325f 6abc 6235 083b ef59 033c
000000f0: a743 07bd 2421 87bc ff10 14bd 3f47 b2bd
00000100: d8e7 e8bc 4068 243d 3d36 c23d 2f4c 983d
00000110: 2b83 a03d 1d35 a53d 3435 43bc 96bf 463b
00000120: 5924 db3b ece8 c2bc c360 13bd abff 043d
00000130: daca 063d be65 d53c 4523 95bc 4564 72bc
00000140: dbd9 ffbd aacb f1bd afe8 5ebd cb34 95bd
00000150: 77fb 3abe 490a ebbd ece3 9bbd f535 b8bd
00000160: 3f66 6d3c 1ce0 be3d 6160 8a3c e6f6 e53c
00000170: 824a fa3c ced5 d53d bd8b 0f3e 3268 243b
00000180: c7cf 2b3c b1fd 0fbc 023c 64bd 6317 77bd
00000190: 1179 bc3d ebcd 81bd 15cd 203c f640 583d
000001a0: b6fe 8d3d 993d 9ebd 88b5 f0ba 1356 a4bd
000001b0: bebb b0bc bef1 6c3d ac55 8abb 356d adbd
000001c0: aa0a 8fbd ced3 cdbd 8233 02be e0d5 8fbd
000001d0: add0 f3bc d32e 6c3b 997a b4bb 8c5e 9f3d
000001e0: 7df2 11be 79f1 c139 c87b aa3c 50e7 343d
000001f0: 44e9 ec3d b482 5a3d ffda 8c3d 5d87 c03c
00000200: f1c1 c7bd 7ee6 e6bd 1823 3a3d 8ca5 643d
00000210: a0b9 41bc eee2 f1bd 0a4d 85bd f41a 9d3c
00000220: 57fb cb3a 5e19 5dbc 998f 0ebc 01c6 c43c
00000230: 0ae4 ddbd ff00 f6bd b2d1 1dbe da4e 16be
00000240: 8762 01be 7ca6 f4bd b755 55bc 9369 a23d
00000250: bd54 193e 01cb 043e 8833 783c c660 ae3d
00000260: af21 383d 1206 273d ab35 acbd 972f d0bc
00000270: 3ae5 2cbc c01d 8bbc 37f7 c1bb 13b1 713c
00000280: 6bfe 9bbd 3935 f4bc dcaf 34bd fe0a 273c
00000290: a910 0a3d e20c 163c 9bc6 08bb 2177 90bd
000002a0: a2e8 c4bd 4b7a ccbd e683 9f3a 0473 2cbc
000002b0: e0d3 afbc cf8d 44bb 7c3d 80bd 8f7b b4bc
000002c0: 960d 31bd ddf9 d3bc 54d1 8bbc 67bc 9bbb
000002d0: c385 a33b 9548 c23c a885 be3c fa28 c4bd
000002e0: 9233 e4bd fe73 cebd a01c d4bd e658 22bd
000002f0: 33cb 073d 07ae 3c3e c4db c7bc 2e6a babb
00000300: 75dc f9bc 9ebd b7bc 15b8 0d3d 8b21 043d
00000310: 0402 15bc f467 aa3c 201d e03c 6650 5cbd
00000320: 4ca4 063d 2ed2 f73a 4fed 373c a67e 693d
00000330: 7c86 773d 7547 6ebd 1bbb c3bc f7cf 5c3d
00000340: 428e 443d 69f8 b73b d5f3 df39 a097 b03c
00000350: 443a 8f3d 9cda 00bc 2ea4 143d e6d9 323e
00000360: e8c2 493e 83be 72bd b3de 2ebe 5d85 cfbd
00000370: 682f 72bd 0b15 b0bc b576 99bc 917d 71bc
00000380: ad22 113d 4dfe 8ebc f1ec dabc 3eb0 80bd
00000390: 88b5 de3d a35f 363d b640 0dbd a8a3 9abd
000003a0: cb8c fe3d 3949 033e 7827 1ebe a383 65bd
000003b0: 15e0 913e 243e 8e3e 654b 41be c444 76be
000003c0: 56fb abbd 556a d0bd 33e1 0bbe 8843 10be
000003d0: d2a1 14be 57af acbc d154 3f3d 0019 4abd
000003e0: d769 6dbd 8ab0 50bc f0c1 0dbc 6800 febd
000003f0: 29d0 2cbe b87c 403d 70eb a83d b13b 9ebe
-0.020112835 -0.0259795 -0.021437742 -0.035792563 0.0029756608 0.02004388 0.060474798 0.091555215
0.1597997 0.12719278 0.012015066 0.0059701554 0.0027661794 0.024493396 -0.018336922 -0.036164436
-0.028810317 0.010291104 8.47322e-06 -0.021857018 -0.05056154 -0.049200613 0.0046928683 0.04869883
-0.023275612 0.18507627 0.21502028 0.18856467 0.22219582 0.1674923 0.019190384 0.07390123
-0.008848533 -0.02016188 -0.057621658 -0.049431566 0.0117830355 0.027632711 -0.0017884016 -0.012649791
0.015530347 -0.027992226 -0.0044984696 -0.017642407 0.033875987 0.13971065 0.17890579 0.14118868
0.18804778 0.17511992 -0.029611992 0.014033312 0.03889694 0.02522469 -0.021271724 -0.0064700125
-0.002154112 -0.014304923 0.0020783772 0.008017047 -0.033023503 -0.016495295 -0.03614902 -0.08704995
-0.028430864 0.040138483 0.094830014 0.07436406 0.07837518 0.08066771 -0.01191454 0.0030326596
0.0066876826 -0.023792706 -0.03598095 0.032470386 0.032908298 0.026049491 -0.018205294 -0.014794414
-0.124927245 -0.11806424 -0.054421123 -0.0728546 -0.18259989 -0.11476571 -0.07611832 -0.089946665
0.014489709 0.09320089 0.01689166 0.028071832 0.030553106 0.10441171 0.1401815 0.002508652
0.01048655 -0.008788512 -0.05572129 -0.060325038 0.09202779 -0.06338104 0.00981452 0.052796327
0.06933348 -0.077265926 -0.0018364647 -0.0802423 -0.021573897 0.05784773 -0.0042216387 -0.08468095
-0.06984456 -0.10050164 -0.12714961 -0.07023215 -0.02976259 0.0036038652 -0.005507779 0.07781705
-0.14252658 0.0003699174 0.020810977 0.04416591 0.115679294 0.053347304 0.06877708 0.023502046
-0.09753788 -0.11274432 0.045443624 0.05582194 -0.011824042 -0.118108615 -0.06508835 0.019177891
0.0015562576 -0.013494818 -0.008701229 0.024020197 -0.108345106 -0.12011909 -0.15412024 -0.14678517
-0.12635241 -0.11945817 -0.013020924 0.07930293 0.14973731 0.12968065 0.015149005 0.08514552
0.044954 0.040777273 -0.08408674 -0.025413318 -0.010552699 -0.01698196 -0.005919363 0.01475169
-0.07616886 -0.029810535 -0.044113025 0.010195492 0.033707295 0.009158345 -0.0020870331 -0.07053972
-0.09614684 -0.09984263 0.0012170046 -0.010525469 -0.021463335 -0.002999175 -0.06261727 -0.022031574
-0.043225847 -0.02587598 -0.017067589 -0.004752684 0.004990311 0.02371625 0.023257092 -0.09578128
-0.11142649 -0.100807175 -0.10357022 -0.03963556 0.03315277 0.18425761 -0.024396785 -0.005688927
-0.03050063 -0.022429284 0.034599382 0.03225855 -0.009094719 0.020801522 0.027357638 -0.05378761
0.03287153 0.0018907243 0.011226012 0.057005547 0.06043099 -0.058173615 -0.02389293 0.05390927
0.04798723 0.0056143296 0.00042715544 0.021556675 0.06993535 -0.007864621 0.036289386 0.17465934
0.19703257 -0.059263717 -0.1707714 -0.10132859 -0.05912724 -0.02149441 -0.018733362 -0.01473941
0.03543346 -0.017455244 -0.02672431 -0.062836155 0.10874468 0.0445248 -0.03448554 -0.07550746
0.12429198 0.12820901 -0.15444744 -0.05603374 0.28491274 0.27781785 -0.18876417 -0.2404967
-0.08397548 -0.10176531 -0.13660125 -0.14088261 -0.14514855 -0.021079702 0.046711747 -0.049340248
-0.057962265 -0.012737403 -0.008652195 -0.12402421 -0.16876282 0.04699394 0.08248031 -0.30904916

sfeb.4.weight f4 [32]
00000000: 0e8f 7d3e 4810 193f 0501 c13e 3a27 243e
00000010: 1931 d63e c986 ed3e d595 9c3e 1c30 fd3e
00000020: 9806 643e c568 573e e919 f03d 6763 c93e
00000030: e87f ce3e aab6 0c3f ec4e 3d3e ace2 683e
00000040: 068a be3e fa0b 8d3e d5b2 b03e 1c35 543e
00000050: 2d3d 933e 3027 e93e 3a6c 6f3e b694 663e
00000060: 54ab be3e 1508 0a3f b8dc 093f 9c25 4c3e
00000070: 25c4 043f e262 a73e cda8 863e a9f3 b23e
0.24761602 0.5979047 0.3769609 0.16030589 0.41834334 0.46391895 0.30583063 0.49450767
0.2226814 0.2103606 0.11723692 0.3933365 0.4033196 0.54966223 0.18487138 0.22742718
0.3721468 0.275482 0.34511438 0.20723385 0.2875761 0.4553771 0.23381129 0.22517666
0.37240088 0.5391858 0.53852415 0.19936222 0.5186179 0.3269263 0.2630066 0.34951523

sfeb.4.bias f4 [32]
00000000: 2779 5ebd 1cde 443c ff5d 19bc c96f 69bb
00000010: 3809 85bd 17eb c9bc 7876 ca3c 9756 c1bd
00000020: d0d9 79bc 5bf1 bdbd 79f1 773d 894a b9bc
00000030: 8b1d aabd 7c71 8b3b fd16 253d 825a 473d
00000040: fcf4 883c d4ed d23c 080a a3bb e9ea 23bc
00000050: 11be 19bd ac50 3c3c fe08 b9bd 4273 0dbd
00000060: 0e09 553d 2382 40bd 5150 1abd 4c55 51bd
00000070: 0267 4fbb 3a11 92bd 6fb1 58bd d1b0 34bd
-0.05431476 0.012015846 -0.009360789 -0.0035619608 -0.06495899 -0.024648232 0.024714693 -0.09440344
-0.015249684 -0.092745505 0.06053302 -0.022618549 -0.08306416 0.0042554718 0.040305126 0.0486703
0.01671838 0.02574817 -0.004975561 -0.010004737 -0.037534777 0.011493843 -0.09034918 -0.034533747
0.05201059 -0.046999108 -0.037674252 -0.051106736 -0.003164709 -0.07132192 -0.05290359 -0.044113938

sfeb.4.running_mean f4 [32]
00000000: f0fb 5b3b 04ec d03d 0515 e13d 885c 7a3c
00000010: 7a02 f1bd 4e9d d7bd 20c8 87bc 077b e9bd
00000020: c621 16be 995b 36bd 8683 cb3d 5e01 d33c
00000030: 5a61 85be 4b47 33be 8255 e4bb 04ef e93c
00000040: 62ad 3dbe e33f d6bd 0018 10bd 751e f5bd
00000050: 4e41 08be a2c8 c8bd 583f 35be 82fc ccbd
00000060: c20c f9ba 8b8a bebd 56d4 1bbe 19cc c2bd
00000070: cd12 26bd 4e2c 2abe c499 b3bd ca76 09be
0.0033566914 0.102012664 0.10990337 0.01528085 -0.117680505 -0.1052805 -0.01657492 -0.11400419
-0.14661321 -0.044520948 0.099371955 0.025757488 -0.26050836 -0.17507665 -0.006968201 0.028556354
-0.18523172 -0.10461404 -0.03517914 -0.119687 -0.13306162 -0.09803893 -0.17699945 -0.100090995
-0.0019000995 -0.09303769 -0.15217718 -0.09511585 -0.040545274 -0.16618463 -0.08769563 -0.1342422

sfeb.4.running_var f4 [32]
00000000: b69d d33b 73f4 123d c847 c43c 2e4d 873b
00000010: 5f63 2e3d 23b2 4f3c cb09 7a3c 6d1d 2c3d
00000020: e56d 3f3c 0ae3 453c da8a 9f3c 227d 193d
00000030: b88d ce3d c050 bd3d 21bd 283c cb2c b33c
00000040: 17d4 de3c cb55 a63c cfcb 383c 4d2a f43c
00000050: f4fa d33c a401 863d 474f 073d 3eaf 953c
00000060: ee8f a63c 0a3f d43c 474c 2f3d 1f8b 313c
00000070: a08a 5d3c 8b52 e73c 4bbf f83b 3c82 0a3c
0.0064580096 0.035877656 0.02396001 0.0041290736 0.042575236 0.012676748 0.015261124 0.04202025
0.011683916 0.012078056 0.01947539 0.03747285 0.100856245 0.092439175 0.010298998 0.021871945
0.027200742 0.020304581 0.0112790605 0.029805327 0.0258765 0.06543282 0.03303459 0.018272039
0.020332303 0.025908966 0.042797353 0.010836392 0.01352182 0.028237602 0.0075911633 0.008453902

tfeb.0.weight f4 [12, 1, 3, 3]
00000000: 2606 2c3f b717 e6be f608 8cbe e35a adbd
00000010: 2518 5c3c b779 683d b023 20bd 7128 c23c
00000020: 4f10 5c3c 043b 253e 0307 293e 6ba3 aebe
00000030: 98ab 403e 6291 423e 8d12 a3be 9c0c d03d
00000040: 7c7f af3d 0e48 dbbd 9810 753d 93e3 893d
00000050: f7b1 dd3d e9fd 8f3d 960d 7e3d fc89 bc3d
00000060: 8fe2 a33b 8cd4 abbc 23f3 e43d 9451 c5be
00000070: f8dd 613f 87ba 0fbf 3772 d33c cf31 b0bb
00000080: 574d 85bd d5e0 a53c d97b 75bc db53 d5bc
00000090: fa03 66bd 5128 1d3d 4988 da3d eec9 8cbd
000000a0: 0a52 173b b3c5 de3d e351 a1bd 1e62 26be
000000b0: c373 18be 6f90 853a 3d25 963a d27f 3d3a
000000c0: 71d0 80bb b322 8abb c673 a0bb 95dd 7e3c
000000d0: ac3c db3c 4ff8 823c 4174 583c 46b8 a83c
000000e0: c8fe 653a d25c 013c ac58 9d3c 7c92 a63b
000000f0: 75a4 193c 800b a03c 1c72 dbbb 0451 d43d
00000100: 108a e43d f438 883d ff73 953d 38bc f73c
00000110: c219 d83c 9f05 27be 982b 11be dd8c 01be
00000120: 15bb e23c 6736 ec3c 7efd d9bd 2d37 973d
00000130: 9551 4b3d efd0 0fbe 308a 62be b7c4 c4be
00000140: 149d 123f cbf2 433e aee3 0bbc 6d05 adbe
00000150: f126 7f3e 9a08 c13c c281 95be 72a7 92be
00000160: e81c 6c3d d663 373e b8c6 e3bc 7d70 9cbc
00000170: 9bf8 0a3d 9cc7 91ba 9196 84ba c101 7bba
00000180: 9911 b0ba 5b70 b7ba a1f6 9eba 7815 7abe
00000190: 3338 99be 669c af3e 2913 69be f864 90be
000001a0: 176f d53e 6942 5cbc 0ea9 38be 073f 313e
0.6719688 -0.44939968 -0.27350587 -0.08464601 0.013433491 0.0567567 -0.039096534 0.023700925
0.013431623 0.16135794 0.16506581 -0.34109053 0.18815458 0.19000772 -0.3185009 0.10158655
0.085692376 -0.10707103 0.05983028 0.067328595 0.1082496 0.070308514 0.062024675 0.09206006
0.005001373 -0.020975374 0.11179187 -0.38538802 0.8822932 -0.56143993 0.025811298 -0.0053770314
-0.06508892 0.02024881 -0.014983141 -0.026040962 -0.056156136 0.038368527 0.106705256 -0.068744525
0.002308967 0.10877552 -0.07876947 -0.16248366 -0.1488791 0.0010190139 0.001145519 0.00072288245
-0.003931098 -0.0042155623 -0.004896614 0.015555759 0.026762329 0.015987543 0.013211311 0.02059568
0.0008773622 0.007895665 0.019207321 0.0050833803 0.0093775885 0.019536734 -0.0066969525 0.10367015
0.11159146 0.06651488 0.07297515 0.030241117 0.02637947 -0.16310738 -0.14176786 -0.12651391
0.027677098 0.028834535 -0.10644053 0.07383571 0.04963835 -0.14044546 -0.22123027 -0.38431332
0.5727093 0.19135587 -0.00853817 -0.33793202 0.24917199 0.023563672 -0.2920056 -0.28643376
0.057644755 0.17909178 -0.027804717 -0.019096607 0.033928495 -0.001112211 -0.0010115673 -0.00095751515
-0.0013432979 -0.0013995277 -0.0012127945 -0.24422252 -0.2992569 0.3429901 -0.22761215 -0.28202033
0.41686317 -0.013443568 -0.18033239 0.173092

tfeb.1.weight f4 [12]
00000000: 4c6a 473e b4eb 0f3e 2ad7 fc3d 153c 763e
00000010: a257 5f3e b5d9 553d 4fc4 593d 20e6 413e
00000020: 05ce 4f3e 896c 923e 3d20 d53c 11b2 943e
0.19474143 0.14054757 0.12345727 0.24046357 0.21810773 0.052209575 0.05316573 0.18935442
0.20293434 0.2859843 0.026016349 0.29042104

tfeb.1.bias f4 [12]
00000000: 766a 183d 8c62 e83d e46b 2a3e 737b 53bb
00000010: 3934 493d b7d1 8abd c0ab a7bd 928e e73d
00000020: 69f1 f63c f018 c6bc 4ec8 cebc 7bd2 ea3b
0.037210904 0.11346921 0.1664272 -0.0032269626 0.04912207 -0.06778281 -0.081870556 0.1130649
0.03014441 -0.024181813 -0.025241997 0.0071662045

tfeb.1.running_mean f4 [12]
00000000: 468a 93bc 0950 1c3d bcfd 2d3e f3fb 23bd
00000010: 88f9 9dbd f02d 6e3c c16a de3c b4ad 04bb
00000020: 0f3a f4bc 5a91 92bd 2b5b c6bb a166 cabd
-0.01801027 0.038162265 0.16991323 -0.0400352 -0.0771361 0.01453732 0.027150514 -0.0020245137
-0.02981284 -0.0715663 -0.0060533485 -0.09882856

tfeb.1.running_var f4 [12]
00000000: 3df8 5f3c f3d3 843c d98f 3a3d 4bed ad3c
00000010: 588a de3c 8146 273a f1f7 953a 69d7 163d
00000020: 1cb6 203c 728f 883c 72b8 eb38 0c6c 1c3d
0.013670024 0.016214347 0.04554734 0.021231314 0.027165577 0.00063810503 0.001144169 0.036826525
0.009809043 0.016669963 0.00011240029 0.03818898

tfeb.4.weight f4 [14, 12, 3, 3]
00000000: 9098 17bc 3ac9 1bbc fa65 1a3d 708c c03c
00000010: ca55 dd3c 2730 cd3c 4312 743c 6cc2 88bd
00000020: 16ee cd3c d0fc 1ebc 8f30 81bc c973 24bd
00000030: 2494 0a3b ebcb 7fbc 8eff 83bc 3c60 483c
00000040: 8087 c3bb 8caa 643c d7fe c2bc da0e b4bc
00000050: 0e37 05bc 8c99 95bc 79a4 05bc 39fa 013c
00000060: 4f09 553c 47bf f03c 84b6 2e3d e78b d1bb
00000070: acb1 653c ad46 573d 5947 4a3d f685 073d
00000080: 2c48 313d 4de3 0ebd a168 e1bc 1a0f da3b
00000090: a3e2 91bc 0ca2 fdbb a779 ffbb 8ba3 9a3c
000000a0: 1067 a93c a292 8a3c 20a5 48bd 3cd7 f6bc
000000b0: 4c35 17bd ceb7 adb9 9ad9 16bc f09c a9ba
000000c0: 6fa9 2ab9 9d8f 13b8 4752 a6b9 bec7 adbb
000000d0: 84c9 7bbc ef29 8fbc be3a 54ba be07 fab9
000000e0: fbf3 2bba 980e a0ba 8f34 75ba 1578 cbba
000000f0: 2840 27bb 1d62 43bc cb21 62bc 421d 95bc
00000100: fea7 51bc 5628 92ba e339 833c 1913 813c
00000110: 343b 643b aa21 53bd bb46 22bd c984 9bbc
00000120: 591c 783c d3f7 1c3d 7bb2 c63c ad17 0bbd
00000130: 2f54 913d e368 483c aaee 163d bba5 af3c
00000140: 7d88 c9bb 99e4 5abb caf5 0dbc 98a0 c4bc
00000150: 7744 71bc 8faa 8a3c a01a 98bc f03c 233d
00000160: a6f5 c3bc cef0 3dbb ab3a 7138 4061 a4ba
00000170: 1a75 49ba 7009 3c3a 52eb a5ba 3619 8eba
00000180: cc61 fe39 a88f 1838 bd70 5138 5e25 04bc
00000190: 3ece 4e3c 33f1 843c dd90 19bc c3d2 cd3c
000001a0: 6576 26bc 02bb 133c 3c47 823d 0d44 c93c
000001b0: 1873 393d bbe6 d33c e982 153c b998 6d3d
000001c0: 213d 163d 223b dfb8 1fe1 3a3d ba36 243d
000001d0: 51b9 e4bc 8baf 283d 2ec5 c63c aacd 3bbc
000001e0: 0e28 443d a4ea 3e3c 43da dcbc 75a3 823c
000001f0: 3f67 30bc c795 edbc d570 733d 6bb2 b43b
00000200: b285 83bd ec18 5c3d 2a51 e8bb deb8 51bd
00000210: 5672 873c 14d6 85bc 7312 29bd d42c 873d
00000220: c163 8f3b 4fd7 a7bb b397 1abb fca7 8d3c
00000230: 32d5 c4bb 4618 de3c 35e2 363c 3e7a 6abc
00000240: 9c2e 9ebc 149b 89bc aa56 64bc 7381 d53b
00000250: 9760 3bb9 2663 c2bc 32e3 babc bcea e4bc
00000260: 1faa a8bb a97c 173a dd35 f339 8d97 acba
00000270: 9775 773a 8610 6a39 efa1 acba fb71 c23a
00000280: e532 8b3a cd18 cab9 fcf2 a23b 901f a03b
00000290: aaef f4bb 2831 523b 5560 353b 8877 b13a
000002a0: b32f 563a e389 f538 a84b 33ba 4edd ab3c
000002b0: d8cb 93bb 122c bcbc b9b8 7b3d 4f6d 973c
000002c0: 9098 21bd 4e1e 89bb e3cd dbbc 49ea 0abd
000002d0: d6e1 a4bc 1237 67bb c994 a8bc e5d7 083d
000002e0: 0a9d abbc 0a37 d63b 082e ce3b cd8b e63c
000002f0: 9d2d b5bc c10d 2bbc 49fd 5d3c 136d edb9
00000300: dc16 0e3d 8465 8a3c 857e 16bb 1989 2a3b
00000310: 41e0 d53c 234e eebb 76a1 bbb9 9445 b739
00000320: 4857 91b9 2676 d738 76fe d237 a1c8 9fb9
00000330: 6a31 b739 0489 8739 a0d6 1739 3aaf 2abc
00000340: ce42 3fbc 81aa 00bd 28ed 19bd ec70 14bd
00000350: e1fe 16bd 44c3 87bc 1d3e 65bc bf77 a73c
00000360: eac9 df3a 01a0 9abc b1ec b03c 7e51 83bd
00000370: b000 333d 85d5 b1bd bc56 2dbd 1637 f63c
00000380: bdeb 103b 3047 e6bc 9a03 893c f42a 0c3d
00000390: 730b 9bbd 7712 febc 487a 9bbd bbb8 8ebc
000003a0: 5192 e3bb 34d4 3abc f482 bcbd bb5d 84bc
000003b0: 1a4e b43d a04f 08be d341 8dbb 67d0 213e
000003c0: dba1 9cbd b116 97bc ff21 7e3d bc4d 03bd
000003d0: 74a8 07bc 762a f73b 17a7 413d 262f 043c
000003e0: fa3a 2cbd 18f2 b4bc 677f a1bc 2001 163d
000003f0: 610c b53d 6f8b c03b ddc8 d4bd ce75 ddbc
-0.009252682 -0.009508425 0.03769491 0.023504466 0.027018446 0.025047375 0.014896932 -0.06677708
0.025137942 -0.00970383 -0.015770225 -0.040149484 0.0021145428 -0.015612583 -0.016113069 0.012229975
-0.0059670806 0.013956677 -0.023803158 -0.021979738 -0.008130802 -0.018261693 -0.008156889 0.007933193
0.013002708 0.029388083 0.04265453 -0.0063948515 0.014019411 0.052557636 0.04938445 0.03308674
0.04328172 -0.03488474 -0.027515711 0.0066546323 -0.017808264 -0.0077402648 -0.0077964845 0.018876811
0.020679027 0.016915623 -0.0489856 -0.030131929 -0.036916062 -0.00033134077 -0.009207154 -0.0012940448
-0.00016275582 -3.518128e-05 -0.0003172329 -0.005303352 -0.015367869 -0.01747605 -0.00080959115 -0.00047689484
-0.0006559488 -0.001221138 -0.000935384 -0.0015523458 -0.0025520418 -0.0119252475 -0.013802002 -0.018202428
-0.0127964 -0.0011150937 0.016018813 0.015756177 0.0034825327 -0.051545776 -0.039618235 -0.018984215
0.015143477 0.03832228 0.024255028 -0.033958126 0.07096135 0.012232038 0.0368487 0.021441331
-0.006150304 -0.0033400415 -0.008664558 -0.024002358 -0.014725796 0.016927032 -0.018567383 0.039853036
-0.023920845 -0.0028982642 5.7513516e-05 -0.001254119 -0.0007684991 0.0007173037 -0.0012658632 -0.0010841254
0.0004851952 3.6373414e-05 4.993448e-05 -0.00806555 0.012622414 0.016228294 -0.009372917 0.025124913
-0.010160063 0.009016754 0.06361243 0.024568582 0.045275778 0.025866857 0.00912545 0.058006976
0.03667939 -0.00010644483 0.04562485 0.040091254 -0.027920397 0.041183036 0.024263944 -0.011462608
0.04788976 0.011652622 -0.026959544 0.015947083 -0.010766803 -0.029002083 0.059433777 0.005514433
-0.06421985 0.053734705 -0.0070897536 -0.051201694 0.016534012 -0.016337432 -0.04127736 0.06600347
0.0043759053 -0.0051221023 -0.0023588955 0.017292015 -0.00600686 0.027111184 0.01116233 -0.014311371
-0.019309334 -0.01679758 -0.013936678 0.0065156757 -0.00017869692 -0.023728918 -0.022813413 -0.027943961
-0.005147233 0.00057787687 0.00046388703 -0.0013167724 0.00094398245 0.00022322134 -0.0013170819 0.0014834994
0.0010620026 -0.0003854692 0.0049728137 0.004886575 -0.0074748592 0.0032072756 0.0027675827 0.0013539651
0.000817056 0.00011708194 -0.0006839582 0.02097955 -0.004510384 -0.022970233 0.061455462 0.01848474
-0.039452136 -0.004184521 -0.026831573 -0.033914838 -0.020127218 -0.0035280627 -0.020578759 0.033409018
-0.020948905 0.006537323 0.0062921084 0.028142834 -0.022116477 -0.010440291 0.013549157 -0.0004528543
0.03468977 0.01689411 -0.0022963595 0.0026021658 0.02610791 -0.007272498 -0.00035787717 0.0003495632
-0.00027721585 0.00010274006 2.5152443e-05 -0.00030476323 0.00034941296 0.0002585129 0.00014480436 -0.010417754
-0.011673642 -0.031412605 -0.037579685 -0.036240503 -0.036864165 -0.016572602 -0.01399186 0.020442842
0.0017073725 -0.018875124 0.021597238 -0.06412028 0.043701828 -0.08683304 -0.042319044 0.030055564
0.0022113167 -0.028110117 0.01672535 0.03422065 -0.07570543 -0.031014664 -0.07591683 -0.01742207
-0.0069449325 -0.011403132 -0.09204665 -0.016157975 0.08803959 -0.13311625 -0.0043108254 0.15802155
-0.07648059 -0.018443437 0.06204414 -0.032056555 -0.008279908 0.0075429035 0.04727849 0.008067882
-0.042048432 -0.022088096 -0.01971407 0.036622167 0.08840252 0.005875997 -0.10389874 -0.027033713

tfeb.5.weight f4 [14]
00000000: b8fb 0e3e 6f5d 093e 5821 443e fd9d f43d
00000010: 7999 de3d 7880 a13d 1bee 8f3e 06e9 963d
00000020: ed10 8b3e e8c7 9f3d fbf9 3c3e 8b39 543e
00000030: 941d ec3d f878 f23d
0.1396321 0.13414548 0.19153345 0.119441964 0.10869116 0.078858316 0.28111348 0.073686644
0.2716135 0.07801801 0.18454735 0.20725076 0.11529079 0.11839479

tfeb.5.bias f4 [14]
00000000: 2cdd 64bc 972d 3d3c 227c 173d 3cbf 87bd
00000010: 41d6 dcbc f950 293c 0ec5 cbbd 3e67 c03d
00000020: 25c1 a5bd 4066 47be 6668 683d edba 41bd
00000030: 7ae7 e0bb dab9 293e
-0.013968747 0.011546514 0.036983617 -0.06628272 -0.026957633 0.010334247 -0.099496946 0.09394692
-0.0809348 -0.19472599 0.056740187 -0.047297407 -0.0068635317 0.16574803

tfeb.5.running_mean f4 [14]
00000000: 60d4 d43b 930b 3f3c af61 6abd 8f70 e6bc
00000010: 90a1 66bd 616b d7bc 103a babd 2cc8 173b
00000020: 6293 a2bd 1731 f33c 2de9 68bb 858f a8bd
00000030: a453 b6bd aea2 aebd
0.0064950436 0.011660474 -0.057222065 -0.028129844 -0.05630642 -0.02629632 -0.09093106 0.0023160083
-0.07938267 0.029686494 -0.0035539374 -0.08230499 -0.08902672 -0.085271224

tfeb.5.running_var f4 [14]
00000000: 29cf 8d3b 5709 a63b b8d0 923b a124 7c3a
00000010: 26c2 543b 4a6e 403b 15fd 4b3c 4698 253b
00000020: 792f f13b 6768 103a bab7 953b f24b a93b
00000030: 6f3b 943b f151 463c
0.004327674 0.0050670314 0.0044804476 0.0009618495 0.0032464354 0.0029362612 0.012450476 0.0025267764
0.0073603955 0.0005508721 0.004569021 0.005166524 0.0045236866 0.012104497

tfeb.7.weight f4 [15, 14, 3, 3]
00000000: 40b4 24bd 9c17 0fbd 1a21 20bc 2670 7b3c
00000010: 656e 313b f269 f7bb ca98 fabc b9c1 4bbc
00000020: 0527 b1ba 4562 2cbd 2499 32bd 671a bcbc
00000030: ac65 513d 70f0 5b3c 0e87 f7bb b9ed a0bc
00000040: f258 e8bc b44d 27bc de85 bbbb 35b0 0fbd
00000050: 4d87 b2bc 03ea efbc d4ac 81bd 5712 96bd
00000060: c5c4 fb3c eecd cb3c 55ea 513d a3a3 f1bc
00000070: 02b3 98ba 69c5 46bb e8fd e2bc 9dd9 b0ba
00000080: 5279 f1ba d521 aabc 886b adba 42a8 94b9
00000090: 7451 673d ac4a 723b 0ef2 c4bc fc96 84bc
000000a0: 74dc 77bc cccf 15bc a4dd 5f3d 6ee2 da3a
000000b0: 3c40 2abd ee00 983b 196f 8ebb 1570 063c
000000c0: d7b8 293c 96c7 a83b 6f11 1dbc 0bc6 a3bc
000000d0: 3422 95bc 7ad1 b1bb ce5d 36bd 09de 47bc
000000e0: 5ecd 203b 792d 203d 2cda 0ebb 9bc8 7fbc
000000f0: ba2b ddbc 3b2c 59bc 40e7 b53c 294b dc3c
00000100: d5f4 e7bc ff58 74bd 224e 553d 91b7 84bb
00000110: 8b36 54bd 619f 8ebc d5ee f9bc b0f7 00bd
00000120: 8f59 d5bb 9f73 cb3c d65e adba d63f f1bc
00000130: d29d 21bd 0e95 08bc d8ed c33b 1856 243c
00000140: a390 40bc 4267 06bb 84c0 83bb a668 7dbb
00000150: 401f 6cba 6969 43ba fc27 8aba 1e92 c7ba
00000160: 80df 25bb 5b12 39bb 3beb 0dbd 0971 0abc
00000170: b94c ed3b ea04 b1bd 04d4 68bd 7d86 a5bd
00000180: 984d 933d aa6f 403d b938 493d 65ad 1d3d
00000190: 923c 1d3d 707a 353c 8f2d 46bd 9092 09bd
000001a0: 4818 b1bc 4dc3 0f3d 3d37 c13a 9612 c23a
000001b0: 3b15 c93c 332f fd3b 2f84 f43a 8705 e63b
000001c0: 7bb2 923b b3ab 6cbc 9460 6e3b 6311 c43b
000001d0: 7781 2cbc 18de 1d3d 229e a4ba f300 4fbd
000001e0: a60a 683d 1e63 f13c ed2c afbc e5d5 3dbb
000001f0: 644c 67bb 6764 c5bc bc38 4e3c 8b15 6b3b
00000200: d33e eb3a 8a7a 68bb 1a0e 013b 7a95 eebb
00000210: c5ad 46bc 3bbc fb39 f124 dfb9 c8af fbbb
00000220: c367 d7bb 7414 093b 09cc fabb 9c60 f0bb
00000230: c483 c53a 6835 2ebc bdd5 36bc d7e7 1fbb
00000240: b9de dd3b c63c f93c 3996 b83b 9efa fc3b
00000250: dfa0 153d edf8 af3c f5fe bb3b d31c 283c
00000260: bbf9 4a3c 33aa ea39 9d38 2f39 7a34 413b
00000270: 8e93 b93a b9f0 99ba 756c 363b f30d deba
00000280: 9aeb 55ba 4bd4 5e3b d579 4ebb 6713 0b3a
00000290: 5a40 073b 6066 6fba 7aab 623a 4ff7 fb3a
000002a0: 0528 84bb dc6f 963a 2ebc 153b 4671 2bbb
000002b0: f912 28bb c3b5 84bb 34fc c6ba c585 19bb
000002c0: eab3 6a3a 70ea b4bb c8f1 07bc a824 95bb
000002d0: 6862 7a3c 3b04 c03c 40c6 5f3b c040 323c
000002e0: 3ba9 8a3c 4a95 0dba 0978 203c 0315 ddbb
000002f0: 6cb7 48bc f11e 5b3b 1fba f83a b8bb b53b
00000300: 2e5c f5ba cb50 e0b9 82df de3a ba16 3e3a
00000310: ec2c e63a fc3f b33b 6992 513a 7ab6 12bc
00000320: cf12 7dbb 057e 193b f532 093c 3f2a 2c3c
00000330: e0aa 85ba cbde e03a 9eb0 ea3a c868 3239
00000340: 2f56 49bc fd29 103a 75ad aab9 eabf 3938
00000350: fa0e f63a bb4f 9cba b6ba e3ba 93c8 9eba
00000360: ac67 bd3c 1084 cb3c 3843 353c 163e 223c
00000370: 90e9 b63c 78ca 323d daae 1c3b 6c78 063c
00000380: 3d1d c5bb 8e72 35bc c90f f0bb 109c c8bb
00000390: 5ddd 583b d6d6 05bb bf2d ebbb f4b8 83bc
000003a0: 3143 e9bb c455 86ba b95a b0bb fac7 24bc
000003b0: 60c5 10bc 02a5 fcbb 937e 23bc efdb 2dbc
000003c0: ffa1 20bc c24b 2dbc 8973 28bc d66c 213c
000003d0: c185 4f3c 3881 ee39 b96c 383c 7509 fa3b
000003e0: a8e4 153c a0b5 243c e3c5 1e3c 5c55 d43b
000003f0: c988 9dbc 945e fdbc 2ecb a4bc 9760 ff3a
-0.040210962 -0.034934625 -0.009773517 0.0153465625 0.0027073857 -0.0075504715 -0.030590434 -0.012436324
-0.0013515657 -0.042085905 -0.043603078 -0.022961808 0.051122352 0.013424024 -0.0075539416 -0.019644605
-0.028362725 -0.010211397 -0.0057227453 -0.035080153 -0.021793032 -0.02928639 -0.063317925 -0.07327717
0.030733475 0.024878468 0.051248867 -0.029496973 -0.0011650028 -0.0030330068 -0.027708963 -0.0013492588
-0.0018422997 -0.020768085 -0.0013230899 -0.00028354122 0.056474164 0.0036970777 -0.024041202 -0.016185276
-0.015128244 -0.009143781 0.054654732 0.0016699561 -0.041565165 0.0046387827 -0.00434674 0.008205433
0.010359011 0.0051507456 -0.009586676 -0.019991895 -0.018204786 -0.005426583 -0.044523053 -0.012198933
0.002453647 0.039105866 -0.002179752 -0.015611793 -0.02699839 -0.013255174 0.022204995 0.026891308
-0.028314987 -0.059655186 0.052076466 -0.004050203 -0.05180983 -0.017409982 -0.030509392 -0.031486213
-0.0065109204 0.024835406 -0.0013227116 -0.029449385 -0.03945715 -0.008336319 0.005979281 0.010030292
-0.011753234 -0.0020508324 -0.0040207524 -0.0038667112 -0.0009007342 -0.0007454367 -0.0010540481 -0.0015226041
-0.0025310218 -0.00282397 -0.03464816 -0.008449801 0.007241812 -0.086435154 -0.05684282 -0.08082292
0.07192534 0.04698149 0.04912636 0.03849544 0.038387842 0.011076555 -0.04838329 -0.03358704
-0.021618024 0.035098363 0.0014741194 0.0014806564 0.024546256 0.007726574 0.0018655116 0.007019702
0.004476843 -0.014445233 0.0036373483 0.005983518 -0.010528914 0.038541883 -0.0012559334 -0.050538015
0.05665078 0.029466208 -0.021383727 -0.0028966602 -0.0035293335 -0.024095727 0.012586769 0.0035870995
0.00179478 -0.003547343 0.0019692243 -0.0072810026 -0.012126391 0.00048014693 -0.00042561398 -0.007680867
-0.0065736487 0.0020916732 -0.0076537174 -0.0073357355 0.0015069176 -0.01063285 -0.011159358 -0.0024399662
0.0067709354 0.030424487 0.0056331423 0.0077203056 0.03653037 0.021481002 0.0057371804 0.0102607785
0.012388642 0.00044758766 0.0001671039 0.0029480741 0.0014158355 -0.0011744715 0.0027835642 -0.0016941413
-0.00081604125 0.0034001048 -0.0031505723 0.00053053204 0.0020637722 -0.00091323815 0.0008646768 0.0019223484
-0.004033091 0.0011477428 0.002284776 -0.0026160046 -0.0025646074 -0.004049988 -0.0015181364 -0.002342568
0.0008953201 -0.005521111 -0.008297391 -0.004551489 0.015282251 0.023439517 0.0034145266 0.010879695
0.016926399 -0.0005400969 0.009794244 -0.0067468896 -0.012250762 0.003343519 0.0018976367 0.0055460595
-0.0018719488 -0.00042784805 0.0017003866 0.00072513113 0.0017560995 0.005470274 0.0007994534 -0.008954639
-0.0038615947 0.002342106 0.0083739655 0.010508119 -0.001019802 0.0017156241 0.0017905419 0.00017014437
-0.012288614 0.0005499421 -0.00032554162 4.428617e-05 0.0018772774 -0.0011925617 -0.001737437 -0.0012114219
0.023120724 0.024843246 0.0110633895 0.009902498 0.022328168 0.04365012 0.002390793 0.008207422
-0.0060154484 -0.011074675 -0.0073261005 -0.0061221197 0.0033090927 -0.0020422242 -0.007177084 -0.016079403
-0.0071186055 -0.0010248949 -0.0053819087 -0.010057444 -0.00883612 -0.0077101 -0.009978908 -0.010611518
-0.009804248 -0.010577144 -0.010281452 0.009852609 0.012666167 0.00045491173 0.01125639 0.007630522
0.009148754 0.010053068 0.009690735 0.006479902 -0.019230263 -0.030928887 -0.020116415 0.0019483742

tfeb.8.weight f4 [15]
00000000: 5954 353e d3bb 0f3e 0e9f 423e 6ef7 2d3e
00000010: ed91 1d3e 8c26 753e 0f32 0a3e 7c0c 093e
00000020: 02c2 9f3d 5041 763e 48d4 113e 5a43 723e
00000030: f857 013e 2086 553e e948 ef3d
0.17707957 0.14036493 0.19005987 0.16988918 0.15387698 0.23940486 0.13495658 0.13383669
0.07800676 0.24048352 0.14241135 0.23658505 0.12631214 0.20851946 0.116838284

tfeb.8.bias f4 [15]
00000000: 6b1e b73c ab49 29be 4c42 f73b 7811 5a3d
00000010: f89b d23c 47cf 5ebd cac1 8ebd 9c17 883c
00000020: 1d8d b03c a34b 38bd 5861 f63d e424 84bd
00000030: a2c3 113d 1091 23bd c8cf 563c
0.022353372 -0.16532008 0.007545745 0.053239316 0.025709137 -0.054396894 -0.06970556 0.01661282
0.021551663 -0.044994008 0.120302856 -0.06452349 0.03558696 -0.039933264 0.013111062

tfeb.8.running_mean f4 [15]
00000000: 3ca7 0bbd 506a f33c 8871 58bd 3e1d a83d
00000010: a0ac 2c3c 15bf 15bc 5489 b33c a509 dc3b
00000020: 5d0a d2bc f9b2 53bd 05d8 81bc 88bb 9ebc
00000030: b4b5 39bc 6c6b 3bbc 6c67 333c
-0.034095034 0.02971378 -0.052842647 0.082087025 0.010539204 -0.009139796 0.02191607 0.006715017
-0.025639707 -0.051684354 -0.015850076 -0.019376531 -0.011334825 -0.011439186 0.010949951

tfeb.8.running_var f4 [15]
00000000: be93 163b ad2e b839 725e e03a 7ce1 923a
00000010: ed7d 053b 8a8c 2b3b a565 a839 ce53 563a
00000020: 1703 063a eb52 da3a 937f 1e3a 8034 703a
00000030: 014f 703a 8bb8 2c3b 1d0e 4b3a
0.0022976245 0.0003512999 0.0017117991 0.0011206116 0.0020369247 0.0026176297 0.00032119188 0.000817594
0.0005112155 0.0016656792 0.0006046232 0.00091630965 0.0009167046 0.0026355113 0.00077459385

tfeb.11.weight f4 [27, 15, 3, 3]
00000000: 04d3 c8bb a08b 1dbc ce64 a7bc 8d58 d2bb
00000010: 3123 1d3a 2742 78bb 5cef 8cbb 85d4 84bb
00000020: fb9b 5dbc 5b63 a3ba 87db 253c 216a 2dba
00000030: 0a9d 393b 597a 963c 16f6 3cb9 1bcd bb3b
00000040: 5b8a d13b ec90 71bb 42eb a43a 4671 a6ba
00000050: 45a8 09bc 508b 06bb aa11 5ebc aec7 8abc
00000060: 50f9 9ebb 42f6 2cbc d0ae f8bc a099 aebb
00000070: aa75 96bb 9893 6abc c04b 4cbb 9263 0ebc
00000080: 6491 ecbb 7d75 123c e719 44bb 33b4 6f3b
00000090: 00cd 103c 28b5 a2bb 6e30 fcbb d271 ddbb
000000a0: 0bf1 55bb 913f 99bc 5737 f2bb e4b6 bbbb
000000b0: 77ea 04bc aa0e 15bd 6692 1abd b353 edbc
000000c0: 0504 2bbd 9862 28bd a9fe 07bd 1fd5 1d3c
000000d0: f333 57bb d1a3 64bb aabd 10bc 4224 8abb
000000e0: b411 473b a992 9bbb 319d d53b dac2 b73b
000000f0: ce0a 60bb 83c8 f33b 2c07 f73b 05a9 44bc
00000100: 0156 bd3b c1e7 7a3b 60b2 34bb 86fd a43c
00000110: 58a4 ca3c 1c44 803b 5764 e83b 64ca 103c
00000120: ae8c 0eba fc67 0e3c b1ba c73b 757d 23bc
00000130: c044 e5bb ced8 27bc 9669 083b df7d e2ba
00000140: f380 acbc 0df3 10bc dec4 b5bb ceab 5c3b
00000150: c7e7 0ebc 7aac 45bc 73c3 a4bb ff77 83bb
00000160: 6940 f3bb d1cd 913a 90db 4f3c 1aff 9a3c
00000170: cdf9 9d3a 05cb 673c f94e bc3b 0772 9e3a
00000180: cd04 c83c 1ab5 9b3c 2798 1c3c e9d8 2a3b
00000190: 38ab 0e3c 7d79 4f3c 6b5d 66ba b8b8 bfbb
000001a0: d379 54bc 7e29 d33b cf2d 1bbc e538 8cbc
000001b0: 49d7 243c 5e6d 8d39 11ad 4abc 5b7e 9cbb
000001c0: c2dd 923b e6f1 b7bb f075 ebbb 2509 31bc
000001d0: f99f 7abc 1d13 14bc 1bef bbbc fb1d 02bd
000001e0: 0667 abbc 47f0 aabc bf2b d0bc b44c d1bb
000001f0: 5830 2d3b 16cc 453b 74d6 a6bc 97dd 81bc
00000200: f4e7 7cbc 8587 46bc 8248 a5bc 3b60 4abc
00000210: aa87 16bc 2ece 713c 99c4 113c 9aab 0e3d
00000220: 384e 153d caa2 fa3a 53d3 ceb9 988f a03c
00000230: 87e7 6fba ec7a 1cbd ee4b 41bc b7c4 3ebb
00000240: a6b8 88ba 0fba 9e3b b66e 24bb 9b59 6d3a
00000250: 5f6c d43b ad32 3bba db0e a0bb a459 52bc
00000260: 9b28 3abb 5672 693a 90c8 693b 759f c1b9
00000270: 67a5 153c 562b 14bb 90f4 1c3c 5487 2cbc
00000280: e763 b0bc 183e fbbc 9723 a8bc a5fe ccbc
00000290: 171f 05bd ebb3 b9bb bd60 61bb 3c35 2ebc
000002a0: ed4e 953c a6b3 af3c c23f 273c 5ecb 16bc
000002b0: e528 acba f1b4 c8bc 7b45 393c 56ad 9f3c
000002c0: f48d 0abc cd51 da3b 2119 b03c 57c6 be3b
000002d0: 89cf 3bbc abdd 89bb b4eb 96bc 1903 7fbc
000002e0: 6e78 e7bc 298b 0ebc 8adb d7bb 91c8 85bc
000002f0: 30b9 2f3b a641 b6bc 1604 c8bc 3647 a1bc
00000300: 8d95 babc e385 96bb 9bbe 57bc 923c a2bc
00000310: a683 3fbc f3ee 07bc 3804 0bba 8059 943b
00000320: eb25 8b3c 1cfd 50bc 85fd debc 7d89 0ebc
00000330: f658 1abb 30d6 aebc 4f9c 36bc c6d1 093c
00000340: f890 833c 1620 f43c b392 e1bb 0bc0 71ba
00000350: 767f fd3b 3e05 52bc feff 34bc dc8e 26bc
00000360: 7316 2bbb da57 9b3c e39f 433c 5920 943c
00000370: 0454 083d cf1d 0d3d 0410 60bc c345 1dbd
00000380: 1f1a 11bc 5805 6fba 814a b7ba 9f16 923b
00000390: 74d0 c8ba 245a 013c 040b 543b cd1a 5dbc
000003a0: a7e1 59bc 436d 8ebc e6f8 1cbc 6047 b1bc
000003b0: 4622 ee3b 6bac 343c 0689 83bb 60ff 603c
000003c0: 2e4b 653b ac15 0fbc 9556 88bb 3f6a bbba
000003d0: 1504 d236 bad4 6bbc 0c5b 34bc 4546 49bc
000003e0: fed7 9bbc 339c 99bc eb13 5ebc b005 8dbc
000003f0: 12aa 31bc 1277 52bc 8369 44bd 1d8a 8bbc
-0.0061286706 -0.009615809 -0.02043381 -0.0064192475 0.00059943186 -0.0037881227 -0.004300995 -0.0040536546
-0.013525958 -0.0012465523 0.01012314 -0.00066152407 0.0028322362 0.018368887 -0.00018020751 0.0057312376
0.006394667 -0.0036860062 0.0012582319 -0.0012698553 -0.008401935 -0.0020529814 -0.013554016 -0.016940918
-0.0048514977 -0.010556759 -0.030356795 -0.005328372 -0.0045916634 -0.014317416 -0.003117308 -0.008690732
-0.0072194804 0.008939144 -0.0029922666 0.0036575913 0.008837938 -0.004965443 -0.007696203 -0.006757953
-0.0032644894 -0.018707069 -0.007391851 -0.0057285894 -0.008112541 -0.036390938 -0.037737273 -0.028970575
-0.04175188 -0.04110965 -0.033201847 0.009633332 -0.003283736 -0.0034887681 -0.008834282 -0.004215748
0.0030375542 -0.004747708 0.006518983 0.005607945 -0.0034186128 0.0074396743 0.0075386968 -0.012003188
0.0057780747 0.0038285109 -0.002757214 0.02014042 0.024736568 0.0039143693 0.0070920396 0.008837316
-0.0005437833 0.008691784 0.0060952534 -0.009978642 -0.006996721 -0.010244561 0.0020814887 -0.0017279944
-0.021057582 -0.00884701 -0.00554715 0.003367174 -0.008722252 -0.012065047 -0.005028182 -0.0040121074
-0.00742345 0.001112396 0.012686625 0.01892047 0.0012052596 0.014147525 0.005746719 0.0012088426
0.024416352 0.019007254 0.00955776 0.002606923 0.008707814 0.012663242 -0.0008787724 -0.0058508776
-0.012968498 0.0064441552 -0.009471371 -0.017116973 0.010061094 0.000269751 -0.012370364 -0.004775805
0.004482002 -0.0056135533 -0.00718569 -0.010805403 -0.0152969295 -0.00903776 -0.022941163 -0.031766873
-0.020923149 -0.020866526 -0.025411485 -0.0063873176 0.002642652 0.003018146 -0.020365931 -0.015852733
-0.015436161 -0.012117271 -0.020176176 -0.012352045 -0.009187618 0.01475863 0.00889697 0.03483162
0.03645155 0.0019122001 -0.0003944883 0.01959972 -0.0009151627 -0.038203165 -0.011797888 -0.002910895
-0.0010431006 0.0048439573 -0.0025090403 0.0009054185 0.0064826454 -0.0007141035 -0.0048845834 -0.012838755
-0.002840555 0.0008905282 0.0035672523 -0.00036930633 0.009133673 -0.0022608838 0.009579793 -0.010530312
-0.021532012 -0.030669257 -0.020524783 -0.025023768 -0.032500353 -0.0056672 -0.0034389936 -0.010632809
0.018226111 0.021447968 0.010208072 -0.00920376 -0.0013134746 -0.024500342 0.011308069 0.019491833
-0.008456696 0.0066625834 0.021496357 0.005821984 -0.011463054 -0.004207333 -0.018422939 -0.015564703
-0.028255668 -0.008700171 -0.0065874504 -0.01633099 0.0026813261 -0.0222481 -0.02441601 -0.019687276
-0.02277639 -0.0045935973 -0.0131680025 -0.019804273 -0.011689102 -0.008296716 -0.0005303058 0.004527271
0.016985854 -0.0127556585 -0.027220497 -0.008699772 -0.002355156 -0.021342367 -0.011145665 0.00841183
0.016060337 0.029800456 -0.006883943 -0.0009222037 0.007736142 -0.012818633 -0.011047361 -0.010165896
-0.002610591 0.01896279 0.011939975 0.01808183 0.03328325 0.034452256 -0.013675693 -0.038396608
-0.008856325 -0.0009117923 -0.0013983996 0.004458263 -0.0015320913 0.007895026 0.0032355199 -0.013495159
-0.013298429 -0.017386084 -0.009580826 -0.02164048 0.0072672693 0.011027436 -0.004014137 0.013732761
0.0034987438 -0.008733194 -0.004160712 -0.0014298632 6.258963e-06 -0.01439398 -0.011008035 -0.01228482
-0.019023892 -0.01875124 -0.0135545535 -0.017214626 -0.010843771 -0.012845771 -0.047952186 -0.017033631

tfeb.12.weight f4 [27]
00000000: b9c3 3b3e e979 283e 591c bc3d 8595 b23d
00000010: 4485 5d3e ce83 523e 6dea 1b3e 4b9d 613e
00000020: 7650 3a3e cc90 de3d 3c3c 1b3e 4ee9 2d3e
00000030: 71cd 233e c567 363e f70d b83d 6771 143e
00000040: e8bf f43d 0c9c 483e 5c02 383e 8e58 183e
00000050: c16e cf3d af6d 2a3e 0116 4a3e 7657 ed3d
00000060: 5d94 0c3e ea3a 0a3e c1e2 053e
0.18336381 0.16452755 0.091850944 0.08719925 0.21632868 0.20558092 0.15226145 0.22032659
0.18194756 0.108674616 0.15159696 0.1698353 0.15996338 0.17813022 0.089870386 0.14496385
0.11950666 0.19590777 0.1796965 0.14877531 0.101285465 0.16643403 0.19734956 0.115889475
0.13728471 0.13499036 0.13074781

tfeb.12.bias f4 [27]
00000000: ab07 b3bd 8d36 48bd 5b4d 44bb 4b7f b03c
00000010: bbec d9bd 2b44 6dbc 2dc4 a5bc ac92 71bd
00000020: 8ea4 adbc 364e 45bc 0bc7 863c 3ee1 c2bd
00000030: 25ec a1bb f615 0abe e104 363c 3f87 9dbd
00000040: 8a3d 8fbd de72 97bc 8863 a8bd d49f ecbc
00000050: 81ca 1abd 11ac b1bd 255b d1bd 3858 fabc
00000060: b42f e5bd 12dd 8fbd 7f97 1abd
-0.08741697 -0.04888015 -0.0029953334 0.021545073 -0.10640856 -0.014481585 -0.020235145 -0.058977768
-0.02119663 -0.012042573 0.016452333 -0.09515618 -0.0049414807 -0.1348494 0.011109562 -0.07691812
-0.069941595 -0.01848739 -0.08222109 -0.028884806 -0.03779078 -0.08675397 -0.102224626 -0.030559644
-0.11190739 -0.07024588 -0.037742134

tfeb.12.running_mean f4 [27]
00000000: 307e 38bd 7279 19bd 4a26 8dbc 042a 94bc
00000010: c52a 8abd 817a 13bd 1cb0 64bd 83c4 60bc
00000020: c0a8 04bd d3fd 9ebc d353 2f3a 60e7 86bc
00000030: 0f63 26bd 9f5c 763c 7b7e d0ba 9e07 06bd
00000040: d49f f0bc e762 ddbd c0f8 35bd ede0 15b9
00000050: 93c3 c33a 9cb6 dcbc ab7a e4bc 7626 81bc
00000060: cd65 d5bb 63f7 003d 10ac 7fbc
-0.045042217 -0.037469335 -0.017230172 -0.01808644 -0.06746439 -0.0360055 -0.055832013 -0.013718727
-0.032387495 -0.019408142 0.0006688211 -0.01646775 -0.040621813 0.015036731 -0.0015906835 -0.032722108
-0.029373087 -0.1080988 -0.04442668 -0.00014293539 0.0014935605 -0.026942544 -0.027890524 -0.01576541
-0.0065123797 0.031485926 -0.015604988

tfeb.12.running_var f4 [27]
00000000: d338 643a 0126 a73a 8ece 123a e610 313a
00000010: ab8c c13a 5e8d dd3a c74d bd3a 4ee7 0a3b
00000020: d125 c13a e3c7 803a 664a 433b ecd8 683a
00000030: c82d df3a 5aa5 a93a bbd9 5d3a 4355 1f3a
00000040: f90c 273a 74cf a23b 37fa 9a3a eae6 d43a
00000050: c112 2f3a deca 403a 3c45 8e3a bbdf 8839
00000060: d8b3 763a 1193 783a 791d f439
0.0008705977 0.0012752415 0.0005600237 0.0006754532 0.0014766654 0.0016903093 0.0014442735 0.0021194997
0.0014736002 0.0009825196 0.0029798984 0.00088824215 0.0017027194 0.0012942955 0.00084629253 0.00060780736
0.00063724775 0.004968578 0.0011823837 0.0016243134 0.0006678515 0.00073544483 0.0010854374 0.00026106634
0.0009410954 0.0009482364 0.00046561265

tfeb.14.weight f4 [27, 27, 3, 3]
00000000: cc7c 843b 3e3d 2c3b fe2a f83a f701 ccbb
00000010: b4a4 cabb fae0 06bc 3603 02b9 84b6 84ba
00000020: cec4 3eba cc9b 73ba 2f04 a53b 83cc f73b
00000030: 69b3 39bb 84a9 f93b e99a d03b 0a5e 353c
00000040: 09c1 963c accb 9e3c e06b 853b 6d26 1c3c
00000050: 4f61 843b 0f44 ab3c 4851 b33c b78b 653b
00000060: 8976 e63b 80aa 253c 3235 26bc 3707 26bc
00000070: 4b88 2abc 6f2b 80bc 152b d9ba d271 0b3b
00000080: 8cd9 e639 30b5 35bc d740 08bc a8eb c73a
00000090: 5460 243b 366a 8a3b 4a1e 003b 3744 8bbc
000000a0: 7aad cbbb c3b4 cdbb 952c 4b3b 3e21 8b3c
000000b0: 01b9 b83c ff99 0abb 87c6 823b 279b 2c3c
000000c0: 23d2 583c 7afc 4a3c e67f 7bbb d719 443c
000000d0: 79b4 333c da6e 723b faae feba 5c88 dfb9
000000e0: 72e1 a53a 22ea 23bb 5056 0bbb e291 d339
000000f0: 34c8 54bb a3d4 073c efdf 593c f387 f33b
00000100: b713 723c 4242 513b bbaf a43c 1156 a13c
00000110: b845 083c 9d5e ec3b 8395 473c ef96 f83b
00000120: d372 d43b ac93 a73c e3e1 863c 14a3 353c
00000130: bda2 843c 4ef5 833c 0cbc 133c bea1 353c
00000140: f9e0 543c 2806 03bc 4a6b d0bb 0817 9dbb
00000150: 83f8 c63a 3800 a53b d28b d5bb f174 a53c
00000160: 505c d73b 7716 a43b 3dd2 a53b f91b 613c
00000170: fd6d 863b eeba 363c 042f a13c 441a 4c3b
00000180: 6dae bb38 07b9 323c 5deb a63a bf40 553c
00000190: ed45 ae3c 1337 9a3c 130c 92b8 e2d6 cc39
000001a0: 44fb 0639 76b1 6939 716b 2337 2958 0f3b
000001b0: a70c 133d 7ac5 873c b097 873a 781b af3a
000001c0: 1294 33bb 3e79 6a3a 4a21 05ba 9788 78bb
000001d0: 9535 faba a66c 37bc 55e0 f9bb 8e76 073c
000001e0: b0ae 95bc 22d9 9bbb df44 1fbb acc5 1abc
000001f0: 4395 e2bb 10e5 aebb c468 ab3c f190 c43c
00000200: f733 273c 3e47 f83b cfe9 ca3b 1f08 913a
00000210: 2b63 cabb 2fad 2f3b 13ed 6a3b a8c8 37b9
00000220: 8c30 20bc e7c7 0a3b 0fad beba 1a76 bdba
00000230: 11cc 7db8 8997 a739 5396 c6ba 1f54 8a38
00000240: f38a 3fbb e416 0d3c 01f0 a2ba 87e1 30bb
00000250: 7ae0 93bb ccdf f8ba 1deb 81ba 3eb9 093c
00000260: 89b6 f93a d2c7 163b 7a15 5f3c ee35 073a
00000270: 46db 3cbc 2fa9 82bc 9e13 80bc 6c85 d53a
00000280: bfca 0dbc f9fc 3a3b a317 673b ba99 2bba
00000290: c3cd b93a 81be fb3a ed08 9cba bbdf de3a
000002a0: 7c9a 3bbc 7324 c2bc 6440 a9bb 49c7 be3b
000002b0: fb27 7d3c 12d0 613c a40e a33b 33db d2ba
000002c0: 3b7b b43b 51c7 b5bb 321b 133c 199f 1b3c
000002d0: 9c49 f2b9 68bf 91bb d9a2 7cbb 13b4 bf3b
000002e0: 9cbc 613b d66c ec39 228e b139 be08 2b3b
000002f0: 5741 7f3a 05a0 a239 3007 8f3a 6274 b53a
00000300: a494 1abc d1bf 8fb8 cf35 3dba 0564 3ebb
00000310: 7dec 3fbb 2984 ecba 2980 1f3c adc5 4d3c
00000320: 934b 8fba 179f a6bb 7deb 86bc c68a 76bb
00000330: 6ee5 6bbb 87f9 a2bc 83d5 49bc 722a 8db9
00000340: cffb 93ba 3941 99b9 a6eb ebba c9d0 e5ba
00000350: f4db b3ba 9228 2bbb 9d8d f5ba 7f81 d8ba
00000360: e76e 98ba 63a8 88ba ae27 3dbc ee3e 9e3a
00000370: bbd4 613a 5168 2e3c 9a3a 8c3b 36ba 8e3b
00000380: c15f d93b a842 dabb 8a9e 4fbb fccf 3bbb
00000390: 75b1 ecbb d7e9 e3bb 041e d6bb c0a4 26bc
000003a0: 2819 09bc 2801 38bc b784 f6b9 f6c4 843b
000003b0: 00a5 143b f74b 9fbb 620b 67bc 23e7 c3bb
000003c0: 0293 dd3a e8e7 8f3c 9b97 8c3c 19cb a1bb
000003d0: fd15 c0bb c465 b6bc b449 80bb cc29 92bb
000003e0: d6a5 21bb 7ddd 1ebb 1c35 80bc 1450 ebba
000003f0: 709d 333b 4fb2 2f3c b8aa 043a 2ed0 c4bb
0.0040431973 0.002628162 0.0018933711 -0.00622582 -0.006184185 -0.0082323495 -0.00012398962 -0.0010125195
-0.0007277251 -0.000929293 0.005035899 0.0075622215 -0.0028335697 0.007619085 0.006366123 0.011069784
0.018402593 0.019384228 0.0040716976 0.009530646 0.0040399204 0.020906476 0.021889344 0.0035025903
0.0070331735 0.010111451 -0.010144519 -0.010133556 -0.010408471 -0.01564571 -0.0016568626 0.002127756
0.00044031104 -0.011090562 -0.00831624 0.0015252726 0.002508183 0.004224087 0.0019549304 -0.0170003
-0.0062157484 -0.006277652 0.0031001915 0.016983625 0.022549154 -0.0021148918 0.0039909515 0.010535038
0.013233694 0.012389297 -0.0038375794 0.011969051 0.010968321 0.0036992342 -0.0019430809 -0.0004263547
0.0012655689 -0.002501138 -0.0021261163 0.00040353747 -0.0032467963 0.008290443 0.013298019 0.007431978
0.014775208 0.0031930362 0.020103326 0.01969436 0.0083174035 0.007213427 0.012181642 0.007586352
0.0064834147 0.020456158 0.016465133 0.011086244 0.01619088 0.016108181 0.009017002 0.011085926
0.012993091 -0.007997073 -0.006360446 -0.0047940053 0.0015180263 0.0050354265 -0.006516912 0.020197364
0.006572284 0.005007561 0.0050604627 0.013739579 0.004102467 0.011152966 0.01967574 0.0031143585
8.949344e-05 0.010908372 0.0012734939 0.013015925 0.021273578 0.01882509 -6.9640715e-05 0.00039070012
0.0001287284 0.00022286721 9.740573e-06 0.0021872616 0.035900738 0.016573656 0.0010344889 0.0013359627
-0.002740149 0.0008944458 -0.0005078508 -0.003792321 -0.0019089455 -0.011195337 -0.0076256194 0.008268012
-0.018271774 -0.004756109 -0.0024302525 -0.009446543 -0.006914766 -0.005337365 0.02092398 0.023994895
0.0102052605 0.007576852 0.006192423 0.0011065042 -0.0061763725 0.0026806106 0.0035846874 -0.0001752699
-0.0097771995 0.002117628 -0.0014547425 -0.0014454753 -6.0509952e-05 0.00031965625 -0.0015151001 6.5960216e-05
-0.0029227107 0.008611415 -0.0012431146 -0.0026989894 -0.0045128437 -0.0018987595 -0.0009911988 0.008405982
0.0019051592 0.0023007286 0.01361596 0.00051578775 -0.011526888 -0.015949814 -0.015634354 0.0016290373
-0.0086542955 0.002853213 0.0035261891 -0.00065460394 0.0014175702 0.0019206555 -0.0011904516 0.0017003933
-0.011450406 -0.023699021 -0.0051651467 0.0058220965 0.015451427 0.013782518 0.0049761105 -0.0016087055
0.0055078543 -0.005547442 0.008978652 0.009498381 -0.0004621268 -0.004447866 -0.0038549213 0.005850324
0.0034444695 0.00045094517 0.00033865968 0.002609774 0.00097372144 0.00031018272 0.0010912176 0.0013843889
-0.009434853 -6.8545e-05 -0.0007217796 -0.0029051316 -0.0029285245 -0.0018044758 0.009735146 0.012559337
-0.0010932557 -0.005084883 -0.016469711 -0.0037619337 -0.0035994905 -0.019894375 -0.012318972 -0.0002692524
-0.0011290255 -0.0002923103 -0.0017999306 -0.0017533536 -0.0013722167 -0.002611671 -0.0018734221 -0.0016518085
-0.0011629731 -0.001042616 -0.011545105 0.0012073198 0.0008614768 0.010644988 0.004279447 0.004355694
0.006633729 -0.006660778 -0.003168019 -0.0028657904 -0.007223303 -0.006955366 -0.00653434 -0.010171115
-0.008367814 -0.011230744 -0.00047019657 0.0040518 0.0022681355 -0.0048613506 -0.014101835 -0.0059784814
0.0016904774 0.017566636 0.017162135 -0.004937541 -0.005861996 -0.022265323 -0.003915036 -0.004460549
-0.0024665496 -0.0024240904 -0.015650325 -0.0017952942 0.0027407072 0.010723664 0.00050608395 -0.0060062623

tfeb.15.weight f4 [27]
00000000: 41af 123e 095f 213e 887b 2d3e 2d9c 133e
00000010: c54e 113e ffd5 383e 27da 353e c704 3b3e
00000020: f8c7 2d3e 0908 ce3d 1ee5 493e 1c1a 0a3e
00000030: 4e93 063e 4199 1b3e c0df 593e f748 313e
00000040: 07e7 3a3e 4ed8 0b3e 1ba2 f23d d2a1 373e
00000050: 4aa7 023e 9ec6 4a3e aeb2 2f3e 99a6 193e
00000060: 6a2d 0b3e 9870 0f3e f418 2f3e
0.14324667 0.1575891 0.16941655 0.14415045 0.14190204 0.18050383 0.17759 0.18263541
0.16970813 0.10060126 0.19716308 0.13486522 0.1314213 0.1519518 0.2127676 0.1731299
0.18252192 0.13656732 0.118473254 0.17932823 0.12759128 0.19802329 0.17158005 0.15004958
0.13591543 0.14007795 0.17099363

tfeb.15.bias f4 [27]
00000000: a26f 8cbd 84da 08be 91eb 94bd 0992 1cbd
00000010: 060d 58bd c43a cfbd fb77 8cbd 8e6a 9dbd
00000020: 4780 14be 53fb 63bc 0004 58be 6246 153c
00000030: 4b5f 98bc acff bfbd 13ab 3bbd 644f 2bbd
00000040: 70e1 37be eecd e9bd f2c8 07bd f171 08bd
00000050: 6196 f23b 028e 16be eba2 20be 74ee c1bd
00000060: 6a15 c1bd 77ac 76bd c04a 23be
-0.0685723 -0.13364607 -0.07271493 -0.038225207 -0.052746795 -0.101186305 -0.06858822 -0.07686339
-0.14502059 -0.013914901 -0.21095276 0.009111019 -0.018600127 -0.093749374 -0.045817446 -0.04182376
-0.17957091 -0.11416231 -0.03315062 -0.033311788 0.0074031805 -0.14702609 -0.15687148 -0.094693094
-0.094279125 -0.06022307 -0.15946484

tfeb.15.running_mean f4 [27]
00000000: 7304 9b3c ef77 42bc e0ce 2dbc 08db f2bb
00000010: 92d9 b6bb 643d 82bb 52b9 a93b 18aa 04bc
00000020: fb6f a13c 88bd c1bc 2c22 aabc 0c4b 8d3c
00000030: e3ae 89bb 9825 ccbb ddb4 1e3c 03cc 7c3b
00000040: c035 ebba 32ce dbbb 466e e9bc 597b 0bbc
00000050: 03d2 e23b 6e1d 14bc 0f69 063c 2a1f a0bc
00000060: b5b3 333c ebc7 ecbb 5490 c5b9
0.01892302 -0.011869415 -0.010608405 -0.0074113645 -0.0055801356 -0.0039746035 0.0051795626 -0.008097194
0.019706717 -0.023649946 -0.020768248 0.0172477 -0.0042017563 -0.0062300675 0.009686676 0.003857375
-0.0017945096 -0.00670793 -0.028494965 -0.008513295 0.006922008 -0.00904022 0.008203759 -0.01954611
0.010968138 -0.0072259805 -0.000376823

tfeb.15.running_var f4 [27]
00000000: e5b1 c839 db7c ba39 c459 7d39 c2ce e139
00000010: cc98 8e39 0da3 2e3a 51a0 713a c982 da39
00000020: c8bc 9c3a 07a2 453a 2f78 653a 9d29 1c3a
00000030: 3b58 9a3a cbb0 4239 ef52 8b3a a3e9 163a
00000040: e1ab bf39 cccc 4d39 cb2d 053a c426 ad3a
00000050: 837d 343a 0587 113a b2f2 aa39 4216 b839
00000060: 426f aa39 0b99 eb39 e840 b53a
0.00038279514 0.0003556971 0.000241614 0.0004306939 0.00027198193 0.00066618697 0.00092173094 0.00041677643
0.0011958117 0.00075390976 0.00087535655 0.00059571286 0.0011775562 0.00018567142 0.0010629575 0.00057568605
0.0003655842 0.00019626616 0.0005080371 0.0013210406 0.0006885158 0.00055514305 0.0003260575 0.00035111798
0.0003250782 0.0004493672 0.0013828548
